logs/biosr_ccps_rcan_model-SRCNN_250304_lr0.0001_bs1_Ps256_Npatch128_N300/model_019.pth (torch, 695046 bytes, 15 tensors)

conv1.weight f4 [64, 1, 9, 9]
000000 4c 05 8b bc 62 96 8c bd c5 99 ba 3c 54 0d 49 bd
       -0.0169703 -0.06864621 0.022778401 -0.049084976
000010 5b de 93 3d ce 67 eb bd 81 61 eb 3d 6e 85 52 3d
       0.07220145 -0.114944085 0.11493207 0.05139678
000020 19 18 ac bd ad 96 97 3d 86 d2 a9 bc 2f f8 8e bd
       -0.08403034 0.07401786 -0.020730268 -0.06980931
000030 20 56 52 bc 0b c4 bd 3d e4 ef 57 3c 0e dd 82 bd
       -0.012837917 0.09265908 0.013179753 -0.06389819
000040 51 5d cf bd 3b aa 84 3d 35 22 3c 3d b2 16 c2 3c
       -0.101252206 0.064777814 0.04593106 0.023692463
000050 49 ce b3 bc 4f aa 3b 3d 07 42 4b bd df 04 51 3d
       -0.02194895 0.045816716 -0.049623515 0.051030036
000060 d0 5a 7c bd 7b 19 e0 3d b6 cd 9a bc 24 9a de bd
       -0.061610043 0.1094236 -0.018896919 -0.10869244
000070 0c e9 6a bd 18 e0 c0 bd cb b5 09 3d b2 cc 04 3d
       -0.057351157 -0.094177425 0.033620637 0.032421775
000080 16 84 a8 3d 82 de ca bc 78 6e 75 bd 08 49 2a bd
       0.082283184 -0.024764303 -0.059919804 -0.041573554
000090 9c 52 67 3d 3c 8b b6 bc f0 6b 07 bd e8 a6 da 3d
       0.056475267 -0.022283189 -0.03306192 0.10676366
0000a0 8b 8d 82 3d 89 ab 9d 3d 81 d2 dc bd 00 de bb 3d
       0.063746534 0.07698733 -0.10782338 0.091732025
0000b0 65 89 e3 bd 55 92 c6 bd 7e ad e9 3d 1e 21 b6 3d
       -0.1111019 -0.09695879 0.11410044 0.08893035
0000c0 21 cd 79 bd 7c ed 9b bd a3 7c 76 bc ab b8 a2 3c
       -0.06098664 -0.07613656 -0.015044364 0.019863447
0000d0 99 6e 05 bc 21 55 12 bb 10 51 aa bd 75 9d e8 bc
       -0.008144044 -0.0022328573 -0.08316243 -0.028395394
0000e0 c3 a7 4f 3d 0a 68 55 bd c3 65 cf 3d 13 71 c5 3d
       0.0506971 -0.052101173 0.101268314 0.09640708
0000f0 26 3e d3 bd bc 4d d4 bd cd d5 be bd 48 5e 1b 3d
       -0.10314588 -0.10366389 -0.09318123 0.03793171
000100 81 72 c9 3d 25 35 91 3d c8 e4 96 bd 8e 8e 0d bd
       0.09836293 0.07090215 -0.07367855 -0.03455978
000110 41 60 96 3d 43 b9 d3 3d 5a 5c b3 3d d1 c8 e2 3d
       0.07342578 0.1033807 0.08757849 0.11073459
000120 cf 4d c5 bd e5 4b 11 3c 70 f6 42 bd 82 9e c2 3d
       -0.096339814 0.008868192 -0.047598302 0.09502889
000130 09 81 dc bc 31 03 a0 bd 43 7c 31 3d d9 d1 e3 3d
       -0.026916998 -0.07813109 0.043331396 0.1112401
000140 28 b0 07 3d 35 f5 75 bd 2b 53 8a 3c 4d e1 3b 3d
       0.03312698 -0.0600483 0.01688536 0.04586916
000150 d6 b5 ce 3c 7e 29 24 3d 2d 98 04 be d1 a2 84 bd
       0.02523319 0.040078633 -0.12948675 -0.06476367
000160 8d 1b bf 3c 9e ac ce 3d c3 18 8e 3c f7 13 cd bd
       0.023328567 0.10091518 0.017345792 -0.100135736
000170 a5 fb db 3b b8 12 a4 3d 66 df d3 bd ff e3 d2 3d
       0.006713348 0.08011383 -0.10345344 0.10297393
000180 5a 28 31 3d 3a 8d dd bd b6 b6 d2 3d ce 4f 94 3d
       0.043251373 -0.108179525 0.102887556 0.07241784
000190 2f 8a 9c 3d d1 23 b0 bd 1f 0c 9f 3d 5d cf dc bc
       0.07643544 -0.086005814 0.07765984 -0.026954347
0001a0 39 1d be 3d ea db 8b 3c f4 58 00 bd f0 8e 31 3b
       0.092829175 0.017072637 -0.031334832 0.0027093254
0001b0 fb 88 55 bd 39 28 9f 3d 50 17 94 bd ba 11 8c 3d
       -0.052132588 0.07771344 -0.07231009 0.068393186
0001c0 2a 2c 94 3c 30 45 bd bd 85 b4 c7 bd f2 75 00 3c
       0.018087465 -0.09241712 -0.09751228 0.00784062
0001d0 f3 c7 17 bd b6 15 cb bd 18 7d 2f bc 79 f7 ac bc
       -0.03705592 -0.099162504 -0.010710977 -0.021114098
0001e0 1d 04 50 3d e9 76 09 3c 09 21 b7 bd bd a9 26 3c
       0.050785173 0.008390167 -0.08941848 0.010172305
0001f0 41 09 d7 3c 79 b1 b5 bd 76 27 bd 3d 78 da cb bd
       0.02624953 -0.08871741 0.09236042 -0.09953779
000200 9d a3 dd bd a0 59 62 3d b0 1c 12 be 8c e8 00 3e
       -0.108222224 0.055261254 -0.14268756 0.1258871
000210 5c e4 04 bd 8d a3 9f bd 56 1b 27 3d f3 0f b3 bd
       -0.032444343 -0.07794867 0.040797554 -0.087432764
000220 2d 3c 93 3d 13 52 85 3d f3 b2 5b 3d 55 06 2a bd
       0.07189212 0.06509795 0.053637456 -0.041509945
000230 27 65 3b 3d 88 d2 8e bd 1f 36 0b 3d 47 03 23 bc
       0.045750763 -0.069737494 0.03398716 -0.009949512
000240 bf 97 a1 bc 58 20 2c bd 49 b6 34 bd 7d b4 02 3d
       -0.019725678 -0.042023033 -0.044119153 0.03191041
000250 fd 09 ba 3d 08 44 31 3d 42 da 8e 3d af c4 5b 3c
       0.09083936 0.04327777 0.06975223 0.013413592
000260 3d ca dd 3c 73 40 c6 3d 89 38 c8 3d 2a d9 72 bd
       0.027073974 0.096802615 0.09776408 -0.059289135
000270 14 a0 6e 3d 6c a1 b4 bd 72 81 62 3d cf d0 b0 3d
       0.05825813 -0.08819851 0.05529923 0.08633577
000280 d4 08 8e bd 47 19 cb bd 06 80 2c 3b 12 d8 8e bd
       -0.069352776 -0.09916931 0.0026321425 -0.06974806
000290 23 2f 77 bd bc 02 9f 3d 99 9c 01 3d 99 2f 8e 3d
       -0.060347687 0.077641934 0.031643484 0.06942672
0002a0 d9 70 ab 3c de 9f cb 3d 86 43 b6 bc 78 a0 d7 3d
       0.020927833 0.099426016 -0.022248995 0.10528654
0002b0 1d ea ea 3d 70 48 73 bc e0 ca 9e 3d b1 b9 d5 bb
       0.11470435 -0.014848813 0.07753539 -0.0065223803
0002c0 3f 85 bf 3d 3d 49 ad 3d 6c 0b aa 3d 06 3f b5 3d
       0.093515866 0.08461235 0.0830296 0.088499114
0002d0 02 ed b6 3d ae 0a 03 bd 2e c7 56 bd a6 fc b4 3c
       0.089319244 -0.031992607 -0.052436046 0.022093128
0002e0 be 77 4c 3d 0f 70 cd bc ef 69 b3 bc c4 f7 1e bc
       0.049918883 -0.025077848 -0.021901099 -0.009702627
0002f0 18 b9 d1 3d 2e e1 8c 3c 2c 61 ac bd 2f e0 7b 3d
       0.10240382 0.017197218 -0.084169716 0.061493095
000300 fe 64 c4 bc be a5 52 bc e8 8e c0 bd 2f b3 d0 bd
       -0.023973938 -0.012856899 -0.09402257 -0.101904266
000310 5c 8d f8 bc 3c 88 91 bd 67 91 ba 3d b2 9f 1b 3d
       -0.030340843 -0.07106063 0.091097645 0.037994094
000320 40 02 d2 3d ed 54 d2 bd 9d 1f c2 3d 88 04 d9 3d
       0.102543354 -0.102701046 0.09478686 0.105965674
000330 23 68 da 3d 4e 1e 3c bd bd b7 b1 bd 08 a8 82 3d
       0.10664394 -0.04592734 -0.086776234 0.06379706
000340 9c 80 e4 bd 37 4b e3 bd 2c ad 0d bd e1 28 1c 3d
       -0.11157343 -0.110983305 -0.034588978 0.038124923
000350 02 22 41 3d e9 31 e3 bc d2 13 d3 3c 83 c8 fc bc
       0.047151573 -0.02773376 0.025766287 -0.03085733
000360 32 23 c0 3c d0 86 a4 3d 8c df b5 bd 7b d8 8e 3d
       0.023454282 0.08033526 -0.08880529 0.06974884
000370 50 b3 ab bd d1 64 c4 bd 19 08 ac bd 9f dd d9 bb
       -0.083838105 -0.09589542 -0.08399982 -0.0066487337
000380 14 17 9d 3d bb 78 cd bd 50 57 76 bd 5f 36 00 bd
       0.076704174 -0.10032793 -0.06014186 -0.031301852
000390 f8 db 98 bd 6f ab 0f 3d ec 35 d8 3d 92 c6 c8 bd
       -0.07463831 0.0350756 0.1055716 -0.09803499
0003a0 c8 66 64 3d 3a 7e 4c 3d 70 13 10 bd f2 07 93 bc
       0.055762082 0.049925067 -0.035174787 -0.017948125
0003b0 f1 ab 03 be dc ca 59 bd 05 ba 2f bd 56 86 3e 3d
       -0.12858559 -0.053171977 -0.04290201 0.04651483
0003c0 e3 0c 52 3c 50 36 ab 3c 01 7e ad 3d 2c 96 f1 3d
       0.012820455 0.020899922 0.08471299 0.11796221
0003d0 01 cf 7f 3c d9 80 98 3d b8 ed d0 bc 7b 9d bf 3d
       0.015613318 0.07446451 -0.025503978 0.09356209
0003e0 21 2b d0 bc 35 cb 9e 3c 9f 64 f9 3d 17 c7 71 3d
       -0.02541119 0.019384006 0.12177395 0.059027757
0003f0 23 8c 10 3d 8c 94 1f 3d a5 79 ba 3d 94 6a c7 bc
       0.035289895 0.038960025 0.09105233 -0.024342813

conv1.bias f4 [64]
000000 2c f9 b2 bd ad ce 85 bc 7e 2c 04 be 81 b3 c6 3d
       -0.08738932 -0.016333902 -0.12907597 0.097022064
000010 5f b0 04 bd 58 b6 a1 bc 25 f2 02 bd a0 55 b6 3d
       -0.032394763 -0.019740269 -0.03196921 0.089030504
000020 e4 03 be bb 13 65 76 3c 7d cc 12 bd 5d df 95 bd
       -0.0057988036 0.015038746 -0.035839546 -0.07317994
000030 4d ab a8 3c 91 0f f3 3d e3 3d f6 bc ad b7 dc bd
       0.020589495 0.118682034 -0.030058807 -0.10777221
000040 17 11 d0 3c d4 a6 48 3a 8f 3a 5f 3c d0 0c 12 be
       0.025398774 0.0007654254 0.013624801 -0.142627
000050 fe b8 a0 3c 7d 90 b3 bd fe 60 f7 bc 4c 06 9a 3c
       0.019619461 -0.08767793 -0.030197617 0.01880183
000060 b8 36 8f bd 75 ad 90 bc 86 ad 89 bb 7f c5 23 bd
       -0.06992859 -0.017660836 -0.004201594 -0.03998327
000070 91 ad 54 bd 5f fe a2 bd f2 42 fa bc 86 42 5f 3d
       -0.05192334 -0.07958674 -0.0305495 0.0545068
000080 b1 25 98 3c fc 0b ca bd 84 17 06 be 78 a6 c2 bd
       0.01857266 -0.09865567 -0.13094908 -0.09504408
000090 16 7d 92 3b ea 07 ad bd 64 df b3 bd 49 7f 38 3d
       0.004470478 -0.08448775 -0.08782843 0.045043264
0000a0 fb 66 93 bd 27 9a c6 bd 8c 8c 46 bc 4f 1b 74 3d
       -0.07197376 -0.09697371 -0.01211847 0.059596356
0000b0 01 9e 5f bd 1e 0d 1b be 1f 4c d2 3a 09 5a 82 bd
       -0.054594044 -0.15141723 0.0016044414 -0.06364829
0000c0 84 d9 9e bc 30 b8 19 bd 1f 2b 3f bc a4 f8 f8 bc
       -0.019390829 -0.03752917 -0.011667996 -0.030391999
0000d0 5a a0 a6 bc bd dc 76 3d 93 68 93 bd 4f 85 e2 bd
       -0.020340133 0.060269106 -0.0719768 -0.11060583
0000e0 9f 37 ba bd a7 79 8d 3d 47 d8 47 3d 42 27 31 3c
       -0.0909264 0.06907969 0.048790243 0.010812582
0000f0 aa b6 4c 3c 5a 53 ce bc 30 cd b7 3d 3c e5 8a bc
       0.012494722 -0.02518623 0.08974683 -0.01695501

conv2.weight f4 [32, 64, 5, 5]
000000 3a c1 63 bd b9 64 99 bd 65 5f 74 bd 6c de b3 bd
       -0.055604197 -0.074899144 -0.059661288 -0.08782658
000010 2f d6 ae bd f7 33 6a bd 7d cd 9c bc c7 0f 36 bd
       -0.08536946 -0.057178464 -0.019140953 -0.04444864
000020 f9 90 00 bd a7 e8 00 bc 6b 26 77 bd 4f c0 49 bd
       -0.031388257 -0.007867969 -0.060339373 -0.049255665
000030 a3 59 15 bd 10 df 24 bd 60 cf d6 bc b3 15 bd bc
       -0.036462437 -0.04025179 -0.026221931 -0.023081636
000040 b0 da 7e b9 e5 5e 24 bd ec 6c 64 3c e0 ba 35 bc
       -0.00024304795 -0.04012956 0.013941985 -0.011091918
000050 a4 0c a9 3b 53 cc c7 bc 70 0b 7c bc 04 5c 33 3c
       0.0051589776 -0.024389422 -0.015383586 0.010947231
000060 55 ba b5 39 02 f1 68 bc fd 03 3c 3c d1 98 93 3c
       0.00034661838 -0.014217617 0.01147556 0.018017204
000070 02 1b ca bb 81 5e 2c bd a2 fb 06 3c 74 81 a0 3c
       -0.0061677704 -0.042082313 0.008238705 0.019592978
000080 0e a4 9d 3c 6a 6b c9 bc 53 3b 47 bd e4 14 a9 3c
       0.019243266 -0.024587352 -0.04864056 0.020639844
000090 77 77 a1 3c 85 88 fb 3b e4 8a f9 bc c1 39 23 bd
       0.019710286 0.0076761865 -0.030461736 -0.03985
0000a0 56 a7 08 3d 55 b5 e9 3b 06 ee 4e 3c 48 8c a6 3b
       0.03336271 0.007132212 0.012629991 0.005082641
0000b0 3c e3 84 bc b2 f4 06 3d 0e 70 25 bc 48 38 03 bd
       -0.016221635 0.032948203 -0.010097517 -0.032036096
0000c0 0c 78 a3 3a 1a d8 05 3b 77 0b 6a 3a 62 2d 0b 3d
       0.001247169 0.0020422996 0.00089281 0.033978827
0000d0 a7 df 1a 3b 05 9c 86 bd bc 41 a6 bd 94 c0 28 3d
       0.0023631842 -0.06572727 -0.081180066 0.04119928
0000e0 91 7a 2a bc 3b cf 23 bd b0 61 a5 bd b7 1c 1f be
       -0.010405199 -0.039992552 -0.08075273 -0.15538298
0000f0 85 ef 15 3d 89 9f 41 3c 1e 05 88 bc 40 47 85 bd
       0.036605377 0.011817821 -0.016604003 -0.065077305
000100 5d 76 f5 bd f1 b3 00 3d 81 27 a3 3c 55 1f 50 3b
       -0.11985467 0.031421605 0.019916298 0.0031756957
000110 4e 97 2f bd e2 ac 51 bd 42 78 5c bb 73 93 17 b9
       -0.042868905 -0.051190265 -0.0033641015 -0.00014455411
000120 1c 6a 4e bc 89 f4 11 bd 0e 71 e2 bc c3 11 07 bd
       -0.012598541 -0.035633598 -0.0276418 -0.032975923
000130 8d 88 65 bd 0e 3e 2e bd 0f 2b e6 bc 7a df 8c bb
       -0.056038428 -0.04253965 -0.028096704 -0.0042991014
000140 40 b7 54 bd ff fd 69 bd 56 a2 e6 bc 7e be 5d 3b
       -0.051932573 -0.057126995 -0.02815358 0.0033835466
000150 0d e0 cd bc 30 60 83 bd 9c c9 a0 bd 41 3d 06 bd
       -0.02513125 -0.06414831 -0.07850954 -0.03277326
000160 8f dd d3 bc cc a7 99 3b c5 4b f1 bc 29 42 16 bd
       -0.025862483 0.0046891924 -0.029455075 -0.03668419
000170 a0 9d e7 bb 7c 0d ef 3b 83 cd cb 3c 9c f5 68 3c
       -0.007068351 0.0072953086 0.024878269 0.014218714
000180 fe b2 ba 3a d5 af 3a bb 12 19 2c 3d 98 76 ca 3b
       0.0014244018 -0.0028486152 0.042016096 0.0061786883
000190 98 dc 4c be 90 32 99 be 79 b6 a6 be 20 b1 b4 be
       -0.20006025 -0.2992139 -0.3256109 -0.35291386
0001a0 85 8c 21 bf 26 98 d3 bd 03 33 c8 be 12 a6 d4 be
       -0.6310504 -0.103317544 -0.3910142 -0.41532952
0001b0 9a 7f 4b be 28 0f 9a be 54 9f f6 bd 26 a6 bf be
       -0.19872895 -0.30089688 -0.12042108 -0.3743145
0001c0 6d aa d6 be 9c 31 fa bd 25 e8 9d bd 70 ad 95 bd
       -0.419269 -0.122164935 -0.07710294 -0.07308471
0001d0 cf 39 2d be 3e 45 ad be 05 bd 7d be 5c 51 0c be
       -0.16916583 -0.3384189 -0.24779136 -0.13702911
0001e0 a2 a6 55 3c de 30 f7 bc 15 f9 06 be c0 f7 a2 be
       0.013040217 -0.030174669 -0.13180955 -0.31829643
0001f0 c1 42 ca be 52 f4 58 3d 9d 89 f8 3b 38 6f a1 3c
       -0.39504054 0.052967377 0.007584764 0.019706354
000200 ff 15 65 3d a8 40 e2 3c ff b2 01 3d af 90 0c bc
       0.05592918 0.027618721 0.031664845 -0.008579417
000210 7f 1f 6a bb 97 16 ef 3c 14 47 10 3d 9e 3d b3 bc
       -0.003572434 0.029185576 0.035224035 -0.021879967
000220 af 73 0e 3c 33 42 98 bc a9 fd bd 3b 98 9d 9c bc
       0.008694573 -0.018586254 0.005798061 -0.019118115
000230 4b 67 c2 bc b8 41 96 3a d8 e5 93 bc fd ed 80 bc
       -0.023730895 0.0011463678 -0.018053934 -0.015738482
000240 85 fd b1 ba 96 4e 59 bd 69 87 aa bb 0f f6 05 3c
       -0.0013579583 -0.05305346 -0.0052041304 0.008176341
000250 75 a5 22 3b e2 eb 65 bc 70 6f 15 bd d9 4c b7 bc
       0.0024817858 -0.01403329 -0.03648323 -0.022375511
000260 ed 49 86 bc aa ba 8c bd 57 9c a3 bd b7 82 c9 bc
       -0.016392672 -0.06871541 -0.07988804 -0.024598463
000270 91 11 6d 3a 3d 56 03 bc 8b 65 f8 3a 00 23 52 bd
       0.000904345 -0.008016166 0.0018951161 -0.05130291
000280 13 78 0b bd 44 79 d3 39 39 eb 17 3d df 16 1f 3c
       -0.03405006 0.00040335406 0.03708956 0.009710043
000290 a2 c6 f6 3c 4c dd 08 bc b2 36 4a 3c f9 13 60 3d
       0.030124012 -0.008353543 0.012342142 0.054706547
0002a0 11 10 07 3d 3e 06 1a 3d 89 cd 55 bc fe 2c fd 3c
       0.032974306 0.03760361 -0.013049492 0.030905243
0002b0 53 31 d6 3c 4e b4 cd 3c 8e 37 2e 3c 55 8c 5d 3d
       0.026146566 0.02511039 0.010633362 0.05408891
0002c0 69 2a 97 bd 1b 7e f8 bb 37 1e 91 3d 1b 01 78 3e
       -0.07381136 -0.0075833923 0.07085841 0.24219172
0002d0 57 db 68 bd 68 a8 15 be 0b 5b 3e bd 69 d1 72 3c
       -0.056849804 -0.14615023 -0.046473544 0.014820435
0002e0 e4 f5 ef 3d 38 55 89 bd 1d 64 37 bd c8 ed 66 3d
       0.11716822 -0.06705707 -0.04477321 0.05637911
0002f0 3e d5 6b bb 8e 8d ee 3b 7e d5 ac 39 ce 6a 87 3d
       -0.0035985257 0.007280058 0.0003296546 0.06612168
000300 fe a4 cf 3d fc f7 9b 3d ad 25 c0 bd 69 68 6c 3d
       0.10138892 0.07615659 -0.09382186 0.05771676
000310 7a 5e 2b 3e da 33 1a 3e 5f b8 93 3d ac ea 2a bc
       0.16735259 0.15058842 0.072129 -0.010431927
000320 88 4f 3b 3d 7e aa 14 3d 62 53 05 be bb 96 95 be
       0.045730144 0.036295407 -0.1302009 -0.2921656
000330 21 db b5 be 0c 7b d6 ba 5a 40 8d bc 88 3a 1f be
       -0.35518745 -0.0016363575 -0.0172426 -0.15549672
000340 ab 4c 7a be 00 04 84 be 7c 34 c5 bc 8b e2 90 bc
       -0.24443309 -0.25784302 -0.024072878 -0.01768615
000350 5e 55 c2 bd 6b ba 38 be c1 a6 4e be 93 ee 9f 3b
       -0.09488939 -0.18039863 -0.20180799 0.004880735
000360 48 76 0f bc 78 ea f4 bd d7 a8 1b be a0 81 d9 bd
       -0.008756228 -0.11958784 -0.15201126 -0.10620427
000370 e0 53 27 3c cc df c9 bc f8 ab 99 bd 52 56 fb bd
       0.010212868 -0.024642847 -0.075035036 -0.12272324
000380 9b 1f 84 bd 5e 9f 03 3d 90 a8 47 3d 5a b3 a2 bd
       -0.06451341 0.032134406 0.048744738 -0.07944365
000390 db 8a 69 bd 3a 5b a3 be b4 ee 18 3e db bc b7 3d
       -0.05701719 -0.31905538 0.14934808 0.08971568
0003a0 a8 3b b3 bd a0 09 ec bd 50 58 a8 be 05 ed 01 3e
       -0.08751613 -0.11525273 -0.32879877 0.12688072
0003b0 74 91 d4 3d 9a 0d cf bd 05 35 ae bd 5a 72 2f be
       0.103793055 -0.10110016 -0.085062064 -0.17133465
0003c0 94 c9 d6 3d 35 66 a4 3c 6d 6a 20 be 7d 9a 54 bd
       0.10487667 0.020068267 -0.15665598 -0.051905144
0003d0 c6 7f 14 bd 6a 65 b6 3c 08 b2 c4 3a 0b b4 a3 be
       -0.036254667 0.022265155 0.0015006671 -0.319733
0003e0 c0 e1 32 be 6e 03 0d bd 77 72 89 bc a7 43 68 bc
       -0.1746893 -0.0344271 -0.016778214 -0.014176286
0003f0 a8 68 31 3b 13 4e b6 bd 36 6f 1c be 05 93 fb bc
       0.0027070437 -0.0890161 -0.15276799 -0.030709753

conv2.bias f4 [32]
000000 d6 2c e4 3b 9e 38 d8 3c 1b b5 02 3c ca fc 8b 3c
       0.0069633527 0.026394185 0.007977749 0.017088313
000010 8e 31 c3 bc 87 c8 5f 3c 30 65 bb bc c8 d3 07 3d
       -0.02382734 0.013658649 -0.022875398 0.033160955
000020 44 7d b7 3c 33 4d 9a bc 97 ee ea bc 57 87 69 3b
       0.022398598 -0.01883564 -0.028678222 0.0035633647
000030 58 c4 af 3b 2a 4d 45 bb 70 a3 22 bd 2a 77 1e bd
       0.005363982 -0.0030105808 -0.039706647 -0.038687862
000040 35 a4 8a 3d ec 61 07 bd 17 4b be bc eb b1 34 bd
       0.06769601 -0.03305237 -0.023229165 -0.04411499
000050 d2 fa 90 bc ad 72 37 3c 67 fb 70 bb 93 e2 10 bd
       -0.017697725 0.011196774 -0.0036770941 -0.035372328
000060 5c e0 81 bc 56 2f f8 bc 04 86 d5 b9 9f 54 36 3d
       -0.015854053 -0.030296009 -0.00040726375 0.044514295
000070 01 46 fa 3b 9a 4c 65 3d 14 50 b8 bc 7e 76 37 bd
       0.0076377396 0.055981256 -0.022499122 -0.044790737

conv3.weight f4 [1, 32, 5, 5]
000000 85 f3 37 be b0 28 98 bd d6 83 0b be cb 35 1b be
       -0.17963989 -0.074296355 -0.1362451 -0.15157239
000010 b5 b3 11 be c3 8d 2d bd 44 bd b4 bc bf 0d 6a bd
       -0.14228709 -0.042371523 -0.022062905 -0.057142016
000020 c5 13 d4 bc 87 c2 99 bd 73 b2 78 bd 22 2a ac bb
       -0.025888333 -0.07507806 -0.060717057 -0.005254046
000030 e3 39 9e bd 38 16 35 bd c2 ae c9 bd e0 bf 4b bd
       -0.07725885 -0.044210643 -0.098477855 -0.049743533
000040 7c 2f 1a bd 3d 96 6d bd 67 43 41 bc 2b b3 13 bd
       -0.03764294 -0.058004607 -0.011795855 -0.03605954
000050 d9 23 85 bd a4 f1 27 bd a3 56 83 bd 1e 28 54 bd
       -0.06500978 -0.04100193 -0.06413009 -0.05179607
000060 8f df c8 bd 48 34 59 3c fb 31 fc 3c a8 cf d1 bb
       -0.098082654 0.013257094 0.030785551 -0.0064029284
000070 a7 e3 0d 3d 8b e4 05 3d 84 14 c0 bc 8f b8 22 bc
       0.034640934 0.03268866 -0.023447283 -0.0099316975
000080 b9 a0 a6 bb 9c 51 de bb 01 dc 75 3c 4d fc 94 ba
       -0.0050850776 -0.006784631 0.015006066 -0.0011366695
000090 5b f9 be 3b ab cf 25 bc f8 c2 63 bc 6f 1a 85 3c
       0.0058280653 -0.010120313 -0.013901465 0.016247956
0000a0 5e 65 c2 bc 37 50 f5 3c d3 b8 4a bc dd eb 05 3d
       -0.023729976 0.029945476 -0.012373167 0.03269564
0000b0 59 df e1 b9 bd 06 63 bd 40 74 79 bc 8d 95 01 bd
       -0.0004308175 -0.055426348 -0.01522547 -0.031636763
0000c0 ed 88 bc bc d8 1c 53 bd eb aa 31 3d 23 29 7f 3d
       -0.02301451 -0.05154118 0.04337589 0.06229509
0000d0 60 b7 c1 3d a0 04 8f 3d c1 2b b0 3d 41 86 b2 3d
       0.09458804 0.06983304 0.086020954 0.08717013
0000e0 34 a0 96 3d 5d 07 3a 3d 4e 58 83 3d c8 c9 85 3d
       0.07354775 0.04541718 0.06413327 0.06532627
0000f0 5f ac 98 3d 97 b2 98 3d d9 3e 77 3d 20 90 1f 3d
       0.07454752 0.07455938 0.06036267 0.038955808
000100 7e bc 99 3d 1c 4d 78 3d 79 86 a8 3c 99 c8 68 3d
       0.07506655 0.060620412 0.020571934 0.05683193
000110 3d 02 86 3d fe cc 4d 3d 7f ab 8d 3d 28 bc 04 3d
       0.06543396 0.050244324 0.06917476 0.032406002
000120 37 50 0c 3d df 80 e9 3c 3b d3 9a 3d 49 e4 9f bd
       0.034256186 0.028503833 0.0755982 -0.07807214
000130 41 5a cd bc 99 40 f1 bb 48 5d e8 3b cc fb b3 bc
       -0.02506745 -0.007362437 0.007091198 -0.021970652
000140 38 33 b3 bc a6 18 c4 3c 3d 32 34 3c 69 37 10 3d
       -0.021875009 0.023937535 0.010998306 0.035209093
000150 e8 ee ba 3c 8d 89 47 bc 27 d6 fa ba f1 79 2a 3a
       0.022818998 -0.012178791 -0.0019137309 0.0006503156
000160 98 f5 e2 3c 31 f1 57 3c 62 3d 0a bc 66 59 36 3c
       0.027704999 0.013180063 -0.008437486 0.011129713
000170 1c ac 3f 3c c1 67 b8 3c 5f 20 df 3c 41 66 1b bd
       0.011698749 0.022510411 0.027237115 -0.037939314
000180 05 76 03 3c 30 5f ef b9 b8 95 09 3c f2 43 3e 3c
       0.0080237435 -0.00045656553 0.008397512 0.011612879
000190 b1 c6 46 bd 5e 4d f3 bb 36 80 bd bc 4f e1 f8 bb
       -0.04852933 -0.0074249944 -0.023132425 -0.0075952183
0001a0 f1 d6 1a bb ec ad c4 bc ca 63 16 bc ef 9e ad ba
       -0.002362665 -0.024008714 -0.009179065 -0.0013246218
0001b0 7c ac 0f 3c 03 f2 21 3d b1 5c b8 bc 97 0b 43 3c
       0.008769151 0.03953744 -0.022505136 0.011904619
0001c0 e3 99 af 3b 7f 0b d7 3b 76 ba ad bb 05 36 59 ba
       0.005358921 0.0065626497 -0.005301769 -0.00082859426
0001d0 7e 35 8d bc cf bb c0 bc 28 60 93 3a 1b 9b 46 3d
       -0.017237421 -0.023527054 0.0011243867 0.048487764
0001e0 43 47 c4 3d 45 40 56 3d d3 51 43 3d 76 74 a1 3d
       0.095839046 0.052307386 0.047685456 0.07883541
0001f0 04 05 82 3d 26 13 24 3c 6a b5 f2 3c bc b5 c4 3c
       0.06348613 0.010014331 0.02962752 0.024012439
000200 1a 53 3a 3d 1a 60 d3 3c 8e d7 a0 3b c9 80 31 3d
       0.045489408 0.02580266 0.0049085086 0.04333571
000210 83 8d c6 3b 20 b8 47 bc 8c 4f b2 bb 92 0b 2c 3c
       0.00605935 -0.012189895 -0.0054416116 0.010500805
000220 42 56 d5 3c 84 3b 90 3c 8e cd 12 3c 36 a1 a4 3c
       0.026042107 0.017606504 0.008960141 0.020096403
000230 d6 3b 47 3d 12 01 22 3d 04 f3 3b 3d 91 a5 d9 3c
       0.04864105 0.039551802 0.045886055 0.026568206
000240 b5 27 a0 bc a2 3d 0d 3d ae ed 20 bc 87 09 92 3c
       -0.019550184 0.034482606 -0.009822292 0.017826809
000250 a5 90 09 3c 7e 67 c8 bb ae f3 6a bc b3 7d b0 bc
       0.008396302 -0.006115853 -0.014340324 -0.021544313
000260 9e d6 b9 bc 0b 17 69 3c cb f5 96 3d e5 a9 72 3b
       -0.022685345 0.014226685 0.073711 0.0037027535
000270 f9 38 0f bc cb 86 01 bd ec 9b bb bb f4 2e 72 3c
       -0.008741611 -0.03162269 -0.0057253744 0.014781702
000280 72 60 f9 3a 8b 88 1e bd 69 fa c6 bc 66 e3 07 bd
       0.0019025935 -0.038704436 -0.024289327 -0.03317585
000290 5f 83 1d 3d e8 ff 25 3c f7 20 fb 3b 77 d6 15 3c
       0.038455363 0.010131814 0.007663842 0.009145371
0002a0 88 9d fa bc 24 92 81 3c 6a a7 a6 3c 62 27 1f 3d
       -0.030592695 0.015816756 0.020343501 0.038855918
0002b0 bc cb b7 3c 16 51 c7 3c e0 d1 c9 3d 76 84 d3 3d
       0.022436015 0.024330657 0.098544836 0.10327999
0002c0 0a 37 74 3c e5 5c b3 3c 1a bc 22 3d f9 f0 22 3d
       0.0149057 0.021894882 0.03973017 0.03978059
0002d0 a7 3a 18 3d 47 a8 04 bd 16 a9 ba bc 46 23 c1 3a
       0.03716531 -0.032387044 -0.022785705 0.0014735244
0002e0 9c 55 88 bc 18 59 13 3d 4e 50 38 bd 06 c8 c9 3b
       -0.016642384 0.03597364 -0.04499846 0.006157878
0002f0 fc b1 25 bd 00 82 38 bd 15 20 9d 3c ff e9 29 3c
       -0.040452942 -0.045045853 0.019180337 0.01037073
000300 7b 6c 7f bc 51 5d 26 bd 7b 0a 2c bd 0d bb 96 3d
       -0.015589829 -0.040616337 -0.042002182 0.07359896
000310 dc 28 e8 bc 14 1b cd 3b 3b a6 3d bb d8 be 27 bd
       -0.028339796 0.0062593315 -0.0028938192 -0.040953487
000320 0e 76 a1 bc c7 99 c4 3c 51 cf 06 bc c8 16 88 3c
       -0.019709613 0.023999108 -0.008228139 0.016612425
000330 59 3e 8f 3c ff 66 02 bd 73 71 dc 3c 4d 83 7c 3c
       0.017485784 -0.031836506 0.026909566 0.015412164
000340 80 4b 9f bc 72 ae f7 3c bd de b3 bb 07 ad dc bb
       -0.01944518 0.03023455 -0.005489199 -0.0067344937
000350 f6 65 8f 3c ff ac 03 3c 1e c2 87 3c 7e 38 d8 bb
       0.017504673 0.008036851 0.016572054 -0.0065985313
000360 ac 21 d2 3c 0b ac dc 3b 0b 74 18 3d c0 44 ad 3c
       0.025650822 0.0067343763 0.037220042 0.021150947
000370 a8 70 bc bd 2c 63 12 bd e6 07 b5 bc 19 1c 12 bc
       -0.09201175 -0.03573911 -0.022098493 -0.008917832
000380 7b d0 88 bc 89 2a ec 3b a7 dc 70 3b ca d1 2c 3c
       -0.016700974 0.007207219 0.0036752613 0.0105480645
000390 da d0 99 3d c4 20 7e 3d 7c ce 96 3b 26 42 1b bc
       0.075105384 0.062042966 0.0046022516 -0.00947622
0003a0 d4 30 27 3d bb 82 e0 3c 97 03 8e 3d 3c 73 92 bc
       0.04081805 0.027406087 0.069342785 -0.017877214
0003b0 12 fb 4b 3c b2 34 ce 3c ac e4 a9 bc b3 d8 0d 3d
       0.012449997 0.025171611 -0.020738922 0.03463049
0003c0 22 d5 9f bb 43 77 3b b8 0f 40 8e bb a7 7e ba 3b
       -0.0048777023 -4.4695345e-05 -0.0043411325 0.0056913677
0003d0 79 76 b5 39 58 0d ad 3b 9d 0b dc 3c 07 49 46 bb
       0.0003461128 0.0052811317 0.026861006 -0.003025593
0003e0 72 6d c4 3c 7a 2e 44 3d 1b a3 1e 3d 3f dd ab bb
       0.023977969 0.047895886 0.03872977 -0.0052448804
0003f0 ca cb ac 3c 90 85 3d 3c 45 65 8d 3d d4 17 f5 bc
       0.021093268 0.011567488 0.06904081 -0.029918589

exp_avg f4 [64, 1, 9, 9]
000000 db 13 35 3a af b8 43 3a 07 a4 53 3a e3 37 85 3a
       0.0006907561 0.00074661797 0.0008073453 0.001016375
000010 68 5d 97 3a ed 7c 9b 3a 62 b9 99 3a 5a 3d 87 3a
       0.0011548223 0.0011862792 0.0011728222 0.0010317967
000020 df f2 60 3a df 79 3c 3a 8b 67 50 3a 8f af 79 3a
       0.00085811125 0.0007189791 0.00079499994 0.00095247565
000030 9e 1a 9c 3a d6 8b b8 3a bf e1 b2 3a 69 e5 92 3a
       0.0011909788 0.001407976 0.00136476 0.0011207286
000040 f7 81 90 3a 61 c6 46 3a 5f c8 32 3a e2 f3 73 3a
       0.0011025061 0.00075826613 0.0006820019 0.0009306056
000050 7e a4 95 3a 69 fd ba 3a 0d ca c7 3a f7 e6 c2 3a
       0.001141682 0.0014266196 0.0015242711 0.0014869858
000060 48 d8 ad 3a 11 42 88 3a d3 6a 4e 3a 7b 7a 47 3a
       0.0013263309 0.0010395666 0.00078741944 0.00076094986
000070 61 f4 6f 3a 1f cc a3 3a bb 0d c8 3a c3 71 d5 3a
       0.0009153542 0.0012496746 0.0015262881 0.0016284514
000080 24 32 cf 3a 4a 93 a0 3a be 77 76 3a 4f 13 37 3a
       0.001580779 0.0012250927 0.0009401998 0.0006983773
000090 9b 20 6a 3a 57 b6 8e 3a d7 6b 96 3a 84 7d b6 3a
       0.000893125 0.0010888082 0.001147623 0.0013922905
0000a0 64 d7 ca 3a 6f ac b0 3a 9e 6b 87 3a 63 83 5b 3a
       0.0015475568 0.0013479124 0.0010331755 0.0008373765
0000b0 e3 b5 1d 3a af d2 61 3a 9a ae 8d 3a 12 f8 9f 3a
       0.0006016178 0.0008614463 0.0010809482 0.0012204668
0000c0 11 5b a6 3a 83 f4 aa 3a 1e 9a 8c 3a 53 ba 43 3a
       0.0012691935 0.0013042841 0.0010727083 0.0007466424
0000d0 a2 d6 39 3a 95 b5 f4 39 b8 da 3a 3a 93 f2 84 3a
       0.0007089173 0.00046674596 0.00071279285 0.0010143094
0000e0 92 76 82 3a 30 8a 82 3a b5 88 89 3a df 9f 5b 3a
       0.000995355 0.0009959396 0.0010493012 0.00083780097
0000f0 2d e1 22 3a 9d aa e0 39 d7 17 f1 39 b7 d5 4e 3a
       0.00062133634 0.00042851726 0.00045984864 0.00078901224
000100 d8 8b 6e 3a cc ed 74 3a c7 c1 61 3a 8c 0a 38 3a
       0.0009099818 0.0009343296 0.0008611944 0.00070206146
000110 92 25 16 3a 97 33 fe 39 60 dd 87 39 84 69 80 39
       0.00057276443 0.00048485093 0.00025914144 0.00024492678
000120 8f 80 45 3a cb 6f 50 3a 88 34 60 3a 43 c6 52 3a
       0.00075341103 0.0007951229 0.00085527496 0.00080404076
000130 ba 52 28 3a 22 a8 f8 39 da 2d c3 39 ed f6 bf 39
       0.00064210186 0.00047427515 0.0003722746 0.00036614333
000140 62 4e bf 39 df 7c c9 39 7c 75 e9 39 14 94 16 3a
       0.0003648876 0.00038430744 0.00044528756 0.0005744111
000150 b1 2d 19 3a 72 5d 2a 3a de 2e 1f 3a d1 af 0a 3a
       0.00058432954 0.000649891 0.00060723524 0.0005290481
000160 0b e8 01 3a 8f 59 0e 3a b0 b3 da 39 d7 76 dd 39
       0.00049555366 0.00054302154 0.00041714078 0.00042240947
000170 29 43 15 3a d5 e0 2c 3a 28 1b 29 3a 61 35 26 3a
       0.00056939066 0.0006594782 0.0006450885 0.00063403515
000180 b3 91 0e 3a 15 56 0c 3a c5 33 0d 3a 24 64 b0 39
       0.0005438581 0.00053534034 0.00053864374 0.00033643947
000190 76 0e da 39 89 a1 0b 3a eb f4 2e 3a 67 8f 2e 3a
       0.00041590974 0.00053265 0.0006674069 0.0006658942
0001a0 cd 0c 2b 3a 3f 7f 1a 3a f1 cd df 39 11 18 24 3a
       0.000652504 0.0005893595 0.00042687313 0.00062596897
0001b0 66 a1 a7 39 d6 7d e6 39 d1 65 ea 39 00 d6 13 3a
       0.00031972973 0.00043962774 0.00044707817 0.00056394935
0001c0 75 47 28 3a ed 1b 0a 3a 1c 60 06 3a 65 6c 05 3a
       0.00064193393 0.00052684435 0.0005126016 0.00050896994
0001d0 f5 ad 00 3a ee 51 9a 39 28 dd b5 39 56 94 f4 39
       0.0004908734 0.0002943421 0.00034687785 0.00046649826
0001e0 37 5a 00 3a f2 4b 18 3a b6 c4 15 3a 89 be fc 39
       0.00048962556 0.00058096566 0.0005713211 0.00048207145
0001f0 ae 81 da 39 be 4e d1 39 89 50 87 39 14 8d b4 39
       0.0004167682 0.00039922254 0.0002580921 0.00034437387
000200 b2 06 e1 39 69 4e df 39 69 07 08 3a 00 6e ec 39
       0.00042920333 0.00042592295 0.00051890925 0.00045095384
000210 b9 ae ca 39 d3 44 b5 39 5b f0 d8 39 f6 68 96 39
       0.0003865862 0.00034574288 0.0004137781 0.00028688431
000220 94 34 9d 39 7b 97 9f 39 d6 f2 c6 39 42 b4 dc 39
       0.00029984547 0.00030439705 0.0003794643 0.00042095972
000230 bb ba aa 39 08 66 bb 39 d6 6f a2 39 b8 dc cd 39
       0.00032564052 0.0003574344 0.00030982372 0.00039265095
000240 03 d2 b1 39 64 72 94 39 df 9e d2 39 d9 df a1 39
       0.00033916542 0.00028313987 0.0004017269 0.00030875092
000250 f9 45 92 39 fb 5f 9b 39 21 1e b1 39 c0 19 a1 39
       0.00027899424 0.00029635415 0.0003378252 0.00030727498
000260 a1 49 b4 39 61 bd a6 39 59 90 a8 39 a8 f1 a4 39
       0.00034387133 0.00031803086 0.00032151004 0.00031460566
000270 16 7c 57 39 79 26 61 39 7b 4a 8f 39 7c 26 77 39
       0.00020550223 0.00021472004 0.00027330578 0.00023570092
000280 0c 2c 83 39 22 05 bc 39 2a d7 8f 3a 02 d4 95 3a
       0.00025019085 0.00035861979 0.0010974158 0.0011430981
000290 41 ec 86 3a 8d 90 62 3a a0 a0 36 3a 3b 4c 05 3a
       0.0010293798 0.00086427556 0.0006966684 0.00050849066
0002a0 1d d5 e0 39 24 d4 d0 39 ae 9f e8 39 53 4e 93 3a
       0.0004288339 0.0003983091 0.0004436946 0.0011238552
0002b0 6b 77 94 3a f6 40 8c 3a e9 2b 6b 3a 9b 7e 44 3a
       0.0011327093 0.0010700512 0.00089710817 0.00074956723
0002c0 00 3d 0a 3a b2 08 db 39 85 b2 c9 39 4e 09 d9 39
       0.0005273372 0.00041777414 0.00038470715 0.00041396398
0002d0 af 5f 91 3a 81 ac 92 3a fd 42 90 3a 7a 8b 82 3a
       0.0011091138 0.0011190326 0.0011006292 0.000995978
0002e0 20 0a 54 3a f8 78 25 3a 4b 2e 04 3a 3b 8c f2 39
       0.0008088667 0.0006312276 0.00050422986 0.00046262317
0002f0 d1 41 f3 39 23 24 87 3a 71 d0 92 3a f9 2c 8c 3a
       0.0004639761 0.0010310452 0.0011201036 0.0010694555
000300 71 ac 7c 3a 98 30 5b 3a eb 8d 37 3a 0e 26 1e 3a
       0.0009638733 0.0008361428 0.00070020434 0.0006032892
000310 f4 6b 0b 3a 35 e5 11 3a a1 30 82 3a a7 6d 8c 3a
       0.00053185155 0.00055654655 0.0009932705 0.0010713831
000320 53 59 8a 3a 30 73 82 3a f7 03 5b 3a 04 94 3a 3a
       0.0010555185 0.0009952541 0.0008354778 0.0007117393
000330 73 40 18 3a 39 fe 16 3a 44 f5 1c 3a 32 f4 82 3a
       0.00058079435 0.0005759928 0.0005987475 0.0009990989
000340 b0 fb 85 3a 09 e1 8d 3a 9a a9 83 3a 78 99 51 3a
       0.0010222103 0.0010824512 0.0010045052 0.0007995586
000350 c2 e4 39 3a 36 fa 2e 3a de 0a 19 3a ee e1 1e 3a
       0.00070912775 0.00066748576 0.0005838106 0.0006060888
000360 a7 81 7e 3a bf d7 81 3a 04 bc 83 3a ae 72 80 3a
       0.0009708651 0.0009906216 0.001005054 0.0009799802
000370 9b 6d 69 3a 66 ec 4c 3a b7 19 2c 3a 9e db 0a 3a
       0.0008904577 0.00078172085 0.0006565111 0.0005297008
000380 a2 cc 11 3a 67 d0 83 3a f0 cb 83 3a 13 7f 84 3a
       0.00055618037 0.0010056616 0.0010055285 0.0010108672
000390 53 8f 7d 3a c8 a6 5f 3a 90 c7 31 3a 06 5c 20 3a
       0.0009672541 0.0008531627 0.0006781751 0.0006117228
0003a0 01 d6 04 3a 6b 63 08 3a 2f 62 82 3a dc 6c 88 3a
       0.00050672895 0.0005202803 0.0009947474 0.0010408419
0003b0 ab 00 8a 3a 26 06 77 3a 8e 0e 5d 3a 35 05 47 3a
       0.0010528764 0.00094232184 0.000843265 0.00075920235
0003c0 08 65 1e 3a 64 c7 16 3a 86 29 0b 3a b3 e5 52 3b
       0.00060422765 0.00057517574 0.00053086167 0.0032180368
0003d0 44 d5 55 3b b6 c6 57 3b 74 00 57 3b 96 90 57 3b
       0.0032628337 0.0032924837 0.0032806667 0.0032892576
0003e0 8d 6c 59 3b 03 21 58 3b 54 88 57 3b 64 42 52 3b
       0.0033176274 0.003297866 0.0032887654 0.003208303
0003f0 1c 17 53 3b 29 ee 56 3b 92 35 59 3b 87 b2 56 3b
       0.003220982 0.0032795763 0.0033143503 0.003276022

exp_avg_sq f4 [64, 1, 9, 9]
000000 59 ce 82 3a cc 7d 81 3a 34 91 88 3a 77 cf 85 3a
       0.0009979709 0.0009879409 0.001041925 0.0010208924
000010 d1 52 8e 3a c3 43 82 3a 28 8b 8e 3a 78 5d 88 3a
       0.0010858421 0.0009938407 0.0010875212 0.0010403832
000020 34 f8 7c 3a 2c ef 88 3a c5 9a 85 3a be f3 84 3a
       0.0009650022 0.0010447255 0.001019322 0.0010143442
000030 72 a1 8a 3a 08 3a 93 3a 72 f9 8c 3a d2 9a 85 3a
       0.0010576679 0.0011232505 0.0010755493 0.0010193235
000040 dc e0 80 3a 56 8c 87 3a 0e bb 87 3a 0a e1 88 3a
       0.0009832638 0.0010341506 0.0010355429 0.0010443043
000050 f5 2f 89 3a aa db 90 3a ea 15 8c 3a 42 c5 91 3a
       0.0010466563 0.0011051793 0.0010687683 0.001112141
000060 22 45 87 3a f7 3c 8e 3a d1 28 83 3a af 21 7e 3a
       0.0010320286 0.0010851909 0.0010006671 0.00096943503
000070 ec 93 84 3a 97 54 85 3a 50 b6 90 3a 5c e1 91 3a
       0.0010114885 0.0010172304 0.0011040661 0.0011129784
000080 d0 ee 93 3a 3a 04 89 3a fe 5c 83 3a c5 3d 81 3a
       0.0011286382 0.001045353 0.0010022221 0.0009860328
000090 dd 60 88 3a 2b 7a 86 3a 9d ca 88 3a 2f 10 95 3a
       0.0010404844 0.0010259798 0.001043636 0.0011372621
0000a0 fb f2 92 3a 58 d3 91 3a 1c db 82 3a c3 88 8b 3a
       0.001121133 0.0011125607 0.0009983513 0.0010645617
0000b0 4b dc 79 3a 59 80 7e 3a 82 3e 8e 3a 90 7d 8f 3a
       0.00095314224 0.00097084563 0.0010852369 0.0010947455
0000c0 4b b0 87 3a 11 31 87 3a 9a 0e 89 3a e6 22 88 3a
       0.0010352222 0.0010314306 0.0010456622 0.0010386377
0000d0 9f d5 83 3a 47 15 82 3a c7 fd 7e 3a 6d 8d 84 3a
       0.0010058171 0.0009924554 0.0009727147 0.0010112949
0000e0 8e 26 8b 3a 91 d4 85 3a b3 31 8f 3a c2 16 8d 3a
       0.0010616349 0.0010210444 0.0010924846 0.0010764229
0000f0 b3 d0 7d 3a c5 a1 7a 3a 1a b7 78 3a 99 79 85 3a
       0.00096822827 0.00095608487 0.00094877335 0.0010183334
000100 2e 1a 8b 3a 14 ad 8a 3a 29 93 82 3a 46 a4 84 3a
       0.001061266 0.0010580146 0.000996207 0.0010119758
000110 11 75 89 3a 1d 67 89 3a 68 08 87 3a 8b 7c 87 3a
       0.0010487159 0.0010483001 0.0010302188 0.0010336799
000120 23 86 7a 3a 92 5b 84 3a d6 0d 82 3a 6b b5 8a 3a
       0.0009556731 0.0010098091 0.0009922336 0.0010582631
000130 64 04 83 3a b0 56 7e 3a 87 e5 84 3a a0 fb 87 3a
       0.0009995815 0.00097022485 0.0010139205 0.0010374673
000140 69 d3 82 3a 90 b0 12 39 0e 6f 1c 39 ca c9 21 39
       0.0009981218 0.0001398942 0.0001491869 0.00015429329
000150 2b d6 22 39 db db 23 39 66 43 15 39 7c aa 19 39
       0.00015529308 0.00015626794 0.00014234855 0.00014654727
000160 78 69 20 39 be 60 26 39 ad 0c 1b 39 5c 05 16 39
       0.00015298079 0.00015867033 0.00014786674 0.00014307111
000170 42 4f 22 39 83 21 2d 39 eb f9 1b 39 c7 e0 2e 39
       0.0001547905 0.0001651105 0.00014875054 0.00016677669
000180 61 b3 27 39 a8 2c 19 39 12 d3 2a 39 6b dd 1f 39
       0.00015993185 0.00014607853 0.00016291093 0.00015245906
000190 3a 7e 25 39 3c c8 1b 39 87 ca 2e 39 d2 05 25 39
       0.0001578265 0.00014856545 0.0001666938 0.00015737794
0001a0 71 3c 30 39 e7 3b 27 39 26 80 21 39 81 46 23 39
       0.00016807184 0.00015948676 0.00015401896 0.00015571156
0001b0 02 0e 14 39 9c 23 23 39 50 2d 1a 39 74 87 29 39
       0.00014119598 0.00015558157 0.00014703465 0.00016167556
0001c0 42 2f 26 39 b8 15 1c 39 c6 c1 1b 39 ef a6 24 39
       0.00015848599 0.0001488541 0.00014854138 0.00015702446
0001d0 bf b4 1e 39 a4 8f 0e 39 25 f8 17 39 9a cb 18 39
       0.00015135387 0.00013595686 0.00014492923 0.00014571697
0001e0 3d a8 20 39 cc a8 1e 39 99 a2 17 39 49 c2 20 39
       0.00015321463 0.00015130936 0.00014461055 0.00015331166
0001f0 67 29 23 39 b7 43 18 39 d6 2e 19 39 e1 ac 0c 39
       0.00015560315 0.00014521075 0.00014608665 0.00013415843
000200 81 d5 0c 39 05 57 19 39 56 27 0a 39 be f7 20 39
       0.00013430977 0.00014623634 0.0001317536 0.0001535108
000210 56 d5 15 39 19 3b 15 39 6c 4c 1f 39 f3 0d 0a 39
       0.00014289221 0.00014231763 0.00015191891 0.00013165902
000220 54 cd 14 39 4d dc 12 39 29 ee 10 39 77 6c 09 39
       0.0001419087 0.00014005713 0.00013821632 0.00013105744
000230 93 aa 10 39 18 ee 0b 39 d3 60 17 39 21 24 16 39
       0.00013796454 0.0001334477 0.00014436552 0.00014318574
000240 85 be 0b 39 54 23 0a 39 93 a3 07 39 f9 2e 0a 39
       0.00013327047 0.00013173866 0.0001293554 0.00013178204
000250 8d 63 0b 39 fe 1a 0a 39 59 f3 0e 39 b6 df 0f 39
       0.00013293159 0.00013170761 0.0001363283 0.00013720882
000260 40 df 13 39 bf 88 10 39 94 32 10 39 5a 40 04 39
       0.0001410218 0.00013783852 0.00013751752 0.00012612474
000270 ec d3 08 39 6f e7 fd 38 c6 c3 07 39 4b 28 0c 39
       0.00013048918 0.00012107088 0.00012947535 0.00013366451
000280 70 52 06 39 21 5c 07 39 cc 80 1c 39 92 e2 1e 39
       0.00012809946 0.00012908924 0.000149253 0.00015152458
000290 ae 49 23 39 7b 66 2a 39 66 d2 2b 39 da 66 2d 39
       0.00015572339 0.0001625064 0.0001638621 0.00016536881
0002a0 5b f7 29 39 9a 3e 2a 39 3e 6b 23 39 8f b4 1e 39
       0.00016209243 0.00016235784 0.00015584842 0.00015135318
0002b0 e2 86 23 39 36 83 25 39 49 11 2c 39 a1 a4 2c 39
       0.00015595139 0.00015784506 0.00016409637 0.00016464527
0002c0 d9 a7 2f 39 64 37 2e 39 4e 27 2a 39 e6 2e 27 39
       0.00016751829 0.00016614568 0.00016227106 0.00015943832
0002d0 6c c0 1b 39 5a bb 1e 39 9b 3a 22 39 7a 42 27 39
       0.00014853635 0.00015137848 0.00015471356 0.00015951126
0002e0 d0 85 2a 39 a1 b8 28 39 8b 5a 27 39 c0 7d 24 39
       0.00016262312 0.00016090508 0.00015960091 0.00015687104
0002f0 2b f7 24 39 eb 86 16 39 14 9c 18 39 b6 ba 1e 39
       0.00015732336 0.00014355376 0.00014553993 0.0001513761
000300 b9 6c 1f 39 59 a8 21 39 4c 3b 1f 39 6f 52 1e 39
       0.00015203924 0.00015416871 0.00015185511 0.00015098763
000310 06 17 1f 39 b6 ff 1b 39 d7 b7 12 39 33 c2 13 39
       0.00015171999 0.00014877212 0.0001399213 0.00014091357
000320 90 d8 16 39 d5 f3 14 39 f8 ed 19 39 b2 ec 1a 39
       0.0001438579 0.00014205214 0.00014679867 0.0001477476
000330 3c b2 1b 39 12 b7 19 39 93 3e 18 39 fe 9f 0d 39
       0.0001484835 0.00014659416 0.0001451916 0.0001350641
000340 44 c7 0a 39 97 3c 0b 39 54 3e 0c 39 4d 8f 0e 39
       0.00013234938 0.00013278644 0.0001337466 0.00013595559
000350 98 6d 10 39 f3 1e 11 39 68 41 14 39 9b 93 14 39
       0.00013773737 0.00013839807 0.00014138746 0.00014169367
000360 e8 b3 08 39 4b c8 07 39 e3 2f 05 39 62 41 07 39
       0.00013036991 0.00012949218 0.00012701708 0.0001289896
000370 12 4a 05 39 53 13 07 39 c0 10 0a 39 a4 a8 0e 39
       0.00012711462 0.00012881802 0.00013166945 0.00013604999
000380 99 80 12 39 42 37 06 39 c6 0e 04 39 73 71 02 39
       0.00013971551 0.00012799821 0.00012594005 0.00012440029
000390 ac aa 01 39 df 3c 02 39 37 f1 04 39 b6 e2 06 39
       0.00012365979 0.00012420442 0.0001267836 0.00012863692
0003a0 c1 00 0c 39 ae e6 0f 39 e6 96 06 39 c0 30 04 39
       0.00013351721 0.00013723478 0.0001283545 0.00012606662
0003b0 97 b9 01 39 f5 8e 01 39 a5 11 02 39 0f 47 04 39
       0.00012371536 0.00012355654 0.00012404339 0.00012614972
0003c0 f9 cb 06 39 23 dc 09 39 f6 c9 0d 39 45 81 0c 39
       0.00012855222 0.00013147345 0.00013522044 0.00013399597
0003d0 a9 83 12 39 ca 03 17 39 e3 2d 16 39 bc c3 11 39
       0.00013972692 0.00014401894 0.00014322209 0.00013901194
0003e0 fd 43 0b 39 48 1a 06 39 48 df 02 39 50 65 00 39
       0.000132814 0.00012789026 0.00012480945 0.00012244773
0003f0 7a d8 0e 39 36 da 15 39 0e 72 19 39 dc c3 16 39
       0.00013622819 0.00014291037 0.00014633706 0.00014378078

exp_avg f4 [64]
000000 cf a7 32 3b 14 7d eb 39 49 6b 93 3a 5a 95 22 3c
       0.0027260666 0.00044915883 0.0011247183 0.0099233035
000010 3d 7f 73 3b 0e a4 46 b9 7d ba 21 39 09 83 d7 b9
       0.0037154697 -0.00018943867 0.00015423629 -0.00041105624
000020 ee df cf 3b 3e df 57 37 97 82 0c bb d4 71 a7 ba
       0.006343833 1.2866976e-05 -0.0021440142 -0.0012775012
000030 02 2c 0a 3b d8 d6 a4 ba ea 61 33 3b d9 b7 ac 3a
       0.002108336 -0.0012576235 0.0027371594 0.001317735
000040 a3 e2 f8 b9 4d d8 8a 3b 00 dd 8b b9 e5 5d 30 3c
       -0.00047471104 0.004237211 -0.00026676804 0.010764574
000050 af 32 2c 3b 01 ce 04 3a a8 06 c6 3a 85 8b bb 3c
       0.0026275327 0.00050660974 0.0015108185 0.022893677
000060 b6 9d b7 ba c9 2a cc 3a 1c ee 68 b8 56 1c 9b ba
       -0.0014008794 0.0015576716 -5.5534867e-05 -0.0011834006
000070 31 c8 4e 3b 0a 01 27 38 6f f5 f9 ba f1 73 0a 3b
       0.003155243 3.981687e-05 -0.0019070337 0.0021126235
000080 78 e2 b7 3b ae 1c 01 bb ae 6a c9 b9 1d 66 b7 3b
       0.005611714 -0.0019700932 -0.0003841719 0.0055968896
000090 e3 0e de 3b b5 03 ac 3a 34 a2 c5 ba ab 41 c0 3a
       0.006776677 0.0013123663 -0.0015078248 0.0014668008
0000a0 29 57 d6 ba d5 d0 73 3a 4c d3 76 3b 28 02 48 39
       -0.001635288 0.0009300833 0.0037662564 0.0001907429
0000b0 cc f1 c1 3b 60 fb a1 3b 03 58 ce 3a 95 4f fa ba
       0.005918717 0.0049432963 0.0015742782 -0.0019097204
0000c0 4e 47 be b9 f9 08 a0 3b b3 e2 c0 3b 46 c2 a0 3a
       -0.0003629275 0.004883882 0.0058863997 0.0012264929
0000d0 aa fd d1 3a 52 85 1b 38 e6 d5 90 bb 1c 67 2d b9
       0.0016021032 3.7079044e-05 -0.00442003 -0.00016536977
0000e0 12 67 d9 3a 31 c5 c3 3b 9e da 06 3d 33 ee 8d 3b
       0.0016586503 0.005974435 0.032923333 0.004331374
0000f0 d3 43 6f 3b ff c7 11 3b 7b 86 d7 ba 7c aa 3d 3b
       0.0036508932 0.002224445 -0.0016443277 0.0028940728

exp_avg_sq f4 [64]
000000 a3 31 fb 3b bd f3 9d 3a d5 19 9d 3a f2 57 92 3a
       0.0076658293 0.0012050789 0.0011985848 0.0011165126
000010 64 96 c4 39 e7 c5 6f 39 f2 7d 9d 39 2e 37 c0 37
       0.00037496083 0.0002286654 0.0003003921 2.2913879e-05
000020 c0 4c f2 39 74 bf 02 34 0c 9d c8 3a 35 54 31 39
       0.0004621502 1.2176844e-07 0.0015305593 0.00016911405
000030 e3 b1 a7 39 02 53 2b 39 f1 28 4e 39 dd ce a0 3a
       0.00031985258 0.00016338754 0.00019660943 0.0012268681
000040 f6 21 a0 39 27 6b c7 39 7e 64 ec 3a 81 6b 55 3b
       0.0003054288 0.00038036073 0.001803532 0.0032565298
000050 07 bc 8a 39 d6 b2 99 3a 6b e6 b7 39 e2 7e c6 3b
       0.00026461502 0.0011726271 0.00035076155 0.006057606
000060 c7 e7 b0 3a 89 ad c0 3a 28 a5 a9 35 ba ab 89 39
       0.0013496809 0.0014700155 1.2639548e-06 0.00026258623
000070 43 71 51 39 74 1e 5d 3a bb 76 a9 39 9c 7f ad 38
       0.00019973986 0.0008435019 0.00032322653 8.273052e-05
000080 76 43 84 3a d1 37 e1 3a 88 65 59 38 a9 18 7f 3a
       0.0010090906 0.0017182772 5.183139e-05 0.00097311527
000090 4f ab 11 3a 4e 38 94 3a 93 92 9a 3a ac 73 87 39
       0.0005556838 0.0011308284 0.001179295 0.0002583539
0000a0 74 41 17 39 35 27 14 3b 8d b5 83 39 13 6f d2 38
       0.00014424865 0.0022606377 0.00025121533 0.000100342695
0000b0 e5 ce d8 3a a7 b7 3c 3c 20 e6 a1 39 46 63 53 3a
       0.0016541152 0.0115183955 0.0003087977 0.0008063804
0000c0 ac a4 c7 35 59 58 f3 3a 3f b8 8a 3b 14 57 69 3a
       1.4874581e-06 0.0018565758 0.0042333896 0.000890122
0000d0 95 b6 37 39 d6 27 9a 38 92 f5 4b 3b 0a f3 dd 3a
       0.00017520257 7.350712e-05 0.0031121713 0.0016933393
0000e0 ac 41 4d 3a 37 a5 7b 3a cb c4 dd 3b cd 38 c4 39
       0.0007829915 0.0009599509 0.0067678443 0.00037426353
0000f0 74 81 92 39 4d 81 cf 39 7c ac e4 38 43 d1 93 39
       0.0002794374 0.00039578453 0.00010904015 0.00028193937
