logs/biosr_ccps_rcan_model-SRCNN_250304_lr0.0001_bs1_Ps256_Npatch128_N300/model_029.pth (torch, 695046 bytes, 15 tensors)

conv1.weight f4 [64, 1, 9, 9]
-0.016736887 -0.06839631 0.023199674 -0.048780844 0.07240206 -0.11485118 0.115251854 0.051606234
-0.084053375 0.074199304 -0.020356782 -0.069539 -0.012492405 0.09282852 0.013395631 -0.06368105
-0.10120596 0.06500785 0.0461608 0.023928551 -0.02157392 0.04617927 -0.049338467 0.051141467
-0.061379474 0.10958429 -0.018677838 -0.108643785 -0.05709428 -0.094005294 0.033934332 0.032595497
0.08238919 -0.024518263 -0.059709847 -0.041312393 0.056675814 -0.022083169 -0.032849338 0.106777914
0.06383486 0.077171795 -0.107709624 0.092022054 -0.11105297 -0.096876755 0.11416417 0.08910338
-0.06084702 -0.076119244 -0.014943001 0.020110302 -0.007920515 -0.001972479 -0.083213255 -0.028243287
0.05076812 -0.052037608 0.10132035 0.096454695 -0.10325395 -0.10375051 -0.093292795 0.038033616
0.09852597 0.071000285 -0.073639944 -0.03440224 0.07350584 0.10351118 0.08768662 0.11083225
-0.096367165 0.009068002 -0.04759337 0.09514292 -0.026749311 -0.078190714 0.043457907 0.11122246
0.03319294 -0.059727166 0.017140381 0.045985036 0.025185352 0.040180113 -0.1298191 -0.06492851
0.023191916 0.1007782 0.017611155 -0.100169286 0.0066344347 0.07986274 -0.10359707 0.102935396
0.043356773 -0.10846921 0.102836944 0.07259281 0.07657765 -0.08581744 0.07746942 -0.026888879
0.09290538 0.01717952 -0.0311899 0.0027684509 -0.051888112 0.0777339 -0.07217746 0.06857483
0.018155701 -0.09241383 -0.09727088 0.008038427 -0.03684528 -0.098981716 -0.010602893 -0.020791715
0.050970495 0.008559004 -0.0893102 0.010615486 0.026437981 -0.08839056 0.09269519 -0.09953565
-0.108058184 0.055627894 -0.14292027 0.1263123 -0.032199938 -0.077584505 0.0409574 -0.08736401
0.07213301 0.065335274 0.053847242 -0.04157371 0.045578767 -0.06966812 0.034215715 -0.009699564
-0.019745402 -0.042072214 -0.044083595 0.031912368 0.09113843 0.043257665 0.069858305 0.013559009
0.027259585 0.09675701 0.0978792 -0.05941802 0.05843583 -0.08819044 0.055255163 0.08659939
-0.06934372 -0.09922437 0.0025321827 -0.06979451 -0.060432285 0.077584766 0.031606123 0.069482
0.02104353 0.09967905 -0.021943843 0.105052754 0.114409655 -0.014797901 0.07732236 -0.0064951284
0.09315178 0.08443416 0.08286249 0.088431165 0.08909064 -0.031808674 -0.052255455 0.022121787
0.049759973 -0.024922179 -0.021667732 -0.009681774 0.102494545 0.017030952 -0.084072046 0.061285052
-0.023940949 -0.012868908 -0.09389567 -0.10167817 -0.030188851 -0.07081974 0.09084203 0.037722494
0.102319516 -0.10294759 0.09449593 0.10548666 0.10645404 -0.04600548 -0.08667633 0.06350864
-0.111990966 -0.11154982 -0.035030417 0.037794605 0.046842296 -0.028018547 0.025521012 -0.030823305
0.022985082 0.08034938 -0.08924585 0.06987331 -0.08429617 -0.09646229 -0.084398635 -0.0068385433
0.07639119 -0.100931056 -0.060661484 -0.031776685 -0.075053096 0.03502215 0.10587259 -0.0983144
0.05566157 0.049726985 -0.036137108 -0.018498762 -0.12895761 -0.05371491 -0.04347659 0.046061225
0.012574717 0.020383026 0.084346406 0.11877528 0.016180452 0.07478554 -0.02501506 0.09366331
-0.024960758 0.019692771 0.12195421 0.05957781 0.035655163 0.03896527 0.091098584 -0.024129834
00000000: cc1b 89bc 5d13 8cbd 3e0d be3c 6cce 47bd
00000010: 8847 943d 1837 ebbd 2a09 ec3d 0f61 533d
00000020: 2d24 acbd cef5 973d 44c3 a6bc 776a 8ebd
00000030: f2ac 4cbc e11c be3d 5979 5b3c 366b 82bd
00000040: 1245 cfbd d622 853d 1b13 3d3d cf05 c43c
00000050: cabb b0bc 7926 3d3d 2217 4abd b779 513d
00000060: 0b69 7bbd ba6d e03d 4402 99bc a280 debd
00000070: b1db 69bd d985 c0bd bafe 0a3d db82 053d
00000080: aabb a83d 86da c8bc 5092 74bd 2f37 29bd
00000090: e624 683d c3e7 b4bc 078d 06bd 61ae da3d
000000a0: dabb 823d 3f0c 9e3d dd96 dcbd 0f76 bc3d
000000b0: bd6f e3bd 5267 c6bd e8ce e93d d57b b63d
000000c0: ba3a 79bd 68e4 9bbd 7dd3 74bc 5cbe a43c
000000d0: 0cc5 01bc b544 01bb b66b aabd 775e e7bc
000000e0: 3bf2 4f3d 6325 55bd 0b81 cf3d 0a8a c53d
000000f0: cf76 d3bd 267b d4bd 4b10 bfbd 23c9 1b3d
00000100: fcc7 c93d 9968 913d 8ad0 96bd 5de9 0cbd
00000110: 3b8a 963d abfd d33d 0b95 b33d 05fc e23d
00000120: 265c c5bd f591 143c 44f1 42bd 4bda c23d
00000130: 5f21 dbbc 7422 a0bd eb00 323d 9ac8 e33d
00000140: 52f5 073d 79a4 74bd fc69 8c3c ce5a 3c3d
00000150: 8351 ce3c e793 243d 4cef 04be 3df9 84bd
00000160: f9fc bd3c cd64 ce3d 4545 903c 8e25 cdbd
00000170: ac65 d93b 148f a33d b32a d4bd cbcf d23d
00000180: df96 313d 1b25 debd 2d9c d23d 8aab 943d
00000190: bed4 9c3d 0ec1 afbd 4aa8 9e3d 1146 dcbc
000001a0: 2d45 be3d 11bc 8c3c f681 ffbc e66e 353b
000001b0: a188 54bd f332 9f3d c7d1 93bd f670 8c3d
000001c0: 44bb 943c 7643 bdbd f535 c7bd 9bb3 033c
000001d0: 14eb 16bd edb6 cabd c2b7 2dbc 6353 aabc
000001e0: 70c6 503d 113b 0c3c 44e8 b6bd 93ec 2d3c
000001f0: 7794 d83c 1c06 b5bd fad6 bd3d 59d9 cbbd
00000200: 9c4d ddbd 13da 633d b159 12be 0358 013e
00000210: 15e4 03bd a0e4 9ebd f2c2 273d e7eb b2bd
00000220: 79ba 933d 80ce 853d ed8e 5c3d 3249 2abd
00000230: cdb0 3a3d 29ae 8ebd c725 0c3d ecea 1ebc
00000240: 1cc1 a1bc ea53 2cbd 0091 34bd 8bb6 023d
00000250: c9a6 ba3d f32e 313d df11 8f3d 9b26 5e3c
00000260: 7e4f df3c 8a28 c63d e474 c83d 4f60 73bd
00000270: 695a 6f3d 309d b4bd 3d53 623d 055b b13d
00000280: 1504 8ebd 2636 cbbd faf2 253b 6df0 8ebd
00000290: d887 77bd c3e4 9e3d 6c75 013d 944c 8e3d
000002a0: 7b63 ac3c 8824 cc3d 93c3 b3bc e625 d73d
000002b0: 9c4f ea3d e572 72bc 2f5b 9e3d 16d5 d4bb
000002c0: 5cc6 be3d d1eb ac3d cfb3 a93d 661b b53d
000002d0: 2775 b63d d049 02bd d109 56bd c038 b53c
000002e0: 1dd1 4b3d 9929 ccbc 8780 b1bc 4ea0 1ebc
000002f0: a9e8 d13d 7f84 8b3c f72d acbd 0906 7b3d
00000300: cf1f c4bc 1dd8 52bc 5f4c c0bd a53c d0bd
00000310: 9c4e f7bc f109 91bd 630b ba3d e782 1a3d
00000320: e58c d13d 30d6 d2bd 1587 c13d 6409 d83d
00000330: 9304 da3d 3e70 3cbd 5c83 b1bd d110 823d
00000340: 855b e5bd 3b74 e4bd 0e7c 0fbd 84ce 1a3d
00000350: b5dd 3f3d 2787 e5bc 7111 d13c 2881 fcbc
00000360: 364b bc3c 378e a43d 87c6 b6bd bd19 8f3d
00000370: 78a3 acbd 058e c5bd 31d9 acbd dc15 e0bb
00000380: fc72 9c3d f1b4 cebd 2d78 78bd 4528 02bd
00000390: 70b5 99bd 6373 0f3d bad3 d83d 0f59 c9bd
000003a0: 63fd 633d 86ae 4b3d 8104 14bd b78a 97bc
000003b0: 770d 04be 2a04 5cbd 8214 32bd b2aa 3c3d
000003c0: 3006 4e3c 4efa a63c cfbd ac3d 7440 f33d
000003d0: de8c 843c 2929 993d 62ec ccbc 8dd2 bf3d
000003e0: 817a ccbc bc52 a13c 21c3 f93d dd07 743d
000003f0: 260b 123d 0c9a 1f3d e591 ba3d eeab c5bc

conv1.bias f4 [64]
-0.08722147 -0.0161258 -0.12919204 0.098012194 -0.03230708 -0.019415876 -0.032274354 0.08765611
-0.005686726 0.01038866 -0.03576646 -0.07237357 0.019202817 0.11991824 -0.031438034 -0.10737903
0.025548154 0.0015050734 0.014051378 -0.14386083 0.019404013 -0.08751213 -0.030082526 0.018984746
-0.070536636 -0.017076068 -0.008352663 -0.039865844 -0.04941306 -0.07999104 -0.030534597 0.05424164
0.017840624 -0.09837483 -0.13125984 -0.09465889 0.0031607223 -0.084662326 -0.08763403 0.044303637
-0.07183325 -0.096580125 -0.011916883 0.059139084 -0.05453699 -0.15226054 0.0013136563 -0.06551641
-0.019906715 -0.037680507 -0.011007329 -0.0310562 -0.01897607 0.06057717 -0.07182452 -0.10998975
-0.09092846 0.06982973 0.04960946 0.010839993 0.012283831 -0.025472833 0.09205476 -0.016641414
00000000: 2ca1 b2bd 411a 84bc eb4a 04be 9eba c83d
00000010: 6e54 04bd 0b0e 9fbc 1d32 04bd 0c85 b33d
00000020: b757 babb 3335 2a3c da7f 12bd 9838 94bd
00000030: 3a4f 9d3c b297 f53d 2bc5 00bd 89e9 dbbd
00000040: 5d4a d13c e245 c53a c037 663c 4150 13be
00000050: 2af5 9e3c 8f39 b3bd a16f f6bc e685 9b3c
00000060: 8375 90bd 1ce3 8bbc 9cd9 08bc 5e4a 23bd
00000070: 5965 4abd 58d2 a3bd b123 fabc 7b2c 5e3d
00000080: 8026 923c be78 c9bd fb68 06be 85dc c1bd
00000090: 1f24 4f3b 7163 adbd 7879 b3bd bb77 353d
000000a0: 501d 93bd cdcb c5bd 083f 43bc d33b 723d
000000b0: 2e62 5fbd 30ea 1bbe fe2e ac3a 782d 86bd
000000c0: 6813 a3bc e056 1abd 1658 34bc 9269 febc
000000d0: b473 9bbc c41f 783d bc18 93bd 4e42 e1bd
000000e0: b338 babd e402 8f3d 4a33 4b3d 3a9a 313c
000000f0: 1f42 493c 67ac d0bc 3587 bc3d 9353 88bc

conv2.weight f4 [32, 64, 5, 5]
-0.05456308 -0.07397566 -0.057368994 -0.08757293 -0.0880931 -0.057908356 -0.018547442 -0.04333034
-0.030403817 -0.007602187 -0.060174335 -0.048777737 -0.03537852 -0.03903124 -0.02589113 -0.02313452
0.0006716174 -0.038697243 0.01567533 -0.01031871 0.008630513 -0.022487732 -0.013647855 0.013311228
0.0042463397 -0.015262849 0.010168872 0.017917145 -0.0077519403 -0.043428972 0.0065037725 0.01651899
0.019070152 -0.025780529 -0.05058566 0.019778762 0.018393923 0.0072452636 -0.030673154 -0.040513568
0.03386943 0.008659961 0.013971084 0.006183399 -0.014907039 0.03443041 -0.009860679 -0.029617447
0.0019163053 0.0023714106 0.0030642755 0.038340613 0.007815275 -0.059641775 -0.07257989 0.044574052
-0.007064953 -0.034551136 -0.0714888 -0.14997159 0.040589284 0.017384209 -0.010049453 -0.057086688
-0.11467838 0.03544214 0.024267865 0.006901282 -0.039589383 -0.045249823 0.00023402198 0.0034482556
-0.009832449 -0.033134766 -0.024038734 -0.034039844 -0.055214643 -0.040881358 -0.027859764 -0.004833089
-0.052229322 -0.054768153 -0.02407097 0.004997435 -0.025295477 -0.06347125 -0.07282822 -0.028950816
-0.024361981 0.004515693 -0.027552247 -0.032560196 -0.0039564893 0.00834053 0.024760108 0.01602111
0.004020327 -0.0014308686 0.042523164 0.0057345503 -0.19646376 -0.29859695 -0.33875257 -0.35586935
-0.6566163 -0.101718575 -0.39467767 -0.43589368 -0.20673484 -0.3182843 -0.12100856 -0.3792444
-0.42606744 -0.12159672 -0.079306945 -0.07441343 -0.1775182 -0.34294072 -0.24711947 -0.12118979
0.012204952 -0.032976408 -0.1330539 -0.32045582 -0.40145552 0.054656774 0.009561717 0.021591347
0.0572763 0.027926834 0.032250617 -0.00825305 -0.0034487506 0.029897388 0.035240192 -0.022039814
0.010196556 -0.018351581 0.0055032005 -0.01921589 -0.024881355 0.0021194108 -0.018109284 -0.016457692
-0.002073754 -0.051774234 -0.0024287612 0.008695047 0.0016516587 -0.015662018 -0.035608847 -0.022152996
-0.016586376 -0.068665266 -0.08023184 -0.024748558 0.0014947017 -0.00821875 0.0015164998 -0.050975565
-0.033558972 -0.0006067819 0.036764458 0.0103973355 0.031242093 -0.008742227 0.011743009 0.054862976
0.033812903 0.03873572 -0.01219672 0.031139286 0.025882835 0.025649697 0.012010879 0.058146946
-0.07965254 -0.011157824 0.066743955 0.23372707 -0.056646496 -0.15177953 -0.050243255 0.004674524
0.106050596 -0.0634583 -0.045653623 0.055886384 -0.0105601605 -0.0058528683 0.011103108 0.07020799
0.10459908 0.07639147 -0.10241866 0.063738495 0.171814 0.15319625 0.07085698 -0.014933383
0.049165532 0.03426727 -0.13300535 -0.29850656 -0.35862842 0.0014552759 -0.018158771 -0.15144692
-0.24582607 -0.25505027 -0.023151463 -0.017293775 -0.08967485 -0.17647007 -0.20091696 0.0039904458
-0.011749477 -0.11854322 -0.14937082 -0.10282766 0.010030875 -0.026766546 -0.07437113 -0.11978627
-0.06289923 0.02876822 0.048604306 -0.08815829 -0.06598641 -0.35411984 0.14435859 0.08462822
-0.10187927 -0.12743537 -0.35924456 0.1211764 0.09871867 -0.11501579 -0.09152674 -0.18235116
0.099787414 0.01354221 -0.17683445 -0.06146528 -0.035768777 0.02435807 0.012396927 -0.33288234
-0.18002342 -0.020984324 -0.016673872 -0.012658736 0.0028593666 -0.087099195 -0.15675433 -0.030846126
00000000: 897d 5fbd 8d80 97bd c0fb 6abd 7059 b3bd
00000010: 286a b4bd 5031 6dbd cef0 97bc 287b 31bd
00000020: 6d11 f9bc c41b f9bb 5d79 76bd 2acb 47bd
00000030: 11e9 10bd 39df 1fbd a319 d4bc 9b84 bdbc
00000040: 7b0f 303a 0081 1ebd 8d69 803c ce0f 29bc
00000050: ff66 0d3c 3138 b8bc 419b 5fbc 5617 5a3c
00000060: e124 8b3b 0711 7abc 579b 263c fac6 923c
00000070: fd03 febb 94e2 31bd 991d d53b d552 873c
00000080: 0239 9c3c b031 d3bc e932 4fbd 1207 a23c
00000090: daae 963c ad69 ed3b 4446 fbbc 8ef1 25bd
000000a0: acba 0a3d 82e2 0d3c f9e6 643c 1c9e ca3b
000000b0: a73c 74bc e706 0d3d af8e 21bc 4aa0 f2bc
000000c0: 892c fb3a ab69 1b3b 03d2 483b 0c0b 1d3d
000000d0: a40b 003c ef4a 74bd c4a4 94bd 4893 363d
000000e0: 1f81 e7bb 7e85 0dbd b868 92bd 2792 19be
000000f0: f340 263d 5469 8e3c 76a6 24bc bbd3 69bd
00000100: 80dc eabd c72b 113d 67cd c63c 2624 e23b
00000110: 7a28 22bd e157 39bd cc63 7539 21fc 613b
00000120: 4818 21bc 52b8 07bd e1ec c4bc 5d6d 0bbd
00000130: c028 62bd 3673 27bd 293a e4bc e45e 9ebb
00000140: 6aee 55bd 9254 60bd 7c30 c5bc 86c1 a33b
00000150: 7638 cfbc 37fd 81bd f626 95bd 432a edbc
00000160: c792 c7bc 61f8 933b 40b5 e1bc d75d 05bd
00000170: 70a5 81bb b8a6 083c b6d5 ca3c b43e 833c
00000180: f2bc 833b fc8b bbba c52c 2e3d e5e8 bb3b
00000190: cc2d 49be b3e1 98be fa70 adbe 8234 b6be
000001a0: 0118 28bf d451 d0bd 3113 cabe 752d dfbe
000001b0: 4cb2 53be 29f6 a2be 56d3 f7bd 522c c2be
000001c0: 8325 dabe b307 f9bd ae6b a2bd 1266 98bd
000001d0: 55c7 35be ed95 afbe e30c 7dbe 5a32 f8bd
000001e0: 47f7 473c 4512 07bd 483f 08be c912 a4be
000001f0: 948b cdbe c8df 5f3d bfa8 1c3c 56e0 b03c
00000200: 8e9a 6a3d d1c6 e43c 3919 043d cd37 07bc
00000210: 6f04 62bb 5eeb f43c 0558 103d d78c b4bc
00000220: 750f 273c 0e56 96bc 3154 b43b a46a 9dbc
00000230: fcd3 cbbc d0e5 0a3b ec59 94bc 48d2 86bc
00000240: d2e7 07bb 3811 54bd da2b 1fbb ac75 0e3c
00000250: 787c d83a a24d 80bc 95da 11bd 337a b5bc
00000260: 27e0 87bc 60a0 8cbd 9750 a4bd 7dbd cabc
00000270: dee9 c33a f0a7 06bc 4ac5 c63a c1cb 50bd
00000280: 2275 09bd 7210 1fba 5496 163d 9659 2a3c
00000290: 6bef ff3c 8f3b 0fbc c065 403c 00b8 603d
000002a0: 667f 0a3d 59a9 1e3d c0d4 47bc d117 ff3c
000002b0: 3d08 d43c 501f d23c 47c9 443c 7e2b 6e3d
000002c0: df20 a3bd 4ecf 36bc 0eb1 883d 2656 6f3e
000002d0: 2806 68bd 186c 1bbe dfcb 4dbd c02c 993b
000002e0: 0e31 d93d 6df6 81bd 4bff 3abd 1fe9 643d
000002f0: 8604 2dbc 6bc9 bfbb cfe9 353c 35c9 8f3d
00000300: 0b38 d63d 2273 9c3d e0c0 d1bd 5489 823d
00000310: 02f0 2f3e 7adf 1c3e 771d 913d 26ab 74bc
00000320: cc61 493d d65b 0c3d 8e32 08be dad5 98be
00000330: 259e b7be f5be be3a b4c1 94bc e714 1bbe
00000340: d4b9 7bbe f395 82be 23a8 bdbc adab 8dbc
00000350: 73a7 b7bd 92b4 34be 2dbd 4dbe 49c2 823b
00000360: e180 40bc cac6 f2bd aaf4 18be 4f97 d2bd
00000370: 8a58 243c 8445 dbbc e44f 98bd 8152 f5bd
00000380: 50d1 80bd 55ab eb3c 4f15 473d 558c b4bd
00000390: e223 87bd 324f b5be bdd2 133e 8f51 ad3d
000003a0: 14a6 d0bd 6b7e 02be e7ee b7be 552b f83d
000003b0: 042d ca3d 668d ebbd 5f72 bbbd 43ba 3abe
000003c0: 585d cc3d 25e0 5d3c 1714 35be 04c3 7bbd
000003d0: 4882 12bd 938a c73c 7b1c 4b3c 8e6f aabe
000003e0: 0f58 38be 51e7 abbc a597 88bc 9666 4fbc
000003f0: 3664 3b3b 1061 b2bd 3584 20be 04b1 fcbc

conv2.bias f4 [32]
0.007899309 0.027013525 0.007761009 0.01779333 -0.024650669 0.013178175 -0.023693524 0.032938264
0.022331653 -0.019302517 -0.029280301 0.0036755179 0.004973997 -0.0026880465 -0.037800085 -0.038952276
0.06858575 -0.03384057 -0.023415439 -0.043846462 -0.016848922 0.010704173 -0.0043178163 -0.036167763
-0.016457995 -0.031341042 -0.00089631416 0.044696078 0.008150703 0.05631899 -0.021742363 -0.04505483
00000000: 1a6c 013c 784b dd3c 1050 fe3b 51c3 913c
00000010: 33f0 c9bc 46e9 573c ec18 c2bc 46ea 063d
00000020: dff0 b63c 5020 9ebc 3edd efbc f5e0 703b
00000030: e9fc a23b f029 30bb 43d4 1abd 6c8c 1fbd
00000040: b076 8c3d 699c 0abd bcd1 bfbc 5998 33bd
00000050: c006 8abc 8e60 2f3c 787c 8dbb a624 14bd
00000060: ebd2 86bc 775f 00bd a0f6 6aba 3c13 373d
00000070: 878a 053c beae 663d 0a1d b2bc 6a8b 38bd

conv3.weight f4 [1, 32, 5, 5]
-0.18120596 -0.07671544 -0.14096223 -0.15545444 -0.1478321 -0.04192493 -0.023289777 -0.06031669
-0.027530443 -0.078029186 -0.062497593 -0.00817953 -0.08152778 -0.04664487 -0.10206953 -0.05107705
-0.03844108 -0.060833026 -0.013419062 -0.039555654 -0.06637037 -0.041173227 -0.066850126 -0.05345592
-0.102445915 0.011501088 0.029553648 -0.0060748747 0.034057163 0.0334349 -0.024335455 -0.009636911
-0.0042514363 -0.0072948933 0.013457775 -0.0021613566 0.005516173 -0.009984163 -0.014746625 0.014640945
-0.023977537 0.029482327 -0.013100678 0.031661972 -0.00048740715 -0.05627891 -0.01549371 -0.032199293
-0.023585156 -0.052835684 0.053081024 0.070964776 0.10318873 0.07813276 0.096167594 0.094614945
0.080803365 0.05403345 0.07191298 0.07442189 0.08234721 0.08205868 0.06937668 0.04753397
0.08373923 0.06953821 0.028980209 0.06525566 0.07248825 0.05811075 0.07981946 0.042127848
0.045132425 0.03779488 0.08309985 -0.07798997 -0.023813775 -0.0067218784 0.0073336056 -0.02042914
-0.02110479 0.024699038 0.011033985 0.034231145 0.023378579 -0.011478181 -0.00096125866 0.0010669838
0.027368484 0.014534644 -0.0073744464 0.012311975 0.012948618 0.023735914 0.029727854 -0.037140444
0.008247314 0.0001350849 0.009696583 0.013904151 -0.044646047 -0.0042490964 -0.020266537 -0.0049212114
0.0012033081 -0.020851463 -0.0068968404 0.00041975893 0.010478066 0.041843757 -0.01965261 0.014188586
0.0073722266 0.008717918 -0.0018161462 0.00065775245 -0.0155186625 -0.021837443 0.0024594795 0.050872218
0.09815361 0.05450072 0.05012019 0.08123822 0.06796951 0.012083561 0.030956922 0.02561288
0.046830095 0.027506318 0.006699644 0.044031415 0.0075105783 -0.010606814 -0.004198301 0.01210111
0.026542988 0.01919404 0.011188683 0.021918356 0.050155878 0.040326465 0.04761576 0.029124063
-0.016914465 0.036643878 -0.0077734487 0.020334687 0.01107978 -0.0035702586 -0.011451782 -0.019398743
-0.021143539 0.014933728 0.07644009 0.005782181 -0.007015657 -0.030191114 -0.005589488 0.016051244
0.0029853517 -0.037290443 -0.022680447 -0.032408204 0.039641134 0.010130629 0.007678109 0.010100374
-0.029799016 0.01741202 0.020641003 0.0384946 0.023634095 0.025543865 0.10157316 0.10470568
0.0150644155 0.021543942 0.03899433 0.039619092 0.037391093 -0.032484062 -0.023361055 0.0004674261
-0.017565379 0.03703184 -0.044258423 0.0062825624 -0.040207393 -0.044957235 0.019870305 0.0102182245
-0.015671482 -0.040188037 -0.04162863 0.07468291 -0.028322317 0.005787566 -0.003406113 -0.041436333
-0.019958012 0.023933206 -0.007525048 0.01733169 0.01795336 -0.031671263 0.026827566 0.015489925
-0.01905049 0.029849796 -0.005692884 -0.0066797864 0.017257577 0.007879481 0.016070373 -0.006758162
0.02594877 0.0067842384 0.037060477 0.020715676 -0.09286096 -0.0354309 -0.021869166 -0.008749317
-0.016904442 0.007148204 0.0048857667 0.011709998 0.075540245 0.06375102 0.0042073186 -0.009023555
0.0412207 0.027452242 0.07030871 -0.017661422 0.0129304305 0.025622504 -0.02026155 0.035841778
-0.0047594584 0.00033610096 -0.0038309693 0.0060345363 0.0012528005 0.0044342084 0.026260033 -0.0027645573
0.023990609 0.04816512 0.03852698 -0.004759059 0.021691166 0.01160059 0.06966866 -0.0295173
00000000: 0e8e 39be fc1c 9dbd 6758 10be 732f 1fbe
00000010: 4c61 17be 7ab9 2bbd 34ca bebc a20e 77bd
00000020: 8687 e1bc c4cd 9fbd 7afd 7fbd 6f03 06bc
00000030: 09f8 a6bd b10e 3fbd d409 d1bd 2b36 51bd
00000040: 6574 1dbd 0d2c 79bd a0db 5bbc 1c05 22bd
00000050: 30ed 87bd 42a5 28bd b8e8 88bd 98f4 5abd
00000060: 2acf d1bd 0f6f 3c3c 7e1a f23c be0f c7bb
00000070: 867f 0b3d 09f3 083d 265b c7bc 22e4 1dbc
00000080: a24f 8bbb 000a efbb 007e 5c3c 8ca5 0dbb
00000090: 03c1 b43b 9d94 23bc d49b 71bc 93e0 6f3c
000000a0: 8a6c c4bc ec84 f13c 3aa4 56bc fcaf 013d
000000b0: ae8a ffb9 b784 66bd 54d9 7dbc 68e3 03bd
000000c0: a835 c1bc 3b6a 58bd 7d6b 593d fb55 913d
000000d0: 9d54 d33d 1204 a03d 84f3 c43d 7bc5 c13d
000000e0: 3c7c a53d 2e52 5d3d 1d47 933d 816a 983d
000000f0: a7a5 a83d 620e a83d 5c15 8e3d fbb2 423d
00000100: 797f ab3d 0d6a 8e3d e767 ed3c c2a4 853d
00000110: b874 943d 8a05 6e3d 6378 a33d 408e 2c3d
00000120: c7dc 383d cece 1a3d 4130 aa3d 35b9 9fbd
00000130: 1b15 c3bc 3443 dcbb be4e f03b 035b a7bc
00000140: f4e3 acbc a355 ca3c e3c7 343c f535 0c3d
00000150: 6f84 bf3c fb0e 3cbc fafc 7bba 09da 8b3a
00000160: df33 e03c b722 6e3c 57a5 f1bb 2ab8 493c
00000170: 7126 543c d271 c23c d487 f33c 9420 18bd
00000180: be1f 073c 94a5 0d39 6bde 1e3c 3cce 633c
00000190: c6de 36bd 013c 8bbb 0206 a6bc 1d42 a1bb
000001a0: 52b8 9d3a b0d0 aabc e4fe e1bb 1713 dc39
000001b0: 32ac 2b3c 5c64 2b3d 83fe a0bc 3e77 683c
000001c0: b892 f13b 99d5 0e3c c10b eeba 056d 2c3a
000001d0: fd41 7ebc 70e4 b2bc 382f 213b 635f 503d
000001e0: c304 c93d 263c 5f3d d44a 4d3d 3960 a63d
000001f0: 9933 8b3d 21fa 453c 5f99 fd3c 1ad2 d13c
00000200: ead0 3f3d ee54 e13c b088 db3b 495a 343d
00000210: 4c1b f63b 34c8 2dbc e791 89bb bc43 463c
00000220: ae70 d93c d23c 9d3c bd50 373c 208e b33c
00000230: 4070 4d3d 5d2d 253d be08 433d 9695 ee3c
00000240: 3490 8abc e417 163d 6ab8 febb ee94 a63c
00000250: f787 353c 00fb 69bb 41a0 3bbc 1dea 9ebc
00000260: 3735 adbc 98ac 743c 9f8c 9c3d 7378 bd3b
00000270: 99e3 e5bb 5b53 f7bc 0628 b7bb e67d 833c
00000280: e4a5 433b ddbd 18bd 58cc b9bc 77be 04bd
00000290: be5e 223d f0fa 253c a698 fb3b 0a7c 253c
000002a0: 111d f4bc a7a3 8e3c 5217 a93c 84ac 1d3d
000002b0: 4a9c c13c 5e41 d13c 9705 d03d ee6f d63d
000002c0: bdd0 763c ec7c b03c 85b8 1f3d a147 223d
000002d0: 6727 193d 020e 05bd af5f bfbc df10 f539
000002e0: 45e5 8fbc b3ae 173d 5248 35bd f4dd cd3b
000002f0: 82b0 24bd 1425 38bd 0dc7 a23c 576a 273c
00000300: 7b61 80bc 369c 24bd c882 2abd 5bf3 983d
00000310: 3404 e8bc 9fa5 bd3b 1839 5fbb 25b9 29bd
00000320: fc7e a3bc 920f c43c ae94 f6bb 30fb 8d3c
00000330: ed12 933c bab9 01bd 7cc5 db3c 74c9 7d3c
00000340: c60f 9cbc 8f87 f43c 5f8b babb 1ce2 dabb
00000350: c35f 8d3c f018 013c 04a6 833c 9273 ddbb
00000360: 8492 d43c 514e de3b bacc 173d ecb3 a93c
00000370: e32d bebd fe1f 11bd f726 b3bc 4c59 0fbc
00000380: 2f7b 8abc 7b3b ea3b c818 a03b 4bdb 3f3c
00000390: d8b4 9a3d e58f 823d 8cdd 893b 88d7 13bc
000003a0: 09d7 283d 86e3 e03c 03fe 8f3d b0ae 90bc
000003b0: 28da 533c 49e6 d13c 8dfb a5bc d4ce 123d
000003c0: 3bf5 9bbb b536 b039 0011 7bbb 5cbd c53b
000003d0: 0235 a43a d64c 913b 481f d73c 932d 35bb
000003e0: f487 c43c ca48 453d 77ce 1d3d e1f1 9bbb
000003f0: acb1 b13c 6710 3e3c 71ae 8e3d 44ce f1bc

exp_avg f4 [64, 1, 9, 9]
-0.009433948 -0.009188569 -0.009532905 -0.009358835 -0.0095442 -0.009266415 -0.009595667 -0.009429286
-0.009102912 -0.00956543 -0.009405448 -0.0093999 -0.009528943 -0.009906833 -0.0096025495 -0.0093742525
-0.009188761 -0.009425088 -0.009482102 -0.009496059 -0.009595911 -0.009755797 -0.009736016 -0.00970614
-0.00946651 -0.00965137 -0.009329375 -0.009180482 -0.0094073145 -0.0094063915 -0.009822201 -0.009826754
-0.009843045 -0.009573328 -0.009364175 -0.009253362 -0.009412539 -0.00931856 -0.009521014 -0.00989852
-0.009881951 -0.00996738 -0.009331869 -0.0097099645 -0.009174067 -0.009215546 -0.009639105 -0.009722323
-0.009465847 -0.009516629 -0.009583311 -0.009650617 -0.009309568 -0.009350167 -0.009228579 -0.009422607
-0.009570143 -0.009497418 -0.009820699 -0.009734113 -0.009266494 -0.009132824 -0.009154239 -0.009343574
-0.009638016 -0.009637343 -0.009394278 -0.009404825 -0.009627559 -0.009730864 -0.009575978 -0.009391326
-0.009223292 -0.009466123 -0.009273002 -0.009596023 -0.00944209 -0.009331847 -0.009488021 -0.009504413
-0.009199653 -0.004192904 -0.0042982576 -0.004304113 -0.0042987084 -0.0043509956 -0.00407935 -0.004177187
-0.004283143 -0.0042504007 -0.004269007 -0.0041783894 -0.0043007815 -0.0044040084 -0.0042719734 -0.0044078613
-0.004389231 -0.0041384776 -0.0043505607 -0.0043625296 -0.004422949 -0.004280868 -0.0044431575 -0.004416418
-0.0045345076 -0.0044671404 -0.0043326127 -0.0043623676 -0.0042391014 -0.0044119125 -0.0042897104 -0.0044379537
-0.0044698087 -0.004376276 -0.0042979866 -0.004378906 -0.004312446 -0.0041865846 -0.0042389994 -0.0042972653
-0.004394944 -0.004378954 -0.004363435 -0.0044735163 -0.0045149913 -0.004282562 -0.0042440365 -0.004103186
-0.004167486 -0.0043389644 -0.00411433 -0.0044312207 -0.0042572604 -0.004302251 -0.0044026 -0.0040860875
-0.00426411 -0.0041852477 -0.004196676 -0.004141674 -0.0041899057 -0.004123741 -0.0042800223 -0.0042748954
-0.004170959 -0.00404189 -0.00400224 -0.004043609 -0.0040749935 -0.0041442118 -0.004161887 -0.0041979156
-0.004190306 -0.0041982676 -0.0041934103 -0.0039803046 -0.004033482 -0.003836566 -0.0041146106 -0.004134301
-0.0040359017 -0.0040099006 -0.0012531584 -0.0012424741 -0.0012941827 -0.0013003281 -0.0013127942 -0.0012616158
-0.0012201065 -0.0012742316 -0.0012800184 -0.0012894599 -0.0013036416 -0.0013478565 -0.0013138087 -0.0012893298
-0.0012320105 -0.001297975 -0.0012375092 -0.0012481664 -0.0012422146 -0.0012947236 -0.0013246803 -0.0012930908
-0.0012648223 -0.0012098991 -0.0012259593 -0.0011724626 -0.0011726393 -0.0012168803 -0.0012199243 -0.001254733
-0.0012087851 -0.0012357576 -0.0011078586 -0.0010683688 -0.0011052205 -0.0011147871 -0.0011652866 -0.0011465758
-0.001123489 -0.0011337663 -0.0010625611 -0.0009925802 -0.0009703307 -0.0009917888 -0.0010484938 -0.0011071103
-0.0011226282 -0.0010615031 -0.0010419567 -0.0010244041 -0.000883844 -0.0008605151 -0.00092341774 -0.000921772
-0.0010641089 -0.0010480968 -0.0010383471 -0.000980231 -0.0008831766 -0.0008666039 -0.00083893555 -0.00086671277
-0.00085258315 -0.001012927 -0.001020254 -0.000970978 -0.00094601605 -0.0008653915 -0.00085731037 -0.00088131125
-0.0008068525 -0.00086634926 -0.00093728164 -0.00092269265 -0.0009276792 -0.00090295466 -0.0009096803 -0.0008034784
-0.0008421632 -0.00086185866 -0.00087841344 0.0013996823 0.0012655946 0.0012046172 0.0012157697 0.0013334821
0.0014608459 0.0016494801 0.0017892533 0.0018671557 0.0013094189 0.0012101451 0.0011718577 0.0012230234
00000000: d990 1abc a78b 16bc e72f 1cbc cd55 19bc
00000010: 475f 1cbc 29d2 17bc 2537 1dbc 4b7d 1abc
00000020: 6124 15bc 52b8 1cbc 4f19 1abc 0a02 1abc
00000030: 491f 1cbc 4550 22bc 0354 1dbc 7796 19bc
00000040: 758c 16bc af6b 1abc d15a 1bbc 5c95 1bbc
00000050: 2b38 1dbc c7d6 1fbc d083 1fbc 8006 1fbc
00000060: 6c19 1bbc c820 1ebc 3cda 18bc bb69 16bc
00000070: 2321 1abc 441d 1abc 4ced 20bc 6500 21bc
00000080: b944 21bc 73d9 1cbc 326c 19bc 6a9b 17bc
00000090: 0d37 1abc e0ac 18bc 07fe 1bbc 672d 22bc
000000a0: e8e7 21bc 394e 23bc b2e4 18bc 8b16 1fbc
000000b0: d34e 16bc cdfc 16bc 56ed 1dbc 614a 1fbc
000000c0: a416 1bbc a3eb 1bbc 5203 1dbc 9f1d 1ebc
000000d0: 2987 18bc 7131 19bc 7733 17bc 4761 1abc
000000e0: 17cc 1cbc 0f9b 1bbc ffe6 20bc d47b 1fbc
000000f0: 7ed2 17bc d7a1 15bc a9fb 15bc ca15 19bc
00000100: c5e8 1dbc f2e5 1dbc 75ea 19bc b216 1abc
00000110: e9bc 1dbc 346e 1fbc 90e4 1cbc 14de 19bc
00000120: 4a1d 17bc cc17 1bbc caed 17bc a338 1dbc
00000130: ffb2 1abc 9ae4 18bc a573 1bbc 66b8 1bbc
00000140: 24ba 16bc a164 89bb 66d8 8cbb 8409 8dbb
00000150: 2edc 8cbb cc92 8ebb 11ac 85bb c9e0 88bb
00000160: 9c59 8cbb f246 8bbb 07e3 8bbb dfea 88bb
00000170: 92ed 8cbb 804f 90bb e9fb 8bbb d26f 90bb
00000180: 8ad3 8fbb 119c 87bb 268f 8ebb 8df3 8ebb
00000190: 63ee 90bb 8646 8cbb e897 91bb 99b7 90bb
000001a0: 3596 94bb 1761 92bb 97f8 8dbb 31f2 8ebb
000001b0: 29e8 8abb ce91 90bb b390 8cbb 416c 91bb
000001c0: 7977 92bb dd66 8fbb 20d6 8cbb ed7c 8fbb
000001d0: 6b4f 8dbb 9e2f 89bb 4ee7 8abb 13d0 8cbb
000001e0: 7603 90bb 547d 8fbb 25fb 8ebb 9396 92bb
000001f0: 7ef2 93bb bc54 8cbb 8f11 8bbb 0574 86bb
00000200: 688f 88bb df2d 8ebb 80d1 86bb c633 91bb
00000210: 7d80 8bbb e6f9 8cbb b043 90bb 96e4 85bb
00000220: f2b9 8bbb 6724 89bb 4584 89bb e1b6 87bb
00000230: 7a4b 89bb 7220 87bb 6e3f 8cbb 6c14 8cbb
00000240: 8aac 88bb d571 84bb 3925 83bb 4080 84bb
00000250: 8687 85bb 2bcc 87bb 7060 88bb ab8e 89bb
00000260: d64e 89bb 9f91 89bb e068 89bb 376d 82bb
00000270: 4d2b 84bb e56e 7bbb dbd3 86bb 0879 87bb
00000280: 993f 84bb 7c65 83bb 0541 a4ba 83da a2ba
00000290: 91a1 a9ba c56f aaba 1012 acba cd5c a5ba
000002a0: fbeb 9fba 1e04 a7ba 4ac6 a7ba 1803 a9ba
000002b0: f4de aaba 8faa b0ba 1b34 acba bbfe a8ba
000002c0: 6a7b a1ba d020 aaba eb33 a2ba 8499 a3ba
000002d0: ced1 a2ba b7b3 a9ba e5a0 adba ed7c a9ba
000002e0: 65c8 a5ba 7a95 9eba 5eb0 a0ba 51ad 99ba
000002f0: 3fb3 99ba ba7f 9fba dee5 9fba da75 a4ba
00000300: 1970 9eba 25f9 a1ba 9135 91ba 8208 8cba
00000310: 0cdd 90ba 0c1e 92ba 88bc 98ba b348 96ba
00000320: 0942 93ba e29a 94ba a245 8bba 7719 82ba
00000330: ca5d 7eba e9fe 81ba 9d6d 89ba 751c 91ba
00000340: 2725 93ba 2222 8bba 4492 88ba 4c45 86ba
00000350: c4b1 67ba 3194 61ba 8411 72ba 12a3 71ba
00000360: 9279 8bba 4b60 89ba 2619 88ba 187b 80ba
00000370: fa84 67ba ce2c 63ba 03ec 5bba 1c34 63ba
00000380: e37f 5fba 31c4 84ba 0bba 85ba 3b89 7eba
00000390: 10fe 77ba 71db 62ba 20bd 60ba cc07 67ba
000003a0: f482 53ba b71b 63ba e8b3 75ba dbe0 71ba
000003b0: 7f2f 73ba 43b4 6cba 9d77 6eba 86a0 52ba
000003c0: 9ec4 5cba 5bee 61ba 5445 66ba 8b75 b73a
000003d0: 4fe2 a53a 3fe4 9d3a 765a 9f3a 3cc8 ae3a
000003e0: db79 bf3a 5e33 d83a 6185 ea3a 59bb f43a
000003f0: cfa0 ab3a bb9d 9e3a 0599 993a db4d a03a

exp_avg_sq f4 [64, 1, 9, 9]
0.0019679265 0.0019482985 0.0020482782 0.0020045505 0.002123375 0.0019536228 0.0021253098 0.0020408405
0.0019025163 0.0020540738 0.0020069706 0.001994052 0.002070542 0.0021847228 0.0021001275 0.001999938
0.0019349906 0.0020359764 0.002035099 0.0020518298 0.002052033 0.002155119 0.0020865614 0.002165273
0.002024835 0.0021233463 0.0019706588 0.0019123825 0.0019883416 0.0019974452 0.0021544727 0.0021683204
0.002197274 0.0020490778 0.0019726397 0.0019462834 0.00204502 0.0020126698 0.0020425182 0.0022109845
0.0021843917 0.002173586 0.0019646217 0.002092467 0.001886545 0.001913423 0.002122906 0.0021384254
0.002028541 0.0020239698 0.0020525646 0.0020445539 0.0019854314 0.0019614866 0.001918168 0.001986463
0.00207735 0.002003977 0.0021365555 0.0021139348 0.0019133599 0.0018945675 0.0018809811 0.0020014253
0.0020791152 0.002070266 0.0019583409 0.0019900554 0.0020608602 0.0020648108 0.0020347587 0.0020351561
0.0018862531 0.001986131 0.0019513544 0.0020729003 0.001966301 0.0019171748 0.0020000986 0.002043668
0.0019712716 0.0003110047 0.00032848358 0.00033781084 0.00033936417 0.00034160938 0.00031482428 0.00032310287
0.00033641476 0.00034701583 0.0003263817 0.0003165513 0.0003394386 0.00035851813 0.00032761734 0.00036285294
0.00034966174 0.00032306038 0.00035565917 0.00033612814 0.00034554247 0.0003278799 0.0003623821 0.00034537876
0.0003662894 0.0003507384 0.00033951574 0.00034350564 0.00031460158 0.00034278867 0.00032644309 0.00035472424
0.00034945988 0.000330228 0.00033056692 0.0003474131 0.00033579307 0.00030496495 0.00032293718 0.00032548772
0.00034064532 0.0003382216 0.0003247566 0.0003430495 0.00034691417 0.0003258376 0.00032596095 0.00030235827
0.00030396794 0.0003291737 0.00030103652 0.00034497914 0.00032367956 0.00032200463 0.00033969976 0.00029698602
0.00031892056 0.0003174993 0.0003151366 0.0003014564 0.00031658055 0.0003059218 0.00032723002 0.00032379755
0.00030106018 0.00029894905 0.00029581023 0.00030274232 0.00030699477 0.00030518192 0.0003134479 0.0003130903
0.00031983372 0.00031033152 0.00031053936 0.00028912962 0.00030037627 0.00028136777 0.00029966672 0.00030767807
0.0002937764 0.00029439307 0.0001521297 0.00015415721 0.00015862465 0.00016677182 0.00016900891 0.00017166762
0.00016829737 0.00016933792 0.00016205432 0.00015463278 0.00015893462 0.00016068612 0.00016866885 0.00016982926
0.00017442282 0.0001739463 0.00016968396 0.0001666557 0.00015192627 0.00015444918 0.0001582719 0.00016356737
0.00016821385 0.0001669626 0.00016661636 0.00016331639 0.00016440365 0.0001467903 0.00014854375 0.00015476657
0.00015554296 0.00015938908 0.00015706393 0.00015673735 0.00015766412 0.00015429023 0.00014352438 0.00014415018
0.00014679508 0.00014498417 0.00015151686 0.00015348964 0.00015484574 0.00015316923 0.00015072165 0.00013907115
0.00013524247 0.00013590792 0.00013697201 0.00014002822 0.0001426566 0.00014345779 0.00014730294 0.00014694656
0.0001338156 0.00013256184 0.00012977031 0.00013248924 0.00013038395 0.00013250086 0.00013626326 0.0001409205
0.00014494332 0.00013173072 0.00012910672 0.0001275181 0.00012671553 0.00012777172 0.00013075126 0.00013311829
0.00013838062 0.0001428145 0.0001322792 0.00012962581 0.00012669932 0.00012678759 0.00012762682 0.00013025576
0.0001331404 0.00013627119 0.00014040527 0.00012842586 0.00013241744 0.00013588212 0.00013457672 0.00013007215
0.00012531641 0.00012249204 0.000121539815 0.00012042258 0.00012939115 0.00013418414 0.00013737859 0.00013510215
00000000: 54f8 003b 0d5e ff3a 683c 063b c75e 033b
00000010: 5228 0b3b 5a08 003b c848 0b3b 9fbf 053b
00000020: db5d f93a a49d 063b 6187 033b a4ae 023b
00000030: eeb1 073b 912d 0f3b 4ba2 093b 6411 033b
00000040: 839f fd3a 046e 053b 4c5f 053b fe77 063b
00000050: 677b 063b e63c 0d3b b1be 083b 41e7 0d3b
00000060: 18b3 043b d727 0b3b 2b26 013b e9a8 fa3a
00000070: d64e 023b 92e7 023b 0e32 0d3b 611a 0e3b
00000080: 2400 103b d249 063b 6747 013b 6f1a ff3a
00000090: be05 063b ffe6 033b c5db 053b 2ae6 103b
000000a0: 0328 0f3b b972 0e3b e2c0 003b c521 093b
000000b0: f245 f73a d2cb fa3a 7420 0b3b d324 0c3b
000000c0: 45f1 043b 94a4 043b 5284 063b ecfd 053b
000000d0: 031e 023b 498c 003b 0a6b fb3a 522f 023b
000000e0: 2624 083b 2855 033b 7405 0c3b f189 0a3b
000000f0: b4c9 fa3a 2353 f83a 418b f63a 582a 033b
00000100: c441 083b 4dad 073b 8257 003b 976b 023b
00000110: 7f0f 073b c751 073b 9659 053b 4160 053b
00000120: 273c f73a c029 023b 97c4 ff3a 7fd9 073b
00000130: 0edd 003b b649 fb3a 1614 033b 0fef 053b
00000140: 7330 013b 580e a339 5238 ac39 341c b139
00000150: b0ec b139 091a b339 000f a539 2266 a939
00000160: d360 b039 adef b539 361e ab39 ccf6 a539
00000170: adf6 b139 7df7 bb39 0ec4 ab39 4c3d be39
00000180: ce52 b739 6e60 a939 c477 ba39 5b3a b039
00000190: ed29 b539 4ce7 ab39 1afe bd39 f413 b539
000001a0: 880a c039 50e3 b739 0801 b239 8c18 b439
000001b0: 1cf1 a439 51b8 b339 7326 ab39 48fa b939
000001c0: b637 b739 7422 ad39 f14f ad39 ff24 b639
000001d0: 620d b039 b4e3 9f39 e54f a939 39a6 aa39
000001e0: a498 b239 5653 b139 1844 aa39 53db b339
000001f0: 08e2 b539 2fd5 aa39 bde5 aa39 d785 9e39
00000200: e35d 9f39 f294 ac39 70d4 9d39 51de b439
00000210: 89b3 a939 bbd2 a839 bb19 b239 cab4 9b39
00000220: cb34 a739 0976 a639 eb38 a539 cb0c 9e39
00000230: b9fa a539 2164 a039 1290 ab39 5fc3 a939
00000240: 9dd7 9d39 43bc 9c39 fa16 9b39 63b9 9e39
00000250: 24f4 a039 d300 a039 4456 a439 4526 a439
00000260: 5baf a739 feb3 a239 e3cf a239 5296 9739
00000270: d27b 9d39 8b84 9339 961c 9d39 da4f a139
00000280: 0006 9a39 c558 9a39 0185 1f39 43a5 2139
00000290: 7b54 2639 78df 2e39 fc37 3139 ad01 3439
000002a0: fb78 3039 4d90 3139 20ed 2939 ec24 2239
000002b0: b0a7 2639 da7d 2839 b3dc 3039 3214 3239
000002c0: 45e5 3639 5b65 3639 31ed 3139 4cc0 2e39
000002d0: 664e 1f39 a3f3 2139 caf5 2539 4883 2b39
000002e0: 9062 3039 af12 2f39 bdb5 2e39 e93f 2b39
000002f0: c563 2c39 b9eb 1939 69c2 1b39 d648 2239
00000300: 3f19 2339 ae21 2739 87b1 2439 dd59 2439
00000310: a452 2539 f8c8 2139 087f 1639 0527 1739
00000320: 01ed 1939 e406 1839 7fe0 1e39 10f2 2039
00000330: 165e 2239 0d9c 2039 090b 1e39 a1d3 1139
00000340: e0cf 0d39 8182 0e39 25a0 0f39 8ad4 1239
00000350: 1796 1539 286d 1639 5575 1a39 ab15 1a39
00000360: da50 0c39 4c00 0b39 f412 0839 cfec 0a39
00000370: adb7 0839 eeef 0a39 e4e1 0e39 0fc4 1339
00000380: edfb 1739 3221 0a39 d260 0739 61b6 0539
00000390: f1de 0439 76fa 0539 461a 0939 ab95 0b39
000003a0: 441a 1139 7ac0 1539 6db4 0a39 2aec 0739
000003b0: 97da 0439 49f2 0439 90d3 0539 4495 0839
000003c0: 9b9b 0b39 05e4 0e39 c139 1339 0eaa 0639
000003d0: 89d9 0a39 947b 0e39 2a1d 0d39 fa63 0839
000003e0: 5e67 0339 3571 0039 31e3 fe38 618b fc38
000003f0: 2cad 0739 c8b3 0c39 490d 1039 35aa 0d39

exp_avg f4 [64]
-0.025839077 -0.011713547 -0.003036615 0.0058115837 -0.0015961839 -0.005125078 -0.003866844 0.00016989073
-0.00513529 -1.9497784e-06 -0.02105532 -0.0035817104 0.0022614156 -3.2003674e-05 0.0007134093 -0.009478382
-0.0058013494 -0.0049776398 0.00052002503 -0.011455401 0.0030880205 -0.0094133755 -0.0003705482 -0.014903618
-0.0030847292 -0.009486452 0.00021614843 -0.0010492916 -0.005949679 -0.003704097 -0.006503095 0.00094851595
-0.0044612023 -0.011678406 -0.0012458734 -0.008066746 0.0023494482 -0.006157554 -0.007780384 5.5964138e-05
-0.0027362574 -0.015686143 0.0033159866 -0.0008393715 -0.0073781405 -0.015760642 2.7856575e-05 0.0034487424
9.323922e-05 -0.0028809742 -0.008492032 -0.006675788 -0.0016102816 0.00028942127 -0.004801155 -0.010531304
-0.0033653623 -0.00011917321 -0.013495917 -0.00094410434 -0.00477436 -0.004223139 -0.0011024901 -0.0016480982
00000000: 79ac d3bc 2dea 3fbc f201 47bb 196f be3b
00000010: 0b37 d1ba 45f0 a7bb e16a 7dbb b224 3239
00000020: ef45 a8bb f0d8 02b6 357c acbc 21bb 6abb
00000030: 4234 143b af3b 06b8 1604 3b3a 374b 1bbc
00000040: 3f19 bebb 781b a3bb 4a52 083a 6faf 3bbc
00000050: 6360 4a3b 8f3a 1abc 2346 c2b9 4e2e 74bc
00000060: 2b29 4abb 106d 1bbc e7a5 6239 6288 89ba
00000070: 86f5 c2bb 6fc0 72bb ea17 d5bb d4a5 783a
00000080: 472f 92bb c956 3fbc 934c a3ba 632a 04bc
00000090: 33f9 193b 4fc5 c9bb 97f2 febb 09bb 6a38
000000a0: c852 33bb 3a80 80bc 0651 593b 4509 5cba
000000b0: 54c4 f1bb 761c 81bc 8aad e937 4c04 623b
000000c0: 6d89 c338 bace 3cbb 2a22 0bbc 92c0 dabb
000000d0: 1610 d3ba 77bd 9739 0253 9dbb 7e8b 2cbc
000000e0: 698d 5cbb a1ec f9b8 fb1d 5dbc c57d 77ba
000000f0: 3c72 9cbb 4262 8abb 6e81 90ba 0005 d8ba

exp_avg_sq f4 [64]
0.015246441 0.0026963807 0.0012613902 0.0011508401 0.00040181002 0.0006912501 0.0002679151 2.9800682e-05
0.0006015555 1.3066425e-07 0.008055119 0.00020214854 0.00035973435 0.00023790271 0.00027036315 0.0020431832
0.0006401188 0.0006518513 0.0012107858 0.0030786875 0.00042506904 0.0026773699 0.00045477817 0.0058071855
0.0017567936 0.0032619517 2.0484788e-06 0.00042082445 0.00016673683 0.0014113018 0.0006955857 8.249324e-05
0.0018438112 0.0033073425 8.243878e-05 0.0014228042 0.00067764637 0.0017002999 0.0021835112 0.00024010004
0.0002761141 0.003954099 0.0002948547 0.000106234664 0.0011558367 0.011068653 0.00035477788 0.0011125944
3.136303e-06 0.0013678302 0.0026398657 0.0014640804 0.00021226984 8.7038025e-05 0.0019089867 0.0029109402
0.00069583784 0.0008251995 0.008676896 0.0005957787 0.00053508364 0.0005619814 0.0001569689 0.0003764925
00000000: 35cc 793c c3b5 303b 3b55 a53a c9d7 963a
00000010: 07aa d239 0235 353a f576 8c39 7afc f937
00000020: b5b1 1d3a b74c 0c34 9ef9 033c d6f7 5339
00000030: ba9a bc39 8675 7939 87bf 8d39 ede6 053b
00000040: a5cd 273a 00e1 2a3a 3bb3 9e3a cec3 493b
00000050: cddb de39 d076 2f3b 4b6f ee39 344a be3b
00000060: 3644 e63a 78c6 553b 9978 0936 1aa2 dc39
00000070: 14d6 2e39 6efb b83a f757 363a 3900 ad38
00000080: 0aac f13a 00c0 583b fce2 ac38 637d ba3a
00000090: 14a4 313a 99dc de3a 3d19 0f3b 5dc3 7b39
000000a0: 68c3 9039 6391 813b ba96 9a39 4dca de38
000000b0: 727f 973a 4c59 353c 7b01 ba39 79d4 913a
000000c0: 4679 5236 c448 b33a 9901 2d3b 63e6 bf3a
000000d0: c094 5e39 2f88 b638 f736 fa3a 79c5 3e3b
000000e0: e368 363a 3352 583a 8a29 0e3c 082e 1c3a
000000f0: db44 0c3a ef51 133a 0598 2439 f863 c539

exp_avg f4 [32, 64, 5, 5]
0.00019566836 0.00014677766 0.000103119855 0.00010116436 8.559645e-05 0.00017728392 0.00015643694 0.00014472242
0.00011256137 8.6037944e-05 0.00014820955 0.00015915703 0.00016693892 0.00013785537 9.45735e-05 0.0001272653
0.00014365699 0.00016998712 0.00014392279 9.792741e-05 9.434366e-05 0.0001469903 0.00015535188 0.00012707371
7.37176e-05 0.000152105 0.00019717506 0.00015735465 0.00015552131 0.00012500785 0.00016958977 0.0001866807
0.00017147108 0.00015202818 0.00013078439 0.0001461677 0.0001609787 0.00015425142 0.00013563274 0.00010766342
8.706615e-05 0.00011639112 8.359761e-05 8.1354316e-05 7.129348e-05 4.8672893e-05 5.6605557e-05 6.393e-05
5.9850645e-05 5.633435e-05 6.8690344e-05 3.1038548e-05 1.43502375e-05 1.07024725e-05 7.2667076e-06 6.9256384e-05
3.8280985e-05 1.2687094e-05 8.356153e-07 7.761674e-06 8.7511406e-05 5.7830337e-05 4.258857e-05 2.8579017e-05
1.4205684e-05 0.00012684372 0.00012260472 0.00010599458 8.1213235e-05 7.267103e-05 0.00015712382 0.00015734433
0.00014459365 0.00012874538 0.00014017252 0.00019770808 0.00013428695 0.00020264945 0.0003377666 0.0005374706
9.486079e-05 0.000101512895 0.00016955777 0.00030510893 0.0005598238 8.4459156e-05 8.952428e-05 0.00021061953
0.00035551543 0.000595089 0.0001225108 0.00016265066 0.0003113804 0.0005078542 0.0007503447 0.00027202247
0.00034997755 0.0005080399 0.000764405 0.0009902233 1.6080037e-05 2.5618556e-07 1.6289077e-07 2.8466667e-07
6.698065e-07 2.7751921e-05 1.9769695e-06 6.364694e-07 3.3781464e-07 1.6127103e-07 2.9200794e-05 4.1741155e-06
1.9135071e-07 9.586173e-07 3.069361e-07 6.777485e-05 1.1227959e-05 1.2448367e-06 7.806025e-07 2.565669e-07
0.0001378709 4.3969165e-05 1.4409089e-05 2.1915253e-06 -7.6158534e-07 0.00029089683 0.00029545528 0.0002850393
0.00032954043 0.00032638916 0.0003015163 0.0002853799 0.0003010383 0.00035860905 0.00033860098 0.00023242708
0.00026008105 0.00027857226 0.00031060932 0.00029672225 0.00016573876 0.0002177997 0.00026054334 0.0002847056
0.0002467727 0.00011698441 0.00013656185 0.0002260394 0.0002541021 0.00019665949 6.585861e-05 0.00016512004
0.00027147314 0.0003072118 0.00031985433 6.842305e-05 0.00021733702 0.00032915518 0.00038413663 0.0003687283
0.00011665036 0.00027013873 0.00038492883 0.0004327887 0.0004161772 0.00017971722 0.00030620486 0.00044616158
0.00047819718 0.00042004886 0.00025720763 0.00038920165 0.00048502834 0.0005123458 0.00043653807 -3.7025695e-06
-7.899959e-07 1.2632561e-06 -4.0581887e-07 -1.3058758e-06 -3.5728506e-06 -2.0230161e-06 1.085025e-06 1.9900006e-06
3.246892e-07 8.1577565e-07 -1.2747298e-06 2.3076816e-06 6.3052985e-06 5.4207203e-06 2.293431e-06 -8.237649e-07
4.267431e-06 8.961934e-06 1.351318e-05 7.466946e-06 4.884355e-06 1.1062574e-05 1.730834e-05 2.1083368e-05
3.0935782e-06 -9.038886e-06 6.875378e-07 7.5476205e-06 7.929925e-06 8.403731e-06 -8.718204e-06 -4.0348614e-06
3.1754105e-06 6.9741727e-06 4.1566807e-05 2.3788798e-05 1.0635882e-05 1.2096426e-05 2.043813e-05 0.00011004119
8.1999104e-05 4.014187e-05 1.7837398e-05 5.141758e-05 0.0001986597 0.0001422361 8.339402e-05 6.4699896e-05
7.125227e-05 9.545818e-07 1.1238498e-06 4.2626309e-07 6.873743e-07 2.425877e-07 1.8294296e-06 1.3660701e-06
2.6317107e-07 2.994664e-07 2.5278942e-07 7.422131e-07 1.0036216e-06 2.3304108e-07 1.4435376e-07 4.428633e-08
-2.2231717e-07 4.6526e-07 9.0226386e-08 9.391491e-08 -9.566933e-08 -1.4049488e-08 -2.5235124e-07 -2.0478844e-07
-1.1871735e-07 -3.0193974e-07 8.387662e-05 4.431495e-05 3.2352564e-05 3.6744997e-05 5.1123814e-05 6.76596e-05
00000000: 532c 4d39 54e8 1939 0d42 d838 3428 d438
00000010: 3f82 b338 4ae5 3939 3909 2439 a1c0 1739
00000020: ed0e ec38 456f b438 b368 1b39 64e3 2639
00000030: 530c 2f39 458d 1039 c355 c638 8572 0539
00000040: a1a2 1639 923e 3239 fbe9 1639 615e cd38
00000050: 5eda c538 6921 1a39 f4e5 2239 173f 0539
00000060: d698 9a38 607e 1f39 c7c0 4e39 91ff 2439
00000070: 6f13 2339 8a14 0339 e8d3 3139 b8bf 4339
00000080: ebcc 3339 c169 1f39 2b23 0939 9844 1939
00000090: 64cc 2839 8dbe 2139 a338 0e39 5cc9 e138
000000a0: 4997 b638 0217 f438 2051 af38 c49c aa38
000000b0: 6583 9538 1f26 4c38 c16b 6d38 2812 8638
000000c0: 2408 7b38 8c48 6c38 d90d 9038 632f 0238
000000d0: cdc1 7037 c58e 3337 8bd4 f336 bd3d 9138
000000e0: e58f 2038 a7da 5437 0c4f 6035 2338 0237
000000f0: 5486 b738 da8e 7238 21a1 3238 f9bc ef37
00000100: f354 6e37 5a01 0539 748f 0039 6849 de38
00000110: 0651 aa38 f666 9838 9bc1 2439 ccfc 2439
00000120: 109e 1739 d3ff 0639 46fb 1239 dc4f 4f39
00000130: 61cf 0c39 4c7e 5439 4416 b139 0be5 0c3a
00000140: 00f0 c638 52e3 d438 51cb 3139 07f7 9f39
00000150: 24c1 123a aa1f b138 fbbe bb38 c0d9 5c39
00000160: 7964 ba39 bfff 1b3a 3e76 0039 348d 2a39
00000170: c540 a339 8521 053a c8b2 443a 3d9e 8e39
00000180: 317d b739 fb2d 053a 5a62 483a 61ca 813a
00000190: 9ee3 8637 e089 8934 13e7 2e34 4ad4 9834
000001a0: c1cc 3335 cccc e837 14ac 0436 d8d9 2a35
000001b0: e45c b534 d829 2d34 3af4 f437 610f 8c36
000001c0: 1576 4d34 d7a9 8035 fac8 a434 5822 8e38
000001d0: b75f 3c37 4314 a735 988a 5135 49be 8934
000001e0: 7091 1039 886b 3838 91be 7137 1e12 1336
000001f0: bf6f 4cb5 8383 9839 56e7 9a39 5471 9539
00000200: 2bc6 ac39 361f ab39 d514 9e39 0b9f 9539
00000210: add4 9d39 b103 bc39 4186 b139 abb7 7339
00000220: 7d5b 8839 560d 9239 47d9 a239 6391 9b39
00000230: 29ca 2d39 2961 6439 8999 8839 8a44 9539
00000240: 4561 8139 8755 f538 0b32 0f39 fd04 6d39
00000250: 0239 8539 6136 4e39 921d 8a38 1324 2d39
00000260: 8254 8e39 4511 a139 1fb2 a739 587e 8f38
00000270: f6e4 6339 7692 ac39 f265 c939 e051 c139
00000280: 2fa2 f438 68a1 8d39 46d0 c939 ebe7 e239
00000290: 5c32 da39 7972 3c39 1f8a a039 cbea e939
000002a0: 8ab6 fa39 013a dc39 d3d9 8639 c30d cc39
000002b0: 674b fe39 f24e 063a 26df e439 a979 78b6
000002c0: 1b10 54b5 268d a935 52df d9b4 8d45 afb5
000002d0: 1bc5 6fb6 27c3 07b6 2da1 9135 f38b 0536
000002e0: f250 ae34 adfb 5a35 6217 abb5 abdd 1a36
000002f0: 1a92 d336 a2e3 b536 d8e8 1936 b120 5db5
00000300: f430 8f36 375b 1637 abb6 6237 948c fa36
00000310: 4ae4 a336 6599 3937 6131 9137 30dc b037
00000320: 459b 4f36 b8a5 17b7 3d8f 3835 9141 fd36
00000330: c50a 0537 c0fd 0c37 6744 12b7 3263 87b6
00000340: 2319 5536 b003 ea36 0558 2e38 0e8e c737
00000350: c470 3237 c1f1 4a37 8d72 ab37 eac5 e638
00000360: eff6 ab38 015e 2838 85a1 9537 35a9 5738
00000370: 4f4f 5039 3625 1539 d3e3 ae38 7eaf 8738
00000380: 456d 9538 2e1f 8035 2fd7 9635 27d9 e434
00000390: 0184 3835 003d 8234 b98a f535 d059 b735
000003a0: f549 8d34 59c6 a034 1db7 8734 7f3c 4735
000003b0: 2db4 8635 d839 7a34 a9ff 1a34 5635 3e33
000003c0: 14b6 6eb4 d9c8 f934 7bc2 c133 45ae c933
000003d0: c572 cdb3 4d5e 71b2 e47a 87b4 d1e3 5bb4
000003e0: 8ef1 feb3 481a a2b4 ebe6 af38 d1de 3938
000003f0: 4db2 0738 a41e 1a38 c76d 5638 79e4 8d38
