logs/biosr_ccps_rcan_model-SRCNN_250305_lr0.0001_bs1_Ps256_Npatch128_N300/model_104.pth (torch, 695046 bytes, 15 tensors)

conv1.weight f4 [64, 1, 9, 9]
0	0x3da6d76a	0.08146556
1	0xbce40dc0	-0.027838588
2	0x3dabd29c	0.0838978
3	0xbcb18904	-0.02167178
4	0x3d3fc730	0.04682082
5	0xbd205b2b	-0.039149445
6	0x3e08f6e1	0.13375427
7	0xbc5e619f	-0.013573079
8	0x3e4ce5da	0.20009556
9	0xbce0db80	-0.027448416
10	0xbdbd76da	-0.09251185
11	0x3d48a3f0	0.048984468
12	0xbd481951	-0.04885227
13	0x3d0616d4	0.032736614
14	0x3d335032	0.043777652
15	0x3cfc04af	0.030763952
16	0x3d9e7cec	0.07738671
17	0x3dd67ff5	0.104736246
18	0x3dafcde2	0.08584191
19	0x3d1ecabe	0.03876757
20	0xbdc4d97c	-0.09611794
21	0xbc954bb2	-0.01822457
22	0xbd5049cf	-0.05085164
23	0xbdc06619	-0.093944736
24	0xbd8b795a	-0.06810255
25	0xbd936235	-0.07196466
26	0x3d4966fe	0.049170487
27	0xbdd22001	-0.102600105
28	0xbd0d5c8b	-0.034512084
29	0x3cc01414	0.023447074
30	0xbd9da8fb	-0.07698246
31	0xbdcd1e3e	-0.10015534
32	0x3b0e536d	0.0021717206
33	0xbcfa292a	-0.030537207
34	0xbd2cab5f	-0.04215562
35	0x3d94e819	0.072708316
36	0xbd956f93	-0.07296672
37	0xbd80e985	-0.0629454
38	0xbb99659b	-0.004681302
39	0x3d2f0abe	0.042734854
40	0xbd0499b5	-0.03237315
41	0x3d93b1a1	0.072116144
42	0x3d542e2e	0.051801853
43	0x3d84b5f9	0.06480021
44	0x3cb67918	0.022274539
45	0xbd14c7ea	-0.036323465
46	0xbdc8b87d	-0.09800813
47	0xbb1c72f3	-0.0023872226
48	0xbdc36552	-0.0954081
49	0x3ccc49ab	0.024937471
50	0x3cd46648	0.025927678
51	0x3cb77a2e	0.022397127
52	0x3d5ad1d8	0.05342278
53	0x3dfcd1b4	0.12344685
54	0xbd5da01a	-0.054107763
55	0xbce9f0eb	-0.028557261
56	0xbc210434	-0.009827662
57	0x3d027d85	0.031857986
58	0x3d9e1764	0.07719305
59	0x3d7640a1	0.06012023
60	0xbd3dd6da	-0.046347477
61	0x3dd6592e	0.104662284
62	0x3bc59579	0.0060297814
63	0x3d1d21f1	0.038362447
64	0x3d120896	0.03565272
65	0x3aac8745	0.0013162872
66	0xbd53959f	-0.05165636
67	0xbd564f18	-0.052321523
68	0x3c1cab62	0.009562345
69	0xbd87c3f5	-0.06629173
70	0xbcb97e55	-0.022643248
71	0xbd8aff10	-0.067869306
72	0x3d328bb7	0.043590274
73	0xbcc5257b	-0.024065724
74	0x3caec345	0.021333346
75	0x3d6350b7	0.055496898
76	0xbd490b4b	-0.049083035
77	0xbc0c6449	-0.008568832
78	0xbdaeeae2	-0.08540894
79	0xbbb79fb5	-0.0056037554
80	0xbd8e46fb	-0.06947132
81	0xbd41c090	-0.047302783
82	0xbb7169bd	-0.0036836707
83	0xbcefb208	-0.029259697
84	0x3bdd7f0e	0.006759531
85	0x3d93eca2	0.072228685
86	0xbd03b9b7	-0.032159533
87	0xbdfbd15d	-0.12295792
88	0x3d699da1	0.057035092
89	0xbc8a4dce	-0.016882803
90	0x3ca2f8cd	0.019894028
91	0xbc8db69b	-0.017298987
92	0x3d6aa3fb	0.05728529
93	0xbdd00ab0	-0.101582885
94	0x3d8f0014	0.06982437
95	0x3d983e64	0.07433775
96	0x3d94c527	0.07264166
97	0x3d0fae7b	0.035078507
98	0x3db9b541	0.090677746
99	0x3d0c1760	0.03420198
100	0x3c9b4208	0.018952385
101	0xbcb390c1	-0.02191961
102	0x3dacfb71	0.08446396
103	0x3d97f56e	0.07419859
104	0xbd4a2bef	-0.049358305
105	0x3c4a231d	0.012337473
106	0xbdc07387	-0.09397035
107	0xbcc600a7	-0.024170233
108	0x3cdfda39	0.027325736
109	0xbc5dbc35	-0.013533642
110	0xbdf4f3c0	-0.11960554
111	0x3da97a70	0.08275306
112	0x3cf89301	0.030343534
113	0xbdba756b	-0.09104427
114	0xbdd64ed4	-0.10464254
115	0xbd3e887c	-0.04651688
116	0xbdbe96e4	-0.09306124
117	0xbd7fc667	-0.06244507
118	0xbd73dd31	-0.059537116
119	0xbdcfbfd1	-0.10144008
120	0x3d4538bc	0.04814981
121	0x3df16168	0.11786157
122	0x3b56b2ae	0.003276031
123	0xbd27eba7	-0.04099622
124	0x3db093df	0.08621954
125	0xbdd51475	-0.104042925
126	0xbd0b05bb	-0.033941012
127	0xbdc1259e	-0.09431003
128	0x3d08706d	0.033310343
129	0xbdb10a73	-0.08644571
130	0xbdbd4b3b	-0.09242865
131	0x3d3bd61b	0.045858484
132	0xbd87b2a7	-0.06625872
133	0xbdbfc001	-0.09362794
134	0x3b650121	0.00349433
135	0xbd50426d	-0.0508446
136	0x3d8cf1c1	0.068820484
137	0x3bf5bf63	0.0074996217
138	0x3bf3e4d2	0.007443049
139	0xbd27d756	-0.040976845
140	0x3d73637f	0.05942106
141	0x3d9073be	0.07053326
142	0x3dab3703	0.08360102
143	0x3c484654	0.012223799
144	0xbdf16da5	-0.11788491
145	0x3c1bdbac	0.009512823
146	0xbd95124a	-0.07278879
147	0xbdc1e920	-0.09468293
148	0x3d93a747	0.0720964
149	0x3d274acf	0.040842827
150	0x3d04f8d7	0.032463875
151	0x3ddf2818	0.10896319
152	0x3cf2374e	0.029567387
153	0xbc92b83f	-0.017910121
154	0xbcf2b75c	-0.029628448
155	0x3d42be43	0.04754473
156	0x3c851983	0.016247516
157	0xbd857d3c	-0.06518027
158	0xbdcad611	-0.09904111
159	0x3d879408	0.066200316
160	0x3d935d4a	0.07195528
161	0x3df6ff2d	0.1206039
162	0x3d81559e	0.06315158
163	0x3dfcba82	0.12340261
164	0xbd500706	-0.050787948
165	0x3d7c0e49	0.06153706
166	0x3d171a0f	0.036890086
167	0x3ce4c7c2	0.027927283
168	0xbd9cc073	-0.07653894
169	0xbd86999e	-0.06572269
170	0x3d403e67	0.04693451
171	0x3de19b97	0.110160045
172	0x3d946675	0.07246105
173	0xbcfd8553	-0.030947363
174	0x3df3b9ba	0.11900659
175	0x3d69f006	0.05711367
176	0x3c942cc6	0.018087756
177	0x3caa477b	0.020786038
178	0x3db525ac	0.08845076
179	0x3d992eb3	0.0747961
180	0x3da9993d	0.08281181
181	0xbd553140	-0.05204892
182	0x3dbf398b	0.09337147
183	0x3dca700f	0.09884655
184	0xb99793be	-0.0002891104
185	0x3d75c5cc	0.060003087
186	0xbd936a00	-0.07197952
187	0xbddd83e8	-0.10816175
188	0xbdac26ee	-0.08405863
189	0x3df3cf32	0.11904754
190	0x3ddd1160	0.1079433
191	0x3cb206f2	0.021731827
192	0x3dc6246d	0.096749164
193	0x3dabb46a	0.083840206
194	0xbd2d3260	-0.04228437
195	0x3cb6bdaf	0.022307245
196	0xbd7d7545	-0.061879415
197	0xbe0267b9	-0.1273488
198	0x3ddefbf4	0.108879
199	0xbd23fe62	-0.04003752
200	0xbcfe887d	-0.031070942
201	0x3cacdf25	0.021102497
202	0x3d8cd121	0.06875826
203	0x3da266f1	0.07929791
204	0xbcfd18f0	-0.03089568
205	0x3b8b8541	0.0042578285
206	0xbbade7ff	-0.005307197
207	0xbd198e0f	-0.037488993
208	0xbc4edcc4	-0.012625877
209	0x3cb11352	0.021615658
210	0xbda044d3	-0.07825627
211	0x3d501cf5	0.050808866
212	0xbddf2b2c	-0.10896906
213	0x3cc541b4	0.024079181
214	0xbde47e80	-0.111569405
215	0xbe0bb306	-0.13642511
216	0x3cec1594	0.028818883
217	0x3cc6c69f	0.024264632
218	0xbd2df19c	-0.042466745
219	0x3d835972	0.06413545
220	0x3db71d83	0.08941176
221	0x3c1da186	0.00962103
222	0xbddd73d8	-0.10813111
223	0xbdecfdd4	-0.115718514
224	0xbe23fb86	-0.16013917
225	0x3c0f5c97	0.0087501025
226	0x3dd6cb09	0.10487945
227	0x3c54c908	0.012987383
228	0xbdc87bac	-0.097892135
229	0x3d8ebb24	0.06969288
230	0x3ce4c553	0.027926123
231	0xbda51761	-0.080611
232	0xbe1b4d97	-0.15166317
233	0x3ca1ca80	0.01974988
234	0x3de5d3a1	0.11222006
235	0x3ca74bd6	0.020421904
236	0xbd146977	-0.03623339
237	0xbcd6fd2a	-0.026243765
238	0xbd384f96	-0.044997774
239	0xbdecab9e	-0.11556171
240	0x3bc82098	0.006107401
241	0xbdc27b57	-0.094961815
242	0xbe0405bb	-0.12892811
243	0x3dda6518	0.10663813
244	0xbdb015a6	-0.08597879
245	0x3dc7b820	0.09751916
246	0x3df2924f	0.118443124
247	0x3d980f68	0.074248135
248	0xbd0c217a	-0.034211613
249	0xbd3a8451	-0.045536343
250	0x3ccead2f	0.025229065
251	0xbd9acbdb	-0.075584136
252	0x3d4cc5b9	0.04999325
253	0xbba12a0a	-0.0049183415
254	0x3c0898b3	0.008337188
255	0x3dea8386	0.11450867

conv1.bias f4 [64]
0	0x3ccfd81e	0.025371607
1	0x3d5670d2	0.052353688
2	0x3c946bc6	0.018117797
3	0x3b9ed781	0.0048474674
4	0xbdd1e42c	-0.102485985
5	0x3d9cae3b	0.07650419
6	0x3db9f478	0.09079832
7	0xbd981969	-0.074267216
8	0xbd1765ef	-0.036962446
9	0x3ce5d12d	0.028053844
10	0xbd11a72b	-0.035559814
11	0xbc8f9e64	-0.017531581
12	0xbdd02357	-0.101629905
13	0xbc8bb5bb	-0.01705443
14	0xbda2740c	-0.079322904
15	0xbd85d8b4	-0.065354735
16	0x3dbb802c	0.09155306
17	0xbcc63000	-0.02419281
18	0xbb597eac	-0.0033187075
19	0xbcaa329e	-0.02077609
20	0xbd137825	-0.03600325
21	0xbdd2f157	-0.10299938
22	0xbdec9888	-0.115525305
23	0xbca04561	-0.019564332
24	0xbc9b5562	-0.018961612
25	0x3c933d80	0.017973661
26	0xbcd486c2	-0.025943164
27	0xbda0d3a8	-0.0785287
28	0xbd999834	-0.074997336
29	0xbd7d0f36	-0.061782084
30	0xbd03b19d	-0.032151807
31	0xbca2785e	-0.019832786
32	0xbda3d054	-0.0799872
33	0xbda5a5b0	-0.08088243
34	0x3d89fa9d	0.06737254
35	0xbb1d4e6c	-0.0024003042
36	0xbd9461d2	-0.0724522
37	0x3d4c3d01	0.049862865
38	0xbcd60c80	-0.026129007
39	0x3e1ebeb4	0.15502435
40	0x3d45ea88	0.04831937
41	0x3d7a8637	0.061163153
42	0xbca79fdc	-0.02046197
43	0xbcaaa650	-0.020831257
44	0x3d0f0b94	0.03492315
45	0xbdf85d0c	-0.12127122
46	0xbc443cea	-0.011977414
47	0xbd121a78	-0.035669774
48	0x3cb9eea6	0.022696804
49	0xbcfab231	-0.030602546
50	0x3ddacae8	0.106832325
51	0xbd809610	-0.06278622
52	0x3be3f8ac	0.006957134
53	0xbb5188cb	-0.0031972404
54	0x3d8c81a4	0.068606645
55	0xbd71c4b8	-0.059025496
56	0x3d186aaa	0.037211098
57	0xbda4fd46	-0.080561206
58	0x3c212b13	0.00983693
59	0x3c451f41	0.012031377
60	0xbc815555	-0.01578776
61	0x3a776b08	0.0009438251
62	0x3d60b92e	0.0548641
63	0xbdabc619	-0.083873935

conv2.weight f4 [32, 64, 5, 5]
0	0xbcb721d8	-0.022355005
1	0xbd1c9833	-0.038231086
2	0x3c6c28cd	0.014414025
3	0xbc38b56a	-0.011273721
4	0x3cf6164c	0.030039929
5	0x3bbb927f	0.005724251
6	0xbc2e1134	-0.010624219
7	0x3cd51999	0.026013182
8	0xbbf953cb	-0.007608866
9	0x3c2fb139	0.0107234055
10	0xbb5c5df4	-0.0033625336
11	0xbbe1f160	-0.006895229
12	0xbbee231e	-0.00726737
13	0xbca11b4f	-0.019666342
14	0x3afc7f97	0.0019264099
15	0xbd355d41	-0.044278387
16	0xbcad5974	-0.021160819
17	0xbd0e148c	-0.034687564
18	0xbd0691d6	-0.032853924
19	0xb87e7f07	-6.0676623e-05
20	0x3af84813	0.0018942378
21	0x3c8efc93	0.017454421
22	0x3ca7d95e	0.020489391
23	0x3d1b0091	0.037842337
24	0x3d4cd299	0.05000553
25	0xbdf8829e	-0.12134288
26	0xbca21b67	-0.019788457
27	0x3d5f9e89	0.05459455
28	0x3b5a3755	0.003329714
29	0xbcae84ab	-0.021303495
30	0xbb4fb4cf	-0.0031693464
31	0xbd25095a	-0.04029212
32	0x3d726509	0.059178386
33	0x3d29b178	0.041429013
34	0x3b5754c9	0.0032856932
35	0xbd831da5	-0.064021386
36	0xbdaa5c30	-0.083183646
37	0x39db2ca5	0.00041804198
38	0xbc84925a	-0.016183067
39	0xbbd22a90	-0.0064137653
40	0xbdb39168	-0.087679684
41	0xbd9e03ed	-0.077155925
42	0xbc91f00e	-0.017814662
43	0xbc422940	-0.011850655
44	0xbc278c2d	-0.010226292
45	0xbd46a784	-0.0484996
46	0xbc6a52db	-0.014301981
47	0x3bf6ea18	0.0075352304
48	0xb9d36d4f	-0.00040326497
49	0xbcda584a	-0.026653428
50	0x3c8929f4	0.016743638
51	0x3c0b7136	0.008510878
52	0x3cb9b398	0.022668645
53	0x3cef1cd5	0.029188553
54	0x3c73c336	0.014878085
55	0xbcee5554	-0.029093422
56	0xbc5b9316	-0.013401767
57	0xbc82fdde	-0.015990194
58	0xbc63bdf0	-0.013900265
59	0x3c31774f	0.010831668
60	0xbcfbed5e	-0.030752834
61	0xba3dde77	-0.00072429277
62	0xbc0b7233	-0.008511114
63	0x3c288ca2	0.010287436
64	0x3c434090	0.011917248
65	0xbd334de2	-0.043775447
66	0xbb811f80	-0.0039405227
67	0xbd07b63b	-0.033132773
68	0x3d0cb345	0.034350652
69	0x3d82b62b	0.06382402
70	0xbb56a10d	-0.0032749802
71	0x3c458946	0.012056654
72	0x3ca7e85f	0.020496545
73	0x3d55bff4	0.052185014
74	0x3e2640ad	0.1623561
75	0x3cb1327d	0.02163052
76	0xbcde5053	-0.027137911
77	0xbb9b7945	-0.004744681
78	0xbbc07654	-0.005873481
79	0x3cf4f546	0.029902112
80	0x3c207220	0.0097928345
81	0x3b83ad52	0.004018464
82	0xbd16b641	-0.036794905
83	0xbc1442f7	-0.009049169
84	0x3c75c420	0.015000373
85	0xbc355378	-0.011067264
86	0x3c041c83	0.008063438
87	0x3b6f25ad	0.0036490962
88	0x3cca5d54	0.024702705
89	0x3c802b62	0.015645687
90	0xbbb585a4	-0.005539613
91	0xbd10596f	-0.03524154
92	0xbc4f1ce4	-0.012641165
93	0xbbf96f19	-0.007612121
94	0xbce0811f	-0.02740532
95	0xbd02560a	-0.031820334
96	0xbd3c80fc	-0.046021447
97	0xbd578711	-0.052619044
98	0xbdfb7108	-0.122774184
99	0xbe2f047a	-0.17091551
100	0x3b2e8702	0.0026630764
101	0x3c3e28e7	0.011606432
102	0x3c089cce	0.008338166
103	0xbc88105b	-0.016609361
104	0xbd3644df	-0.044499274
105	0x3c9874ba	0.018610347
106	0x3bd0f7ce	0.006377197
107	0xbb927725	-0.0044697695
108	0x3c001061	0.007816405
109	0xbd4181e6	-0.04724302
110	0x3d07a038	0.03311178
111	0x3cc61c34	0.02418337
112	0x3b70a670	0.0036720298
113	0xbabcf377	-0.001441582
114	0xbd02fe2e	-0.031980686
115	0xbb4d5506	-0.0031331195
116	0x3c982ae3	0.018575137
117	0xbd43ec36	-0.04783269
118	0xbd06b947	-0.032891538
119	0xbccc370c	-0.024928592
120	0x3d729118	0.059220403
121	0x3c39c277	0.011337868
122	0x3d14f430	0.036365688
123	0x3d3a8e38	0.045545787
124	0x3d7e9039	0.06214926
125	0x3bb09244	0.00538853
126	0x3c4a22e8	0.012337424
127	0x3a667f5b	0.0008792781
128	0x3c965f39	0.018355953
129	0xbc97f411	-0.018548997
130	0x3b29e499	0.0025923608
131	0x3c07b2c5	0.008282368
132	0xbb848f27	-0.0040453854
133	0x3bfd5050	0.0077305213
134	0xbd00bf61	-0.031432513
135	0xbce674f1	-0.028131934
136	0xbcd1fc33	-0.025632953
137	0xbce0dac2	-0.027448062
138	0xbd091b35	-0.033473212
139	0xbcf43257	-0.02980916
140	0x3b685799	0.0035452603
141	0xbc010b91	-0.007876293
142	0x3b33768a	0.0027383887
143	0x3c837b45	0.01604999
144	0xba17cd2c	-0.0005790766
145	0x3c2c7f0e	0.010528339
146	0x3cfaa121	0.03059441
147	0x3c95e943	0.018299704
148	0x3ce9ef1b	0.028556397
149	0x3c6fbca0	0.014632374
150	0x3b64d555	0.0034917195
151	0x3d0d72c6	0.034533285
152	0x3d60d9d7	0.05489525
153	0xbcc2d5ca	-0.023783583
154	0xbd72a9b3	-0.05924387
155	0xbb9dd917	-0.004817139
156	0xbb492ad1	-0.0030695687
157	0xbcb9d5d2	-0.022684965
158	0xbd868776	-0.06568806
159	0xbd1f61b3	-0.038911533
160	0x3c177da7	0.009246266
161	0xbc00ca91	-0.007860796
162	0xbc1a8e40	-0.009433329
163	0xbd68a40a	-0.056797065
164	0xba0d6387	-0.0005393554
165	0x3d596f4b	0.053084653
166	0x3ca162c8	0.019700423
167	0xbd5856fa	-0.052817322
168	0x3be085b0	0.0068518743
169	0x3c28ef32	0.010310935
170	0x3d346315	0.044039804
171	0x3d2b9cb9	0.04189751
172	0xbd2a5b1b	-0.04159079
173	0x3c9afd0c	0.01891949
174	0x3d9e1b40	0.07720041
175	0xbca39735	-0.019969562
176	0xbcee1ef5	-0.029067496
177	0x3c34cc85	0.011035089
178	0xbca1245d	-0.01967066
179	0xbd0702a8	-0.032961518
180	0xbd03d018	-0.032180876
181	0x3c680906	0.014162308
182	0x3ca96078	0.020675883
183	0xbcc99c6b	-0.024610719
184	0x3caad107	0.020851625
185	0x3a948fa7	0.0011334316
186	0x3d121554	0.03566487
187	0x3c5262c4	0.01284093
188	0xbc20d73a	-0.009816939
189	0xbc651ccb	-0.013983916
190	0x3caf9c6d	0.021436894
191	0xbb5f529b	-0.0034076336
192	0xbc657632	-0.014005231
193	0x3c35a01f	0.011085539
194	0x3d0bfde1	0.034177665
195	0x3ce0a24c	0.02742114
196	0x3bd975dd	0.006636365
197	0x3bf2ea8a	0.007413213
198	0x3d4a8f1d	0.04945289
199	0x3dd09652	0.10184921
200	0x3d1346b7	0.03595611
201	0xbd64ad3b	-0.055829268
202	0xbd12b4e3	-0.03581704
203	0xbcbb1e21	-0.022841515
204	0xbd46228a	-0.048372783
205	0xbc549331	-0.012974546
206	0xbd008ddd	-0.03138529
207	0xbd328b7a	-0.043590046
208	0xbbb73291	-0.005590745
209	0x3c937f00	0.018004894
210	0xbdc1ef59	-0.0946948
211	0xbd111e2a	-0.035429157
212	0xbd9ba74f	-0.07600271
213	0xbd4e673b	-0.050391417
214	0x3dcc7adc	0.09984371
215	0xbe14926f	-0.14508985
216	0xbde41c45	-0.111382045
217	0xbdac0f4f	-0.084013574
218	0xbd4a344c	-0.04936628
219	0x3db6b106	0.08920483
220	0xbd6b434e	-0.057437234
221	0xbd8bc0b9	-0.06823868
222	0xbd5b1d58	-0.05349478
223	0x3d547544	0.051869646
224	0x3e191884	0.14950758
225	0x3c8fa433	0.017534351
226	0xbb5b4563	-0.0033458106
227	0xbb385557	-0.0028127038
228	0xbd0ba300	-0.034090996
229	0xbcbe1523	-0.023203438
230	0x3d40d0d1	0.047074143
231	0x3b8fc09d	0.004386975
232	0xbca88900	-0.02057314
233	0xbd76dbf0	-0.060268342
234	0x3d1f51c3	0.038896333
235	0xbd8d0683	-0.06886008
236	0xbd3e3d9a	-0.046445467
237	0xbd8d8863	-0.06910779
238	0xbd6c5c59	-0.057705257
239	0x3d8265b1	0.06367052
240	0xbdcfb111	-0.101411946
241	0xbda43d14	-0.08019462
242	0xbcc1ff67	-0.023681356
243	0x3d3a331a	0.04545889
244	0x3d7a08c6	0.061043523
245	0xbdbd041b	-0.09229299
246	0xbd1d74e8	-0.03844157
247	0xbcd9c343	-0.026582366
248	0x3e80cb09	0.25154904
249	0x3d2aa9f5	0.04166599
250	0x3d8a1eaa	0.0674413
251	0xbcc8e26a	-0.024522025
252	0xbd5e2dae	-0.054242782
253	0xbd99326b	-0.074803196
254	0xbdfa79b7	-0.122302465
255	0x3d6e525d	0.058184016

conv2.bias f4 [32]
0	0x3bb751dc	0.005594475
1	0xbd090ab5	-0.033457477
2	0x3c47e0ee	0.0121996235
3	0xbcb6d2fd	-0.022317404
4	0x3c77edef	0.015132411
5	0xbc8bd4ae	-0.017069187
6	0xbcb84be5	-0.022497127
7	0x3c973320	0.018456995
8	0xbc4d6cfb	-0.01253819
9	0xbc9b9b44	-0.018994935
10	0xbccb1f24	-0.024795122
11	0x3c689ded	0.014197809
12	0xbc3e8da5	-0.01163045
13	0xbc7bfdf8	-0.015380375
14	0x3c83dcb4	0.01609645
15	0xbcecf079	-0.02892326
16	0xbcd3870f	-0.025821237
17	0xbc6bf2d9	-0.014401161
18	0x3af9c59d	0.0019056086
19	0xbd6e14d1	-0.05812532
20	0x3d4d4dbb	0.050122958
21	0xbc0c3e18	-0.008559726
22	0xbc306931	-0.010767267
23	0x3b880ea3	0.0041521355
24	0xbc92dffd	-0.017929072
25	0xbc24ec12	-0.010066049
26	0xbc9c3239	-0.019066917
27	0x3ca4494b	0.02005448
28	0xbcdf3583	-0.027247196
29	0x3b7c6bd1	0.0038516412
30	0x3ca69f50	0.020339638
31	0xbcdb36f3	-0.0267596

conv3.weight f4 [1, 32, 5, 5]
0	0xbd47d9fe	-0.048791878
1	0xbc85c336	-0.016328435
2	0xbcb6f873	-0.022335267
3	0xbcfba961	-0.030720415
4	0x3b858b8e	0.004075474
5	0x3bc4e81b	0.0060091144
6	0xbce80cfe	-0.028326508
7	0xbd5897dc	-0.0528792
8	0xbc35d8a1	-0.011099012
9	0x3c895375	0.016763428
10	0x3ca080d0	0.019592673
11	0xbd3a7889	-0.045525108
12	0xbd2c199a	-0.042016603
13	0xbaa39b3c	-0.0012482177
14	0x3c146be4	0.009058926
15	0xbbbb2146	-0.0057107536
16	0xbcc3216e	-0.023819651
17	0xbcebb294	-0.028771676
18	0xbc619aed	-0.013769847
19	0x3c916b19	0.017751263
20	0x3d8cf58a	0.0688277
21	0x3d65797a	0.056024052
22	0x3d488e6c	0.04896395
23	0x3d243065	0.040085215
24	0x3df5d8a5	0.12004212
25	0xbd27544f	-0.040851887
26	0xbcdd1e7f	-0.02699208
27	0xbd341467	-0.04396477
28	0xbc0f3f97	-0.008743188
29	0xbb1e4316	-0.0024148873
30	0xbd27735c	-0.0408815
31	0xbd593b47	-0.053035047
32	0xbcc05bda	-0.023481298
33	0xbc60246f	-0.013680561
34	0xbd0274ca	-0.03184966
35	0xbd050523	-0.032475602
36	0xbc61fe61	-0.013793559
37	0xbd259e89	-0.040434394
38	0xbcd7cadb	-0.026341846
39	0xbc63c4e0	-0.013901919
40	0xbd23faca	-0.040034093
41	0x3c428650	0.011872843
42	0xbd1df65b	-0.03856502
43	0xbc4ea768	-0.012613155
44	0xbcb7dfe9	-0.022445636
45	0xbbcc357c	-0.006231962
46	0xbd6ae64c	-0.057348534
47	0xbc8cc108	-0.017181888
48	0xbce2f6a6	-0.027705502
49	0xba44a551	-0.00075014407
50	0x3d1574c6	0.036488317
51	0xbc73ce22	-0.014880689
52	0x3bd3ed8e	0.0064675277
53	0x3d079d55	0.033109028
54	0x3d0cd75e	0.034385078
55	0xbc0cf635	-0.008603622
56	0x3c8d785a	0.017269302
57	0xbca5857c	-0.020205252
58	0xbc649196	-0.013950726
59	0xbcd93625	-0.026515076
60	0x3c550d2b	0.013003628
61	0xbcecbb3d	-0.028897876
62	0xbc84e3db	-0.016221931
63	0xbc6d9ee1	-0.014503212
64	0x3b9a68b4	0.0047121886
65	0x3baee449	0.0053372723
66	0xbbde2b25	-0.0067800456
67	0xbcdf32c4	-0.027245887
68	0xbba1c8d7	-0.004937272
69	0x3c8e03cb	0.017335793
70	0x3c4ecf1d	0.012622622
71	0xbc8ca6f3	-0.017169451
72	0xbbb54c96	-0.0055328114
73	0xbd033fd6	-0.0320433
74	0x3c9bab2c	0.01900252
75	0xbd01f756	-0.03173002
76	0xbcafa640	-0.021441579
77	0xbd5f5452	-0.054523773
78	0xbd4c04c1	-0.04980922
79	0xbcd20095	-0.025635043
80	0xbc393101	-0.011303187
81	0x3cc7245e	0.024309333
82	0x3caf3f60	0.021392524
83	0xbc566e1e	-0.013087777
84	0x3ce9585d	0.028484518
85	0xbbb67b8d	-0.0055689276
86	0xbc952237	-0.018204791
87	0x3c862fac	0.016380154
88	0xbbb2d4cd	-0.0054574967
89	0x3d06eec7	0.03294256
90	0x3c2c2ef6	0.010509243
91	0x3c4f5324	0.0126541
92	0xbcbeb62d	-0.023280228
93	0xbc093656	-0.008374771
94	0x3d1fec12	0.039043494
95	0x3d44d1f7	0.0480518
96	0x3cd38751	0.02582136
97	0x3b836917	0.0040103304
98	0x3d173707	0.036917713
99	0x3da5eb24	0.0810149
100	0xbd9bcb16	-0.07607095
101	0xbd205a52	-0.039148636
102	0xbcb9c11d	-0.022675091
103	0xbc48d791	-0.012258426
104	0xbd89d553	-0.067301415
105	0xbb0a3889	-0.0021090826
106	0xbb986f91	-0.0046519716
107	0x3d203d63	0.039121043
108	0xbca64975	-0.020298699
109	0xbc94e329	-0.018174725
110	0xbcd56145	-0.026047358
111	0xbb5dbe39	-0.0033835305
112	0x3c949d60	0.018141448
113	0xba7f0a97	-0.0009729056
114	0x3c68b8fa	0.014204258
115	0xbcb52abc	-0.022115104
116	0x3ca863cb	0.020555397
117	0xbc0c4dff	-0.008563518
118	0xbc50bf27	-0.012740887
119	0x3c12ca8d	0.008959425
120	0xbc5759a2	-0.013143929
121	0x3d14b9cf	0.036310013
122	0x3cf99ee0	0.030471265
123	0x3ba4be3b	0.00502756
124	0x3c494b64	0.012286041
125	0xbdddd21f	-0.10831093
126	0xbda8c400	-0.08240509
127	0xbd329655	-0.0436004
128	0xbd6a52d7	-0.05720791
129	0xbd842fd9	-0.06454439
130	0xbd0a0c08	-0.03370288
131	0xbd0dc5f8	-0.034612626
132	0xbd09a2ed	-0.033602644
133	0xbd076397	-0.03305396
134	0xbd032bcc	-0.03202419
135	0xbda4c962	-0.08046223
136	0xbca57020	-0.020195067
137	0xbd6a9c18	-0.05727777
138	0x3b3c7395	0.0028755416
139	0xbd8a80e0	-0.06762862
140	0xbd633d8c	-0.055478618
141	0xbbf37d10	-0.00743068
142	0xbd0b6ca8	-0.03403917
143	0xbd146343	-0.036227476
144	0xbc6d7f6d	-0.014495713
145	0xbda5bf59	-0.08093137
146	0xbd5d988d	-0.054100562
147	0xbd36414b	-0.044495862
148	0xbc56e040	-0.013114989
149	0xbd10d53f	-0.035359617
150	0x3d2bc03a	0.04193137
151	0xbbe84b26	-0.0070890365
152	0xbbc38fa8	-0.005968053
153	0x3d18b407	0.037281062
154	0x3cf57f3f	0.029967902
155	0xbc189151	-0.00931199
156	0xbb1cda62	-0.0023933877
157	0xbc3d95bd	-0.011571345
158	0x3b0464e9	0.0020201749
159	0x3d088196	0.033326708
160	0xbce95698	-0.028483674
161	0x3bf080bb	0.0073395646
162	0xbb3a5be0	-0.002843611
163	0xbbef368d	-0.007300204
164	0x3c2b06d2	0.010438638
165	0x3ce2ddda	0.027693678
166	0xbc91c980	-0.017796278
167	0xbc05d7e2	-0.008169146
168	0x3b908dc1	0.0044114296
169	0x3c306aae	0.010767622
170	0x3c830166	0.015991878
171	0x3cf14059	0.029449629
172	0x3c734a03	0.014849189
173	0x3cca6856	0.024707954
174	0x3beeedf4	0.00729155
175	0x3d982a44	0.074299365
176	0x3d8e0128	0.06933814
177	0x3caa0457	0.020754023
178	0x3be9be01	0.007133246
179	0x3d25f6b2	0.04051847
180	0x3da4fd48	0.08056122
181	0x3ca64144	0.020294793
182	0x3cb76d42	0.022390965
183	0x3c8b68ae	0.017017689
184	0x3cff973a	0.03120004
185	0x3d7e5bd4	0.062099293
186	0xbc21e886	-0.009882098
187	0x3d149d11	0.036282603
188	0xbc342048	-0.010994025
189	0xbb831078	-0.003999766
190	0x3cfff0ef	0.031242816
191	0x3d014cea	0.03156749
192	0x3d073745	0.033011694
193	0x3b642655	0.0034812887
194	0x3c43dc14	0.011954326
195	0x3cc5b548	0.024134293
196	0x3cb693d9	0.022287296
197	0x3c97aabf	0.018514035
198	0x3b883a17	0.0041573155
199	0x3d2a4d96	0.041577898
200	0x3d35b2f7	0.044360127
201	0x3d2a0e80	0.041517735
202	0x3d43419c	0.04766999
203	0x3d12bef6	0.035826646
204	0x3d96d9dd	0.07365773
205	0xbad78c83	-0.0016445074
206	0x3d2070ec	0.03917019
207	0x3b16f8f3	0.002303657
208	0x3cc79579	0.024363266
209	0x3d68c644	0.056829706
210	0x3c8eade9	0.017416911
211	0x3cc4e6fd	0.024035925
212	0x3d2c58dc	0.04207693
213	0x3ba39513	0.0049921363
214	0x3c9bddef	0.019026725
215	0x3cae2aa0	0.02126056
216	0x3c3cc168	0.011520721
217	0x3cdd3192	0.027001176
218	0x3ca44929	0.020054417
219	0x3be79dde	0.00706838
220	0x3cee5e56	0.029097717
221	0x3c57792f	0.013151451
222	0x3cf7d14c	0.030251168
223	0xbc80b860	-0.015712917
224	0x3cb50e93	0.022101676
225	0x3d1cf8bf	0.03832316
226	0x3ccffeb9	0.025390016
227	0x3cb56bcd	0.02214613
228	0x3d42db19	0.04757223
229	0x3d0e3ffd	0.034728993
230	0x3d244c81	0.040112022
231	0x3cc18da1	0.023627104
232	0x3c08133f	0.00830537
233	0x3cb2a6a1	0.02180797
234	0x3d0f26e1	0.034949187
235	0xbb73072a	-0.0037083128
236	0xbb2a93b1	-0.0026027972
237	0x3c800278	0.015626177
238	0x3d0ba87b	0.034096222
239	0x3cb3e20a	0.02195837
240	0x3cfd0d95	0.030890265
241	0x3d25845d	0.040409435
242	0x3cc0d12e	0.023537245
243	0x3b735b9f	0.0037133468
244	0x3d2aab7c	0.041667446
245	0x3d41355e	0.047170036
246	0x3d566526	0.052342556
247	0x3d19ff86	0.0375972
248	0x3d111306	0.035418533
249	0x3d8faad7	0.07015007
250	0x3cde6ebd	0.027152414
251	0xbbbe5e42	-0.0058095763
252	0x3c6c08e4	0.014406417
253	0xbb635422	-0.0034687598
254	0x3d2959b9	0.04134533
255	0x3b1af1d5	0.0023642678

exp_avg f4 [64, 1, 9, 9]
0	0xba003412	-0.00048905716
1	0xb9e329f6	-0.00043328077
2	0xb9bd40f0	-0.0003609727
3	0xb999cada	-0.0002933357
4	0xb98e2755	-0.00027113655
5	0xb98e7dc7	-0.00027178062
6	0xb9aa7c19	-0.00032517387
7	0xb9c4967a	-0.00037496147
8	0xb9e8a79b	-0.00044375364
9	0xba0f4da8	-0.0005466589
10	0xb9f9641f	-0.00047567577
11	0xb9d8e2e5	-0.0004136778
12	0xb9a9f3b8	-0.00032415777
13	0xb98ebabe	-0.00027223484
14	0xb98b024f	-0.00026513866
15	0xb998f54c	-0.0002917446
16	0xb9b51bb5	-0.00034543654
17	0xb9d55407	-0.0004068913
18	0xba19a3a0	-0.0005860869
19	0xba13712f	-0.00056244707
20	0xb9f3e0c2	-0.0004651603
21	0xb9c3bc59	-0.00037333628
22	0xb99b47a4	-0.0002961728
23	0xb9863633	-0.00025598853
24	0xb9994dd9	-0.00029240435
25	0xb9ab132c	-0.00032629946
26	0xb9ca7f24	-0.0003862317
27	0xba1ac2eb	-0.0005903679
28	0xba21f33a	-0.0006177906
29	0xba1183d7	-0.00055509567
30	0xb9e3d807	-0.00043457767
31	0xb9ab4f00	-0.0003267452
32	0xb993e690	-0.00028209807
33	0xb993fcd3	-0.00028226394
34	0xb9a5b0b8	-0.00031602918
35	0xb9c9d107	-0.00038493445
36	0xba1c0639	-0.0005951855
37	0xba25b734	-0.000632155
38	0xba26fba9	-0.0006369898
39	0xba0c36b3	-0.0005348727
40	0xb9d2126f	-0.00040068055
41	0xb9b6c3f2	-0.00034859736
42	0xb9a02a8a	-0.00030549272
43	0xb9ab6088	-0.00032687583
44	0xb9c75aab	-0.0003802379
45	0xba16d204	-0.00057533407
46	0xba2766dc	-0.00063858717
47	0xba303df2	-0.0006723098
48	0xba17fdc3	-0.00057980063
49	0xba005671	-0.0004895693
50	0xb9c5fe05	-0.00037764027
51	0xb9afc5e9	-0.00033526056
52	0xb9ae8025	-0.0003328334
53	0xb9cf8048	-0.00039577694
54	0xba059664	-0.00050959573
55	0xba22160c	-0.0006183095
56	0xba321551	-0.00067933375
57	0xba25b524	-0.00063212425
58	0xba1440b3	-0.0005655393
59	0xb9e536ed	-0.00043719207
60	0xb9c4d8ca	-0.00037545554
61	0xb9baa599	-0.00035600064
62	0xb9c0c5f7	-0.0003676859
63	0xb9f79ca2	-0.00047228212
64	0xba0e0ac0	-0.0005418472
65	0xba21e7bd	-0.00061761943
66	0xba23cfc9	-0.0006248919
67	0xba16e6a8	-0.00057564164
68	0xba025afc	-0.0004972664
69	0xb9e3600a	-0.0004336837
70	0xb9d2b07c	-0.00040185812
71	0xb9ca9e7e	-0.00038646528
72	0xb9d1ec83	-0.000400398
73	0xb9f08938	-0.00045878603
74	0xba0e8665	-0.00054368965
75	0xba17cee1	-0.000579102
76	0xba127262	-0.00055865024
77	0xba041d0d	-0.00050397293
78	0xb9ee4acf	-0.00045450634
79	0xb9d71ff7	-0.0004103181
80	0xb9c32c17	-0.00037226148
81	0x3a0b54b4	0.0005315051
82	0x3a15127c	0.00056866533
83	0x3a1fd4f0	0.0006097099
84	0x3a246911	0.00062717596
85	0x3a2bff91	0.00065612147
86	0x3a1b435c	0.0005922818
87	0x3a15fd89	0.00057216786
88	0x3a1242db	0.000557942
89	0x3a07c37f	0.00051789725
90	0x3a10f77f	0.0005530044
91	0x3a1ca8f0	0.00059761014
92	0x3a2e8504	0.0006657394
93	0x3a364ed9	0.0006954498
94	0x3a3cc1cf	0.00072005106
95	0x3a2f02ce	0.0006676138
96	0x3a230c9d	0.0006219836
97	0x3a154567	0.00056942407
98	0x3a102ce3	0.00054998527
99	0x3a0c9f8e	0.00053643517
100	0x3a1e437e	0.0006037279
101	0x3a28fa1b	0.000644596
102	0x3a459444	0.0007537047
103	0x3a4751b7	0.0007603424
104	0x3a308a18	0.0006734445
105	0x3a2555f2	0.00063070573
106	0x3a142217	0.0005650832
107	0x3a099a85	0.00052491605
108	0x3a095b63	0.0005239753
109	0x3a13d24b	0.0005638941
110	0x3a25564e	0.0006307111
111	0x3a436725	0.00074540294
112	0x3a4d46bb	0.0007830669
113	0x3a366fb7	0.0006959396
114	0x3a1fd648	0.0006097299
115	0x3a1711d3	0.0005762849
116	0x3a0735a9	0.00051578373
117	0x3a02fa72	0.00049964257
118	0x3a0cd447	0.0005372208
119	0x3a1e9326	0.00060491485
120	0x3a37b19d	0.00070073624
121	0x3a45a435	0.00075394224
122	0x3a397859	0.0007075123
123	0x3a298916	0.0006467266
124	0x3a190cfe	0.0005838423
125	0x3a062562	0.0005117265
126	0x3a018ad1	0.0004941645
127	0x3a05cf59	0.00051044446
128	0x3a15b771	0.0005711234
129	0x3a25d4a2	0.0006325935
130	0x3a348fef	0.0006887903
131	0x3a39bdf8	0.00070854975
132	0x3a257fe2	0.00063133065
133	0x3a123fee	0.0005578984
134	0x3a018f60	0.0004942324
135	0x3a00ad67	0.00049086515
136	0x3a037eb9	0.00050161366
137	0x3a0abecf	0.0005292715
138	0x3a18f4ad	0.00058347994
139	0x3a254949	0.0006305171
140	0x3a24a649	0.0006280882
141	0x3a1975cd	0.00058540405
142	0x3a135bf0	0.0005621305
143	0x39fb9fcf	0.00047993517
144	0x39f85f08	0.0004737305
145	0x3a02ac48	0.00049847784
146	0x3a051d5f	0.0005077924
147	0x3a09a035	0.0005250008
148	0x3a13367a	0.00056157226
149	0x3a150ec8	0.00056861015
150	0x3a0bf68a	0.00053391664
151	0x3a04a36a	0.0005059751
152	0x39ed2a18	0.00045235525
153	0x39f8c0a5	0.00047445777
154	0x39f9353b	0.0004753264
155	0x3a0532d9	0.0005081124
156	0x3a026db0	0.0004975451
157	0x3a073955	0.00051583844
158	0x3a0037c9	0.0004891125
159	0x39fe9176	0.00048555032
160	0x39f5b998	0.0004686832
161	0x39e2f921	0.00043291695
162	0xb928aeaa	-0.00016086796
163	0xb91b5d92	-0.0001481681
164	0xb8c7257d	-9.496042e-05
165	0xb8e3b96e	-0.000108587425
166	0xb89b3cfe	-7.4023366e-05
167	0xb7d6b72c	-2.5596084e-05
168	0xb7fe2f45	-3.0301171e-05
169	0xb8b45dbc	-8.600528e-05
170	0xb91e9155	-0.00015122195
171	0xb90e3bd5	-0.00013564464
172	0xb8aac16d	-8.14226e-05
173	0xb8b52483	-8.6375534e-05
174	0xb8b65216	-8.693726e-05
175	0xb75c6de6	-1.313861e-05
176	0x37866ece	1.6025642e-05
177	0xb810ee0c	-3.4553974e-05
178	0xb8d0a021	-9.948039e-05
179	0xb90f37b4	-0.00013658294
180	0xb8c8b597	-9.570567e-05
181	0xb8919f13	-6.943769e-05
182	0xb85640d7	-5.1081963e-05
183	0xb81c25f3	-3.722864e-05
184	0x3793f0a7	1.7635828e-05
185	0x37a93a28	2.0173451e-05
186	0xb7d619fe	-2.5522892e-05
187	0xb8cbb79a	-9.713993e-05
188	0xb92d4725	-0.00016525069
189	0xb5f0ecdb	-1.7950327e-06
190	0xb63d363b	-2.819476e-06
191	0x3764c8fe	1.3636656e-05
192	0x383db376	4.5228247e-05
193	0x3865c3b7	5.478013e-05
194	0x37e5a7a9	2.7377e-05
195	0xb80f760b	-3.4203793e-05
196	0xb904f644	-0.00012680242
197	0xb9550c6a	-0.00020317888
198	0x381ac173	3.6896625e-05
199	0x38b11bc3	8.445189e-05
200	0x38a0675a	7.648645e-05
201	0x38fc6e6b	0.00012036863
202	0x38cff234	9.915643e-05
203	0xb725d0ed	-9.883411e-06
204	0xb8e02c7d	-0.00010689439
205	0xb98924d1	-0.00026158107
206	0xb999374e	-0.0002922364
207	0x390191d6	0.00012356727
208	0x39086fb3	0.00013011582
209	0x391064cb	0.00013770458
210	0x39410fff	0.00018411873
211	0x39049c66	0.00012646764
212	0x37c5304a	2.3506716e-05
213	0xb91fdd03	-0.00015245755
214	0xb98bca14	-0.00026662706
215	0xb99f359e	-0.0003036679
216	0x39246d1d	0.00015680907
217	0x391921b7	0.00014603777
218	0x3944b037	0.00018757662
219	0x391eb0b7	0.00015133886
220	0x38db571c	0.00010458959
221	0xb82fd1c0	-4.1918596e-05
222	0xb9220f3f	-0.00015455204
223	0xb9920ca6	-0.00027856714
224	0xb9b1c3a6	-0.0003390584
225	0x392c682a	0.00016442002
226	0x39177083	0.00014442396
227	0x391f9cf6	0.00015221894
228	0x3903ec40	0.00012581144
229	0x38ad072e	8.25062e-05
230	0xb8c0d70c	-9.195329e-05
231	0xb9515465	-0.00019963233
232	0xb99d73a9	-0.00030031547
233	0xb9c63dd7	-0.00037811577
234	0x38e31a5a	0.00010829112
235	0x389c25f6	7.4457304e-05
236	0x38743990	5.8227743e-05
237	0x38920480	6.962661e-05
238	0xb783375f	-1.5642201e-05
239	0xb8c35b26	-9.315302e-05
240	0xb9880b1b	-0.00025948216
241	0xb9a10314	-0.00030710606
242	0xb9ba2e6a	-0.00035511266
243	0xba5695b0	-0.00081857573
244	0xba33f87b	-0.00068653346
245	0xba2bdd3c	-0.0006556099
246	0xba242d9d	-0.00062629004
247	0xba121c1b	-0.0005573646
248	0xba21945b	-0.0006163769
249	0xba3c8f4c	-0.0007192984
250	0xba48dfba	-0.00076627324
251	0xba517e8b	-0.00079915737
252	0xba515aa0	-0.00079862215
253	0xba36e725	-0.0006977192
254	0xba1df3d9	-0.0006025411
255	0xb9c3f5a2	-0.0003737631

exp_avg_sq f4 [64, 1, 9, 9]
0	0x373529da	1.0798185e-05
1	0x372d4077	1.0326613e-05
2	0x3725986b	9.870254e-06
3	0x3717266f	9.00925e-06
4	0x3713451e	8.777975e-06
5	0x3710571f	8.603353e-06
6	0x371255b0	8.722229e-06
7	0x371a4189	9.194374e-06
8	0x372513c7	9.839371e-06
9	0x373e6453	1.1348241e-05
10	0x3737cc84	1.09552675e-05
11	0x3731d2d1	1.0599107e-05
12	0x372196cb	9.631457e-06
13	0x37173715	9.013126e-06
14	0x37130f97	8.765513e-06
15	0x3710678e	8.60718e-06
16	0x37121b4a	8.708632e-06
17	0x371bfbc0	9.297335e-06
18	0x37505cb3	1.2419349e-05
19	0x374e49b8	1.2295721e-05
20	0x3744bee9	1.172696e-05
21	0x37393b78	1.1040705e-05
22	0x3727784e	9.981986e-06
23	0x371907f2	9.121361e-06
24	0x3710db7a	8.63417e-06
25	0x370f1280	8.527772e-06
26	0x3715c578	8.927069e-06
27	0x37601408	1.3356104e-05
28	0x376e073c	1.418759e-05
29	0x3767c6a3	1.3814922e-05
30	0x375061b6	1.2420516e-05
31	0x373ae47d	1.1139663e-05
32	0x37249dac	9.811873e-06
33	0x371764da	9.023783e-06
34	0x370ec4ba	8.5096635e-06
35	0x371410b9	8.825381e-06
36	0x377a8533	1.4932174e-05
37	0x378359f8	1.5658312e-05
38	0x37863716	1.5999696e-05
39	0x3774b419	1.4585466e-05
40	0x374eec27	1.233354e-05
41	0x373121a2	1.0557853e-05
42	0x3719c0fd	9.164444e-06
43	0x3710381e	8.596135e-06
44	0x3711c0c5	8.687556e-06
45	0x3786fb14	1.6090962e-05
46	0x378ecd50	1.7023325e-05
47	0x37937307	1.757733e-05
48	0x37831986	1.5628302e-05
49	0x37683ff2	1.3843166e-05
50	0x3740b0c7	1.1485251e-05
51	0x37259e76	9.871661e-06
52	0x37161f61	8.948003e-06
53	0x3715c030	8.925839e-06
54	0x3789f31b	1.6444877e-05
55	0x37967a8a	1.7938455e-05
56	0x3796e1ef	1.7986602e-05
57	0x378b2ec4	1.6591868e-05
58	0x3776c917	1.47095625e-05
59	0x374abfe4	1.2084816e-05
60	0x37305b99	1.0511744e-05
61	0x3722c06f	9.700757e-06
62	0x371e91f1	9.4515135e-06
63	0x37852ddd	1.5876192e-05
64	0x378e3907	1.6954275e-05
65	0x378f6502	1.7093964e-05
66	0x3787d310	1.6191538e-05
67	0x376fd26b	1.4294502e-05
68	0x3754af4a	1.2676997e-05
69	0x37387f6b	1.0996921e-05
70	0x372f9cdb	1.0467334e-05
71	0x37294812	1.0089965e-05
72	0x377a1b06	1.4907453e-05
73	0x377ec7a5	1.5186063e-05
74	0x3782aacc	1.5576741e-05
75	0x377e48ec	1.5156558e-05
76	0x377182ef	1.4395205e-05
77	0x3759874d	1.296571e-05
78	0x37462ae6	1.1811708e-05
79	0x373e8d7a	1.1357823e-05
80	0x373539f1	1.0801931e-05
81	0x370298a2	7.784141e-06
82	0x37096ece	8.191635e-06
83	0x370f9fd1	8.560674e-06
84	0x3718de1f	9.111623e-06
85	0x371e8bb7	9.450064e-06
86	0x3710d41a	8.632453e-06
87	0x3705e866	7.981527e-06
88	0x370c8782	8.376201e-06
89	0x370541cd	7.942738e-06
90	0x370706e6	8.048233e-06
91	0x370d246f	8.412738e-06
92	0x37204897	9.553644e-06
93	0x371fc045	9.521905e-06
94	0x372f5fa2	1.0453079e-05
95	0x372525f6	9.843605e-06
96	0x37184afd	9.077366e-06
97	0x370e2ba0	8.474017e-06
98	0x370d35bf	8.416769e-06
99	0x3709095f	8.168018e-06
100	0x3712f261	8.758711e-06
101	0x372173c0	9.623298e-06
102	0x373dbb34	1.13088645e-05
103	0x373f0204	1.1384956e-05
104	0x3724ca47	9.822258e-06
105	0x371a0ed3	9.182567e-06
106	0x3708941f	8.140719e-06
107	0x37078b95	8.079126e-06
108	0x37078078	8.0765385e-06
109	0x370f0aef	8.52601e-06
110	0x371843c4	9.075684e-06
111	0x373e861e	1.1356109e-05
112	0x373ea8de	1.13642e-05
113	0x37253a55	9.848348e-06
114	0x3714f874	8.879335e-06
115	0x370e16a2	8.469129e-06
116	0x3705175e	7.932858e-06
117	0x37014284	7.704486e-06
118	0x3708531f	8.125585e-06
119	0x37126e61	8.727978e-06
120	0x373091b6	1.0524343e-05
121	0x3740d1b4	1.1492917e-05
122	0x372ba9cd	1.0231929e-05
123	0x371a5d93	9.200902e-06
124	0x3718dbf6	9.11112e-06
125	0x37065795	8.007414e-06
126	0x37011b95	7.695421e-06
127	0x37023143	7.7600735e-06
128	0x3713eb94	8.816733e-06
129	0x3715c087	8.925918e-06
130	0x371c07e1	9.300159e-06
131	0x3726acc7	9.934599e-06
132	0x3715fb6d	8.939632e-06
133	0x370d05f8	8.405645e-06
134	0x370d3c45	8.4182875e-06
135	0x36fd2eb0	7.5454227e-06
136	0x37083101	8.117641e-06
137	0x3709a636	8.204535e-06
138	0x370fe0a0	8.575764e-06
139	0x37128951	8.73425e-06
140	0x371bd327	9.287883e-06
141	0x3719bc4c	9.163352e-06
142	0x37165783	8.961072e-06
143	0x370f8655	8.554741e-06
144	0x36f37922	7.256066e-06
145	0x37028521	7.7796e-06
146	0x3700bdf0	7.673618e-06
147	0x3702b9da	7.791876e-06
148	0x3711031e	8.643399e-06
149	0x3710d1c1	8.631906e-06
150	0x37116cf9	8.668046e-06
151	0x37164a83	8.958045e-06
152	0x37119cc8	8.679177e-06
153	0x36fdb6ae	7.5612543e-06
154	0x36fe679f	7.581853e-06
155	0x37051eec	7.934617e-06
156	0x37050674	7.92892e-06
157	0x37035f72	7.830431e-06
158	0x37042f40	7.878814e-06
159	0x370f4ad8	8.54089e-06
160	0x3712aa40	8.741918e-06
161	0x3715bb59	8.924712e-06
162	0x3928632a	0.0001605867
163	0x392d2f9b	0.000165163
164	0x392f9889	0.00016746124
165	0x3929032f	0.00016118282
166	0x391f0bc6	0.00015167808
167	0x3915aa56	0.00014273202
168	0x390f538c	0.00013668666
169	0x390b7ff5	0.0001330374
170	0x3909a2f4	0.00013126043
171	0x39310e81	0.00016885439
172	0x3938b264	0.00017614063
173	0x393a4951	0.00017765655
174	0x392f84f8	0.00016738835
175	0x3921dce6	0.00015436448
176	0x3915d8f5	0.0001429057
177	0x391064cd	0.00013770461
178	0x390e577a	0.00013574763
179	0x390cd028	0.00013428985
180	0x3937fabb	0.00017545644
181	0x39419c91	0.0001846424
182	0x393e0611	0.00018122072
183	0x3930b3cd	0.00016851649
184	0x392086b1	0.00015308966
185	0x3913a19f	0.00014079221
186	0x391170cf	0.00013870302
187	0x39123efb	0.00013947107
188	0x3911a2c0	0.00013888907
189	0x393853d9	0.00017578843
190	0x393e201d	0.00018131775
191	0x39397b90	0.00017689005
192	0x39288ff1	0.00016075351
193	0x391805f5	0.00014498069
194	0x391199bb	0.00013885547
195	0x39153dfd	0.0001423284
196	0x39197cc0	0.0001463769
197	0x391873c3	0.00014538974
198	0x3931ffe1	0.00016975358
199	0x3934e616	0.00017251851
200	0x392ae54a	0.0001629788
201	0x3919d548	0.0001467067
202	0x390ec3e9	0.00013615158
203	0x39107e2a	0.0001377991
204	0x391ae951	0.00014773502
205	0x3922c5f5	0.00015523269
206	0x392066f9	0.0001529715
207	0x3926289c	0.00015846122
208	0x39232ee9	0.00015562367
209	0x3917b0c9	0.0001446634
210	0x390b93e0	0.00013311161
211	0x390888a3	0.00013020872
212	0x391080c4	0.00013780879
213	0x39208d2a	0.00015311377
214	0x39257fff	0.00015783308
215	0x39232a8c	0.00015560741
216	0x39168f7b	0.00014358565
217	0x39117451	0.00013871609
218	0x3908bcda	0.00013040323
219	0x3902e90d	0.00012484584
220	0x3906d334	0.00012857915
221	0x3914ae6d	0.00014179359
222	0x391fe053	0.00015246989
223	0x39274b3b	0.00015954387
224	0x39231f23	0.0001555649
225	0x390ace22	0.00013237496
226	0x39059d21	0.00012742403
227	0x39007b9b	0.00012253078
228	0x38fe3351	0.00012121222
229	0x39070f48	0.00012880296
230	0x3913e196	0.0001410305
231	0x391e95c6	0.00015123849
232	0x3921df6e	0.0001543739
233	0x3920a780	0.00015321188
234	0x3903d2d2	0.0001257167
235	0x39013a7c	0.00012324186
236	0x38fc9b07	0.000120451725
237	0x38feafab	0.000121443845
238	0x390561b9	0.00012720273
239	0x390def22	0.00013535892
240	0x39187679	0.00014539984
241	0x391ae700	0.00014772639
242	0x3917630c	0.0001443738
243	0x3929b077	0.00016182834
244	0x391e88cd	0.00015119016
245	0x392bd1c4	0.00016385975
246	0x392f469d	0.00016715606
247	0x392c1b25	0.0001641331
248	0x3922c11e	0.00015521466
249	0x391f534b	0.0001519445
250	0x39208634	0.00015308784
251	0x3919569f	0.00014623486
252	0x39265bd2	0.000158652
253	0x39250927	0.00015739036
254	0x3929a69f	0.00016179167
255	0x3933377b	0.00017091438

exp_avg f4 [64]
0	0xbad207e2	-0.0016024078
1	0x3b0361c7	0.0020047294
2	0xba75c447	-0.0009375256
3	0xbaba7405	-0.001422525
4	0x3c3c7d01	0.011504413
5	0xbc2164e0	-0.009850711
6	0xbb5fb126	-0.0034132688
7	0x3beb16fe	0.0071743717
8	0xbba6f762	-0.0050954083
9	0xb9894d3d	-0.00026188223
10	0xbc424439	-0.011857086
11	0x3b52cb68	0.0032164697
12	0xbb18a210	-0.0023289956
13	0x3abc46cc	0.0014364361
14	0xba4935a6	-0.0007675536
15	0x3c71195e	0.014715521
16	0xbc28f1ba	-0.010311538
17	0x3c5cef27	0.013484753
18	0x3a8b9f58	0.0010652347
19	0x3c48d6e4	0.012258265
20	0x80000004	-6e-45
21	0x3b35d0c9	0.0027742854
22	0xbb9e540c	-0.0048317965
23	0xbab5c3f6	-0.0013867605
24	0x3b6dc18f	0.00362787
25	0x3a2bef24	0.0006558767
26	0xb9d4ce45	-0.00040589474
27	0xbc24b3cf	-0.010052635
28	0x3bab65c1	0.005230636
29	0x3c6d874a	0.014497587
30	0x3b93722e	0.0044996953
31	0x3b983d1e	0.0046459576
32	0x39fefcc9	0.00048634995
33	0xbafbe720	-0.0019218661
34	0x39157074	0.0001425164
35	0x3ad86f85	0.0016512728
36	0x3c66fb7f	0.014098047
37	0xbad4ccf2	-0.0016235395
38	0x3af8e13a	0.0018988021
39	0x3b6ca2bc	0.003610774
40	0xb86ba1a6	-5.6178913e-05
41	0xbbdfc981	-0.006829441
42	0x3b7f8977	0.0038991848
43	0xbba1f06a	-0.0049419897
44	0xbaf8ab76	-0.0018971998
45	0x3c076924	0.008264814
46	0x3c1257bf	0.008932053
47	0x3b340fea	0.0027475306
48	0xbbd026d1	-0.0063522835
49	0x3ab18ac2	0.0013545381
50	0xbca5f02a	-0.02025612
51	0x3c8ea47c	0.017412417
52	0x3aee9cea	0.0018204723
53	0xba5230f5	-0.00080181594
54	0xb9fed49d	-0.00048605065
55	0x3bb314bb	0.0054651177
56	0x39a1aae0	0.00030835625
57	0x3b3ec0e4	0.002910667
58	0xba61aa0b	-0.0008608407
59	0x3aa17caa	0.0012320478
60	0x3ba692e6	0.0050834296
61	0x39a1788a	0.00030798122
62	0xbb67a2ec	-0.0035344912
63	0x3c294a44	0.010332648

exp_avg_sq f4 [64]
0	0x38def937	0.00010632205
1	0x392eb0da	0.00016659815
2	0x3a9eae79	0.001210644
3	0x3b03a837	0.0020089278
4	0x3bdaf43e	0.006681948
5	0x3ade3a10	0.001695456
6	0x3aa80ee0	0.0012821816
7	0x3af69123	0.0018811565
8	0x3ab902df	0.0014115236
9	0x363d016d	2.8164025e-06
10	0x3a0e8974	0.0005437352
11	0x3a838118	0.001003298
12	0x38c99e3d	9.613901e-05
13	0x3b4ba4cf	0.0031073575
14	0x39a1227e	0.00030734012
15	0x3c67ce52	0.014148312
16	0x3b2e9097	0.0026636475
17	0x3cc5571a	0.024089385
18	0x3a0328fc	0.00050033606
19	0x3c6ea526	0.014565742
20	0x12c5bbf7	1.2478785e-27
21	0x3b7bdb92	0.0038430435
22	0x3aa48d4a	0.0012554314
23	0x39e687a2	0.00043970073
24	0x3b507558	0.0031808224
25	0x39afefa8	0.0003355716
26	0x3a631041	0.0008661785
27	0x3a9f1b64	0.00121389
28	0x3b4162dc	0.0029508388
29	0x3c74470c	0.014909517
30	0x3a69496e	0.00088991865
31	0x3a8d4599	0.0010778188
32	0x3b8afb6f	0.004241399
33	0x39f18893	0.00046068858
34	0x398d9cbc	0.00027010392
35	0x3b21b251	0.0024672935
36	0x3c4cfc53	0.012511331
37	0x393c7615	0.00017973066
38	0x3a2f8d80	0.00066968054
39	0x39ae6a23	0.00033266944
40	0x3b28acf0	0.0025737844
41	0x3b233168	0.0024901275
42	0x38b3e96f	8.5788655e-05
43	0x3ae1456b	0.0017186826
44	0x38f0f2c6	0.00011489312
45	0x3be56501	0.007000566
46	0x3c217512	0.009854572
47	0x39d1f120	0.0004004324
48	0x3a68f9bb	0.00088873104
49	0x37f5f314	2.9319468e-05
50	0x3c6ed0d9	0.01457616
51	0x3c9cb9dd	0.019131595
52	0x3942d797	0.00018581595
53	0x3a0d005b	0.0005378776
54	0x3976e5b1	0.00023545955
55	0x3a521dd3	0.00080153084
56	0x39ad9d43	0.000331143
57	0x39be4e39	0.00036297904
58	0x3a6c2f09	0.00090096943
59	0x3893eb6e	7.0533584e-05
60	0x3af03bc7	0.0018328362
61	0x37dcf7e1	2.6341471e-05
62	0x3a5e55e6	0.0008481428
63	0x3b5a2b8b	0.0033290114

exp_avg f4 [32, 64, 5, 5]
0	0x37b0c364	2.107182e-05
1	0x3815ba5f	3.569794e-05
2	0x380c519b	3.3454602e-05
3	0x381e42ed	3.7732465e-05
4	0x37bbb458	2.2376116e-05
5	0x36f1d4a5	7.207115e-06
6	0x37dd2fd0	2.6367517e-05
7	0x371e78ed	9.445689e-06
8	0x37a6b134	1.9871259e-05
9	0x37bb43bb	2.2323677e-05
10	0xb703acde	-7.848457e-06
11	0x370be50d	8.338376e-06
12	0xb644d529	-2.9330351e-06
13	0x37737ddb	1.4513232e-05
14	0x3723080c	9.717431e-06
15	0xb703cf29	-7.856442e-06
16	0x37012473	7.697486e-06
17	0xb6064ae9	-2.001116e-06
18	0x37058136	7.957502e-06
19	0x36ebf253	7.031756e-06
20	0xb7401084	-1.1447937e-05
21	0xb75e34d7	-1.3244534e-05
22	0xb78eea93	-1.7036951e-05
23	0xb7184131	-9.075085e-06
24	0xb787916b	-1.616097e-05
25	0x36225362	2.4188416e-06
26	0xb637fd72	-2.741665e-06
27	0xb6357a91	-2.7042445e-06
28	0xb58ece31	-1.0639834e-06
29	0x358aec1f	1.0350522e-06
30	0xb6467808	-2.9574167e-06
31	0xb691c109	-4.343809e-06
32	0xb6a77c74	-4.991476e-06
33	0xb62f6049	-2.6133077e-06
34	0xb59ed346	-1.1833406e-06
35	0xb6112cbc	-2.1632723e-06
36	0xb64142f3	-2.879821e-06
37	0xb6871cd9	-4.026672e-06
38	0xb5d8ffe1	-1.6167725e-06
39	0xb661a46c	-3.3623319e-06
40	0xb66bc38b	-3.513155e-06
41	0xb64205d5	-2.8911647e-06
42	0xb6b8382e	-5.4901675e-06
43	0xb62dea50	-2.5915397e-06
44	0xb63ae160	-2.7847345e-06
45	0xb6fa5063	-7.459939e-06
46	0xb6cfef10	-6.1969113e-06
47	0xb691117d	-4.3233727e-06
48	0xb698f3b4	-4.558324e-06
49	0xb6c5e8ac	-5.898144e-06
50	0x382c42c8	4.107019e-05
51	0x379b961f	1.8547345e-05
52	0x3727ab54	9.993866e-06
53	0x3739567e	1.1046997e-05
54	0xb6d47a14	-6.332304e-06
55	0x375b0c0e	1.3056224e-05
56	0xb70fdc9d	-8.57483e-06
57	0xb6e7e06b	-6.910462e-06
58	0xb75657ef	-1.2775868e-05
59	0xb7b92056	-2.2068776e-05
60	0x37ea7547	2.7949585e-05
61	0x3772e091	1.447661e-05
62	0x3692eb75	4.37855e-06
63	0x358a7821	1.0316763e-06
64	0xb6dcb04b	-6.577034e-06
65	0x383962b1	4.419935e-05
66	0x38101dcf	3.4360037e-05
67	0x3826c4fd	3.9760944e-05
68	0x37bfa7a9	2.2847047e-05
69	0x379dd9df	1.8817313e-05
70	0x38519083	4.996407e-05
71	0x3854973c	5.0685587e-05
72	0x3842f7c8	4.648397e-05
73	0x38058413	3.1832675e-05
74	0x37e598d6	2.7370097e-05
75	0xb82f8b26	-4.1852843e-05
76	0xb87342a1	-5.7997768e-05
77	0xb8839f19	-6.276201e-05
78	0xb865e012	-5.4806536e-05
79	0xb84fbf11	-4.953059e-05
80	0xb84ac247	-4.8341488e-05
81	0xb88263ad	-6.217449e-05
82	0xb886fc49	-6.43661e-05
83	0xb888117d	-6.488243e-05
84	0xb85b49b8	-5.2282325e-05
85	0xb84b0823	-4.840655e-05
86	0xb879c99b	-5.9553986e-05
87	0xb88f76de	-6.840912e-05
88	0xb87e2691	-6.0594237e-05
89	0xb86004ff	-5.3410415e-05
90	0xb82951b7	-4.0368843e-05
91	0xb8329d97	-4.2585274e-05
92	0xb837e152	-4.3840446e-05
93	0xb817a9af	-3.6159236e-05
94	0xb7ed13f1	-2.8261888e-05
95	0xb7a1d41b	-1.9291465e-05
96	0xb7a434b9	-1.9574874e-05
97	0xb772480d	-1.44411e-05
98	0xb7893398	-1.6355698e-05
99	0xb70da67b	-8.443017e-06
100	0xb605cbac	-1.9937097e-06
101	0xb5a9d195	-1.2652478e-06
102	0xb68119ca	-3.847502e-06
103	0x348e092d	2.6456237e-07
104	0xb68522ee	-3.9677752e-06
105	0xb6872cc5	-4.0285254e-06
106	0xb66e2087	-3.5483697e-06
107	0x343d1a5f	1.761159e-07
108	0x358509f5	9.91217e-07
109	0xb6a650f3	-4.9566092e-06
110	0xb6a34a94	-4.8664606e-06
111	0xb53bcca9	-6.996075e-07
112	0xb5113f84	-5.4109137e-07
113	0x35dc305f	1.6405355e-06
114	0xb6439ad7	-2.9147393e-06
115	0x360fc60c	2.142394e-06
116	0x34e78a12	4.3127562e-07
117	0x365983e9	3.2412302e-06
118	0x35f0b221	1.7933236e-06
119	0x356c2496	8.797009e-07
120	0x3526eed5	6.2187365e-07
121	0x36339526	2.6759894e-06
122	0x363a13e8	2.7727747e-06
123	0xb55e50ba	-8.281892e-07
124	0xb607ce83	-2.0236773e-06
125	0xb79cf871	-1.8712339e-05
126	0xb7b61c68	-2.1709318e-05
127	0xb7cb9a9e	-2.4271485e-05
128	0xb7f2f2d6	-2.8961727e-05
129	0xb7d387d6	-2.5216414e-05
130	0xb86f735d	-5.708948e-05
131	0xb86e14f5	-5.676314e-05
132	0xb86944fa	-5.561577e-05
133	0xb884d613	-6.334125e-05
134	0xb87ab9f9	-5.9777845e-05
135	0xb853302c	-5.0351184e-05
136	0xb8676ae3	-5.5174238e-05
137	0xb870ef0e	-5.7443096e-05
138	0xb88eecd1	-6.815198e-05
139	0xb86539bd	-5.4651628e-05
140	0xb838e5d1	-4.408305e-05
141	0xb80b2325	-3.3172913e-05
142	0xb7fb0b25	-2.9926721e-05
143	0xb8247981	-3.9213806e-05
144	0xb81d1243	-3.7448724e-05
145	0xb6b8cf1d	-5.5077385e-06
146	0xb6e74f5a	-6.893574e-06
147	0xb6e10fce	-6.7073624e-06
148	0xb78b7710	-1.6625534e-05
149	0xb78ae16c	-1.6555852e-05
150	0xb819e16e	-3.668799e-05
151	0xb80f9e2a	-3.424116e-05
152	0xb803c2de	-3.1414318e-05
153	0xb7d8f44b	-2.5862964e-05
154	0xb7d2eecb	-2.5145147e-05
155	0xb7d65149	-2.554864e-05
156	0xb7a6091d	-1.9792986e-05
157	0xb7b5f21f	-2.1689628e-05
158	0xb7822082	-1.5512345e-05
159	0xb7bf8cd1	-2.2834547e-05
160	0xb7457b69	-1.1770849e-05
161	0xb733a813	-1.0708364e-05
162	0xb7862e23	-1.5995529e-05
163	0xb78f0fd6	-1.7054303e-05
164	0xb7c81ae9	-2.3854389e-05
165	0xb6a015d3	-4.7709123e-06
166	0xb7012748	-7.698145e-06
167	0xb729bd3f	-1.0117247e-05
168	0xb7980f77	-1.8127013e-05
169	0xb7a649ff	-1.98232e-05
170	0xb65f34fb	-3.3260428e-06
171	0xb646546c	-2.955344e-06
172	0xb5b9d355	-1.384508e-06
173	0xb7612b99	-1.3421196e-05
174	0xb73aeb9d	-1.1141322e-05
175	0xb741647e	-1.1527094e-05
176	0xb74e2552	-1.2287246e-05
177	0xb7681f7f	-1.3835611e-05
178	0xb75ccb79	-1.31603965e-05
179	0xb771d6f1	-1.4414764e-05
180	0xb731733e	-1.0576854e-05
181	0xb723439e	-9.7313e-06
182	0xb73091dc	-1.0524378e-05
183	0xb7248606	-9.8063665e-06
184	0xb7546897	-1.2660536e-05
185	0xb617f005	-2.2640463e-06
186	0xb66382d0	-3.3901779e-06
187	0xb6c23437	-5.787729e-06
188	0xb6b8dd89	-5.5094174e-06
189	0xb71e0d97	-9.420698e-06
190	0xb61d3562	-2.3425896e-06
191	0xb668d8f8	-3.4696986e-06
192	0xb5912550	-1.0814201e-06
193	0xb68431e4	-3.9397146e-06
194	0xb6991e2a	-4.563267e-06
195	0xb5d5eabb	-1.5938052e-06
196	0xb647ca1c	-2.9770954e-06
197	0xb60d15a3	-2.1023232e-06
198	0xb5d8bdb9	-1.6148471e-06
199	0xb603349c	-1.9551144e-06
200	0xb68f3379	-4.2677243e-06
201	0xb6b02061	-5.248978e-06
202	0xb6ed5e00	-7.0740934e-06
203	0xb7259a1e	-9.87065e-06
204	0xb7a27fb0	-1.9371364e-05
205	0xb63053be	-2.6274788e-06
206	0xb59ca431	-1.1670692e-06
207	0xb68da572	-4.221388e-06
208	0xb68d2864	-4.2068295e-06
209	0xb7554c3a	-1.2713537e-05
210	0xb60f9159	-2.1393264e-06
211	0x34b0b03a	3.2910776e-07
212	0xb508f22f	-5.101637e-07
213	0x369d8855	4.6948358e-06
214	0xb53aa602	-6.953197e-07
215	0xb64419c2	-2.922127e-06
216	0x33f63961	1.1465705e-07
217	0xb51e1bad	-5.889986e-07
218	0x350bf712	5.214107e-07
219	0xb3a53c94	-7.69443e-08
220	0xb65c36bc	-3.2814414e-06
221	0xb3af40c0	-8.1608505e-08
222	0x3508b133	5.0921807e-07
223	0x3659e93c	3.247128e-06
224	0x369bbf6c	4.6416444e-06
225	0xb5b0ff0d	-1.3187251e-06
226	0xb587ab7a	-1.010819e-06
227	0xb53c113c	-7.0060537e-07
228	0xb48a213a	-2.5728679e-07
229	0xb44839d5	-1.864749e-07
230	0xb50786a1	-5.048733e-07
231	0xb4a8bef3	-3.1431372e-07
232	0x32f6bc68	2.8723846e-08
233	0x32e05f41	2.6120349e-08
234	0xb4401761	-1.7889899e-07
235	0x34301189	1.6397657e-07
236	0x3418c459	1.4227534e-07
237	0x339fec91	7.447046e-08
238	0xb2b51499	-2.108054e-08
239	0xb38dc2a4	-6.601229e-08
240	0x344173e3	1.8016685e-07
241	0x33ecf6bb	1.10344864e-07
242	0x3343436b	4.5463292e-08
243	0xb3561b93	-4.9850836e-08
244	0x33fe5245	1.18427614e-07
245	0x34461ba4	1.8450243e-07
246	0x34c08b1a	3.5863997e-07
247	0x3435c1ba	1.6927416e-07
248	0x346b0437	2.1887614e-07
249	0x3478dc88	2.3177029e-07
250	0xb81a66b5	-3.6812115e-05
251	0xb82fa3db	-4.1875854e-05
252	0xb8383780	-4.3920707e-05
253	0xb840a349	-4.592844e-05
254	0xb8462787	-4.724369e-05
255	0xb817fc21	-3.623602e-05
