logs/biosr_ccps_rcan_model-SRCNN_250305_lr0.0001_bs1_Ps256_Npatch128_N300/model_074.pth (torch, 695046 bytes, 15 tensors)

conv1.weight f4 [64, 1, 9, 9]
0.081822254 -0.027555708 0.084168464 -0.021348886 0.04708515 -0.03914981 0.13361132 -0.014239263
0.19875233 -0.027316757 -0.092494436 0.049222235 -0.04855063 0.03326291 0.044082474 0.031009661
0.077508464 0.104173146 0.086064 0.039007675 -0.09602494 -0.018060252 -0.05060409 -0.093858175
-0.067923576 -0.07180824 0.04895225 -0.10245814 -0.03454037 0.023533115 -0.076904565 -0.100035645
0.0023536813 -0.030371362 -0.04213136 0.07226373 -0.0729546 -0.06304431 -0.0048993696 0.042507607
-0.032541376 0.07221788 0.05200268 0.06485048 0.02179392 -0.036189113 -0.09803947 -0.0026470723
-0.0956856 0.024623167 0.025867946 0.022681288 0.053517826 0.12311908 -0.0539234 -0.02868263
-0.0101341875 0.03164897 0.07694873 0.0600406 -0.046357583 0.1046909 0.00582241 0.03868237
0.035589613 0.001145382 -0.051826876 -0.05246419 0.009374759 -0.06634372 -0.022770613 -0.068133146
0.043903794 -0.024065599 0.021293463 0.055469383 -0.049291715 -0.008828399 -0.085448466 -0.005544143
-0.069466785 -0.047141448 -0.0033962228 -0.029270422 0.006673493 0.072354786 -0.03217764 -0.12286993
0.057421666 -0.016858658 0.020109074 -0.017173458 0.05733874 -0.10163993 0.070104204 0.07456951
0.0729765 0.035341114 0.09090623 0.034471784 0.019187989 -0.021807166 0.084420264 0.074383266
-0.049355045 0.012384982 -0.09383059 -0.024011198 0.02730311 -0.013476511 -0.11949495 0.08256093
0.03035143 -0.09098992 -0.104585186 -0.046170007 -0.09282125 -0.06236098 -0.059429415 -0.101394944
0.048240177 0.11776721 0.0037053348 -0.040561862 0.08643345 -0.10370612 -0.0337449 -0.09430918
0.033411805 -0.08630334 -0.09218415 0.04626161 -0.06589118 -0.093608186 0.003604619 -0.05074049
0.068549596 0.007501681 0.0076598777 -0.040850077 0.05943424 0.070355274 0.08349229 0.011912505
-0.11813535 0.0096238 -0.072932474 -0.09500182 0.07211593 0.04069241 0.031966813 0.10863939
0.029062148 -0.017887658 -0.029663658 0.047561612 0.016199457 -0.06534958 -0.09955964 0.06564016
0.071348876 0.11995241 0.062545344 0.123305514 -0.050908145 0.061554994 0.036994897 0.028004909
-0.07654989 -0.06560014 0.047150273 0.1097754 0.07246122 -0.030961893 0.11914741 0.057243865
0.018215267 0.020857045 0.088665284 0.07510903 0.082548365 -0.05209395 0.09344964 0.09895797
-0.0001881636 0.060070302 -0.071962744 -0.1081277 -0.083894946 0.118848346 0.10806981 0.02178564
0.09689912 0.08399617 -0.042356305 0.02225864 -0.061840042 -0.1271762 0.10870105 -0.040006746
-0.031039525 0.021249678 0.069002375 0.079317056 -0.031101953 0.004133723 -0.0052622166 -0.037724033
-0.012577097 0.021696579 -0.0781137 0.051006284 -0.109033 0.023877308 -0.11170708 -0.13636705
0.028628673 0.024408458 -0.04236892 0.06428401 0.08960761 0.009463451 -0.10828102 -0.11586833
-0.15999156 0.008563093 0.10516099 0.013123016 -0.097880475 0.06971227 0.027822873 -0.080759816
-0.15164083 0.019914825 0.112029515 0.020458583 -0.036235042 -0.026229434 -0.0450031 -0.11554924
0.0060465415 -0.09491754 -0.12855409 0.10674457 -0.08610142 0.09741371 0.118354216 0.074096166
-0.034227107 -0.04558644 0.025375294 -0.075566836 0.050073795 -0.005026653 0.00821535 0.114475995
00000000: 6d92 a73d 82bc e1bc 8460 ac3d dce3 aebc
00000010: 5cdc 403d 8d5b 20bd 68d1 083e cc4b 69bc
00000020: bb85 4b3e 64c7 dfbc b96d bdbd 419d 493d
00000030: 07dd 46bd b03e 083d d38f 343d f907 fe3c
00000040: c2bc 9e3d bb58 d53d 5342 b03d 83c6 1f3d
00000050: b9a8 c4bd 18f3 93bc 3c46 4fbd b738 c0bd
00000060: 841b 8bbd 3310 93bd 2882 483d 93d5 d1bd
00000070: 347a 0dbd 85c8 c03c 2480 9dbd 7ddf ccbd
00000080: 3840 1a3b 5dcd f8bc ef91 2cbd 02ff 933d
00000090: 3969 95bd 601d 81bd e48a a0bb 751c 2e3d
000000a0: 1b4a 05bd f8e6 933d c300 553d 54d0 843d
000000b0: 2a89 b23c 093b 14bd ebc8 c8bd 817a 2dbb
000000c0: d0f6 c3bd 86b6 c93c 04e9 d33c 1cce b93c
000000d0: 8235 5b3d db25 fc3d c8de 5cbd d6f7 eabc
000000e0: dd09 26bc 5aa2 013d 4c97 9d3d 22ed 753d
000000f0: 73e1 3dbd 2f68 d63d eac9 be3b 6871 1e3d
00000100: 6ac6 113d a420 963a 6b48 54bd b1e4 56bd
00000110: 9798 193c 37df 87bd 7089 babc 6489 8bbd
00000120: 77d4 333d 3825 c5bc a16f ae3c dd33 633d
00000130: 1ce6 49bd fda4 10bc 9bff aebd a4ab b5bb
00000140: 9a44 8ebd 6417 41bd 2a93 5ebb 86c8 efbc
00000150: 51ad da3b bf2e 943d b3cc 03bd 3ba3 fbbd
00000160: fb32 6b3d 2b1b 8abc c9bb a43c 5aaf 8cbc
00000170: 07dc 6a3d 9828 d0bd cb92 8f3d e6b7 983d
00000180: b474 953d d8c1 103d 0c2d ba3d 4932 0d3d
00000190: 2130 9d3c f1a4 b2bc 88e4 ac3d 4156 983d
000001a0: 8428 4abd 61ea 4a3c 412a c0bd 22b3 c4bc
000001b0: c6aa df3c 96cc 5cbc c5b9 f4bd b415 a93d
000001c0: 90a3 f83c ec58 babd c230 d6bd c31c 3dbd
000001d0: 1119 bebd 3a6e 7fbd 426c 73bd 27a8 cfbd
000001e0: 7e97 453d ef2f f13d 34d5 723b 3224 26bd
000001f0: 0504 b13d e063 d4bd 1838 0abd 2c25 c1bd
00000200: d1da 083d cebf b0bd 0bcb bcbd d07c 3d3d
00000210: f4f1 86bd a6b5 bfbd 793b 6c3b 43d5 4fbd
00000220: bb63 8c3d a9d0 f53b b6ff fa3b 6952 27bd
00000230: 5171 733d 6d16 903d 01fe aa3d ab2c 433c
00000240: f2f0 f1bd 25ad 1d3c 9f5d 95bd 5090 c2bd
00000250: 84b1 933d 16ad 263d a2ef 023d 547e de3d
00000260: be13 ee3c 2389 92bc 3301 f3bc f7cf 423d
00000270: b9b4 843c 00d6 85bd ede5 cbbd 596e 863d
00000280: 5c1f 923d 9ca9 f53d c617 803d 9a87 fc3d
00000290: 0f85 50bd 1721 7c3d f687 173d 8d6a e53c
000002a0: 30c6 9cbd 5e59 86bd a520 413d edd1 e03d
000002b0: 8c66 943d cca3 fdbc 8f03 f43d 8b78 6a3d
000002c0: 2f38 953c 65dc aa3c 2596 b53d c3d2 993d
000002d0: 1e0f a93d 7760 55bd 8662 bf3d 7aaa ca3d
000002e0: c84d 45b9 470c 763d 3461 93bd 0e72 ddbd
000002f0: 1dd1 abbd c366 f33d b453 dd3d cc77 b23c
00000300: 0c73 c63d 2f06 ac3d ce7d 2dbd c057 b63c
00000310: fc4b 7dbd 7a3a 02be a89e de3d 1dde 23bd
00000320: 9a46 febc ce13 ae3c 1e51 8d3d fb70 a23d
00000330: 86c9 febc 2f74 873b ac6e acbb 8484 1abd
00000340: 2b10 4ebc 06bd b13c 13fa 9fbd f7eb 503d
00000350: b24c dfbd 589a c33c aec6 e4bd cea3 0bbe
00000360: ae86 ea3c 3ff4 c73c 088b 2dbd 56a7 833d
00000370: 3284 b73d 970c 1b3c 70c2 ddbd 604c edbd
00000380: d4d4 23be 374c 0c3c a55e d73d eb01 573c
00000390: 8f75 c8bd 4ec5 8e3d cbec e33c 6765 a5bd
000003a0: bc47 1bbe 6a24 a33c bb6f e53d c298 a73c
000003b0: 326b 14bd 1cdf d6bc 2c55 38bd 14a5 ecbd
000003c0: 1122 c63b 2164 c2bd afa3 03be e69c da3d
000003d0: f155 b0bd d780 c73d b263 f23d bbbf 973d
000003e0: b931 0cbd d9b8 3abd d9df cf3c c9c2 9abd
000003f0: 2e1a 4d3d 9fb6 a4bb ad99 063c 6472 ea3d

conv1.bias f4 [64]
0.024875864 0.05266902 0.018439362 0.004674322 -0.102530636 0.07652121 0.09045591 -0.074357696
-0.036592443 0.027478635 -0.035075568 -0.017686684 -0.10118653 -0.017219154 -0.0791263 -0.065360196
0.091400646 -0.024235869 -0.003442503 -0.020876897 -0.036002874 -0.103027195 -0.114981696 -0.019890008
-0.01915715 0.017874563 -0.025930775 -0.077898584 -0.074993335 -0.061791513 -0.032366548 -0.019857842
-0.07994549 -0.08000989 0.06734517 -0.0026244533 -0.07244453 0.050258525 -0.026501833 0.15403946
0.048565492 0.061229937 -0.020380225 -0.020978305 0.03541153 -0.12122685 -0.01196259 -0.036059815
0.022893753 -0.030183962 0.10673221 -0.0627958 0.007578567 -0.0032589852 0.06880909 -0.058998495
0.037482753 -0.08036415 0.009834946 0.012148922 -0.01589433 0.0009345291 0.055019554 -0.08389417
00000000: 78c8 cb3c 78bb 573d 250e 973c 0e2b 993b
00000010: 95fb d1bd 27b7 9c3d f340 b93d d948 98bd
00000020: f5e1 15bd e01a e13c 66ab 0fbd aae3 90bc
00000030: e23a cfbd 2f0f 8dbc f80c a2bd 91db 85bd
00000040: 4330 bb3d 4d8a c6bc 9e9b 61bb 0706 abbc
00000050: c077 13bd ecff d2bd 867b ebbd 5ff0 a2bc
00000060: 75ef 9cbc ad6d 923c c76c d4bc 4b89 9fbd
00000070: 1b96 99bd 1919 7dbd c992 04bd eaac a2bc
00000080: 76ba a3bd 3adc a3bd 44ec 893d 05ff 2bbb
00000090: cc5d 94bd e2db 4d3d 5f1a d9bc 85bc 1d3e
000000a0: 9cec 463d 3ecc 7a3d 6ef4 a6bc b2da abbc
000000b0: ae0b 113d c845 f8bd bdfe 43bc 75b3 13bd
000000c0: ae8b bb3c 5b44 f7bc 6b96 da3d 169b 80bd
000000d0: a155 f83b b394 55bb c8eb 8c3d 68a8 71bd
000000e0: 8487 193d f695 a4bd c122 213c 460c 473c
000000f0: d334 82bc 30fb 743a 2f5c 613d b5d0 abbd

conv2.weight f4 [32, 64, 5, 5]
-0.021947095 -0.038161978 0.01421675 -0.011595701 0.029704519 0.00608999 -0.010353196 0.02620498
-0.007505095 0.010735904 -0.0032192029 -0.007134874 -0.007564969 -0.019797157 0.0018544641 -0.044359487
-0.021249464 -0.034779966 -0.032463446 2.2402788e-05 0.0024605487 0.017788645 0.020757152 0.038061917
0.04984927 -0.12264806 -0.02048003 0.054930255 0.005045667 -0.019277131 -0.0039362875 -0.041150223
0.059832633 0.042683486 0.0041660173 -0.062044643 -0.08204952 0.0025036405 -0.014290955 -0.0055668424
-0.08607776 -0.074975766 -0.016175931 -0.011695378 -0.009862215 -0.0469441 -0.013408084 0.0078005143
-0.0019503654 -0.02747842 0.016657349 0.008490857 0.022596247 0.029131973 0.014829808 -0.029100142
-0.013413065 -0.016032908 -0.014064719 0.010805515 -0.030628815 -0.000599793 -0.008558932 0.010366528
0.011980884 -0.04349013 -0.0036121164 -0.03273381 0.034836538 0.06438237 -0.002940196 0.012393411
0.020926721 0.05246709 0.162233 0.021690933 -0.027227452 -0.0045773885 -0.005810591 0.029908758
0.009680481 0.0036412608 -0.036678053 -0.008987474 0.014689334 -0.010796137 0.008389696 0.0038411696
0.025008576 0.015678605 -0.004873527 -0.035068028 -0.012283677 -0.007734963 -0.027714208 -0.031492703
-0.045746762 -0.05341604 -0.123872444 -0.17225966 0.0022361153 0.011678975 0.00847933 -0.015981577
-0.0439105 0.01877998 0.0069048624 -0.0041920384 0.008115112 -0.04667561 0.032884836 0.02422295
0.0038212228 -0.0011748296 -0.03178182 -0.0038482854 0.017809175 -0.048027903 -0.032908544 -0.02487501
0.057592057 0.011120762 0.03569094 0.045648754 0.06296002 0.0054043354 0.012112571 0.0006641157
0.01824123 -0.018590447 0.0027623998 0.008293785 -0.0041134674 0.007777962 -0.0314395 -0.02793045
-0.025394557 -0.027304178 -0.03325144 -0.029580371 0.003908995 -0.0075708474 0.0029470972 0.016335348
-0.0003403244 0.0106264055 0.030775875 0.018388925 0.028769728 0.0146094095 0.0034969568 0.034884036
0.055212233 -0.02318409 -0.05868468 -0.004901402 -0.0022451594 -0.021915311 -0.064487405 -0.037632044
0.009378573 -0.00757828 -0.009330599 -0.05580902 0.0002409202 0.052904505 0.019828973 -0.053007122
0.0072616567 0.011305548 0.044288624 0.04208026 -0.041250844 0.019489706 0.07833626 -0.019350493
-0.028480483 0.010420645 -0.02001153 -0.033568587 -0.032068923 0.013715148 0.019782929 -0.025514858
0.01948334 0.00083134434 0.03507478 0.011655526 -0.011167679 -0.015123332 0.020880882 -0.004553415
-0.015047296 0.009321412 0.03271388 0.024342295 0.0039896304 0.003719839 0.045524113 0.0984342
0.034944177 -0.05611466 -0.03671582 -0.02435485 -0.048804514 -0.013141294 -0.031340502 -0.04474162
-0.006441423 0.01765167 -0.092833064 -0.036928184 -0.07631368 -0.049869172 0.09970879 -0.14239708
-0.10915214 -0.08495659 -0.049051132 0.09010633 -0.05340244 -0.06541932 -0.05308589 0.051841788
0.1496356 0.017246762 -0.00092475896 -0.00022148233 -0.030590748 -0.018999351 0.04917117 0.006275336
-0.019416735 -0.0574099 0.03673054 -0.061545152 -0.042810287 -0.06734743 -0.05895645 0.055506766
-0.09426929 -0.07786141 -0.027755342 0.033557665 0.05546348 -0.0854474 -0.03927542 -0.02834716
0.2376234 0.048448987 0.06835694 -0.024846949 -0.0549513 -0.0750573 -0.122656606 0.058979955
00000000: 65ca b3bc bc4f 1cbd 5fed 683c e5fb 3dbc
00000010: e456 f33c 8a8e c73b 74a0 29bc d4ab d63c
00000020: 4ded f5bb a5e5 2f3c 43f9 52bb a9cb e9bb
00000030: 8fe3 f7bb a62d a2bc 7d11 f33a 4bb2 35bd
00000040: 5b13 aebc 7075 0ebd 64f8 04bd 9fed bb37
00000050: 2841 213b 7eb9 913c e70a aa3c d0e6 1b3d
00000060: c02e 4c3d e82e fbbd bcc5 a7bc 8cfe 603d
00000070: 1f56 a53b 13eb 9dbc f9fb 80bb 238d 28bd
00000080: 1013 753d e1d4 2e3d 1683 883b 8622 7ebd
00000090: 9409 a8bd 1e14 243b 9c24 6abc 0f6a b6bb
000000a0: 8949 b0bd e58c 99bd 6383 84bc f99d 3fbc
000000b0: 2195 21bc 7548 40bd 95ad 5bbc 759b ff3b
000000c0: 67a3 ffba 6c1a e1bc fe74 883c 3c1d 0b3c
000000d0: c41b b93c 2da6 ee3c b9f8 723c 6c63 eebc
000000e0: 79c2 5bbc 7257 83bc b56f 66bc 9d09 313c
000000f0: 48e9 fabc 6d3b 1dba c33a 0cbc 5fd8 293c
00000100: 784b 443c b522 32bd 42b9 6cbb e313 06bd
00000110: c2b0 0e3d e7da 833d 4eb0 40bb bc0d 4b3c
00000120: 846e ab3c bbe7 563d 6820 263e 2fb1 b13c
00000130: 1b0c dfbc ebfd 95bb c566 bebb 3603 f53c
00000140: e19a 1e3c 38a2 6e3b ba3b 16bd 3340 13bc
00000150: 88ab 703c 48e2 30bc ef74 093c 22bc 7b3b
00000160: c9de cc3c 6b70 803c 1cb2 9fbb 7ea3 0fbd
00000170: 7a41 49bc 9375 fdbb e808 e3bc 7efe 00bd
00000180: f560 3bbd c7ca 5abd d6b0 fdbd d664 30be
00000190: ca8b 123b 2c59 3f3c e3ec 0a3c cceb 82bc
000001a0: 7fdb 33bd 79d8 993c 2f42 e23b 5e5d 89bb
000001b0: 3ff5 043c ed2e 3fbd 40b2 063d 356f c63c
000001c0: 7b6d 7a3b bdfc 99ba a72d 02bd 8433 7cbb
000001d0: 8ce4 913c e8b8 44bd 1ccb 06bd adc6 cbbc
000001e0: a6e5 6b3d db33 363c aa30 123d 30fa 3a3d
000001f0: 2ff1 803d da16 b13b ce73 463c 0d18 2e3a
00000200: a26e 953c fe4a 98bc 6109 353b a8e2 073c
00000210: 44ca 86bb 46de fe3b b5c6 00bd 66ce e4bc
00000220: 3f08 d0bc 03ad dfbc a932 08bd 8952 f2bc
00000230: 0717 803b df14 f8bb 1624 413b b5d1 853c
00000240: 916d b2b9 601a 2e3c b01d fc3c 5fa4 963c
00000250: 7eae eb3c 4e5c 6f3c 332d 653b 90e2 0e3d
00000260: 3926 623d 90ec bdbc 595f 70bd f19b a0bb
00000270: 8623 13bb bd87 b3bc f911 84bd 0f24 1abd
00000280: 96a8 193c 3853 f8bb 5edf 18bc 0098 64bd
00000290: 869f 7c39 65b2 583d 5f70 a23c ff1d 59bd
000002a0: 31f3 ed3b e83a 393c fd67 353d 5a5c 2c3d
000002b0: a5f6 28bd e0a8 9f3c c36e a03d ed84 9ebc
000002c0: e74f e9bc 5abb 2a3c 38ef a3bc 377f 09bd
000002d0: b45a 03bd 80b5 603c cf0f a23c 8904 d1bc
000002e0: 879b 9f3c 93ee 593a 93aa 0f3d d2f6 3e3c
000002f0: a4f8 36bc dac7 77bc 620e ab3c d034 95bb
00000300: ef88 76bc d6b8 183c fdfe 053d 7e69 c73c
00000310: 72bb 823b 8bc8 733b 7e77 3a3d df97 c93d
00000320: a021 0f3d 7cd8 65bd 5463 16bd d383 c7bc
00000330: 3ee7 47bd 954e 57bc e65e 00bd fd42 37bd
00000340: 9312 d3bb 3c9a 903c 431f bebd 0242 17bd
00000350: 594a 9cbd 9e43 4cbd 1f34 cc3d 8ad0 11be
00000360: 288b dfbd b8fd adbd d7e9 48bd ab89 b83d
00000370: 84bc 5abd 90fa 85bd 9770 59bd 0e58 543d
00000380: 133a 193e 1549 8d3c 866b 72ba b63d 68b9
00000390: 7399 fabc 87a4 9bbc b567 493d 55a1 cd3b
000003a0: d80f 9fbc a526 6bbd c372 163d c516 7cbd
000003b0: d759 2fbd 73ed 89bd 527c 71bd 105b 633d
000003c0: 4210 c1bd ce75 9fbd 2c5f e3bc c373 093d
000003d0: ad2d 633d 0cff aebd 43df 20bd 4e38 e8bc
000003e0: 8c53 733e 7272 463d b9fe 8b3d d48b cbbc
000003f0: 9d14 61bd a4b7 99bd 6333 fbbd f794 713d

conv2.bias f4 [32]
0.005650251 -0.03338514 0.0121996235 -0.022154773 0.015075802 -0.017179066 -0.022470595 0.018473862
-0.012539595 -0.018958049 -0.02472369 0.014198947 -0.011631388 -0.015372918 0.016062962 -0.028858323
-0.025758278 -0.014504194 0.0020037019 -0.05827282 0.050070345 -0.008506644 -0.010797151 0.0041521355
-0.017907925 -0.010026956 -0.019102577 0.020004744 -0.027310785 0.0038516412 0.020289905 -0.026827194
00000000: be25 b93b dbbe 08bd eee0 473c ed7d b5bc
00000010: 7f00 773c 1dbb 8cbc 4114 b8bc 7f56 973c
00000020: e072 4dbc e94d 9bbc 5689 cabc b3a2 683c
00000030: 9491 3ebc b1de 7bbc 7996 833c 4a68 ecbc
00000040: 0603 d3bc 00a3 6dbc 8a50 033b 7baf 6ebd
00000050: 9016 4d3d 735f 0bbc 89e6 30bc a30e 883b
00000060: a4b3 92bc 1a48 24bc 027d 9cbc fde0 a33c
00000070: deba dfbc d16b 7c3b 0437 a63c b4c4 dbbc

conv3.weight f4 [1, 32, 5, 5]
-0.048358895 -0.015691217 -0.021748465 -0.03008278 0.004508195 0.0063268957 -0.02813304 -0.052840527
-0.010694331 0.017067151 0.019592252 -0.045723863 -0.042270888 -0.0011269632 0.008997805 -0.005875396
-0.023773905 -0.028728513 -0.013427429 0.017842265 0.06789308 0.055709302 0.04875164 0.039874546
0.119363464 -0.040812816 -0.026824806 -0.043717362 -0.00848529 -0.002187199 -0.04078189 -0.052849025
-0.023265133 -0.013526514 -0.031766493 -0.032326885 -0.013602663 -0.040270653 -0.026281286 -0.013911606
-0.03989242 0.012036477 -0.03840935 -0.012552277 -0.022393338 -0.005981206 -0.057198666 -0.01696501
-0.027578266 -0.00045057829 0.036488317 -0.014880689 0.0064675277 0.033109028 0.034385078 -0.008603622
0.017269302 -0.020205252 -0.013950726 -0.026515076 0.013003628 -0.028897876 -0.016221931 -0.014503212
0.0047121886 0.0053372723 -0.0067800456 -0.027245887 -0.004937272 0.017335793 0.012622622 -0.017169451
-0.0055328114 -0.0320433 0.01900252 -0.031885598 -0.021287361 -0.054616325 -0.04985015 -0.025641775
-0.011656115 0.024625024 0.021528674 -0.013250664 0.028435294 -0.0059539503 -0.01813439 0.016456183
-0.0055240816 0.03305185 0.010255522 0.012796341 -0.023679089 -0.008520555 0.0390915 0.047777742
0.025774209 0.0033544637 0.03665913 0.08058871 -0.07566121 -0.039120805 -0.022437388 -0.012126949
-0.06694689 -0.0017496288 -0.0046324623 0.039311267 -0.02038758 -0.018050984 -0.025646225 -0.0032043238
0.01840412 -0.00070896966 0.014756987 -0.021678789 0.02087349 -0.008423556 -0.012613852 0.0093408935
-0.012870015 0.036640313 0.030629039 0.005119231 0.012494997 -0.10734985 -0.08250216 -0.0433088
-0.05710225 -0.06440531 -0.03341771 -0.035153396 -0.033686563 -0.03320495 -0.032033797 -0.07994478
-0.020123066 -0.056975037 0.0029383723 -0.067415066 -0.055434555 -0.0075881924 -0.0340715 -0.03676203
-0.014443406 -0.081308424 -0.054389726 -0.044028196 -0.013053637 -0.034762062 0.042035498 -0.006987576
-0.0058856234 0.03737439 0.03002048 -0.009191694 -0.0022582926 -0.011456151 0.002143472 0.033445016
-0.028398631 0.0074517727 -0.0027452412 -0.007202865 0.010537039 0.027769886 -0.017694019 -0.0080755595
0.004505917 0.0108595705 0.016031584 0.029539112 0.01494511 0.02479914 0.0073656226 0.074032195
0.06920621 0.020448439 0.006869085 0.040289156 0.080459 0.020268012 0.022246491 0.016945286
0.031114656 0.06189842 -0.009989931 0.036152028 -0.011138007 -0.00430193 0.031031284 0.03155802
0.032995 0.0033968291 0.011707935 0.023891283 0.022181565 0.018283848 0.003810478 0.04112707
0.044145666 0.041383002 0.04756751 0.035806578 0.07357337 -0.001842501 0.03912452 0.0022249857
0.024338488 0.056728177 0.017104097 0.023920417 0.04194034 0.0047922395 0.018713035 0.021048171
0.011532332 0.027019454 0.019957252 0.006749105 0.029036332 0.013129759 0.03021315 -0.01598903
0.021471404 0.03665101 0.024159623 0.02104171 0.046549086 0.033290014 0.038932957 0.022782221
0.007570802 0.02115036 0.033711597 -0.0051348954 -0.0036888686 0.014754693 0.03336107 0.02069246
0.029381823 0.039341073 0.022566682 0.0027745564 0.040568806 0.04554884 0.05118414 0.036422666
0.034168653 0.06895219 0.026947543 -0.006023864 0.014174643 -0.0034234726 0.04118382 0.0024295908
00000000: fa13 46bd de8a 80bc d629 b2bc 2a70 f6bc
00000010: 7bb9 933b d951 cf3b 4377 e6bc 4f6f 58bd
00000020: 4637 2fbc 69d0 8b3c ee7f a03c f248 3bbd
00000030: 3d24 2dbd 9cb6 93ba 886b 133c 6586 c0bb
00000040: 7ec1 c2bc 0f58 ebbc b8fe 5bbc f129 923c
00000050: 870b 8b3d 702f 643d cdaf 473d 7e53 233d
00000060: d574 f43d 572b 27bd b2bf dbbc fa10 33bd
00000070: e305 0bbc 1c57 0fbb e90a 27bd 3878 58bd
00000080: 8596 bebc 509e 5dbc 951d 02bd 3269 04bd
00000090: b4dd 5ebc d7f2 24bd da4b d7bc 81ed 63bc
000000a0: 3c66 23bd a534 453c 1f53 1dbd 11a8 4dbc
000000b0: 3c72 b7bc fefd c3bb 2649 6abd 34fa 8abc
000000c0: d1eb e1bc 983b ecb9 c674 153d 22ce 73bc
000000d0: 8eed d33b 559d 073d 5ed7 0c3d 35f6 0cbc
000000e0: 5a78 8d3c 7c85 a5bc 9691 64bc 2536 d9bc
000000f0: 2b0d 553c 3dbb ecbc dbe3 84bc e19e 6dbc
00000100: b468 9a3b 49e4 ae3b 252b debb c432 dfbc
00000110: d7c8 a1bb cb03 8e3c 1dcf 4e3c f3a6 8cbc
00000120: 964c b5bb d63f 03bd 2cab 9b3c 799a 02bd
00000130: d562 aebc 5eb5 5fbd ac2f 4cbd b30e d2bc
00000140: 4af9 3ebc 6bba c93c e75c b03c 5019 59bc
00000150: 22f1 e83c 5b19 c3bb 928e 94bc 1ecf 863c
00000160: 5b03 b5bb 6061 073d c706 283c bfa7 513c
00000170: a6fa c1bc cc99 0bbc 691e 203d 98b2 433d
00000180: 6f24 d33c 90d6 5b3b e227 163d b20b a53d
00000190: 44f4 9abd 233d 20bd 9dce b7bc 1cb0 46bc
000001a0: 731b 89bd cd53 e5ba e9cb 97bb da04 213d
000001b0: db03 a7bc a8df 93bc 0818 d2bc a2ff 51bb
000001c0: 3dc4 963c 26da 39ba 4ac7 713c b797 b1bc
000001d0: e2fe aa3c f402 0abc 54aa 4ebc 8c0a 193c
000001e0: c1dc 52bc 2714 163d c0e9 fa3c 39bf a73b
000001f0: d1b7 4c3c 3dda dbbd e4f6 a8bd 9164 31bd
00000200: 0de4 69bd eee6 83bd 02e1 08bd 02fd 0fbd
00000210: ecfa 09bd ea01 08bd df35 03bd 17ba a3bd
00000220: 21d9 a4bc a85e 69bd b591 403b e910 8abd
00000230: 580f 63bd 5fa6 f8bb 8f8e 0bbd c893 16bd
00000240: 09a4 6cbc 0885 a6bd c3c7 5ebd e956 34bd
00000250: ecde 55bc aa62 0ebd 6a2d 2c3d 09f8 e4bb
00000260: 30dc c0bb e315 193d 82ed f53c c298 16bc
00000270: ddff 13bb 94b2 3bbc 7e79 0c3b a4fd 083d
00000280: 3fa4 e8bc 002e f43b 81e9 33bb 0306 ecbb
00000290: 8ba3 2c3c ac7d e33c 0cf3 90bc 5a4f 04bc
000002a0: 5fa6 933b 57ec 313c ab54 833c 02fc f13c
000002b0: 56dc 743c 9127 cb3c 525b f13b 319e 973d
000002c0: fcbb 8d3d 7c83 a73c 1016 e13b 3e06 253d
000002d0: b0c7 a43d 1a09 a63c 463e b63c d7d0 8a3c
000002e0: 2ae4 fe3c 3389 7d3d cfac 23bc 2614 143d
000002f0: 307c 36bc 34f7 8cbb 5235 fe3c fb42 013d
00000300: c425 073d 569d 5e3b a3d2 3f3c a7b7 c33c
00000310: 1db6 b53c 02c8 953c 36b9 793b dc74 283d
00000320: 16d2 343d 3981 293d 26d6 423d eba9 123d
00000330: a3ad 963d 1380 f1ba 0841 203d 11d1 113b
00000340: 8261 c73c ce5b 683d e41d 8c3c c0f4 c33c
00000350: a2c9 2b3d 3808 9d3b 144c 993c 376d ac3c
00000360: 1bf2 3c3c e757 dd3c 647d a33c 9927 dd3b
00000370: 9add ed3c 331e 573c 9181 f73c 6dfb 82bc
00000380: cce4 af3c 5f1f 163d 67ea c53c aa5f ac3c
00000390: 41aa 3e3d 1c5b 083d 2a78 1f3d c8a1 ba3c
000003a0: 7d14 f83b 8543 ad3c 2c15 0a3d a042 a8bb
000003b0: f2c0 71bb abbd 713c 9ea5 083d 3c83 a93c
000003c0: 26b2 f03c 1b24 213d c3dd b83c 55d5 353b
000003d0: 7a2b 263d 6c91 3a3d 76a6 513d ef2f 153d
000003e0: 6ef4 0b3d ce36 8d3d 18c1 dc3c d563 c5bb
000003f0: c33c 683c 575c 60bb 5eb0 283d c539 1f3b

exp_avg f4 [64, 1, 9, 9]
-0.0008993249 -0.00086520746 -0.00085348636 -0.00079448597 -0.0007480738 -0.0007150138 -0.0007266303 -0.00072831556
-0.00076771894 -0.0009326028 -0.00089949364 -0.0009075078 -0.00082097936 -0.0007492278 -0.00068015227 -0.00066092185
-0.0006399791 -0.00068162684 -0.0009741738 -0.00092959544 -0.0009674506 -0.0008877834 -0.0007932957 -0.0006817659
-0.00062564976 -0.0006102531 -0.0006206637 -0.000977396 -0.0010127384 -0.000995199 -0.0008805256 -0.00077246217
-0.00061836065 -0.0005686748 -0.00062322366 -0.0006371249 -0.0009788567 -0.0010161754 -0.0010815504 -0.0009772457
-0.0007890903 -0.00062121655 -0.00055786467 -0.0006219572 -0.00068496953 -0.0009695836 -0.000991454 -0.0010673543
-0.0009595041 -0.00084691035 -0.0006871788 -0.0006050101 -0.0006180028 -0.0006969922 -0.0009601411 -0.0010310871
-0.0010824087 -0.0010227504 -0.00089604716 -0.0007452863 -0.00068477733 -0.0006800051 -0.0007351915 -0.00092383294
-0.0010124223 -0.0010486093 -0.0010106772 -0.00091282086 -0.00082030194 -0.00077595393 -0.00075939164 -0.0007673271
-0.0009186505 -0.000988257 -0.0010219117 -0.0010233267 -0.00096879253 -0.0008930557 -0.0008715188 -0.00085943803
-0.00083638326 -0.0010101083 -0.0009961585 -0.00095082546 -0.0009341043 -0.0009452256 -0.000983382 -0.000997018
-0.001051375 -0.001036609 -0.0010051844 -0.00097197824 -0.0009407777 -0.0008916565 -0.00092266424 -0.0009911741
-0.00100664 -0.0010527348 -0.0010719845 -0.00096992473 -0.00093709165 -0.00087967864 -0.0008661116 -0.0008868666
-0.0009393831 -0.0009875293 -0.0010471444 -0.001068513 -0.0009672312 -0.0009072205 -0.00086681294 -0.0008657864
-0.00086228567 -0.00093783834 -0.0010100192 -0.0010480629 -0.0010663081 -0.0009413588 -0.00092024374 -0.0008833316
-0.00086941576 -0.0008745991 -0.000963465 -0.0010166093 -0.0010683001 -0.0010479373 -0.0009501 -0.0009302601
-0.000930395 -0.00090044655 -0.0009034709 -0.000974836 -0.001047281 -0.00108377 -0.0011392838 -0.00093257683
-0.00095673854 -0.00096139556 -0.0009545528 -0.0009861268 -0.0010665058 -0.0011163086 -0.0011648025 -0.0011753389
-0.00093622133 -0.00094183034 -0.00095512177 -0.00095044315 -0.0010311257 -0.0010673276 -0.0011206386 -0.0011902961
-0.0012044573 -0.00093680684 -0.00094804156 -0.0009600882 -0.0009821588 -0.0010383156 -0.0010771246 -0.0011653696
-0.001203353 -0.0012242328 -0.0016866075 -0.0017059811 -0.0017230097 -0.0017437375 -0.001637728 -0.0016045229
-0.0015538982 -0.0014717487 -0.001467129 -0.0016453739 -0.0016891417 -0.0016696396 -0.001654236 -0.0016209072
-0.0015872425 -0.0015393771 -0.0014696117 -0.0014607273 -0.0016428254 -0.0016859072 -0.0016373341 -0.0016006717
-0.0014992784 -0.0015408875 -0.0015640808 -0.0015028615 -0.0014885726 -0.0015956961 -0.0016075177 -0.0015324373
-0.001452906 -0.0014426613 -0.0015364763 -0.0015983536 -0.0015793064 -0.0015345156 -0.0016163188 -0.0015638132
-0.0014235235 -0.0014087191 -0.001385867 -0.0014694398 -0.0016186209 -0.0016210102 -0.0016221965 -0.0015902446
-0.001553832 -0.0014123697 -0.0013304265 -0.0013308903 -0.0015347963 -0.0016260446 -0.0016416553 -0.0016558232
-0.0015899128 -0.0014533659 -0.0014175599 -0.0013120861 -0.0013360186 -0.0015311771 -0.0016596335 -0.0016664139
-0.0016501002 -0.001516607 -0.0014701 -0.0013639658 -0.0013682687 -0.0014027179 -0.0015845562 -0.0016494826
-0.0016297025 -0.0016467994 -0.0015283932 -0.0014986019 -0.0014558972 -0.0014025276 -0.0014243701 -0.0015241217
-0.0016233036 -0.001618758 -0.0015655537 -0.002106393 -0.0019344529 -0.001961096 -0.0018177024 -0.001703571
-0.0016119776 -0.0017001793 -0.0017411449 -0.001723207 -0.001956427 -0.001979103 -0.001763444 -0.0015892066
00000000: acc0 6bba 17cf 62ba 80bc 5fba 0d45 50ba
00000010: 621a 44ba c46f 3bba 557b 3eba 6eec 3eba
00000020: bf40 49ba ea79 74ba ffcb 6bba d1e5 6dba
00000030: fe36 57ba d467 44ba 3f4c 32ba b741 2dba
00000040: 45c4 27ba 34af 32ba b25f 7fba 18b0 73ba
00000050: 839c 7dba 23ba 68ba 2cf5 4fba 89b8 32ba
00000060: a502 24ba 64f9 1fba 09b4 22ba f81b 80ba
00000070: ddbd 84ba 5671 82ba 13d3 66ba 0f7f 4aba
00000080: 7b19 22ba 1f13 15ba d55f 23ba ba04 27ba
00000090: fb4c 80ba 3031 85ba cfc2 8dba ed16 80ba
000000a0: f4da 4eba 23d9 22ba aa3d 12ba d70a 23ba
000000b0: 878f 33ba a72b 7eba adf3 81ba 78e6 8bba
000000c0: 3b87 7bba 3103 5eba ca23 34ba 8a99 1eba
000000d0: 7701 22ba 5bb6 36ba fab1 7bba 8b25 87ba
000000e0: 9cdf 8dba cf0d 86ba b5e4 6aba 515f 43ba
000000f0: a182 33ba 5f42 32ba deb9 40ba 612d 72ba
00000100: 41b3 84ba 7d71 89ba b378 84ba 5f4a 6fba
00000110: 8809 57ba 6369 4bba e911 47ba 7326 49ba
00000120: 97d1 70ba 6788 81ba abf1 85ba 2521 86ba
00000130: 91f6 7dba f41b 6aba a376 64ba e94b 61ba
00000140: bb40 5bba 9c65 84ba 8891 82ba d140 79ba
00000150: aede 74ba 04c9 77ba d3e4 80ba 5fae 82ba
00000160: 4ace 89ba d4de 87ba 64c0 83ba 5bcc 7eba
00000170: 869e 76ba 0ebe 69ba f3de 71ba 49ea 81ba
00000180: 3cf1 83ba ebfb 89ba d581 8cba 8c42 7eba
00000190: 28a7 75ba 3c9a 66ba c40b 63ba 9c7c 68ba
000001a0: ef40 76ba fc6f 81ba 5640 89ba 590d 8cba
000001b0: c98d 7dba 8ad2 6dba d53a 63ba f1f5 62ba
000001c0: 030b 62ba 44d9 75ba 9f62 84ba 285f 89ba
000001d0: 5dc3 8bba 85c5 76ba 833c 71ba 618f 67ba
000001e0: 81e9 63ba 5a45 65ba 0b91 7cba bf3f 85ba
000001f0: 3406 8cba f15a 89ba 2210 79ba b3dc 73ba
00000200: c0e5 73ba f20b 6cba e8d6 6cba 238c 7fba
00000210: eb44 89ba 490d 8eba 0554 95ba 2c78 74ba
00000220: a3cd 7aba 2a06 7cba f43a 7aba ed40 81ba
00000230: ffc9 8bba 1a51 92ba 49ac 98ba d40d 9aba
00000240: c06c 75ba 2ae5 76ba 2361 7aba 2927 79ba
00000250: d626 87ba 92e5 8bba 64e2 92ba b603 9cba
00000260: e1de 9dba 0b94 75ba fe85 78ba 6eae 7bba
00000270: c8bb 80ba 1718 88ba 4e2e 8dba 51bf 98ba
00000280: d4b9 9dba 7076 a0ba 2811 ddba 3a9b dfba
00000290: 9dd6 e1ba 1f8e e4ba 08a9 d6ba db4e d2ba
000002a0: 2cac cbba b1e7 c0ba ae4c c0ba 96a9 d7ba
000002b0: 3166 ddba cfd7 daba f3d2 d8ba 9f74 d4ba
000002c0: 050b d0ba edc4 c9ba fc9f c0ba e075 bfba
000002d0: 1354 d7ba a9f9 dcba d19b d6ba a1cd d1ba
000002e0: 6f83 c4ba 9bf7 c9ba d801 cdba aafb c4ba
000002f0: 351c c3ba ad26 d1ba 58b3 d2ba 10dc c8ba
00000300: 706f beba ae17 bdba 9763 c9ba d97f d1ba
00000310: bb00 cfba cd21 c9ba a9da d3ba ddf8 ccba
00000320: 8695 baba c5a4 b8ba fba5 b5ba 389a c0ba
00000330: e827 d4ba 1478 d4ba e29f d4ba c16f d0ba
00000340: f3a9 cbba 431f b9ba b561 aeba 4571 aeba
00000350: 382b c9ba 0121 d5ba d02c d7ba 3508 d9ba
00000360: 9f64 d0ba de7e beba 6bcd b9ba 4efa abba
00000370: 581d afba c7b1 c8ba 0f88 d9ba 926b daba
00000380: 2d48 d8ba e3c8 c6ba 5fb0 c0ba 19c7 b2ba
00000390: 7b57 b3ba 67db b7ba e2b0 cfba 7433 d8ba
000003a0: be9b d5ba 6bd9 d7ba 5e54 c8ba bc6c c4ba
000003b0: ced3 beba 04d5 b7ba eeb1 baba 0ac5 c7ba
000003c0: 08c5 d4ba 812c d4ba 4433 cdba 690b 0abb
000003d0: 788d fdba bb85 00bb f93f eeba 5b4a dfba
000003e0: fe48 d3ba 8dd8 deba 2137 e4ba 3bdd e1ba
000003f0: 6637 00bb d7b3 01bb 5d23 e7ba ed4c d0ba

exp_avg_sq f4 [64, 1, 9, 9]
1.0900872e-05 1.0458668e-05 1.010557e-05 9.181129e-06 8.908123e-06 8.628032e-06 8.734682e-06 9.147572e-06
9.838957e-06 1.14606255e-05 1.1148554e-05 1.0843374e-05 9.786755e-06 9.0664935e-06 8.723313e-06 8.481833e-06
8.614809e-06 9.218449e-06 1.2567217e-05 1.2541973e-05 1.18631715e-05 1.1062041e-05 9.855205e-06 8.857018e-06
8.378988e-06 8.301572e-06 8.76039e-06 1.3412069e-05 1.4323912e-05 1.3975517e-05 1.2378144e-05 1.0913513e-05
9.460097e-06 8.639325e-06 8.224481e-06 8.613095e-06 1.4872328e-05 1.5712447e-05 1.6014501e-05 1.4444013e-05
1.2064824e-05 1.0176839e-05 8.769599e-06 8.279658e-06 8.418238e-06 1.5939471e-05 1.6918493e-05 1.7446864e-05
1.5388641e-05 1.3463546e-05 1.1051578e-05 9.482457e-06 8.667768e-06 8.717185e-06 1.617685e-05 1.770812e-05
1.7821982e-05 1.6385102e-05 1.4380981e-05 1.1745207e-05 1.0171756e-05 9.464438e-06 9.254916e-06 1.5555112e-05
1.6685557e-05 1.687186e-05 1.5979234e-05 1.4059577e-05 1.240481e-05 1.07374435e-05 1.0223319e-05 9.889736e-06
1.4539184e-05 1.4887561e-05 1.5350059e-05 1.5053902e-05 1.41641085e-05 1.2804406e-05 1.1625173e-05 1.1170975e-05
1.065736e-05 7.509174e-06 7.889759e-06 8.124858e-06 8.566521e-06 8.845369e-06 8.169861e-06 7.611142e-06
8.0429345e-06 7.688136e-06 7.758266e-06 8.028612e-06 8.962725e-06 8.8529105e-06 9.706857e-06 9.247609e-06
8.637632e-06 8.140708e-06 8.136586e-06 7.815093e-06 8.301519e-06 8.9967725e-06 1.0488735e-05 1.059545e-05
9.244624e-06 8.725356e-06 7.868022e-06 7.811342e-06 7.739819e-06 8.087901e-06 8.561598e-06 1.0591364e-05
1.0603239e-05 9.321832e-06 8.487491e-06 8.145803e-06 7.716384e-06 7.368071e-06 7.757827e-06 8.272406e-06
9.9130875e-06 1.0834618e-05 9.724686e-06 8.833522e-06 8.806315e-06 7.798279e-06 7.362897e-06 7.4261256e-06
8.360389e-06 8.485161e-06 8.8598445e-06 9.485001e-06 8.616637e-06 8.1970575e-06 8.228359e-06 7.2305443e-06
7.753539e-06 7.828239e-06 8.217721e-06 8.3764e-06 8.92376e-06 8.863933e-06 8.746757e-06 8.396431e-06
6.959706e-06 7.4457334e-06 7.3384745e-06 7.4718228e-06 8.305065e-06 8.3528885e-06 8.450377e-06 8.776423e-06
8.559231e-06 7.2516523e-06 7.2823e-06 7.5884304e-06 7.6154197e-06 7.5888474e-06 7.674003e-06 8.367833e-06
8.594724e-06 8.787236e-06 0.00016220564 0.00016720372 0.00017018022 0.0001642195 0.00015430375 0.00014461037
0.00013760607 0.00013286946 0.00013068315 0.00017076526 0.00017852214 0.00018065504 0.00017063011 0.00015711943
0.00014464991 0.00013818749 0.00013492115 0.00013320682 0.0001776008 0.00018687904 0.00018418512 0.00017127268
0.00015515802 0.00014223852 0.0001388678 0.00013851059 0.00013756567 0.0001779937 0.00018396687 0.00017946075
0.00016287256 0.00014651033 0.0001395155 0.00014169389 0.00014523265 0.00014403721 0.00017187349 0.00017442368
0.00016490328 0.00014824215 0.0001366554 0.00013761941 0.00014669416 0.000153422 0.00015113653 0.00016040854
0.0001574192 0.00014620824 0.0001340152 0.00013013219 0.0001372604 0.00015148635 0.00015628104 0.00015412155
0.00014553838 0.0001402286 0.00013132615 0.0001249528 0.00012766606 0.00014040146 0.00015089141 0.00015773399
0.00015426456 0.0001337829 0.00012848015 0.00012295219 0.000120917415 0.00012749675 0.00013945693 0.00014940175
0.00015294454 0.00015178742 0.00012674488 0.00012357847 0.00012019817 0.000120656565 0.00012586919 0.00013382983
0.00014378304 0.00014659952 0.00014332177 0.0001566244 0.00014641407 0.00015916037 0.00016223935 0.00015937162
0.00015059825 0.00014750072 0.00014885199 0.000141818 0.00015383221 0.00015273942 0.00015723807 0.00016649098
00000000: e4e2 3637 a377 2f37 188b 2937 a608 1a37
00000010: 1974 1537 1ec1 1037 2c8b 1237 8678 1937
00000020: 0012 2537 0347 4037 ad0a 3b37 f0eb 3537
00000030: cb31 2437 4b1c 1837 585a 1237 324d 0e37
00000040: 5388 1037 f0a8 1a37 c9d7 5237 5d6b 5237
00000050: ef07 4737 1b97 3937 c857 2537 9a98 1437
00000060: 7b93 0c37 fb46 0b37 97f9 1237 6604 6137
00000070: bc50 7037 6378 6a37 b9ab 4f37 2e19 3737
00000080: cfb6 1e37 9ef1 1037 e0fb 0937 f680 1037
00000090: 2a84 7937 39ce 8337 e156 8637 9054 7237
000000a0: 066a 4a37 31bd 2a37 2421 1337 dce8 0a37
000000b0: 0f3c 0d37 c1b5 8537 30ec 8d37 db5a 9237
000000c0: db16 8137 7de1 6137 2b6a 3937 d816 1f37
000000d0: c86b 1137 0640 1237 85b3 8737 e68b 9437
000000e0: 6a80 9537 bd72 8937 d845 7137 480d 4537
000000f0: 5ca7 2a37 74c9 1e37 9045 1b37 597c 8237
00000100: f6f7 8b37 0b88 8d37 250b 8637 6ce1 6b37
00000110: 411e 5037 f824 3437 d284 2b37 18ec 2537
00000120: 52ed 7337 96c5 7937 00c4 8037 0490 7c37
00000130: 62a2 6d37 81d2 5637 bd09 4337 f96a 3b37
00000140: 03cd 3237 50f7 fb36 425e 0437 0050 0837
00000150: edb8 0f37 9266 1437 4911 0937 3663 ff36
00000160: 24f0 0637 4bfc 0037 8029 0237 a0b2 0637
00000170: 9c5e 1637 f686 1437 a2da 2237 2e26 1b37
00000180: 59ea 1037 1394 0837 5f82 0837 921d 0337
00000190: c146 0b37 d8f0 1637 c6f8 2f37 1cc3 3137
000001a0: 5c19 1b37 1e63 1237 e600 0437 750d 0337
000001b0: 45da 0137 45b1 0737 c9a3 0f37 90b1 3137
000001c0: 91e4 3137 f764 1c37 7f65 0e37 f5a9 0837
000001d0: 9e75 0137 3f3b f736 9d27 0237 b7c9 0a37
000001e0: 6350 2637 54c6 3537 3527 2337 b033 1437
000001f0: d6be 1337 5ad5 0237 ce0e f736 ef2d f936
00000200: 9943 0c37 7d5b 0e37 bea4 1437 c521 1f37
00000210: 2d90 1037 1886 0937 880c 0a37 e79d f236
00000220: 3215 0237 0856 0337 d8de 0937 5d88 0c37
00000230: 42b7 1537 4db6 1437 09bf 1237 66de 0c37
00000240: 6b87 e936 5dd6 f936 043d f636 78b6 fa36
00000250: fc55 0b37 6223 0c37 18c6 0d37 733e 1337
00000260: 9e99 0f37 3853 f336 7b5a f436 1fa0 fe36
00000270: f587 ff36 b4a3 fe36 98bf 0037 9263 0c37
00000280: 0f32 1037 e46c 1337 bf15 2a39 6853 2f39
00000290: 6872 3239 5632 2c39 99cc 2139 8da2 1739
000002a0: 594a 1039 e052 0b39 fe07 0939 730f 3339
000002b0: ac31 3b39 386e 3d39 2ceb 3239 6dc0 2439
000002c0: 2aad 1739 6ce6 1039 9f79 0d39 6fad 0b39
000002d0: 5a3a 3a39 f6f4 4339 d121 4139 a997 3339
000002e0: eab1 2239 dd25 1539 0b9d 1139 273d 1139
000002f0: 813f 1039 d2a3 3a39 3be7 4039 a12d 3c39
00000300: c5c8 2a39 91a0 1939 e84a 1239 aa93 1439
00000310: 9849 1839 b208 1739 f038 3439 80e5 3639
00000320: e3e9 2c39 7371 1b39 284b 0f39 ee4d 1039
00000330: ead1 1939 e8df 2039 677a 1e39 5733 2839
00000340: e510 2539 7a4f 1939 6e86 0c39 1874 0839
00000350: 8fed 0f39 4fd8 1e39 5fdf 2339 b09b 2139
00000360: a99b 1839 540a 1339 98b4 0939 c305 0339
00000370: 19de 0539 bb38 1339 9b38 1e39 6565 2539
00000380: 14c2 2139 1348 0c39 a1b8 0639 baec 0039
00000390: 0b95 fd38 a6b0 0539 2f3b 1239 baa8 1c39
000003a0: bd5f 2039 2029 1f39 d2e6 0439 d894 0139
000003b0: e712 fc38 0009 fd38 c1fb 0339 ac54 0c39
000003c0: 77c4 1639 82b8 1939 a548 1639 8b3b 2439
000003d0: ba86 1939 49e4 2639 cb1e 2a39 fe1c 2739
000003e0: e9e9 1d39 6caa 1a39 2715 1c39 fbb4 1439
000003f0: 054e 2139 ad28 2039 46e0 2439 1594 2e39

exp_avg f4 [64]
-0.0021309669 -0.004554939 -0.0026414283 -0.008383567 0.02219748 -0.0077820723 0.0008736363 0.0052298494
-0.0037477158 -0.00039578334 -0.0024738677 0.0018355808 0.0010797159 0.0029236528 0.0034265544 0.022133436
-0.011954576 0.013148005 -0.002202674 0.008392908 -6e-45 0.005877966 -0.0056546764 0.004530846
-0.0012143292 -0.004504378 -0.0111580305 -0.0012329038 0.007642888 0.022100894 0.006796453 0.0034874992
0.015620372 -0.0035590208 -0.0038345829 -0.0019275987 0.021157756 -0.002273515 -0.00024443932 0.0034645698
-0.0010230461 -0.012696881 0.0011376287 -0.004783093 -0.0007323413 0.0021445972 0.0030827925 -0.0045060315
-0.0023648657 6.585654e-05 -0.033994105 0.027773378 0.0037075563 -0.0035230278 -0.0029498038 0.0045861374
0.00025778433 -0.0061039343 -0.0003910679 -0.0009528446 -0.00058987347 0.00035811792 -0.00415986 0.012023074
00000000: b1a7 0bbb 9941 95bb d01b 2dbb 3b5b 09bc
00000010: 7dd7 b53c c100 ffbb bd04 653a 285f ab3b
00000020: 3d9c 75bb 2481 cfb9 9d20 22bb df97 f03a
00000030: 4185 8d3a c19a 3f3b 0b90 603b 2e51 b53c
00000040: 20dd 43bc bb6a 573c bd5a 10bb 6882 093c
00000050: 0400 0080 f49b c03b dd4a b9bb 7e77 943b
00000060: 202a 9fba 7699 93bb 2cd0 36bc 6399 a1ba
00000070: 3171 fa3b ef0c b53c c8b4 de3b 878e 643b
00000080: 97ec 7f3c 763e 69bb a04d 7bbb 7ba7 fcba
00000090: 0853 ad3c 41ff 14bb 1728 80b9 d60d 633b
000000a0: bb17 86ba 9406 50bc 7c1c 953a 7ebb 9cbb
000000b0: 98fa 3fba 5f8c 0c3b ad08 4a3b 55a7 93bb
000000c0: ddfb 1abb 761c 8a38 673d 0bbd ff84 e33c
000000d0: 79fa 723b 99e2 66bb 7f51 41bb 4f47 963b
000000e0: 3a27 8739 8303 c8bb 3f08 cdb9 52c8 79ba
000000f0: bda1 1aba c6c1 bb39 6f4f 88bb 6dfc 443c

exp_avg_sq f4 [64]
0.00010274569 0.00015523327 0.0011886813 0.0018870354 0.0077816155 0.0015354649 0.0010511288 0.0017374703
0.0013509835 2.4519088e-06 0.00046406966 0.00076513854 9.200684e-05 0.0027889486 0.00028943227 0.013886329
0.0024636707 0.021600982 0.00042276474 0.012177184 2.2500625e-28 0.004185207 0.0012052533 0.0004459842
0.002468099 0.00034012023 0.00086507224 0.0011114535 0.0029185729 0.015225479 0.000829272 0.0007788565
0.0046185185 0.00040758806 0.00022530464 0.0020474985 0.013161965 0.00020014479 0.00057906983 0.00027356762
0.0017239972 0.0024972013 8.796899e-05 0.0016678199 0.000107507156 0.007734393 0.008433441 0.00040854767
0.00083024777 3.0101717e-05 0.01413214 0.020122103 0.000139872 0.00048728604 0.00017500106 0.00061375473
0.0003239102 0.00035352173 0.000694752 4.3186297e-05 0.001400621 2.0648631e-05 0.0008399991 0.0036867738
00000000: 2c79 d738 1dc6 2239 87cd 9b3a 6756 f73a
00000010: ecfc fe3b a741 c93a 08c6 893a d4bb e33a
00000020: 7c13 b13a 798b 2436 604e f339 9493 483a
00000030: ccf3 c038 cbc6 363b f1be 9739 7c83 633c
00000040: 8975 213b 8bf4 b03c 86a6 dd39 d082 473c
00000050: 5a9d 8e11 1024 893b 97f9 9d3a fcd2 e939
00000060: d4bf 213b 2a52 b239 04c6 623a 31ae 913a
00000070: 8745 3f3b 4a74 793c 8063 593a 2d2c 4c3a
00000080: f156 973b 8bb1 d539 c13f 6c39 532f 063b
00000090: 48a5 573c f5dd 5139 b8cc 173a a06d 8f39
000000a0: bff7 e13a 16a8 233b fe7b b838 c09a da3a
000000b0: 7775 e138 ca70 fd3b 6a2c 0a3c 5732 d639
000000c0: fca4 593a f282 fc37 7e8a 673c 1cd7 a43c
000000d0: 9baa 1239 6d7a ff39 7d80 3739 62e4 203a
000000e0: 7ed2 a939 e258 b939 0420 363a ef22 3538
000000f0: 0b95 b73a 9936 ad37 6333 5c3a cd9d 713b

exp_avg f4 [32, 64, 5, 5]
3.923261e-07 1.4585965e-05 3.323486e-05 4.6347945e-05 6.0259998e-05 6.7820692e-06 2.437264e-05 5.0156195e-05
6.177204e-05 7.179598e-05 1.17279715e-05 1.6379732e-05 3.638139e-05 5.101516e-05 6.36355e-05 6.5140434e-06
2.8497485e-05 4.4474065e-05 5.8147125e-05 6.0483195e-05 3.251743e-05 3.8211518e-05 4.7658406e-05 5.3665146e-05
4.6113943e-05 -4.477296e-06 -1.450132e-06 -2.8241773e-06 -4.8876445e-06 -5.719457e-06 -3.975424e-06 -2.5925963e-06
-2.057224e-06 -2.6375203e-06 -2.058279e-06 -6.0204143e-06 -3.9231427e-06 2.1723026e-06 3.228007e-06 2.3103814e-06
3.7788277e-06 3.4358286e-06 3.8112385e-06 3.0985063e-06 3.4145173e-06 -1.3928738e-07 -1.2250094e-06 -1.2990235e-07
-2.1872672e-06 2.6864288e-06 0.00017055511 0.0001342179 0.00011701714 0.00010723411 7.094607e-05 0.00017513859
0.00014792706 0.000118546224 8.683261e-05 6.8425106e-05 0.0001502766 0.00014199174 0.00011380638 9.627523e-05
7.935436e-05 0.00013558503 0.00010536361 9.508959e-05 9.15942e-05 7.540772e-05 9.787047e-05 9.193413e-05
5.844416e-05 4.7276822e-05 3.7426405e-05 -1.1654704e-05 -2.3873945e-05 -3.68536e-05 -4.7086924e-05 -5.066699e-05
-1.6287566e-05 -2.424303e-05 -3.575181e-05 -4.9162365e-05 -4.7475653e-05 -7.933242e-06 -1.37219795e-05 -3.0779327e-05
-3.7510836e-05 -3.831283e-05 -5.9401527e-06 -2.1932427e-05 -2.9885334e-05 -3.586037e-05 -3.7461723e-05 -1.8951416e-05
-2.4474268e-05 -2.881333e-05 -2.2171449e-05 -2.449688e-05 1.5866848e-05 1.9620758e-05 1.9769737e-05 2.3336595e-05
2.5301038e-05 1.8749926e-05 2.883388e-05 3.211819e-05 3.6692658e-05 3.2928954e-05 2.0608126e-05 1.9718573e-05
2.0589634e-05 2.945955e-05 2.8192306e-05 2.0458594e-05 2.2751508e-05 2.3290979e-05 2.5881905e-05 3.050948e-05
1.8898532e-05 2.4423307e-05 2.4019113e-05 2.209748e-05 2.860126e-05 5.981448e-05 6.3889325e-05 6.803173e-05
7.499374e-05 7.032722e-05 8.544077e-05 6.82032e-05 7.2950934e-05 7.1423376e-05 5.747365e-05 8.579698e-05
7.391126e-05 6.8345464e-05 6.655922e-05 4.5589102e-05 5.870805e-05 4.6702913e-05 4.045382e-05 3.0375151e-05
1.8109109e-05 2.5100746e-05 3.0742276e-06 -1.5414533e-06 -7.4573654e-06 -2.3453646e-05 -2.4196483e-05 -2.5177063e-05
-2.248967e-05 -3.1275755e-05 -2.9428107e-05 -2.733736e-05 -2.2521872e-05 -2.8922053e-05 -2.492396e-05 -2.8920958e-05
-2.4026074e-05 -2.3833178e-05 -2.6228405e-05 -2.7691985e-05 -3.084306e-05 -3.0675987e-05 -1.8621946e-05 -2.8127286e-05
-2.8432314e-05 -3.9807062e-05 -2.2252281e-05 -1.7854316e-05 -1.7562974e-05 -2.456622e-05 -3.1974938e-05 5.206832e-06
4.5987636e-06 -1.1441574e-06 6.368395e-08 3.4293334e-06 6.468844e-06 4.106574e-06 1.3267884e-06 4.099298e-08
5.4171783e-06 8.800164e-06 6.150493e-06 3.8462886e-06 3.4882503e-06 5.7028205e-06 1.3265713e-05 6.5156996e-06
8.187145e-06 6.4837095e-06 8.169883e-06 7.5998905e-06 9.882382e-06 5.622866e-06 4.9383957e-06 5.067862e-06
-1.1626938e-05 -1.4245684e-05 -2.5009942e-05 -2.7109165e-05 -3.195069e-05 -9.337309e-06 -1.1477918e-05 -2.0266578e-05
-2.9021203e-05 -3.1451986e-05 -4.7489743e-06 -8.222443e-06 -1.2812986e-05 -1.6813154e-05 -1.9402403e-05 -6.3551906e-06
-4.6407677e-06 -7.309488e-06 -9.652082e-06 -1.2855824e-05 -3.6694148e-06 -1.4637732e-07 -1.8396305e-06 -6.3477587e-06
-6.8428003e-06 1.4324218e-07 -3.3195738e-07 -4.5678135e-07 -7.6502016e-07 -5.077804e-07 1.8205711e-07 8.05482e-08
4.265184e-08 -1.8600807e-07 -1.09943095e-07 4.0672575e-08 4.3620695e-08 7.773873e-08 -5.0008666e-08 -1.04575314e-07
1.17860026e-07 1.2261602e-07 2.8239432e-07 1.07580966e-07 -1.1695193e-08 1.2168377e-07 -4.0819636e-08 9.021713e-08
-1.9171529e-07 5.978163e-08 -1.5685891e-05 -2.1472757e-05 -2.9540286e-05 -3.7252354e-05 -3.762957e-05 -1.2567632e-05
00000000: e3a0 d234 3eb6 7437 a965 0b38 ba65 4238
00000010: aebf 7c38 8891 e336 d973 cc37 ce5e 5238
00000020: 9d8b 8138 2c91 9638 41c3 4437 3567 8937
00000030: 3898 1838 1cf9 5538 0d74 8538 3593 da36
00000040: e20d ef37 aa89 3a38 00e3 7338 56af 7d38
00000050: 5363 0838 4e45 2038 d3e4 4738 8316 6138
00000060: 786a 4138 ae3b 96b6 28a2 c2b5 ff86 3db6
00000070: 8c00 a4b6 c3e9 bfb6 a264 85b6 77fc 2db6
00000080: d70e 0ab6 4100 31b6 f720 0ab6 f702 cab6
00000090: 8aa3 83b6 e0c7 1136 bda0 5836 0d0c 1b36
000000a0: c497 7d36 1693 6636 94c4 7f36 efef 4f36
000000b0: f624 6536 068f 15b4 016b a4b5 497b 0bb4
000000c0: f7c8 12b6 7f48 3436 0ad7 3239 d8bc 0c39
000000d0: 1967 f538 e0e2 e038 e2c8 9438 68a5 3739
000000e0: de1c 1b39 059c f838 e719 b638 737f 8f38
000000f0: 9193 1d39 9ee3 1439 56ab ee38 5fe7 c938
00000100: 0c6b a638 d42b 0e39 a8f6 dc38 d66a c738
00000110: 4316 c038 3624 9e38 cf3f cd38 c3cc c038
00000120: f021 7538 1a4b 4638 4cfa 1c38 9388 43b7
00000130: e844 c8b7 4093 1ab8 337f 45b8 4483 54b8
00000140: 48a1 88b7 835d cbb7 37f4 15b8 b033 4eb8
00000150: 9820 47b8 0419 05b7 7437 66b7 0d19 01b8
00000160: f454 1db8 17b2 20b8 8651 c7b6 87fb b7b7
00000170: 44b2 fab7 c768 16b8 3820 1db8 dbf9 9eb7
00000180: 174e cdb7 28b4 f1b7 d3fc b9b7 a67e cdb7
00000190: cc19 8537 4297 a437 30d7 a537 f5c2 c337
000001a0: 913d d437 2949 9d37 49e0 f137 a5b6 0638
000001b0: 71e6 1938 321d 0a38 9ddf ac37 5069 a537
000001c0: e7b7 ac37 e71f f737 847e ec37 7f9e ab37
000001d0: 7eda be37 ff60 c337 f81c d937 9cee ff37
000001e0: 4a88 9e37 a7e0 cc37 a77c c937 fa5d b937
000001f0: bdec ef37 4fe1 7a38 52fc 8538 42ac 8e38
00000200: f545 9d38 a47c 9338 aa2e b338 5008 8f38
00000210: 3cfd 9838 22c9 9538 dd0f 7138 e7ed b338
00000220: ce00 9b38 b154 8f38 b695 8b38 ed36 3f38
00000230: 4a3d 7638 dfe2 4338 f5ac 2938 24ce fe37
00000240: 04e9 9737 718f d237 d44e 4e36 efe3 ceb5
00000250: 483a fab6 52be c4b7 8df9 cab7 5533 d3b7
00000260: 33a8 bcb7 162e 03b8 61dc f6b7 8952 e5b7
00000270: 5aed bcb7 a39d f2b7 cc13 d1b7 499b f2b7
00000280: 9a8b c9b7 5ced c7b7 1205 dcb7 164c e8b7
00000290: 7c5d 01b8 17aa 00b8 5336 9cb7 e3f2 ebb7
000002a0: ee81 eeb7 82f6 26b8 69aa bab7 dac5 95b7
000002b0: 3354 93b7 8e13 ceb7 d41c 06b8 59b6 ae36
000002c0: 144f 9a36 f390 99b5 9fc2 8833 8023 6636
000002d0: f20e d936 34cb 8936 1a14 b235 4210 3033
000002e0: 35c5 b536 6ba4 1337 5560 ce36 5e0f 8136
000002f0: af17 6a36 db5a bf36 ce8f 5e37 6fa1 da36
00000300: 855b 0937 a48e d936 6111 0937 9002 ff36
00000310: 82cc 2537 0dac bc36 7fb4 a536 9a0c aa36
00000320: 5211 43b7 bf00 6fb7 71cc d1b7 7d68 e3b7
00000330: cb02 06b8 70a7 1cb7 4891 40b7 2502 aab7
00000340: 8f72 f3b7 50eb 03b8 6159 9fb6 20f3 09b7
00000350: 5bf7 56b7 f909 8db7 58c2 a2b7 ac3e d5b6
00000360: e4b7 9bb6 0644 f5b6 60ef 21b7 58af 57b7
00000370: 1140 76b6 e42b 1db4 39e9 f6b5 d5fe d4b6
00000380: 359b e5b6 1cce 1934 e037 b2b4 8d3b f5b4
00000390: c95b 4db5 674e 08b5 7a7b 4334 d7f9 ac33
000003a0: 3230 3733 82b9 47b4 db19 ecb3 f8af 2e33
000003b0: 7659 3b33 52f1 a633 1cc9 56b3 e392 e0b3
000003c0: 3c1a fd33 6fa8 0334 fb9b 9734 4307 e733
000003d0: 01ec 48b2 2ea8 0234 aa51 2fb3 64bd c133
000003e0: 4cda 4db4 4c61 8033 3295 83b7 6520 b4b7
000003f0: 48cd f7b7 693f 1cb8 71d4 1db8 92d9 52b7
