logs/biosr_ccps_rcan_model-SRCNN_250305_lr0.0001_bs1_Ps256_Npatch128_N300/model_174.pth (torch, 695046 bytes, 15 tensors)

conv1.weight f4 [64, 1, 9, 9]
00000000: 8227 a53d 7dba e8bc f79a aa3d 79af b7bc
00000010: dc6f 3d3d 7c6b 20bd 433a 093e ac3c 48bc
00000020: d8c6 4f3e 18c3 e2bc 4197 bdbd af86 463d
00000030: ac0c 4bbd e11a 013d e27c 303d 3173 f73c
00000040: 9ffb 9d3d 0ad6 d83d 57d3 ae3d e0b8 1c3d
00000050: 9d41 c5bd cd94 98bc e587 52bd aee0 c0bd
00000060: fa74 8cbd e33f 94bd a712 4b3d 009f d2bd
00000070: 0326 0dbd 1fb9 be3c ebff 9dbd 17b4 cdbd
00000080: 2813 e33a 9f97 fdbc 3640 2dbd 69a4 963d
00000090: ee72 95bd fe7e 80bd 8264 8abb 1238 313d
000000a0: 9a20 03bd 6744 933d 6796 523d 9e90 843d
000000b0: fdb9 be3c 26d5 15bd 359d c8bd 7ae2 f2ba
000000c0: 4e0b c2bd 3ef0 d13c 6686 d53c bd35 b33c
000000d0: f201 5a3d b226 fe3d 8d02 5fbd f0bc e7bc
000000e0: 8423 16bc 5678 043d 380f 9f3d 4eb8 763d
000000f0: ebb9 3dbd c23d d63d f48f d13b 8668 1a3d
00000100: 0797 123d d0a0 d83a 4140 52bd 1779 55bd
00000110: 4fd8 213c 31bc 87bd 375b b7bc 4812 8abd
00000120: fec8 2f3d c410 c5bc fd4a af3c 6166 633d
00000130: 509c 47bd 7233 05bc 1b01 afbd 0c7d bebb
00000140: 8d60 8ebd c29e 42bd 0bc9 87bb 5a85 eebc
00000150: 5060 e83b 25c0 933d b5e3 02bd 1702 fcbd
00000160: f7e4 663d 34c0 89bc 9f2f a03c aede 8ebc
00000170: cb42 6b3d 9081 cfbd 8d31 8e3d 3c99 973d
00000180: 3e89 933d 2ad0 0d3d 61f2 b83d 9dac 0a3d
00000190: 2ccf 983c e947 b4bc 01ae ad3d 128a 973d
000001a0: f6d2 49bd 70df 493c 70f5 c0bd 605d c8bc
000001b0: c517 e13c 224b 5dbc c0f0 f4bd bfaf aa3d
000001c0: 88d5 f93c 58b0 babd ad42 d6bd 4970 41bd
000001d0: 5182 bfbd 3d02 80bd da3f 74bd b17e cfbd
000001e0: 3cf2 443d 092e f23d 1595 1f3b d237 2bbd
000001f0: 16d0 af3d 563f d6bd b446 0cbd 59d4 c0bd
00000200: 612b 083d d382 b1bd 2b30 bebd 2e6f 383d
00000210: a03b 89bd 3875 bfbd 843f 5b3b 2f36 50bd
00000220: ec79 8e3d 370e fd3b cd87 e83b 59bd 28bd
00000230: 0ebb 733d 807f 913d 1301 ac3d 1470 563c
00000240: 51ab efbd 4d7e 1a3c 5b1e 94bd de39 c0bd
00000250: ded2 933d 2825 293d b9f8 093d 6fc0 e03d
00000260: 2cf5 fc3c 3084 91bc 7e15 f1bc 411f 433d
00000270: c1a3 873c 3964 84bd eb21 c8bd 2e38 8a3d
00000280: 908f 963d c03e fa3d 441f 843d a722 fd3d
00000290: 0dc2 4ebd b532 7c3d 9d8a 163d 841b e43c
000002a0: dc79 9cbd 74f7 86bd d2a8 3e3d ef55 e33d
000002b0: 4960 943d fcef fcbc 9e34 f33d 1f18 693d
000002c0: 6e69 923c 1fb8 a93c 0f56 b43d c7e7 973d
000002d0: 0ad3 aa3d 5dcb 54bd 6bed be3d 1214 ca3d
000002e0: b57f d6b9 4787 753d d559 93bd d885 ddbd
000002f0: 32b6 acbd 59bf f43d 0780 dc3d bb6a b13c
00000300: 6d9a c53d 4436 ab3d 1a30 2cbd 9868 b83c
00000310: 068d 7dbd 18ba 02be 08d1 df3d df39 24bd
00000320: f8ce febc d7fb aa3c 26e3 8b3d a17f a23d
00000330: e8a5 f8bc 147e 973b 44ff aebb b458 17bd
00000340: 1e3b 50bc deee af3c 60bf a0bd 4ab3 4e3d
00000350: 7fb2 debd 4d9e c93c b0b1 e3bd 41bb 0bbe
00000360: ed17 f03c ee77 c43c f281 2ebd 74e5 823d
00000370: d777 b63d 0598 243c c996 dcbd 5b2c ecbd
00000380: ca3b 24be ef3c 173c 47a1 d53d ea61 513c
00000390: e552 c8bd 58d6 8e3d bf4d e73c e539 a4bd
000003a0: 0f47 1bbe 04c6 9f3c 0eec e63d 9077 a73c
000003b0: a4f0 13bd a36d d6bc b7e0 37bd 4b8f ecbd
000003c0: 48b4 d03b 0e75 c2bd 65c2 04be 27ba d93d
000003d0: dea6 afbd 2c07 c83d 31cd f23d 5d97 983d
000003e0: 8c64 0cbd 956a 3abd 3140 cb3c 480f 9bbd
000003f0: 8691 4b3d 2702 9dbb 242b 0b3c ca6e ea3d
0.08064176 -0.028409237 0.083303384 -0.02242254 0.046249256 -0.039165005 0.13401131 -0.012221497
0.20290697 -0.027680919 -0.09257365 0.048468288 -0.04957263 0.031519774 0.043087848 0.030206295
0.077140085 0.105877 0.085364036 0.038262248 -0.09631655 -0.018625641 -0.05139913 -0.09417854
-0.06858249 -0.07238748 0.049578335 -0.10284233 -0.03446008 0.023281632 -0.07714828 -0.10044115
0.0017324435 -0.030956088 -0.042297564 0.073555775 -0.07297312 -0.06274222 -0.0042234072 0.043266363
-0.032013513 0.07190781 0.051412966 0.06472896 0.023282045 -0.036580227 -0.0979561 -0.001853063
-0.094748124 0.025627252 0.026065063 0.02187621 0.05322451 0.12409724 -0.054445792 -0.028288335
-0.009163741 0.032341324 0.077665746 0.06023436 -0.046319883 0.10460998 0.0063953344 0.037697338
0.035788562 0.0016527418 -0.05133081 -0.052117433 0.009878232 -0.066276915 -0.022382362 -0.06741768
0.04291629 -0.024055846 0.021398062 0.055517558 -0.048733056 -0.008129941 -0.08545133 -0.0058132466
-0.06952009 -0.047514684 -0.0041438392 -0.029116321 0.0070915595 0.07214383 -0.03195544 -0.12305086
0.0563707 -0.016815282 0.019553958 -0.017440166 0.057436746 -0.10132134 0.06943045 0.07402274
0.07203911 0.03462235 0.09030605 0.033856023 0.018653475 -0.022006946 0.08480454 0.07399382
-0.049273454 0.012321338 -0.094218135 -0.024458587 0.027477155 -0.013506683 -0.11959982 0.08334302
0.030497327 -0.09115666 -0.10461936 -0.047226224 -0.09351028 -0.06250427 -0.059631206 -0.10131586
0.048082575 0.11825187 0.0024350334 -0.04180128 0.08584611 -0.10461299 -0.034247115 -0.09415502
0.033244494 -0.08667531 -0.09286531 0.045027904 -0.06700826 -0.093485296 0.0033454606 -0.050832924
0.069568485 0.007722642 0.007096267 -0.0411962 0.05950456 0.07104397 0.083986424 0.013088245
-0.11702598 0.0094295265 -0.07232352 -0.09386037 0.07217954 0.0412952 0.033684466 0.10974204
0.030878626 -0.017763227 -0.029429194 0.047637228 0.016557576 -0.064644285 -0.09772094 0.06748997
0.07351601 0.12219 0.06451276 0.12360125 -0.05047803 0.061571795 0.036753286 0.027845152
-0.0764043 -0.06590167 0.04654772 0.11100375 0.072449274 -0.030876152 0.1187527 0.05690777
0.017872538 0.020717679 0.08805477 0.07417255 0.08341034 -0.051951755 0.09322628 0.09867109
-0.0004091241 0.059943464 -0.071948685 -0.10816544 -0.084331885 0.11950559 0.10766607 0.021657338
0.09648595 0.0835996 -0.04203806 0.022510812 -0.06190207 -0.12766302 0.109285414 -0.040094253
-0.03110455 0.02087204 0.068304345 0.079344995 -0.030352548 0.004623184 -0.0053404886 -0.03694983
-0.012709407 0.021476205 -0.07849002 0.050463952 -0.10873889 0.024611617 -0.111178756 -0.1364565
0.029308284 0.023982968 -0.042604394 0.06391421 0.089095764 0.01004601 -0.107709475 -0.11531898
-0.16038433 0.009230836 0.10431152 0.012779692 -0.09781436 0.069744766 0.028235314 -0.08018855
-0.15163825 0.0195036 0.112754926 0.020442754 -0.036118165 -0.026175326 -0.04489204 -0.115507685
0.0063691474 -0.09494983 -0.1296478 0.10631209 -0.08576749 0.09766993 0.118555434 0.07450745
-0.034275576 -0.0455118 0.024810882 -0.07571274 0.04969933 -0.0047915163 0.008494172 0.114469126

conv1.bias f4 [64]
00000000: 118f d73c 4290 533d 6f02 903c 5131 a83b
00000010: 5d7c d1bd d876 9c3d 47ad bb3d 679f 97bd
00000020: 31ff 1abd bc7d f03c 2018 16bd 434b 8dbc
00000030: 0a34 d2bd 07d7 89bc 8ead a3bd 90cd 85bd
00000040: 06f8 bb3d 7ba9 c5bc b121 47bb 0acf a8bc
00000050: 2b72 13bd b7fb d2bd c95b efbd ae9b 9abc
00000060: af3d 99bc ad81 943c d76f d6bc f736 a3bd
00000070: 2c89 99bd 61df 7cbd 2819 02bd 6317 a3bc
00000080: 36f0 a3bd 9937 aabd cf51 8a3d 1fc4 04bb
00000090: c249 94bd 22fa 483d 8c07 d0bc a9c5 203e
000000a0: 23ac 433d bbb3 793d 44f8 a9bc 57f1 a8bc
000000b0: 4653 0a3d 77b0 f8bd 435b 45bc bd78 0fbd
000000c0: 460a b63c 710c 01bd 3a2e db3d 0176 80bd
000000d0: 39dc c13b fb97 4cbb deb7 8b3d cc41 72bd
000000e0: 5bc4 153d 6bba a5bd 70b6 1e3c a9ee 393c
000000f0: a739 80bc cc34 293a f96c 5f3d 8091 abbd
0.026313337 0.051651247 0.017579285 0.005132832 -0.102287985 0.07639855 0.091639094 -0.074034505
-0.037841026 0.02935683 -0.0366441 -0.017247802 -0.10263832 -0.016826166 -0.07992087 -0.065333486
0.09178166 -0.024128666 -0.0030385072 -0.020606536 -0.03599755 -0.10301917 -0.116874285 -0.018873062
-0.01870617 0.01812824 -0.026176376 -0.07969468 -0.074968666 -0.06173647 -0.031762272 -0.019908613
-0.08004801 -0.08311386 0.06753885 -0.00202585 -0.07240631 0.04906667 -0.025394224 0.15700401
0.047771584 0.06096242 -0.020748265 -0.020622892 0.033770822 -0.12143033 -0.012045684 -0.035027254
0.022221696 -0.031506006 0.107021764 -0.062725075 0.005916145 -0.0031218517 0.06822179 -0.05914478
0.036564212 -0.08092197 0.009687051 0.011348405 -0.01565249 0.0006454706 0.054547284 -0.08377361

conv2.weight f4 [32, 64, 5, 5]
00000000: 9bcf bcbc 8a83 1cbd 2c0e 753c 6f68 2bbc
00000010: 395b fb3c 08c6 a83b 9e57 34bc 1402 d33c
00000020: de4c 01bc 0a1e 2a3c 9d31 69bb 9316 cebb
00000030: f194 d4bb f044 9fbc d42e fe3a 8a5c 34bd
00000040: 1735 acbc 4593 0dbd 158e 0abd bc01 9cb9
00000050: 4bcc 4b3a 752a 893c 5415 a23c 8006 193d
00000060: f45c 4e3d b9c2 f1bd f1e0 97bc 15dd 5c3d
00000070: 4ea6 833a a266 cfbc c5e5 63ba 4cd8 1abd
00000080: 631d 6e3d fc02 203d 6785 ef3a fefc 8abd
00000090: 5a2b aebd 3ae3 91bb f1fd a7bc 8aac 08bc
000000a0: 295b babd a90c a8bd 4e9e b3bc 7024 49bc
000000b0: f98b 3bbc 3307 55bd 6237 85bc e2f8 ce3b
000000c0: cb3e 323b be5f cebc 38ba 893c 1049 0b3c
000000d0: b2e1 ba3c 7c3a f03c e7ca 753c e536 eebc
000000e0: 70c5 5abc 51cc 81bc ee49 5cbc 7a82 333c
000000f0: a2a7 febc 493f 7fba c62d 08bc d96d 273c
00000100: 8de4 413c 6604 36bd b526 98bb 46ec 0abd
00000110: 28a9 083d 122e 803d 1c6a 87bb e94f 3a3c
00000120: 875a a03c 1276 533d f0a7 263e 4aed af3c
00000130: 9456 e0bc 0903 b0bb 15aa c4bb e8e0 f53c
00000140: 5d88 233c 9ae1 983b a674 18bd 4623 17bc
00000150: 9a82 813c 0f74 42bc d5aa ec3b e282 533b
00000160: 3792 c53c 68d3 813c d665 e7bb 0f17 12bd
00000170: b93c 5cbc 822a eabb a4fd d9bc 3960 05bd
00000180: d3f8 3ebd bae0 4fbd 8534 f6bd 3efa 2bbe
00000190: f7b3 723b 326f 3a3c 4188 023c 2a5c 94bc
000001a0: 4a46 3dbd 18c9 963c 5601 b03b ab7b 9dbb
000001b0: 4599 f53b ebb5 47bd 12ef 083d 969d c43c
000001c0: bc5a 583b 9abf f0ba 5264 05bd 8cdb e2ba
000001d0: d214 a63c 5061 42bd 5ee0 05bd 1a39 cbbc
000001e0: 15a3 803d 5e5d 3b3c 8acb 1c3d 3994 3a3d
000001f0: e8a5 753d 51e8 ad3b 68cb 503c 6959 ab3a
00000200: 6823 983c 2f77 97bc 3ffd 113b 5729 073c
00000210: b8b6 80bb 5baa f93b 74d2 00bd 3132 eabc
00000220: c43e d6bc 87f5 e2bc 74bf 0abd 9a2d f8bc
00000230: 24d8 353b e71c 0bbc 6a36 173b 24f3 7d3c
00000240: b3b2 86ba d6cd 283c 5675 f73c f22e 943c
00000250: bbc0 e53c ebba 713c 3112 663b e7a9 093d
00000260: ae86 5d3d fcc9 cdbc c4f8 77bd 5067 96bb
00000270: b90c a1bb 8ee7 c7bc 2348 8cbd 5374 2bbd
00000280: 3ef2 113c ca92 0ebc 1b53 21bc 74a1 72bd
00000290: ce10 24bb 5331 593d feb2 9b3c d682 57bd
000002a0: 3b95 b93b 20ac 013c be0a 303d 77b6 273d
000002b0: 3107 2fbd 8cf1 8d3c 95ee 973d 4cdd aebc
000002c0: 1baa f8bc b4d7 4e3c 0d8a 9abc 9bfd 00bd
000002d0: 3f03 05bd ea6d 773c e953 b93c 0b69 b9bc
000002e0: c910 c43c b0c9 f03a 96b9 153d 5c10 7c3c
000002f0: 4f3d dfbb 94e7 39bc 4f8a b63c 6766 c1ba
00000300: 181c 4cbc 6102 6d3c c6cb 163d 2669 0b3d
00000310: fa45 3f3c e4dd 6e3c af5d 6a3d f0e7 de3d
00000320: f72b 1f3d 388c 5fbd 096d 08bd b44c a0bc
00000330: ff5a 41bd 75e9 40bc 8d00 fdbc 3a05 27bd
00000340: 0094 7cbb 9a61 9c3c b2dd c8bd 55d6 fabc
00000350: 27ab 99bd a81f 52bd 74ec cc3d 1a43 1abe
00000360: a5e3 ecbd 77da a4bd 3055 49bd a513 b33d
00000370: 05ff 87bd 49b6 97bd a3d5 59bd 085f 5a3d
00000380: ce5d 193e 7bbb 983c 3fad ffbb 1051 dcbb
00000390: cf1c 25bd f61f fabc 1b9f 2c3d e7f8 163b
000003a0: 0bcb abbc 55d6 81bd fd0b 363d 7bdf aabd
000003b0: 4a32 53bd cad8 93bd 288d 58bd 66a3 a53d
000003c0: 763a efbd ad9e afbd 3a70 5dbc e71c 973d
000003d0: 5980 993d 5560 dabd 2fe2 0dbd 9803 abbc
000003e0: 574e 913e ca60 f83c db93 863d 6f36 c2bc
000003f0: a4e8 57bd d551 98bd 1166 f8bd 6774 673d
-0.023048213 -0.038211383 0.014956992 -0.010461911 0.030683147 0.0051505603 -0.011007218 0.025757827
-0.007891862 0.010383138 -0.003558255 -0.006289312 -0.0064874818 -0.019442052 0.0019392618 -0.044033565
-0.021021409 -0.034564275 -0.033826906 -0.0002975593 0.00077742775 0.016743878 0.01978556 0.037359715
0.050381616 -0.118047185 -0.018539878 0.053921778 0.001004407 -0.025317494 -0.0008693601 -0.037803933
0.058133494 0.039065346 0.001827401 -0.06786536 -0.085043624 -0.0044521363 -0.02050683 -0.008341918
-0.09099419 -0.0820554 -0.021926071 -0.012276754 -0.011446946 -0.05200882 -0.01626176 0.0063162902
0.0027198072 -0.025192138 0.016812429 0.008501306 0.022812698 0.029324763 0.015001989 -0.02907891
-0.013352737 -0.015844496 -0.013445361 0.010956401 -0.031085793 -0.0009736908 -0.0083116945 0.010219061
0.011834276 -0.04443779 -0.004643286 -0.033916734 0.033364445 0.06258787 -0.0041325223 0.011371591
0.019574417 0.051626272 0.16275 0.021475453 -0.027385034 -0.0053714556 -0.0060017207 0.03001447
0.009981242 0.0046655657 -0.03722062 -0.009224718 0.015809346 -0.011868491 0.007222513 0.0032274057
0.024117572 0.015847877 -0.0070617003 -0.03566652 -0.013442212 -0.0071461806 -0.026610203 -0.03256247
-0.046624016 -0.050751425 -0.12021736 -0.16794679 0.0037033537 0.01137905 0.007967056 -0.018110353
-0.04620961 0.018406436 0.005371253 -0.004806002 0.007495078 -0.048757475 0.03343112 0.024000924
0.0033013066 -0.0018367649 -0.032566376 -0.0017307862 0.0202736 -0.047456086 -0.032684676 -0.024807502
0.062811054 0.011435835 0.038280047 0.045551512 0.059972674 0.0053072353 0.012743808 0.0013072911
0.01857157 -0.018489448 0.002227619 0.008249602 -0.003928032 0.007619185 -0.031450704 -0.028588386
-0.026152976 -0.027704967 -0.03387399 -0.030295182 0.0027747238 -0.008490778 0.0023073205 0.015499864
-0.0010276645 0.010302981 0.030207317 0.018088792 0.028046003 0.014754037 0.0035106058 0.033609297
0.05408352 -0.025120728 -0.060539976 -0.0045899525 -0.0049148467 -0.024402406 -0.068496965 -0.041858982
0.008907853 -0.008701989 -0.009846474 -0.059236005 -0.002503443 0.053025555 0.019006249 -0.05261501
0.0056635416 0.007914573 0.042978995 0.040945496 -0.042731468 0.017327093 0.07418553 -0.021345757
-0.03035455 0.01262467 -0.018864656 -0.031491857 -0.0324738 0.015101889 0.02262302 -0.022633096
0.023933785 0.0018370654 0.03655394 0.01538476 -0.0068127285 -0.011346716 0.022282748 -0.001475525
-0.01245787 0.014465899 0.036815427 0.034035824 0.011674399 0.01457927 0.05721825 0.10884082
0.038860288 -0.054577082 -0.03330711 -0.019567825 -0.04720592 -0.0117744105 -0.030884052 -0.04077647
-0.0038540363 0.019089509 -0.0980791 -0.03061978 -0.07503348 -0.05129972 0.10006037 -0.1506466
-0.11566857 -0.08049481 -0.049153507 0.08743981 -0.06640438 -0.07407815 -0.053182255 0.053313285
0.1497719 0.018644085 -0.007802635 -0.0067235306 -0.040310677 -0.030532818 0.042143922 0.002303654
-0.020970842 -0.06339709 0.044445027 -0.08343407 -0.05156163 -0.072190836 -0.052868992 0.080878064
-0.116810724 -0.08575187 -0.013515526 0.073785596 0.074951835 -0.10662905 -0.034639534 -0.020875737
0.2838008 0.03031959 0.0657117 -0.023707597 -0.052712098 -0.07437483 -0.121288426 0.056507494

conv2.bias f4 [32]
00000000: 4389 b53b 3ad5 09bd eee0 473c eeb4 b8bc
00000010: 13e6 763c ec73 8abc 13df b8bc 5f0c 973c
00000020: f5eb 4cbc fac7 9bbc 6f70 ccbc 1731 683c
00000030: 8330 41bc f8fd 7bbc e8a5 843c 6204 eebc
00000040: 4dc8 d4bc c899 68bc b6f5 e33a ac48 6dbd
00000050: 4dd9 4d3d 199f 10bc e346 30bc a30e 883b
00000060: 8ef3 92bc a0a5 26bc 3a23 9cbc 55ab a43c
00000070: 5ebc debc d16b 7c3b 35f8 a63c 794f dabc
0.0055400445 -0.033650614 0.0121996235 -0.022547211 0.015069502 -0.016900979 -0.022567308 0.018438516
-0.012507428 -0.019016255 -0.024955956 0.01417186 -0.011791351 -0.015380375 0.016192392 -0.029054824
-0.025974417 -0.014196821 0.0017391953 -0.057930633 0.050256062 -0.008826994 -0.010759088 0.0041521355
-0.017938402 -0.010171324 -0.019059766 0.020101229 -0.02718943 0.0038516412 0.020382026 -0.026649224

conv3.weight f4 [1, 32, 5, 5]
00000000: 6489 4cbd 4195 92bc 67d9 c2bc ce21 04bd
00000010: e1bf 453b 624c a63b 29f9 ecbc 469a 59bd
00000020: b93b 47bc 4faf 823c d777 9e3c a66e 39bd
00000030: 237d 2abd 1d67 deba f72b 143c 704e b6bb
00000040: 447d c5bc 86bc edbc 9c91 70bc 1895 8e3c
00000050: a2d6 903d f79c 673d 86d6 493d c88b 253d
00000060: 5b9f f83d 5c43 27bd 0ca2 dfbc 4f1c 36bd
00000070: 4fc5 18bc bb3d 44bb 94fd 27bd 6abb 5abd
00000080: 74f5 c3bc eec5 65bc 1e69 03bd 1309 06bd
00000090: a81f 68bc 86d9 26bd e096 d8bc 6884 63bc
000000a0: dbd5 24bd f6e5 3d3c 78f6 1ebd 2086 4fbc
000000b0: 5897 b8bc 3124 dabb c2d5 6bbd 8bb2 8fbc
000000c0: 2188 e4bc de53 b7ba c674 153d 22ce 73bc
000000d0: 8eed d33b 559d 073d 5ed7 0c3d 35f6 0cbc
000000e0: 5a78 8d3c 7c85 a5bc 9691 64bc 2536 d9bc
000000f0: 2b0d 553c 3dbb ecbc dbe3 84bc e19e 6dbc
00000100: b468 9a3b 49e4 ae3b 252b debb c432 dfbc
00000110: d7c8 a1bb cb03 8e3c 1dcf 4e3c f3a6 8cbc
00000120: 964c b5bb d63f 03bd 2cab 9b3c 240e 01bd
00000130: c95a b2bc 0544 5ebd c975 4bbd caa9 d1bc
00000140: 11f8 2ebc ee42 c13c e4fd ac3c 4770 4fbc
00000150: 409b ea3c 7487 9fbb b342 96bc 1a31 853c
00000160: e71a aabb 0362 063d 588b 333c 0c2f 4a3c
00000170: dee8 b6bc a52f 02bc 24f0 1f3d 2698 473d
00000180: 2b54 d53c cb17 b83b c94c 1a3d f840 a83d
00000190: 8413 9dbd 4df2 1fbd d455 bdbc a3c1 4bbc
000001a0: 232d 8bbd bdec 36bb 6985 97bb a3af 1e3d
000001b0: aeb6 a3bc d5fc 95bc 7846 dcbc f315 74bb
000001c0: 2941 903c 6048 c2ba 83f4 553c ac66 bcbc
000001d0: f95e a33c 0795 0fbc c555 53bc 0917 073c
000001e0: b40b 61bc bdbf 113d c9e1 f63c 6784 9f3b
000001f0: a6ea 423c 4bde e1bd 72d1 a7bd dd7f 34bd
00000200: ddd9 6abd 3b1b 85bd 1621 0cbd c248 08bd
00000210: ee95 08bd 0812 06bd 8e29 04bd 4f48 a7bd
00000220: 6e95 a7bc 4bc6 6dbd 45f5 283b 5b58 8cbd
00000230: 8139 64bd b3db efbb fcd5 0bbd 6b3a 10bd
00000240: 9f88 76bc bc2e a4bd c1c0 5bbd e209 3bbd
00000250: 7625 5bbc 7fa6 17bd 7aed 2a3d a9c7 eebb
00000260: 33b4 c8bb 60ee 173d 329e f43c 065b 1cbc
00000270: 8d38 2ebb 3632 41bc 1be5 e83a 3880 073d
00000280: 1496 eabc 508c e93b fef7 45bb 9d06 f5bb
00000290: 39e5 273c abc2 e13c f750 93bc bd7e 08bc
000002a0: 2023 8b3b 40a6 2d3c 9a9d 823c 11fa ef3c
000002b0: 9792 703c 1e22 c93c 63bc ea3b 1285 993d
000002c0: b9b6 8e3d 5acc af3c e1d9 fa3b 4b75 273d
000002d0: 7791 a53d 780a a73c a417 ba3c 7220 8c3c
000002e0: 2312 003d b533 803d bd74 1dbc 7ec9 153d
000002f0: 9615 30bc 3589 61bb 620d 023d b964 013d
00000300: 2533 073d 4155 683b 31c7 493c ae55 ca3c
00000310: c966 b83c 4e58 9b3c 862c 9c3b ef77 2d3d
00000320: c6b5 373d f263 2b3d 9e5e 443d 9513 133d
00000330: ea43 973d b2a0 9fba 23d6 203d 467c 243b
00000340: 0a38 c83c 5ca6 693d 6ee8 933c 41b9 c63c
00000350: ce9f 2d3d 278c b23b 5663 a13c a170 b13c
00000360: 15a0 3b3c 16d0 dc3c 3811 a63c aec2 fd3b
00000370: c7c8 ee3c d3c0 573c 6da1 f83c 2ed3 76bc
00000380: fe84 c03c 346f 2c3d 5797 e63c bfe6 c93c
00000390: 2227 4c3d 7247 1b3d 2720 2f3d efc1 d03c
000003a0: d737 223c fec7 bd3c d801 1a3d 7b52 06ba
000003b0: 464a 79b9 5133 8f3c 68c4 113d 27dc c93c
000003c0: 0a95 0c3d 231f 2f3d 6625 d23c fcb9 bb3b
000003d0: 1139 343d 30d2 503d fb4b 613d 5525 253d
000003e0: 1bed 1c3d 4f2c 953d 8734 e23c 00c0 aebb
000003f0: 7704 743c d488 6cbb 9ac9 2a3d 5ddd 093b
-0.049935713 -0.017893435 -0.023785306 -0.0322588 0.0030174183 0.0050750235 -0.028927403 -0.053125642
-0.012160235 0.015952734 0.019344253 -0.04527154 -0.041623246 -0.0016967986 0.009043685 -0.0055635497
-0.024107583 -0.029020559 -0.0146831535 0.017405078 0.07072188 0.056546178 0.04927685 0.04041651
0.1213977 -0.040835723 -0.02729895 -0.04446059 -0.009324386 -0.002994402 -0.041013315 -0.05340139
-0.023920752 -0.014024241 -0.03208267 -0.032723498 -0.014167704 -0.04073479 -0.02643913 -0.013886549
-0.04024301 0.0115904715 -0.03880927 -0.012666255 -0.022533104 -0.0066571464 -0.057576902 -0.01754119
-0.027896943 -0.0013986786 0.036488317 -0.014880689 0.0064675277 0.033109028 0.034385078 -0.008603622
0.017269302 -0.020205252 -0.013950726 -0.026515076 0.013003628 -0.028897876 -0.016221931 -0.014503212
0.0047121886 0.0053372723 -0.0067800456 -0.027245887 -0.004937272 0.017335793 0.012622622 -0.017169451
-0.0055328114 -0.0320433 0.01900252 -0.031507626 -0.021771805 -0.054264087 -0.049672876 -0.025593657
-0.010679261 0.023591485 0.021117158 -0.012661046 0.028638482 -0.004868442 -0.018342352 0.016258765
-0.0051911953 0.032808315 0.010958515 0.012340318 -0.022327837 -0.00794593 0.039047375 0.048729084
0.026041111 0.0056180707 0.037670884 0.08215517 -0.07669738 -0.039049435 -0.023112215 -0.012436303
-0.067957185 -0.0027912103 -0.004624058 0.03874172 -0.01998457 -0.018309036 -0.02688907 -0.0037244528
0.017609196 -0.0014822595 0.013058784 -0.022998177 0.019942747 -0.008763558 -0.012898867 0.008245238
-0.0137357 0.035583246 0.03013696 0.0048680785 0.011896765 -0.11028727 -0.081942454 -0.044067252
-0.057336677 -0.064993344 -0.03421124 -0.033272512 -0.03334611 -0.03273204 -0.032266192 -0.08168089
-0.020456996 -0.058050435 0.0025780958 -0.0685279 -0.055718902 -0.0073198914 -0.03413962 -0.03521196
-0.015047221 -0.080167264 -0.05365062 -0.04566372 -0.013375631 -0.037024017 0.04173038 -0.007286985
-0.006124997 0.037092566 0.02986059 -0.009543186 -0.0026584 -0.011791756 0.0017768474 0.033081263
-0.028636016 0.0071273223 -0.003020763 -0.007477595 0.010247522 0.027558645 -0.017982943 -0.008330998
0.0042461306 0.010598719 0.01594429 0.029294046 0.014683387 0.024552401 0.0071635707 0.07496084
0.06968445 0.021459747 0.0076553677 0.040883344 0.08084386 0.020390734 0.02271635 0.017105315
0.031267297 0.06259862 -0.009610352 0.03656911 -0.010747334 -0.0034414057 0.031751044 0.031590197
0.03300776 0.0035451206 0.012315557 0.024699058 0.02250995 0.018963005 0.00476605 0.042350706
0.044851087 0.041843362 0.047941796 0.035907347 0.073860005 -0.0012178628 0.039266717 0.0025098487
0.024440784 0.05704342 0.018055167 0.024258258 0.04238873 0.0054488364 0.019700687 0.021660151
0.011451741 0.026954692 0.020271882 0.007744155 0.029148472 0.0131685315 0.030350411 -0.015064998
0.023500916 0.04209824 0.028148336 0.024646161 0.049842007 0.037909932 0.042755272 0.0254831
0.009901009 0.023166653 0.037599415 -0.0005123985 -0.0002377416 0.017480524 0.0355877 0.02464111
0.034321822 0.042754304 0.025652599 0.005728958 0.043999735 0.0509817 0.0550041 0.040318806
0.03831206 0.07283842 0.027612938 -0.005332947 0.014893643 -0.0036092298 0.04169617 0.0021036484

exp_avg f4 [64, 1, 9, 9]
00000000: a978 033b 766f 013b 3ff6 fb3a e019 f73a
00000010: acfb f83a d5a8 fd3a 2ced fe3a 6cca 053b
00000020: a6e7 063b 71cd 053b e4d0 053b 62c3 023b
00000030: c1ff 033b 76ea 033b adfa 053b a882 063b
00000040: 3d60 063b 7d52 083b 88b3 093b 17f5 083b
00000050: bc69 0c3b bd60 103b b0b9 113b d01a 0f3b
00000060: 3858 0f3b ad74 0c3b f793 0b3b 9ac4 133b
00000070: d8df 143b feab 153b 492d 183b 5692 1b3b
00000080: ede3 183b a98d 143b 33a3 0e3b 7565 0b3b
00000090: 08eb 1c3b 7235 1e3b 1c36 233b d02d 213b
000000a0: 21f4 1f3b 68b9 1a3b c61e 133b eaae 0b3b
000000b0: c308 0a3b 1c7f 233b f116 263b 073d 283b
000000c0: f731 243b 7dc7 233b d2a3 1b3b 2060 143b
000000d0: 9ea6 0c3b 3418 0a3b 1117 273b 4ad3 2a3b
000000e0: 4ea9 283b 3b72 233b b61a 233b 2e0a 193b
000000f0: e46a 123b 6e51 0e3b 293d 0d3b 3011 273b
00000100: 5f19 273b ed11 243b a2a2 213b b455 1b3b
00000110: 4b35 163b d4e9 113b 6bc2 0e3b 3e32 0d3b
00000120: 7a9f 243b 8cd4 223b 602a 203b 820f 193b
00000130: 8ccb 183b 5dd2 123b d15e 113b 8d78 113b
00000140: 5171 0e3b d3b4 083a 9cf3 fa39 ab5a 073a
00000150: 22af 033a 5b10 0b3a a52c 053a cab9 ff39
00000160: 4f8d 123a ee09 0d3a e125 063a 4960 083a
00000170: e897 0d3a a308 083a 6187 123a ce3a 083a
00000180: dcb1 143a 62f5 113a a3ce 143a 9757 053a
00000190: 398f 0f3a 4bd7 123a b779 253a ef3c 233a
000001a0: 71a1 0a3a 541f 113a b004 063a b272 0f3a
000001b0: a672 0f3a b155 153a 72ea 173a 8bac 2b3a
000001c0: c573 2e3a 2a4f 183a 52e1 0f3a 62f8 0f3a
000001d0: 2b88 123a c1d2 183a b14e 143a 8fa0 163a
000001e0: fec3 2e3a 6e08 3c3a 3077 243a c072 1b3a
000001f0: b0ec 1e3a 178d 113a 8027 183a 6e5e 173a
00000200: b7e5 263a cf77 273a d17d 203a aa0a 2c3a
00000210: 6a1f 1d3a 5c8d 113a ad32 183a d2ac 113a
00000220: 2c01 263a bc77 1d3a 07bb 223a e789 263a
00000230: de2d 243a 4549 1c3a 1ffb 203a 02cd 093a
00000240: c551 0c3a 4715 183a aba4 153a 072f 143a
00000250: af05 1d3a 2705 163a 1bc8 0e3a 9cd4 123a
00000260: 1676 073a fd45 0a3a 09cf 113a dc26 123a
00000270: cd19 173a 48c3 0b3a 5eae 083a d12b 0b3a
00000280: 4d7a 013a 34ab fa39 a6f5 4d3b 58fb 443b
00000290: a27e 3d3b 4d87 4c3b 01c2 643b 78db 813b
000002a0: ed42 913b e3da a03b 6bef ac3b 9ff5 3f3b
000002b0: 948f 313b 9135 2a3b d6f0 403b 8c4a 5e3b
000002c0: d146 843b 6172 9b3b ceee ae3b 1824 b83b
000002d0: 7022 343b 9739 1f3b dbf7 273b 0e3c 3d3b
000002e0: 50f5 5f3b 66a3 8d3b 7580 a73b a66e b83b
000002f0: 8b8c c13b 2710 323b 8de2 293b 66d1 2a3b
00000300: 89d6 473b 73e6 7b3b 479a 993b 6798 b73b
00000310: 25f7 c63b 071a cc3b dad8 3a3b 626b 303b
00000320: 5b84 403b 8bf8 653b eb4c 8f3b e38f ad3b
00000330: 41fe c43b dcfa d53b 0100 d73b b0e2 493b
00000340: 99b4 533b 8020 6a3b af5e 873b 29c3 a33b
00000350: 91f9 ba3b 0ac2 d13b ddf6 d83b a0a9 d63b
00000360: a8d5 633b d02f 783b 7b9b 863b d3c1 9d3b
00000370: 7843 b53b 30a7 c93b 2460 d23b e0b9 da3b
00000380: 2f9b d53b 9a9c 7e3b 7219 8d3b 1fdb 973b
00000390: 6b62 a63b a62b be3b 4628 cb3b cc55 d03b
000003a0: 1e39 d23b 1c3e d03b 5db8 8e3b d8f7 983b
000003b0: 0a4e a23b a1c0 af3b 2f85 bb3b 3d69 c33b
000003c0: 533b cb3b 6c4a ca3b eaae c23b 20ae bbbb
000003d0: 5bd1 b2bb e734 b4bb dd51 b1bb 7b23 aabb
000003e0: deb6 a3bb 15ef a7bb dcce acbb dd2f acbb
000003f0: 81d4 b6bb 44ad b2bb 6956 b0bb 0a94 abbb
0.0020060933 0.0019750274 0.0019223167 0.0018852316 0.0018995903 0.0019352684 0.0019449345 0.0020414842
0.002058485 0.0020416642 0.0020418698 0.0019952883 0.0020141455 0.0020128763 0.0020443604 0.0020524655
0.002050414 0.002080112 0.002101155 0.0020898038 0.0021425327 0.0022030317 0.0022235923 0.002183605
0.002187265 0.002143185 0.002129791 0.0022547604 0.002271643 0.002283811 0.0023220351 0.0023738346
0.0023329214 0.0022667444 0.0021764755 0.002127019 0.00239438 0.0024140743 0.0024904078 0.0024593957
0.0024406987 0.0023609046 0.0022448762 0.0021313974 0.0021062351 0.002494759 0.0025343264 0.002567114
0.0025054195 0.002499073 0.0023748768 0.0022640303 0.0021461616 0.0021071555 0.0025495926 0.002606588
0.002573568 0.0024939913 0.0024887747 0.0023352015 0.0022341544 0.0021716016 0.0021551347 0.0025492422
0.00254973 0.0025035099 0.0024663587 0.0023702206 0.0022919949 0.0022264617 0.0021783363 0.002154484
0.002511947 0.0024845926 0.002443932 0.002335519 0.0023314683 0.0022403218 0.002218176 0.0022197098
0.0021735022 0.0005214933 0.0004786522 0.0005163352 0.000502335 0.00053048664 0.00050802 0.00048775814
0.00055905146 0.0005380203 0.0005117339 0.0005202336 0.0005401359 0.0005189275 0.0005589631 0.0005196751
0.0005672255 0.0005567876 0.0005676543 0.0005086599 0.0005476359 0.0005601539 0.00063123874 0.00062270364
0.0005288339 0.0005535979 0.0005112393 0.0005472108 0.0005472101 0.0005696668 0.0005795128 0.0006548843
0.0006654824 0.0005810136 0.00054885924 0.0005492029 0.00055897486 0.00058297446 0.0005657478 0.0005745971
0.00066667784 0.0007172887 0.0006273864 0.000592988 0.0006062491 0.0005552335 0.0005804226 0.0005774264
0.00063666276 0.00063883973 0.0006122264 0.00065628684 0.0005993756 0.0005552375 0.0005805891 0.0005557063
0.0006332572 0.00060069165 0.0006207679 0.00063529465 0.0006262938 0.0005961846 0.00061409356 0.0005256684
0.0005352761 0.00058015104 0.00057084364 0.00056527596 0.00059899216 0.00057228137 0.0005446688 0.0005601139
0.00051674375 0.00052747113 0.00055621617 0.00055752485 0.00057640375 0.00053315284 0.0005213971 0.00053089584
0.0004939184 0.00047811272 0.0031426935 0.003005704 0.002891459 0.0031208575 0.0034905674 0.0039629303
0.004433027 0.004908906 0.0052775643 0.0029290689 0.0027093636 0.002597187 0.0029440424 0.0033918945
0.0040367623 0.0047438596 0.0053385263 0.005619537 0.0027486347 0.00242958 0.002562991 0.0028874907
0.0034173317 0.004322457 0.005111749 0.0056284247 0.0059066466 0.0027170272 0.0025922388 0.0026064753
0.0030492863 0.003843692 0.0046875807 0.0056028846 0.0060719424 0.0062286886 0.0028510601 0.0026919474
0.0029375765 0.003509077 0.004373183 0.0052966936 0.0060117547 0.006530149 0.0065612798 0.0030805282
0.003230369 0.0035724938 0.00413116 0.00499763 0.00570602 0.006401305 0.0066212253 0.0065509826
0.00347648 0.0037870295 0.00410789 0.0048143654 0.0055317245 0.0061539635 0.0064201523 0.00667499
0.0065187435 0.0038850666 0.004306012 0.0046342756 0.0050776503 0.005803543 0.0061998693 0.006357884
0.0064155003 0.0063550603 0.004355474 0.004668217 0.0049531506 0.0053635393 0.005722664 0.005963473
0.0062021404 0.0061734226 0.0059412615 -0.0057275444 -0.005457086 -0.0054994705 -0.00541137 -0.005192218
-0.0049961647 -0.0051249363 -0.005273683 -0.005254729 -0.0055795317 -0.005452784 -0.0053813946 -0.0052361535

exp_avg_sq f4 [64, 1, 9, 9]
00000000: b40b 7337 53ca 6837 dd6e 5e37 117c 4e37
00000010: 6e9e 4d37 4ab9 4d37 e5ad 5037 02ce 5d37
00000020: 1e43 6a37 2f94 7e37 31f9 7537 08b1 6d37
00000030: b042 5e37 9ac9 5537 ac1a 5537 22fb 5337
00000040: f683 5537 b564 6237 25e8 8937 b600 8837
00000050: 4761 8437 46c8 7e37 4c3f 6f37 7479 6137
00000060: b3e5 5837 81a7 5537 3562 5c37 0272 9637
00000070: f4e6 9d37 7b46 9a37 c613 8f37 197b 8537
00000080: 7e6a 7237 7838 6337 5c2b 5637 5ed9 5937
00000090: 04f4 a837 cbee ae37 fef2 b237 83f2 a637
000000a0: b051 9337 3b3e 8237 a883 6637 7f70 5737
000000b0: 8d85 5737 8d04 b837 bf53 c037 9030 c537
000000c0: 2cec b337 5ac5 a337 657b 8c37 daab 7537
000000d0: 0ed2 5e37 4ddd 5a37 5660 bd37 46d7 ca37
000000e0: 89e0 c937 1704 bc37 805e ab37 9bd6 9037
000000f0: c763 8037 cfaf 6c37 fb75 6537 bd13 b837
00000100: 8e32 c137 963c c137 4c3c b837 413b a537
00000110: c3fc 9537 045d 8437 9c92 7b37 57e2 7137
00000120: bf2f ae37 d965 af37 2944 b137 1691 ab37
00000130: 2b1b a537 463c 9637 8277 8b37 2463 8637
00000140: c11a 8037 e39d 3b37 9fdd 4937 e77e 5537
00000150: 214a 6637 b22f 7137 3bbb 5a37 35f3 4637
00000160: 7e1e 5137 5247 4337 91c7 4537 8b5b 5237
00000170: e766 7337 5125 7037 96cd 8537 7ac3 7b37
00000180: 33a3 6637 aff0 5337 2a2c 5137 12f3 4a37
00000190: 165a 5d37 51a7 7437 cc3b 9037 f062 9137
000001a0: 7df2 7737 fd24 6837 a0bf 4937 51d5 4537
000001b0: ea74 4b37 a118 5937 12ad 6637 dd9b 9137
000001c0: 8346 8f37 5df0 7637 eaf3 5c37 566b 5137
000001d0: 0a7a 4137 8569 4137 492f 4f37 fd05 5f37
000001e0: 461f 8737 f263 9237 5e15 8037 ad9e 6437
000001f0: 4fe4 6237 6eb9 4037 e395 4237 0243 4537
00000200: 74ff 6337 230e 6337 4760 6937 b120 7937
00000210: 5f83 5b37 957c 4b37 7948 4937 3af6 3d37
00000220: da89 5137 9840 5237 f202 5b37 c4aa 5a37
00000230: b573 6637 dc87 6037 3985 5737 896c 4737
00000240: 6d89 3537 d40a 4637 c28a 4137 2a1e 4237
00000250: c697 5837 2b18 5437 5fbf 4f37 9aa1 5237
00000260: 22d5 4437 5727 3d37 56e4 3e37 32a1 4837
00000270: 6af5 4537 a818 3f37 fb9a 3b37 5657 4937
00000280: 7a3f 4837 edb7 4837 3e39 2239 055d 2639
00000290: 5052 2839 4d43 2439 1bd5 1c39 3e50 1739
000002a0: 5b35 1439 25cd 1239 9ea0 1339 9b9d 2839
000002b0: 22a6 2e39 8035 3039 75de 2839 9e06 1f39
000002c0: a0c4 1739 c477 1739 3aa1 1839 dfe4 1839
000002d0: 2467 2d39 92e5 3439 e43a 3339 b978 2939
000002e0: c108 1e39 5c77 1739 ee27 1a39 83c7 1d39
000002f0: 63a8 1e39 594a 2d39 963d 3239 37d2 2e39
00000300: 58d4 2239 d8b6 1839 0a37 1839 323c 2139
00000310: 3aee 2739 4b24 2739 9a17 2839 8426 2a39
00000320: e8f0 2239 59c0 1739 2c42 1339 1f27 1b39
00000330: 1724 2939 0747 3339 bcf9 3039 9c7e 1e39
00000340: 8c1c 1d39 7b2d 1539 23c9 0d39 5e78 1139
00000350: 2fea 1c39 24bd 3039 8bea 3539 055f 3339
00000360: 2787 1339 b883 1039 f1fa 0a39 9551 0a39
00000370: 9088 1239 708f 2339 b46a 2f39 83bc 3739
00000380: 0219 3339 c0bd 0b39 47a9 0939 a41e 0739
00000390: a783 0839 ab62 1439 bd22 2339 c3d6 2d39
000003a0: 3306 3139 52da 3039 c6b8 0839 23f2 0739
000003b0: b4f1 0639 e35a 0a39 6220 1239 215d 1b39
000003c0: f1a1 2739 f8a4 2939 9fab 2539 194a 3439
000003d0: 89c2 2839 a2b1 3739 343e 3c39 4ea5 3839
000003e0: 6095 2e39 62ff 2a39 0139 2c39 7311 2439
000003f0: ad00 3139 987f 3039 52f8 3539 de64 4139
1.44866535e-05 1.3875385e-05 1.32580435e-05 1.2307443e-05 1.22558395e-05 1.2262093e-05 1.2438254e-05 1.3220591e-05
1.3963114e-05 1.5174081e-05 1.4661157e-05 1.4167519e-05 1.3247758e-05 1.2742728e-05 1.2701999e-05 1.26350515e-05
1.2726514e-05 1.3494097e-05 1.6439773e-05 1.6212794e-05 1.5780925e-05 1.518621e-05 1.4260248e-05 1.3439323e-05
1.2928084e-05 1.2734789e-05 1.31358875e-05 1.7934482e-05 1.8823404e-05 1.839105e-05 1.7056136e-05 1.5912157e-05
1.4449119e-05 1.3543402e-05 1.2765489e-05 1.2984818e-05 2.014079e-05 2.0853613e-05 2.1332406e-05 1.990167e-05
1.7561804e-05 1.5526186e-05 1.3739722e-05 1.2841191e-05 1.2846093e-05 2.1936628e-05 2.292718e-05 2.3506844e-05
2.1448439e-05 1.9523013e-05 1.674676e-05 1.464315e-05 1.3281138e-05 1.3045338e-05 2.2575416e-05 2.4180521e-05
2.4065625e-05 2.2413251e-05 2.0428794e-05 1.7266071e-05 1.5305252e-05 1.410763e-05 1.3676933e-05 2.19437e-05
2.3030934e-05 2.3035605e-05 2.1962587e-05 1.9697125e-05 1.7879885e-05 1.577894e-05 1.4994901e-05 1.4417418e-05
2.076465e-05 2.0909052e-05 2.1131784e-05 2.045235e-05 1.9682184e-05 1.790946e-05 1.6625741e-05 1.602021e-05
1.5271247e-05 1.1182829e-05 1.2032134e-05 1.2725336e-05 1.3726328e-05 1.4375824e-05 1.3037406e-05 1.1858346e-05
1.246447e-05 1.1639511e-05 1.178858e-05 1.2538289e-05 1.45078875e-05 1.4313803e-05 1.5950569e-05 1.5006279e-05
1.3747066e-05 1.2632619e-05 1.24676535e-05 1.20967325e-05 1.3193601e-05 1.458249e-05 1.7193983e-05 1.7331418e-05
1.4778806e-05 1.383689e-05 1.202515e-05 1.1791782e-05 1.2126964e-05 1.2939942e-05 1.3749364e-05 1.7357926e-05
1.7079763e-05 1.4718707e-05 1.31698125e-05 1.2482362e-05 1.1532111e-05 1.1528265e-05 1.2349171e-05 1.329323e-05
1.6107817e-05 1.7451097e-05 1.5268739e-05 1.3626804e-05 1.3523807e-05 1.14872655e-05 1.1598199e-05 1.17577165e-05
1.3589732e-05 1.3533546e-05 1.3910299e-05 1.4849168e-05 1.3084004e-05 1.2128749e-05 1.19974075e-05 1.1322607e-05
1.2489467e-05 1.2532015e-05 1.3054103e-05 1.3033572e-05 1.3736008e-05 1.3383073e-05 1.2846017e-05 1.1886595e-05
1.0820438e-05 1.1804241e-05 1.15360035e-05 1.1570324e-05 1.2909941e-05 1.2641812e-05 1.23827185e-05 1.2554601e-05
1.1732134e-05 1.1274437e-05 1.1378046e-05 1.195846e-05 1.1799255e-05 1.1390228e-05 1.1182153e-05 1.2000868e-05
1.1935708e-05 1.19637525e-05 0.00015470848 0.00015865646 0.00016052392 0.0001566533 0.00014956707 0.00014430375
0.00014134256 0.00014000067 0.00014078847 0.00016080441 0.00016655822 0.00016804598 0.000161046 0.00015165887
0.0001447373 0.00014445098 0.00014555911 0.00014581111 0.00016536989 0.0001725166 0.00017092709 0.00016162069
0.00015071315 0.00014444947 0.0001470146 0.0001504701 0.00015130783 0.00016526262 0.00016998345 0.00016672244
0.00015528628 0.00014563964 0.00014516353 0.00015376581 0.00016015107 0.00015939881 0.00016030521 0.00016226812
0.00015539268 0.00014472137 0.00014043663 0.00014796526 0.0001613054 0.0001709723 0.00016877701 0.0001511522
0.00014983321 0.0001422669 0.00013521737 0.00013873118 0.0001496456 0.00016855128 0.00017348879 0.00017106168
0.0001406936 0.00013781979 0.00013254189 0.00013191097 0.00013974519 0.00015598326 0.0001672905 0.00017522466
0.00017080086 0.0001332676 0.00013128399 0.00012886018 0.00013019015 0.00014151137 0.00015557832 0.0001657857
0.00016882345 0.00016865999 0.00013038804 0.00012964806 0.00012869277 0.00013194564 0.00013935709 0.00014816645
0.00015986689 0.00016178552 0.0001579956 0.00017193741 0.00016094199 0.00017518413 0.0001795225 0.00017609188
0.0001664958 0.00016307601 0.00016424434 0.00015646759 0.00016880287 0.000168322 0.00017354012 0.0001844349

exp_avg f4 [64]
00000000: 59c4 d43b 1bee f33a 12d0 803c 1f7c 89bc
00000010: b3d5 40bd 3dbf 9a3c b92e 9a3c 5c4f bfbc
00000020: ab41 a0bc 1c62 9db6 df70 8d39 1d57 9abc
00000030: bc6b a4bb ef25 c0bc f480 31bc cc66 95bd
00000040: b732 813c 0390 a2bd d17b 75bc c226 92bd
00000050: 0400 0080 e630 1fbd 7783 753b 7ad2 2fbc
00000060: 84a1 1cbd 30db 44bb 6bdc 12bc 0e93 913b
00000070: 01d6 1abd 4bda 92bd fac7 51bc cefa 65bc
00000080: 2dea 11bd ba1c d3bb 1f05 f93a df2a b6bc
00000090: 30c1 7fbd d04e 473b 052c 78bb 884c 8dbb
000000a0: 2bb6 b0bc 035f 693c b337 a23a be5f cfbc
000000b0: 48f5 a3ba a375 3dbd 0c18 49bd ceeb 033b
000000c0: cf85 873c 2620 d53a 90df 143d fc1c 9abd
000000d0: 07b4 4b3c 9e31 30bc 04b6 95ba cd41 36bc
000000e0: d9fe 083c 877f 813b e3f8 56bc 432d b7ba
000000f0: ae5f d9bc f77b 20b9 6220 083c b34f 01bd
0.006493133 0.001861039 0.015724216 -0.016782818 -0.0470788 0.018890018 0.018821107 -0.023353271
-0.019562563 -4.690386e-06 0.0002697771 -0.018840367 -0.0050177258 -0.023455588 -0.0108339675 -0.072949976
0.015771253 -0.07937624 -0.014983133 -0.07136299 -6e-45 -0.038864993 0.0037462392 -0.010731334
-0.03823997 -0.0030037872 -0.008963685 0.004442579 -0.037801746 -0.07170542 -0.012804026 -0.014036847
-0.035623718 -0.0064426335 0.0018998719 -0.02223724 -0.062440097 0.0030411966 -0.0037868035 -0.0043121018
-0.02157124 0.014243844 0.0012376219 -0.025314208 -0.0012509013 -0.046254765 -0.0490952 0.0020129564
0.016543297 0.0016260191 0.03634602 -0.075250596 0.012433059 -0.010754017 -0.0011422043 -0.011124087
0.008361542 0.00395197 -0.013120863 -0.0013975281 -0.026534881 -0.0001530497 0.008308502 -0.031570148

exp_avg_sq f4 [64]
00000000: 645c 1739 002b 5b39 aac4 a73a 7017 0c3b
00000010: e592 f43b 134e 053b 63d7 0f3b a5b8 413b
00000020: 328a a13a 48e4 c336 401c 2f3a b30f a43a
00000030: 4877 e538 4073 283b b4be 8e39 b3ac 823c
00000040: f67c 3b3b f23a d43c 2227 273a bebd 8c3c
00000050: fd14 031c b003 393b f7a7 ad3a 2cf4 053a
00000060: 8562 463b 488c a039 e518 593a 3f10 c13a
00000070: bc54 513b 80b3 843c 3bc3 7f3a 4690 8d3a
00000080: 69c7 8a3b f205 023a 0601 b839 aa74 2c3b
00000090: 2f8b 733c 9f62 6039 ea28 453a c907 c839
000000a0: 8e9d 593b 0f0d 283b 42b5 ac38 8200 da3a
000000b0: 3d48 f838 5c3c b93b 8a78 2f3c 2be7 d339
000000c0: 560e 913a 2819 1938 edca 743c 56cf ad3c
000000d0: 6e32 a139 e652 0e3a 7506 9139 80b1 803a
000000e0: 98b3 cc39 eb40 c239 8213 8a3a 93b6 4e38
000000f0: 06c7 143b 5f1b 9437 f2dc 853a 11c1 843b
0.000144349 0.00020901486 0.0012799699 0.0021376275 0.0074638003 0.0020340725 0.002194845 0.002955952
0.0012324511 5.8380283e-06 0.000667993 0.0012516886 0.00010941789 0.002570346 0.00027226435 0.01595149
0.0028608418 0.025907014 0.00063763757 0.01718032 4.337139e-22 0.0028230958 0.001324891 0.0005109932
0.0030271125 0.00030622096 0.00082816026 0.0014729573 0.0031941375 0.016198874 0.00097565696 0.0010800443
0.0042351973 0.00049599924 0.00035095977 0.0026314654 0.014864727 0.00021399044 0.000752105 0.00038152773
0.0033205482 0.002564255 8.235361e-05 0.0016632231 0.00011839017 0.0056529474 0.010709891 0.0004041729
0.0011066895 3.650147e-05 0.014940959 0.02121703 0.00030745886 0.0005429223 0.00027661366 0.0009818524
0.0003904372 0.0003705093 0.0010534378 4.9284263e-05 0.0022701635 1.765572e-05 0.0010212942 0.0040513356

exp_avg f4 [32, 64, 5, 5]
00000000: 1913 9cb9 d954 81b9 5dd3 3fb9 ebb9 12b9
00000010: c0dc 06b9 4558 94b9 d477 68b9 7f21 24b9
00000020: c5c2 10b9 d53d 0ab9 8fdc 89b9 fc27 5bb9
00000030: ded0 34b9 1e7c 35b9 cea8 37b9 1125 87b9
00000040: 24c7 70b9 0f49 62b9 463c 74b9 ba0d 79b9
00000050: 2b32 8fb9 9005 8cb9 48d9 8fb9 b41b 9ab9
00000060: d488 9cb9 6a5a b736 4c3d 0037 031d b736
00000070: dc16 af35 fa1c 45b6 f21c bf36 1baa 1036
00000080: cd88 4636 b9b5 b1b5 56f7 a6b6 05e2 8734
00000090: 0f0f 91b5 74e6 90b6 5797 9fb6 39c5 edb6
000000a0: 8372 d3b6 281d cab6 2fed 07b7 3e4f 1fb7
000000b0: 9a86 beb6 c56c 10b7 bf7e 03b7 12cc 3eb7
000000c0: 6f96 18b7 6d52 d7b6 2323 fcb9 2a0f 14ba
000000d0: b9fc 25ba 7bc9 2bba 0fcd 25ba 22f8 10ba
000000e0: e80b 27ba fa3f 2eba 72a4 34ba b6f7 30ba
000000f0: 6855 18ba 1858 26ba e5ad 2cba fffc 27ba
00000100: f493 27ba 5350 18ba 377e 1eba ba43 1aba
00000110: 080c 18ba 7c2f 0cba bf62 14ba 1ba5 11ba
00000120: 7091 09ba 8862 05ba 0046 f9b9 f86c 1db8
00000130: fed4 86b8 dcbc b9b8 0813 dfb8 2730 e4b8
00000140: 2bbd 4db8 05c9 acb8 d2ac e8b8 dad6 02b9
00000150: 545c 09b9 bac4 67b8 a374 c2b8 4b0e 05b9
00000160: 4092 12b9 2ccf 03b9 b601 78b8 5219 bcb8
00000170: 1cf2 e3b8 78f4 efb8 55b1 c0b8 8820 3db8
00000180: f75f 8cb8 971b a6b8 2225 92b8 4b58 50b8
00000190: 2eed 39b8 783e 22b8 c6e0 f8b7 5a3e c1b7
000001a0: b508 5eb7 4e8f 69b8 27c6 2eb8 a18a 27b8
000001b0: b51c c9b7 9bf8 e9b7 ad4f 57b8 a7f6 3eb8
000001c0: 9781 04b8 77c9 03b8 752c dbb7 d724 54b8
000001d0: 8b7d 41b8 73f9 0eb8 540a 04b8 e09b 03b8
000001e0: 0502 43b8 7a14 10b8 7b2c f2b7 803e f6b7
000001f0: ea08 edb7 0d5d c9b9 7a8b dbb9 9436 e2b9
00000200: 6cfc f7b9 a6b8 ffb9 6e4e f3b9 0031 08ba
00000210: 3fc9 0cba f85e 14ba e4d1 16ba cce3 10ba
00000220: 1ba2 19ba b0b7 1eba aee9 26ba 2bc4 22ba
00000230: ea37 10ba 9fef 14ba ddb4 1dba 5ef2 1dba
00000240: 90f3 1bba 30b2 09ba 2c0c 0cba 6660 0dba
00000250: 5509 0eba ead5 09ba 1cbf 36b8 fae4 57b8
00000260: cc0d 75b8 16ec 6db8 d65e 52b8 a895 31b8
00000270: dde4 4bb8 eba3 66b8 4615 2bb8 0eac 2eb8
00000280: d801 25b8 1e77 1eb8 a256 22b8 51c3 d5b7
00000290: 8918 2ab8 4247 f3b7 a765 f0b7 2874 deb7
000002a0: e44a e5b7 5d05 0ab8 3c1c 82b7 8008 d0b7
000002b0: b930 c9b7 1175 c2b7 e563 d2b7 3b23 17b8
000002c0: ac4b 3db8 04df 3cb8 47bf 45b8 2213 2bb8
000002d0: c8db 34b8 7038 4ab8 5986 41b8 27da 2fb8
000002e0: d87f 22b8 6671 27b8 d688 30b8 b136 24b8
000002f0: 357f 0bb8 093b f5b7 ed7a 02b8 e6ff fbb7
00000300: 4f8a cfb7 9cb7 d3b7 e638 abb7 7dee 8bb7
00000310: 64f9 42b7 564f 6ab7 ecc2 82b7 cb20 64b7
00000320: 0cd9 5eb7 2c08 87b7 1447 b2b7 a138 f0b7
00000330: e60d 21b8 d257 8c35 6231 5ab6 4c83 38b7
00000340: 367c 5ab7 c760 d4b7 a81c 9936 359e 31b6
00000350: 8b48 6eb6 ba27 13b7 8b21 95b7 af3b d235
00000360: 7580 56b6 10ab d3b6 4722 f7b6 819b 3cb7
00000370: c416 e5b6 8a50 14b7 6906 40b7 e2fd 31b7
00000380: 438d 2bb7 d1dc 0735 ff5e d234 fed7 5f34
00000390: 6c92 1db3 2e5b 07b3 15ee de34 a2da 4934
000003a0: 0e7a 9f34 c3e3 c833 3d84 2633 8f82 5034
000003b0: dc30 4134 3d1b 8934 0c9e c633 989f 6fb3
000003c0: d828 b033 1fab bb33 de80 8334 1cde b233
000003d0: 2540 a2b3 deab ccb1 6a8b 92b3 c0c4 c7b0
000003e0: afcc 4233 3715 87b3 afa0 6bb7 86dd ceb7
000003f0: a381 10b8 edf3 2cb8 c964 22b8 bfd7 86b7
-0.00029768868 -0.00024668014 -0.00018293918 -0.00013992905 -0.00012861472 -0.00028294526 -0.00022169884 -0.00015652737
-0.00013805467 -0.0001318374 -0.00026295005 -0.00020900363 -0.00017243947 -0.00017307742 -0.00017515125 -0.00025776823
-0.00022962369 -0.00021580256 -0.00023292107 -0.00023751604 -0.00027312463 -0.00026707025 -0.00027436973 -0.0002939381
-0.00029856584 5.4643506e-06 7.643666e-06 5.4572024e-06 1.3045169e-06 -2.9372154e-06 5.6956133e-06 2.1556687e-06
2.9583928e-06 -1.3240416e-06 -4.975979e-06 2.531016e-07 -1.0807724e-06 -4.3183627e-06 -4.7561875e-06 -7.08611e-06
-6.301621e-06 -6.0234634e-06 -8.101851e-06 -9.4955885e-06 -5.678111e-06 -8.608394e-06 -7.837719e-06 -1.1372396e-05
-9.094932e-06 -6.417095e-06 -0.00048091364 -0.00056480116 -0.0006331909 -0.0006553155 -0.00063248066 -0.0005530139
-0.00063723186 -0.00066471065 -0.00068909593 -0.0006750779 -0.00058110664 -0.00063455245 -0.00065871916 -0.0006408244
-0.0006392591 -0.0005810309 -0.0006046029 -0.0005884726 -0.00058001326 -0.0005347652 -0.0005660466 -0.00055559137
-0.0005247807 -0.00050882297 -0.00047545135 -3.7533202e-05 -6.429291e-05 -8.856665e-05 -0.000106370135 -0.00010880856
-4.9051985e-05 -8.239042e-05 -0.00011094812 -0.00012477805 -0.00013099733 -5.5257908e-05 -9.272366e-05 -0.00012689193
-0.00013978127 -0.00012570311 -5.91294e-05 -8.969255e-05 -0.000108693 -0.00011441944 -9.188304e-05 -4.509141e-05
-6.693595e-05 -7.920636e-05 -6.968739e-05 -4.9673294e-05 -4.4328328e-05 -3.868199e-05 -2.9668572e-05 -2.3036428e-05
-1.3234258e-05 -5.5684992e-05 -4.1669377e-05 -3.994501e-05 -2.3974435e-05 -2.789153e-05 -5.13342e-05 -4.5529243e-05
-3.1591942e-05 -3.1420463e-05 -2.6127536e-05 -5.057905e-05 -4.6131707e-05 -3.4087756e-05 -3.148087e-05 -3.1378004e-05
-4.6493504e-05 -3.4351346e-05 -2.886936e-05 -2.9354589e-05 -2.8256753e-05 -0.00038407036 -0.00041874853 -0.00043146743
-0.0004729958 -0.00048774964 -0.00046407006 -0.000519529 -0.0005370564 -0.00056599034 -0.0005753322 -0.00055271084
-0.00058606424 -0.0006054593 -0.00063672184 -0.0006209041 -0.0005501496 -0.0005681458 -0.00060160254 -0.000602519
-0.00059490744 -0.0005252687 -0.000534239 -0.00053930876 -0.00054182607 -0.0005258011 -4.3570166e-05 -5.1473246e-05
-5.84254e-05 -5.6725075e-05 -5.0156224e-05 -4.2339467e-05 -4.8612117e-05 -5.4988934e-05 -4.078939e-05 -4.164507e-05
-3.9340783e-05 -3.7781072e-05 -3.8704493e-05 -2.548253e-05 -4.055401e-05 -2.900104e-05 -2.8657565e-05 -2.6518552e-05
-2.7333801e-05 -3.290676e-05 -1.5510355e-05 -2.479949e-05 -2.3983755e-05 -2.3181115e-05 -2.5080468e-05 -3.6034016e-05
-4.5131586e-05 -4.5030392e-05 -4.71466e-05 -4.0787396e-05 -4.312003e-05 -4.8213114e-05 -4.6139907e-05 -4.192642e-05
-3.8742874e-05 -3.9921513e-05 -4.208911e-05 -3.9151582e-05 -3.3258653e-05 -2.9233766e-05 -3.11089e-05 -3.0040694e-05
-2.4740728e-05 -2.523866e-05 -2.0411284e-05 -1.6681146e-05 -1.1621367e-05 -1.3965959e-05 -1.5587975e-05 -1.3597494e-05
-1.3282766e-05 -1.609706e-05 -2.1252352e-05 -2.86366e-05 -3.8398335e-05 1.0456372e-06 -3.2513276e-06 -1.0997825e-05
-1.3022733e-05 -2.5317435e-05 4.5630914e-06 -2.6467144e-06 -3.550699e-06 -8.771132e-06 -1.7777804e-05 1.566359e-06
-3.1963257e-06 -6.3082043e-06 -7.365164e-06 -1.1241879e-05 -6.827382e-06 -8.840239e-06 -1.1445584e-05 -1.0609134e-05
-1.0225284e-05 5.061275e-07 3.9184667e-07 2.0847071e-07 -3.668758e-08 -3.1515064e-08 4.152395e-07 1.8799122e-07
2.9704864e-07 9.3546554e-08 3.8770157e-08 1.9419006e-07 1.79923e-07 2.5538057e-07 9.248842e-08 -5.5791674e-08
8.203068e-08 8.738993e-08 2.4494415e-07 8.3291724e-08 -7.555381e-08 -5.9567205e-09 -6.824014e-08 -1.4535075e-09
4.5355304e-08 -6.290286e-08 -1.4044504e-05 -2.4660269e-05 -3.445301e-05 -4.123517e-05 -3.8717673e-05 -1.607451e-05
