logs/biosr_ccps_rcan_model-SRCNN_250305_lr0.0001_bs1_Ps256_Npatch128_N300/model_189.pth (torch, 695046 bytes, 15 tensors)

conv1.weight f4 [64, 1, 9, 9]
0	0x3da4cbc7	0.0804668
1	0xbce9a4d0	-0.028520972
2	0x3daa626e	0.08319555
3	0xbcb8cf22	-0.022559706
4	0x3d3d0a7c	0.046152577
5	0xbd205ff9	-0.039154027
6	0x3e094924	0.13406807
7	0xbc43d59e	-0.011952786
8	0x3e505c3e	0.20347688
9	0xbce33986	-0.02773739
10	0xbdbd9d75	-0.09258548
11	0x3d461bba	0.048366286
12	0xbd4ba24b	-0.04971532
13	0x3d002dbf	0.031293627
14	0x3d2ffacf	0.0429638
15	0x3cf6a5cd	0.030108357
16	0x3d9deaef	0.07710826
17	0x3dd95767	0.10612374
18	0x3dae9c8c	0.08525953
19	0x3d1c4ccc	0.038159177
20	0xbdc5520f	-0.09634792
21	0xbc9922a1	-0.01869327
22	0xbd52ecf2	-0.0514955
23	0xbdc0f828	-0.09422332
24	0xbd8ca533	-0.06867447
25	0xbd9461b9	-0.072452016
26	0x3d4b857b	0.049687844
27	0xbdd2b69f	-0.102887385
28	0xbd0d1b49	-0.03444985
29	0x3cbe85b1	0.023257108
30	0xbd9e0ad8	-0.07716912
31	0xbdcdcf25	-0.10049275
32	0x3ad9143b	0.0016561815
33	0xbcfe2683	-0.031024223
34	0xbd2d51e3	-0.04231442
35	0x3d970f91	0.07376016
36	0xbd9576eb	-0.072980724
37	0xbd806e67	-0.062710576
38	0xbb875ab6	-0.0041306866
39	0x3d31b05f	0.04338109
40	0xbd02d4a0	-0.031941056
41	0x3d93336f	0.071875446
42	0x3d525a4d	0.05135565
43	0x3d84940c	0.0647355
44	0x3cc09048	0.023506299
45	0xbd160955	-0.036629993
46	0xbdc89941	-0.09794856
47	0xbae3df44	-0.0017385264
48	0xbdc1be59	-0.09460134
49	0x3cd321e0	0.025772989
50	0x3cd5e478	0.026109919
51	0x3cb294ff	0.021799562
52	0x3d59eab8	0.05320236
53	0x3dfe7aa7	0.12425738
54	0xbd5f49d3	-0.054513764
55	0xbce75476	-0.028238516
56	0xbc13dded	-0.009025079
57	0x3d04f2ab	0.03245799
58	0x3d9f4658	0.07777089
59	0x3d76d51f	0.060261842
60	0xbd3da3bd	-0.04629873
61	0x3dd6440e	0.10462199
62	0x3bd4a89f	0.0064898278
63	0x3d19dd3b	0.037564497
64	0x3d12b528	0.035817295
65	0x3ae29bc6	0.0017288856
66	0xbd51f4a9	-0.051258717
67	0xbd5555b6	-0.052083693
68	0x3c22e0b4	0.009941269
69	0xbd87bacc	-0.066274256
70	0xbcb6bbca	-0.022306342
71	0xbd89d62c	-0.06730303
72	0x3d2f3ab5	0.042780597
73	0xbcc4f947	-0.024044646
74	0x3caf7b98	0.021421239
75	0x3d636df1	0.05552477
76	0xbd475af3	-0.04867072
77	0xbc03f79a	-0.008054638
78	0xbdaf09cb	-0.0854679
79	0xbbbf8cc1	-0.0058456366
80	0xbd8e5b8a	-0.069510534
81	0xbd427103	-0.047471058
82	0xbb886998	-0.0041629784
83	0xbcedcae0	-0.029027402
84	0x3bec3eac	0.0072096195
85	0x3d93dd0d	0.072198965
86	0xbd026f51	-0.03184444
87	0xbdfbe34e	-0.12299214
88	0x3d66c12d	0.05633657
89	0xbc88dbf5	-0.016706446
90	0x3ca03350	0.019555718
91	0xbc8e8717	-0.0173984
92	0x3d6bb2b5	0.057543475
93	0xbdcf4c0e	-0.10121928
94	0x3d8e269b	0.06940957
95	0x3d979ae8	0.07402593
96	0x3d9374e1	0.07200027
97	0x3d0dd133	0.034623336
98	0x3db8f921	0.090318926
99	0x3d0abb8f	0.033870276
100	0x3c98d815	0.018657723
101	0xbcb3eb5e	-0.021962818
102	0x3dadefc1	0.08492995
103	0x3d97923a	0.074009374
104	0xbd4985c6	-0.049199842
105	0x3c4b1c46	0.012396878
106	0xbdc0df83	-0.094176315
107	0xbcc8177d	-0.024425263
108	0x3ce1dbb7	0.027570589
109	0xbc5c0f4f	-0.013431384
110	0xbdf4ccc7	-0.11953121
111	0x3dab106b	0.08352741
112	0x3cfa9b67	0.03059168
113	0xbdba9f21	-0.09112383
114	0xbdd61471	-0.10453118
115	0xbd41a88c	-0.04727988
116	0xbdbf8192	-0.093508855
117	0xbd7faebd	-0.062422503
118	0xbd7405cf	-0.059575852
119	0xbdcf4e3d	-0.10122345
120	0x3d452688	0.04813245
121	0x3df277c2	0.11839248
122	0x3b181c6e	0.0023210305
123	0xbd2b8fc8	-0.041885167
124	0x3dafd8e7	0.08586293
125	0xbdd64bdd	-0.104636885
126	0xbd0c2e65	-0.034223933
127	0xbdc098fe	-0.09404181
128	0x3d0869fe	0.033304207
129	0xbdb175bd	-0.08665035
130	0xbdbe409e	-0.092896685
131	0x3d380315	0.044924814
132	0xbd89621d	-0.06708167
133	0xbdbf3707	-0.093366675
134	0x3b5ed1b3	0.0033999502
135	0xbd4fc0f8	-0.05072114
136	0x3d8efee4	0.0698221
137	0x3c00ed4a	0.007869074
138	0x3be92979	0.0071155396
139	0xbd2896a4	-0.041159287
140	0x3d742548	0.059605867
141	0x3d91e39b	0.071234904
142	0x3dac53f5	0.08414451
143	0x3c5ae190	0.013359442
144	0xbdef104d	-0.11673031
145	0x3c1be6b7	0.009515456
146	0xbd93ba20	-0.07213235
147	0xbdbfabd4	-0.093589455
148	0x3d940b17	0.07228678
149	0x3d29e248	0.041475564
150	0x3d0b4f39	0.0340111
151	0x3de14232	0.10998954
152	0x3d00003f	0.031250235
153	0xbc9069de	-0.017628606
154	0xbceffce1	-0.029295387
155	0x3d439ac1	0.047755007
156	0x3c88ff0f	0.016723184
157	0xbd83f4d8	-0.064431846
158	0xbdc75e70	-0.097348094
159	0x3d8aefb1	0.06783999
160	0x3d9769dc	0.07393238
161	0x3dfb1a9d	0.122609355
162	0x3d84a18f	0.06476127
163	0x3dfd24e0	0.12360549
164	0xbd4ea361	-0.05044878
165	0x3d7c0cc3	0.061535608
166	0x3d1641cb	0.03668384
167	0x3ce3afb1	0.027793737
168	0xbd9c7b29	-0.076406784
169	0xbd871a3d	-0.065968014
170	0x3d3e4001	0.046447758
171	0x3de3a120	0.111147165
172	0x3d944c6a	0.07241137
173	0xbcfd19d6	-0.030896109
174	0x3df30551	0.118662484
175	0x3d68c370	0.05682701
176	0x3c91c544	0.017794259
177	0x3ca96071	0.02067587
178	0x3db41eba	0.08794923
179	0x3d979ad6	0.074025795
180	0x3dab0364	0.08350256
181	0xbd54d8de	-0.051964633
182	0x3dbecd3e	0.093164906
183	0x3dc9eff9	0.09860224
184	0xb9f2b78e	-0.00046294596
185	0x3d755cfe	0.059903137
186	0xbd936231	-0.07196463
187	0xbddd8f38	-0.108183324
188	0xbdacda57	-0.084400825
189	0x3df4deed	0.11956582
190	0x3ddc519a	0.10757752
191	0x3cb10516	0.02160887
192	0x3dc56d82	0.096400276
193	0x3dab0d74	0.08352175
194	0xbd2c127c	-0.042009816
195	0x3cb895f6	0.022532444
196	0xbd7da371	-0.061923448
197	0xbe02cee5	-0.12774237
198	0x3ddfeaf4	0.109334856
199	0xbd24673f	-0.040137526
200	0xbcff15e8	-0.031138375
201	0x3caa646d	0.02079984
202	0x3d8ba55f	0.068186514
203	0x3da27d6b	0.07934078
204	0xbcf7ce1e	-0.030249652
205	0x3b999cab	0.0046878657
206	0xbbafa308	-0.005360011
207	0xbd17052a	-0.03687016
208	0xbc50fefb	-0.012756105
209	0x3caf8182	0.021424059
210	0xbda0e367	-0.078558736
211	0x3d4e57c4	0.05037667
212	0xbdde9ef7	-0.10870164
213	0x3cca6dcc	0.024710558
214	0xbde38d09	-0.11110885
215	0xbe0bc081	-0.13647653
216	0x3cf0aec0	0.029380202
217	0x3cc3c7ac	0.023898922
218	0xbd2eb9c4	-0.04265763
219	0x3d82c878	0.06385893
220	0x3db64fc5	0.089019336
221	0x3c25e643	0.010125699
222	0xbddc6c5e	-0.10762857
223	0xbdec0659	-0.11524648
224	0xbe244cfe	-0.16044995
225	0x3c187cf0	0.009307131
226	0x3dd558cf	0.104173295
227	0x3c505969	0.01271663
228	0xbdc8522e	-0.097812995
229	0x3d8ed72c	0.069746345
230	0x3ce7c2ba	0.028291095
231	0xbda4133b	-0.080114804
232	0xbe1b49f2	-0.15164927
233	0x3c9f41d9	0.019440578
234	0x3de71cc7	0.11284786
235	0x3ca75c75	0.02042983
236	0xbd13e93b	-0.036111098
237	0xbcd66aa1	-0.026173891
238	0xbd37d705	-0.044882793
239	0xbdec8f61	-0.11550785
240	0x3bd224ae	0.006413064
241	0xbdc2789f	-0.09495663
242	0xbe04ebdf	-0.12980603
243	0x3dd9b5e3	0.10630395
244	0xbdaf6f79	-0.085661836
245	0x3dc83097	0.09774893
246	0x3df2f101	0.11862374
247	0x3d98cc42	0.07460834
248	0xbd0c3bab	-0.03423659
249	0xbd3a2cdf	-0.04545295
250	0x3ccb04d0	0.024782568
251	0xbd9b0023	-0.075683855
252	0x3d4b8b91	0.049693648
253	0xbb9a7f21	-0.004714862
254	0x3c0c6030	0.008567855
255	0x3dea80c6	0.11450343

conv1.bias f4 [64]
0	0x3cd913f8	0.02649878
1	0x3d53682e	0.051613025
2	0x3c8f2d2d	0.017477596
3	0x3bab7d1d	0.0052334205
4	0xbdd16a2a	-0.10225327
5	0x3d9c6ed6	0.07638328
6	0x3dbc00ed	0.09179864
7	0xbd978f46	-0.07400374
8	0xbd1babd5	-0.03800567
9	0x3cf24a92	0.029576574
10	0xbd16b83a	-0.036796786
11	0xbc8cfe4c	-0.017211102
12	0xbdd29ff9	-0.102844186
13	0xbc896254	-0.01677052
14	0xbda402ff	-0.08008384
15	0xbd85d48f	-0.06534683
16	0x3dbc1fb0	0.091857314
17	0xbcc5a533	-0.024126625
18	0xbb428904	-0.0029683718
19	0xbca8963e	-0.020579454
20	0xbd13722b	-0.03599755
21	0xbdd30c02	-0.10305025
22	0xbdeffaf1	-0.11717785
23	0xbc992e5f	-0.01869887
24	0xbc98c495	-0.018648425
25	0x3c94a712	0.018146072
26	0xbcd6a5cb	-0.026202103
27	0xbda3a57b	-0.07990547
28	0xbd99a193	-0.07501521
29	0xbd7ce222	-0.061739095
30	0xbd01d6da	-0.03169904
31	0xbca30538	-0.01989995
32	0xbda3f692	-0.08006014
33	0xbdab214d	-0.08355961
34	0x3d8a8e29	0.06765396
35	0xbb006b9a	-0.0019595386
36	0xbd944fa2	-0.07241751
37	0x3d487337	0.048938002
38	0xbccf05b5	-0.025271276
39	0x3e212b37	0.15739141
40	0x3d43292f	0.047646698
41	0x3d795c7c	0.060879216
42	0xbcaa8a0a	-0.020817775
43	0xbca87ded	-0.020567859
44	0x3d093d39	0.033505652
45	0xbdf8dcd9	-0.12151498
46	0xbc45b8e2	-0.012068005
47	0xbd0eeed7	-0.034895744
48	0x3cb5326b	0.022118768
49	0xbd01b8d9	-0.031670425
50	0x3ddb42ba	0.107060865
51	0xbd8078ec	-0.06273064
52	0x3bba4ed4	0.0056856666
53	0xbb491305	-0.0030681503
54	0x3d8bb4fa	0.06821628
55	0xbd727924	-0.05919756
56	0x3d154c8b	0.03644995
57	0xbda6114b	-0.08108767
58	0x3c1e3f4f	0.009658649
59	0x3c38093f	0.011232673
60	0xbc801ef8	-0.015639767
61	0x3a1b3d45	0.00059219106
62	0x3d5f59e4	0.054529086
63	0xbdab94d7	-0.08377998

conv2.weight f4 [32, 64, 5, 5]
0	0xbcbe007c	-0.02319359
1	0xbd1c7d6c	-0.03820555
2	0x3c76e3a7	0.015068925
3	0xbc2888d4	-0.010286529
4	0x3cfc58c0	0.030804038
5	0x3ba3c25b	0.004997534
6	0xbc366301	-0.011132003
7	0x3cd26d31	0.025686832
8	0xbc032d4a	-0.008006403
9	0x3c2862a2	0.010277422
10	0xbb6d8526	-0.0036242693
11	0xbbcb49cc	-0.0062038656
12	0xbbcfcfd7	-0.006341915
13	0xbc9f4784	-0.019443281
14	0x3af82ecd	0.0018934846
15	0xbd344113	-0.044007372
16	0xbcac3fd6	-0.021026533
17	0xbd0d8f17	-0.03456029
18	0xbd0b9329	-0.03407589
19	0xb9c76035	-0.00038027918
20	0x3a0a6876	0.0005279848
21	0x3c87a8dd	0.016560012
22	0x3ca0c2a2	0.019624058
23	0x3d188900	0.03724003
24	0x3d4ea6d4	0.05045207
25	0xbdef7128	-0.11691505
26	0xbc93e75b	-0.018054655
27	0x3d5d8cba	0.054089285
28	0x3a4f6b46	0.00079124083
29	0xbcd4d467	-0.025980188
30	0xb9175ffb	-0.00014436238
31	0xbd1819e8	-0.03713408
32	0x3d6db218	0.05803117
33	0x3d1e2a6b	0.03861467
34	0x3ac095a4	0.0014693034
35	0xbd8c2040	-0.06842089
36	0xbdae9aa7	-0.08525591
37	0xbbb31a9b	-0.005465818
38	0xbcafb8a9	-0.021450358
39	0xbc0f374d	-0.008741212
40	0xbdbbb628	-0.09165603
41	0xbdaa02ac	-0.08301291
42	0xbcbafd06	-0.02282573
43	0xbc4ac529	-0.012376108
44	0xbc3fe01d	-0.011711148
45	0xbd583523	-0.05278505
46	0xbc889631	-0.01667318
47	0x3bc3de1e	0.005977406
48	0x3b5b91af	0.0033503582
49	0xbcccecfd	-0.025015349
50	0x3c899b5f	0.01679772
51	0x3c0ab398	0.00846567
52	0x3cbace6a	0.022803504
53	0x3cf01caa	0.029310543
54	0x3c754fc6	0.014972633
55	0xbcee671f	-0.029101906
56	0xbc5b17eb	-0.013372402
57	0xbc81cfbe	-0.01584613
58	0xbc5b5705	-0.013387446
59	0x3c32f1e4	0.010921929
60	0xbcff816a	-0.03118964
61	0xba89b671	-0.0010506642
62	0xbc0801e8	-0.008301236
63	0x3c2684c4	0.01016349
64	0x3c40c5f4	0.011765946
65	0xbd36b5e9	-0.044607077
66	0xbb9d5c41	-0.0048022573
67	0xbd0ba7aa	-0.034095444
68	0x3d07a4e6	0.033116244
69	0x3d7eff29	0.06225506
70	0xbb8db587	-0.0043246183
71	0x3c380631	0.011231945
72	0x3c9ead9b	0.01936989
73	0x3d52e3f6	0.05148693
74	0x3e26b546	0.16280088
75	0x3cb01e14	0.021498717
76	0xbce0efac	-0.027458034
77	0xbbb55608	-0.0055339374
78	0xbbc75706	-0.006083372
79	0x3cf5a89e	0.02998763
80	0x3c24f157	0.0100673055
81	0x3b9c14f7	0.0047632414
82	0xbd1900de	-0.037354343
83	0xbc18fd04	-0.009337667
84	0x3c82413a	0.015900243
85	0xbc4566ce	-0.012048436
86	0x3be55b5b	0.006999416
87	0x3b4865d4	0.0030578272
88	0x3cc3df47	0.023910178
89	0x3c81754a	0.015802998
90	0xbbf21c3c	-0.0073886197
91	0xbd1290f5	-0.035782773
92	0xbc6010a3	-0.0136758415
93	0xbbe9722d	-0.0071242065
94	0xbcd9b429	-0.026575165
95	0xbd061505	-0.03273489
96	0xbd3f9fda	-0.046783306
97	0xbd4e64d6	-0.050389133
98	0xbdf529fe	-0.119709
99	0xbe2b6fd9	-0.16741885
100	0x3b7da0a8	0.0038700495
101	0x3c3974bf	0.011319338
102	0x3c013f16	0.007888576
103	0xbc9771f6	-0.018486958
104	0xbd3f1b95	-0.046657164
105	0x3c95eec1	0.018302323
106	0x3ba9d7b0	0.0051831827
107	0xbb9fc336	-0.004875566
108	0x3bf39c87	0.007434431
109	0xbd49316d	-0.0491194
110	0x3d08f87b	0.033440094
111	0x3cc45fcb	0.023971459
112	0x3b531745	0.0032209915
113	0xbafc8c92	-0.0019267967
114	0xbd064de7	-0.032789137
115	0xbac1d0f6	-0.0014787007
116	0x3ca8fc1f	0.020628033
117	0xbd420272	-0.047365613
118	0xbd05ae87	-0.032637145
119	0xbccb8cb5	-0.024847368
120	0x3d823109	0.06357009
121	0x3c3b23bd	0.011422095
122	0x3d1e9016	0.03871163
123	0x3d3a45e1	0.045476798
124	0x3d735801	0.0594101
125	0x3bac9abc	0.005267469
126	0x3c518d9f	0.012790113
127	0x3ab0b926	0.0013482913
128	0x3c9812d6	0.01856367
129	0xbc97c461	-0.018526258
130	0x3b097dfb	0.0020979631
131	0x3c063d5b	0.008193339
132	0xbb81a021	-0.0039558564
133	0x3bf702fe	0.0075381985
134	0xbd0118f1	-0.031517927
135	0xbceb78a8	-0.028744057
136	0xbcd793ab	-0.02631553
137	0xbce3cafe	-0.027806755
138	0xbd0b5660	-0.03401792
139	0xbcf9776d	-0.030452454
140	0x3b288425	0.002571353
141	0xbc0de720	-0.0086610615
142	0x3b0e8a6d	0.0021749989
143	0x3c7b3e7d	0.015334723
144	0xba9b5b9c	-0.0011852863
145	0x3c2759b8	0.010214262
146	0x3cf69078	0.030098185
147	0x3c93948a	0.018015165
148	0x3ce4845e	0.027895149
149	0x3c71a5af	0.014748975
150	0x3b5fd227	0.003415236
151	0x3d08805d	0.03332554
152	0x3d5c8990	0.053842127
153	0xbcd083b3	-0.025453424
154	0xbd794423	-0.060855996
155	0xbb97a4e3	-0.0046278103
156	0xbbaf5678	-0.005350884
157	0xbccb07c5	-0.024783978
158	0xbd8d9f19	-0.06915111
159	0xbd2e2298	-0.04251346
160	0x3c10732d	0.008816523
161	0xbc111d8f	-0.008857145
162	0xbc22a136	-0.009926131
163	0xbd74ff23	-0.05981363
164	0xbb46dc7c	-0.0030343821
165	0x3d58fe19	0.0529767
166	0x3c9a8584	0.018862493
167	0xbd574b04	-0.052561775
168	0x3baea60f	0.0053298543
169	0x3bed6562	0.007244752
170	0x3d2eedc3	0.042707216
171	0x3d2711af	0.04078835
172	0xbd300031	-0.042968933
173	0x3c8acaaf	0.01694235
174	0x3d96528e	0.07339965
175	0xbcb1c19f	-0.021698771
176	0xbcfb6ee9	-0.030692535
177	0x3c532f95	0.012889762
178	0xbc99e8ab	-0.018787703
179	0xbd00102a	-0.031265415
180	0xbd055309	-0.03254989
181	0x3c794317	0.015213749
182	0x3cbbeaab	0.022939047
183	0xbcb6af8d	-0.022300506
184	0x3cc8892a	0.024479467
185	0x3b020c0a	0.0019843602
186	0x3d163cbb	0.03667901
187	0x3c820489	0.015871303
188	0xbbcc08da	-0.006226641
189	0xbc315671	-0.010823832
190	0x3cb7bc47	0.022428645
191	0xba8c35f7	-0.0010697235
192	0xbc48657a	-0.012231225
193	0x3c778b83	0.015108946
194	0x3d18a154	0.03726323
195	0x3d117f3f	0.035521742
196	0x3c513527	0.01276902
197	0x3c836bd1	0.016042622
198	0x3d7097e5	0.058738608
199	0x3de1e0ad	0.11029182
200	0x3d22ab74	0.03971429
201	0xbd5dd679	-0.054159615
202	0xbd05e2eb	-0.03268711
203	0xbc9b2798	-0.018939778
204	0xbd409476	-0.047016583
205	0xbc382ab6	-0.011240652
206	0xbcfb0776	-0.030643206
207	0xbd240ffe	-0.040054314
208	0xbb67cd9a	-0.003537035
209	0x3c9def04	0.01927901
210	0xbdc98204	-0.09839252
211	0xbcef8e8c	-0.029242776
212	0xbd98cbbc	-0.07460734
213	0xbd51fe37	-0.05126783
214	0x3dcd2d8d	0.10018454
215	0xbe1ae75b	-0.15127318
216	0xbdee3158	-0.11630505
217	0xbda26e65	-0.07931212
218	0xbd48058c	-0.048833415
219	0x3db2947b	0.08719727
220	0xbd8b6a9e	-0.06807445
221	0xbd99c0dd	-0.07507489
222	0xbd58b9d0	-0.05291158
223	0x3d5c8e41	0.0538466
224	0x3e198be4	0.1499477
225	0x3c9a81d2	0.018860731
226	0xbc0dac9b	-0.008647109
227	0xbbf1006a	-0.0073547857
228	0xbd29b62f	-0.04143351
229	0xbd0296bd	-0.031882036
230	0x3d285932	0.04110069
231	0x3b0a875c	0.002113781
232	0xbca7f647	-0.020503176
233	0xbd8286fb	-0.06373402
234	0x3d3a5928	0.045495182
235	0xbdaf8429	-0.085701294
236	0xbd550d18	-0.05201444
237	0xbd940674	-0.07227793
238	0xbd52c37e	-0.051455967
239	0x3dac0052	0.083984986
240	0xbdf4cb8a	-0.119528845
241	0xbdb1b22c	-0.08676562
242	0xbc351b75	-0.01105391
243	0x3da2d14b	0.07950076
244	0x3d9e52ad	0.07730613
245	0xbddffe3a	-0.10937162
246	0xbd086a9d	-0.0333048
247	0xbc9e1e53	-0.01930157
248	0x3e948e15	0.2901465
249	0x3ce8d352	0.028421078
250	0x3d85f561	0.06540943
251	0xbcc0f25f	-0.023553072
252	0xbd570941	-0.05249906
253	0xbd987beb	-0.074455105
254	0xbdf8481c	-0.12123129
255	0x3d6647ea	0.056220926

conv2.bias f4 [32]
0	0x3bb49cb3	0.005511844
1	0xbd09ec8e	-0.03367286
2	0x3c47e0ee	0.0121996235
3	0xbcb8a62f	-0.02254018
4	0x3c76d5c7	0.015065617
5	0xbc8a0fa4	-0.016853161
6	0xbcb8d21f	-0.022561131
7	0x3c96d47a	0.018411864
8	0xbc4d20be	-0.012520013
9	0xbc9beb6a	-0.019033153
10	0xbcccce27	-0.025000645
11	0x3c6825d6	0.014169177
12	0xbc411715	-0.011785288
13	0xbc7bfdf8	-0.015380375
14	0x3c84f399	0.016229438
15	0xbcee6dca	-0.029105086
16	0xbcd4f885	-0.02599741
17	0xbc67dde9	-0.014152029
18	0x3adbefd5	0.001677985
19	0xbd6d072f	-0.05786818
20	0x3d4dd73c	0.05025409
21	0xbc115083	-0.008869293
22	0xbc2fcc8a	-0.010729918
23	0x3b880ea3	0.0041521355
24	0xbc931026	-0.017952036
25	0xbc26e59c	-0.010186579
26	0xbc9bc0be	-0.019012805
27	0x3ca4e34c	0.020127915
28	0xbcde68b4	-0.027149536
29	0x3b7c6bd1	0.0038516412
30	0x3ca6ffaa	0.020385582
31	0xbcda2d3e	-0.026632901

conv3.weight f4 [1, 32, 5, 5]
0	0xbd4d9408	-0.05019
1	0xbc956a88	-0.018239275
2	0xbcc58149	-0.0241095
3	0xbd058d1f	-0.032605287
4	0x3b35a652	0.0027717543
5	0x3b9f5603	0.0048625483
6	0xbcee2671	-0.029071065
7	0xbd59e496	-0.053196512
8	0xbc4b484f	-0.012407376
9	0x3c8117e9	0.015758472
10	0x3c9de3a1	0.019273581
11	0xbd394df2	-0.04524035
12	0xbd2a3d1e	-0.041562192
13	0xbaee6976	-0.0018189389
14	0x3c13ab8f	0.009013071
15	0xbbb59f3f	-0.0055426653
16	0xbcc61a8c	-0.02418258
17	0xbcee44a9	-0.029085474
18	0xbc740400	-0.014893532
19	0x3c8dcd88	0.017309919
20	0x3d91a637	0.07111781
21	0x3d6808d1	0.056649033
22	0x3d4a136c	0.04933493
23	0x3d25c837	0.040474143
24	0x3df9295d	0.121660925
25	0xbd276b53	-0.040873837
26	0xbce0a5c9	-0.027422803
27	0xbd36c99a	-0.044625856
28	0xbc1bb4eb	-0.009503583
29	0xbb4f9f1a	-0.0031680525
30	0xbd28523b	-0.041094046
31	0xbd5b522a	-0.053545155
32	0xbcc53c09	-0.024076479
33	0xbc67e0e6	-0.014152741
34	0xbd03cf33	-0.032180022
35	0xbd0682ff	-0.03283977
36	0xbc6a973e	-0.0143182855
37	0xbd275d9e	-0.040860765
38	0xbcd929c3	-0.026509171
39	0xbc641f70	-0.013923511
40	0xbd254aad	-0.04035442
41	0x3c3bbba7	0.011458314
42	0xbd1f699d	-0.03891908
43	0xbc50609e	-0.012718348
44	0xbcb8fb52	-0.022580776
45	0xbbdf3c8a	-0.0068126367
46	0xbd6c5457	-0.05769762
47	0xbc90ca80	-0.017674685
48	0xbce530ef	-0.027977435
49	0xbaccf8b7	-0.0015638088
50	0x3d1574c6	0.036488317
51	0xbc73ce22	-0.014880689
52	0x3bd3ed8e	0.0064675277
53	0x3d079d55	0.033109028
54	0x3d0cd75e	0.034385078
55	0xbc0cf635	-0.008603622
56	0x3c8d785a	0.017269302
57	0xbca5857c	-0.020205252
58	0xbc649196	-0.013950726
59	0xbcd93625	-0.026515076
60	0x3c550d2b	0.013003628
61	0xbcecbb3d	-0.028897876
62	0xbc84e3db	-0.016221931
63	0xbc6d9ee1	-0.014503212
64	0x3b9a68b4	0.0047121886
65	0x3baee449	0.0053372723
66	0xbbde2b25	-0.0067800456
67	0xbcdf32c4	-0.027245887
68	0xbba1c8d7	-0.004937272
69	0x3c8e03cb	0.017335793
70	0x3c4ecf1d	0.012622622
71	0xbc8ca6f3	-0.017169451
72	0xbbb54c96	-0.0055328114
73	0xbd033fd6	-0.0320433
74	0x3c9bab2c	0.01900252
75	0xbd00eb31	-0.031474296
76	0xbcb30a2f	-0.021855442
77	0xbd5e160d	-0.054220248
78	0xbd4b6c54	-0.049663857
79	0xbcd1d662	-0.025614921
80	0xbc2d0ec8	-0.010562606
81	0x3cbfe41e	0.023424204
82	0x3cac624c	0.021042965
83	0xbc4e50d8	-0.012592517
84	0x3ceaa09b	0.028641036
85	0xbb9aea25	-0.0047276192
86	0xbc96874f	-0.018375067
87	0x3c84e9d3	0.016224777
88	0xbba87595	-0.00514097
89	0x3d063730	0.032767475
90	0x3c35089a	0.011049414
91	0x3c48fff9	0.01226806
92	0xbcb5582f	-0.022136776
93	0xbc00c705	-0.00785995
94	0x3d1feb1c	0.039042577
95	0x3d483edd	0.048888076
96	0x3cd5c3c2	0.026094321
97	0x3bc32748	0.0059556104
98	0x3d1af98a	0.037835635
99	0x3da8c3a9	0.08240444
100	0xbd9d5ff9	-0.07684321
101	0xbd1ff42d	-0.039051224
102	0xbcbe569a	-0.023234654
103	0xbc4caf18	-0.0124929175
104	0xbd8b769d	-0.06809733
105	0xbb420ff2	-0.0029611555
106	0xbb981ba8	-0.0046419688
107	0x3d1e3fd1	0.03863508
108	0xbca34971	-0.01993248
109	0xbc963bb2	-0.018339012
110	0xbcddee3c	-0.027091138
111	0xbb79ab93	-0.003809665
112	0x3c8f3b7f	0.017484425
113	0xbad14154	-0.0015964904
114	0x3c51faf8	0.012816183
115	0xbcbe0c9b	-0.02319937
116	0x3ca24555	0.01980845
117	0xbc104fd3	-0.008808094
118	0xbc53df17	-0.012931607
119	0x3c04b111	0.008098857
120	0xbc638d4b	-0.013888667
121	0x3d110644	0.035406366
122	0x3cf61d33	0.03004322
123	0x3b9dc9bd	0.004815309
124	0x3c41598d	0.011801136
125	0xbde2adce	-0.11068307
126	0xbda7a310	-0.081853986
127	0xbd350ac5	-0.044199724
128	0xbd6b241c	-0.057407483
129	0xbd8564bd	-0.06513355
130	0xbd0c9781	-0.034324173
131	0xbd073cd7	-0.033017006
132	0xbd088031	-0.033325378
133	0xbd05e5f7	-0.032690015
134	0xbd0472b3	-0.03233595
135	0xbda7e20c	-0.08197412
136	0xbca87224	-0.020562239
137	0xbd6e95ee	-0.058248453
138	0x3b2424df	0.002504639
139	0xbd8cb72c	-0.06870875
140	0xbd649ed5	-0.055815537
141	0xbbf13289	-0.0073607606
142	0xbd0c1a31	-0.034204666
143	0xbd0f6969	-0.035012636
144	0xbc781893	-0.015142578
145	0xbda3def3	-0.080015086
146	0xbd5b8388	-0.053592235
147	0xbd3c2b2e	-0.045939617
148	0xbc5c3ae1	-0.013441772
149	0xbd18f382	-0.037341602
150	0x3d2ac36c	0.041690275
151	0xbbf0110b	-0.0073262504
152	0xbbc9b396	-0.0061554415
153	0x3d17c928	0.037057072
154	0x3cf478f5	0.029842833
155	0xbc1d20dd	-0.009590355
156	0xbb31ca72	-0.0027128723
157	0xbc41ef71	-0.011836872
158	0x3ae2887b	0.0017283106
159	0x3d074e48	0.03303364
160	0xbceada61	-0.028668584
161	0x3be812e5	0.0070823305
162	0xbb486c5d	-0.0030582168
163	0xbbf635a1	-0.0075137173
164	0x3c27472a	0.010209838
165	0x3ce1861e	0.027529772
166	0xbc93a3d3	-0.018022453
167	0xbc090d20	-0.008364946
168	0x3b8a0e7d	0.004213153
169	0x3c2d1f3c	0.010566529
170	0x3c828b4d	0.015935564
171	0x3cefb746	0.029262196
172	0x3c7006ea	0.014650086
173	0x3cc8e52c	0.02452334
174	0x3bea0828	0.0071420856
175	0x3d99b960	0.075060606
176	0x3d8ec57f	0.06971263
177	0x3cb0a280	0.021561861
178	0x3bfcdcf9	0.0077167717
179	0x3d2794d6	0.040913425
180	0x3da59ae2	0.08086182
181	0x3ca6d721	0.020366253
182	0x3cba51b2	0.022744033
183	0x3c8bf54b	0.017084738
184	0x3cfffb32	0.031247709
185	0x3d8053b6	0.062659666
186	0xbc1d382a	-0.00959591
187	0x3d15e3c6	0.036594175
188	0xbc2fbadb	-0.010725702
189	0xbb5b763f	-0.0033487228
190	0x3d0249bd	0.031808604
191	0x3d01396f	0.031548914
192	0x3d070bd5	0.03297027
193	0x3b670f81	0.0035257044
194	0x3c4a834b	0.012360404
195	0x3ccad74e	0.024760868
196	0x3cb8584b	0.022503039
197	0x3c9bbe02	0.019011501
198	0x3b9ee4a1	0.004849032
199	0x3d2df391	0.04246861
200	0x3d3813b1	0.044940654
201	0x3d2b9833	0.041893195
202	0x3d448200	0.04797554
203	0x3d1307b1	0.035896007
204	0x3d9749a8	0.07387096
205	0xba96db80	-0.0011509508
206	0x3d20cf14	0.039259985
207	0x3b25721f	0.0025245023
208	0x3cc81ac6	0.02442683
209	0x3d69b44d	0.057056714
210	0x3c94b5ab	0.018153032
211	0x3cc6cb70	0.024266928
212	0x3d2dbe0c	0.04241757
213	0x3bb4961a	0.0055110576
214	0x3ca24883	0.019809967
215	0x3cb1d2fe	0.021707054
216	0x3c3abfd9	0.011398279
217	0x3cdc6b66	0.02690668
218	0x3ca6258f	0.020281581
219	0x3c00a581	0.007851959
220	0x3ceea60c	0.029131912
221	0x3c574e89	0.013141283
222	0x3cf8892f	0.030338852
223	0xbc751c68	-0.014960386
224	0x3cc2a654	0.023760952
225	0x3d2fa349	0.04288033
226	0x3ceb3646	0.028712403
227	0x3ccdf578	0.025141463
228	0x3d4deacb	0.050272744
229	0x3d1dd6be	0.038534872
230	0x3d314395	0.043277342
231	0x3cd3a267	0.025834275
232	0x3c26deff	0.010185002
233	0x3cbf99ce	0.02338877
234	0x3d1c0f73	0.03810067
235	0x38e822b2	0.000110690846
236	0x3956a69b	0.00020470696
237	0x3c91e9a1	0.017811598
238	0x3d12cf7c	0.035842404
239	0x3cce1fb2	0.025161598
240	0x3d0f50a8	0.03498903
241	0x3d30e4f5	0.0431871
242	0x3cd55a0e	0.026043918
243	0x3bc84185	0.006111326
244	0x3d361f9f	0.04446375
245	0x3d53fc41	0.05175424
246	0x3d636c3a	0.055523135
247	0x3d275cad	0.040859867
248	0x3d1f58fa	0.038903214
249	0x3d965278	0.073399484
250	0x3ce3132e	0.027719107
251	0xbbab2ec8	-0.0052240826
252	0x3c75b995	0.0149978595
253	0xbb6f4d48	-0.003651457
254	0x3d2af45f	0.041736957
255	0x3b057a02	0.0020366912

exp_avg f4 [64, 1, 9, 9]
0	0x390e1df3	0.00013553332
1	0x39165e31	0.00014340204
2	0x3927ae4f	0.00015991296
3	0x392c5a4a	0.00016436834
4	0x39423022	0.00018519213
5	0x393ca822	0.00017991712
6	0x392bcfe3	0.00016385275
7	0x3915f7db	0.0001430208
8	0x38dbada0	0.00010475074
9	0x3941c58f	0.0001847951
10	0x39388291	0.00017596247
11	0x39548028	0.00020265637
12	0x396ace72	0.00022392886
13	0x396ff8a2	0.00022885439
14	0x3975176e	0.00023373749
15	0x3951ff54	0.0002002691
16	0x39272eff	0.00015943868
17	0x38ccdc30	9.768491e-05
18	0x39547176	0.00020260163
19	0x396caa86	0.00022570239
20	0x3985b9e7	0.00025506245
21	0x39920e36	0.00027857878
22	0x39a010c3	0.00030530067
23	0x39862e5b	0.0002559301
24	0x395c0304	0.00020981958
25	0x391fe636	0.00015249182
26	0x38dbc68f	0.00010479718
27	0x395a502f	0.00020819971
28	0x3975e1e8	0.00023449177
29	0x3981237a	0.0002463123
30	0x399cd211	0.0002991115
31	0x399fc331	0.00030472272
32	0x39949ee9	0.00028347157
33	0x394a8286	0.00019312845
34	0x38d09324	9.94562e-05
35	0x38b0de65	8.433758e-05
36	0x397ff509	0.00024409978
37	0x39826fc8	0.00024878816
38	0x3983fd65	0.0002517506
39	0x3992c210	0.00027991878
40	0x399d44ff	0.0002999678
41	0x398522cd	0.00025393665
42	0x39235a8a	0.0001557862
43	0x38c30f2c	9.3011506e-05
44	0x387a1537	5.9624403e-05
45	0x3978c1b2	0.0002372328
46	0x396e2f69	0.0002271511
47	0x396a27b8	0.00022330775
48	0x39732a49	0.00023190038
49	0x39852141	0.00025392513
50	0x3957c162	0.00020576039
51	0x38f176a6	0.000115138755
52	0x386eb860	5.6915334e-05
53	0x37233fcd	9.730412e-06
54	0x397e175f	0.00024232034
55	0x39421f2a	0.00018512891
56	0x392925e3	0.0001613121
57	0x391fb406	0.00015230486
58	0x3940be3e	0.00018381418
59	0x392afd5f	0.00016306851
60	0x38f6940a	0.000117577685
61	0x380c9946	3.3521348e-05
62	0x37bacd3f	2.2268503e-05
63	0x397593a5	0.00023420023
64	0x39315cce	0.00016914608
65	0x38d9df90	0.00010389008
66	0x38bd3e11	9.023783e-05
67	0x38db3484	0.000104525156
68	0x390b7f27	0.00013303441
69	0x38ec73ba	0.00011274913
70	0x388e0297	6.77157e-05
71	0x3881300a	6.160147e-05
72	0x394e8213	0.00019694147
73	0x390035e0	0.00012227101
74	0x386909d8	5.5560697e-05
75	0x3821e266	3.859624e-05
76	0x38a0aea7	7.661926e-05
77	0x38e2b076	0.00010809388
78	0x38e48019	0.00010895747
79	0x38c49ff6	9.375803e-05
80	0x38f2229e	0.00011545907
81	0x3a53957b	0.00080712856
82	0x3a6b38bf	0.00089729944
83	0x3a79d4f5	0.0009530329
84	0x3a86e90f	0.0010292846
85	0x3a8ab325	0.0010581954
86	0x3a82e087	0.0009985127
87	0x3a71a921	0.00092186226
88	0x3a6c5c9a	0.0009016484
89	0x3a5dd89b	0.00084627577
90	0x3a6599ab	0.0008758555
91	0x3a773a5e	0.00094309996
92	0x3a8c520e	0.0010705607
93	0x3a94cf79	0.0011353336
94	0x3a9c113f	0.0011906995
95	0x3a8f4ce8	0.0010932954
96	0x3a8345fa	0.0010015361
97	0x3a71762a	0.0009211028
98	0x3a691e4d	0.000889276
99	0x3a69a986	0.00089135056
100	0x3a812d77	0.0009855469
101	0x3a93450b	0.0011235786
102	0x3aa38570	0.001247568
103	0x3aa53a43	0.0012605864
104	0x3a9684ed	0.0011483707
105	0x3a88945a	0.0010420189
106	0x3a700297	0.00091556594
107	0x3a612b99	0.00085895654
108	0x3a607b3c	0.0008563285
109	0x3a80aeb8	0.0009817695
110	0x3a9270c4	0.0011172523
111	0x3aaa5209	0.0012994419
112	0x3aa6ab9f	0.0012715942
113	0x3a95055d	0.0011369396
114	0x3a8286b8	0.0009958362
115	0x3a6ebae1	0.00091068266
116	0x3a5d5ffe	0.0008444785
117	0x3a5e5e3e	0.0008482671
118	0x3a77a5a9	0.00094469875
119	0x3a875e68	0.0010327818
120	0x3a9ca54a	0.0011951115
121	0x3aa55be8	0.0012615891
122	0x3a944264	0.001131129
123	0x3a848601	0.0010110737
124	0x3a79d664	0.0009530543
125	0x3a5b8676	0.0008374223
126	0x3a63c89e	0.0008689257
127	0x3a6dbfbe	0.00090694043
128	0x3a841a12	0.001007857
129	0x3a8cd734	0.0010745288
130	0x3a8fcbb6	0.0010970745
131	0x3a8c2494	0.0010692053
132	0x3a7592fa	0.00093679095
133	0x3a608d4f	0.00085659785
134	0x3a502fa2	0.0007941668
135	0x3a5dea9c	0.00084654405
136	0x3a6b37de	0.00089728634
137	0x3a74850c	0.0009327687
138	0x3a839671	0.0010039342
139	0x3a827449	0.0009952869
140	0x3a7c0221	0.00096133543
141	0x3a6c2fdc	0.0009009817
142	0x3a6403fc	0.00086981035
143	0x3a431ea2	0.00074432243
144	0x3a51bebe	0.000800114
145	0x3a60e7fe	0.00085794914
146	0x3a5f621f	0.0008521396
147	0x3a6677fb	0.0008791682
148	0x3a73c8e8	0.0009299652
149	0x3a671a3c	0.000881586
150	0x3a5deae5	0.0008465483
151	0x3a586ac0	0.0008255653
152	0x3a42b539	0.0007427517
153	0x3a59af01	0.00083039707
154	0x3a5d9dc8	0.0008453992
155	0x3a58799f	0.0008257869
156	0x3a5bbab2	0.0008382007
157	0x3a5afdcb	0.0008353858
158	0x3a530209	0.00080493145
159	0x3a52eab4	0.0008045838
160	0x3a4fa504	0.00079210126
161	0x3a447e12	0.00074955926
162	0x3afcb0e1	0.0019278788
163	0x3afdce7a	0.0019363903
164	0x3b037f34	0.0020064833
165	0x3b0991fd	0.0020991557
166	0x3b10e15f	0.0022106988
167	0x3b16eeb8	0.002303047
168	0x3b195571	0.0023396874
169	0x3b18efde	0.0023336331
170	0x3b170d69	0.0023048765
171	0x3af46f91	0.0018648972
172	0x3af76cb6	0.0018877003
173	0x3b01098c	0.0019689528
174	0x3b0a5aab	0.0021111171
175	0x3b1317b7	0.0022444555
176	0x3b19283a	0.0023369924
177	0x3b1fc60c	0.002437952
178	0x3b1f4be6	0.0024306714
179	0x3b1f83f0	0.0024340115
180	0x3aede175	0.0018148856
181	0x3af29380	0.0018507093
182	0x3b01baff	0.0019795296
183	0x3b086a85	0.0020815444
184	0x3b139c75	0.0022523676
185	0x3b1d8b37	0.0024039277
186	0x3b259b85	0.0025269699
187	0x3b2582b3	0.0025254905
188	0x3b25f180	0.0025320947
189	0x3aec1ff9	0.00180149
190	0x3af232fd	0.001847833
191	0x3afef376	0.0019451219
192	0x3b096e24	0.002097019
193	0x3b16d58b	0.0023015465
194	0x3b229c4d	0.00248124
195	0x3b2a4945	0.0025983613
196	0x3b2c9209	0.002633216
197	0x3b301893	0.0026870116
198	0x3af1ca37	0.0018447106
199	0x3af69c09	0.0018814813
200	0x3b05bd6a	0.002040709
201	0x3b1003a8	0.0021974836
202	0x3b1fe3f3	0.0024397343
203	0x3b28972d	0.0025724873
204	0x3b3313f9	0.0027325137
205	0x3b35d7ee	0.0027747112
206	0x3b361426	0.0027783005
207	0x3afc21da	0.0019236163
208	0x3b049a0c	0.002023342
209	0x3b0e853b	0.0021746892
210	0x3b1beeb7	0.0023793408
211	0x3b2b3fcf	0.0026130562
212	0x3b324331	0.0027200694
213	0x3b3bc759	0.0028652756
214	0x3b3b748c	0.0028603403
215	0x3b395c83	0.00282839
216	0x3b08619b	0.002081013
217	0x3b10c463	0.0022089712
218	0x3b1ad044	0.002362267
219	0x3b27c1f8	0.0025597792
220	0x3b3515b3	0.0027631342
221	0x3b3b40f3	0.0028572648
222	0x3b3ea8bd	0.0029092275
223	0x3b3e27fc	0.0029015532
224	0x3b3a4c6f	0.0028426906
225	0x3b110fba	0.0022134618
226	0x3b1aaa12	0.0023599905
227	0x3b264172	0.0025368598
228	0x3b304cdb	0.0026901278
229	0x3b3ae9bd	0.0028520667
230	0x3b3ec778	0.0029110592
231	0x3b40bf3d	0.0029410862
232	0x3b3e6905	0.0029054296
233	0x3b373def	0.00279605
234	0x3b188508	0.0023272652
235	0x3b21fbe8	0.0024716798
236	0x3b2b0747	0.0026096867
237	0x3b333594	0.0027345167
238	0x3b38520f	0.0028125083
239	0x3b3b667f	0.0028595028
240	0x3b3a8844	0.0028462568
241	0x3b38f800	0.0028223991
242	0x3b340030	0.0027465932
243	0xbb46bca8	-0.003032485
244	0xbb40f293	-0.002944146
245	0xbb47a6f6	-0.0030464507
246	0xbb44e1a2	-0.0030041714
247	0xbb3df564	-0.0028985376
248	0xbb37a8fe	-0.0028024311
249	0xbb38400e	-0.0028114351
250	0xbb33bfff	-0.002742767
251	0xbb33607b	-0.002737074
252	0xbb44c749	-0.003002601
253	0xbb418e8d	-0.002953443
254	0xbb40c6a3	-0.0029415272
255	0xbb41e463	-0.0029585592

exp_avg_sq f4 [64, 1, 9, 9]
0	0x376f3ed3	1.42601375e-05
1	0x37644df7	1.3608012e-05
2	0x37597057	1.2960364e-05
3	0x374bf09c	1.2155764e-05
4	0x374c6ca5	1.2184643e-05
5	0x374e50d8	1.229738e-05
6	0x3751b858	1.2500292e-05
7	0x375fc3ed	1.3337453e-05
8	0x376a5a58	1.3968522e-05
9	0x377a6259	1.49240595e-05
10	0x37716bc4	1.43898105e-05
11	0x3768c8da	1.3875042e-05
12	0x375beecc	1.3109016e-05
13	0x37555714	1.2716064e-05
14	0x3756c868	1.2802055e-05
15	0x3756a18d	1.2793008e-05
16	0x375799b3	1.28507845e-05
17	0x376324b9	1.35388045e-05
18	0x37872fad	1.6115455e-05
19	0x37852222	1.587073e-05
20	0x37824c94	1.5532867e-05
21	0x377bdf88	1.5012811e-05
22	0x3770872a	1.4336585e-05
23	0x37661a77	1.371523e-05
24	0x375e7878	1.326028e-05
25	0x375a796e	1.3022085e-05
26	0x375ed1ec	1.3281107e-05
27	0x3793d996	1.7625087e-05
28	0x379b1885	1.8488858e-05
29	0x3797d768	1.8100909e-05
30	0x378eaa3e	1.7006994e-05
31	0x37877a06	1.6150076e-05
32	0x37796872	1.4865875e-05
33	0x376b3969	1.4020458e-05
34	0x375cefbd	1.316884e-05
35	0x375e41cc	1.3247551e-05
36	0x37a5d6c0	1.9769534e-05
37	0x37abd783	2.0485144e-05
38	0x37b08341	2.1041955e-05
39	0x37a6e32e	1.989453e-05
40	0x37961386	1.7890485e-05
41	0x3786ac0b	1.6054159e-05
42	0x3770c4a1	1.4350896e-05
43	0x375fcbd8	1.3339297e-05
44	0x375c6a17	1.3137723e-05
45	0x37b47520	2.1512213e-05
46	0x37bc9f10	2.2485416e-05
47	0x37c2a605	2.3203911e-05
48	0x37b404bf	2.1459882e-05
49	0x37a6d0bd	1.9885943e-05
50	0x37919d32	1.7358547e-05
51	0x3780915b	1.5326475e-05
52	0x3767afaf	1.38095775e-05
53	0x375f393d	1.3305163e-05
54	0x37ba93c1	2.2241731e-05
55	0x37c7360e	2.374782e-05
56	0x37c714bf	2.373231e-05
57	0x37bb49ad	2.2326445e-05
58	0x37acda98	2.0605788e-05
59	0x3794eb52	1.7752554e-05
60	0x37856425	1.5901469e-05
61	0x37736e01	1.4509541e-05
62	0x37694056	1.3902862e-05
63	0x37b621ff	2.1711921e-05
64	0x37be85ca	2.2712065e-05
65	0x37be2469	2.266672e-05
66	0x37b667c1	2.1744405e-05
67	0x37a504ff	1.967186e-05
68	0x3797e140	1.8105493e-05
69	0x3786d3b0	1.607262e-05
70	0x377f9097	1.5232849e-05
71	0x3773cceb	1.453164e-05
72	0x37ad982d	2.069407e-05
73	0x37acca26	2.059813e-05
74	0x37ae0e15	2.0748974e-05
75	0x37a864c7	2.0074089e-05
76	0x37a2c76c	1.9404768e-05
77	0x37953424	1.7786464e-05
78	0x378b77e4	1.662592e-05
79	0x37865941	1.6015607e-05
80	0x37802e18	1.5280253e-05
81	0x3752bc2f	1.256079e-05
82	0x3765b26d	1.3691007e-05
83	0x3777377b	1.4735265e-05
84	0x3786a3ba	1.6050286e-05
85	0x378cfc4b	1.6806784e-05
86	0x377ed943	1.5190165e-05
87	0x37654336	1.3665112e-05
88	0x376d262e	1.413519e-05
89	0x375c7513	1.314028e-05
90	0x375f0d86	1.32949845e-05
91	0x3770b0b7	1.4346259e-05
92	0x378da4f6	1.6885326e-05
93	0x378e3be5	1.695561e-05
94	0x379e92fc	1.8903513e-05
95	0x3793c69a	1.7616247e-05
96	0x37855c2a	1.5897753e-05
97	0x37712391	1.4373e-05
98	0x376b29a1	1.4016784e-05
99	0x37659e6e	1.3686351e-05
100	0x377dd379	1.5129212e-05
101	0x378f1bb7	1.7059834e-05
102	0x37ab7028	2.0437015e-05
103	0x37acfd64	2.0621992e-05
104	0x37925b08	1.7446946e-05
105	0x37861032	1.5981586e-05
106	0x376620f9	1.3716745e-05
107	0x375f566a	1.3311956e-05
108	0x3765fb6b	1.37080015e-05
109	0x3778a319	1.4819926e-05
110	0x37867510	1.6028556e-05
111	0x37abffff	2.0503996e-05
112	0x37aa1225	2.0274028e-05
113	0x3791299a	1.730472e-05
114	0x377f9e41	1.5236031e-05
115	0x376ddefa	1.4178217e-05
116	0x3758e390	1.2927587e-05
117	0x375a083c	1.299573e-05
118	0x376c5472	1.4086358e-05
119	0x3780df26	1.53627e-05
120	0x379da7d0	1.8794002e-05
121	0x37ab74e3	2.0439218e-05
122	0x37951914	1.7773862e-05
123	0x37831c49	1.5629588e-05
124	0x378023e8	1.527551e-05
125	0x3758169d	1.2879868e-05
126	0x375a5639	1.3013888e-05
127	0x375f1249	1.3296093e-05
128	0x37819764	1.5448495e-05
129	0x37825f92	1.5541711e-05
130	0x378730f5	1.6116051e-05
131	0x378e85c0	1.6990001e-05
132	0x3779f2bb	1.4898072e-05
133	0x3764a625	1.3628543e-05
134	0x375f6051	1.3314261e-05
135	0x375595b3	1.2730644e-05
136	0x376af65a	1.4004845e-05
137	0x376de0ab	1.417861e-05
138	0x37787a51	1.4810431e-05
139	0x3778f0c0	1.4838006e-05
140	0x37823572	1.5522095e-05
141	0x377b6b46	1.4985742e-05
142	0x376edf0c	1.4237838e-05
143	0x375b216c	1.3061199e-05
144	0x374b9b4c	1.2135901e-05
145	0x375d56c3	1.3192827e-05
146	0x37591c49	1.2940794e-05
147	0x375b0f99	1.3057049e-05
148	0x3772617d	1.4447022e-05
149	0x376ba95d	1.40465245e-05
150	0x37659172	1.3683328e-05
151	0x3766eeed	1.37646975e-05
152	0x375645ef	1.2771677e-05
153	0x3753cbca	1.2624028e-05
154	0x37550385	1.2696609e-05
155	0x375fe86f	1.3345953e-05
156	0x375d27ad	1.3181864e-05
157	0x3754a257	1.2673982e-05
158	0x374eb287	1.23201235e-05
159	0x375c4eb0	1.3131343e-05
160	0x37598af7	1.2966563e-05
161	0x37591b1f	1.29405225e-05
162	0x392f3bbb	0.00016711552
163	0x39337448	0.00017114088
164	0x39355dfd	0.00017296518
165	0x393091e5	0.00016839018
166	0x3928703a	0.00016063536
167	0x39224960	0.00015476858
168	0x391e8bac	0.00015120086
169	0x391ced89	0.00014965808
170	0x391d6839	0.00015011513
171	0x39369d2b	0.00017415422
172	0x393d5016	0.00018054279
173	0x393ee621	0.00018205542
174	0x39369d4d	0.00017415472
175	0x392b9271	0.00016362384
176	0x39232e17	0.00015562061
177	0x3921f547	0.0001544553
178	0x392283d4	0.00015498634
179	0x3922973a	0.0001550586
180	0x393c6b47	0.00017969041
181	0x39449354	0.000187469
182	0x3942cb38	0.00018576987
183	0x3937b490	0.00017519505
184	0x392aed3a	0.00016300837
185	0x3922a9a5	0.00015512721
186	0x3924d27a	0.00015718667
187	0x3928153a	0.00016029636
188	0x3928a10d	0.00016081725
189	0x393ca558	0.00017990672
190	0x3942463e	0.00018527449
191	0x393ea3da	0.00018180851
192	0x3930ffe0	0.00016879989
193	0x3924ec8c	0.0001572838
194	0x3923063a	0.00015547211
195	0x392b8b55	0.00016359736
196	0x3931fc56	0.00016974038
197	0x39315c08	0.0001691432
198	0x3936eab2	0.00017444303
199	0x39395b24	0.00017676927
200	0x3931b2f2	0.00016946698
201	0x39249b91	0.00015698212
202	0x391e7c69	0.000151144
203	0x39252a0f	0.00015751294
204	0x39337f2c	0.00017118145
205	0x393d637f	0.0001806151
206	0x393b02f4	0.0001783481
207	0x392bbe83	0.00016378802
208	0x392a7185	0.00016254753
209	0x3921cb33	0.00015429854
210	0x39191add	0.00014601224
211	0x391bb2ce	0.00014848562
212	0x3926a9f0	0.000158943
213	0x393ad1b2	0.0001781646
214	0x394022ad	0.00018323465
215	0x393de43f	0.00018109473
216	0x391f2e6d	0.00015180717
217	0x391bfbaf	0.00014875711
218	0x3915eebd	0.00014298684
219	0x391449b8	0.00014141842
220	0x391bca7f	0.00014857388
221	0x392cf25d	0.00016493486
222	0x3939aa4b	0.00017706414
223	0x3941fc00	0.00018499792
224	0x393d7437	0.00018067738
225	0x39160f8c	0.00014310906
226	0x391392e5	0.00014073735
227	0x3910bb4f	0.00013802688
228	0x3911b73f	0.00013896542
229	0x391d378a	0.00014993377
230	0x392c3c90	0.0001642576
231	0x3937d1f0	0.00017530448
232	0x393b6ed4	0.00017874996
233	0x393addc0	0.0001782095
234	0x39123b65	0.00013945771
235	0x39113491	0.0001384786
236	0x390ff95a	0.00013730433
237	0x391347ac	0.00014045712
238	0x391b35fa	0.0001480206
239	0x39249e9e	0.00015699348
240	0x39312a27	0.00016895738
241	0x3933a0be	0.00017130651
242	0x392f83bf	0.0001673838
243	0x3945a497	0.00018848699
244	0x3939b021	0.00017708588
245	0x394a1c21	0.000192747
246	0x394f5e9d	0.00019776305
247	0x394c164b	0.00019463261
248	0x3941b7c9	0.0001847438
249	0x393ccdc7	0.00018005735
250	0x393e1ff0	0.0001813171
251	0x3934fbd2	0.00017259948
252	0x394218a7	0.00018510465
253	0x39418379	0.00018454892
254	0x39485129	0.00019103721
255	0x395583de	0.00020362387

exp_avg f4 [64]
0	0xba083ba0	-0.0005196873
1	0x3b7209d8	0.0036932137
2	0x3ba019f1	0.004885905
3	0xbc2badd2	-0.010478454
4	0xbbeb97b6	-0.007189716
5	0x3b91b9ba	0.004447189
6	0xbb1b482d	-0.0023694143
7	0x3ae265c6	0.0017272762
8	0xbc082fcb	-0.008312176
9	0xbadadc36	-0.0016697708
10	0xbbe3ce0d	-0.0069520534
11	0xbb479124	-0.00304515
12	0xbb974e60	-0.0046174973
13	0xbad96f33	-0.0016588926
14	0xbb65d69c	-0.0035070544
15	0xbc3cb938	-0.011518769
16	0x39f8aa1e	0.00047428993
17	0xbb2f320e	-0.0026732716
18	0x3999c7e6	0.0002933137
19	0xbbf33e2b	-0.0074231825
20	0x80000004	-6e-45
21	0xbc06ba42	-0.008223118
22	0xbb4c0570	-0.003113117
23	0xbb83785b	-0.00401215
24	0x38476799	4.754178e-05
25	0xbab78bf7	-0.0014003505
26	0xbbad32f7	-0.0052856165
27	0xbc44ab64	-0.012003753
28	0xbbac9e5f	-0.0052679027
29	0xbb89ddc0	-0.004207343
30	0xbb2c6be6	-0.002630943
31	0xbb84aeca	-0.004049157
32	0xbc886825	-0.016651222
33	0xbba00471	-0.004883342
34	0x3b4a1b36	0.0030838973
35	0x3af2edb9	0.0018533982
36	0xbbb70570	-0.005585365
37	0xbb38aed1	-0.002818037
38	0x3bc6f8ef	0.0060721557
39	0x3b81dede	0.0039633354
40	0xbb16729d	-0.0022956498
41	0x3a9a253e	0.0011760367
42	0x3b8c27a2	0.0042771855
43	0xbc01ba0a	-0.00791789
44	0x3b4491ef	0.002999421
45	0x38145cab	3.5372253e-05
46	0xbb224448	-0.0024759937
47	0x3ba2725a	0.0049574794
48	0x3ace4cbd	0.0015739423
49	0x3a0798e0	0.00051726215
50	0xbaa9386e	-0.0012910494
51	0xbba0440c	-0.0048909243
52	0x39f1b8fd	0.0004610493
53	0xbba47d99	-0.005019855
54	0xbb2a61ac	-0.0025998158
55	0x399bf821	0.00029748774
56	0x3b23fee3	0.002502375
57	0x3beb7e5d	0.0071866945
58	0x39bad596	0.00035635818
59	0x3ac296d6	0.0014845978
60	0xbb5c0312	-0.0033571166
61	0x3afc429d	0.0019245927
62	0xbc17edd5	-0.009273012
63	0xbb0c8abb	-0.0021444994

exp_avg_sq f4 [64]
0	0x39131cc8	0.00014029734
1	0x3975584c	0.00023397914
2	0x3ab274e8	0.0013615163
3	0x3b17f12c	0.002318452
4	0x3c0806a7	0.008302367
5	0x3af48fad	0.0018658541
6	0x3b0d88e0	0.0021596476
7	0x3b5c762f	0.003363978
8	0x3aa90abf	0.0012896879
9	0x36de64b3	6.6278385e-06
10	0x3a28ac1a	0.00064343365
11	0x3aacb06c	0.0013175136
12	0x39049b47	0.00012646346
13	0x3b364bac	0.00278161
14	0x399e9cc0	0.00030252896
15	0x3c83eb7d	0.0161035
16	0x3b3ed75e	0.0029120068
17	0x3cdea950	0.027180344
18	0x3a332277	0.0006833444
19	0x3c938325	0.01800687
20	0x000001f4	7e-43
21	0x3b470e3c	0.0030373475
22	0x3aac8c9f	0.0013164467
23	0x3a1c81d6	0.0005970275
24	0x3b51b214	0.0031997012
25	0x39ac4ff7	0.00032865975
26	0x3a63eaba	0.000869434
27	0x3ab6fa3f	0.0013960077
28	0x3b51efa2	0.0032033701
29	0x3c8d14f1	0.0172219
30	0x3a894366	0.0010472357
31	0x3a975457	0.0011545521
32	0x3b96ac23	0.004598157
33	0x39f8bc4f	0.00047442547
34	0x39fbf4ba	0.00048056786
35	0x3b3b1f4f	0.0028552597
36	0x3c7d9c09	0.015479096
37	0x394fc937	0.00019816017
38	0x3a624d90	0.00086327735
39	0x39c02e1f	0.00036655457
40	0x3b685ae7	0.0035454573
41	0x3b2eaf15	0.002665465
42	0x38b95308	8.836953e-05
43	0x3aee1dbd	0.0018166822
44	0x38ed7b45	0.000113240014
45	0x3bb6f5aa	0.0055834847
46	0x3c3c79ee	0.01150368
47	0x39f06ea2	0.00045858795
48	0x3a8ca089	0.0010728996
49	0x383fdf55	4.5745943e-05
50	0x3c7d9590	0.015477553
51	0x3cb46d1c	0.022024684
52	0x399b9365	0.0002967372
53	0x3a11638a	0.00055461435
54	0x39c1d2bb	0.00036968835
55	0x3a7a1fe3	0.00095414947
56	0x39c66ebc	0.00037848006
57	0x39e32deb	0.00043331026
58	0x3a9891ef	0.0011640171
59	0x384331ed	4.653812e-05
60	0x3b18c074	0.002330807
61	0x37ba49ab	2.2207232e-05
62	0x3a80d2fe	0.0009828506
63	0x3b8c1bb0	0.0042757615

exp_avg f4 [32, 64, 5, 5]
0	0xb8833378	-6.2561536e-05
1	0xb89de871	-7.529639e-05
2	0xb866a91e	-5.4993776e-05
3	0xb86b27c2	-5.6065393e-05
4	0xb86ea6b4	-5.6898876e-05
5	0xb892d0e6	-7.000733e-05
6	0xb89d5c3f	-7.5035256e-05
7	0xb890424d	-6.8788046e-05
8	0xb88e005e	-6.771156e-05
9	0xb8912496	-6.9209535e-05
10	0xb88f0b26	-6.820848e-05
11	0xb88e8bee	-6.7971516e-05
12	0xb887c25d	-6.4735046e-05
13	0xb88af0da	-6.625215e-05
14	0xb89e9940	-7.562572e-05
15	0xb871625f	-5.7550493e-05
16	0xb8849b86	-6.323219e-05
17	0xb8840933	-6.295964e-05
18	0xb89eebdf	-7.5779615e-05
19	0xb8a582d2	-7.89218e-05
20	0xb8852b90	-6.350048e-05
21	0xb89ea5b9	-7.564895e-05
22	0xb89a023c	-7.3437084e-05
23	0xb8a909cb	-8.060372e-05
24	0xb8b0ab3a	-8.4242274e-05
25	0xb70dcfe5	-8.452659e-06
26	0xb75daf54	-1.3213448e-05
27	0xb77b312e	-1.4972216e-05
28	0xb782ae61	-1.557841e-05
29	0xb77ad883	-1.4951572e-05
30	0xb799abbe	-1.8318995e-05
31	0xb7810137	-1.5378564e-05
32	0xb7b57124	-2.1629567e-05
33	0xb7a21c3d	-1.9325054e-05
34	0xb787bc8b	-1.6181051e-05
35	0xb7a81f9a	-2.0041876e-05
36	0xb7b8c0a9	-2.2024224e-05
37	0xb7c831c6	-2.3865035e-05
38	0xb7b32422	-2.1355288e-05
39	0xb79de461	-1.8822206e-05
40	0xb7b28ff1	-2.1286281e-05
41	0xb7d8706a	-2.5801553e-05
42	0xb7e2dfb2	-2.7045466e-05
43	0xb7bf7e95	-2.2827919e-05
44	0xb7af7a03	-2.0918442e-05
45	0xb7e03e80	-2.6731985e-05
46	0xb7e3583a	-2.7101592e-05
47	0xb7c5ef01	-2.3595525e-05
48	0xb7be67db	-2.2698126e-05
49	0xb7bc501c	-2.244865e-05
50	0xb8eb4037	-0.00011217634
51	0xb8d685db	-0.00010229248
52	0xb8f348a1	-0.00011600671
53	0xb8ea4a4b	-0.00011171828
54	0xb8f1cc86	-0.00011529871
55	0xb90aef42	-0.00013249836
56	0xb8faa097	-0.00011950841
57	0xb900f6bd	-0.00012298948
58	0xb9067888	-0.00012824137
59	0xb8ff3ae5	-0.000121703175
60	0xb8f51831	-0.000116870164
61	0xb8d43b35	-0.00010119976
62	0xb8e62f33	-0.00010976046
63	0xb8dec31d	-0.000106221276
64	0xb8f33adc	-0.00011598106
65	0xb8e2da09	-0.00010817132
66	0xb8d20132	-0.00010013803
67	0xb8cf1565	-9.874514e-05
68	0xb8c9a6b9	-9.6154814e-05
69	0xb8d3ec5f	-0.000101052916
70	0xb8deed82	-0.00010630024
71	0xb8b668af	-8.697935e-05
72	0xb8adc4e7	-8.285959e-05
73	0xb8b49cc9	-8.612272e-05
74	0xb8cec537	-9.8595796e-05
75	0xb7954687	-1.7795026e-05
76	0xb727aa5c	-9.993641e-06
77	0xb7210599	-9.597651e-06
78	0xb79f0781	-1.8957771e-05
79	0xb7b2aff8	-2.1301195e-05
80	0xb7b85c64	-2.1977532e-05
81	0xb78e5245	-1.6966029e-05
82	0xb791ff73	-1.74043e-05
83	0xb7bc7d2a	-2.246963e-05
84	0xb7f995c4	-2.9752853e-05
85	0xb7e91db4	-2.7789596e-05
86	0xb7da1d8c	-2.6001384e-05
87	0xb7e697a5	-2.7488752e-05
88	0xb805e0d1	-3.1919048e-05
89	0xb804d8c2	-3.1673124e-05
90	0xb8161790	-3.578473e-05
91	0xb800d809	-3.0718777e-05
92	0xb7e9f204	-2.7888462e-05
93	0xb7f14e2a	-2.8765837e-05
94	0xb7d88290	-2.5810004e-05
95	0xb7e14788	-2.68554e-05
96	0xb7be6ceb	-2.2700484e-05
97	0xb799b3ad	-1.832269e-05
98	0xb771b4d0	-1.4406818e-05
99	0xb790c192	-1.7256276e-05
100	0x37506e54	1.2423454e-05
101	0x377367a0	1.4508056e-05
102	0x370d1c8e	8.410903e-06
103	0x36b81860	5.486465e-06
104	0x36c95a61	6.0007883e-06
105	0x37a5baff	1.975661e-05
106	0x377951d7	1.4860611e-05
107	0x374c2edb	1.2170257e-05
108	0x37183149	9.071381e-06
109	0x36f41cb0	7.2751063e-06
110	0x37ca5db8	2.4123918e-05
111	0x378edccb	1.7030534e-05
112	0x3754de4c	1.2687942e-05
113	0x3705637c	7.950581e-06
114	0x36e17db0	6.7201545e-06
115	0x37a9ac16	2.0226504e-05
116	0x37875fec	1.6137921e-05
117	0x3710bd2b	8.627113e-06
118	0x370a85c7	8.256588e-06
119	0x3625d131	2.4708681e-06
120	0x373d2813	1.1274608e-05
121	0x3704fea8	7.927105e-06
122	0x371b7616	9.266214e-06
123	0x3674d766	3.6484212e-06
124	0x35f71a08	1.841051e-06
125	0xb90b2d46	-0.00013272939
126	0xb917ac3d	-0.00014464646
127	0xb93069d8	-0.00016824098
128	0xb931954d	-0.00016935654
129	0xb93a798f	-0.00017783626
130	0xb92f0216	-0.00016690078
131	0xb937d5a2	-0.00017531824
132	0xb944479c	-0.00018718693
133	0xb948acd4	-0.0001913787
134	0xb94e1652	-0.00019654006
135	0xb9331301	-0.0001707785
136	0xb942aa4b	-0.00018564721
137	0xb9478f90	-0.000190316
138	0xb94d312a	-0.00019568639
139	0xb94d240b	-0.0001956375
140	0xb94552ad	-0.00018818183
141	0xb93da523	-0.00018085963
142	0xb9464c17	-0.00018911097
143	0xb941d5b1	-0.0001848552
144	0xb945ddb0	-0.00018869969
145	0xb93b0497	-0.0001783542
146	0xb92f94c2	-0.00016744717
147	0xb92d03b0	-0.0001649994
148	0xb92cdc53	-0.00016485275
149	0xb9297846	-0.00016161901
150	0xb8a54ac5	-7.88174e-05
151	0xb8acedf9	-8.245925e-05
152	0xb8aa5b33	-8.123219e-05
153	0xb8a407b8	-7.821567e-05
154	0xb8977873	-7.2226765e-05
155	0xb896927c	-7.179842e-05
156	0xb8a31083	-7.775521e-05
157	0xb8a3347a	-7.78222e-05
158	0xb89fb09d	-7.6146076e-05
159	0xb8994b90	-7.309683e-05
160	0xb88d7add	-6.746289e-05
161	0xb8921fe0	-6.96776e-05
162	0xb8a08190	-7.6535274e-05
163	0xb8a88be0	-8.036918e-05
164	0xb8a8316d	-8.0200705e-05
165	0xb87f2c33	-6.08379e-05
166	0xb884c8da	-6.331662e-05
167	0xb89ca9c7	-7.470283e-05
168	0xb8b37bc2	-8.558437e-05
169	0xb8b66476	-8.6971486e-05
170	0xb884462a	-6.3073196e-05
171	0xb88bdf3c	-6.669617e-05
172	0xb89a7b49	-7.366256e-05
173	0xb8aa6f36	-8.126946e-05
174	0xb8b5fdf8	-8.678058e-05
175	0x378b3d83	1.6598735e-05
176	0x3770c365	1.4350609e-05
177	0x3755097f	1.2698e-05
178	0x371a4588	9.195304e-06
179	0x36cf9987	6.1869537e-06
180	0x3777f958	1.4780402e-05
181	0x3768ad55	1.3868635e-05
182	0x373694ae	1.08826625e-05
183	0x36dca447	6.5756353e-06
184	0x3676e313	3.678903e-06
185	0x370ad18f	8.274233e-06
186	0x371ed5dc	9.467327e-06
187	0x370f1096	8.527326e-06
188	0x36b92b0d	5.5184414e-06
189	0x36c79c9c	5.948894e-06
190	0x370ad592	8.275167e-06
191	0x372ea146	1.0408758e-05
192	0x37413b2c	1.15174735e-05
193	0x370eb967	8.507027e-06
194	0x3701190f	7.694834e-06
195	0x36c4809f	5.8562287e-06
196	0x3713cc61	8.809468e-06
197	0x37203187	9.548275e-06
198	0x371bc885	9.285407e-06
199	0x3700078e	7.6311535e-06
200	0x35054dc0	4.96595e-07
201	0x36855fe3	3.9748716e-06
202	0x36e5b2b5	6.845536e-06
203	0x36f1335c	7.1883387e-06
204	0x371ee791	9.47145e-06
205	0x368851e2	4.0626483e-06
206	0x36c77572	5.9443346e-06
207	0x36fd919b	7.5569383e-06
208	0x36d289ff	6.2745526e-06
209	0x36ce6fdf	6.152302e-06
210	0x367f3d08	3.8033486e-06
211	0x36d18e57	6.245256e-06
212	0x371a53a9	9.198594e-06
213	0x36e2bed4	6.75754e-06
214	0x3694e7c8	4.4377266e-06
215	0xb5526059	-7.83713e-07
216	0x34e257f2	4.215977e-07
217	0x3682266b	3.8787744e-06
218	0xb44b9608	-1.896043e-07
219	0x34b0b7da	3.2916324e-07
220	0xb66d9ec6	-3.540817e-06
221	0x33ff31f8	1.1883452e-07
222	0xb3371193	-4.262399e-08
223	0x3571a354	9.001717e-07
224	0xb600845e	-1.9150534e-06
225	0xb67de1fb	-3.7831476e-06
226	0xb69cad99	-4.6693717e-06
227	0xb675f25d	-3.664892e-06
228	0xb5f8b0aa	-1.8528856e-06
229	0xb5b88649	-1.374815e-06
230	0xb6055fc4	-1.9874287e-06
231	0xb5d8c9ed	-1.6152022e-06
232	0xb59596a6	-1.114521e-06
233	0xb5037f71	-4.8986755e-07
234	0xb512e5bf	-5.4723563e-07
235	0xb50f29ea	-5.3332644e-07
236	0xb572fe42	-9.052202e-07
237	0xb47a5c41	-2.3316626e-07
238	0xb4547fad	-1.9790487e-07
239	0xb2d5709d	-2.4847674e-08
240	0xb4c91369	-3.745329e-07
241	0xb41a1a2a	-1.4351886e-07
242	0xb4c56200	-3.6765414e-07
243	0x328ba030	1.6254575e-08
244	0x3246f25f	1.1580226e-08
245	0xb4d653b8	-3.992152e-07
246	0xb5325f5a	-6.644892e-07
247	0xb4243729	-1.5293757e-07
248	0x308e03bd	1.0332922e-09
249	0xb41ce2af	-1.4611099e-07
250	0xb74e704e	-1.2304705e-05
251	0xb6a39990	-4.8756556e-06
252	0x35858851	9.948945e-07
253	0x3649ce45	3.0071399e-06
254	0xb6c56279	-5.8825212e-06
255	0xb75362ef	-1.2599615e-05
