logs/biosr_ccps_rcan_model-SRCNN_250305_lr0.0001_bs1_Ps256_Npatch128_N300/model_179.pth (torch, 695046 bytes, 15 tensors)

conv1.weight f4 [64, 1, 9, 9]
000000 05 0e a5 3d c2 ed e8 bc e4 90 aa 3d 30 e8 b7 bc
       0.08059315 -0.028433684 0.08328417 -0.022449583
000010 a1 5b 3d 3d d6 56 20 bd 23 44 09 3e db 7a 46 bc
       0.046229962 -0.039145313 0.13404898 -0.012114252
000020 b2 fd 4f 3e e4 d7 e2 bc 33 92 bd bd bb 72 46 3d
       0.20311621 -0.027690835 -0.09256401 0.04844926
000030 1a 31 4b bd c8 d8 00 3d 8a 5f 30 3d cf 4d f7 3c
       -0.049607374 0.03145674 0.043059863 0.03018847
000040 af fd 9d 3d 84 07 d9 3d 63 c5 ae 3d 55 a2 1c 3d
       0.07714402 0.105971366 0.08533742 0.03824075
000050 bc 40 c5 bd 0d af 98 bc b5 a0 52 bd d4 e1 c0 bd
       -0.09631488 -0.018638158 -0.051422793 -0.09418073
000060 d4 7e 8c bd 72 44 94 bd 7a 43 4b 3d 98 a2 d2 bd
       -0.06860128 -0.072396174 0.049624898 -0.102849185
000070 64 19 0d bd 7e ba be 3c cb fd 9d bd 79 b8 cd bd
       -0.034448043 0.023282286 -0.07714423 -0.10044951
000080 0b 4d e1 3a 2b b3 fd bc 12 3c 2d bd 22 cc 96 3d
       0.0017189098 -0.030969223 -0.042293616 0.07363154
000090 a5 70 95 bd b8 75 80 bd d9 2a 89 bb 82 67 31 3d
       -0.07296876 -0.06272453 -0.004186016 0.043311603
0000a0 c4 fe 02 bd f6 45 93 3d f1 91 52 3d f6 99 84 3d
       -0.031981245 0.07191078 0.05140871 0.06474678
0000b0 3e 74 bf 3c 01 e0 15 bd 3e 9a c8 bd 06 e6 ec ba
       0.023370858 -0.03659058 -0.09795044 -0.0018073923
0000c0 05 ec c1 bd 3b 6d d2 3c 88 bf d5 3c 70 19 b3 3c
       -0.09468845 0.02568685 0.026092306 0.021862715
0000d0 ff 06 5a 3d b7 48 fe 3d 94 17 5f bd 68 98 e7 bc
       0.05322933 0.12416213 -0.054465845 -0.028270915
0000e0 f9 4b 15 bc 3e ab 04 3d e0 26 9f 3d 7c cf 76 3d
       -0.009112352 0.03238987 0.07771087 0.060256466
0000f0 28 a5 3d bd 53 43 d6 3d 0f ea d2 3b e7 3a 1a 3d
       -0.046300083 0.1046206 0.0064365934 0.03765383
000100 7a a4 12 3d 35 1b dd 3a 07 18 52 bd 13 5c 55 bd
       0.03580139 0.001686907 -0.051292446 -0.052089762
000110 64 68 22 3c 10 b6 87 bd 58 14 b7 bc 3e fa 89 bd
       0.009912584 -0.066265225 -0.022348568 -0.06737183
000120 6a 9b 2f 3d 6e fd c4 bc b5 72 af 3c cc 77 63 3d
       0.042872824 -0.024046626 0.021417001 0.05553417
000130 48 76 47 bd 7e 93 04 bc 9d fe ae bd b6 8e be bb
       -0.048696786 -0.0080918055 -0.085446574 -0.0058153523
000140 bf 59 8e bd b1 a9 42 bd 9d c3 88 bb 83 6e ee bc
       -0.069507115 -0.04752511 -0.0041737095 -0.02910543
000150 7b 36 e9 3b 66 bd 93 3d 15 d1 02 bd 0b 05 fc bd
       0.0071170903 0.07213859 -0.031937677 -0.12305649
000160 0e b7 66 3d fd b4 89 bc 2d 00 a0 3c be f4 8e bc
       0.05632692 -0.016809935 0.019531334 -0.017450687
000170 10 4f 6b 3d d3 78 cf bd a5 22 8e 3d 45 8d 97 3d
       0.057448447 -0.10130467 0.06940202 0.07399992
000180 d9 73 93 3d 5d ac 0d 3d 06 e2 b8 3d 63 95 0a 3d
       0.071998306 0.034588207 0.090274855 0.033833873
000190 50 9c 98 3c 18 5e b4 bc 6c b8 ad 3d 5e 7e 97 3d
       0.018629223 -0.022017524 0.08482441 0.073971495
0001a0 f8 ce 49 bd ed d3 49 3c 12 fe c0 bd f7 8c c8 bc
       -0.049269646 0.012318593 -0.0942346 -0.02448128
0001b0 fd 2a e1 3c 99 53 5d bc 6e f1 f4 bd f1 c2 aa 3d
       0.027486319 -0.013508701 -0.119601116 0.08337963
0001c0 4f e7 f9 3c 93 b3 ba bd 0e 41 d6 bd 0c aa 41 bd
       0.030505804 -0.09116282 -0.10461627 -0.04728131
0001d0 c8 92 bf bd 37 03 80 bd 90 4b 74 bd ec 79 cf bd
       -0.09354168 -0.06250613 -0.059642375 -0.101306766
0001e0 b7 e5 44 3d af 3a f2 3d 4f 40 1b 3b 60 78 2b bd
       0.048070636 0.11827599 0.0023689454 -0.041862845
0001f0 df c2 af 3d 64 53 d6 bd 63 5d 0c bd 07 ce c0 bd
       0.085820906 -0.10465124 -0.034268748 -0.094142966
000200 57 20 08 3d 69 8c b1 bd 19 42 be bd b6 2d 38 3d
       0.033233967 -0.08669359 -0.09289951 0.04496547
000210 c9 58 89 bd 96 6e bf bd e3 87 5a 3b 27 32 50 bd
       -0.067063875 -0.093472645 0.0033345155 -0.05082908
000220 9c 98 8e 3d 9c c7 fd 3b d2 ed e7 3b 27 ca 28 bd
       0.06962702 0.0077447426 0.007077911 -0.041208412
000230 a8 bf 73 3d 59 91 91 3d 19 0f ac 3d c8 7a 57 3c
       0.05950895 0.07107801 0.08401317 0.013151832
000240 8f 85 ef bd c1 8a 1a 3c a7 09 94 bd 22 16 c0 bd
       -0.11695396 0.009432496 -0.072284035 -0.093792215
000250 b1 d6 93 3d 72 4c 29 3d 25 56 0a 3d 58 dd e0 3d
       0.072186835 0.04133267 0.03377356 0.10979718
000260 a9 b5 fd 3c 0f 5d 91 bc 68 e4 f0 bc eb 2d 43 3d
       0.030970411 -0.01774457 -0.029405788 0.047651213
000270 6d e2 87 3c 39 4c 84 bd c9 eb c7 bd 40 68 8a 3d
       0.01658746 -0.06459851 -0.09761769 0.06758165
000280 68 ce 96 3d 0b 7c fa 3d 6a 4a 84 3d d4 21 fd 3d
       0.073635876 0.122306906 0.06459506 0.12359968
000290 2a bd 4e bd fc 21 7c 3d e0 70 16 3d aa fc e3 3c
       -0.05047337 0.061555848 0.03672874 0.02783044
0002a0 ae 76 9c bd 55 ff 86 bd 33 8d 3e 3d 8b 6f e3 3d
       -0.07639824 -0.065916695 0.046521377 0.111052595
0002b0 99 58 94 3d bc 04 fd bc fd 22 f3 3d dc f9 68 3d
       0.07243461 -0.030886047 0.11871908 0.05687891
0002c0 6c 37 92 3c 93 a5 a9 3c 26 47 b4 3d 84 d0 97 3d
       0.017848693 0.020708835 0.08802633 0.07412818
0002d0 15 e4 aa 3d 66 cf 54 bd 62 e1 be 3d e7 06 ca 3d
       0.083442844 -0.051955603 0.09320332 0.09864598
0002e0 7f a4 e0 b9 50 7c 75 3d e2 59 93 bd ae 85 dd bd
       -0.00042847169 0.059933007 -0.07194878 -0.10816513
0002f0 5d c0 ac bd 36 ca f4 3d 9a 70 dc 3d b6 48 b1 3c
       -0.08435128 0.11952631 0.107636645 0.021641117
000300 64 8b c5 3d 83 29 ab 3d 52 22 2c bd 19 81 b8 3c
       0.09645727 0.08357527 -0.042024918 0.022522496
000310 52 91 7d bd 28 c0 02 be b1 d9 df 3d c3 46 24 bd
       -0.061906166 -0.12768614 0.10930193 -0.040106546
000320 42 e4 fe bc f0 c9 aa 3c 3d d0 8b 3d 49 80 a2 3d
       -0.031114701 0.020848244 0.06826828 0.07934625
000330 39 57 f8 bc b4 44 98 3b 32 2e af bb 8e 39 17 bd
       -0.030315029 0.004646862 -0.005346083 -0.036920123
000340 1d 75 50 bc e0 ce af 3c dc c9 a0 bd fd 98 4e 3d
       -0.0127232345 0.02146095 -0.078510016 0.05043887
000350 66 ab de bd 5a e8 c9 3c cb a4 e3 bd ed bc 0b be
       -0.108725354 0.024646927 -0.11115416 -0.13646288
000360 08 4e f0 3c 78 41 c4 3c a9 91 2e bd 76 dc 82 3d
       0.029334083 0.023957 -0.04261938 0.06389706
000370 1d 6c b6 3d a6 0a 25 3c a0 88 dc bd 85 20 ec bd
       0.0890734 0.01007334 -0.10768247 -0.1152964
000380 e8 41 24 be 8e b7 17 3c de 8a d5 3d 19 17 51 3c
       -0.16040766 0.009260071 0.104268774 0.012761855
000390 8c 50 c8 bd aa d7 8e 3d 3e 73 e7 3c dc 2e a4 bd
       -0.09780988 0.069747284 0.028253194 -0.0801675
0003a0 ff 47 1b be 53 96 9f 3c 65 fe e6 3d 07 73 a7 3c
       -0.15164183 0.01948086 0.11278991 0.020440591
0003b0 c9 ea 13 bd 5e 6a d6 bc ae da 37 bd 9f 8f ec bd
       -0.03611258 -0.026173767 -0.044886284 -0.11550831
0003c0 39 18 d1 3b 76 77 c2 bd 39 d1 04 be df c5 d9 3d
       0.0063810614 -0.094954416 -0.12970437 0.10633444
0003d0 08 89 af bd fe 21 c8 3d 50 e4 f2 3d 8d b4 98 3d
       -0.085710585 0.097721085 0.118599534 0.07456312
0003e0 47 40 0c bd 03 3e 3a bd 55 58 cb 3c 92 ff 9a bd
       -0.034240987 -0.045469295 0.024822393 -0.075682774
0003f0 11 a7 4b 3d 0d 64 9b bb 86 e5 0b 3c 3f 7f ea 3d
       0.049719874 -0.0047421516 0.008538609 0.114500515

conv1.bias f4 [64]
000000 a9 fc d7 3c eb 71 53 3d 19 bd 8f 3c 86 fb a9 3b
       0.026365595 0.051622313 0.017546223 0.0051874546
000010 fc 73 d1 bd 96 6b 9c 3d 34 c5 bb 3d 36 98 97 bd
       -0.102272004 0.07637708 0.09168473 -0.07402079
000020 32 3a 1b bd b8 1c f1 3c 7a 5d 16 bd ac 0b 8d bc
       -0.037897296 0.02943264 -0.03671024 -0.01721748
000030 8a 60 d2 bd a3 6f 89 bc d1 c0 a3 bd f7 cc 85 bd
       -0.102723196 -0.016776865 -0.07995761 -0.065332346
000040 48 02 bc 3d 7e 92 c5 bc 6a b0 45 bb 3f a8 a8 bc
       0.091801226 -0.024117704 -0.0030164965 -0.020588038
000050 2b 72 13 bd 3c f4 d2 bd 86 8c ef bd 3d 04 9a bc
       -0.03599755 -0.1030049 -0.116967246 -0.01880085
000060 3d fb 98 bc bf 6c 94 3c 05 72 d6 bc 80 64 a3 bd
       -0.018674487 0.01811826 -0.026177416 -0.07978153
000070 17 89 99 bd 19 d3 7c bd 87 e6 01 bd 85 f2 a2 bc
       -0.07496851 -0.061724756 -0.03171399 -0.019891033
000080 b9 eb a3 bd a9 97 aa bd ca 6d 8a 3d a1 9d 02 bb
       -0.08003945 -0.08329708 0.06759222 -0.001993038
000090 c7 46 94 bd 6a ab 48 3d 7c a6 cf bc d3 e7 20 3e
       -0.07240062 0.0489916 -0.02534794 0.15713434
0000a0 c8 82 43 3d 54 92 79 3d 11 73 aa bc 2e a2 a8 bc
       0.047732145 0.060930565 -0.020806821 -0.020585146
0000b0 3d 33 0a 3d 58 b2 f8 bd 66 5e 45 bc eb 49 0f bd
       0.03374027 -0.12143391 -0.012046432 -0.034982603
0000c0 18 9f b5 3c 29 42 01 bd 1e 32 db 3d 88 71 80 bd
       0.022170588 -0.031557236 0.107029185 -0.06271654
0000d0 80 76 bf 3b d0 93 4a bb fe bc 8b 3d 1f 35 72 bd
       0.0058429837 -0.0030910857 0.06823157 -0.05913269
0000e0 1f a4 15 3d 99 cb a5 bd 53 d9 1e 3c b3 1b 3a 3c
       0.03653347 -0.08095474 0.009695369 0.011359143
0000f0 32 1b 80 bc ff 88 33 3a a5 65 5f 3d ca 8d ab bd
       -0.015637968 0.0006848722 0.054540295 -0.083766535

conv2.weight f4 [32, 64, 5, 5]
000000 c1 81 bd bc ac ad 1c bd f2 e8 74 3c e3 2f 2b bc
       -0.02313316 -0.038251564 0.014948117 -0.010448429
000010 6b 6c fb 3c 68 d1 a5 3b cb 76 35 bc 99 88 d2 3c
       0.030691346 0.0050603636 -0.011075686 0.0256999
000020 eb 49 02 bc 60 3d 29 3c 81 26 6c bb f6 be cd bb
       -0.007952194 0.010329574 -0.0036033692 -0.006278868
000030 da cd d3 bb b1 60 9f bc 92 44 fa 3a 3b 7b 34 bd
       -0.0064637484 -0.019455286 0.0019093922 -0.044062834
000040 7c 82 ac bc d4 b8 0d bd 92 fb 0a bd 1b 65 b9 b9
       -0.021058314 -0.034600094 -0.033931322 -0.0003536128
000050 54 51 29 3a e2 56 88 3c 44 55 a1 3c fe b9 18 3d
       0.0006458957 0.016642991 0.019693978 0.03728675
000060 9a 57 4e 3d 45 5c f1 bd a8 d9 97 bc d3 a7 5c 3d
       0.050376512 -0.11785177 -0.018536404 0.053870987
000070 2f 51 55 3a a0 ba d1 bc 74 aa 54 ba 5b 68 1a bd
       0.00081374025 -0.025601685 -0.00081125577 -0.037697177
000080 c8 8b 6d 3d c3 36 1f 3d 7b 3b d6 3a dc 85 8b bd
       0.057994634 0.038870584 0.0016344631 -0.06812641
000090 63 82 ae bd ac 75 9f bb db 0f ab bc e9 c8 0b bc
       -0.08520963 -0.0048663225 -0.020881584 -0.008531787
0000a0 ce e5 ba bd 3a ca a8 bd 66 9d b6 bc 4a 67 4a bc
       -0.09125863 -0.08241697 -0.02229185 -0.012353728
0000b0 73 de 3d bc 0b 33 56 bd 79 a1 86 bc e0 81 c9 3b
       -0.011588681 -0.052294772 -0.016434418 0.0061495155
0000c0 8c 1a 3c 3b 3a 43 ce bc a2 6a 89 3c fe 8f 0a 3c
       0.0028702347 -0.02517854 0.01677448 0.008457182
0000d0 64 9b ba 3c 29 ee ef 3c 8f 28 75 3c 4b 73 ee bc
       0.022779174 0.029288368 0.014963283 -0.02910771
0000e0 59 45 5b bc 01 00 82 bc fb 4f 5c bc 2a 00 33 3c
       -0.013383233 -0.015869142 -0.013446803 0.010925332
0000f0 5f 13 ff bc cb ba 85 ba 94 7e 08 bc a2 c4 26 3c
       -0.031137167 -0.0010202763 -0.00833096 0.010178717
000100 f1 38 41 3c f0 53 36 bd 67 77 9a bb fa 3e 0b bd
       0.011793361 -0.044513643 -0.004713941 -0.033995606
000110 89 38 08 3d 18 d5 7f 3d e2 28 8a bb 20 36 39 3c
       0.03325704 0.06245908 -0.0042162994 0.011304408
000120 d2 a5 9f 3c b8 35 53 3d e7 a7 26 3e 81 97 af 3c
       0.019488249 0.051564902 0.16274987 0.021434547
000130 f1 dc e0 bc ed 2b b3 bb 1b ff c6 bb 99 7d f5 3c
       -0.027449103 -0.005467883 -0.0060728914 0.029967116
000140 1b 8d 23 3c 7c bf 98 3b 63 c5 18 bd 9e 29 18 bc
       0.009982373 0.0046614986 -0.037297618 -0.009287266
000150 f2 8c 81 3c a6 8b 43 bc 60 ff e9 3b bb d0 4e 3b
       0.015814278 -0.01193515 0.007141039 0.0031557519
000160 ad d0 c4 3c 62 82 81 3c d0 67 ea bb 4a 3f 12 bd
       0.024025286 0.015809242 -0.0071534887 -0.03570489
000170 5a af 5d bc c9 8c ea bb 3a 15 da bc db 8a 05 bd
       -0.013530577 -0.007157896 -0.02662145 -0.032603126
000180 a9 27 3f bd 40 60 4f bd 90 e8 f5 bd 5e d7 2b be
       -0.046668682 -0.0506289 -0.120072484 -0.16781375
000190 e5 9f 74 3b bc 83 39 3c 7c 69 01 3c af ca 95 bc
       0.003732675 0.011322912 0.007898685 -0.018285124
0001a0 f2 fc 3d bd bd 39 96 3c 5d dc ac 3b 59 a0 9f bb
       -0.046383806 0.018338079 0.005275293 -0.00487141
0001b0 1b 1f f4 3b 3e 34 48 bd df cd 08 3d 47 4f c4 3c
       0.007449997 -0.048877947 0.03339946 0.023963584
0001c0 4b 1e 54 3b 01 9a fd ba 8d d5 05 bd c1 c1 db ba
       0.0032366689 -0.0019348265 -0.03267436 -0.0016766117
0001d0 29 c8 a6 3c 98 7d 42 bd bc e6 05 bd d5 70 cb bc
       0.020359116 -0.047483057 -0.03269075 -0.024834076
0001e0 32 18 81 3d c9 d1 3a 3c a5 4f 1d 3d bb 7b 3a 3d
       0.06303443 0.011402556 0.038406033 0.045528155
0001f0 f8 ee 74 3d 03 83 ab 3b 95 3b 50 3c 45 80 a7 3a
       0.05979821 0.0052341237 0.012709518 0.0012779316
000200 c8 d2 97 3c f3 d9 97 bc 54 8d 0c 3b 03 43 06 3c
       0.018533126 -0.018536543 0.0021446543 0.008194688
000210 c8 1d 82 bb 05 bd f7 3b 0c 02 01 bd 5d e6 ea bc
       -0.0039708354 0.0075603747 -0.031496093 -0.028674299
000220 fb eb d6 bc 66 7b e3 bc 0c 0f 0b bd 4b d8 f8 bc
       -0.026235571 -0.027768802 -0.033949897 -0.030376574
000230 ba 60 2f 3b 3d 7e 0c bc c8 53 12 3b 78 8c 7c 3c
       0.0026760534 -0.008575019 0.002232777 0.01541435
000240 a7 d7 90 ba 49 c6 27 3c 25 ea f6 3c 6f b3 93 3c
       -0.0011050598 0.010240146 0.030140946 0.018029897
000250 2d 12 e5 3c 1c 2c 71 3c 9b 73 60 3b de 16 09 3d
       0.027962768 0.014719989 0.0034248594 0.033469073
000260 b5 fb 5c 3d 50 3c cf bc 3a b3 78 bd 21 d2 98 bb
       0.053950984 -0.025297314 -0.0607178 -0.004663721
000270 07 8d a7 bb dd 8a c9 bc 65 df 8c bd cc a8 2c bd
       -0.0051132473 -0.024602348 -0.068785466 -0.042153165
000280 c6 50 10 3c 75 e4 10 bc 2c 54 23 bc a5 cc 73 bd
       0.00880832 -0.008843531 -0.009968799 -0.059521336
000290 07 c2 34 bb 96 c9 58 3d 85 89 9a 3c 1b d9 57 bd
       -0.002758147 0.052926622 0.018864403 -0.052697282
0002a0 5d ac b2 3b 7d 2a fa 3b b1 60 2f 3d 02 0e 27 3d
       0.005452676 0.0076344595 0.04281682 0.040784843
0002b0 3f d3 2f bd 13 fc 8b 3c e2 47 97 3d 30 05 b0 bc
       -0.04292607 0.017087972 0.073867574 -0.021486849
0002c0 cd e3 f9 bc 3a 47 4f 3c 69 cf 9a bc 5d ee 00 bd
       -0.030504132 0.012651259 -0.018897729 -0.03147732
0002d0 4e 30 05 bd 97 c1 77 3c 5c f3 b9 3c 47 ce b8 bc
       -0.03251677 0.015121839 0.02269905 -0.022559298
0002e0 20 3e c5 3c 49 ca f5 3a 2b da 15 3d 8d 74 7e 3c
       0.024077475 0.0018752302 0.036585014 0.015530718
0002f0 d9 67 d9 bb ca 6c 37 bc 43 0e b7 3c c0 54 b0 ba
       -0.006634694 -0.011195371 0.022345668 -0.0013452992
000300 69 cf 4a bc d4 74 70 3c bc 6d 17 3d b9 60 0d 3d
       -0.012378552 0.0146762915 0.036969885 0.03451607
000310 5e 13 45 3c 65 96 76 3c 07 81 6c 3d ab 03 e0 3d
       0.012028543 0.015050505 0.057740238 0.109381996
000320 ba fc 1f 3d a7 83 5f bd 1f 21 08 bd 46 77 9f bc
       0.03905938 -0.054568913 -0.03323471 -0.019466054
000330 84 72 41 bd 32 bf 3e bc f2 2e fd bc 6c 94 26 bd
       -0.04722835 -0.011642264 -0.030906174 -0.04066889
000340 1d 62 7b bb 8e 93 9c 3c 59 1f c9 bd c5 c0 f7 bc
       -0.003835804 0.019113328 -0.09820432 -0.030243287
000350 03 8d 99 bd 73 45 52 bd 0f f8 cc 3d f7 77 1a be
       -0.07497599 -0.051335763 0.10008251 -0.15084825
000360 42 34 ed bd 32 f7 a3 bd 5e db 48 bd eb f1 b2 3d
       -0.11582233 -0.08006133 -0.04903733 0.087375484
000370 27 03 89 bd 75 3d 98 bd 43 15 59 bd e2 46 5b 3d
       -0.066900544 -0.07433597 -0.052998792 0.053534396
000380 5b 77 19 3e 41 9b 98 3c 49 61 05 bc 7c 8c e3 bb
       0.14986937 0.018628718 -0.00814087 -0.0069442373
000390 b0 94 26 bd b3 21 fe bc 61 0c 2b 3d 45 b0 0e 3b
       -0.040669143 -0.031021928 0.041759852 0.0021772545
0003a0 2b b3 aa bc 1c fb 81 bd c7 4b 37 3d b9 8e ac bd
       -0.020837387 -0.063467234 0.04475 -0.0842566
0003b0 db ae 53 bd bf d0 93 bd 4d af 56 bd 02 b9 a7 3d
       -0.051680427 -0.072175495 -0.052413274 0.08189584
0003c0 c3 f5 f0 bd 80 04 b0 bd 32 ed 4c bc b4 eb 9a 3d
       -0.11765625 -0.08594608 -0.012507724 0.07564488
0003d0 d7 fc 9a 3d 9c f8 db bd a6 a7 0b bd 56 e0 a6 bc
       0.075677566 -0.10740778 -0.03409543 -0.020370644
0003e0 8f 57 92 3e 49 5e f2 3c 27 4d 86 3d 65 1f c2 bc
       0.28582427 0.029585974 0.065576844 -0.02369661
0003f0 63 c8 57 bd 7c 72 98 bd ef 75 f8 bd 80 13 67 3d
       -0.052681338 -0.07443711 -0.12131869 0.05641508

conv2.bias f4 [32]
000000 f0 3c b4 3b 6c ce 09 bd ee e0 47 3c 39 7a b8 bc
       0.0055004284 -0.033644125 0.0121996235 -0.022519218
000010 70 1a 77 3c f1 38 8a bc 36 c2 b8 bc 52 f9 96 3c
       0.015081987 -0.016872855 -0.022553544 0.018429432
000020 38 e9 4c bc 9f ca 9b bc e3 89 cc bc f7 4f 68 3c
       -0.012506776 -0.019017516 -0.024968093 0.014179221
000030 bc 6b 41 bc f8 fd 7b bc 49 b7 84 3c 3d 42 ee bc
       -0.011805471 -0.015380375 0.016200678 -0.02908432
000040 76 c6 d4 bc 22 38 68 bc dd 3d e1 3a 4e 28 6d bd
       -0.02597354 -0.014173539 0.0017184574 -0.057899766
000050 59 d4 4d 3d c7 29 11 bc 2b 0b 30 bc a3 0e 88 3b
       0.05025134 -0.008860058 -0.01074485 0.0041521355
000060 24 01 93 bc 98 a7 26 bc a6 ea 9b bc e2 f1 a4 3c
       -0.01794488 -0.010171793 -0.019032788 0.02013487
000070 e3 8c de bc d1 6b 7c 3b c3 29 a7 3c 7e 48 da bc
       -0.02716679 0.0038516412 0.020405656 -0.026645895

conv3.weight f4 [1, 32, 5, 5]
000000 89 de 4c bd 70 7e 93 bc 89 af c3 bc 53 93 04 bd
       -0.050016914 -0.018004626 -0.023887413 -0.03236706
000010 dd 5b 41 3b cf 0f a4 3b 2a 54 ed bc c9 ab 59 bd
       0.0029504218 0.0050067673 -0.028970797 -0.053142343
000020 05 75 48 bc 52 44 82 3c 47 48 9e 3c 92 60 39 bd
       -0.012234931 0.015901718 0.019321574 -0.045258112
000030 1b 61 2a bd c1 cc e2 ba a1 38 14 3c a6 1f b6 bb
       -0.041596513 -0.0017303453 0.0090467045 -0.005557972
000040 1f b1 c5 bc ce e2 ed bc b6 a7 71 bc dd 66 8e 3c
       -0.02413231 -0.029038813 -0.014749458 0.017383033
000050 e8 1c 91 3d a1 c3 67 3d cb ef 49 3d 2c a5 25 3d
       0.070855916 0.05658305 0.04930095 0.040440723
000060 1c d3 f8 3d 6b 61 27 bd 54 1b e0 bc 22 67 36 bd
       0.12149641 -0.04086439 -0.027356781 -0.04453195
000070 c8 f4 19 bc 9e b3 48 bb 05 2c 28 bd 8d 00 5b bd
       -0.009396739 -0.0030624638 -0.041057605 -0.053467322
000080 06 87 c4 bc 24 b3 66 bc 87 96 03 bd 5c 44 06 bd
       -0.023990165 -0.014080796 -0.032125976 -0.032780036
000090 eb 3a 69 bc 03 16 27 bd bf de d8 bc 1e d5 63 bc
       -0.014235239 -0.040792476 -0.026473401 -0.013905792
0000a0 6a 0e 25 bd b9 ea 3c 3c 12 2a 1f bd 05 ec 4f bc
       -0.04029695 0.011530572 -0.03885848 -0.012690549
0000b0 30 bb b8 bc 64 64 dc bb 74 0f 6c bd ef 26 90 bc
       -0.022550195 -0.0067258347 -0.057631925 -0.01759669
0000c0 3b c7 e4 bc f0 f9 bd ba c6 74 15 3d 22 ce 73 bc
       -0.027927032 -0.0014494043 0.036488317 -0.014880689
0000d0 8e ed d3 3b 55 9d 07 3d 5e d7 0c 3d 35 f6 0c bc
       0.0064675277 0.033109028 0.034385078 -0.008603622
0000e0 5a 78 8d 3c 7c 85 a5 bc 96 91 64 bc 25 36 d9 bc
       0.017269302 -0.020205252 -0.013950726 -0.026515076
0000f0 2b 0d 55 3c 3d bb ec bc db e3 84 bc e1 9e 6d bc
       0.013003628 -0.028897876 -0.016221931 -0.014503212
000100 b4 68 9a 3b 49 e4 ae 3b 25 2b de bb c4 32 df bc
       0.0047121886 0.0053372723 -0.0067800456 -0.027245887
000110 d7 c8 a1 bb cb 03 8e 3c 1d cf 4e 3c f3 a6 8c bc
       -0.004937272 0.017335793 0.012622622 -0.017169451
000120 96 4c b5 bb d6 3f 03 bd 2c ab 9b 3c 7e 05 01 bd
       -0.0055328114 -0.0320433 0.01900252 -0.03149938
000130 d7 90 b2 bc 06 32 5e bd 10 70 4b bd 2a b1 d1 bc
       -0.02179758 -0.054246925 -0.049667418 -0.025597174
000140 b7 53 2e bc 3f d6 c0 3c 3c cf ac 3c f9 08 4f bc
       -0.010640076 0.02353966 0.02109491 -0.012636417
000150 58 a3 ea 3c dc 19 9e bb a5 55 96 bc 26 19 85 3c
       0.028642341 -0.00482486 -0.018351385 0.016247343
000160 53 95 a9 bb b3 54 06 3d fd fc 33 3c bb d0 49 3c
       -0.0051752715 0.03279562 0.01098561 0.012317832
000170 ed 65 b6 bc 64 bb 01 bc c5 ef 1f 3d 09 d5 47 3d
       -0.022265399 -0.007918213 0.03904702 0.04878715
000180 3a 90 d5 3c 96 10 bc 3b 34 90 1a 3d b5 72 a8 3d
       0.02606975 0.005739282 0.03773518 0.08225004
000190 45 38 9d bd 02 0b 20 bd 01 de bd bc b7 84 4c bc
       -0.07676748 -0.039072998 -0.023177149 -0.012482814
0001a0 19 58 8b bd f2 62 3c bb 31 96 98 bb 19 6f 1e 3d
       -0.06803913 -0.00287455 -0.004656576 0.03868017
0001b0 c1 ce a3 bc 78 59 96 bc df 1c dd bc 9b 0f 78 bb
       -0.019996049 -0.018353209 -0.026991306 -0.0037851098
0001c0 88 ac 8f 3c 3e 07 cb ba c5 1e 54 3c bd 47 bd bc
       0.017538324 -0.0015489829 0.012946789 -0.023105497
0001d0 61 b8 a2 3c a3 4e 10 bc f8 f1 53 bc c1 db 05 3c
       0.01986331 -0.008807811 -0.012936108 0.008170069
0001e0 f4 82 62 bc 00 60 11 3d d3 69 f6 3c 7d 38 9e 3b
       -0.013825167 0.035491943 0.030079758 0.0048285113
0001f0 12 0d 42 3c 16 3c e2 bd a8 d6 a7 bd ff d0 34 bd
       0.0118439365 -0.11046617 -0.08195239 -0.044144627
000200 98 11 6b bd 67 3e 85 bd 8a 79 0c bd ff 19 08 bd
       -0.057389826 -0.06506043 -0.034295596 -0.033227917
000210 52 b5 08 bd 87 27 06 bd 27 5e 04 bd c3 8d a7 bd
       -0.033376046 -0.03275254 -0.032316353 -0.08181336
000220 8a 1b a8 bc fd 27 6e bd 10 a9 25 3b 69 82 8c bd
       -0.020520944 -0.058143605 0.002527777 -0.06860811
000230 f6 70 64 bd bb c7 f0 bb 35 fb 0b bd 69 03 10 bd
       -0.05577179 -0.0073480285 -0.034175117 -0.035159502
000240 14 38 77 bc 1c 1a a4 bd 0e b4 5b bd 9b 72 3b bd
       -0.015089054 -0.080127925 -0.05363851 -0.045763593
000250 c6 a5 5b bc 09 1b 18 bd 0b ed 2a 3d 45 bd ee bb
       -0.013406223 -0.037135158 0.041729968 -0.0072857463
000260 bf 85 c8 bb 3d f4 17 3d ad b9 f4 3c 11 6a 1c bc
       -0.0061194594 0.03709816 0.029873693 -0.009546773
000270 03 88 2e bb d7 32 41 bc 40 f9 e8 3a 27 83 07 3d
       -0.0026631362 -0.011791906 0.0017774478 0.03308406
000280 f4 94 ea bc 81 78 e9 3b 41 dc 45 bb 5e e4 f4 bb
       -0.02863548 0.007124961 -0.0030191096 -0.0074735126
000290 1a fc 27 3c 44 c6 e1 3c 46 52 93 bc 01 74 08 bc
       0.010252977 0.02756036 -0.017983567 -0.008328439
0002a0 c1 4b 8b 3b d3 c3 2d 3c 1d b1 82 3c 69 ff ef 3c
       0.004250974 0.01060577 0.015953595 0.029296594
0002b0 dd 9f 70 3c 70 2f c9 3c 86 15 eb 3b f1 8c 99 3d
       0.014686552 0.024558753 0.0071741967 0.074975856
0002c0 86 b2 8e 3d b1 f4 af 3c 0d 2d fb 3b eb 79 27 3d
       0.069676444 0.021478983 0.0076652826 0.040887754
0002d0 94 8b a5 3d b4 d8 a6 3c 38 10 ba 3c 42 00 8c 3c
       0.08083263 0.020367004 0.022712812 0.017089967
0002e0 39 07 00 3d 38 36 80 3d 30 97 1d bc 8d c8 15 3d
       0.031256888 0.062603414 -0.009618565 0.036568213
0002f0 19 0a 30 bc fa 74 5f bb 2b 13 02 3d d1 4b 01 3d
       -0.010744595 -0.0034096823 0.03175656 0.031566445
000300 d9 20 07 3d 51 fe 67 3b f7 2b 4a 3c 61 65 ca 3c
       0.03299031 0.0035399387 0.012339584 0.024706544
000310 55 50 b8 3c da 75 9b 3c 6e 4d 9d 3b 4b b4 2d 3d
       0.022499243 0.018977094 0.00480049 0.04240827
000320 0f d1 37 3d 55 71 2b 3d f9 64 44 3d ad 09 13 3d
       0.04487711 0.04185613 0.047947858 0.0358979
000330 b1 43 97 3d 1c 39 9d ba ed ce 20 3d 1c 6f 24 3b
       0.07385958 -0.0011995169 0.03925984 0.002509064
000340 e8 22 c8 3c e8 a7 69 3d 6d 23 94 3c 1f b4 c6 3c
       0.024430707 0.057044894 0.018083299 0.02425581
000350 a6 a3 2d 3d 66 0e b3 3b f2 ab a1 3c e4 84 b1 3c
       0.042392395 0.005464363 0.01973531 0.021669813
000360 a3 3b 3b 3c 4c a1 dc 3c bf 0d a6 3c 9a eb fe 3b
       0.011427793 0.026932381 0.020270227 0.0077795507
000370 40 ad ee 3c 72 80 57 3c 83 8d f8 3c 88 53 76 bc
       0.029135346 0.013153182 0.030340916 -0.015034564
000380 ca 3c c1 3c 2e 82 2d 3d 13 24 e8 3c e5 4b cb 3c
       0.023588557 0.042360477 0.028337514 0.024816463
000390 8c cb 4c 3d 60 3a 1c 3d 3f d2 2f 3d 2b af d1 3c
       0.049998805 0.03814161 0.042925116 0.025596222
0003a0 d8 c4 23 3c b7 72 be 3c 98 c2 1a 3d 3c 5c a1 b9
       0.009995662 0.02324806 0.037783235 -0.00030777033
0003b0 a1 a9 c1 b8 33 20 90 3c 01 27 12 3d a9 6d cb 3c
       -9.234553e-05 0.017593479 0.03568173 0.024832563
0003c0 17 82 0d 3d 9a bc 2f 3d 64 4d d3 3c 7c 72 c0 3b
       0.03454789 0.042904474 0.025793739 0.0058730226
0003d0 f6 f5 34 3d a3 ed 51 3d 93 12 62 3d 5e f8 25 3d
       0.04417988 0.05125202 0.055193495 0.040520065
0003e0 9e d7 1d 3d 97 a0 95 3d 83 67 e2 3c 4d 9b ad bb
       0.038535707 0.07306021 0.027637249 -0.0052980543
0003f0 d3 96 74 3c c9 88 6d bb 0a d4 2a 3d 5b 69 07 3b
       0.014928537 -0.003624486 0.041706122 0.0020662162

exp_avg f4 [64, 1, 9, 9]
000000 fd 42 be 39 63 7a 9f 39 10 1c 8c 39 98 b1 56 39
       0.00036289534 0.00030418028 0.0002672379 0.00020474789
000010 15 a3 4b 39 0c 9e 4b 39 3b 2a 76 39 6a 0b 64 39
       0.00019420341 0.00019418466 0.0002347612 0.00021748026
000020 76 aa 6d 39 70 9e c4 39 d4 24 9a 39 0d a0 8b 39
       0.00022665583 0.00037502078 0.00029400608 0.00026631393
000030 81 fb 5b 39 79 49 4f 39 ed f2 4b 39 86 c1 64 39
       0.0002097916 0.00019768429 0.00019450086 0.00021815868
000040 54 f9 67 39 b9 48 73 39 d3 89 cc 39 0a b5 af 39
       0.00022122759 0.00023201377 0.000390126 0.00033513486
000050 91 0a 8f 39 82 08 8c 39 21 0f 75 39 34 87 4d 39
       0.00027282958 0.0002670922 0.00023370657 0.0001960069
000060 35 7c 65 39 2e d4 69 39 eb cc 77 39 0b c2 cf 39
       0.00021885413 0.00022299655 0.00023632094 0.0003962669
000070 85 c0 ca 39 af ce bb 39 f1 f9 9a 39 19 5a 90 39
       0.0003867188 0.0003582141 0.0002955939 0.00027532948
000080 9b 5d 81 39 85 6a 74 39 b2 e4 7c 39 22 9d 8c 39
       0.0002467454 0.00023309335 0.00024117788 0.00026819954
000090 2a 51 d9 39 93 a6 c9 39 eb 63 c5 39 a8 e6 b6 39
       0.00041449937 0.00038461815 0.00037649213 0.00034885597
0000a0 36 8f a3 39 fb a6 9c 39 c5 56 95 39 02 08 8a 39
       0.00031196483 0.0002987905 0.00028484143 0.00026327377
0000b0 7c df 8b 39 d9 fb f3 39 ab be e9 39 c6 64 d6 39
       0.00026678655 0.00046536213 0.00044583282 0.00040892343
0000c0 fb 1b cd 39 b0 e6 bb 39 ac 03 a9 39 0b d7 9c 39
       0.00039121494 0.00035839295 0.00032236928 0.00029914858
0000d0 8b 5a 93 39 e0 fb 98 39 e7 b6 f3 39 bb be e7 39
       0.00028105485 0.0002917936 0.00046484845 0.0004420186
0000e0 4d 85 e7 39 b9 30 d8 39 14 d7 c8 39 ae 9b b4 39
       0.0004415907 0.00041235032 0.00038307218 0.00034448266
0000f0 f4 a2 a9 39 f8 e3 a7 39 2f 33 99 39 09 8d 0d 3a
       0.000323556 0.00032022572 0.0002922057 0.0005399739
000100 6f ec 03 3a dd 1d 02 3a c7 18 f6 39 f4 c7 ca 39
       0.0005032485 0.00049635564 0.00046939237 0.0003867742
000110 d2 2a ca 39 1a 74 b9 39 ad 09 a8 39 f4 07 a2 39
       0.00038560346 0.00035372452 0.00032050666 0.00030904973
000120 f8 57 08 3a f8 a9 fe 39 c3 02 06 3a bc 1c 00 3a
       0.00052010966 0.00048573292 0.0005112106 0.0004887094
000130 f5 0d de 39 b8 c5 ce 39 4a 01 cc 39 7f cb cf 39
       0.00042353538 0.00039438694 0.00038910873 0.00039633733
000140 a0 37 b7 39 33 54 17 ba 46 af 1c ba 26 03 26 ba
       0.00034945924 -0.00057727395 -0.00059770455 -0.00063328666
000150 35 0e 34 ba 9b 11 37 ba da 86 2f ba b3 0a 28 ba
       -0.0006868572 -0.00069835194 -0.00066958147 -0.0006410286
000160 0f 51 24 ba 86 3b 22 ba b0 06 14 ba 80 ed 20 ba
       -0.0006268182 -0.0006188679 -0.00056467485 -0.0006138906
000170 b5 57 35 ba 57 13 3c ba 3d 23 3d ba 14 09 3b ba
       -0.00069176714 -0.0007174513 -0.0007215029 -0.00071348366
000180 61 85 30 ba 67 3f 1f ba 46 3f 22 ba a4 cb 14 ba
       -0.0006733742 -0.00060748163 -0.0006189238 -0.0005676097
000190 b3 84 28 ba 18 54 3e ba 9b 56 4e ba a9 94 47 ba
       -0.0006428465 -0.0007260456 -0.00078711816 -0.00076133996
0001a0 c4 08 39 ba 8c c0 34 ba b6 a4 1f ba 32 79 1f ba
       -0.0007058496 -0.0006895147 -0.00060899125 -0.0006083428
0001b0 70 0a 17 ba 62 07 25 ba 87 dd 3d ba a3 44 4a ba
       -0.0005761748 -0.00062953506 -0.0007242788 -0.0007715916
0001c0 2d d2 44 ba 55 05 37 ba b7 ee 2c ba fb a8 21 ba
       -0.0007508125 -0.00069816905 -0.00065968506 -0.00061668426
0001d0 0a cb 1e ba ff 21 17 ba 5e 38 1c ba 48 58 2b ba
       -0.0006057477 -0.00057652587 -0.0005959327 -0.0006536287
0001e0 f9 b7 38 ba 6e b8 43 ba 20 29 32 ba 30 b3 2a ba
       -0.0007046457 -0.0007466142 -0.0006796289 -0.00065116864
0001f0 54 fe 24 ba 0b e0 17 ba e4 11 15 ba 22 3d 1a ba
       -0.00062940014 -0.0005793578 -0.0005686565 -0.0005883743
000200 7b af 25 ba eb 3a 32 ba e7 45 2b ba 48 bc 24 ba
       -0.0006320399 -0.00067989406 -0.00065335486 -0.00062841596
000210 ef 6e 26 ba cc 61 1d ba 51 c8 1e ba 71 ad 17 ba
       -0.0006348928 -0.00060036476 -0.0006057071 -0.00057860377
000220 5d d6 1d ba 5f c6 1e ba 13 9c 1e ba 14 7a 23 ba
       -0.00060210173 -0.0006056781 -0.00060504786 -0.00062361476
000230 e4 a2 24 ba 6d 6b 1c ba 0a 87 1c ba 8b b5 17 ba
       -0.0006280376 -0.00059669354 -0.000597105 -0.0005787245
000240 56 29 1b ba 1e ff 12 ba 4e a0 16 ba 9a 3e 19 ba
       -0.00059189403 -0.00056074734 -0.0005745933 -0.0005845815
000250 5f ed 13 ba 9e f9 16 ba 5a 63 15 ba 94 87 18 ba
       -0.0005642976 -0.0005759242 -0.00056987035 -0.00058185426
000260 38 38 20 ba 52 76 1a ba ef d8 13 ba 89 05 0d ba
       -0.0006111893 -0.0005892265 -0.00056399306 -0.0005379548
000270 8c 24 12 ba 83 08 0e ba 61 9f 11 ba 86 64 0f ba
       -0.0005574904 -0.00054181385 -0.00055550603 -0.0005469996
000280 34 c2 16 ba a8 fe 18 ba 96 83 10 bb 7b a8 0c bb
       -0.00057509844 -0.00058362866 -0.0022051088 -0.0021462727
000290 e2 d2 09 bb 4b 6c ff ba 11 e5 e9 ba 01 41 dd ba
       -0.0021030237 -0.001948723 -0.0017844756 -0.0016880335
0002a0 c1 c1 d7 ba 95 ea c6 ba b1 6e bc ba c2 bf 0e bb
       -0.0016460941 -0.0015176112 -0.001437625 -0.0021781777
0002b0 38 e2 0c bb ef 12 0a bb d0 01 f9 ba cd ff e9 ba
       -0.0021497142 -0.0021068414 -0.0018997733 -0.0017852724
0002c0 8e f1 da ba 69 fc ce ba a4 b3 c0 ba 63 22 ba ba
       -0.0016704069 -0.0015791777 -0.0014701975 -0.0014200922
0002d0 12 ac 0f bb a0 b3 0c bb 5a a1 04 bb 64 76 ef ba
       -0.002192263 -0.002146937 -0.0020237775 -0.0018269536
0002e0 be 0a e5 ba 51 8b d8 ba e2 47 ca ba 7b 5a c1 ba
       -0.0017474515 -0.0016521012 -0.00154328 -0.0014751697
0002f0 17 b6 b6 ba 3f 11 0d bb 9e c9 06 bb 36 61 01 bb
       -0.0013939765 -0.0021525172 -0.002056695 -0.001974178
000300 6e cb f4 ba c0 de e6 ba 04 77 db ba 88 11 c5 ba
       -0.001867635 -0.0017613992 -0.0016743843 -0.0015035132
000310 6c 63 b8 ba af f7 ad ba ba c6 0b bb 59 02 0a bb
       -0.0014067716 -0.0013272668 -0.0021328167 -0.0021058528
000320 5e 38 04 bb cb c0 fd ba 9b d3 eb ba 35 1b d4 ba
       -0.00201752 -0.0019359825 -0.001799214 -0.0016182425
000330 62 a1 c3 ba 5d f5 a8 ba 0c 0c a7 ba 56 55 0d bb
       -0.0014925415 -0.0012890507 -0.0012744679 -0.0021565757
000340 45 72 08 bb b1 ca 01 bb f1 42 f3 ba b2 ea e2 ba
       -0.0020820063 -0.0019804651 -0.0018559379 -0.0017312376
000350 11 70 d4 ba a0 4c b3 ba 0f c0 ad ba 05 77 a5 ba
       -0.0016207715 -0.0013679452 -0.001325609 -0.0012623972
000360 3b d9 07 bb a9 0d 08 bb 0a 92 fd ba 05 63 f0 ba
       -0.0020728845 -0.0020760095 -0.0019345891 -0.0018340057
000370 a3 78 d7 ba de c0 cb ba 8e cd ac ba 45 c8 a7 ba
       -0.0016439151 -0.001554515 -0.0013183819 -0.0012800774
000380 04 b6 9f ba 3a 1d 05 bb ad 8d 03 bb 22 e7 f9 ba
       -0.0012184982 -0.002031161 -0.002007346 -0.0019066075
000390 dd 55 e8 ba db ba ce ba 0c 2e b4 ba b1 ac aa ba
       -0.0017725785 -0.001577224 -0.0013746633 -0.0013021437
0003a0 e7 14 a0 ba c6 a1 9e ba ff d2 01 bb ce 0d ff ba
       -0.0012213261 -0.0012102656 -0.0019809601 -0.001945907
0003b0 c4 64 f7 ba b9 3c e2 ba 60 3c ca ba 7d 53 bc ba
       -0.0018874635 -0.0017260528 -0.001542937 -0.0014368143
0003c0 55 a8 a7 ba ba fb 9b ba b6 51 a4 ba 72 ce 76 3b
       -0.0012791256 -0.0011900582 -0.0012536559 0.0037659672
0003d0 a8 71 6e 3b 83 a7 76 3b 77 c6 7a 3b c9 a7 75 3b
       0.0036383662 0.0037636466 0.0038265267 0.003748404
0003e0 e8 4e 6d 3b 51 b1 6f 3b ef bf 71 3b 5d f4 69 3b
       0.0036210362 0.0036574195 0.0036888083 0.003569863
0003f0 c5 bc 6f 3b 27 16 73 3b c2 f6 76 3b d2 0f 78 3b
       0.0036581021 0.0037092061 0.00376837 0.0037851227

exp_avg_sq f4 [64, 1, 9, 9]
000000 9d 40 70 37 29 56 65 37 ec 72 5a 37 96 e3 4a 37
       1.4320159e-05 1.3669524e-05 1.302057e-05 1.2093127e-05
000010 f3 01 4a 37 49 0a 4b 37 86 83 4e 37 e0 5e 5c 37
       1.2040592e-05 1.2102138e-05 1.23091795e-05 1.3135112e-05
000020 41 4f 68 37 d8 4e 7b 37 50 01 73 37 5b 78 6a 37
       1.384673e-05 1.4979123e-05 1.4484234e-05 1.3975509e-05
000030 fb 51 5b 37 11 e1 52 37 ef b1 52 37 5e 05 52 37
       1.3072505e-05 1.2569378e-05 1.2558404e-05 1.2518225e-05
000040 a4 e5 53 37 26 80 60 37 47 3c 88 37 48 bd 86 37
       1.2630047e-05 1.3381277e-05 1.6240532e-05 1.6062186e-05
000050 2e 7e 83 37 be 6c 7c 37 99 b8 6d 37 25 51 60 37
       1.5675174e-05 1.5045689e-05 1.4169281e-05 1.3370333e-05
000060 f8 08 58 37 ff d1 54 37 0c 2b 5b 37 b8 cf 94 37
       1.28766915e-05 1.2685078e-05 1.306344e-05 1.7739701e-05
000070 34 92 9c 37 c6 5d 99 37 31 73 8e 37 3c be 85 37
       1.866473e-05 1.8282688e-05 1.698136e-05 1.594342e-05
000080 ec 9a 72 37 0e b3 63 37 5a 60 56 37 28 a5 59 37
       1.4460395e-05 1.3571944e-05 1.2777828e-05 1.2972661e-05
000090 9f 11 a7 37 41 ac ad 37 92 ea b1 37 e2 f3 a6 37
       1.9916157e-05 2.0703419e-05 2.1209275e-05 1.9902309e-05
0000a0 fd 10 94 37 2b 0e 83 37 4e 25 68 37 82 5c 58 37
       1.7650886e-05 1.5623014e-05 1.3836963e-05 1.2896142e-05
0000b0 a7 1b 58 37 08 05 b6 37 1a d5 be 37 8b 5c c4 37
       1.2881042e-05 2.1698434e-05 2.2748998e-05 2.3408114e-05
0000c0 ba bc b3 37 29 dd a4 37 c4 87 8d 37 e6 dc 77 37
       2.1426345e-05 1.965331e-05 1.687173e-05 1.4773779e-05
0000d0 95 8c 60 37 85 4e 5b 37 e5 a0 bb 37 db 92 c9 37
       1.3384172e-05 1.3071699e-05 2.236706e-05 2.4029452e-05
0000e0 d7 63 c8 37 25 10 bb 37 72 93 ab 37 a4 70 91 37
       2.388835e-05 2.2299655e-05 2.0453448e-05 1.73378e-05
0000f0 d6 8e 81 37 d1 c2 6d 37 bf 91 65 37 db f8 b6 37
       1.5444512e-05 1.417166e-05 1.3683398e-05 2.1811973e-05
000100 04 d1 bf 37 65 77 bf 37 8c d4 b6 37 d3 8f a4 37
       2.2866305e-05 2.2824572e-05 2.1795066e-05 1.9617297e-05
000110 eb f6 95 37 cf a6 84 37 09 1b 7c 37 26 b9 71 37
       1.7877164e-05 1.5813303e-05 1.5026665e-05 1.4407828e-05
000120 f1 60 ad 37 1b ad ad 37 78 1d af 37 19 44 a9 37
       2.0668349e-05 2.0703816e-05 2.0875348e-05 2.017808e-05
000130 bc 45 a3 37 18 a5 94 37 c1 64 8a 37 56 39 85 37
       1.9463587e-05 1.7719853e-05 1.64978e-05 1.5881535e-05
000140 05 75 7e 37 98 14 2e 37 17 b3 3b 37 47 a4 47 37
       1.51668255e-05 1.0376003e-05 1.1187766e-05 1.1899573e-05
000150 ee da 57 37 01 ea 61 37 4b ff 4c 37 de 3a 3a 37
       1.2865972e-05 1.3465528e-05 1.2218788e-05 1.110017e-05
000160 01 79 42 37 61 4d 36 37 fa 64 37 37 08 51 43 37
       1.15914745e-05 1.08660615e-05 1.093116e-05 1.1641772e-05
000170 09 f6 62 37 df 09 62 37 22 13 7b 37 6a 7d 6c 37
       1.3527934e-05 1.3472948e-05 1.49652205e-05 1.4095896e-05
000180 36 70 57 37 e0 22 45 37 a8 0c 42 37 a0 a4 3c 37
       1.2841125e-05 1.1750235e-05 1.1566248e-05 1.1244003e-05
000190 7e 2c 4e 37 10 25 65 37 cf 99 87 37 65 a4 88 37
       1.2288916e-05 1.3658093e-05 1.6164877e-05 1.6289016e-05
0001a0 f8 99 68 37 83 07 58 37 c5 3e 3c 37 81 28 38 37
       1.3864126e-05 1.2876352e-05 1.1220288e-05 1.0976685e-05
0001b0 72 8c 3c 37 17 b6 49 37 c2 42 58 37 b2 7d 88 37
       1.1238373e-05 1.202293e-05 1.28901465e-05 1.6270995e-05
0001c0 c3 9e 86 37 e5 74 67 37 68 6e 4e 37 8c e1 42 37
       1.6047974e-05 1.379589e-05 1.2304263e-05 1.1615815e-05
0001d0 de d1 33 37 26 65 33 37 ed 9c 40 37 1a 72 50 37
       1.0718095e-05 1.0692782e-05 1.1480629e-05 1.2424332e-05
0001e0 98 b0 7c 37 19 33 89 37 67 b7 6f 37 98 a6 55 37
       1.5061487e-05 1.6355467e-05 1.4288212e-05 1.27345775e-05
0001f0 e5 97 53 37 d6 ee 33 37 94 6d 33 37 30 43 37 37
       1.2611946e-05 1.072484e-05 1.0694745e-05 1.0923293e-05
000200 8e 8a 53 37 e1 0d 53 37 d3 b9 5a 37 1d ca 67 37
       1.260884e-05 1.25798115e-05 1.3037078e-05 1.3815731e-05
000210 3a 01 4e 37 d1 88 3e 37 f8 b7 3b 37 f5 44 30 37
       1.2278842e-05 1.1356738e-05 1.1188902e-05 1.0506473e-05
000220 56 92 41 37 05 80 43 37 d1 b2 4b 37 8b 11 4c 37
       1.1537768e-05 1.1652713e-05 1.2141377e-05 1.2163432e-05
000230 7e be 56 37 63 83 51 37 f1 74 49 37 43 5e 3a 37
       1.2799746e-05 1.2487962e-05 1.2007761e-05 1.1108411e-05
000240 bc b3 28 37 b3 cf 36 37 20 7f 33 37 1f 0a 35 37
       1.0055428e-05 1.0896404e-05 1.069883e-05 1.0790797e-05
000250 79 5e 49 37 fb 24 45 37 a1 01 42 37 02 9c 44 37
       1.200253e-05 1.1750725e-05 1.156368e-05 1.1718834e-05
000260 0d b4 38 37 fc af 2f 37 9b ba 30 37 4b 95 39 37
       1.1009176e-05 1.0471787e-05 1.0533865e-05 1.1061619e-05
000270 5e 06 38 37 40 15 32 37 a3 ae 2e 37 30 ef 3b 37
       1.0968737e-05 1.0614574e-05 1.0411869e-05 1.1201759e-05
000280 9b 40 3b 37 5d 9e 3b 37 14 79 28 39 82 cf 2c 39
       1.1161111e-05 1.118294e-05 0.00016066834 0.00016480501
000290 f3 f3 2e 39 2b 89 2a 39 06 c2 22 39 b4 e1 1c 39
       0.00016684811 0.00016263562 0.00015521803 0.000149614
0002a0 62 4a 19 39 09 f3 17 39 95 f8 18 39 7c 7d 2f 39
       0.00014618927 0.0001449102 0.00014588454 0.00016736047
0002b0 2a 05 36 39 81 c0 37 39 be a2 2f 39 bb 28 25 39
       0.00017358796 0.00017523953 0.00016749927 0.000157508
0002c0 a5 60 1d 39 0f c2 1c 39 d1 fd 1d 39 c0 64 1e 39
       0.0001500869 0.00014949612 0.00015067241 0.00015105586
0002d0 0c 16 35 39 c3 03 3d 39 6d 12 3b 39 9f 54 30 39
       0.00017269718 0.00018025846 0.00017840574 0.00016816192
0002e0 40 ff 23 39 63 d4 1c 39 8a 82 1f 39 51 7e 23 39
       0.0001563998 0.0001495644 0.00015212051 0.00015591948
0002f0 ec bb 24 39 b2 36 35 39 13 62 3a 39 ad d9 36 39
       0.00015710265 0.0001728188 0.00017774878 0.00017437963
000300 83 8d 29 39 00 53 1e 39 7d 6d 1d 39 fc bb 26 39
       0.00016169813 0.00015098974 0.00015013474 0.00015901023
000310 55 19 2e 39 1d 98 2d 39 68 ce 2f 39 c1 ed 31 39
       0.0001660337 0.00016555232 0.00016766193 0.00016968606
000320 b1 6d 2a 39 51 ef 1d 39 5d a6 18 39 7e 89 20 39
       0.00016253327 0.00015061839 0.00014557825 0.00015310009
000330 34 6e 2f 39 43 19 3a 39 4c a7 37 39 89 4e 25 39
       0.00016730354 0.00017747753 0.00017514563 0.00015764883
000340 4e d6 23 39 a7 6b 1b 39 6c 49 13 39 94 ed 16 39
       0.00015624726 0.00014822056 0.00014046364 0.0001439362
000350 b5 cc 22 39 90 d0 37 39 3b f8 3c 39 b5 9f 3a 39
       0.00015525783 0.00017529936 0.0001802155 0.00017797838
000360 24 52 19 39 48 55 16 39 88 9b 10 39 fc d4 0f 39
       0.00014621817 0.00014336884 0.0001379085 0.00013716886
000370 18 2d 18 39 f4 16 2a 39 90 85 36 39 84 fa 3e 39
       0.00014512648 0.00016221014 0.00017406628 0.00018213136
000380 d0 57 3a 39 e1 06 11 39 39 fb 0e 39 fd 73 0c 39
       0.00017771055 0.0001383084 0.00013635763 0.0001339465
000390 7a 07 0e 39 70 51 1a 39 cf ca 29 39 e0 1b 35 39
       0.0001354496 0.00014716922 0.00016192648 0.0001727189
0003a0 d3 5e 38 39 df 02 38 39 71 01 0e 39 78 34 0d 39
       0.00017582932 0.00017548677 0.00013542712 0.00013466354
0003b0 ed 60 0c 39 a1 f0 0f 39 b6 44 18 39 17 b2 21 39
       0.00013387548 0.00013727184 0.00014521446 0.000154205
0003c0 77 47 2e 39 c1 81 30 39 9d 39 2c 39 7f 8f 3f 39
       0.00016620556 0.00016833005 0.00016424661 0.00018268636
0003d0 51 5c 33 39 0a 7c 42 39 a0 41 46 39 39 02 43 39
       0.00017105161 0.0001854749 0.00018907199 0.00018597477
0003e0 f1 02 38 39 c5 36 34 39 36 c8 35 39 5d a4 2d 39
       0.00017548703 0.00017186541 0.0001733609 0.00016559796
0003f0 f5 2d 3c 39 a3 b0 3a 39 be 3b 40 39 af 34 4b 39
       0.00017946197 0.00017804145 0.00018332803 0.00019379215

exp_avg f4 [64]
000000 9b ad 3f 3a 7b 6b 64 bb bf b4 89 bb 2b 67 e7 3b
       0.0007311941 -0.0034854102 -0.004202455 0.007061859
000010 29 5b 70 bb d3 b3 d3 b9 b8 89 ba 3b 08 37 f2 bb
       -0.003667543 -0.00040379036 0.005692687 -0.007391814
000020 6e 5f 45 3c 94 a3 e9 39 4a 48 9a 3b 56 c4 0e bb
       0.012046678 0.00044563098 0.0047083246 -0.0021784506
000030 c3 2d 5e 3b f8 0d ae ba 01 70 08 3c d9 c3 92 bb
       0.0033901788 -0.001327931 0.008327485 -0.0044789133
000040 05 b6 2c 3c cd bb b4 bc 8e 5a e1 ba 4a b6 57 bc
       0.010541444 -0.022062207 -0.0017193125 -0.01316602
000050 04 00 00 80 58 cb 39 ba cd 06 f8 3a 16 a9 1d ba
       -6e-45 -0.00070874905 0.0018922925 -0.00060142705
000060 05 46 aa 39 59 bb 43 bb 6d 2a bf 3b d2 49 36 3c
       0.00032477095 -0.0029866307 0.005833915 0.011125999
000070 2e fb 46 3a b5 93 42 bc 84 47 94 bb f5 50 af bb
       0.0007590529 -0.011876036 -0.004525127 -0.005350227
000080 d8 29 77 3c 4d ad c0 3b fb 5b d7 bb e1 67 85 bb
       0.01508566 0.005880034 -0.006572244 -0.004071221
000090 1b 50 16 bc 06 3b 40 ba 0d cb 05 bc d8 c8 b6 ba
       -0.009174372 -0.0007333014 -0.008166087 -0.0013945354
0000a0 7c 09 a9 bb fc cc 74 3c 90 44 2c bb 81 37 39 3c
       -0.0051586013 0.01494145 -0.0026285984 0.011304737
0000b0 f1 82 b4 b9 b4 47 50 bc 16 96 5e bc 2f c0 d4 ba
       -0.00034429834 -0.012712408 -0.013585588 -0.0016231592
0000c0 c4 37 00 ba 10 7d 72 b9 77 91 f6 3c e5 6c 6f bc
       -0.0004891122 -0.00023125508 0.03009866 -0.014613365
0000d0 ac 17 44 3b 9a c3 74 38 17 d3 85 bb c5 66 a3 bb
       0.0029921336 5.83563e-05 -0.0040840018 -0.0049866163
0000e0 61 b5 79 ba 98 d7 cf bb 90 7f fd ba 7f d2 b6 ba
       -0.0009525624 -0.0063428394 -0.0019340385 -0.0013948231
0000f0 2e 62 b7 b9 a5 a5 a9 39 9e 8c 86 3a b2 ac 9c bb
       -0.0003497763 0.00032357607 0.0010265296 -0.004781329

exp_avg_sq f4 [64]
000000 7a 83 18 39 f3 b7 55 39 b7 60 ab 3a 47 91 16 3b
       0.00014544828 0.0002038179 0.0013075088 0.0022974776
000010 47 22 f3 3b c1 30 fd 3a b7 5e 16 3b b9 33 45 3b
       0.0074198577 0.0019316898 0.0022944638 0.0030090644
000020 76 e9 a6 3a dc bb fa 36 af 77 1d 3a 26 e8 b4 3a
       0.0012734372 7.4724503e-06 0.0006006909 0.0013802096
000030 35 60 d8 38 90 37 41 3b d5 5f ab 39 41 e2 81 3c
       0.000103176026 0.002948258 0.00032687062 0.015854957
000040 0e fd 3d 3b 66 c2 df 3c 9f 1b 2f 3a a2 98 95 3c
       0.0028989944 0.027314376 0.0006679836 0.018261258
000050 28 77 e7 0a be d0 49 3b 21 6e af 3a af 00 10 3a
       2.2289312e-32 0.0030794586 0.0013384261 0.0005493266
000060 68 33 53 3b aa 06 a9 39 49 e3 66 3a 87 98 bd 3a
       0.0032226685 0.00032239157 0.0008807672 0.0014465012
000070 be a6 5e 3b b6 9e 88 3c c1 5d 8c 3a 18 f2 9c 3a
       0.0033973898 0.016677242 0.0010709093 0.0011974005
000080 66 bb 8f 3b 70 22 ea 39 5e 3c bd 39 90 4b 3a 3b
       0.0043863533 0.00044657616 0.00036093866 0.0028426386
000090 1c 49 77 3c d3 b0 51 39 f9 92 55 3a 54 3f b0 39
       0.015093114 0.00019997665 0.0008147206 0.0003361652
0000a0 67 26 76 3b ec 6c 29 3b 1a 01 a2 38 54 47 ed 3a
       0.003755951 0.0025852276 7.724967e-05 0.0018102922
0000b0 d2 a6 fd 38 2a 59 c0 3b 09 6b 3c 3c 79 00 e6 39
       0.00012095053 0.005870004 0.011500129 0.0004386937
0000c0 1a bf 8a 3a d3 72 21 38 56 2a 7a 3c e2 24 b1 3c
       0.0010585517 3.849233e-05 0.015268883 0.021624032
0000d0 43 e5 ae 39 6d e0 17 3a 30 b5 a9 39 63 e6 8a 3a
       0.0003335868 0.0005793635 0.00032369187 0.0010597225
0000e0 5e 5f c7 39 50 44 d0 39 5d 53 98 3a 16 8a 80 38
       0.00038027292 0.00039723748 0.0011621524 6.129236e-05
0000f0 72 28 20 3b 56 d1 b9 37 db 1a 81 3a 6d df 86 3b
       0.002443817 2.2151198e-05 0.0009849922 0.00411599
