logs/biosr_ccps_rcan_model-SRCNN_250305_lr0.0001_bs1_Ps256_Npatch128_N300/model_084.pth (torch, 695046 bytes, 15 tensors)

conv1.weight f4 [64, 1, 9, 9]
00000000: 3f42 a73d d5d0 e2bc e320 ac3d 7f05 b0bc
00000010: b264 403d d677 20bd 55d6 083e 0419 66bc
00000020: 45f7 4b3e d758 e0bc 5d83 bdbd 512d 493d
00000030: 315e 47bd ae70 073d 1305 343d 260e fd3c
00000040: 0895 9e3d 2eac d53d d510 b03d 2958 1f3d
00000050: 57c6 c4bd 4b93 94bc 61b5 4fbd 1455 c0bd
00000060: d04a 8bbd 313c 93bd 8cad 483d dff4 d1bd
00000070: cc7c 0dbd dc67 c03c 9495 9dbd b3fd ccbd
00000080: fc41 153b 5465 f9bc 04b3 2cbd 2945 943d
00000090: 5c73 95bd 8715 81bd 9caf 9ebb 1561 2e3d
000000a0: fa1e 05bd 57c9 933d 60a0 543d 67b8 843d
000000b0: 81a2 b33c 197b 14bd 08c9 c8bd f465 28bb
000000c0: 66ca c3bd 0280 ca3c 17f1 d33c eac9 b83c
000000d0: 0ff7 5a3d f152 fc3d 9a31 5dbd 86c3 eabc
000000e0: da8b 24bc e4de 013d 92bc 9d3d 8ffc 753d
000000f0: 18f9 3dbd 3b55 d63d 2960 c03b bce8 1d3d
00000100: 1cc5 113d 04ac 9b3a 9217 54bd 70c1 56bd
00000110: 7e53 1a3c 73e1 87bd 5461 babc 8464 8bbd
00000120: 0348 333d e361 c5bc 235c ae3c ec26 633d
00000130: 41b1 49bd 8b6a 0fbc 5102 afbd bff9 b6bb
00000140: 6b50 8ebd 104c 41bd 6aa3 64bb 71ad efbc
00000150: cded db3b 3d1c 943d 2ac4 03bd 8baf fbbd
00000160: 12b4 6a3d 861c 8abc 8226 a43c 07f4 8cbc
00000170: e7d4 6a3d 7815 d0bd cc68 8f3d 7593 983d
00000180: 253e 953d e473 103d de06 ba3d 2fd4 0c3d
00000190: 3ea6 9c3c 76cb b2bc edf4 ac3d d941 983d
000001a0: fe16 4abd facf 4a3c 883e c0bd 1807 c5bc
000001b0: cbc5 df3c f2ec 5cbc 58c3 f4bd d545 a93d
000001c0: b4d2 f83c a757 babd 2f32 d6bd 458a 3dbd
000001d0: fa3e bebd 9281 7fbd 8983 73bd 1ca5 cfbd
000001e0: 8a8e 453d b849 f13d 50a0 6a3b 65a9 26bd
000001f0: 86e4 b03d c997 d4bd 3376 0abd 4d20 c1bd
00000200: d0cb 083d 4dd1 b0bd 8bee bcbd 0efe 3c3d
00000210: 202b 87bd 5bb4 bfbd f664 6a3b 81f1 4fbd
00000220: 2796 8c3d b509 f63b 74f9 f83b 1279 27bd
00000230: 237a 733d bc3a 903d 6012 ab3d e1e9 443c
00000240: 45c4 f1bd 8925 1d3c 2441 95bd ca54 c2bd
00000250: 04b0 933d 50e5 263d 9c9e 033d 55b6 de3d
00000260: 7e79 ef3c 2998 92bc 84e4 f2bc 67cc 423d
00000270: cad2 843c a5b8 85bd 748c cbbd c0ce 863d
00000280: ba85 923d 6319 f63d b07c 803d ed94 fc3d
00000290: bd60 50bd 3213 7c3d 7759 173d bb12 e53c
000002a0: 9ecb 9cbd 2676 86bd 15c9 403d d910 e13d
000002b0: 3b62 943d 24a3 fdbc 89e7 f33d b43f 6a3d
000002c0: 22be 943c a98a aa3c 6269 b53d e194 993d
000002d0: 0339 a93d af57 55bd 6251 bf3d ab92 ca3d
000002e0: d490 77b9 55e4 753d d26b 93bd 3680 ddbd
000002f0: 8ff4 abbd a384 f33d 0739 dd3d 1b40 b23c
00000300: 6853 c63d 47e3 ab3d de79 2dbd fe58 b63c
00000310: 3168 7dbd 9f4c 02be 1fb8 de3d a4f4 23bd
00000320: 7f77 febc c68c ad3c 151c 8d3d a164 a23d
00000330: 0158 febc ee3d 883b b57d adbb 4d41 1abd
00000340: 0d98 4ebc a562 b13c 191b a0bd 7492 503d
00000350: b44a dfbd 7a0d c43c dbb6 e4bd 15ad 0bbe
00000360: 63e8 ea3c 7467 c73c a8c0 2dbd 6f84 833d
00000370: 6b58 b73d 31b2 1b3c eaae ddbd f139 edbd
00000380: 9be5 23be f30d 0d3c 3724 d73d b9fd 553c
00000390: ae7d c8bd bfba 8e3d 381b e43c fc51 a5bd
000003a0: 514d 1bbe cf8c a23c 4987 e53d 8e57 a73c
000003b0: c076 14bd 51fd d6bc 9b60 38bd 53ac ecbd
000003c0: dc58 c63b 2875 c2bd ccc9 03be f78e da3d
000003d0: 1f3b b0bd d399 c73d 8c77 f23d e2df 973d
000003e0: 2722 0cbd be9c 3abd c789 cf3c 62c0 9abd
000003f0: 3609 4d3d ef11 a3bb 526a 073c bb7e ea3d
0.08166932 -0.02768747 0.0840471 -0.021486996 0.04697103 -0.039176784 0.13363011 -0.01404405
0.19918545 -0.027386112 -0.09253571 0.049115483 -0.048673812 0.033066444 0.04395015 0.030890536
0.07743269 0.10433231 0.085969605 0.038902435 -0.09608143 -0.018136641 -0.050710086 -0.09391227
-0.06801379 -0.07189215 0.048993632 -0.102517836 -0.034542844 0.023487024 -0.076945454 -0.10009327
0.0022774925 -0.030443825 -0.04216291 0.07239754 -0.07297394 -0.06302934 -0.0048427116 0.042573053
-0.032500245 0.07216137 0.051910758 0.064804845 0.021928074 -0.036250208 -0.09803969 -0.0025695534
-0.09560089 0.024719242 0.025871797 0.022557218 0.05345827 0.12320507 -0.05400238 -0.028657686
-0.010043109 0.031706706 0.077019826 0.06005531 -0.046380132 0.10465475 0.005870838 0.03855203
0.03558837 0.0011876826 -0.05178029 -0.05243057 0.00941932 -0.06634798 -0.022751488 -0.06806281
0.043769848 -0.024094528 0.021284169 0.05545704 -0.049241308 -0.008753429 -0.08545364 -0.0055839713
-0.06948932 -0.04719168 -0.0034887441 -0.029257508 0.0067116977 0.072319485 -0.0321695 -0.122893415
0.057300635 -0.016859304 0.020037893 -0.017206205 0.057331946 -0.10160345 0.0700241 0.0745
0.07287244 0.035266772 0.09083341 0.03438204 0.01912224 -0.021825533 0.084451534 0.074344344
-0.049338333 0.012378687 -0.09386927 -0.024051234 0.027315995 -0.013484227 -0.11951321 0.082652725
0.030373909 -0.090987496 -0.104587905 -0.046274442 -0.092893556 -0.062379427 -0.059451614 -0.10138914
0.04823164 0.11781639 0.003580112 -0.04068889 0.086373374 -0.10380513 -0.03380413 -0.09429989
0.033397496 -0.08633671 -0.09225186 0.046140723 -0.06600022 -0.09360572 0.0035765744 -0.050767425
0.06864577 0.0075084814 0.0075980965 -0.040886946 0.05944265 0.07042453 0.08353114 0.012018652
-0.118050136 0.009591469 -0.07287815 -0.094888285 0.07211307 0.040746033 0.032133684 0.10874621
0.029232737 -0.017894821 -0.02964998 0.047558215 0.016213793 -0.06529359 -0.09938899 0.06582403
0.071544126 0.12016561 0.06273782 0.12333093 -0.050873507 0.061541744 0.036950555 0.027963033
-0.076560244 -0.06565504 0.047066767 0.109895416 0.072452985 -0.03096158 0.11909396 0.05718966
0.018157069 0.020818071 0.08857991 0.074990995 0.08262827 -0.052085575 0.093416944 0.09891256
-0.00023609708 0.060032208 -0.071982995 -0.1081547 -0.08396255 0.11890533 0.10801893 0.021759083
0.09683877 0.08392959 -0.04235255 0.022259232 -0.061866943 -0.12724541 0.10874962 -0.04002823
-0.03106284 0.02118529 0.06890122 0.0792935 -0.031047823 0.004157773 -0.0052945265 -0.037659932
-0.012609494 0.021653483 -0.078176685 0.05092092 -0.1090292 0.023932207 -0.111676894 -0.13640244
0.028675264 0.024341322 -0.04242006 0.06421744 0.08952411 0.009502933 -0.10824378 -0.11583317
-0.16005556 0.008609283 0.10504954 0.0130609805 -0.097895965 0.06969213 0.02784501 -0.08072278
-0.15166213 0.019842533 0.11207444 0.020427492 -0.03624606 -0.026243838 -0.045014005 -0.11556306
0.0060530733 -0.09495002 -0.12869948 0.106718 -0.086050265 0.097461365 0.11839208 0.07415749
-0.034212258 -0.045559637 0.025334252 -0.07556225 0.050057612 -0.004976503 0.008265095 0.11449953

conv1.bias f4 [64]
00000000: 13fc cc3c ba52 573d 47e9 953c 168d 9b3b
00000010: 18f2 d1bd f7ad 9c3d 6189 b93d ef3f 98bd
00000020: 196d 16bd 8b33 e23c e677 10bd 069b 90bc
00000030: f1b3 cfbd d69a 8cbc 4526 a2bd 22de 85bd
00000040: e44a bb3d b275 c6bc 01e7 5ebb bbc5 aabc
00000050: c077 13bd 15fc d2bd 72d6 ebbd 8b33 a2bc
00000060: 9e54 9cbc 07f3 923c 566c d4bc c701 a0bd
00000070: 599b 99bd fb1a 7dbd 6b4a 04bd 2cc2 a2bc
00000080: 3bcc a3bd 007a a4bd 63e6 893d 4822 26bb
00000090: 1f5d 94bd a163 4d3d a32f d8bc c614 1e3e
000000a0: 9975 463d 73a9 7a3d a845 a7bc 2f51 abbc
000000b0: b597 103d e24e f8bd 57e7 43bc 0b20 13bd
000000c0: 14e4 ba3c ee4d f8bc eea8 da3d 1b99 80bd
000000d0: 0f3d f03b b9c9 52bb adc2 8c3d 1eaa 71bd
000000e0: dd08 193d 9dbd a4bd 1c36 213c c96b 463c
000000f0: dbd3 81bc 7ed6 803a 2628 613d b8c9 abbd
0.025022542 0.05256913 0.018299712 0.0047470434 -0.10251254 0.07650369 0.09059406 -0.07434069
-0.036725137 0.027612468 -0.035270594 -0.017652046 -0.10141743 -0.017163675 -0.079174556 -0.06536509
0.09145144 -0.024226043 -0.00340122 -0.020846238 -0.036002874 -0.10301987 -0.115155116 -0.019799968
-0.019083317 0.01793815 -0.025930565 -0.07812839 -0.07500333 -0.06179331 -0.032297533 -0.019867979
-0.07997938 -0.08031082 0.06733396 -0.0025350023 -0.07244324 0.05014384 -0.026389902 0.15437612
0.048451994 0.061196756 -0.020418957 -0.020912735 0.03530093 -0.12124421 -0.011957011 -0.03591923
0.022813834 -0.030310597 0.10676752 -0.062792026 0.0073314975 -0.0032163693 0.06873069 -0.059000127
0.03736197 -0.08043978 0.009839561 0.012110659 -0.01584809 0.0009829549 0.05496993 -0.08388084

conv2.weight f4 [32, 64, 5, 5]
00000000: 8571 b4bc 7d3f 1cbd 04bc 6a3c 6fe9 3bbc
00000010: f261 f43c 9fa7 c43b 2a93 2abc b346 d63c
00000020: bf80 f6bb b9e9 2f3c 9382 53bb da13 e6bb
00000030: 67fc f3bb aaaa a1bc d8e4 f63a d963 35bd
00000040: 2984 adbc ae2f 0ebd 775b 05bd a3cb e137
00000050: 4384 173b c81c 913c 4dab a93c 6cbc 1b3d
00000060: 2193 4c3d 542d fabd 6a61 a5bc c3af 603d
00000070: 43b4 933b f922 a3bc dbc4 6ebb 6462 27bd
00000080: 8139 743d ce23 2d3d b672 803b 6a6c 80bd
00000090: 5ff0 a8bd 815d eb3a 8c44 74bc 2af4 bdbb
000000a0: 216d b1bd f326 9bbd 130a 89bc 8dc3 40bc
000000b0: de12 23bc 568c 42bd 37f3 60bc d728 fc3b
000000c0: f141 b4ba afaa debc 8ab6 883c 9565 0b3c
000000d0: c079 b93c 8009 ef3c 3cda 733c d44e eebc
000000e0: 7182 5bbc ef1a 83bc 981a 65bc 66ac 313c
000000f0: 9719 fbbc ba8d 22ba 9396 0bbc f4f0 293c
00000100: 2292 443c e074 32bd ee65 72bb 9687 06bd
00000110: 0628 0e3d 2f8f 833d b85a 46bb 117a 493c
00000120: 6470 aa3c bda0 563d ce34 263e bd48 b13c
00000130: d3ca debc 4280 97bb 218e bebb 9e41 f53c
00000140: f1ef 1e3c 65d8 773b 554d 16bd f803 13bc
00000150: 2114 733c 4044 32bc c5e0 073c cf48 793b
00000160: 9c63 cc3c a9cb 803c 2c69 a6bb 4ed2 0fbd
00000170: e6d7 4abc 952b fbbb 55cc e1bc 726e 01bd
00000180: 28bd 3bbd 92b4 59bd d0e1 fcbd 55e1 2fbe
00000190: 450e 203b f16a 3f3c 4ad0 0a3c 3a8f 84bc
000001a0: 9591 34bd c3e5 993c a6fa dc3b 089f 8cbb
000001b0: 14c8 023c 0c0c 40bd 083f 073d ff93 c63c
000001c0: 5bc7 773b 2fb7 a9ba 5674 02bd d536 69bb
000001d0: 7d0f 943c 2b79 44bd d6d7 06bd d848 ccbc
000001e0: 2d84 6e3d df2a 393c bb36 133d ce08 3b3d
000001f0: 2c78 803d 0093 b13b 89f1 473c a0dc 453a
00000200: 1600 963c 29f3 97bc 62e1 323b 462d 083c
00000210: d436 85bb 2b79 ff3b 259e 00bd 2312 e5bc
00000220: d36b d0bc 49ce dfbc a55c 08bd 77a5 f2bc
00000230: aa9e 7a3b f679 fabb bfc4 3e3b 2452 853c
00000240: 0a1b cab9 5724 2e3c b4d9 fb3c 6399 963c
00000250: f258 eb3c a005 703c 0a09 683b c9a1 0e3d
00000260: 52e8 613d 1d36 bfbc 38fd 70bd 9328 9ebb
00000270: 46ec 21bb 7243 b5bc 1ecd 84bd 61c3 1bbd
00000280: 7c2c 193c 4944 fabb 05dc 18bc 04b0 65bd
00000290: 2358 ae37 1f10 593d 447e a23c 02ba 58bd
000002a0: 2bcf ea3b 2a52 343c 033d 353d 115b 2c3d
000002b0: e03f 29bd 4581 9e3c 83bc 9f3d d2e9 9fbc
000002c0: d26b eabc f2ed 2e3c 1e94 a2bc 3a5e 08bd
000002d0: 8354 03bd 8b2f 643c 2417 a53c 23ec cdbc
000002e0: 5af3 a33c a029 813a 6dc6 103d 84b3 463c
000002f0: 4758 2ebc 2cd4 70bc 8d00 ad3c ccd8 85bb
00000300: d2bb 6fbc dce9 233c 2530 083d 954a d03c
00000310: 37e8 a13b f7d1 a33b a509 403d 6703 cc3d
00000320: 086f 103d f89a 65bd b64c 15bd 691c c3bc
00000330: ff1f 47bd a67b 57bc 4b97 00bd 55bb 35bd
00000340: 2018 c8bb 040e 923c 3555 bfbd d73b 15bd
00000350: b206 9cbd 8bbf 4cbd a167 cc3d 26bf 12be
00000360: d921 e1bd 2c77 adbd 9366 49bd 15e4 b73d
00000370: 76e3 5fbd ddce 87bd df08 5abd 6a33 543d
00000380: bf18 193e bdd4 8d3c 2c87 f3ba 6873 a4ba
00000390: 1c7c 02bd 15c5 a7bc 2527 463d dba5 b23b
000003a0: 1241 a3bc 27d2 6fbd 2c23 193d 2632 83bd
000003b0: 0641 35bd d65f 8bbd 74a1 70bd 36a9 6e3d
000003c0: 5f76 c5bd 9d37 a1bd e309 dbbc 822c 183d
000003d0: 3476 693d 19e7 b3bd cb7b 20bd f063 e4bc
000003e0: f7e6 773e e359 3c3d e967 8b3d c671 cabc
000003f0: 27f0 5fbd 0b71 99bd ded8 fabd 937e 703d
-0.022026787 -0.038146485 0.014327053 -0.011469229 0.02983186 0.0060014273 -0.010411063 0.026156759
-0.007522672 0.010736876 -0.0032273873 -0.0070214095 -0.00744586 -0.0197347 0.0018836511 -0.044284675
-0.021181183 -0.03471344 -0.03255793 2.6916916e-05 0.0023119606 0.01771392 0.020711565 0.03802149
0.049945 -0.12215677 -0.020188052 0.05485512 0.004507573 -0.019914137 -0.0036433253 -0.040865317
0.059625152 0.042270474 0.0039199246 -0.06270678 -0.08248972 0.0017956943 -0.014908921 -0.005796929
-0.08663393 -0.07575788 -0.016728437 -0.011765373 -0.009953229 -0.047497116 -0.013729862 0.007695298
-0.0013752562 -0.027180998 0.016688604 0.008508106 0.022641063 0.029179335 0.014883574 -0.029090323
-0.013397799 -0.016004054 -0.013983391 0.010844326 -0.03065185 -0.00062009285 -0.008519786 0.010372389
0.011997731 -0.043568492 -0.0036987024 -0.03284415 0.034706138 0.064237945 -0.0030266475 0.012297169
0.020805545 0.052399386 0.16231081 0.02164113 -0.027196323 -0.004623444 -0.005815283 0.029938515
0.009700761 0.003781819 -0.036694843 -0.008973114 0.014836342 -0.01088053 0.008293335 0.0038037782
0.024949841 0.015722113 -0.0050784554 -0.03511267 -0.012380576 -0.0076651075 -0.027563253 -0.03159947
-0.04583469 -0.05315072 -0.12347758 -0.17175801 0.0024422568 0.011683212 0.008472512 -0.016181577
-0.04408415 0.018786317 0.006743747 -0.004291419 0.007982273 -0.04688649 0.033019096 0.024240492
0.0037808034 -0.001294827 -0.031849228 -0.003558566 0.018073792 -0.047967117 -0.03292068 -0.024937078
0.05823152 0.011301725 0.035940867 0.045662694 0.06272921 0.005419135 0.012203583 0.00075478293
0.018310588 -0.018548565 0.0027294983 0.008311575 -0.004065374 0.007796427 -0.03140082 -0.02796275
-0.02544204 -0.027320044 -0.033291478 -0.029619915 0.0038241544 -0.0076439334 0.002910897 0.01627452
-0.00038548588 0.010628781 0.030743457 0.018383687 0.028728936 0.014649779 0.0035405778 0.03482226
0.0551532 -0.023341233 -0.05883524 -0.004826614 -0.002470748 -0.022126887 -0.064844355 -0.038028125
0.009348985 -0.0076375348 -0.0093298005 -0.056076065 2.0783458e-05 0.05299389 0.019835599 -0.052911766
0.0071658096 0.011005918 0.04424764 0.042079035 -0.04132068 0.01934875 0.07799628 -0.019520674
-0.028615866 0.010676848 -0.019846018 -0.033292986 -0.03206302 0.013927351 0.020152636 -0.025137013
0.0200135 0.0009854324 0.035345484 0.012127761 -0.010641164 -0.014699023 0.021118427 -0.004084682
-0.014632182 0.010004487 0.03324904 0.025426188 0.0049410122 0.004999395 0.046884198 0.099615864
0.035262138 -0.056055993 -0.03645011 -0.023817258 -0.0486145 -0.013152039 -0.031394284 -0.044368107
-0.0061063915 0.017828949 -0.09342424 -0.03643402 -0.076184645 -0.049987357 0.09980703 -0.1433073
-0.10992784 -0.08469996 -0.049170088 0.0897905 -0.054660283 -0.06631253 -0.053231116 0.051806845
0.14950846 0.017313356 -0.0018579713 -0.0012546601 -0.03185664 -0.020479718 0.048377175 0.0054519004
-0.019928489 -0.058550026 0.03738706 -0.064060494 -0.044251464 -0.06805389 -0.058747724 0.05826684
-0.09641718 -0.078719355 -0.026738113 0.03715182 0.056997493 -0.08784313 -0.03918056 -0.027879685
0.242092 0.04598416 0.06806929 -0.024712455 -0.054672386 -0.07492264 -0.122483954 0.05871446

conv2.bias f4 [32]
00000000: d398 b93b a5cb 08bd eee0 473c 79cd b5bc
00000010: f4f7 763c 288d 8cbc 7f22 b8bc 1955 973c
00000020: 5954 4dbc 2d5c 9bbc 17c8 cabc 36a1 683c
00000030: 0122 3ebc b1de 7bbc 9684 833c 4385 ecbc
00000040: 672b d3bc f678 6dbc 241d 013b 9e77 6ebd
00000050: 9c1f 4d3d a8bf 0bbc 00d5 30bc a30e 883b
00000060: 77a7 92bc ada7 24bc 0f47 9cbc 470d a43c
00000070: c885 dfbc d16b 7c3b cb57 a63c c8ae dbbc
0.00566397 -0.033397336 0.0121996235 -0.022192704 0.015073765 -0.017157152 -0.022477387 0.018473195
-0.012532317 -0.018964851 -0.024753613 0.014198592 -0.011604787 -0.015372918 0.016054433 -0.028872138
-0.025777532 -0.014494171 0.0019701207 -0.058219545 0.050078973 -0.008529581 -0.010792971 0.0041521355
-0.01790212 -0.010049743 -0.019076852 0.020025862 -0.027285472 0.0038516412 0.020305535 -0.02681674

conv3.weight f4 [1, 32, 5, 5]
00000000: ddac 46bd 674d 82bc 12c8 b3bc 4a3c f8bc
00000010: 2aa3 8e3b a214 cc3b 07f3 e6bc 0378 58bd
00000020: 3c75 31bc 28ec 8a3c 0b9b a03c 22f7 3abd
00000030: 60c0 2cbd 2356 98ba 8ebe 133c 5140 bebb
00000040: 7ec4 c2bc 405d ebbc debb 5dbc c6f2 913c
00000050: a2b7 8b3d 90ae 643d e009 483d 5da9 233d
00000060: 94f0 f43d 8343 27bd 914c dcbc c873 33bd
00000070: 387e 0cbc 24b2 13bb 4f3a 27bd 68c7 58bd
00000080: f747 bfbc bb88 5ebc 0933 02bd b2b1 04bd
00000090: b03b 60bc 353f 25bd c18c d7bc 01e2 63bc
000000a0: 95b7 23bd 6bd4 433c a0a5 1dbd 1b4e 4ebc
000000b0: e8ac b7bc 3f15 c8bb 5ba5 6abd 19d9 8bbc
000000c0: 4a7b e2bc 36f1 14ba c674 153d 22ce 73bc
000000d0: 8eed d33b 559d 073d 5ed7 0c3d 35f6 0cbc
000000e0: 5a78 8d3c 7c85 a5bc 9691 64bc 2536 d9bc
000000f0: 2b0d 553c 3dbb ecbc dbe3 84bc e19e 6dbc
00000100: b468 9a3b 49e4 ae3b 252b debb c432 dfbc
00000110: d7c8 a1bb cb03 8e3c 1dcf 4e3c f3a6 8cbc
00000120: 964c b5bb d63f 03bd 2cab 9b3c 8e5c 02bd
00000130: cdde aebc 20a5 5fbd 7a33 4cbd d332 d2bc
00000140: acd6 3cbc 86cf c83c 06d8 af3c f491 58bc
00000150: 0fe1 e83c a43d bebb 77c1 94bc e47b 863c
00000160: 3a0c b5bb 281e 073d a7ea 293c dd08 513c
00000170: 20f1 c0bc ce1f 0bbc daf0 1f3d 3030 443d
00000180: c95e d33c 26ea 693b 516e 163d 7748 a53d
00000190: f04c 9bbd a86c 20bd fcbc b8bc 3ed3 47bc
000001a0: 5861 89bd aa5d faba a562 99bb d298 203d
000001b0: 110d a7bc 176f 94bc a376 d3bc ad19 58bb
000001c0: 66c9 953c a19f 58ba f24d 6e3c 92fa b2bc
000001d0: e3f0 a93c fc22 0bbc f4b9 4fbc 3a8d 163c
000001e0: 568a 54bc f295 153d 4964 fa3c 8347 a63b
000001f0: dc42 4b3c 7872 dcbd 9cdd a8bd 24bb 31bd
00000200: 3fe8 69bd c8de 83bd 472e 09bd 2139 0fbd
00000210: bcd5 09bd bbb1 07bd d4f4 02bd df0b a4bd
00000220: 190d a5bc 94c8 69bd 059d 403b 9116 8abd
00000230: 300f 63bd e809 f7bb 7883 0bbd abbc 15bd
00000240: 8daf 6bbc 6a30 a6bd 2d4e 5ebd 33dd 34bd
00000250: ae35 55bc 40b7 0ebd 3fff 2b3d fc69 e6bb
00000260: 3b20 c2bb a0e9 183d 53b3 f53c bc6d 17bc
00000270: 69b9 17bb 258a 3cbc 5ff1 083b 59c7 083d
00000280: 19f5 e8bc fe92 f23b 58eb 36bb 1885 edbb
00000290: cee3 2b3c b234 e33c d451 91bc 2d08 05bc
000002a0: 752f 923b df34 313c c526 833c 1fa7 f13c
000002b0: 8022 743c c7cc ca3c 681f f03b b5c8 973d
000002c0: 8bcf 8d3d c758 a83c 7a5b e43b 2a70 253d
000002d0: 7dd4 a43d 2a0c a63c 82a2 b63c 7d19 8b3c
000002e0: 514a ff3c 96bf 7d3d a547 23bc 393d 143d
000002f0: 7995 35bc b826 89bb af9b fe3c ac34 013d
00000300: 4b23 073d 30b3 603b 195d 413c 9e2e c43c
00000310: 06d9 b53c 4357 963c 76bc 803b 2e1c 293d
00000320: ff19 353d efaa 293d e2ef 423d bea3 123d
00000330: dfb5 963d 712d e9ba 9549 203d feb9 123b
00000340: 7f53 c73c 2571 683d 17f2 8c3c 5e2e c43c
00000350: 6de7 2b3d 9c96 9e3b 0b05 9a3c 9ff3 ac3c
00000360: d897 3c3c 0519 dd3c 818d a33c a500 e03b
00000370: effe ed3c 97ee 563c 2366 f73c a271 82bc
00000380: 6574 b13c a777 183d 7762 c93c 1a73 af3c
00000390: 1918 403d c268 0a3d c423 213d f110 bd3c
000003a0: 2b42 003c 3d2d af3c 26e1 0b3d 6b43 98bb
000003b0: ba01 59bb a1bf 763c 4bb8 093d 4631 ad3c
000003c0: 73d8 f43c 7ea3 223d c09d bb3c 4449 4b3b
000003d0: 34c5 273d 3ebf 3c3d 7d3b 533d dacf 163d
000003e0: d0b3 0d3d 1214 8e3d 632b dd3c 8983 c3bb
000003f0: a359 693c 3608 62bb a5d3 283d c89b 1c3b
-0.0485047 -0.015906049 -0.021945987 -0.030302186 0.0043529468 0.0062280456 -0.028192056 -0.052848827
-0.0108311735 0.016958311 0.01960518 -0.04564584 -0.04217565 -0.001162235 0.0090176 -0.005806007
-0.023775335 -0.028730989 -0.013533561 0.017815959 0.068221346 0.05583054 0.048837543 0.03995644
0.11959949 -0.04083587 -0.026891978 -0.04381159 -0.008575015 -0.00225366 -0.04082709 -0.052924544
-0.023349745 -0.013582404 -0.031786952 -0.032396026 -0.013686106 -0.040343482 -0.026312234 -0.013908864
-0.03997 0.0119525 -0.03848803 -0.012591864 -0.022421315 -0.0061060484 -0.0572866 -0.017071294
-0.02764668 -0.0005681695 0.036488317 -0.014880689 0.0064675277 0.033109028 0.034385078 -0.008603622
0.017269302 -0.020205252 -0.013950726 -0.026515076 0.013003628 -0.028897876 -0.016221931 -0.014503212
0.0047121886 0.0053372723 -0.0067800456 -0.027245887 -0.004937272 0.017335793 0.012622622 -0.017169451
-0.0055328114 -0.0320433 0.01900252 -0.03182655 -0.021346474 -0.054600835 -0.04985378 -0.025659
-0.011525791 0.024513017 0.021465313 -0.013218392 0.028427629 -0.005805688 -0.018158657 0.016416498
-0.005525139 0.032987744 0.010370887 0.012758461 -0.023552477 -0.00849147 0.039048053 0.047897518
0.025802033 0.0035692542 0.0367263 0.08070462 -0.07583034 -0.039166123 -0.022551052 -0.01219636
-0.0670802 -0.00191014 -0.004680949 0.03920824 -0.020391973 -0.018119378 -0.025813406 -0.0032974288
0.01828451 -0.00082635327 0.014544951 -0.021847997 0.020744747 -0.008492228 -0.012678612 0.0091889445
-0.012972435 0.036519952 0.030565398 0.005074443 0.012406077 -0.10764021 -0.08245394 -0.04339136
-0.057106253 -0.064389765 -0.0334914 -0.03496659 -0.0336511 -0.03312848 -0.031971768 -0.08010077
-0.020147847 -0.05707605 0.0029390466 -0.067425855 -0.055434406 -0.0075390227 -0.034060925 -0.03655688
-0.014385116 -0.08114703 -0.054273773 -0.044156265 -0.0130132865 -0.03484273 0.04199147 -0.0070316773
-0.0059242523 0.037332177 0.029992735 -0.009242471 -0.0023151285 -0.011507546 0.0020895822 0.033393238
-0.028437184 0.0074027767 -0.0027911272 -0.007248532 0.010491325 0.027735088 -0.017739214 -0.008119625
0.0044612237 0.010815828 0.016009698 0.029498635 0.014900804 0.024755849 0.0073279627 0.07411329
0.06924351 0.020550145 0.0069689127 0.04039017 0.080483414 0.020269472 0.022294287 0.016979927
0.031163367 0.06195029 -0.009965812 0.0361912 -0.011083 -0.004185524 0.031080095 0.031544372
0.032992642 0.0034286492 0.011801981 0.02394801 0.022198211 0.018352157 0.0039287163 0.04128664
0.044214245 0.04142278 0.04759205 0.035800688 0.07358908 -0.0017790032 0.039132673 0.0022388692
0.024331806 0.056748528 0.017205281 0.02394789 0.04196875 0.0048397314 0.018801233 0.021112261
0.011510812 0.02698947 0.019964935 0.0068360143 0.029052226 0.013118408 0.03020007 -0.015923325
0.021661947 0.037223484 0.024583085 0.02141719 0.04689798 0.03379131 0.03934075 0.023079367
0.007828276 0.021383876 0.034150265 -0.0046467087 -0.0033112601 0.015060336 0.03362302 0.02114166
0.029888367 0.0397067 0.02290237 0.0031019012 0.040959552 0.04608082 0.051570404 0.036819316
0.03459531 0.06937422 0.026998227 -0.005966608 0.014242562 -0.0034489757 0.041217465 0.0023896564

exp_avg f4 [64, 1, 9, 9]
00000000: 01a5 bc39 638e af39 94df ac39 8f8f aa39
00000010: f89a a339 35bd 9b39 aa5e 8d39 3e35 5b39
00000020: da00 3039 9d0c be39 04af ad39 4e2d ae39
00000030: b6ec 9739 5918 9039 b29d 9b39 34b0 8c39
00000040: a64b 8e39 973c 5839 ec20 ba39 6b89 bb39
00000050: a78c a739 1eea 9639 1c9e 7739 c9c6 6239
00000060: 85c6 7f39 eddb 7f39 f0a4 5e39 0010 a139
00000070: 0444 9c39 475f a139 b06b 8d39 76e7 7339
00000080: c791 6939 b188 6b39 0548 6839 34ed 4339
00000090: d1f9 7139 a033 6e39 9bf7 7539 2e1b 5a39
000000a0: 9797 0d39 0f32 0e39 dbf5 2039 e4ee 1e39
000000b0: e5de 2039 b349 3439 e412 4939 e88e 6939
000000c0: 1b98 1a39 cd59 c638 6c71 7438 33c3 5c38
000000d0: 8a42 bb38 4e93 0c39 8d77 3039 d6c6 3739
000000e0: 02e5 4439 3fd5 2939 2f7e 8c38 6893 94b6
000000f0: cdf3 0a38 746c 6d38 7bbf 0139 6a17 3739
00000100: ce6f 5239 856e 7c39 5ffb 3439 d679 cc38
00000110: 1767 8b37 bfd2 2338 fa8b d638 6532 2339
00000120: 16a1 3239 6c6e 5c39 ad45 8039 67e3 6c39
00000130: d60a 1a39 6720 c638 3f0e b738 a26e 1c39
00000140: 9a83 4b39 6725 b1ba da36 b6ba d2b6 bdba
00000150: 365e c7ba 709f c7ba c51e c0ba c8c6 b4ba
00000160: e37b afba fb5c a8ba 2755 b2ba 39af b4ba
00000170: b39d c4ba 731d c9ba 46bc c8ba 7ba6 cbba
00000180: 282a beba b98f afba 12ec aaba 5137 adba
00000190: a675 b1ba 2345 beba c090 ceba d366 d3ba
000001a0: b9af ccba 05a7 c0ba cec7 b3ba c675 acba
000001b0: b9d6 a6ba c298 aaba 6732 b3ba 9c82 cbba
000001c0: 4fff ccba c220 c9ba 53b3 beba b2d7 b8ba
000001d0: fc15 b1ba 7a69 a2ba cc2d a1ba 08ff acba
000001e0: fcd6 baba f183 c9ba b7a8 c3ba bc27 c2ba
000001f0: 22ad beba ad2d b4ba 2b2a 98ba 6806 a2ba
00000200: 4334 a7ba 7232 b1ba 5815 c0ba 071e c4ba
00000210: 67d3 c2ba 8718 c2ba 1cef b6ba 0144 98ba
00000220: 0eb9 9bba 6921 a3ba 0969 acba faed b7ba
00000230: 1012 c3ba da9e c6ba 1771 c4ba 8b4a c0ba
00000240: c2a5 9cba d96e 9dba 6f0a a2ba e4fe aaba
00000250: 65ee b1ba 55fc bdba b869 c2ba bd1f c3ba
00000260: 6a24 bdba 0d84 9bba 098d 9cba 0e5e a2ba
00000270: 9d58 a8ba 244f b1ba 707f b8ba a636 bcba
00000280: e447 bfba 32aa baba b6a0 353b 063f 473b
00000290: 00fa 4c3b 8be1 4a3b 8246 463b d416 303b
000002a0: bd4f 1e3b 40db 0f3b 5681 053b f98b 403b
000002b0: f910 4f3b e047 583b 1aaf 523b 8c86 443b
000002c0: 565e 2c3b c880 143b 727e 043b 4475 fb3a
000002d0: 9176 483b 59bd 563b 068e 583b 6ab1 513b
000002e0: 3c4a 403b 2372 223b 30ce 083b e830 fa3a
000002f0: 1c3b f93a 0514 4a3b f0dd 593b 1237 563b
00000300: 0a42 4a3b 6419 303b 432d 0f3b 8fcb f23a
00000310: 214e e63a 8663 ee3a 121f 463b 30b4 4f3b
00000320: 347d 453b 1d8f 323b 65a5 133b eaa6 f83a
00000330: 4e79 db3a 1fef d33a 2363 e03a a4a6 3a3b
00000340: dcb9 3c3b d1cc 2d3b c56f 193b 46de fc3a
00000350: 93f2 dd3a c62b c83a 7fc8 d13a b436 d63a
00000360: a426 2c3b e00d 283b 0db2 183b 9898 013b
00000370: aff1 de3a 6977 c33a c77e ca3a a2f9 c63a
00000380: 5b39 d63a 60b8 1b3b 81b1 183b 8b97 043b
00000390: af57 ea3a 561a cf3a 92fc c43a 2a9f c63a
000003a0: 6c32 d23a 9c68 da3a 30fc 0e3b 1be9 083b
000003b0: e8e0 f83a c54c dd3a 4e93 cb3a b655 d13a
000003c0: 38eb cc3a 8f4c cf3a 14a7 df3a 1438 26bb
000003d0: 0038 24bb 3895 33bb fa04 3fbb e879 43bb
000003e0: 5561 3cbb d109 3ebb 98ae 38bb 22e5 3abb
000003f0: d0b6 26bb ed70 31bb 030c 3cbb 5b25 4dbb
0.00035981092 0.00033484687 0.00032972975 0.00032531886 0.00031205243 0.00029704874 0.00026964146 0.00020905302
0.00016784985 0.00036249022 0.00033127528 0.0003322162 0.00028977328 0.0002748396 0.00029681396 0.00026834162
0.00027140713 0.00020621937 0.00035501213 0.00035769804 0.00031957516 0.0002878466 0.00023614656 0.00021627093
0.0002439265 0.00024400624 0.00021233014 0.00030720234 0.00029805314 0.000307793 0.0002697385 0.00023260512
0.00022274918 0.00022462268 0.00022152074 0.00018685014 0.00023076615 0.0002271668 0.00023457261 0.00020800225
0.0001350328 0.00013560824 0.00015350377 0.00015157048 0.00015341824 0.00017193593 0.00019175891 0.00022273848
0.00014743248 9.4581024e-05 5.8279766e-05 5.263388e-05 8.929249e-05 0.00013406316 0.00016829204 0.00017526312
0.00018777329 0.00016196536 6.699224e-05 -4.427904e-06 3.312882e-05 5.6606208e-05 0.0001237373 0.00017460962
0.00020068811 0.00024073765 0.0001725978 9.750172e-05 1.6618096e-05 3.90585e-05 0.00010230388 0.00015563665
0.00017035412 0.0002102197 0.00024465975 0.00022591428 0.00014690621 9.447411e-05 8.7287735e-05 0.00014918533
0.00019408614 -0.0013515175 -0.0013901845 -0.001447404 -0.0015210572 -0.0015230011 -0.0014657608 -0.0013792152
-0.0013388362 -0.0012845093 -0.00136057 -0.001378513 -0.0015000611 -0.001534386 -0.0015314899 -0.0015537286
-0.0014508413 -0.0013394273 -0.0013040325 -0.0013215338 -0.001353909 -0.0014516454 -0.0015759692 -0.0016128666
-0.0015616334 -0.0014698213 -0.0013716163 -0.0013157658 -0.0012728787 -0.0013015496 -0.0013671637 -0.0015526596
-0.0015640053 -0.0015344846 -0.0014549292 -0.0014102368 -0.001351058 -0.0012391054 -0.0012296974 -0.0013198564
-0.0014254744 -0.0015374405 -0.00149276 -0.0014812867 -0.0014547447 -0.0013746523 -0.0011609247 -0.0012361528
-0.0012756664 -0.0013519062 -0.0014654798 -0.0014962562 -0.0014864028 -0.0014808335 -0.0013956758 -0.0011616946
-0.0011880712 -0.001244587 -0.0013153862 -0.0014032715 -0.0014882702 -0.0015153543 -0.0014987317 -0.0014670653
-0.0011951255 -0.0012011185 -0.0012362729 -0.0013045934 -0.0013575075 -0.0014494756 -0.0014832532 -0.0014886778
-0.0014430408 -0.0011864916 -0.0011943887 -0.001238765 -0.0012843792 -0.0013527614 -0.0014076065 -0.0014359548
-0.0014593569 -0.0014241396 0.00277142 0.0030402555 0.0031276941 0.0030957188 0.0030254428 0.0026869075
0.0024156414 0.0021950752 0.002037128 0.0029380305 0.003159581 0.0033001825 0.0032147826 0.0029987423
0.0026301346 0.0022659767 0.002021697 0.0019184728 0.003058825 0.0032766669 0.0033043637 0.0031996616
0.0029341122 0.002478727 0.002087485 0.0019088062 0.0019014808 0.0030834686 0.0033243857 0.0032686633
0.0030862116 0.0026870603 0.0021847046 0.00185238 0.0017570892 0.0018187619 0.0030230922 0.0031693093
0.0030134441 0.0027245947 0.0022529003 0.0018970643 0.0016744526 0.0016169286 0.0017119389 0.0028480673
0.0028797304 0.0026519785 0.0023412567 0.0019292317 0.0016933255 0.0015271835 0.0016005187 0.0016343207
0.0026268149 0.0025643036 0.0023299486 0.001977479 0.0017009283 0.0014912906 0.001544916 0.0015180598
0.0016343998 0.002376102 0.002329916 0.0020231928 0.0017878915 0.0015800695 0.0015028885 0.0015153636
0.0016036755 0.0016663256 0.0021817796 0.0020890895 0.0018987926 0.0016883841 0.0015531571 0.0015970978
0.0015634065 0.0015815663 0.0017063343 -0.0025363015 -0.0025057793 -0.0027402174 -0.0029147253 -0.00298273
-0.0028744538 -0.002899755 -0.0028180238 -0.0028517921 -0.0025438555 -0.0027075366 -0.0028693683 -0.0031302783

exp_avg_sq f4 [64, 1, 9, 9]
00000000: e50d 3f37 0568 3637 bd18 2f37 b830 1f37
00000010: 6df6 1a37 6a78 1737 4d86 1a37 b6ab 2237
00000020: 3a3b 2f37 0f33 4837 222e 4237 9719 3c37
00000030: f1d3 2a37 27c3 1f37 7fed 1a37 9520 1837
00000040: dd37 1a37 327f 2537 7728 5b37 9bec 5937
00000050: df9f 4f37 a36f 4337 6ba0 3037 d191 2037
00000060: ab4b 1837 f091 1637 be20 1e37 66e9 6b37
00000070: aa7a 7b37 2edf 7537 d1f0 5c37 16eb 4537
00000080: 4b77 2d37 e92e 1f37 1448 1637 a3da 1c37
00000090: 42c6 8337 8abb 8a37 dfd3 8d37 1a4b 8137
000000a0: de67 5b37 e156 3b37 bb94 2237 c952 1837
000000b0: e2d8 1937 8687 8e37 0dbf 9637 5cad 9b37
000000c0: 0779 8a37 2579 7537 1a05 4c37 674a 2f37
000000d0: a97d 1f37 f7d5 1e37 a993 9137 6e96 9e37
000000e0: c108 9f37 0ed6 9237 8a20 8237 468d 5637
000000f0: cdff 3937 0f81 2c37 e184 2737 5858 8c37
00000100: 06c8 9537 40a8 9637 00b1 8e37 58f9 7b37
00000110: dd41 5f37 83ac 4137 f3a4 3837 a12c 3237
00000120: 5908 8437 2531 8637 9371 8937 33e4 8537
00000130: fe5d 7c37 698c 6337 0b4e 4f37 173e 4737
00000140: 4932 3e37 9d27 1137 e24a 1837 70d3 1d37
00000150: b5bf 2637 abf1 2b37 d828 1f37 6f06 1437
00000160: 18d6 1937 d814 1337 4931 1537 c6ff 1a37
00000170: 07ea 2d37 2359 2d37 40c6 3c37 80f1 3237
00000180: 9722 2637 9ebc 1b37 b3a4 1a37 6e05 1637
00000190: 7a8a 1f37 26ee 2d37 d94f 4a37 00a1 4c37
000001a0: 70b3 3237 5d67 2737 058a 1637 3e19 1537
000001b0: 38b6 1337 ebe2 1a37 5e51 2437 00c8 4a37
000001c0: a74b 4b37 5c27 3337 8ea9 2237 4651 1b37
000001d0: e60a 1337 7cd5 0c37 32e3 1337 4df3 1d37
000001e0: 25fb 3b37 db13 4d37 9686 3837 2e01 2837
000001f0: 27bf 2637 ea08 1537 2afe 0b37 e108 0d37
00000200: 8f9e 1d37 cdbf 2037 ff63 2837 a698 3237
00000210: 8acc 2337 c9e9 1b37 025e 1c37 fe93 0937
00000220: d336 1237 30e0 1337 408d 1a37 a48b 1e37
00000230: 19ef 2737 c186 2737 ae75 2537 f310 1f37
00000240: 8e5a 0537 7105 0d37 1465 0b37 770d 0e37
00000250: 213e 1c37 7be4 1d37 98ad 1f37 d0b2 2537
00000260: b88c 2137 254b 0a37 1f5f 0a37 4386 0f37
00000270: c4a9 1037 c414 1037 1307 1237 d915 1e37
00000280: ad16 2237 15ad 2537 a52e 2b39 d312 3039
00000290: 9f83 3239 f3c0 2c39 a232 2339 29f5 1a39
000002a0: 5e8a 1539 ab64 1239 094a 1139 9686 3339
000002b0: ce00 3b39 b888 3c39 a2b1 3239 bea9 2539
000002c0: b0f4 1a39 b58d 1739 c882 1639 1e94 1539
000002d0: 141e 3a39 7cd0 4239 aa27 4039 fe48 3339
000002e0: 21bd 2339 064d 1939 123e 1939 2e95 1b39
000002f0: c274 1b39 7278 3a39 fd0d 4039 303e 3b39
00000300: 11e8 2a39 7bf0 1b39 681f 1839 41c4 1e39
00000310: 2df0 2439 4022 2439 283e 3439 062f 3639
00000320: d1ae 2c39 a9b5 1c39 6eb6 1339 a7d1 1839
00000330: 450e 2639 9103 3039 44f1 2d39 ed48 2839
00000340: 827f 2539 f3af 1a39 198b 0f39 377c 0f39
00000350: d60c 1a39 4d5b 2d39 367e 3339 f049 3139
00000360: fcc5 1939 e8f1 1439 25ed 0c39 7cab 0839
00000370: d4df 0e39 e3a5 1f39 afae 2c39 0957 3539
00000380: 8219 3139 cef5 0e39 cf81 0a39 2e15 0639
00000390: c6a0 0539 ef20 1039 d513 1f39 3d0b 2b39
000003a0: 2750 2f39 7d5e 2e39 115f 0939 b8fd 0639
000003b0: 8299 0439 a3c2 0639 6133 0e39 bd04 1839
000003c0: 653f 2439 5a79 2739 843b 2339 5ef1 3339
000003d0: 777e 2739 567a 3539 a700 3839 8e60 3439
000003e0: af4e 2a39 5bb1 2639 8097 2839 715e 2139
000003f0: 8ef2 3039 2686 2e39 4e6e 3239 d504 3c39
1.1387722e-05 1.0872264e-05 1.0436573e-05 9.488482e-06 9.236491e-06 9.028337e-06 9.210385e-06 9.695932e-06
1.0444603e-05 1.1932817e-05 1.1574042e-05 1.1211631e-05 1.0182136e-05 9.522576e-06 9.234412e-06 9.067492e-06
9.192122e-06 9.864381e-06 1.3062839e-05 1.2989297e-05 1.2375384e-05 1.1648898e-05 1.0527768e-05 9.570694e-06
9.077524e-06 8.974675e-06 9.425157e-06 1.4061434e-05 1.4989326e-05 1.4655101e-05 1.3169091e-05 1.179685e-05
1.0339379e-05 9.488061e-06 8.957479e-06 9.34923e-06 1.5708738e-05 1.6538212e-05 1.690717e-05 1.541297e-05
1.3077601e-05 1.1166297e-05 9.6905815e-06 9.079181e-06 9.170008e-06 1.6990827e-05 1.7970358e-05 1.8558167e-05
1.650724e-05 1.4631344e-05 1.2160535e-05 1.0448136e-05 9.506396e-06 9.467351e-06 1.7354107e-05 1.8905117e-05
1.8958353e-05 1.7504233e-05 1.551236e-05 1.2788287e-05 1.10864175e-05 1.0282048e-05 9.984914e-06 1.6730439e-05
1.7855327e-05 1.7959741e-05 1.7010141e-05 1.5018821e-05 1.3307171e-05 1.15438625e-05 1.100566e-05 1.0620018e-05
1.5739513e-05 1.599693e-05 1.638456e-05 1.5961099e-05 1.5042255e-05 1.3562946e-05 1.2356332e-05 1.1875781e-05
1.133659e-05 8.651897e-06 9.077341e-06 9.407158e-06 9.939006e-06 1.0248662e-05 9.486648e-06 8.822985e-06
9.169358e-06 8.766736e-06 8.892567e-06 9.238667e-06 1.0366092e-05 1.0332357e-05 1.1251832e-05 1.0665855e-05
9.902425e-06 9.282636e-06 9.217462e-06 8.941961e-06 9.50938e-06 1.0367052e-05 1.2058729e-05 1.2196833e-05
1.0651405e-05 9.978042e-06 8.972832e-06 8.886969e-06 8.804309e-06 9.231949e-06 9.7941065e-06 1.2086704e-05
1.2117357e-05 1.06783955e-05 9.69543e-06 9.257643e-06 8.76442e-06 8.394356e-06 8.814781e-06 9.414577e-06
1.1204543e-05 1.2223575e-05 1.099859e-05 1.0013855e-05 9.938877e-06 8.8831675e-06 8.344223e-06 8.406322e-06
9.3948465e-06 9.5814e-06 1.00368625e-05 1.0645168e-05 9.76318e-06 9.293152e-06 9.3202125e-06 8.200293e-06
8.715043e-06 8.8140805e-06 9.212003e-06 9.4500465e-06 1.0009645e-05 9.9853505e-06 9.862166e-06 9.481085e-06
7.948502e-06 8.405522e-06 8.30858e-06 8.466995e-06 9.31279e-06 9.4111265e-06 9.5175565e-06 9.876399e-06
9.629111e-06 8.242937e-06 8.247588e-06 8.554724e-06 8.6225955e-06 8.587904e-06 8.703925e-06 9.422621e-06
9.661232e-06 9.875065e-06 0.00016325207 0.0001679168 0.00017024436 0.00016475077 0.00015563754 0.00014777914
0.00014261293 0.00013961147 0.00013855858 0.00017120907 0.0001783401 0.00017980009 0.00017041576 0.0001579886
0.00014777738 0.00014453272 0.00014353835 0.00014264925 0.00017749547 0.00018578948 0.00018325323 0.00017097962
0.00015615347 0.0001461991 0.0001461434 0.00014837526 0.00014825448 0.00017783212 0.00018315758 0.00017856876
0.00016298915 0.00014871538 0.0001450755 0.00015141164 0.00015729731 0.00015653018 0.00017189293 0.0001737439
0.00016468322 0.00014944993 0.00014086973 0.00014573951 0.0001583631 0.00016785997 0.00016588444 0.00016048895
0.00015783127 0.0001475213 0.0001368936 0.00013683816 0.00014691366 0.00016532578 0.00017117788 0.00016907579
0.00014664972 0.00014204497 0.00013439784 0.00013033854 0.00013625558 0.00015225219 0.00016468273 0.00017293928
0.00016889538 0.00013633745 0.00013209063 0.00012787126 0.00012743761 0.00013745179 0.0001517081 0.00016312017
0.0001671916 0.00016629133 0.00013100753 0.00012873753 0.00012645687 0.00012851744 0.00013561315 0.00014497615
0.00015663875 0.00015971568 0.00015567063 0.00017160687 0.00015973473 0.00017307079 0.0001754785 0.00017202107
0.00016241775 0.00015897064 0.00016078167 0.00015389339 0.00016875027 0.00016643907 0.00017016495 0.00017930877

exp_avg f4 [64]
00000000: b6f6 533a c4b5 d5bb 62ff 033c 79cd 68bc
00000010: 8f9a 423c 8957 493b fb66 9cbc c64d 0e3c
00000020: c521 4abb d29b 86b9 9f91 293a 6a1b 923b
00000030: 7166 9bba 0ecf 193c 719d 30b9 eb2e 983c
00000040: 4a32 08bc 0ae6 173d 7a18 693b 08eb cb3c
00000050: 0400 0080 df5a 443c 362a 123b a297 69ba
00000060: 6464 0e3c a240 1b3b 14b3 83bb 4ae6 07bc
00000070: 3fd1 173c ce7d b33c 90de 513b 445e ba3b
00000080: 2321 733b 18af 2ebb 2e75 e8bb 0c7b 673c
00000090: 3910 a43c 33cc 0ebc be40 103c 73e1 02bc
000000a0: 12fb aa3c fc6c 88bb 38f1 a7ba 97d3 013b
000000b0: 9776 bcba 178d 883c 37a4 c33c da8c 1a3b
000000c0: 764d 2e3c 75ea b0ba fe6a 77bc a572 c93c
000000d0: a3c3 b03a 5384 ed39 6c90 dabb b424 af3b
000000e0: 0671 5f3a 1191 4cba a472 143c 7944 aa38
000000f0: d172 003c 981c 7b38 9057 71bc 91b9 3b3c
0.0008085774 -0.0065219123 0.0080564935 -0.014209145 0.01187767 0.003072234 -0.019092074 0.008685535
-0.0030842882 -0.00025674567 0.00064685376 0.0044588344 -0.0011856091 0.009387745 -0.0001684332 0.01857706
-0.008312771 0.037084617 0.0035567568 0.024892345 -6e-45 0.011984556 0.0022302992 -0.00089108397
0.008690927 0.0023689647 -0.0040191505 -0.008294651 0.009266197 0.021910574 0.0032023527 0.005687507
0.0037098608 -0.0026654657 -0.007094047 0.014128458 0.020027267 -0.008715677 0.008804498 -0.007988322
0.020871673 -0.0041633826 -0.0012812978 0.0019809955 -0.0014378604 0.01666884 0.023882015 0.002358249
0.010638585 -0.0013497608 -0.0151011925 0.0245908 0.0013486039 0.00045302752 -0.0066700485 0.0053449515
0.00085236167 -0.0007803599 0.009060536 8.118986e-05 0.007839874 5.9869693e-05 -0.014730349 0.011457817

exp_avg_sq f4 [64]
00000000: bc12 e738 e682 4739 bf86 a43a 11e1 123b
00000010: 4d0b 083c 76fb e63a 6940 a13a 82b8 f13a
00000020: ca1f ac3a 68d3 1336 5a01 083a 2613 553a
00000030: 65cd a638 e935 393b ee3b a639 2756 703c
00000040: 5151 3a3b e18d b83c e02f e439 9aa3 503c
00000050: f401 0000 2fe3 863b 5891 a13a 5e90 eb39
00000060: eabb 313b b527 bc39 fa0a 7b3a ffcd 8d3a
00000070: 1851 453b af8b 813c 0bb7 5f3a 9d2e 553a
00000080: 7229 883b 2bcc ca39 db92 9139 ee6b 0d3b
00000090: c5b7 673c 2478 7139 dc2e 193a 6c5b a439
000000a0: e611 fa3a 401b 273b c94c a438 c09d dd3a
000000b0: a64f ea38 3a4f 033c 83f7 183c 0c27 d339
000000c0: 2586 703a 0bf1 0938 7fe0 7a3c 8b98 af3c
000000d0: ec5d 2d39 46a4 063a 1bbe 6b39 7cbf 3f3a
000000e0: 213c bd39 9315 af39 0e8f 433a dd95 4138
000000f0: b190 d33a a76f d837 44fe 713a 6685 823b
0.00011018428 0.00019026882 0.0012552364 0.0022411982 0.008303476 0.0017622549 0.0012302521 0.0018441828
0.0013132032 2.2027762e-06 0.00051881897 0.00081281585 7.9537545e-05 0.0028260893 0.00031706638 0.014668978
0.0028429816 0.02252859 0.00043523218 0.012734318 7e-43 0.004116438 0.0012326641 0.00044930255
0.0027120062 0.00035887738 0.0009576526 0.0010818838 0.003010815 0.015813677 0.00085340504 0.0008132251
0.0041553313 0.0003868056 0.0002776597 0.0021579224 0.014142935 0.00023028307 0.00058434694 0.00031348632
0.001907882 0.002549842 7.834432e-05 0.0016907975 0.00011172825 0.008014495 0.009336355 0.00040274148
0.00091752625 3.2887834e-05 0.015312313 0.021435043 0.00016533554 0.0005136173 0.00022482166 0.0007314605
0.0003609369 0.00033394675 0.00074599765 4.6154357e-05 0.0016141144 2.5801199e-05 0.0009231309 0.0039831875

exp_avg f4 [32, 64, 5, 5]
00000000: e3d2 bc38 ade3 1938 e0da 6c37 675f 1037
00000010: 73b3 c537 feb7 a438 4e47 6038 2e9f f637
00000020: e5c5 3938 2d38 4e38 d4e3 b738 de90 9c38
00000030: f79f 4138 b23c a038 a7bd a138 5d2c c538
00000040: d12e c638 68e1 c538 7a12 0539 3e97 f238
00000050: 8fed e138 847a dc38 a181 e138 7c37 fb38
00000060: f205 0139 f8a4 f7b6 c884 d2b6 f961 d4b5
00000070: 122f efb5 cf86 b7b6 e1cd 45b6 85fa acb5
00000080: 0738 eeb5 ce54 e6b4 f2e5 a5b5 48cf f3b6
00000090: 0dc1 8fb6 cb64 cbb6 3927 f2b6 89c3 09b7
000000a0: d205 12b7 369e 7bb6 8f63 2fb7 b2ca 1bb7
000000b0: d378 48b7 f1aa 52b7 d61b 87b7 044a 71b7
000000c0: e69b 90b7 0b73 84b7 67f9 6039 a710 8a39
000000d0: d125 aa39 3f96 b139 1438 a139 d7ec 8539
000000e0: ec00 a239 7595 ba39 f30e b839 3959 a439
000000f0: faf7 9639 a82b ad39 8fa8 b139 a898 b439
00000100: 8e7a a139 d181 9539 d890 a039 a47c a639
00000110: 6950 a339 74f1 8d39 6acc 8639 2521 8b39
00000120: a924 8f39 2b01 8339 83f3 6639 3452 4938
00000130: 8d6f 9438 8552 bf38 f4ff de38 81ae e738
00000140: 00c1 8638 aefb b338 954e e138 e5de fa38
00000150: 92ab dd38 4f70 8238 5468 b938 b963 e338
00000160: 8d01 ed38 8e0e b938 2d9d 6538 6cdc 9538
00000170: f852 af38 1f2e 9338 9074 6638 642c 3c38
00000180: 8704 5338 b4be 3238 b77b 3038 4c89 0838
00000190: 686e 0338 a193 fe37 428a db37 98fb af37
000001a0: 9af1 b337 d104 2938 70d2 ed37 7865 9837
000001b0: 6b6d a137 7824 6237 e675 2538 481b cd37
000001c0: 3c7a 9e37 c0a8 5f37 8f14 7437 c5a8 e337
000001d0: 7044 4637 68ff 5c37 34e8 3337 f4cb 6237
000001e0: 9cc0 8037 96c2 1537 a9a5 ba36 4399 1437
000001f0: 5822 0f37 8f44 0f39 0665 2a39 b297 3539
00000200: 5871 6939 35ef 6039 410f 5239 5613 7e39
00000210: 7496 8539 e4dc 9639 4370 8f39 1261 8239
00000220: 7487 8d39 1378 9439 9ec0 9f39 a15d 9e39
00000230: c5e0 8239 8e0a 8939 d27c 9039 2c64 9939
00000240: 787a 9039 5d7e 4439 ff0e 5039 3389 6739
00000250: b591 7439 496b 5f39 4a18 10b8 6a4d e8b7
00000260: 832b 0cb8 555b 11b8 ed55 61b8 bb88 19b8
00000270: f5bd 2fb8 f92b 33b8 4af9 45b8 68d1 5cb8
00000280: bf5a 4db8 3e6a 6bb8 83d1 50b8 b621 56b8
00000290: e1ce 56b8 48c1 60b8 fcce 4bb8 ba25 35b8
000002a0: 6f6a 34b8 aa96 5ab8 2616 7cb8 69f8 34b8
000002b0: 85cd 33b8 08d4 38b8 bc9e 56b8 da50 4d38
000002c0: f84e 6438 40cc 4038 1877 3c38 416a 2938
000002d0: bd71 3d38 ecab 4438 b45d 1e38 550d 0638
000002e0: 4bcb 0838 02b9 0d38 4bce 1038 ca0e 0138
000002f0: 8b12 c137 ec5e cb37 f59a ca37 3460 d937
00000300: db8f d237 ba1c af37 0cc2 bd37 fa03 4037
00000310: c50f 1e37 b1f2 8137 13b9 2837 c8f8 4837
00000320: 5634 3637 4366 a337 4a6c d937 2a0f e437
00000330: 2b1f 0a38 a239 d836 ba50 c437 619a 0238
00000340: cfcd 2438 e505 2438 b00d d936 aa7d 8d37
00000350: 2040 e337 b1d3 1038 e978 2938 1d40 fe36
00000360: 621c 3b37 35d7 ae37 8bf6 d937 63e1 1238
00000370: e2a8 0337 60f6 1737 3eb8 ea36 06bd 5037
00000380: fc38 7537 93ca 8e35 9241 9935 d7e7 5f35
00000390: 0fb4 9734 c97a aa33 2c9b 0234 053f a734
000003a0: f42f c234 9ff7 f233 f562 0933 b47f ebb3
000003b0: 080e 13b4 4e40 2433 f464 ebb2 3137 9031
000003c0: 973e 09b4 c171 35b4 7d11 c033 860c 66b3
000003d0: 0122 deb2 6cd1 2134 ab69 7bb3 cc29 6fb3
000003e0: cfbc f7b3 309c 8032 726e 1238 7e9f 3838
000003f0: 3bbf 6d38 1618 8b38 0393 8c38 f021 0a38
9.003819e-05 3.6690082e-05 1.4117657e-05 8.605281e-06 2.3567793e-05 7.8544006e-05 5.347217e-05 2.9399609e-05
4.429174e-05 4.9166545e-05 8.768556e-05 7.465643e-05 4.6163765e-05 7.6407e-05 7.712404e-05 9.401955e-05
9.450096e-05 9.435677e-05 0.00012690751 0.0001156763 0.00010773085 0.00010513238 0.00010752981 0.000119789474
0.00012304613 -7.3803785e-06 -6.2739455e-06 -1.5823745e-06 -1.7820587e-06 -5.469519e-06 -2.9475125e-06 -1.2887909e-06
-1.7748688e-06 -4.2902542e-07 -1.2360381e-06 -7.266095e-06 -4.284206e-06 -6.0616053e-06 -7.216728e-06 -8.211363e-06
-8.703633e-06 -3.7494005e-06 -1.0453993e-05 -9.285914e-06 -1.19490605e-05 -1.2556776e-05 -1.6106216e-05 -1.43819525e-05
-1.7238734e-05 -1.5789197e-05 0.00021455214 0.00026333818 0.00032453102 0.00033872013 0.00030750094 0.00025544196
0.00030899735 0.0003558804 0.00035106353 0.00031346994 0.00028794986 0.00033029658 0.00033885657 0.00034446013
0.00030799623 0.00028516215 0.00030625495 0.00031754852 0.00031149693 0.00027073512 0.00025710772 0.0002653684
0.000273024 0.00024987137 0.00022025224 4.7998692e-05 7.077968e-05 9.12296e-05 0.0001063346 0.00011047442
6.425567e-05 8.582264e-05 0.00010743473 0.00011962446 0.00010570059 6.219802e-05 8.84092e-05 0.00010842778
0.000113013295 8.8241984e-05 5.4744236e-05 7.1459304e-05 8.3601044e-05 7.018097e-05 5.494483e-05 4.4864035e-05
5.0310537e-05 4.2616113e-05 4.207689e-05 3.2552794e-05 3.1335658e-05 3.0347905e-05 2.6171216e-05 2.0978783e-05
2.1450967e-05 4.0297225e-05 2.8350594e-05 1.8167062e-05 1.9243647e-05 1.3479141e-05 3.9448867e-05 2.4450608e-05
1.8891988e-05 1.3331126e-05 1.454832e-05 2.7139098e-05 1.1817654e-05 1.3172488e-05 1.0723295e-05 1.3518136e-05
1.534848e-05 8.926398e-06 5.5625173e-06 8.857171e-06 8.5314605e-06 0.00013663083 0.00016250098 0.00017318016
0.00022262835 0.00021451416 0.00020032843 0.00024230531 0.00025479833 0.00028774806 0.00027358727 0.00024867855
0.00026994536 0.00028318222 0.00030470354 0.00030205867 0.00024963 0.0002613854 0.0002755882 0.00029257068
0.00027557067 0.0001873909 0.00019842012 0.00022080987 0.00023323933 0.00021306904 -3.4354896e-05 -2.7692604e-05
-3.3419125e-05 -3.4655754e-05 -5.3724205e-05 -3.6605383e-05 -4.1900163e-05 -4.271788e-05 -4.720063e-05 -5.2647112e-05
-4.8960323e-05 -5.6127312e-05 -4.9786187e-05 -5.105297e-05 -5.1214247e-05 -5.358577e-05 -4.859174e-05 -4.31889e-05
-4.301447e-05 -5.2115567e-05 -6.010211e-05 -4.3146694e-05 -4.286833e-05 -4.4066488e-05 -5.116941e-05 4.8951108e-05
5.443298e-05 4.596659e-05 4.4933608e-05 4.0391697e-05 4.516704e-05 4.6890156e-05 3.7757403e-05 3.1960506e-05
3.2614258e-05 3.378932e-05 3.45244e-05 3.076977e-05 2.3016028e-05 2.4243687e-05 2.4152434e-05 2.5913214e-05
2.5100939e-05 2.0875003e-05 2.2620916e-05 1.1445018e-05 9.4212055e-06 1.549101e-05 1.0056671e-05 1.1978853e-05
1.0860231e-05 1.9478734e-05 2.5918842e-05 2.718678e-05 3.293079e-05 6.444011e-06 2.3402612e-05 3.1138192e-05
3.929232e-05 3.9106137e-05 6.4686974e-06 1.6867027e-05 2.709037e-05 3.452943e-05 4.0405346e-05 7.5772537e-06
1.1152677e-05 2.084263e-05 2.5983221e-05 3.501902e-05 7.84753e-06 9.057665e-06 6.995192e-06 1.2441777e-05
1.4616406e-05 1.0638781e-06 1.1418472e-06 8.3411345e-07 2.8256952e-07 7.9385764e-08 1.2163645e-07 3.1152027e-07
3.6170206e-07 1.1314045e-07 3.19878e-08 -1.0966269e-07 -1.3695546e-07 3.824271e-08 -2.7403509e-08 4.197226e-09
-1.278189e-07 -1.6898322e-07 8.943878e-08 -5.3562438e-08 -2.5859665e-08 1.507048e-07 -5.8536596e-08 -5.5684538e-08
-1.1536178e-07 1.4972187e-08 3.4911973e-05 4.4017557e-05 5.66833e-05 6.632523e-05 6.703103e-05 3.293337e-05
