logs/biosr_ccps_rcan_model-SRCNN_250305_lr0.0001_bs1_Ps256_Npatch128_N300/model_144.pth (torch, 695046 bytes, 15 tensors)

conv1.weight f4 [64, 1, 9, 9]
00000000: b0e8 a53d d596 e6bc 3c2a ab3d cef9 b4bc
00000010: 817e 3e3d a153 20bd e025 093e d0ec 50bc
00000020: 739d 4e3e 84c9 e1bc 0979 bdbd e68a 473d
00000030: 46b0 49bd 754b 033d 21c0 313d 5794 f93c
00000040: 7942 9e3d c5ee d73d e847 af3d 15b9 1d3d
00000050: b809 c5bd 29f6 96bc 9581 51bd 779c c0bd
00000060: c7f7 8bbd 66d2 93bd 8d86 4a3d b25e d2bd
00000070: 101f 0dbd bb78 bf3c 7dcc 9dbd cb65 cdbd
00000080: 3777 fd3a 93fa fbbc 70db 2cbd 4902 963d
00000090: a166 95bd 4699 80bd 40c9 8fbb b468 303d
000000a0: 4aa1 03bd 327e 933d a750 533d e4ad 843d
000000b0: df94 bb3c 835b 15bd 1f9d c8bd 4499 06bb
000000c0: 128e c2bd 3ed0 cf3c 664c d53c 2230 b53c
000000d0: 3d71 5a3d 99a7 fd3d b072 5ebd 528e e8bc
000000e0: 7556 1abc fbbb 033d e1ba 9e3d 97b3 763d
000000f0: aca8 3dbd f058 d63d 1796 cd3b 1b7d 1b3d
00000100: 095d 123d 464a c83a 80ae 52bd 2ea2 55bd
00000110: 7296 203c bba4 87bd b4f0 b7bc 1065 8abd
00000120: f4ec 303d 930d c5bc 133d af3c 1c7a 633d
00000130: d307 48bd a56b 07bc 3edb aebd 5710 babb
00000140: b53f 8ebd 16fc 41bd 4a5b 7ebb 0865 eebc
00000150: e035 e63b 2ff0 933d b207 03bd 19cb fbbd
00000160: 873b 683d 4d5c 89bc 5ced a13c e7de 8dbc
00000170: 6131 6b3d 919e cfbd 65a0 8e3d 40f3 973d
00000180: 7925 943d a9d7 0e3d 1a68 b93d 037f 0b3d
00000190: 425a 9a3c 4897 b3bc 8c77 ad3d 00ce 973d
000001a0: f5bc 49bd c3e1 4a3c 9099 c0bd aed3 c6bc
000001b0: 8540 e13c 0864 5cbc dddd f4bd e948 aa3d
000001c0: 92b8 f93c 6f73 babd ea27 d6bd c0ea 3fbd
000001d0: 0bf6 bebd 3ca8 7fbd 3ed0 73bd fe79 cfbd
000001e0: 425b 453d 44fa f13d a7d6 3a3b 3692 29bd
000001f0: 6f43 b03d bea0 d5bd 7a7b 0bbd 44d9 c0bd
00000200: 7a89 083d a326 b1bd 6aa7 bdbd 372f 3a3d
00000210: 9a70 88bd 7d6f bfbd e660 643b 860a 50bd
00000220: 11f3 8d3d 8417 fc3b 28ba ef3b 5206 28bd
00000230: 7de2 733d d432 913d a7d1 ab3d 26d3 513c
00000240: 234f f0bd e02b 1c3c 535e 94bd 2fc3 c0bd
00000250: e8e5 933d d2aa 283d a826 083d f33c e03d
00000260: 52f7 f83c c882 91bc 1732 f1bc af42 433d
00000270: 1622 873c 7cb6 84bd 8524 c9bd f441 893d
00000280: 7258 953d 2c0b f93d 05f3 823d 29f7 fc3d
00000290: ed55 4fbd 061a 7c3d b6ba 163d a249 e43c
000002a0: 089e 9cbd e8d7 86bd 2143 3f3d c29d e23d
000002b0: 3665 943d d438 fdbc dd67 f33d 4f67 693d
000002c0: 1311 933c 79da a93c 59a6 b43d e969 983d
000002d0: d050 aa3d 1df5 54bd b50a bf3d ac33 ca3d
000002e0: 6db8 c4b9 c291 753d cf65 93bd 8d8d ddbd
000002f0: 1482 acbd 835b f43d 26bd dc3d 85a1 b13c
00000300: f7cd c53d 1963 ab3d 82a8 2cbd 2199 b73c
00000310: 288f 7dbd 189a 02be 817b df3d 311d 24bd
00000320: 16c1 febc 00a1 ab3c dd3e 8c3d f86c a23d
00000330: c1a7 fabc 2eea 913b 160f afbb 0a3d 18bd
00000340: 249f 4fbc ed56 b03c 4894 a0bd 4435 4f3d
00000350: bbea debd 0aad c73c cd0f e4bd 2cbd 0bbe
00000360: c767 ee3c 8f6c c53c ef54 2ebd f90b 833d
00000370: 78af b63d 587d 213c 50f9 dcbd 328c ecbd
00000380: e625 24be f4c1 133c 0019 d63d 0a8a 523c
00000390: fd6c c8bd bec2 8e3d e826 e63c 539f a4bd
000003a0: 8f4e 1bbe b572 a03c ef6f e63d b648 a73c
000003b0: 5939 14bd 61cd d6bc e822 38bd cfa0 ecbd
000003c0: 766e cc3b 2885 c2bd d279 04be bc0c da3d
000003d0: 4bce afbd 74f1 c73d 70c1 f23d d667 983d
000003e0: 5b31 0cbd b559 3abd 47ec cc3c 3ee4 9abd
000003f0: 552d 4c3d 6ef1 9dbb eaa1 0a3c 6083 ea3d
0.08101022 -0.028148094 0.08357665 -0.022091772 0.046507362 -0.039142255 0.13393354 -0.012751773
0.2017725 -0.02756191 -0.09251601 0.04871645 -0.049240373 0.032054383 0.04339612 0.030466242
0.077275224 0.105435885 0.08558637 0.038506586 -0.09620994 -0.018427925 -0.05114897 -0.09404843
-0.06834369 -0.07217865 0.049444724 -0.10271968 -0.03445345 0.023372998 -0.07705019 -0.10029181
0.0019337897 -0.030759132 -0.04220146 0.073246546 -0.072949655 -0.062792346 -0.0043880045 0.043068603
-0.03213624 0.07201804 0.051590588 0.064784795 0.022898136 -0.036464226 -0.097955935 -0.002053813
-0.09499754 0.025367852 0.026037406 0.022117678 0.05333065 0.12385482 -0.054308593 -0.028388176
-0.009420027 0.032161694 0.07750488 0.060229864 -0.046303436 0.10466182 0.0062739956 0.037961107
0.035733256 0.0015280924 -0.051435947 -0.05215662 0.009801494 -0.06623217 -0.022453643 -0.067575574
0.043194726 -0.024054324 0.021391427 0.055536374 -0.048835587 -0.008265411 -0.08537911 -0.0056782174
-0.06945745 -0.04735955 -0.0038811737 -0.02910091 0.0070254654 0.07223546 -0.03198976 -0.12294597
0.056697395 -0.016767645 0.019766502 -0.017318202 0.05742014 -0.10137666 0.069641866 0.07419443
0.0723371 0.03487364 0.09053059 0.034056675 0.018841866 -0.021922722 0.084700674 0.07412338
-0.04925247 0.012382927 -0.0940429 -0.024270859 0.027496586 -0.013451584 -0.119563796 0.08314688
0.030483518 -0.091040485 -0.10456832 -0.046854734 -0.09324273 -0.0624163 -0.059524767 -0.1013069
0.048182733 0.118153125 0.002850929 -0.041399203 0.08606612 -0.1043105 -0.034053303 -0.0941644
0.033334233 -0.086499475 -0.09260447 0.045455184 -0.06662102 -0.093474366 0.0034847795 -0.050791286
0.06931127 0.007693233 0.0073158927 -0.041021653 0.059542168 0.07089773 0.083895974 0.012806689
-0.11733844 0.009531945 -0.072445534 -0.09412228 0.072215855 0.041178532 0.03323999 0.10949125
0.030391369 -0.017762557 -0.02944283 0.047671016 0.016495746 -0.06480119 -0.09821419 0.06702033
0.0729226 0.12160334 0.063940085 0.123518296 -0.050619055 0.061548255 0.036799155 0.027867142
-0.076473296 -0.065841496 0.04669488 0.11065246 0.07245867 -0.030910887 0.11885045 0.05698329
0.017952478 0.020734059 0.08820791 0.07442076 0.08316195 -0.05199157 0.09328214 0.09873137
-0.0003752144 0.05995346 -0.07197153 -0.10818014 -0.08423248 0.11931517 0.10778265 0.021683464
0.09658425 0.08368511 -0.04215289 0.022411885 -0.061904103 -0.12754095 0.109122284 -0.0400669
-0.03109793 0.020950794 0.06847928 0.079309404 -0.03059757 0.004452965 -0.0053423746 -0.037167586
-0.012672219 0.021525824 -0.078407824 0.050587907 -0.10884615 0.024374504 -0.11135826 -0.13646382
0.02910222 0.024099616 -0.042561468 0.06398768 0.08920187 0.009856544 -0.1078974 -0.11550178
-0.16030082 0.00901841 0.10453987 0.012850294 -0.09786413 0.06970738 0.028094724 -0.08038201
-0.15166686 0.019585947 0.112518184 0.020420413 -0.036187503 -0.02622098 -0.044955164 -0.11554109
0.006238754 -0.09498054 -0.12937096 0.1064696 -0.08584269 0.097628504 0.118533015 0.0744168
-0.034226757 -0.045495708 0.02501501 -0.07563065 0.04984792 -0.0048200404 0.008461455 0.11450839

conv1.bias f4 [64]
00000000: 027d d43c 3728 553d c697 913c d8c1 a53b
00000010: f9b0 d1bd 418e 9c3d e7f6 ba3d 1ccc 97bd
00000020: 1270 19bd e189 eb3c d442 14bd 4751 8ebc
00000030: 0a66 d1bd c93e 8abc 5433 a3bd 6dd9 85bd
00000040: 01cd bb3d 54c9 c5bc 3341 4cbb a154 a9bc
00000050: be74 13bd 5ffb d2bd c740 eebd 49ea 9cbc
00000060: 10e1 99bc ce5c 943c a77d d5bc cc3c a2bd
00000070: 649d 99bd 9beb 7cbd d9b5 02bd 36a4 a2bc
00000080: b5ed a3bd 603f a8bd d978 8a3d 4c04 0cbb
00000090: 0d56 94bd 768e 4a3d ef32 d2bc 42e4 1f3e
000000a0: 939a 443d 0811 7a3d 5b01 a9bc 1b6e a9bc
000000b0: 33a7 0c3d 7991 f8bd 08aa 44bc 3052 10bd
000000c0: fc57 b73c 139c febc dd0c db3d 8b83 80bd
000000d0: bce3 cb3b 4e59 4bbb 902f 8c3d c21c 72bd
000000e0: 07ee 163d d669 a5bd fc9e 203c 6f22 3f3c
000000f0: 0798 80bc 3af3 553a 5446 603d d4a7 abbd
0.025938515 0.052040305 0.017772567 0.0050585084 -0.10238833 0.0764432 0.09129124 -0.07411978
-0.037460394 0.02875227 -0.036196545 -0.01737274 -0.102245405 -0.016875641 -0.079687744 -0.06535611
0.09169961 -0.024143852 -0.0031166791 -0.020670237 -0.036000006 -0.103018515 -0.11633449 -0.019154685
-0.018784076 0.018110659 -0.026060892 -0.07921752 -0.07500723 -0.06174813 -0.031911705 -0.019853693
-0.080043234 -0.08215213 0.06761331 -0.0021364866 -0.072429754 0.049452268 -0.025659053 0.15614417
0.047998976 0.0610514 -0.02063053 -0.020682385 0.03433914 -0.12137122 -0.012003429 -0.03523463
0.022380821 -0.031080281 0.10695813 -0.0627509 0.0062222164 -0.0031028572 0.06845009 -0.059109457
0.036848094 -0.08076827 0.00980353 0.011665924 -0.015697492 0.0008161549 0.05475457 -0.0838162

conv2.weight f4 [32, 64, 5, 5]
00000000: a992 babc 099d 1cbd a157 713c f96c 30bc
00000010: c788 f93c e225 b03b 3bc6 31bc 8147 d43c
00000020: e334 fcbb 7b07 2e3c 8fe3 64bb 716f d6bb
00000030: e8f2 debb dbb5 9fbc 2206 033b 50db 34bd
00000040: b0ab acbc 49bb 0dbd 3db4 08bd 3c57 42b9
00000050: 4eaa a23a 929f 8b3c b4bd a43c 6c03 1a3d
00000060: 55cc 4d3d f4db f4bd 9b81 9cbc 498e 5d3d
00000070: 8688 db3a a925 c2bc 3166 f3ba 9574 1fbd
00000080: 2e8e 6f3d 20fc 233d 8621 1f3b c2c2 87bd
00000090: 54ac acbd 0fa2 1bbb ab84 98bc 2a5f f5bb
000000a0: 1694 b7bd 2fcb a3bd d2db a4bc a79f 46bc
000000b0: 15fe 31bc c730 4fbd 07ed 7cbc ce17 e23b
000000c0: a85a b13a 0f01 d3bc b899 893c 1b8a 0b3c
000000d0: a15a ba3c a594 ef3c d6b2 743c 782a eebc
000000e0: 5adc 5abc c840 82bc 0a7c 5fbc 4bb0 323c
000000f0: e53a fdbc 0199 5dba dc6b 09bc cbe6 273c
00000100: 466d 423c cdbb 34bd a942 8dbb 2372 09bd
00000110: 0363 0a3d 714b 813d eea8 74bb 148e 3f3c
00000120: 61d5 a33c 6989 543d 277f 263e ce4d af3c
00000130: cc1a e0bc 67e5 a9bb df18 c6bb 8b75 f43c
00000140: ca74 213c 10c3 8e3b fce8 17bd 57c4 16bc
00000150: 7834 7c3c b6bf 3cbc c83b f83b b182 5e3b
00000160: 8e4a c73c cf9f 803c 55da d0bb cc55 11bd
00000170: 3983 56bc a202 f1bb c0dc dcbc e40f 04bd
00000180: c6f8 3dbd 1a3d 53bd e870 f8bd 5945 2dbe
00000190: bbd3 523b dbee 3b3c 718c 053c 1a89 8ebc
000001a0: a1d8 39bd efe8 963c 74d6 bb3b b8d9 99bb
000001b0: cc85 fa3b 2185 44bd 4766 083d b378 c53c
000001c0: 6d84 643b 92bf daba b3ea 03bd 63e1 16bb
000001d0: e061 a03c febc 42bd cafc 05bd 2676 cbbc
000001e0: 7637 7b3d 9686 3d3c f7c0 193d 2ddb 3a3d
000001f0: f3d6 793d 8424 ae3b c9af 4d3c 6424 923a
00000200: d95f 973c 74b7 97bc b645 1c3b 3166 073c
00000210: 8024 82bb ca52 fb3b 77c1 00bd 9492 e8bc
00000220: 3654 d4bc b4f8 e1bc bd07 0abd 9379 f6bc
00000230: 82dc 4c3b 1d96 06bc 9273 243b 98f1 803c
00000240: 858e 57ba 0ec6 2a3c 7306 f93c 8d26 953c
00000250: 0bcb e73c 1b44 713c 0690 683b 4671 0b3d
00000260: a106 5f3d c27b c9bc faf5 75bd f308 97bb
00000270: 5c8b 86bb 1e39 c2bc 64e9 89bd 6495 26bd
00000280: db72 153c 84fb 07bc f1bc 1ebc c286 6ebd
00000290: 39e1 dcba b2b3 593d f7e0 9e3c a8cb 57bd
000002a0: e892 ca3b 6048 133c 9343 323d 5693 293d
000002b0: 4bf7 2cbd 688e 933c 88b2 9a3d dc9d aabc
000002c0: 2792 f4bc 5aab 423c a87e 9dbc 8a9d 03bd
000002d0: d282 04bd adfb 703c 56b3 b23c 433b c0bc
000002e0: fc55 b93c 7a0c d03a 537b 143d 8af4 6a3c
000002f0: 2818 03bc 8c1e 4bbc 9feb b33c 84dc 10bb
00000300: 6e97 54bc 0179 583c 4ef9 123d fe15 003d
00000310: 4f3c 1f3c 6ce5 403c 84e9 5d3d ff4b d93d
00000320: dbfc 183d 9ae0 62bd 3da8 0dbd 55b1 acbc
00000330: 770e 44bd d7d0 4cbc 2d86 ffbc 1b35 2cbd
00000340: afaa 95bb b0ff 973c d84c c6bd b6a5 06bd
00000350: 1b91 9abd 24ce 50bd f7a3 cc3d c129 18be
00000360: 3702 e9bd 1823 a8bd 84b6 49bd 2d80 b43d
00000370: 4751 80bd 2a86 92bd e66f 5abd 09f9 573d
00000380: ba52 193e becd 943c 3795 c7bb 6180 b0bb
00000390: ec57 1bbd f18a e4bc 33b9 353d 886b 433b
000003a0: 1cb7 acbc 992c 80bd 562f 2c3d 62e0 9ebd
000003b0: a03c 4cbd 381e 91bd b911 61bd f228 983d
000003c0: 1115 e3bd e0f5 aabd c1b0 92bc 3d5f 7c3d
000003d0: 985e 8e3d b103 cfbd 4c33 16bd e2d7 c0bc
000003e0: d96d 8a3e 0b91 0c3d 49d8 873d da29 c6bc
000003f0: 5df8 5abd 2bd5 98bd a77b f9bd e242 6a3d
-0.022775011 -0.038235698 0.014730365 -0.010768169 0.030460728 0.0053756097 -0.0108504845 0.025913002
-0.0076967343 0.010621901 -0.0034925675 -0.0065440466 -0.006803859 -0.019495895 0.001999267 -0.044154465
-0.02107796 -0.034602437 -0.033375014 -0.00018533779 0.0012410374 0.017043862 0.020109989 0.03760092
0.050243694 -0.11956015 -0.01910477 0.05409077 0.0016749061 -0.023699598 -0.0018569884 -0.03892954
0.058485202 0.040035367 0.0024281456 -0.06628944 -0.084313065 -0.0023747717 -0.018617949 -0.007488151
-0.08963792 -0.079977386 -0.02012435 -0.012123025 -0.0108638005 -0.050583627 -0.015437371 0.0068998104
0.0013531046 -0.02575734 0.016796932 0.008516814 0.022748293 0.029245684 0.014935216 -0.029072985
-0.0133582 -0.01590003 -0.013640413 0.010906289 -0.030911872 -0.00084532803 -0.008387532 0.010247896
0.011866873 -0.044124413 -0.004310925 -0.033556115 0.03378583 0.063132174 -0.0037332135 0.011691589
0.019999208 0.051888857 0.16259442 0.021399405 -0.027356528 -0.0051848176 -0.0060454453 0.029841205
0.009854505 0.0043567494 -0.037087426 -0.0092020845 0.015393369 -0.011520317 0.007575486 0.003395241
0.024327543 0.015701203 -0.0063736835 -0.035482213 -0.013092809 -0.00735505 -0.02696073 -0.032241717
-0.046379827 -0.051571943 -0.1213091 -0.16920985 0.0032169658 0.011470522 0.00815116 -0.01739936
-0.04537261 0.018421618 0.005732352 -0.0046951436 0.0076453444 -0.047978524 0.033300664 0.024105405
0.003486897 -0.0016689172 -0.03220625 -0.0023022525 0.01957792 -0.04754352 -0.03271178 -0.024836611
0.06133219 0.011567732 0.03753754 0.04561918 0.060996007 0.0053144116 0.0125541175 0.0011149761
0.01847832 -0.018520094 0.0023845262 0.00826411 -0.0039716363 0.0076697813 -0.031434502 -0.028390206
-0.025919061 -0.027584411 -0.033698786 -0.030087268 0.0031259363 -0.008214501 0.00250933 0.0157402
-0.0008222836 0.0104231965 0.030398583 0.018206859 0.02829506 0.01472571 0.0035486235 0.034043573
0.05444968 -0.024595145 -0.060049035 -0.004609221 -0.0041059684 -0.023708876 -0.06733969 -0.040669814
0.009121622 -0.008299712 -0.009688602 -0.058233984 -0.001685179 0.053149886 0.019394381 -0.052684456
0.0061820634 0.0089894235 0.043521475 0.041400276 -0.042228024 0.01801224 0.075535834 -0.020827226
-0.029854847 0.011881674 -0.019225433 -0.032132663 -0.032351322 0.014708442 0.02181403 -0.023465758
0.022624008 0.0015872859 0.036250424 0.014340529 -0.008001365 -0.01239742 0.021962939 -0.0022104094
-0.012975557 0.013212443 0.035882287 0.031270973 0.0097189685 0.011773448 0.054177776 0.10610198
0.037350517 -0.055389978 -0.034584273 -0.021080652 -0.047865357 -0.012500963 -0.03119191 -0.042042833
-0.004567466 0.018554538 -0.096826255 -0.032872878 -0.07547208 -0.05097784 0.09992211 -0.14859678
-0.113773756 -0.082098186 -0.049246326 0.0881351 -0.062655024 -0.07154496 -0.05332937 0.052727733
0.14972964 0.018164512 -0.006090786 -0.0053863977 -0.037925646 -0.027898284 0.044366073 0.0029818732
-0.021083407 -0.06258506 0.04203733 -0.077576414 -0.049862504 -0.07085842 -0.054948542 0.07429685
-0.110880025 -0.08347678 -0.017906548 0.061614264 0.06951636 -0.10108126 -0.036670014 -0.023540441
0.27036932 0.03431801 0.0663305 -0.024189878 -0.053459514 -0.074625336 -0.12181788 0.05719269

conv2.bias f4 [32]
00000000: 6df9 b63b 1175 09bd eee0 473c 7fb9 b7bc
00000010: e750 773c 5f4b 8bbc e563 b8bc a230 973c
00000020: f3d8 4cbc 54b8 9bbc 35c8 cbbc 1dab 683c
00000030: 13e5 3fbc f8fd 7bbc cd2a 843c e160 edbc
00000040: fc4c d4bc 0e60 6abc c6d7 ee3a adae 6dbd
00000050: d879 4d3d f720 0ebc c9d2 30bc a30e 883b
00000060: 3abe 92bc db8f 25bc c0cf 9bbc 07ca a43c
00000070: 4105 dfbc d16b 7c3b a9fb a63c 4bad dabc
0.005583933 -0.03355891 0.0121996235 -0.022427319 0.015094972 -0.017003713 -0.02250857 0.018455807
-0.012502897 -0.019008793 -0.02487574 0.014200953 -0.01171233 -0.015380375 0.01613369 -0.02897686
-0.025915615 -0.014305128 0.0018222264 -0.058027912 0.050165027 -0.008674852 -0.010792443 0.0041521355
-0.017912973 -0.010105099 -0.019019961 0.020115865 -0.027224185 0.0038516412 0.020383673 -0.02669396

conv3.weight f4 [1, 32, 5, 5]
00000000: f668 4abd b5e8 8cbc 0294 bdbc 0256 01bd
00000010: 2203 653b 7cb7 b43b 4b93 eabc 2205 59bd
00000020: 932b 3fbc 0ed4 853c 05c2 9f3c daaf 39bd
00000030: 67ff 2abd b827 bfba bd04 153c 2c96 b6bb
00000040: 3f18 c4bc 8586 ecbc fe7a 69bc cc29 903c
00000050: ff50 8f3d 16f0 663d 6a81 493d 7d2e 253d
00000060: cb90 f73d cd42 27bd 047e debc 253d 35bd
00000070: 2bb1 14bc be93 33bb 13b6 27bd d80a 5abd
00000080: 8067 c2bc 2666 63bc f701 03bd 3890 05bd
00000090: e15c 65bc 7956 26bd 2453 d8bc 7fcc 63bc
000000a0: bd77 24bd c3e3 3f3c 6494 1ebd 536e 4fbc
000000b0: 1272 b8bc 2c7e d4bb d875 6bbd 4991 8ebc
000000c0: e304 e4bc 472c 96ba c674 153d 22ce 73bc
000000d0: 8eed d33b 559d 073d 5ed7 0c3d 35f6 0cbc
000000e0: 5a78 8d3c 7c85 a5bc 9691 64bc 2536 d9bc
000000f0: 2b0d 553c 3dbb ecbc dbe3 84bc e19e 6dbc
00000100: b468 9a3b 49e4 ae3b 252b debb c432 dfbc
00000110: d7c8 a1bb cb03 8e3c 1dcf 4e3c f3a6 8cbc
00000120: 964c b5bb d63f 03bd 2cab 9b3c f259 01bd
00000130: 6e23 b1bc eaa6 5ebd 5d99 4bbd 3b92 d1bc
00000140: f001 33bc afcb c33c 660d ae3c 2522 52bc
00000150: 023f ea3c 42dc a8bb c4c5 95bc fab5 853c
00000160: 2e87 adbb adaa 063d bd9c 303c 4976 4c3c
00000170: 0113 babc c2e8 04bc f6fd 1f3d 5765 463d
00000180: fa9c d43c 5f88 a23b 1415 193d 654e a73d
00000190: 3095 9cbd f022 20bd 57cc bbbc a6a8 4abc
000001a0: 70a7 8abd ba84 23bb d66c 97bb b567 1f3d
000001b0: 9fce a4bc f5ab 95bc 6d46 d9bc 9a13 6abb
000001c0: 372b 923c 28e3 a5ba 36b6 5d3c bf77 b9bc
000001d0: 815f a53c a663 0ebc af6d 52bc 48bc 0b3c
000001e0: 5352 5dbc 93f0 123d ccf8 f73c 5a8f a13b
000001f0: 886d 453c 5efb dfbd 950b a8bd 235d 33bd
00000200: f760 6abd 2c96 84bd 02dd 0abd 3437 0abd
00000210: 4ab2 08bd 5563 06bd ad84 03bd a501 a6bd
00000220: 86c9 a5bc ea17 6cbd 73f5 343b eb71 8bbd
00000230: df73 63bd 198c eebb dc74 0bbd 9fe9 11bd
00000240: c967 72bc b2c5 a4bd 6764 5cbd 5d0a 39bd
00000250: 4ef6 59bc 9cef 14bd 1c3b 2b3d ec58 ecbb
00000260: cfcd c6bb a73b 183d 55f5 f43c 82ef 1abc
00000270: eb7f 27bb fdcf 3fbc d880 f53a 67e9 073d
00000280: 8123 eabc 8b32 ec3b ca9b 41bb f7cb f2bb
00000290: 8026 293c a429 e23c 07bc 92bc b880 07bc
000002a0: 1a33 8d3b e6bc 2e3c 7ab7 823c 9a73 f03c
000002b0: 2298 713c 639c c93c f54f ec3b f2f5 983d
000002c0: 816c 8e3d 105f ad3c 88ca f33b 30dc 263d
000002d0: d458 a53d 66c6 a63c bbff b83c c6d9 8b3c
000002e0: 38ee ff3c 6195 7f3d de35 1fbc 914e 153d
000002f0: afba 31bc 129b 70bb 7e37 013d 1364 013d
00000300: b83c 073d 5a60 673b d4a5 473c be74 c83c
00000310: fbb2 b73c b3de 993c 8c69 943b b446 2c3d
00000320: 75d7 363d e6d9 2a3d 05ee 433d bdf5 123d
00000330: 8317 973d 5edb b6ba 28b8 203d 806d 1f3b
00000340: f202 c83c 164c 693d 45c3 913c 7813 c63c
00000350: 0c21 2d3d 6472 ac3b f916 9f3c 731d b03c
00000360: 2351 3c3c 140b dd3c 7759 a53c 8c79 f43b
00000370: 27b5 ee3c 9ddc 573c 7556 f83c 2052 7bbc
00000380: 44ab bb3c 6013 263d 415f dd3c 928a c13c
00000390: 3d64 483d ace8 153d 52ba 2a3d 24b5 ca3c
000003a0: 1ff3 173c 8986 b93c 8198 153d 9715 efba
000003b0: 9820 9cba e62f 893c b668 0f3d 88e3 c03c
000003c0: b4c5 063d 133b 2b3d 5e25 cb3c ec16 a13b
000003d0: c74e 303d cb38 4a3d b7bc 5c3d 8c77 203d
000003e0: 95f3 173d aedc 923d b6a8 e03c 9c8d b5bb
000003f0: d0a3 703c eb61 68bb 4330 2a3d b8a8 113b
-0.049416505 -0.017200807 -0.023141865 -0.031576164 0.0034944494 0.005515037 -0.028634688 -0.05298341
-0.011668104 0.016336467 0.019501695 -0.04533372 -0.041747477 -0.0014583981 0.009095368 -0.005572101
-0.023937343 -0.028872738 -0.014250515 0.017598055 0.06997871 0.056381308 0.049195684 0.040327538
0.12088164 -0.04083519 -0.027159698 -0.044247765 -0.009075443 -0.0027401294 -0.040945124 -0.053232998
-0.023730993 -0.013879335 -0.031984296 -0.03260824 -0.013999195 -0.04060981 -0.026406832 -0.013903736
-0.040153254 0.0117120175 -0.038715735 -0.012660581 -0.02251533 -0.0064847674 -0.05748543 -0.017403262
-0.027834361 -0.0011457287 0.036488317 -0.014880689 0.0064675277 0.033109028 0.034385078 -0.008603622
0.017269302 -0.020205252 -0.013950726 -0.026515076 0.013003628 -0.028897876 -0.016221931 -0.014503212
0.0047121886 0.0053372723 -0.0067800456 -0.027245887 -0.004937272 0.017335793 0.012622622 -0.017169451
-0.0055328114 -0.0320433 0.01900252 -0.03157992 -0.02162334 -0.0543584 -0.049706805 -0.025582423
-0.010925755 0.023900835 0.021246623 -0.0128255235 0.028594498 -0.00515321 -0.018282779 0.016322125
-0.0052956557 0.032877613 0.010779557 0.012479373 -0.02271414 -0.008112134 0.039060555 0.04843649
0.025953759 0.0049601044 0.037373617 0.081692494 -0.07645643 -0.03909582 -0.022924585 -0.0123693105
-0.067702174 -0.0024950937 -0.0046211286 0.038917262 -0.020118056 -0.018270472 -0.02652284 -0.003571725
0.017842872 -0.0012656199 0.013532212 -0.022640107 0.020187141 -0.00869075 -0.012843533 0.0085287765
-0.013508397 0.03587396 0.030270003 0.004930419 0.01205004 -0.10936616 -0.08205334 -0.043789994
-0.05722138 -0.064739555 -0.033902176 -0.033744052 -0.033373155 -0.032809574 -0.03210895 -0.081057824
-0.020237695 -0.057639994 0.002761212 -0.068088375 -0.055530425 -0.0072798845 -0.034046993 -0.03562319
-0.014795252 -0.0804552 -0.05380669 -0.0451759 -0.0133033525 -0.03636132 0.041804418 -0.0072127488
-0.0060670148 0.037166264 0.02990214 -0.009456517 -0.0025558423 -0.011707303 0.0018730415 0.033181574
-0.028581383 0.0072081736 -0.002954232 -0.0074095684 0.0103241205 0.027607746 -0.017911924 -0.008270435
0.0043090703 0.010665154 0.015956629 0.029351998 0.014745744 0.024610704 0.00721168 0.07468785
0.06954289 0.021163493 0.007439915 0.04073733 0.08073583 0.020358276 0.02258288 0.017071616
0.031241521 0.06239832 -0.009717433 0.03645188 -0.0108477315 -0.0036713523 0.031547062 0.03158958
0.03301689 0.0035305233 0.012185533 0.02446973 0.022424212 0.01878295 0.0045291837 0.042059615
0.04463907 0.04171171 0.047834415 0.035878886 0.073775314 -0.0013950875 0.039238125 0.0024326742
0.024415467 0.056957327 0.017793307 0.024179205 0.042267844 0.00526266 0.019420134 0.021498417
0.011493954 0.026982822 0.020184262 0.0074607786 0.029139115 0.013175157 0.030314663 -0.015339404
0.022908814 0.04054582 0.02702296 0.023625646 0.04892372 0.036598846 0.041681595 0.024744578
0.009274273 0.02264716 0.036522392 -0.0018240687 -0.0011911569 0.016746473 0.03501197 0.023545995
0.03290339 0.041804384 0.024798092 0.0049160626 0.043043878 0.04937057 0.05389091 0.03917651
0.037097532 0.071709976 0.027424198 -0.005540563 0.014687493 -0.0035458754 0.041549932 0.0022225808

exp_avg f4 [64, 1, 9, 9]
00000000: 0a60 42ba e80e 3dba a59c 38ba babe 23ba
00000010: c831 13ba 3258 fab9 f92a 0bba 63a1 0cba
00000020: ae66 24ba f39c 52ba b88f 50ba febb 48ba
00000030: c147 29ba 8420 08ba 69df e4b9 04e8 d8b9
00000040: b1fc e2b9 e288 ffb9 6740 73ba b84d 6bba
00000050: 7f7d 57ba 8f4c 30ba 1ea1 02ba 4093 cdb9
00000060: 8426 b3b9 db6f b4b9 76bd e2b9 feca 72ba
00000070: 0569 7eba f8be 69ba 9457 33ba cce9 00ba
00000080: 9e02 b8b9 dbd6 7eb9 9243 89b9 960b c7b9
00000090: b6c9 75ba fa8f 7dba 07f6 6fba b92d 54ba
000000a0: a365 0eba 7560 a7b9 3ce9 45b9 4776 62b9
000000b0: 6bc0 b9b9 0f0f 68ba cb4c 75ba 683e 81ba
000000c0: c048 57ba d410 17ba c0c8 afb9 f490 3db9
000000d0: 6945 6fb9 d50c b5b9 14f6 67ba fdee 80ba
000000e0: ab4b 88ba fa57 7eba 066b 3eba 404b e5b9
000000f0: 5d08 a0b9 0f31 aeb9 5044 d9b9 f91a 53ba
00000100: c62a 73ba 509f 85ba c4ee 77ba 2992 4dba
00000110: dc4b 1cba d955 ecb9 2d68 ddb9 d199 f1b9
00000120: 980a 42ba 3a9c 60ba 13f6 77ba b63a 7cba
00000130: ecd4 62ba a46f 45ba 70c6 22ba 7f2b 16ba
00000140: 467f 15ba fb5f 403a 51f0 553a fffe 633a
00000150: 0e0e 723a 5d91 7d3a 3b01 643a c692 593a
00000160: 99fc 523a 0b91 413a 6c50 4c3a e0cd 573a
00000170: bccb 773a d67d 793a 88bf 883a b8ab 7f3a
00000180: 941e 6a3a 4994 563a 2280 433a c502 503a
00000190: 6760 653a 88db 803a 038b 8f3a e391 8f3a
000001a0: 6f2c 803a b7a9 6e3a cc92 4d3a 20c0 423a
000001b0: 1651 4d3a 5ad4 603a ce53 6d3a d9ee 8f3a
000001c0: 7c6b 8f3a 0f5b 803a 8355 623a fc66 503a
000001d0: 6d9c 3b3a 6471 513a 85aa 553a 7032 643a
000001e0: e58e 843a 39cf 8e3a b352 823a f93c 633a
000001f0: ff05 543a 1f58 353a 6bb8 4e3a 3eef 483a
00000200: 392c 623a e43b 6f3a c5aa 6b3a d5f8 773a
00000210: a6c0 523a c59d 3e3a ae3c 2d3a bc90 453a
00000220: 7e44 513a df9c 523a 658b 5f3a d93b 5e3a
00000230: 0e5f 5a3a 3c11 4b3a d538 333a 3f51 1f3a
00000240: 4f3e 3c3a 40d1 453a 3c39 453a 01ba 483a
00000250: 65f9 4e3a 7813 473a 4652 313a 73f7 253a
00000260: 9f59 123a a03d 4a3a 4d1d 463a b82a 4f3a
00000270: d231 493a aeb1 403a 76d1 353a fa3a 263a
00000280: 1119 1a3a d7e8 0c3a 2266 afbb 0992 b2bb
00000290: c181 b2bb 6d29 b2bb 034f acbb b0ab a4bb
000002a0: f733 9fbb 52a1 9bbb aa39 9abb f904 b1bb
000002b0: 4ba4 b4bb 47e2 b7bb 6005 b3bb d856 abbb
000002c0: e1a1 a3bb 9981 9ebb 3e5b 9abb 6ed6 96bb
000002d0: 7df5 b2bb 9880 b9bb be23 babb 99bd b5bb
000002e0: f80b aebb 0f9a a2bb a124 9ebb 7691 9bbb
000002f0: ed52 9abb 4455 b3bb d0ef b8bb 04cd b8bb
00000300: 2fef b1bb 883a a8bb f636 a0bb 6f68 9ebb
00000310: 31d1 9cbb b581 9abb f848 b2bb f73b b5bb
00000320: e8a7 b1bb c47e a9bb 9f45 a0bb 504b 9bbb
00000330: 6412 9dbb e4c7 9dbb 444e 9ebb 0e83 aebb
00000340: 9220 adbb 0490 a8bb 39cb 9fbb 56f8 98bb
00000350: 5aa0 98bb 657d 9cbb 1599 9fbb 2475 9fbb
00000360: b7a2 a7bb 09cf a4bb 29d6 9dbb 41e4 96bb
00000370: f6ae 91bb d688 95bb 91b8 9dbb fcaa a0bb
00000380: ce44 a0bb 081d 9fbb 732c 99bb 9bb5 94bb
00000390: b9c4 90bb f36e 8fbb b581 95bb 7d2c 9dbb
000003a0: 8b0d a1bb 10b6 a1bb 4452 9bbb 1f61 95bb
000003b0: 10a8 92bb 7e9b 8ebb 8e33 91bb 5293 95bb
000003c0: e683 9cbb 0a89 9fbb 22b2 a0bb 44a3 e23a
000003d0: 3134 e13a d8d1 053b c4d9 0a3b 613b 173b
000003e0: b40e 173b 0fb0 093b 3f34 013b af61 ed3a
000003f0: 2359 e53a d3c5 fb3a eeb4 0d3b d30a 1e3b
-0.00074148236 -0.0007211999 -0.0007042385 -0.0006246377 -0.0005615023 -0.00047749426 -0.00053088326 -0.00053646247
-0.0006271404 -0.00080342515 -0.0007955986 -0.00076574076 -0.00064575305 -0.00051928335 -0.00043654002 -0.00041371596
-0.0004329435 -0.00048739376 -0.0009279311 -0.00089761196 -0.00082202995 -0.00067252753 -0.0004983115 -0.00039210357
-0.00034170237 -0.00034415614 -0.00043247239 -0.00092618156 -0.000970498 -0.0008916701 -0.0006841358 -0.0004917651
-0.00035097165 -0.00024303368 -0.0002618102 -0.0003796487 -0.00093760656 -0.0009672638 -0.00091537874 -0.00080939714
-0.0005432015 -0.00031924588 -0.0001887427 -0.00021597101 -0.00035429312 -0.00088523416 -0.00093574513 -0.0009860517
-0.000821244 -0.00057627005 -0.00033528171 -0.00018078444 -0.00022818673 -0.0003453257 -0.0008848619 -0.0009836849
-0.0010398527 -0.00097024406 -0.00072638725 -0.0004373435 -0.0003052381 -0.00033224418 -0.00041440362 -0.00080530305
-0.0009276088 -0.0010194574 -0.0009457881 -0.0007841909 -0.00059622317 -0.0004507739 -0.00042230022 -0.00046081704
-0.0007402091 -0.00085682014 -0.000945897 -0.0009621786 -0.00086529437 -0.00075315894 -0.0006209379 -0.00057285273
-0.0005702864 0.0007338521 0.0008161115 0.000869736 0.00092336617 0.0009672845 0.0008697693 0.0008299764
0.0008048504 0.0007383979 0.0007793966 0.0008232277 0.0009452661 0.0009517347 0.0010433057 0.0009753066
0.0008930948 0.00081855484 0.0007457753 0.0007934983 0.0008750022 0.000983105 0.0010951463 0.0010953512
0.0009778867 0.0009104269 0.0007842004 0.00074291416 0.0007832212 0.0008576565 0.00090533204 0.0010981216
0.0010942067 0.0009792763 0.0008633958 0.0007949916 0.0007156793 0.0007989614 0.00081507146 0.00087050255
0.0010113387 0.0010895497 0.0009942859 0.00086684484 0.00080880517 0.0006917733 0.0007885757 0.00076650444
0.00086278055 0.0009126051 0.0008989985 0.0009459381 0.0008039571 0.00072714343 0.0006608468 0.0007536521
0.00079829234 0.000803424 0.00085275463 0.0008477546 0.00083302043 0.00077464036 0.0006836777 0.0006077475
0.00071809156 0.00075461343 0.0007523482 0.0007657111 0.0007895439 0.00075941486 0.0006764274 0.00063311233
0.00055828126 0.00077148713 0.0007557467 0.0007902789 0.00076749653 0.0007350695 0.0006935814 0.00063411857
0.0005878369 0.0005375272 -0.0053527514 -0.0054495377 -0.005447597 -0.0054370672 -0.0052584424 -0.0050253496
-0.0048584896 -0.0047494555 -0.004706581 -0.005402204 -0.0055127493 -0.005611691 -0.0054632872 -0.0052288584
-0.0049936627 -0.0048372266 -0.004710584 -0.0046031987 -0.0054613934 -0.0056610815 -0.0056805303 -0.0055462834
-0.0053114854 -0.004962213 -0.004826144 -0.004747565 -0.0047095926 -0.005472811 -0.0056438223 -0.005639674
-0.0054301242 -0.0051339306 -0.0048893644 -0.004834227 -0.0047856797 -0.0047151693 -0.0054408275 -0.00553083
-0.0054216273 -0.0051725823 -0.004891112 -0.0047392026 -0.004793452 -0.0048150886 -0.0048311073 -0.0053256815
-0.0052834237 -0.005144121 -0.004876521 -0.004668276 -0.0046577873 -0.0047756904 -0.0048705437 -0.004866259
-0.0051158327 -0.0050295633 -0.0048167896 -0.0046048467 -0.004445906 -0.0045634313 -0.004813262 -0.0049031954
-0.0048910147 -0.0048557557 -0.004674488 -0.0045382506 -0.0044179824 -0.00437724 -0.0045625814 -0.004796563
-0.0049149445 -0.0049350336 -0.0047400314 -0.004558697 -0.004475601 -0.004352032 -0.0044311946 -0.004564681
-0.0047764657 -0.0048686313 -0.0049040476 0.0017291089 0.0017181692 0.0020419266 0.0021186927 0.0023076164
0.0023049535 0.002100948 0.001971498 0.0018110777 0.0017497878 0.0019208736 0.0021622735 0.0024115338

exp_avg_sq f4 [64, 1, 9, 9]
00000000: bb99 6337 fc79 5937 023c 5037 6ffa 3f37
00000010: d924 3e37 7a04 3d37 870c 4037 e1cc 4b37
00000020: 4b73 5737 5805 6f37 a44c 6737 a74c 5f37
00000030: 1d53 4f37 a35f 4537 4f3f 4337 e6cc 4137
00000040: 8e6a 4337 c41e 4f37 9ee6 8137 7784 8037
00000050: 522a 7937 6b9d 6d37 fcd3 5c37 ba94 4e37
00000060: ec7f 4537 15b0 4237 8ac5 4837 da36 8d37
00000070: 290e 9537 a9a2 9137 0110 8637 a85a 7737
00000080: 7c1d 5e37 d7ee 4e37 96f7 4237 a1ff 4637
00000090: 889a 9d37 e948 a437 fea8 a837 124a 9c37
000000a0: e685 8837 0d7d 6e37 23ef 5137 7b96 4437
000000b0: 11e4 4437 0b7f aa37 5699 b337 af23 b937
000000c0: 84df a737 8497 9737 c7bc 8037 7654 6037
000000d0: 379e 4b37 a122 4837 c9ef ae37 b08f bc37
000000e0: 4eac bc37 1d66 af37 bec6 9e37 eb37 8537
000000f0: 4263 6b37 c1d0 5837 4caa 5237 51e1 a937
00000100: 2e3c b337 c5c5 b337 b3fb aa37 cfd0 9837
00000110: 5c12 8a37 03c7 7237 a0e6 6637 2bf5 5d37
00000120: ed99 a037 9caa a137 a4e3 a337 f4d5 9e37
00000130: bb60 9837 dcbb 8a37 0f7e 8037 614e 7737
00000140: 2caf 6b37 9ea6 2237 a8df 2d37 971d 3837
00000150: 8da0 4537 0e48 4e37 48b6 3c37 2f5e 2c37
00000160: cd16 3437 8053 2937 c216 2a37 6042 3537
00000170: 17b1 5037 91fe 4f37 e611 6637 bbd0 5837
00000180: 1cb2 4637 61be 3637 af35 3437 7513 2e37
00000190: da37 3e37 88d2 5237 b7ac 7937 3ad3 7b37
000001a0: 8982 5737 805e 4837 91d7 2f37 2583 2c37
000001b0: 952c 2e37 456b 3a37 9e55 4837 0c30 7c37
000001c0: ab18 7a37 48f8 5737 76dc 4037 7949 3637
000001d0: 2bc6 2837 8041 2637 b224 3237 d0ff 4037
000001e0: 58a5 6937 2ddf 7d37 5405 5f37 02ba 4737
000001f0: f0c3 4437 5fab 2937 b3c5 2637 b578 2937
00000200: 1dc6 4237 2fdd 4437 7b83 4b37 ccd4 5737
00000210: 8f1a 4037 4ae8 3237 175f 3037 c268 2337
00000220: c029 3237 e6fd 3337 1bae 3c37 1d32 3e37
00000230: ac0b 4837 f69c 4337 5894 3c37 175e 3037
00000240: 4390 1c37 132a 2937 f07c 2637 7464 2837
00000250: 30cf 3a37 f72b 3837 9cbe 3537 6aec 3837
00000260: aa1c 2f37 ea7b 2237 c9ae 2337 9ca0 2b37
00000270: c58d 2a37 b387 2637 f316 2537 4fd2 3037
00000280: 3665 3137 4b2f 3237 bdbe 2539 2cca 2939
00000290: 01aa 2b39 ec1c 2739 7b55 1f39 6221 1939
000002a0: 9937 1539 0a88 1339 cfb0 1339 a8a3 2c39
000002b0: 7c24 3339 8da2 3439 2592 2c39 90e4 2139
000002c0: 6fa1 1939 a711 1839 e657 1839 3544 1839
000002d0: f521 3239 61eb 3939 35e6 3739 5e43 2d39
000002e0: a7d8 2039 04d3 1839 df31 1a39 0347 1d39
000002f0: 3593 1d39 3e4a 3239 dc75 3739 82a9 3339
00000300: a77e 2639 b3cb 1a39 66a6 1839 1c41 2039
00000310: 4464 2639 c1b8 2539 2eec 2c39 e2e2 2e39
00000320: 1f12 2739 305f 1a39 6a43 1439 d16c 1a39
00000330: acd1 2739 c7e0 3039 c9d8 2e39 7ca7 2239
00000340: 67bf 2039 d11e 1839 8d69 0f39 4c5e 1139
00000350: 96fb 1b39 8125 2f39 47da 3339 8678 3139
00000360: 0189 1639 46f5 1239 f4ad 0c39 47e1 0a39
00000370: 57e6 1139 4f2c 2239 c609 2e39 2d5d 3539
00000380: db0f 3139 f3e6 0d39 3c0b 0b39 f1f1 0739
00000390: b0b4 0839 0c90 1339 cfbe 2139 3393 2c39
000003a0: 1c5b 2f39 a0e5 2e39 4af8 0939 a3a4 0839
000003b0: 1f66 0739 e94d 0a39 d9c7 1139 768f 1a39
000003c0: cf2a 2639 1a48 2839 1265 2439 0513 3639
000003d0: 5ebf 2939 b3bf 3739 5493 3a39 11ce 3639
000003e0: e0b7 2c39 810d 2939 4e7a 2a39 fa8d 2339
000003f0: c6c1 3239 ea88 3039 2bbe 3439 c78e 3e39
1.35660475e-05 1.296261e-05 1.2411738e-05 1.1442796e-05 1.1333462e-05 1.126632e-05 1.1447009e-05 1.2147445e-05
1.2841842e-05 1.4246754e-05 1.3786517e-05 1.3309683e-05 1.2357513e-05 1.1764382e-05 1.1637646e-05 1.1551403e-05
1.1647715e-05 1.2345325e-05 1.5485388e-05 1.5320473e-05 1.485141e-05 1.41629525e-05 1.3162378e-05 1.2313185e-05
1.1771899e-05 1.1604298e-05 1.1966922e-05 1.6834052e-05 1.7768778e-05 1.7361092e-05 1.5981497e-05 1.4743455e-05
1.3239096e-05 1.2334166e-05 1.1620947e-05 1.1861238e-05 1.8787818e-05 1.9584275e-05 2.0105854e-05 1.863114e-05
1.6274815e-05 1.4215021e-05 1.2513049e-05 1.1717547e-05 1.1735611e-05 2.0324738e-05 2.1409865e-05 2.2070335e-05
2.0012034e-05 1.8071158e-05 1.5346695e-05 1.33711055e-05 1.213658e-05 1.1928992e-05 2.0854075e-05 2.2478256e-05
2.2491582e-05 2.0909176e-05 1.8927614e-05 1.5880874e-05 1.4030202e-05 1.2923208e-05 1.2556626e-05 2.0251291e-05
2.1366486e-05 2.1430556e-05 2.0382786e-05 1.8217046e-05 1.6459431e-05 1.447066e-05 1.3762765e-05 1.3229709e-05
1.9145164e-05 1.9272142e-05 1.9537118e-05 1.8934697e-05 1.8164856e-05 1.653836e-05 1.531749e-05 1.4740596e-05
1.4047877e-05 9.694746e-06 1.0363678e-05 1.0974144e-05 1.1779496e-05 1.2295333e-05 1.1248114e-05 1.0273928e-05
1.0734145e-05 1.0092626e-05 1.0138088e-05 1.0803895e-05 1.2438998e-05 1.2397432e-05 1.3713236e-05 1.2923202e-05
1.1843189e-05 1.0892371e-05 1.0741335e-05 1.0375738e-05 1.13378865e-05 1.25659935e-05 1.488177e-05 1.5009946e-05
1.2845391e-05 1.1942931e-05 1.0481003e-05 1.0282533e-05 1.0381588e-05 1.111144e-05 1.1940863e-05 1.5031557e-05
1.4906905e-05 1.2872806e-05 1.1495422e-05 1.0865152e-05 1.005972e-05 9.909621e-06 1.0618171e-05 1.1503653e-05
1.3926379e-05 1.5131937e-05 1.3293076e-05 1.1904633e-05 1.1728131e-05 1.0113085e-05 9.9404015e-06 1.0101289e-05
1.1609428e-05 1.1734009e-05 1.2130356e-05 1.2864544e-05 1.1450275e-05 1.0663711e-05 1.0512557e-05 9.739948e-06
1.0619347e-05 1.0728347e-05 1.124621e-05 1.133655e-05 1.19236465e-05 1.1659451e-05 1.1240212e-05 1.05123245e-05
9.331913e-06 1.0082981e-05 9.92346e-06 1.0036969e-05 1.11347035e-05 1.0977491e-05 1.083282e-05 1.1022299e-05
1.0437487e-05 9.684803e-06 9.756252e-06 1.0229789e-05 1.0165798e-05 9.925966e-06 9.84011e-06 1.0539384e-05
1.0573587e-05 1.0620638e-05 0.00015806682 0.00016192411 0.00016371162 0.00015937135 0.00015195266 0.00014603653
0.00014230459 0.00014069691 0.00014084879 0.00016464165 0.00017084362 0.00017226693 0.00016457641 0.00015439303
0.00014651356 0.00014502426 0.00014528594 0.00014521259 0.00016988053 0.0001773066 0.00017537999 0.00016523662
0.00015339498 0.00014574459 0.00014705163 0.0001499914 0.00015027526 0.0001700306 0.00017496146 0.00017133917
0.00015878175 0.00014762468 0.00014557838 0.00015283044 0.00015868346 0.00015804452 0.00016491182 0.00016678454
0.00015933112 0.00014722045 0.00014139494 0.00014727122 0.0001600447 0.00016868404 0.00016674692 0.00015511917
0.00015330092 0.0001450733 0.00013676863 0.00013863406 0.00014875675 0.00016703272 0.00017152085 0.00016924934
0.00014356153 0.00014015016 0.00013416243 0.00013244628 0.00013914086 0.0001546603 0.00016597574 0.00017296216
0.00016885942 0.00013532843 0.00013260258 0.00012964733 0.00013037282 0.00014072674 0.00015425238 0.00016458034
0.00016723241 0.00016679475 0.00013157833 0.00013031303 0.00012912646 0.0001318973 0.00013902727 0.00014740028
0.00015846941 0.00016048588 0.0001567791 0.00017363958 0.00016188386 0.00017523654 0.00017793226 0.00017433638
0.00016471697 0.00016122127 0.00016258025 0.00015597782 0.00017047589 0.00016835672 0.00017236981 0.00018173

exp_avg f4 [64]
00000000: bb20 07bb f260 4b3b c1b1 58bc 2d08 8b3b
00000010: c576 f23b cb2a 3abc 5eee f2ba 9a1e 7eba
00000020: bbc8 d13b 92df 31b9 f259 cebb 3bf1 d63a
00000030: 82aa 8339 f568 943a bbfc 003b 10f9 2d3c
00000040: 1d05 50bc 4a32 6939 e4ca 453b 5703 c63b
00000050: 0400 0080 40ce 993b 5347 863b aa51 103c
00000060: c684 153b e7fc fab9 b08b 54bb 1973 743b
00000070: e090 0e3b 5a89 f43b 75fa c53b fdcd 0f3b
00000080: f103 933c 842e cb3a 5319 773b 2c29 ecba
00000090: 5740 c43b e344 5e3a 6da6 e4ba 10e0 74bb
000000a0: 11c6 46bb 5ac3 01bc 4364 ed37 3220 203c
000000b0: 45a9 09bb 2132 7c3a f4c7 33bb 6921 f6ba
000000c0: 56c0 27bc d2bb ed3a d2ac f1bc 2912 bd3b
000000d0: 674b bfba 221f 903a 0471 b1ba b529 3f3a
000000e0: f8e5 2bbb 28bb 64bb 53c1 4e39 4b1d 2139
000000f0: 00e2 ba3a 32eb 663a 101e f93a 679d 893b
-0.0020618874 0.0031033126 -0.013225974 0.004242918 0.0073994123 -0.011362742 -0.0018534174 -0.0009693891
0.0064021028 -0.00016963322 -0.0062973434 0.0016398797 0.00025113305 0.0011322784 0.001968189 0.010618463
-0.012696532 0.00022239346 0.0030180747 0.0060428786 -6e-45 0.0046937764 0.004097858 0.008808533
0.0022814735 -0.00047872143 -0.0032431893 0.003730005 0.0021753833 0.0074626626 0.0060418197 0.0021942847
0.017946215 0.0015501534 0.0037704303 -0.0018017641 0.005989115 0.0008478893 -0.0017444618 -0.0037364997
-0.003033046 -0.007920111 2.829929e-05 0.009773301 -0.0021005434 0.0009620507 -0.0027432414 -0.0018778268
-0.010238728 0.001813764 -0.029501352 0.005769987 -0.0014594615 0.0010995606 -0.001353771 0.00072922866
-0.0026229601 -0.0034901593 0.0001971771 0.00015365069 0.0014258027 0.00088088505 0.0019006152 0.004199672

exp_avg_sq f4 [64]
00000000: fe4d 0c39 78de 5039 fd89 a53a bcd5 0e3b
00000010: c8c5 ee3b a50f dd3a bb87 cf3a d897 233b
00000020: e16f a73a 6121 9136 d4de 173a 98f5 813a
00000030: e6ea c038 eb3e 3f3b 3b7f 9c39 d333 6a3c
00000040: 7d0c 293b c51f c33c eb79 183a d7db 733c
00000050: f401 0000 6d28 5f3b fbdb a23a 4e99 0d3a
00000060: 54f9 493b 64cd a639 4a67 5f3a 44f4 983a
00000070: 584f 3f3b 33a1 7f3c f67e 7f3a d875 833a
00000080: 71fb 8d3b 51f4 dc39 0c89 e639 448a 1a3b
00000090: a21b 5e3c c317 6439 ff7d 2d3a 3b53 9e39
000000a0: 436b 343b b78c 2c3b 6112 a038 27ab ea3a
000000b0: f221 f738 1f0a c23b d1f0 1e3c a287 d639
000000c0: e4ae 713a bdec 0b38 1110 703c 68e7 a33c
000000d0: f7b6 5839 f3f7 133a a7b6 a639 64c9 473a
000000e0: e96c af39 5761 c039 8a77 733a 140d 4738
000000f0: 1841 f63a fb8a b237 0dfe 7c3a 5b82 7a3b
0.00013380495 0.00019919302 0.0012629625 0.0021794876 0.007286761 0.0016865624 0.0015833298 0.0024962332
0.0012774431 4.3252226e-06 0.0005793397 0.0009915112 9.199027e-05 0.002918179 0.00029849433 0.014294582
0.0025794797 0.02381886 0.0005816507 0.014883957 7e-43 0.0034051195 0.0012425178 0.00054015673
0.0030818777 0.00031815015 0.0008522166 0.0011669477 0.002919158 0.015602398 0.00097463967 0.0010029627
0.0043329527 0.000421437 0.00043971126 0.0023580948 0.013556393 0.00021752626 0.0006618201 0.0003019812
0.0027529753 0.002632899 7.632818e-05 0.001790379 0.000117842006 0.0059216167 0.00970097 0.00040918315
0.0009219481 3.3360662e-05 0.014652268 0.020007804 0.00020667525 0.00056445523 0.00031798074 0.0007621257
0.00033459745 0.00036693618 0.0009287527 4.7457477e-05 0.001878771 2.1283971e-05 0.00096508936 0.003822467

exp_avg f4 [32, 64, 5, 5]
00000000: 00a9 c7b8 555f 75b8 f86e 18b8 691a 8eb7
00000010: 4fdc 2ab8 93e0 85b8 02cc 61b8 1f27 16b8
00000020: ae77 ffb7 1195 37b8 8d36 eab8 d68f bbb8
00000030: f102 ceb8 1917 bab8 21f0 b2b8 2358 0eb9
00000040: 064c f9b8 96cb e1b8 b01a d8b8 82df c7b8
00000050: bb82 09b9 b9f2 01b9 7dd5 f0b8 606b fdb8
00000060: ffc5 beb8 f3ac cfb4 c85d 24b7 3773 31b7
00000070: 92b0 06b7 1ff8 9db6 3e99 4bb7 0907 80b7
00000080: 79b4 96b7 c4cf 7cb7 2906 1db7 755a 54b7
00000090: e0f4 8fb7 273d 86b7 fa9f 30b7 fd37 03b7
000000a0: 5fb8 5db7 9c64 4ab7 bfdc 21b7 f9f5 cfb6
000000b0: 5ba1 c5b6 d1bb 5bb7 4178 34b7 02db 37b7
000000c0: 1b14 d2b6 8cc3 beb6 1ca7 2bb9 9b94 47b9
000000d0: 30e4 6eb9 8009 86b9 3ecc 8fb9 d881 2ab9
000000e0: f7d1 46b9 54b3 6eb9 ea57 7db9 d588 8ab9
000000f0: d493 18b9 258a 3cb9 0597 4eb9 d3d9 5eb9
00000100: d36b 7bb9 3f07 02b9 992c 20b9 5b08 27b9
00000110: 04ba 31b9 fd5e 3fb9 0e47 feb8 3665 f2b8
00000120: 4290 10b9 c5cf 06b9 0f34 0eb9 397b 7fb8
00000130: d41f beb8 a484 fab8 d5c3 11b9 ea2a 10b9
00000140: b518 7ab8 7696 b4b8 3c4a eab8 3234 0cb9
00000150: 9b7e 06b9 ac54 40b8 6768 99b8 dd5f cdb8
00000160: 3947 cfb8 a27f cdb8 65f0 1db8 a253 70b8
00000170: 82e6 90b8 156b 89b8 5807 83b8 c833 f2b7
00000180: 981a 25b8 d99c 18b8 050d 19b8 2561 04b8
00000190: 5616 fdb7 04c1 d3b7 d515 c2b7 ef87 50b7
000001a0: ec68 16b7 f1c4 efb7 0cb8 cdb7 b1fb b0b7
000001b0: 2a26 40b7 3144 27b7 b6e5 c6b7 d7ce a2b7
000001c0: 6ef4 a9b7 aae4 2db7 02c0 76b7 628b 84b7
000001d0: e9b6 93b6 a8d1 3c35 5952 1436 9024 20b6
000001e0: 745b 0a34 550b 9435 97ef 0337 f7e9 15b6
000001f0: e15b 7832 605f 63b9 80d3 7ab9 813c 89b9
00000200: 71f9 89b9 e400 90b9 243c 83b9 57b6 86b9
00000210: e216 8cb9 0e9b 8ab9 e93b 94b9 8a6b 7cb9
00000220: 83e3 8ab9 a930 85b9 e918 88b9 6e3d 82b9
00000230: 84c6 6ab9 1fe4 6ab9 8368 70b9 19de 70b9
00000240: ff62 69b9 f6c7 58b9 8df9 4fb9 c3f1 32b9
00000250: 71f7 50b9 e493 37b9 8591 3fb8 e4ea 39b8
00000260: 8622 4db8 8719 3db8 e710 59b8 3d8d 1db8
00000270: 5c16 17b8 ad84 17b8 e7e2 1ab8 1b9e 43b8
00000280: 7e26 e1b7 0ac7 e8b7 39ea 02b8 92aa 2ab8
00000290: 3f52 4ab8 2566 a6b7 9a34 b8b7 4da0 f0b7
000002a0: e5ba 2bb8 0d04 25b8 3417 d6b7 531e dab7
000002b0: 800d 07b8 ab09 15b8 00ec 28b8 c03b 05b8
000002c0: d2e4 0fb8 ebc9 21b8 a3d1 10b8 b5fa e8b7
000002d0: 2c4c b8b7 b1e9 e5b7 6882 e1b7 ec2c dcb7
000002e0: bb26 c5b7 07d3 6cb7 5743 60b7 e935 83b7
000002f0: 4ecb 77b7 0e90 97b7 ab21 14b7 c116 fbb6
00000300: 1f2d 81b6 9380 6eb6 86b3 b2b6 75ba 32b6
00000310: d289 12b6 60b7 f2b5 0dff 0535 ba2f 94b6
00000320: c641 85b7 a174 8db7 1119 e6b7 cf62 16b8
00000330: fadf 39b8 48cc f3b6 e04a 3fb7 85b6 aeb7
00000340: 2c2c cab7 4084 22b8 b598 9eb6 1d01 e9b6
00000350: ac18 75b7 4df2 99b7 4292 eab7 99ec 91b5
00000360: 4289 0bb5 29ef fbb6 7889 2bb7 3cff 89b7
00000370: 737b 41b5 b17a 48b5 6420 e1b6 5422 b7b6
00000380: e511 31b7 90cd abb5 3a7b 10b6 6183 b2b5
00000390: 7149 72b5 c350 beb4 0390 f1b4 d81d efb4
000003a0: 58d3 1bb3 4154 1ab4 6711 2c33 62e0 1fb4
000003b0: a100 8032 c186 f832 2a71 cb32 fe58 0b34
000003c0: 8872 84b3 4a91 c432 3642 46b0 8f63 4433
000003d0: 4b9e 2c33 4c78 b9b4 4a94 3eb4 6824 3bb4
000003e0: 14c4 4eb4 2b2f 20b4 1f3f 00b8 38d5 43b8
000003f0: 59ee 75b8 4f96 9ab8 f728 a5b8 f5a7 eeb7
-9.520538e-05 -5.8501337e-05 -3.634297e-05 -1.6940017e-05 -4.0736337e-05 -6.3837644e-05 -5.3834177e-05 -3.579922e-05
-3.0454099e-05 -4.376943e-05 -0.000111681504 -8.9436464e-05 -9.823393e-05 -8.8734734e-05 -8.532429e-05 -0.00013575009
-0.00011887406 -0.00010766757 -0.000103046536 -9.530691e-05 -0.00013114039 -0.0001239282 -0.00011483857 -0.0001208398
-9.096786e-05 -3.8682592e-07 -9.796997e-06 -1.0576848e-05 -8.028133e-06 -4.7078497e-06 -1.2135422e-05 -1.5262065e-05
-1.7965433e-05 -1.5068745e-05 -9.3593635e-06 -1.2657246e-05 -1.7160957e-05 -1.6002521e-05 -1.0527665e-05 -7.821244e-06
-1.3215554e-05 -1.2063563e-05 -9.647744e-06 -6.1977157e-06 -5.8898418e-06 -1.3097147e-05 -1.0756835e-05 -1.0958642e-05
-6.2608283e-06 -5.685206e-06 -0.00016370084 -0.00019033479 -0.00022782455 -0.0002556555 -0.00027427258 -0.00016260834
-0.0001896097 -0.00022764254 -0.00024160711 -0.0002642336 -0.0001455092 -0.0001798054 -0.0001970195 -0.00021252716
-0.00023977393 -0.00012400465 -0.00015275403 -0.00015929474 -0.00016949332 -0.00018250565 -0.00012124899 -0.00011558311
-0.0001378665 -0.00012856636 -0.00013561569 -6.0911498e-05 -9.0658345e-05 -0.00011945635 -0.0001390123 -0.00013748897
-5.9627655e-05 -8.6110944e-05 -0.00011171817 -0.00013370885 -0.000128264 -4.5855224e-05 -7.315055e-05 -9.793018e-05
-9.8837954e-05 -9.798935e-05 -3.76556e-05 -5.7298348e-05 -6.9093905e-05 -6.552615e-05 -6.247935e-05 -2.887276e-05
-3.9363833e-05 -3.63857e-05 -3.6490168e-05 -3.1561725e-05 -3.0170351e-05 -2.524304e-05 -2.3136769e-05 -1.2429416e-05
-8.965126e-06 -2.8582728e-05 -2.4523608e-05 -2.1098038e-05 -1.1452978e-05 -9.969853e-06 -2.3710407e-05 -1.9408222e-05
-2.0260191e-05 -1.0364844e-05 -1.4707448e-05 -1.5800531e-05 -4.402235e-06 7.034055e-07 2.2101651e-06 -2.386314e-06
1.2885522e-07 1.1030157e-06 7.863992e-06 -2.2338916e-06 1.4456391e-08 -0.00021683937 -0.00023920648 -0.00026175755
-0.00026316525 -0.00027466484 -0.00025031075 -0.00025694325 -0.0002671993 -0.00026436936 -0.00028273396 -0.00024072654
-0.0002649092 -0.00025403991 -0.000259585 -0.000248413 -0.00022389932 -0.00022400961 -0.00022927117 -0.00022970921
-0.0002225749 -0.00020673856 -0.00019834023 -0.00017065466 -0.00019928605 -0.00017507334 -4.5673474e-05 -4.4326196e-05
-4.890796e-05 -4.5084886e-05 -5.1752573e-05 -3.7563255e-05 -3.602203e-05 -3.612477e-05 -3.692778e-05 -4.663887e-05
-2.6840014e-05 -2.774924e-05 -3.1212552e-05 -4.0690014e-05 -4.823715e-05 -1.9836307e-05 -2.1959004e-05 -2.8684875e-05
-4.0943636e-05 -3.9342838e-05 -2.5521593e-05 -2.6001746e-05 -3.219908e-05 -3.5533372e-05 -4.0274113e-05 -3.1765318e-05
-3.4306962e-05 -3.8573442e-05 -3.4527515e-05 -2.77733e-05 -2.196998e-05 -2.7407748e-05 -2.6882815e-05 -2.6246962e-05
-2.3502265e-05 -1.411583e-05 -1.3367119e-05 -1.564152e-05 -1.4769683e-05 -1.8067683e-05 -8.829326e-06 -7.483032e-06
-3.8497524e-06 -3.5539604e-06 -5.3257127e-06 -2.66326e-06 -2.1835917e-06 -1.8083774e-06 4.991751e-07 -4.4163e-06
-1.5885464e-05 -1.686282e-05 -2.7429809e-05 -3.585481e-05 -4.431603e-05 -7.265746e-06 -1.140192e-05 -2.0827409e-05
-2.4100846e-05 -3.8746977e-05 -4.7265444e-06 -6.9440707e-06 -1.4608882e-05 -1.8351851e-05 -2.796308e-05 -1.0872201e-06
-5.198127e-07 -7.508225e-06 -1.0224401e-05 -1.6450525e-05 -7.2077745e-07 -7.4684345e-07 -6.7092933e-06 -5.4578213e-06
-1.05541885e-05 -1.2800319e-06 -2.15294e-06 -1.330027e-06 -9.0258897e-07 -3.544902e-07 -4.499453e-07 -4.4538933e-07
-3.6280966e-08 -1.4373019e-07 4.0062698e-08 -1.4889659e-07 1.4901447e-08 2.8932279e-08 2.3683771e-08 1.2977759e-07
-6.167562e-08 2.2883473e-08 -7.212607e-10 4.5725354e-08 4.0190837e-08 -3.4546463e-07 -1.7749076e-07 -1.7428977e-07
-1.9256578e-07 -1.4918321e-07 -3.0576364e-05 -4.66902e-05 -5.863453e-05 -7.3712894e-05 -7.8754434e-05 -2.8450022e-05
