logs/biosr_ccps_rcan_model-SRCNN_250305_lr0.0001_bs1_Ps256_Npatch128_N300/model_229.pth (torch, 695046 bytes, 15 tensors)

conv1.weight f4 [64, 1, 9, 9]
0.080124624 -0.028695252 0.08299061 -0.022856988 0.04593425 -0.03909646 0.13421923 -0.011268361
0.20494813 -0.027769903 -0.092537686 0.048164234 -0.050068464 0.030705871 0.042629603 0.029838908
0.07698595 0.106748626 0.085066006 0.03796312 -0.09637345 -0.018860655 -0.051740035 -0.09433159
-0.06892188 -0.07261825 0.04997451 -0.10293272 -0.034368508 0.023221595 -0.077240646 -0.10062301
0.0014706743 -0.031170242 -0.04231354 0.07429228 -0.07294956 -0.062592715 -0.0038809173 0.04366442
-0.031770006 0.07179327 0.05122513 0.064770356 0.024099803 -0.036707297 -0.09789691 -0.0014421747
-0.094231516 0.026123438 0.02621476 0.021586074 0.053161245 0.12468995 -0.05461049 -0.028066413
-0.008652201 0.03271688 0.07799174 0.0602909 -0.046261594 0.10466585 0.006762567 0.037305716
0.035955567 0.001933052 -0.051081255 -0.052054577 0.010057012 -0.06629126 -0.022125816 -0.06701327
0.042535353 -0.023950854 0.021497834 0.055560954 -0.04852423 -0.007866358 -0.08550557 -0.0059559937
-0.069509536 -0.04755947 -0.004426243 -0.028987259 0.0073168636 0.072148986 -0.031751383 -0.12303736
0.056040373 -0.016641453 0.01932512 -0.01749444 0.05763267 -0.10111969 0.069205515 0.07387275
0.071717404 0.034422386 0.09012543 0.03369413 0.01846401 -0.022032175 0.08509661 0.07390416
-0.04919024 0.01237077 -0.09427657 -0.024560073 0.027524529 -0.013454091 -0.119505726 0.083818756
0.030642852 -0.09124364 -0.10451125 -0.047622845 -0.093741275 -0.062460873 -0.059655573 -0.10120705
0.048047613 0.11852166 0.0018534667 -0.0422849 0.08566203 -0.10491057 -0.034448057 -0.09399101
0.03319089 -0.086822055 -0.09321206 0.04441773 -0.067488804 -0.09329374 0.0032834637 -0.050684385
0.07020474 0.007977178 0.0068793846 -0.041360296 0.05959719 0.071482375 0.08428434 0.013790933
-0.11623119 0.009429702 -0.071923144 -0.093218945 0.07228039 0.041649044 0.034565333 0.11040371
0.03198677 -0.01757602 -0.029244838 0.047762893 0.016850198 -0.064174116 -0.09665745 0.06848792
0.07474113 0.12342108 0.06544795 0.123650365 -0.050320797 0.06151142 0.03658073 0.027724726
-0.07635069 -0.06606917 0.046243876 0.11155251 0.07235067 -0.0308956 0.1184996 0.056700043
0.017661152 0.020618346 0.08772436 0.07369151 0.08377776 -0.051954463 0.09305588 0.09849282
-0.000531925 0.05985049 -0.07196938 -0.10818681 -0.08454844 0.11976174 0.10738205 0.021537896
0.09623676 0.08337422 -0.041894365 0.022633888 -0.061944555 -0.12791479 0.10949947 -0.04021362
-0.031184137 0.020667696 0.067924626 0.079357915 -0.029960938 0.0048808013 -0.005381177 -0.03662619
-0.0128595885 0.021307569 -0.07870921 0.05016561 -0.10859686 0.024971964 -0.11092146 -0.1364937
0.029596565 0.023695204 -0.042787615 0.06371354 0.088822454 0.010323607 -0.10742546 -0.11505052
-0.16058537 0.009532208 0.10381224 0.012555912 -0.09781081 0.06974044 0.028427912 -0.07991798
-0.15165783 0.019296741 0.11310461 0.020403262 -0.03608351 -0.026156006 -0.04485191 -0.115512736
0.0065299324 -0.09496438 -0.13019629 0.10615219 -0.08551935 0.09784865 0.11869981 0.074783
-0.034252383 -0.045413822 0.024564857 -0.07574029 0.04954579 -0.0046390165 0.008645138 0.11448788
00000000: 6118 a43d 4e12 ebbc fbf6 a93d 943e bbbc
00000010: 8d25 3c3d 9c23 20bd c470 093e ee9e 38bc
00000020: ecdd 513e b57d e3bc 6684 bdbd dc47 453d
00000030: 9714 4dbd e18a fb3c 619c 2e3d ba70 f43c
00000040: cfaa 9d3d 069f da3d 1637 ae3d 377f 1b3d
00000050: 715f c5bd a981 9abc 5ced 53bd ec30 c1bd
00000060: ea26 8dbd e1b8 94bd 12b2 4c3d 64ce d2bd
00000070: fec5 0cbd 373b be3c 5830 9ebd 7013 cebd
00000080: a4c3 c03a bc58 ffbc f650 2dbd 8d26 983d
00000090: 9466 95bd 9c30 80bd fd56 7ebb 76d9 323d
000000a0: 4421 02bd 5a08 933d 71d1 513d 52a6 843d
000000b0: f36c c53c 645a 16bd 2d7e c8bd 5a07 bdba
000000c0: 74fc c0bd d200 d63c 56c0 d63c 47d5 b03c
000000d0: 9bbf 593d 725d ff3d 40af 5fbd 89eb e5bc
000000e0: f6c1 0dbc 2302 063d 22ba 9f3d 97f3 763d
000000f0: cc7c 3dbd 0d5b d63d 8698 dd3b e1cd 183d
00000100: 2546 133d 765e fd3a 943a 51bd 2e37 55bd
00000110: 2ac6 243c b6c3 87bd 3341 b5bc 413e 89bd
00000120: 8d39 2e3d 9534 c4bc 3a1c b03c e293 633d
00000130: 58c1 46bd e6e1 00bc 8b1d afbd 7f2a c3bb
00000140: 045b 8ebd b8cd 42bd 040a 91bb b076 edbc
00000150: 4dc2 ef3b d9c2 933d bd0d 02bd 03fb fbbd
00000160: 978a 653d a853 88bc b74f 9e3c 8050 8fbc
00000170: 3c10 6c3d d717 cfbd 9fbb 8d3d 994a 973d
00000180: 93e0 923d 7dfe 0c3d ae93 b83d db02 0a3d
00000190: d641 973c d27c b4bc 2247 ae3d 105b 973d
000001a0: b57b 49bd c5ae 4a3c 1314 c1bd 3532 c9bc
000001b0: 1f7b e13c 8c6e 5cbc 6bbf f4bd 2ba9 ab3d
000001c0: b806 fb3c f2dd babd ff09 d6bd 2c10 43bd
000001d0: 6dfb bfbd f9d6 7fbd 6759 74bd a445 cfbd
000001e0: 93cd 443d 7cbb f23d 06f0 f23a ee32 2dbd
000001f0: 936f af3d 5adb d6bd 6819 0dbd 5c7e c0bd
00000200: 2cf3 073d c3cf b1bd f7e5 bebd 5eef 353d
00000210: 9237 8abd ca10 bfbd 612f 573b 6e9a 4fbd
00000220: 81c7 8f3d b6b2 023c 766c e13b 6a69 29bd
00000230: 2f1c 743d 5a65 923d 459d ac3d 5ef3 613c
00000240: 9e0a eebd 097f 1a3c 714c 93bd 93e9 bebd
00000250: be07 943d 3098 2a3d 6194 0d3d 571b e23d
00000260: 8f04 033d 96fb 8fbc df92 efbc 06a3 433d
00000270: 6d09 8a3c b86d 83bd 57f4 c5bd 6543 8c3d
00000280: e111 993d 31c4 fc3d 9309 863d 673c fd3d
00000290: 2e1d 4ebd 66f3 7b3d add5 153d f71e e33c
000002a0: c05d 9cbd 464f 87bd 386a 3d3d a475 e43d
000002b0: 972c 943d c518 fdbc ebaf f23d 4e3e 683d
000002c0: 1fae 903c cee7 a83c d4a8 b33d 93eb 963d
000002d0: ad93 ab3d 34ce 54bd 1594 be3d 9bb6 c93d
000002e0: e270 0bba ca25 753d af64 93bd 0c91 ddbd
000002f0: bc27 adbd a545 f53d 1feb db3d 3e70 b03c
00000300: c717 c53d 1ac0 aa3d 6d99 2bbd b46a b93c
00000310: 93b9 7dbd 18fc 02be 4241 e03d 09b7 24bd
00000320: e075 ffbc 4d4f a93c 111c 8b3d 6786 a23d
00000330: a470 f5bc 21ef 9f3b 9654 b0bb 5805 16bd
00000340: 06b1 52bc 368d ae3c 4b32 a1bd 747a 4d3d
00000350: 0868 debd 0192 cc3c ca2a e3bd 01c5 0bbe
00000360: 7f74 f23c 721c c23c 1142 2fbd 3f7c 823d
00000370: 8ce8 b53d 5924 293c e101 dcbd 9b9f ebbd
00000380: 7e70 24be fa2c 1c3c 839b d43d 50b7 4d3c
00000390: 0951 c8bd 13d4 8e3d a7e1 e83c 0aac a3bd
000003a0: 314c 1bbe 3314 9e3c 64a3 e73d be24 a73c
000003b0: 4dcc 13bd 1f45 d6bc a3b6 37bd f191 ecbd
000003c0: 0bf9 d53b af7c c2bd 2d52 05be 5266 d93d
000003d0: c524 afbd df64 c83d e318 f33d d427 993d
000003e0: 3a4c 0cbd d803 3abd 3d3c c93c ba1d 9bbd
000003f0: 87f0 4a3d e402 98bb 56a4 0d3c 9f78 ea3d

conv1.bias f4 [64]
0.027012913 0.05134634 0.01719995 0.0053996937 -0.10216565 0.07638244 0.09211997 -0.073926486
-0.038442932 0.030184204 -0.037247173 -0.017078452 -0.10344336 -0.016678154 -0.0804578 -0.06535549
0.09197681 -0.02409861 -0.002838125 -0.020502783 -0.035981096 -0.103080966 -0.11774675 -0.01833889
-0.018529972 0.018267384 -0.026284406 -0.080450475 -0.07503316 -0.061746735 -0.031518392 -0.019914325
-0.08010582 -0.08469632 0.06781131 -0.0018356151 -0.07241211 0.04847255 -0.024914607 0.1582883
0.0474374 0.060740575 -0.020908527 -0.020414375 0.033071328 -0.121633664 -0.012111194 -0.034574013
0.021956941 -0.032300502 0.10715279 -0.062721334 0.005310866 -0.0029139877 0.06811213 -0.059271663
0.036187503 -0.081249826 0.009531876 0.011048353 -0.015557314 0.00047784543 0.054278612 -0.08378927
00000000: 2f4a dd3c 8a50 523d e9e6 8c3c eaef b03b
00000010: 393c d1bd 666e 9c3d 65a9 bc3d c566 97bd
00000020: 5676 1dbd dd44 f73c 7e90 18bd 1ce8 8bbc
00000030: 1dda d3bd a0a0 88bc 0fc7 a4bd 19d9 85bd
00000040: 565e bc3d 736a c5bc d6ff 39bb 74f5 a7bc
00000050: ea60 13bd 1d1c d3bd 3525 f1bd 713b 96bc
00000060: 2bcc 97bc 7ba5 953c 6552 d7bc 38c3 a4bd
00000070: fcaa 99bd 25ea 7cbd 6e19 01bd 5e23 a3bc
00000080: 850e a4bd 4475 adbd a8e0 8a3d 0699 f0ba
00000090: cd4c 94bd 278b 463d b819 ccbc 5416 223e
000000a0: b84d 423d 1ccb 783d 5c48 abbc 0c3c a7bc
000000b0: cd75 073d 121b f9bd 086e 46bc 7b9d 0dbd
000000c0: 0bdf b33c 884d 04bd ec72 db3d 0b74 80bd
000000d0: c606 ae3b 9af8 3ebb 5f7e 8b3d d8c6 72bd
000000e0: 5939 143d 4f66 a6bd 962b 1c3c 2704 353c
000000f0: 1be4 7ebc 5487 fa39 4053 5e3d b599 abbd

conv2.weight f4 [32, 64, 5, 5]
-0.023535825 -0.038271 0.015398627 -0.009823949 0.031173628 0.004716329 -0.011409266 0.025561098
-0.008316725 0.0100024 -0.0037103198 -0.0059271264 -0.0058721006 -0.019312764 0.0019407608 -0.04391022
-0.021021115 -0.034427322 -0.034665313 -0.0004219515 -5.273189e-05 0.016145138 0.019200532 0.036964692
0.050642963 -0.11472526 -0.016981378 0.054297183 5.5919252e-05 -0.02760946 0.0015111004 -0.035425458
0.057797346 0.037393887 0.0005498985 -0.0701167 -0.08583593 -0.008036565 -0.023980208 -0.009859338
-0.09356663 -0.085738026 -0.025343759 -0.01291755 -0.012750745 -0.054829407 -0.017761754 0.00480857
0.004816304 -0.024695667 0.016801571 0.008452402 0.022828441 0.029367734 0.014999819 -0.029069396
-0.013327692 -0.015769145 -0.013150761 0.010934191 -0.031409867 -0.0011763753 -0.008151911 0.010176447
0.011732456 -0.04502456 -0.005180984 -0.034484584 0.03258457 0.06153594 -0.0048821387 0.01087376
0.018889274 0.0512124 0.16305873 0.021444201 -0.027686622 -0.0058769276 -0.0061334968 0.030078296
0.010245238 0.0050966702 -0.037625007 -0.009455172 0.01634247 -0.01248815 0.0064744423 0.0027675286
0.023584994 0.01591365 -0.008239144 -0.03601602 -0.014182964 -0.006907198 -0.026276022 -0.03309745
-0.047049098 -0.04936409 -0.118249305 -0.16591139 0.00429024 0.011159253 0.007703092 -0.019282194
-0.047529258 0.018067067 0.004742179 -0.0049487944 0.0072856294 -0.049933188 0.033516575 0.023864832
0.0030095116 -0.0019781182 -0.0332308 -0.0007896101 0.021748966 -0.047115687 -0.032554578 -0.02481824
0.06556819 0.011351936 0.039769653 0.045362815 0.058025718 0.005226169 0.013003493 0.0015627118
0.018661031 -0.018512202 0.0019050152 0.008174223 -0.003921398 0.007432066 -0.031567305 -0.029027265
-0.026602183 -0.027928684 -0.03424959 -0.030725475 0.0021332477 -0.009015485 0.0019008745 0.015018155
-0.0014802389 0.010053217 0.029877385 0.017838245 0.027518457 0.014809792 0.003451335 0.032817733
0.053399466 -0.026209151 -0.06146499 -0.004582731 -0.00636361 -0.025712224 -0.07074383 -0.04406989
0.008642008 -0.009284774 -0.01017552 -0.061231043 -0.004094195 0.052717306 0.018444454 -0.052455876
0.0047522844 0.0058415704 0.041849677 0.040244557 -0.043634087 0.016080702 0.07149157 -0.022447323
-0.03148338 0.013797862 -0.018410003 -0.030549465 -0.032716192 0.0155666815 0.023801746 -0.021404939
0.026102267 0.002288745 0.036895838 0.017052162 -0.004722352 -0.009250415 0.022690594 -0.00034809133
-0.012061752 0.0164251 0.038302816 0.039115567 0.014992818 0.019269401 0.062459894 0.11352285
0.041835736 -0.053214356 -0.03129165 -0.01722856 -0.046256404 -0.009945895 -0.030063292 -0.03852363
-0.0026965763 0.019994074 -0.099292405 -0.025777195 -0.07401966 -0.051806048 0.1003813 -0.15293823
-0.11826436 -0.07684585 -0.048749372 0.08626388 -0.07237666 -0.07803775 -0.05221939 0.05461892
0.14997657 0.019491095 -0.010453391 -0.009063103 -0.04419791 -0.03440805 0.038434584 0.0018726018
-0.0193192 -0.06438983 0.04846657 -0.09160974 -0.052947998 -0.07276351 -0.04811298 0.09144148
-0.12598993 -0.08932644 -0.004578407 0.0947023 0.082293846 -0.116218105 -0.029302752 -0.0144897215
0.30660376 0.023474064 0.06467077 -0.022989633 -0.05168267 -0.07434351 -0.12064017 0.05545385
00000000: 34ce c0bc 0dc2 1cbd 864a 7c3c a1f4 20bc
00000010: d65f ff3c 6f8b 9a3b eeed 3abc 8265 d13c
00000020: df42 08bc 1be1 233c d628 73bb 5738 c2bb
00000030: c06a c0bb cd35 9ebc 2061 fe3a 34db 33bd
00000040: 7934 acbc aa03 0dbd 37fd 0dbd 5f39 ddb9
00000050: 702c 5db8 cf42 843c 6f4a 9d3c 4a68 173d
00000060: ff6e 4f3d 14f5 eabd 881c 8bbc b966 5e3d
00000070: d78a 6a38 3c2d e2bc 1e10 c63a 491a 11bd
00000080: e9bc 6c3d 552a 193d 1027 103a 5899 8fbd
00000090: c0ca afbd ccab 03bc 2472 c4bc 1089 21bc
000000a0: dc9f bfbd 6b97 afbd b79d cfbc 22a4 53bc
000000b0: 80e8 50bc cd94 60bd 1981 91bc 3591 9d3b
000000c0: 16d2 9d3b 914e cabc 73a3 893c f27b 0a3c
000000d0: b602 bb3c 9a94 f03c cdc1 753c f122 eebc
000000e0: 645c 5abc 4b2e 81bc 4a76 57bc 5225 333c
000000f0: a2a7 00bd 9b30 9aba 988f 05bc 1dbb 263c
00000100: 7d39 403c ac6b 38bd 3ec5 a9bb b53f 0dbd
00000110: 6677 053d 1c0d 7c3d 59fa 9fbb db27 323c
00000120: aebd 9a3c 18c4 513d def8 263e c0ab af3c
00000130: 0ecf e2bc 3e93 c0bb 80fb c8bb c266 f63c
00000140: a5db 273c f801 a73b ae1c 1abd dee9 1abc
00000150: a5e0 853c 199b 4cbc 8f27 d43b 6d5f 353b
00000160: 5135 c13c 585d 823c 7afd 06bc 8985 13bd
00000170: aa5f 68bc c755 e2bb d040 d7bc 3191 07bd
00000180: 8eb6 40bd 0032 4abd b12c f2bd ade4 29be
00000190: 2495 8c3b 4dd5 363c 386a fc3b b1f5 9dbc
000001a0: 0aae 42bd 6301 943c 4864 9b3b 7f29 a2bb
000001b0: 4abc ee3b be86 4cbd ad48 093d 2e80 c33c
000001c0: 3a3b 453b 51a3 01bb 051d 08bd d6fd 4eba
000001d0: e32a b23c 61fc 40bd f357 05bd 9f4f cbbc
000001e0: 9d48 863d 78fd 393c 81e5 223d 5cce 393d
000001f0: 60ac 6d3d 4840 ab3b 9a0c 553c e8d3 cc3a
00000200: 05df 983c e7a6 97bc b4b1 f93a 2ded 053c
00000210: 127f 80bb b088 f33b b84c 01bd 96ca edbc
00000220: d2ec d9bc b2ca e4bc 4c49 0cbd feb3 fbbc
00000230: f5cd 0b3b afb5 13bc c426 f93a b50e 763c
00000240: 9304 c2ba 40b6 243c 6bc1 f43c 8321 923c
00000250: 636e e13c c5a4 723c cb2f 623b e36b 063d
00000260: 66b9 5a3d 93b4 d6bc b7c2 7bbd bc2a 96bb
00000270: d485 d0bb 71a2 d2bc 24e2 90bd a182 34bd
00000280: 3597 0d3c 2a1f 18bc 39b7 26bc 67cd 7abd
00000290: 9928 86bb 1aee 573d d318 973c f9db 56bd
000002a0: 0db9 9b3b a56a bf3b 916a 2b3d 7ad7 243d
000002b0: a8b9 32bd adbb 833c 2c6a 923d 73e3 b7bc
000002c0: b7f4 00bd 6e10 623c 93d0 96bc df42 fabc
000002d0: 6a01 06bd 650b 7f3c e1fb c23c 6959 afbc
000002e0: 6cd4 d53c c5fe 153b 1720 173d fab0 8b3c
000002f0: f6bd 9abb 0d8f 17bc a0e1 b93c 0780 b6b9
00000300: a89e 45bc ee8d 863c 6ae3 1c3d a537 203d
00000310: 70a4 753c ddda 9d3c f2d5 7f3d ab7e e83d
00000320: f35b 2b3d 4cf7 59bd ac2b 00bd e922 8dbc
00000330: 5b77 3dbd 1bf4 22bc 4b47 f6bc f4ca 1dbd
00000340: 0bb9 30bb 9dca a33c d159 cbbd b22a d3bc
00000350: 9f97 97bd 9432 54bd b694 cd3d d79b 1cbe
00000360: 9634 f2bd 5b61 9dbd 6cad 47bd 1eab b03d
00000370: 373a 94bd 42d2 9fbd 00e4 55bd 17b8 5f3d
00000380: 7593 193e caab 9f3c b344 2bbc 697d 14bc
00000390: de08 35bd 75ef 0cbd 956d 1d3d 1772 f53a
000003a0: 4d43 9ebc d1de 83bd e284 463d e39d bbbd
000003b0: 00e0 58bd 0905 95bd 1e12 45bd ac45 bb3d
000003c0: 8103 01be c8f0 b6bd 7606 96bb 48f3 c13d
000003d0: ad89 a83d c203 eebd 530c f0bc 4c66 6dbc
000003e0: 2bfb 9c3e ae4c c03c 1c72 843d c154 bcbc
000003f0: 35b1 53bd 6941 98bd 3212 f7bd 9423 633d

conv2.bias f4 [32]
0.0054960474 -0.033815544 0.0121996235 -0.022599045 0.015103689 -0.016789164 -0.022519417 0.018424695
-0.012487382 -0.019042956 -0.025051745 0.014170328 -0.011846107 -0.015380375 0.016275613 -0.029166894
-0.026066998 -0.014062144 0.0016130059 -0.05777861 0.050291467 -0.008918797 -0.0107389325 0.0041521355
-0.017962908 -0.010200767 -0.018966215 0.020164723 -0.027141823 0.0038516412 0.020435633 -0.02658906
00000000: 3018 b43b 2b82 0abd eee0 473c a221 b9bc
00000010: 7775 773c 6e89 89bc a47a b8bc 63ef 963c
00000020: e097 4cbc f9ff 9bbc 5139 cdbc aa2a 683c
00000030: 2d16 42bc f8fd 7bbc 6f54 853c 69ef eebc
00000040: 758a d5bc e864 66bc 7f6b d33a 44a9 6cbd
00000050: 6dfe 4d3d 2520 12bc 59f2 2fbc a30e 883b
00000060: f326 93bc 1e21 27bc 095f 9bbc 7d30 a53c
00000070: 8758 debc d16b 7c3b a168 a73c 4dd1 d9bc

conv3.weight f4 [1, 32, 5, 5]
-0.05078162 -0.019067558 -0.024873588 -0.03339667 0.0022641774 0.004359178 -0.029392473 -0.053326055
-0.012980331 0.015344361 0.019124486 -0.0451209 -0.041361447 -0.002087679 0.00900553 -0.0054790527
-0.024372404 -0.029247731 -0.015424371 0.017091786 0.072131425 0.056891464 0.04945706 0.040608324
0.12233556 -0.040884215 -0.027639534 -0.044951744 -0.009893853 -0.0035750477 -0.04120967 -0.05380698
-0.024370773 -0.0144014405 -0.03238149 -0.033036638 -0.01459351 -0.04107154 -0.026599808 -0.013969875
-0.040529035 0.011234397 -0.03908651 -0.012764075 -0.022665521 -0.0071018944 -0.057897046 -0.01791172
-0.028108306 -0.0019668129 0.036488317 -0.014880689 0.0064675277 0.033109028 0.034385078 -0.008603622
0.017269302 -0.020205252 -0.013950726 -0.026515076 0.013003628 -0.028897876 -0.016221931 -0.014503212
0.0047121886 0.0053372723 -0.0067800456 -0.027245887 -0.004937272 0.017335793 0.012622622 -0.017169451
-0.0055328114 -0.0320433 0.01900252 -0.031403225 -0.022061981 -0.05409486 -0.049621835 -0.025622394
-0.010251684 0.023010666 0.020870125 -0.012382821 0.028701281 -0.004338691 -0.018432325 0.016151804
-0.0049786926 0.032714207 0.011325235 0.012106598 -0.021617558 -0.007618029 0.039077222 0.04937788
0.026270246 0.006864216 0.03828008 0.08310456 -0.07716621 -0.039027374 -0.02355788 -0.012652634
-0.06849628 -0.0034166595 -0.0047084154 0.03832393 -0.019811366 -0.018436786 -0.02762119 -0.0040423754
0.017136429 -0.0019148412 0.0121502215 -0.023711573 0.019453125 -0.008939053 -0.013036635 0.0076778536
-0.014260302 0.034947515 0.029792424 0.004671583 0.011537466 -0.11188247 -0.08167373 -0.044537783
-0.057533205 -0.06542991 -0.034734294 -0.032399513 -0.033294555 -0.03259681 -0.032552876 -0.08284456
-0.020917067 -0.05882792 0.002234235 -0.069313996 -0.05613721 -0.0075402413 -0.034422554 -0.034568284
-0.015552827 -0.07969989 -0.05352684 -0.046723895 -0.013728612 -0.03840036 0.041626126 -0.0073904404
-0.0061961412 0.03699525 0.029819017 -0.00966778 -0.0028123613 -0.011910562 0.0016392188 0.03293776
-0.02870472 0.0070113735 -0.0031076304 -0.0075641805 0.010148279 0.02750109 -0.018079123 -0.00840436
0.0041732625 0.010523579 0.015956623 0.029225469 0.0146111045 0.024494663 0.0071286196 0.07543051
0.06989251 0.021933286 0.007964077 0.041071538 0.08100943 0.020401252 0.022902291 0.017096488
0.03125505 0.06291907 -0.009466342 0.0367339 -0.010616691 -0.003062847 0.03205436 0.031523176
0.032933652 0.003511453 0.012503612 0.025016671 0.022563413 0.019198693 0.005102632 0.04281046
0.045230538 0.0420878 0.048148345 0.03595782 0.0739844 -0.0009052986 0.03930738 0.0026424364
0.02446646 0.057155404 0.018505141 0.024367947 0.0425756 0.005746536 0.020150341 0.021951906
0.0113531845 0.026871622 0.020383919 0.008188444 0.029209077 0.013162348 0.030398997 -0.014607513
0.024496766 0.04485599 0.03017949 0.02649183 0.051464703 0.04022249 0.04462886 0.026784852
0.011000166 0.024036476 0.039456055 0.0017546854 0.0013937062 0.018722426 0.03653719 0.026514953
0.036745716 0.04432002 0.027073815 0.007097841 0.04560961 0.05378369 0.056870513 0.0422739
0.040430315 0.07477719 0.027987855 -0.0049532624 0.01528395 -0.0036986812 0.04196214 0.0018451457
00000000: 6300 50bd 9133 9cbc b2c3 cbbc f2ca 08bd
00000010: 9862 143b 6fd7 8e3b 7cc8 f0bc 6c6c 5abd
00000020: 74ab 54bc ea66 7b3c f4aa 9c3c b1d0 38bd
00000030: 9f6a 29bd 71d1 08bb ee8b 133c a089 b3bb
00000040: a3a8 c7bc f098 efbc 80b6 7cbc 1304 8c3c
00000050: a4b9 933d 0607 693d 7c93 4a3d ea54 263d
00000060: 118b fa3d 3576 27bd 4e6c e2bc 521f 38bd
00000070: d419 22bc 594b 6abb 79cb 28bd b564 5cbd
00000080: 37a5 c7bc 05f4 6bbc 74a2 04bd 6d51 07bd
00000090: 9e19 6fbc a23a 28bd d7e7 d9bc e7e1 64bc
000000a0: c601 26bd 7a10 383c 2d19 20bd 6920 51bc
000000b0: 0bad b9bc 02b7 e8bb 7425 6dbd 99bb 92bc
000000c0: 6443 e6bc a5e5 00bb c674 153d 22ce 73bc
000000d0: 8eed d33b 559d 073d 5ed7 0c3d 35f6 0cbc
000000e0: 5a78 8d3c 7c85 a5bc 9691 64bc 2536 d9bc
000000f0: 2b0d 553c 3dbb ecbc dbe3 84bc e19e 6dbc
00000100: b468 9a3b 49e4 ae3b 252b debb c432 dfbc
00000110: d7c8 a1bb cb03 8e3c 1dcf 4e3c f3a6 8cbc
00000120: 964c b5bb d63f 03bd 2cab 9b3c aba0 00bd
00000130: 54bb b4bc 9292 5dbd 4440 4bbd 0ee6 d1bc
00000140: aef6 27bc dd80 bc3c d3f7 aa3c 51e1 4abc
00000150: f31e eb3c 942b 8ebb 63ff 96bc ca50 843c
00000160: 4d24 a3bb 55ff 053d 7a8d 393c c15a 463c
00000170: 4e17 b1bc a9a0 f9bb 700f 203d 7640 4a3d
00000180: b334 d73c 38ed e03b 93cb 1c3d b932 aa3d
00000190: 5109 9ebd 2bdb 1fbd 75fc c0bc fe4c 4fbc
000001a0: c747 8cbd 09ea 5fbb 0d49 9abb 8ef9 1c3d
000001b0: 724b a2bc be08 97bc d545 e2bc e775 84bb
000001c0: b261 8c3c 69fb faba b911 473c c63e c2bc
000001d0: 295c 9f3c 1b75 12bc 9c97 55bc 8196 fb3b
000001e0: 0ba4 69bc 2025 0f3d 3e0f f43c 1414 993b
000001f0: a407 3d3c a322 e5bd 8e44 a7bd 406d 36bd
00000200: f0a7 6bbd 1e00 86bd 8c45 0ebd 5ab5 04bd
00000210: df5f 08bd 3c84 05bd 2a56 05bd 69aa a9bd
00000220: 455a abbc 8cf5 70bd 3e6c 123b 7ff4 8dbd
00000230: 22f0 65bd 2114 f7bb aafe 0cbd 7997 0dbd
00000240: 49d1 7ebc b239 a3bd f63e 5bbd 8e61 3fbd
00000250: f9ed 60bc b249 1dbd 2880 2a3d 822b f2bb
00000260: 0009 cbbb 5588 173d 0347 f43c 9c65 1ebc
00000270: 984f 38bb 8524 43bc 0edb d63a bfe9 063d
00000280: 2926 ebbc aabf e53b 63a9 4bbb f2dc f7bb
00000290: f844 263c f749 e13c ab1a 94bc 71b2 09bc
000002a0: ddbf 883b 176b 2c3c 77b7 823c 406a ef3c
000002b0: 6a63 6f3c 08a9 c83c 3297 e93b 507b 9a3d
000002c0: ce23 8f3d 6fad b33c c37b 023c a13a 283d
000002d0: 46e8 a53d 8720 a73c 969d bb3c ef0d 8c3c
000002e0: 4c05 003d b7db 803d b718 1bbc 4976 163d
000002f0: a1f1 2dbc 0cba 48bb 6f4b 033d 721e 013d
00000300: 70e5 063d 6820 663b f3db 4c3c c3ef cc3c
00000310: e8d6 b83c 9446 9d3c fb33 a73b 055a 2f3d
00000320: a843 393d 4264 2c3d 3337 453d 8248 133d
00000330: 2285 973d 9051 6dba c600 213d ba2c 2d3b
00000340: e36d c83c c91b 6a3d 1898 973c 4a9f c73c
00000350: c163 2e3d 704d bc3b 5412 a53c 7cd4 b33c
00000360: b502 3a3c e021 dc3c 2dfc a63c d328 063c
00000370: e047 ef3c e4a6 573c 5107 f93c 5a54 6fbc
00000380: 71ad c83c eaba 373d fa3a f73c 6505 d93c
00000390: a7cc 523d 56c0 243d c0cc 363d e86b db3c
000003a0: 0a3a 343c 25e8 c43c ac9c 213d 79fd e53a
000003b0: 05ad b63a c65f 993c 05a8 153d e335 d93c
000003c0: ad82 163d e988 353d e8c9 dd3c 0195 e83b
000003d0: 24d1 3a3d 494c 5c3d 0ef1 683d 6627 2d3d
000003e0: 429a 253d c924 993d c946 e53c fa4e a2bb
000003f0: 8869 7a3c 9365 72bb 7ee0 2b3d d1d8 f13a

exp_avg f4 [64, 1, 9, 9]
-0.00091796106 -0.0008430372 -0.000737441 -0.0006256844 -0.00058684597 -0.0005828991 -0.0005985902 -0.0006415047
-0.00068961544 -0.0009443707 -0.0008830124 -0.0007956196 -0.0006558316 -0.0006135386 -0.0005918385 -0.0005797868
-0.0005994433 -0.0006333534 -0.0009917044 -0.0009639397 -0.0008933574 -0.000812048 -0.0007269684 -0.0006547256
-0.0005922931 -0.00061871606 -0.00065219414 -0.0010680261 -0.0011072978 -0.0010366724 -0.00092404487 -0.00078485534
-0.00064012426 -0.0005945602 -0.0006181231 -0.0007105136 -0.0011771964 -0.0012276536 -0.001185342 -0.0010544856
-0.00083318463 -0.0006149401 -0.00051695 -0.00059879274 -0.0006849277 -0.0012532312 -0.0013118789 -0.0013280446
-0.0011461558 -0.000918477 -0.00063448056 -0.00051414006 -0.00057874736 -0.00069061783 -0.0012846414 -0.0013983374
-0.0013757468 -0.0012306644 -0.0010122459 -0.00072490127 -0.0006050544 -0.00064615766 -0.0007335898 -0.0012601119
-0.0013610043 -0.0013839805 -0.0012815526 -0.0010843943 -0.0008983906 -0.0007371334 -0.00077566225 -0.00078552193
-0.0012393042 -0.0012951655 -0.0013560852 -0.001329768 -0.0012446446 -0.0010697916 -0.0009346189 -0.0009330118
-0.0008786202 -0.00015812293 -5.521892e-05 5.9112725e-05 0.00011635222 0.00015889674 8.31114e-05 -2.1575004e-05
-0.00010439267 -0.00021513244 -0.00015614899 -3.2329976e-05 0.00011047412 0.0002572783 0.00031787163 0.00017393123
4.2979973e-05 -0.0001070953 -0.00021416826 -0.00016958936 -1.8396379e-06 0.00016615499 0.0003066077 0.00035636104
0.0002505571 4.9106595e-05 -6.7687804e-05 -0.00020813962 -0.00023920259 -7.819248e-05 0.00010649295 0.00024701707
0.0003217982 0.00022462114 8.774019e-06 -8.431423e-05 -0.00019991325 -0.00024895076 -0.00016233373 -1.7858983e-05
0.00011185715 0.00013841398 0.000112023794 -1.4301121e-05 -0.00016596771 -0.000218846 -0.0002852347 -0.00021017774
-0.00019745632 -6.066841e-05 1.7676186e-06 -3.5266083e-05 -0.00010764405 -0.00019212454 -0.00030468454 -0.00029754464
-0.00036828517 -0.00028326907 -0.00019599036 -0.00018518286 -0.00022354766 -0.00029244987 -0.0003369005 -0.0003891638
-0.0003054375 -0.00029846563 -0.00032281573 -0.00030689163 -0.00035456655 -0.00035018075 -0.00038386756 -0.0004343548
-0.00048349632 -0.0003230579 -0.0002967504 -0.00038873224 -0.00037367584 -0.00037987606 -0.00041056273 -0.00047109838
-0.00052181876 -0.0006067836 -0.004156239 -0.0040407297 -0.0039043268 -0.003996866 -0.004044046 -0.004169179
-0.0042432724 -0.0043900283 -0.0045730323 -0.0041778283 -0.0039971545 -0.003930057 -0.0040372447 -0.004067069
-0.004209472 -0.004473448 -0.004690402 -0.0047270674 -0.00412918 -0.0038934252 -0.0039757057 -0.003991804
-0.0040773773 -0.0043288954 -0.0045095384 -0.004814338 -0.0048345947 -0.0041208453 -0.0040134755 -0.0039137304
-0.003943512 -0.004136248 -0.0043726424 -0.004830673 -0.0050809467 -0.005054396 -0.004129276 -0.0038292992
-0.0038040252 -0.0038750176 -0.004167147 -0.0046645277 -0.0050419043 -0.005414206 -0.0053666504 -0.0038667172
-0.003857848 -0.0038040052 -0.003769643 -0.0042141574 -0.0045996862 -0.0053027077 -0.0054375906 -0.0053417194
-0.0038501178 -0.0037675775 -0.0036861028 -0.003915303 -0.004276994 -0.0048499596 -0.0051567326 -0.005458905
-0.0053361333 -0.0037572193 -0.0037144017 -0.0036462492 -0.003824747 -0.004332824 -0.0048259473 -0.005175715
-0.0053203767 -0.0054243538 -0.0038162703 -0.0037155505 -0.003734729 -0.0039100386 -0.0042598345 -0.0046037864
-0.0050662747 -0.005175812 -0.0049838535 -0.0009051889 -0.000795298 -0.0006727937 -0.0004618181 -0.00029597952
-0.00025832173 -0.00042101822 -0.0006311016 -0.00062307564 -0.0008455217 -0.0007087724 -0.00037616395 -0.00012653093
00000000: 53a3 70ba 45ff 5cba d450 41ba f804 24ba
00000010: 91d6 19ba b2cd 18ba b5ea 1cba a72a 28ba
00000020: 4fc7 34ba a58f 77ba f679 67ba 2191 50ba
00000030: 1dec 2bba e1d5 20ba 9c25 1bba d5fc 17ba
00000040: f523 1dba a107 26ba 14fc 81ba e6b0 7cba
00000050: 3330 6aba 9edf 54ba 0692 3eba e4a1 2bba
00000060: 1e44 1bba 5531 22ba 02f8 2aba 02fd 8bba
00000070: c022 91ba f4e0 87ba 9a3b 72ba c0be 4dba
00000080: 03ce 27ba 42dc 1bba 8a09 22ba c341 3aba
00000090: 284c 9aba 38e9 a0ba 7a5d 9bba aa36 8aba
000000a0: 136a 5aba ee33 21ba ed83 07ba 4df8 1cba
000000b0: b88c 33ba 7643 a4ba 5af3 abba c811 aeba
000000c0: 9b3a 96ba f3c5 70ba 4553 26ba 5bc7 06ba
000000d0: 14b7 17ba 940a 35ba 6a61 a8ba 6b48 b7ba
000000e0: 6752 b4ba 3f4e a1ba 56ad 84ba 4d07 3eba
000000f0: 839c 1eba e862 29ba 614e 40ba 572a a5ba
00000100: ba63 b2ba ae66 b5ba c5f9 a7ba 3c22 8eba
00000110: f981 6bba 2f3c 41ba d055 4bba 7ceb 4dba
00000120: 2670 a2ba 8bc2 a9ba abbe b1ba 9c4b aeba
00000130: 5823 a3ba 4038 8cba 3601 75ba 5d95 74ba
00000140: 3453 66ba cdcd 25b9 dd9a 67b8 ceef 7738
00000150: 1f02 f438 859d 2639 184c ae38 f8fb b4b7
00000160: 63ed dab8 2d95 61b9 edbb 23b9 0c9a 07b8
00000170: 57ae e738 4fe3 8639 02a8 a639 4f61 3639
00000180: 6545 3438 5a98 e0b8 5b92 60b9 ccd3 31b9
00000190: 7ae9 f6b5 e439 2e39 30c0 a039 f8d5 ba39
000001a0: 345d 8339 cef7 4d38 9df3 8db8 0e40 5ab9
000001b0: 75d2 7ab9 45fb a3b8 f854 df38 1282 8139
000001c0: 06b7 a839 4788 6b39 2034 1337 dcd1 b0b8
000001d0: ce9f 51b9 9b85 82b9 2138 2ab9 e0cf 95b7
000001e0: da94 ea38 3823 1139 51ee ea38 d9ee 6fb7
000001f0: 9e07 2eb9 077a 65b9 8e8b 95b9 2863 5cb9
00000200: 470c 4fb9 3676 7eb8 ea3e ed35 abea 13b8
00000210: f6be e1b8 0a75 49b9 11be 9fb9 c4ff 9bb9
00000220: 6616 c1b9 bb83 94b9 c382 4db9 a52d 42b9
00000230: 1e68 6ab9 f553 99b9 05a2 b0b9 ae08 ccb9
00000240: 2123 a0b9 617b 9cb9 983f a9b9 4ce6 a0b9
00000250: 1ee5 b9b9 7798 b7b9 d541 c9b9 1dba e3b9
00000260: c77d fdb9 1960 a9b9 2a95 9bb9 c2ce cbb9
00000270: ece9 c3b9 1a2a c7b9 cc40 d7b9 c1fd f6b9
00000280: aaca 08ba 8f10 1fba 0f31 88bb 1968 84bb
00000290: bcdf 7fbb 24f8 82bb eb83 84bb 9c9d 88bb
000002a0: 260b 8bbb 3ada 8fbb 60d9 95bb 2ae6 88bb
000002b0: 90fa 82bb b5c7 80bb dd4a 84bb 0c45 85bb
000002c0: 9cef 89bb 0096 92bb f2b1 99bb 84e5 9abb
000002d0: 134e 87bb d628 7fbb a346 82bb aecd 82bb
000002e0: 859b 85bb 68d9 8dbb c0c4 93bb 98c1 9dbb
000002f0: 856b 9ebb 2808 87bb 7983 83bb c03e 80bb
00000300: 9438 81bb 5d89 87bb 6248 8fbb 9f4a 9ebb
00000310: 127e a6bb 599f a5bb e14e 87bb fbf4 7abb
00000320: f44c 79bb 02f4 7dbb 908c 88bb e5d8 98bb
00000330: 8f36 a5bb a769 b1bb bada afbb c068 7dbb
00000340: f3d3 7cbb 9e4c 79bb 1d0c 77bb ea16 8abb
00000350: f7b8 96bb 56c2 adbb d12d b2bb 9709 afbb
00000360: 4252 7cbb 76e9 76bb 8b92 71bb f14b 80bb
00000370: 0726 8cbb 69ec 9ebb cff9 a8bb 9de0 b2bb
00000380: bbda aebb ae3b 76bb 526d 73bb e9f5 6ebb
00000390: 9ba8 7abb 5dfa 8dbb fb22 9ebb 0b99 a9bb
000003a0: 8e56 aebb c7be b1bb 641a 7abb 9880 73bb
000003b0: 5bc2 74bb c81f 80bb 1596 8bbb 5cdb 96bb
000003c0: fe02 a6bb dc99 a9bb 984f a3bb 334a 6dba
000003d0: 8c7b 50ba 6c5e 30ba 2d20 f2b9 b32d 9bb9
000003e0: 5b6f 87b9 1cbc dcb9 8370 25ba e655 23ba
000003f0: 00a6 5dba e9cc 39ba df37 c5b9 63ad 04b9

exp_avg_sq f4 [64, 1, 9, 9]
1.5083461e-05 1.4435938e-05 1.37661045e-05 1.2941678e-05 1.3028683e-05 1.3187583e-05 1.33849935e-05 1.4233656e-05
1.4891577e-05 1.5802467e-05 1.5249907e-05 1.468019e-05 1.3897107e-05 1.3558399e-05 1.367942e-05 1.3702757e-05
1.37471e-05 1.4455556e-05 1.702419e-05 1.6750995e-05 1.6410926e-05 1.5879303e-05 1.5216862e-05 1.4615935e-05
1.4109548e-05 1.3855213e-05 1.4147479e-05 1.8675371e-05 1.9521509e-05 1.9060999e-05 1.7925428e-05 1.7093807e-05
1.5716409e-05 1.4854946e-05 1.389618e-05 1.4025047e-05 2.0979429e-05 2.17063e-05 2.2249762e-05 2.102528e-05
1.8887235e-05 1.6919286e-05 1.5090919e-05 1.4035324e-05 1.3933335e-05 2.2883682e-05 2.3933513e-05 2.4567253e-05
2.2684535e-05 2.0927722e-05 1.8205372e-05 1.6035321e-05 1.4470002e-05 1.4061262e-05 2.3686678e-05 2.5312444e-05
2.5188738e-05 2.3610384e-05 2.1737533e-05 1.8629053e-05 1.6618718e-05 1.5210152e-05 1.4682772e-05 2.3067685e-05
2.41494e-05 2.4148569e-05 2.3095836e-05 2.0835789e-05 1.9107605e-05 1.69608e-05 1.6098591e-05 1.5420583e-05
2.1937572e-05 2.195794e-05 2.2098231e-05 2.1358765e-05 2.061807e-05 1.8820825e-05 1.7604343e-05 1.699833e-05
1.6232561e-05 1.3137109e-05 1.4335727e-05 1.5451862e-05 1.6831938e-05 1.7779672e-05 1.6021306e-05 1.4340456e-05
1.5099655e-05 1.39966005e-05 1.4060134e-05 1.5112104e-05 1.787301e-05 1.769212e-05 1.9885527e-05 1.859846e-05
1.6925333e-05 1.5355892e-05 1.509225e-05 1.45371805e-05 1.6115935e-05 1.8000854e-05 2.1573916e-05 2.1693364e-05
1.8250748e-05 1.6910646e-05 1.45074155e-05 1.4154003e-05 1.4720412e-05 1.5889465e-05 1.698176e-05 2.1762098e-05
2.1341117e-05 1.8119996e-05 1.6009933e-05 1.5009874e-05 1.3660469e-05 1.3966333e-05 1.5174371e-05 1.6471888e-05
2.0188902e-05 2.1832555e-05 1.879674e-05 1.6525142e-05 1.6368465e-05 1.3516472e-05 1.4081483e-05 1.4342869e-05
1.685663e-05 1.6678912e-05 1.7092801e-05 1.8162405e-05 1.5731222e-05 1.4367074e-05 1.4064917e-05 1.3759793e-05
1.5407426e-05 1.5433165e-05 1.61353e-05 1.5941154e-05 1.6715363e-05 1.6065633e-05 1.517146e-05 1.3728443e-05
1.3067918e-05 1.4412281e-05 1.4059629e-05 1.4068667e-05 1.5753983e-05 1.5146648e-05 1.4597548e-05 1.45887725e-05
1.33423e-05 1.364212e-05 1.3748698e-05 1.4543801e-05 1.4306553e-05 1.3612425e-05 1.3087186e-05 1.4010465e-05
1.3704634e-05 1.3594198e-05 0.00016670047 0.00017050144 0.00017211246 0.00016845163 0.00016194728 0.000157388
0.00015453712 0.00015382368 0.00015505326 0.00017291227 0.00017853278 0.00018013446 0.00017338914 0.00016448618
0.00015821448 0.0001584045 0.0001602525 0.00016048139 0.00017763466 0.00018460871 0.00018311918 0.00017398359
0.00016368042 0.00015816765 0.00016130935 0.00016527066 0.00016625515 0.00017764705 0.00018241482 0.00017920493
0.00016800335 0.00015891579 0.00015898015 0.00016871246 0.00017559274 0.00017477066 0.00017275293 0.00017442154
0.00016784044 0.00015754202 0.00015390593 0.00016236943 0.00017685862 0.00018694544 0.00018453533 0.00016313053
0.00016211419 0.00015472938 0.00014801684 0.00015260125 0.00016411446 0.00018484623 0.00018924118 0.0001866477
0.00015290194 0.00015031104 0.00014517292 0.00014560054 0.00015403538 0.00017138537 0.00018330466 0.00019085397
0.00018615834 0.00014578029 0.00014419405 0.00014199407 0.00014361195 0.00015607073 0.00017084174 0.00018140872
0.00018459382 0.00018412324 0.00014338623 0.00014269786 0.00014210696 0.00014573269 0.00015380257 0.00016277282
0.0001748778 0.00017691555 0.00017293205 0.00017746877 0.00016674213 0.00018100109 0.0001853626 0.00018173682
0.00017211102 0.00016868606 0.00016932287 0.00016173629 0.00017473326 0.00017389128 0.00017932337 0.00019018658
00000000: f90e 7d37 e231 7237 f8f4 6637 1520 5937
00000010: c495 5a37 3d40 5d37 1c90 6037 16cd 6e37
00000020: d6d6 7937 8a8f 8437 dad9 7f37 f04a 7637
00000030: 9f27 6937 e178 6337 a980 6537 e5e4 6537
00000040: 58a3 6637 2486 7237 2bcf 8e37 7d84 8c37
00000050: 32aa 8937 8b34 8537 ed4b 7f37 f636 7537
00000060: 0cb8 6c37 b073 6837 f65a 6d37 0ea9 9c37
00000070: 1fc2 a337 2fe5 9f37 905e 9637 ac64 8f37
00000080: bbd6 8337 8239 7937 a323 6937 1e4d 6b37
00000090: fbfc af37 ed15 b637 00a5 ba37 725f b037
000000a0: 0770 9e37 e4ed 8d37 012f 7d37 4279 6b37
000000b0: 38c3 6937 55f6 bf37 d4c4 c837 c615 ce37
000000c0: ab4a be37 f18d af37 bdb7 9837 9783 8637
000000d0: 2fc4 7237 a9e8 6b37 c1b2 c637 0f56 d437
000000e0: 674c d337 ea0e c637 ff58 b637 9645 9c37
000000f0: 6d68 8b37 1b2f 7f37 0756 7637 7a81 c137
00000100: 7194 ca37 a892 ca37 eebd c137 84c8 ae37
00000110: 4549 a037 0a47 8e37 760b 8737 735b 8137
00000120: 9406 b837 5132 b837 975f b937 992b b337
00000130: f8f4 ac37 6ae1 9d37 0aad 9337 a397 8e37
00000140: 292b 8837 7467 5c37 7b83 7037 9f9e 8137
00000150: 5032 8d37 8e25 9537 7e65 8637 ca97 7037
00000160: 8654 7d37 f1d2 6a37 d1e3 6b37 fe89 7d37
00000170: ffed 9537 8a69 9437 d8cf a637 e403 9c37
00000180: e0fa 8d37 87d0 8037 b834 7d37 b7e4 7337
00000190: b530 8737 8a00 9737 a2f9 b437 25fa b537
000001a0: 2f19 9937 56db 8d37 e064 7337 fb76 6d37
000001b0: b0f7 7637 5e4a 8537 0d74 8e37 c08d b637
000001c0: b305 b337 6500 9837 124d 8637 ebd2 7b37
000001d0: 452f 6537 f250 6a37 6d95 7e37 1c2d 8a37
000001e0: 565b a937 0e25 b737 b1ad 9d37 799f 8a37
000001f0: 034f 8937 cec4 6237 823f 6c37 27a2 7037
00000200: 5667 8d37 b1e9 8b37 8362 8f37 785b 9837
00000210: 8bf6 8337 1d0a 7137 5cf8 6b37 dcd9 6637
00000220: 323f 8137 7876 8137 4b5a 8737 5eb9 8537
00000230: f837 8c37 afc4 8637 ed88 7e37 3753 6637
00000240: 483e 5b37 47cc 7137 a6e1 6b37 7708 6c37
00000250: 6c27 8437 5c1e 7e37 fee7 7437 4dc2 7437
00000260: bed8 5f37 76e0 6437 35aa 6637 2601 7437
00000270: 2d06 7037 ec60 6437 0991 5b37 7d0e 6b37
00000280: f4ec 6537 a312 6437 51cc 2e39 a2c8 3239
00000290: 1679 3439 64a2 3039 64d0 2939 8508 2539
000002a0: 3e0b 2239 bb4b 2139 cb95 2239 c94f 3539
000002b0: 8734 3b39 7ae2 3c39 cbcf 3539 ec79 2c39
000002c0: 60e6 2539 6219 2639 7409 2839 e546 2839
000002d0: 7143 3a39 8693 4139 ae03 4039 5d6f 3639
000002e0: a1a1 2b39 ced9 2539 2625 2939 814c 2d39
000002f0: c754 2e39 c446 3a39 9b46 3f39 f5e8 3b39
00000300: 0e2a 3039 a2a2 2639 e9b3 2639 68e8 3039
00000310: 511f 3839 a442 3739 0325 3539 ede4 3639
00000320: 53fe 2f39 dd31 2539 cf61 2139 b641 2a39
00000330: 2073 3939 c906 4439 d37f 4139 050e 2b39
00000340: 32fd 2939 da3e 2239 f834 1b39 9603 2039
00000350: 2416 2c39 48d3 4139 0b6f 4639 dcb6 4339
00000360: 4d54 2039 d09c 1d39 8f39 1839 59ac 1839
00000370: 8f84 2139 e9b5 3339 7835 4039 f91f 4839
00000380: 8033 4339 99dc 1839 cc32 1739 3ee4 1439
00000390: 8a96 1639 eba6 2339 fb23 3339 8838 3e39
000003a0: 878f 4139 3511 4139 f359 1639 2aa1 1539
000003b0: 8c02 1539 d2cf 1839 1046 2139 ffad 2a39
000003c0: 675f 3739 6882 3939 1855 3539 e916 3a39
000003d0: 80d7 2e39 1ccb 3d39 e55d 4239 9b90 3e39
000003e0: b378 3439 52e1 3039 438c 3139 c197 2939
000003f0: 9a38 3739 9656 3639 c008 3c39 d26c 4739

exp_avg f4 [64]
-0.0028148752 -0.00017252407 -0.015018593 -0.0020824426 0.022486134 -0.020873 -0.022219643 0.016261116
-0.0030814153 -0.00037154366 -0.017313188 0.013089759 -0.0046360297 0.016189076 0.0012878942 0.03579716
-0.031781822 0.050415643 0.008201481 0.043688945 -6e-45 0.013100263 0.002774714 0.0058699604
0.013711323 0.0014529281 -0.00642706 -0.009514117 0.0130515 0.03799147 0.011165929 0.011729241
0.0061415816 -0.00088554074 0.00058484415 0.01368776 0.034642015 -0.0048116846 0.009850933 0.0044168537
0.0076913983 -0.021654753 0.0015100087 0.0026395922 -0.0015235642 0.025361232 0.028064335 0.0012179115
-0.013641758 0.0012975552 -0.06417788 0.043693084 -0.0034759198 3.412906e-05 0.0007623806 0.010115495
-0.00466409 0.005884556 0.0076477104 0.0036975408 0.013702543 0.0016811964 -0.011838659 0.019199574
00000000: c579 38bb 94e7 34b9 8b10 76bc 9779 08bb
00000010: d734 b83c dbfd aabc f805 b6bc 0836 853c
00000020: 92f1 49bb bfcb c2b9 63d4 8dbc 6e76 563c
00000030: d6e9 97bb f49e 843c 8fce a83a 0ba0 123d
00000040: a82d 02bd a280 4e3d 815f 063c 2ef3 323d
00000050: 0400 0080 7ca2 563c fad7 353b cc58 c03b
00000060: 75a5 603c 2d70 be3a 169a d2bb 19e1 1bbc
00000070: f5d5 553c f29c 1b3d 4df1 363c 012c 403c
00000080: 523f c93b a223 68ba 3a50 193a a042 603c
00000090: c9e4 0d3d 56ab 9dbb cf65 213c 41bb 903b
000000a0: 2008 fc3b 4f65 b1bc 7ceb c53a 02fd 2c3b
000000b0: 55b2 c7ba 5cc2 cf3c 2de7 e53c 54a2 9f3a
000000c0: ae81 5fbc ba12 aa3a b16f 83bd 85f7 323d
000000d0: 42cc 63bb cd25 0f38 7fda 473a 76bb 253c
000000e0: 39d5 98bb 3cd3 c03b a599 fa3b 7152 723b
000000f0: a280 603c 975b dc3a eff6 41bc 6d48 9d3c

exp_avg_sq f4 [64]
0.00015274285 0.00021955902 0.0014040179 0.0022031942 0.00848742 0.001983158 0.0025483565 0.0037903045
0.0013351205 7.455904e-06 0.00069159846 0.0014911618 0.00012688788 0.0026280116 0.00028414887 0.015920574
0.0029719826 0.027569152 0.0007315624 0.018791687 4.695693e-22 0.002532524 0.001362939 0.00058631226
0.0029172327 0.00026962342 0.0008726851 0.001503475 0.00312163 0.016445603 0.0010902197 0.0012359187
0.0041696094 0.000518425 0.00035379373 0.002740409 0.01605351 0.0002182854 0.00091141724 0.00035335802
0.004260423 0.0026250875 0.00010039174 0.0017456565 0.00012765868 0.0049197813 0.011478686 0.00049308036
0.001096732 4.897112e-05 0.01532277 0.021631597 0.00038096972 0.00060999335 0.0003737858 0.0009957389
0.00041577875 0.00043488655 0.0011853366 5.50437e-05 0.0025514883 2.0394034e-05 0.0010400814 0.004096594
00000000: 9929 2039 6d39 6639 0607 b83a 7763 103b
00000010: d20e 0b3c dff7 013b 5402 273b c266 783b
00000020: 36ff ae3a ba2d fa36 634c 353a 1673 c33a
00000030: 350d 0539 b83a 2c3b d1f9 9439 dd6b 823c
00000040: 98c5 423b b4d8 e13c 52c6 3f3a 06f1 993c
00000050: 2aeb 0d1c b4f8 253b a5a4 b23a c0b2 193a
00000060: 0b2f 3f3b 3e5c 8d39 e8c4 643a 4010 c53a
00000070: 4394 4c3b eeb8 863c b4e5 8e3a 8dfe a13a
00000080: 38a1 883b eae6 073a 647d b939 6f98 333b
00000090: a782 833c 8ae3 6439 2dec 6e3a e942 b939
000000a0: 059b 8b3b a909 2c3b 6889 d238 83ce e43a
000000b0: 1edc 0539 1e36 a13b 1911 3c3c 1042 013a
000000c0: 38c0 8f3a 5766 4d38 5b0c 7b3c bf34 b13c
000000d0: e4bc c739 f6e7 1f3a aef8 c339 7483 823a
000000e0: e1fc d939 7c01 e439 4c5d 9b3a b9de 6638
000000f0: df36 273b db13 ab37 5753 883a b93c 863b

exp_avg f4 [32, 64, 5, 5]
0.00012561229 9.332132e-05 6.275967e-05 5.0999788e-05 3.3362063e-05 9.4649964e-05 6.60726e-05 4.337725e-05
4.3954737e-05 4.7325935e-05 5.955297e-05 4.226192e-05 4.7152458e-05 6.990761e-05 8.6817476e-05 5.989953e-05
5.4803364e-05 7.6375145e-05 0.000106413216 0.00013588395 7.6323544e-05 9.069601e-05 0.000118086435 0.00015313178
0.00017620239 -1.228071e-05 -1.2013194e-05 -1.0448796e-05 -6.7299125e-06 -3.0370497e-06 -1.7934623e-05 -1.4536517e-05
-7.0443016e-06 -2.560691e-06 3.19322e-06 -6.5492977e-06 -6.3877264e-06 -5.1051634e-06 9.464487e-08 3.1686818e-06
-8.16109e-07 -2.0253137e-06 -2.9394305e-06 1.9711522e-06 5.7689012e-06 5.6588183e-06 1.093288e-06 1.4632166e-06
5.8279447e-06 7.2173134e-06 0.0002674124 0.000296672 0.00030275178 0.00029196404 0.0002658975 0.0003565287
0.00037241535 0.00035416655 0.0003219388 0.00029787922 0.00038788578 0.00039962344 0.0003810989 0.00033961542
0.00029500702 0.00039930758 0.00038913227 0.00033622643 0.00028610113 0.00024120625 0.00038698356 0.00035636863
0.00029556899 0.00022659065 0.00015564328 -2.3620407e-05 -1.5376008e-05 -3.4836685e-06 6.44195e-06 5.0816357e-06
-9.456215e-06 5.008292e-06 1.9364345e-05 2.3469676e-05 2.2694747e-05 5.967838e-06 2.5050724e-05 3.237352e-05
3.877554e-05 3.508741e-05 2.4830162e-05 3.7611135e-05 4.2445972e-05 3.6759517e-05 2.5460638e-05 3.5621186e-05
4.010595e-05 3.546088e-05 1.848747e-05 2.0012055e-06 2.0667147e-05 1.2337584e-05 2.5465436e-06 5.057363e-07
-2.0614166e-06 2.6374762e-05 1.7917804e-05 8.723881e-06 4.1781714e-06 5.430647e-06 2.9470033e-05 1.9789362e-05
1.143638e-05 1.254321e-05 1.6312397e-05 2.7262173e-05 2.0713793e-05 1.6968235e-05 1.8728731e-05 2.193836e-05
1.9047353e-05 1.0237209e-05 1.1312743e-05 1.2946241e-05 1.8337412e-05 0.00015691979 0.00018484965 0.00020928295
0.00023810632 0.00024585397 0.00024556706 0.00028255256 0.00031089995 0.00033859827 0.00033938765 0.0003007008
0.00033022033 0.00036174417 0.00038518742 0.00038811998 0.00031036042 0.00034266338 0.00036102836 0.0003709244
0.0003612177 0.000281202 0.00029868356 0.00030861993 0.00031301845 0.00029893205 2.3289931e-05 1.7741897e-05
1.46149305e-05 1.1111451e-05 2.4921635e-06 2.0380789e-05 2.0759679e-05 2.1192694e-05 1.5752103e-05 5.906414e-06
2.406113e-05 2.1974349e-05 1.2848344e-05 1.1168717e-05 9.165037e-06 1.3959691e-05 9.722444e-06 4.149459e-06
4.3353125e-06 1.0096637e-05 1.0731646e-05 5.170084e-06 -2.0200262e-06 1.7674064e-06 8.18214e-06 8.601782e-06
1.1896431e-05 1.4594647e-05 1.0912183e-05 1.221188e-05 1.5866508e-05 2.0721916e-05 2.071544e-05 1.845823e-05
1.853628e-05 1.48996805e-05 1.9062167e-05 2.0806476e-05 1.5071958e-05 1.6566479e-05 1.2013138e-05 9.311356e-06
1.1141243e-05 8.5023785e-06 9.621769e-06 4.201454e-06 2.543463e-06 1.3390942e-06 1.1580271e-06 4.1066396e-06
-1.3413071e-05 -1.9668832e-05 -3.225189e-05 -3.1180043e-05 -1.9965735e-05 -1.6394577e-05 -2.600711e-05 -3.8821323e-05
-4.1361356e-05 -3.1641728e-05 -1.0532062e-05 -2.1022495e-05 -2.6992944e-05 -3.2920867e-05 -2.8411869e-05 -2.2119082e-06
-5.0097474e-06 -1.2067519e-05 -1.8960374e-05 -2.4683952e-05 5.2438486e-06 4.9311907e-06 8.617174e-07 -7.0211913e-06
-1.9111303e-05 -1.4607677e-06 -2.5858235e-06 -2.2188237e-06 -8.709376e-07 -5.5343435e-07 -4.285895e-07 -1.0386987e-06
-5.491741e-07 -1.0738043e-07 7.5470794e-08 -2.5099953e-07 -1.0138614e-06 -4.064234e-07 -3.1760453e-07 -1.0582941e-07
-8.806638e-07 -9.709966e-07 -5.187399e-07 -1.10948754e-07 2.9652688e-07 1.4610386e-07 -5.424793e-07 -6.6923725e-08
-1.3354595e-07 6.9546996e-07 -3.4981556e-05 -3.5234796e-05 -2.839667e-05 -2.6118572e-05 -2.363288e-05 -2.3589848e-05
00000000: cbb6 0339 81b5 c338 d79d 8338 9be8 5538
00000010: 3eee 0b38 d07e c638 7590 8a38 f8ef 3538
00000020: 0a5c 3838 d67f 4638 84c8 7938 6442 3138
00000030: 91c5 4538 5d9b 9238 c711 b638 a13c 7b38
00000040: aadc 6538 982b a038 292a df38 127c 0e39
00000050: e40f a038 0d34 be38 2ca5 f738 0092 2039
00000060: f8c2 3839 3f09 4eb7 468c 49b7 3d4d 2fb7
00000070: 82d1 e1b6 1ed0 4bb6 4f72 96b7 dde1 73b7
00000080: 175e ecb6 56d8 2bb6 1a4b 5636 0ac2 dbb6
00000090: 2756 d6b6 054d abb6 913f cb33 8aa5 5436
000000a0: 9512 5bb5 a0ea 07b6 0843 45b6 2348 0436
000000b0: 7c92 c136 e1e0 bd36 17bd 9235 bd63 c435
000000c0: aa8d c336 402c f236 7c33 8c39 a48a 9b39
000000d0: a8ba 9e39 c012 9939 2968 8b39 79ec ba39
000000e0: be40 c339 6eaf b939 e5c9 a839 ac2c 9c39
000000f0: 265d cb39 8d84 d139 3ace c739 690e b239
00000100: 2cab 9a39 285a d139 7304 cc39 8c47 b039
00000110: d8ff 9539 4fec 7c39 0ee4 ca39 fdd6 ba39
00000120: 99f6 9a39 f798 6d39 2d34 2339 7024 c6b7
00000130: bafb 80b7 f8c8 69b6 ee27 d836 eb82 aa36
00000140: 22a6 1eb7 e70c a836 9d70 a237 bfe0 c437
00000150: 9960 be37 573f c836 0524 d237 cdc8 0738
00000160: eba2 2238 d22a 1338 5e4a d037 a6c0 1d38
00000170: 0408 3238 3b2e 1a38 4e94 d537 f567 1538
00000180: 7037 2838 d4bb 1438 8a15 9b37 734c 0636
00000190: 5c5e ad37 85fd 4e37 49e5 2a36 efc1 0735
000001a0: de56 0ab6 5f3f dd37 314e 9637 c95c 1237
000001b0: 3832 8c36 e738 b636 6a36 f737 5501 a637
000001c0: e1de 3f37 ad70 5237 9bd6 8837 12b1 e437
000001d0: 88c2 ad37 0257 8e37 a51b 9d37 4508 b837
000001e0: e1c7 9f37 7ac0 2b37 dccb 3d37 af33 5937
000001f0: 4bd3 9937 d68a 2439 33d4 4139 f772 5b39
00000200: 2eac 7939 f6e5 8039 74bf 8039 9023 9439
00000210: 4900 a339 e485 b139 d7ef b139 61a7 9d39
00000220: 6c21 ad39 7ba8 bd39 fbf2 c939 957c cb39
00000230: dfb7 a239 80a7 b339 6848 bd39 a178 c239
00000240: d261 bd39 4b6e 9339 a198 9c39 44ce a139
00000250: a01c a439 fbb9 9c39 bf5e c337 6fd4 9437
00000260: a632 7537 526b 3a37 0b3f 2736 69f7 aa37
00000270: 1225 ae37 f7c6 b137 6223 8437 b62f c636
00000280: e2d6 c937 8e55 b837 388f 5737 4661 3b37
00000290: 89c3 1937 6b34 6a37 941d 2337 953b 8b36
000002a0: 0d78 9136 ba64 2937 120c 3437 af7a ad36
000002b0: c98f 07b6 9f37 ed35 0646 0937 5f50 1037
000002c0: c896 4737 88db 7437 7813 3737 a0e1 4c37
000002d0: 1119 8537 fad3 ad37 12c6 ad37 bfd6 9a37
000002e0: 5c7e 9b37 a4f9 7937 b1e7 9f37 9189 ae37
000002f0: 91dd 7c37 3ef8 8a37 098c 4937 f837 1c37
00000300: 46eb 3a37 70a5 0e37 2f6d 2137 37fa 8c36
00000310: 5db0 2a36 edba b335 826d 9b35 c4cb 8936
00000320: b408 61b7 7ffe a4b7 3446 07b8 51c7 02b8
00000330: 177c a7b7 1687 89b7 d829 dab7 14d4 22b8
00000340: 6b7b 2db8 0cb7 04b8 ddb2 30b7 7759 b0b7
00000350: e86e e2b7 8314 0ab8 0656 eeb7 4b70 14b6
00000360: 6719 a8b6 9975 4ab7 180d 9fb7 6210 cfb7
00000370: 51f4 af36 9b76 a536 c550 6735 9397 ebb6
00000380: 3651 a0b7 990f c4b5 1c88 2db6 1ae7 14b6
00000390: 60ca 69b5 b88f 14b5 e418 e6b4 6a69 8bb5
000003a0: f56a 13b5 0499 e6b3 8212 a233 1dc1 86b4
000003b0: 0314 88b5 6832 dab4 3c83 aab4 5544 e3b3
000003c0: c166 6cb5 3053 82b5 893f 0bb5 b942 eeb3
000003d0: 5832 9f34 b9e0 1c34 e59e 11b5 b5b7 8fb3
000003e0: d564 0fb4 55b0 3a35 29b9 12b8 13c9 13b8
000003f0: 6235 eeb7 3519 dbb7 393f c6b7 d0e2 c5b7
