logs/biosr_ccps_rcan_model-SRCNN_250305_lr0.0001_bs1_Ps256_Npatch128_N300/model_039.pth (torch, 695046 bytes, 15 tensors)

conv1.weight f4 [64, 1, 9, 9]
0.08230659 -0.027186677 0.08450663 -0.020920185 0.047464844 -0.039134633 0.13343656 -0.015122712
0.19699383 -0.027107058 -0.09245718 0.04955975 -0.04816156 0.034000117 0.044482507 0.03134018
0.077674955 0.10345864 0.08637097 0.039334696 -0.095892005 -0.017834224 -0.05027482 -0.093787886
-0.06773423 -0.0716298 0.048691254 -0.10220207 -0.034543037 0.023711637 -0.07680471 -0.09990875
0.002531775 -0.030187339 -0.042170394 0.0716201 -0.07290669 -0.063148625 -0.0051622894 0.042190947
-0.032786407 0.07232966 0.052210256 0.064905785 0.021139761 -0.035989124 -0.09806825 -0.0029964466
-0.09606009 0.024192328 0.025785146 0.023047164 0.05362223 0.12271242 -0.05368903 -0.028841637
-0.010523828 0.031342454 0.07660985 0.05991023 -0.046327505 0.10475398 0.005584028 0.039140373
0.035528418 0.0009163691 -0.05206806 -0.052693103 0.009134453 -0.06641401 -0.022882584 -0.06847475
0.044414494 -0.024014015 0.02122229 0.05541618 -0.049575225 -0.009166093 -0.0854978 -0.005447023
-0.06942357 -0.047071964 -0.0031756528 -0.029384172 0.0064903297 0.072433166 -0.032291368 -0.122822896
0.05776474 -0.01696744 0.020246958 -0.01713298 0.057321437 -0.10180961 0.070333086 0.07476641
0.07329558 0.03553727 0.09103147 0.034658544 0.019359631 -0.02179259 0.08426588 0.07450492
-0.049461424 0.012347128 -0.09375617 -0.023963714 0.027141808 -0.0135338595 -0.11946147 0.082232475
0.030280605 -0.09102589 -0.1046142 -0.04587362 -0.09267835 -0.062392265 -0.05943845 -0.10144788
0.048242245 0.11755476 0.004101076 -0.04017503 0.08652326 -0.103465326 -0.03367591 -0.09447258
0.03339004 -0.08625252 -0.09199495 0.046616618 -0.06560002 -0.09370961 0.0035867463 -0.05075457
0.068131775 0.007369304 0.007816899 -0.040815506 0.059320584 0.069988675 0.08324539 0.01142319
-0.11855015 0.009594702 -0.07321764 -0.09550712 0.07200877 0.04038173 0.031253994 0.10813872
0.028360061 -0.017996857 -0.029854191 0.047438286 0.01601593 -0.06567003 -0.1002595 0.06484449
0.070514604 0.11904916 0.06181519 0.123166956 -0.05105995 0.061560776 0.03709015 0.028063625
-0.07659031 -0.06546578 0.0474049 0.109304816 0.07243781 -0.030999517 0.11929795 0.05736927
0.0183457 0.020924238 0.08891241 0.0754869 0.08221734 -0.05217752 0.0935122 0.09906925
-7.329276e-05 0.060119312 -0.07196192 -0.108083025 -0.083664656 0.118593045 0.108196795 0.021829436
0.09705993 0.08416582 -0.042445194 0.022198346 -0.061793026 -0.12695992 0.10846512 -0.040003236
-0.031020785 0.021406125 0.0692697 0.079328164 -0.031347353 0.0039876956 -0.005187083 -0.038024265
-0.0125564765 0.021780355 -0.07795686 0.05124689 -0.10911186 0.023630744 -0.111874476 -0.1362967
0.02840349 0.024572864 -0.04225966 0.06446174 0.08984919 0.009269961 -0.108466394 -0.11604317
-0.1598133 0.008348273 0.10549072 0.013292568 -0.09784646 0.06973783 0.027687872 -0.08094068
-0.15162157 0.020123772 0.11181281 0.020523 -0.036222164 -0.026198318 -0.04499985 -0.115559585
0.0059824674 -0.09485443 -0.12808095 0.10692664 -0.0861948 0.09733454 0.11828145 0.07397696
-0.034189153 -0.045582756 0.025605313 -0.075495325 0.050243225 -0.005104649 0.008092238 0.11448251
00000000: 5c90 a83d 98b6 debc d011 ad3d cf60 abbc
00000010: 7f6a 423d a34b 20bd 98a3 083e 40c5 77bc
00000020: c0b8 493e 9f0f debc 315a bdbd 2aff 4a3d
00000030: 0e45 45bd b543 0b3d 4a33 363d 905e 003d
00000040: 0c14 9f3d 20e2 d33d 43e3 b03d 6b1d 213d
00000050: 0763 c4bd 1419 92bc f8ec 4dbd dd13 c0bd
00000060: 3eb8 8abd a5b2 92bd 7b70 473d 524f d1bd
00000070: 007d 0dbd e83e c23c ca4b 9dbd f59c ccbd
00000080: 23ec 253b 704b f7bc ddba 2cbd 8fad 923d
00000090: 1a50 95bd 1154 81bd 6c28 a9bb 6ad0 2c3d
000000a0: 0a4b 06bd 9321 943d 6cda 553d 53ed 843d
000000b0: 4b2d ad3c 5569 13bd 02d8 c8bd 0860 44bb
000000c0: 27bb c4bd fd2e c63c 5f3b d33c 68cd bc3c
000000d0: fca2 5b3d a650 fb3d 07e9 5bbd 4c45 ecbc
000000e0: 226c 2cbc f260 003d a0e5 9c3d 6e64 753d
000000f0: e9c1 3dbd 4189 d63d 39fa b63b a851 203d
00000100: 3f86 113d 7d38 703a 5145 55bd b9d4 57bd
00000110: aca8 153c 1204 88bd 4274 bbbc 7d3c 8cbd
00000120: f9eb 353d 0ab9 c4bc 5eda ad3c 14fc 623d
00000130: 640f 4bbd 612d 16bc 7819 afbd f17c b2bb
00000140: f22d 8ebd 88ce 40bd 9d1e 50bb 13b7 f0bc
00000150: d5ac d43b d757 943d f443 04bd 928a fbbd
00000160: b89a 6c3d 4dff 8abc f3dc a53c 775a 8cbc
00000170: e2c9 6a3d 8f81 d0bd cb0a 903d 221f 993d
00000180: fe1b 963d 878f 113d b56e ba3d 1ef6 0d3d
00000190: 1798 9e3c 6086 b2bc 9793 ac3d 0996 983d
000001a0: 1098 4abd 9c4b 4a3c 3c03 c0bd 8d4f c4bc
000001b0: 7f58 de3c 1fbd 5dbc 37a8 f4bd 8069 a83d
000001c0: 080f f83c c86b babd f83f d6bd fae5 3bbd
000001d0: 26ce bdbd 088f 7fbd bb75 73bd e8c3 cfbd
000001e0: a999 453d 8dc0 f03d 5262 863b 928e 24bd
000001f0: 1b33 b13d a1e5 d3bd c0ef 09bd d77a c1bd
00000200: ffc3 083d 29a5 b0bd d967 bcbd 11f1 3e3d
00000210: 4e59 86bd d3ea bfbd 9e0f 6b3b 06e4 4fbd
00000220: ac88 8b3d 347a f13b 7312 003c 292e 27bd
00000230: 24fa 723d 3956 8f3d 8f7c aa3d 5528 3b3c
00000240: 6cca f2bd 1933 1d3c 21f3 95bd 3d99 c3bd
00000250: 5679 933d 5067 253d 3004 003d d577 dd3d
00000260: 5c53 e83c 256e 93bc c790 f4bc a64e 423d
00000270: d733 833c 027e 86bd da54 cdbd 30cd 843d
00000280: f669 903d 0cd0 f33d ed31 7d3d f53e fc3d
00000290: 3d24 51bd 2727 7c3d d7eb 173d b0e5 e53c
000002a0: 61db 9cbd ec12 86bd a42b 423d 34db df3d
000002b0: 465a 943d b3f2 fdbc 7c52 f43d 0afc 6a3d
000002c0: b949 963c 4f69 ab3c b617 b63d e098 9a3d
000002d0: 9161 a83d 18b8 55bd 5383 bf3d d2e4 ca3d
000002e0: c0b4 99b8 ab3f 763d c560 93bd a25a ddbd
000002f0: 6058 abbd e9e0 f23d 4896 dd3d a5d3 b23c
00000300: 5bc7 c63d 215f ac3d 03db 2dbd 4ed9 b53c
00000310: af1a 7dbd c801 02be f622 de3d 6fda 23bd
00000320: 4d1f febc e65b af3c 46dd 8d3d ce76 a23d
00000330: 1566 00bd 37ab 823b 68f8 a9bb 55bf 1bbd
00000340: aeb9 4dbc b76c b23c d9a7 9fbd 42e8 513d
00000350: 0a76 dfbd 4395 c13c 721e e5bd 5d91 0bbe
00000360: 70ae e83c 084d c93c 7718 2dbd 8404 843d
00000370: da02 b83d 09e1 173c a123 debd 0ba8 edbd
00000380: 19a6 23be 32c7 083c 850b d83d 12c9 593c
00000390: ba63 c8bd b5d2 8e3d add1 e23c 3ac4 a5bd
000003a0: af42 1bbe 9cda a43c 1dfe e43d da1f a83c
000003b0: b15d 14bd db9d d6bc c351 38bd 81aa ecbd
000003c0: 9308 c43b 0a43 c2bd a727 03be 5bfc da3d
000003d0: e686 b0bd 5557 c73d 8b3d f23d 3b81 973d
000003e0: ed09 0cbd fcb4 3abd 3cc2 d13c 4b9d 9abd
000003f0: d7cb 4d3d e644 a7bb 4e95 043c ce75 ea3d

conv1.bias f4 [64]
0.024147825 0.052973837 0.018838424 0.004466732 -0.102637 0.07650587 0.08995832 -0.07455051
-0.036119293 0.026726255 -0.03457833 -0.01793774 -0.10075172 -0.01742645 -0.07888218 -0.06537241
0.0911498 -0.024323404 -0.0036680854 -0.02102076 -0.03601731 -0.10306401 -0.11423779 -0.020301938
-0.019454945 0.017634526 -0.025864394 -0.07718519 -0.07501754 -0.061847974 -0.032618485 -0.019818809
-0.07990179 -0.07904401 0.06731369 -0.0029683071 -0.07248905 0.050665967 -0.027087513 0.15274648
0.048908386 0.0611929 -0.020384064 -0.021175254 0.0358288 -0.121191315 -0.011961838 -0.036526963
0.02312226 -0.029797792 0.10654469 -0.0628286 0.008548514 -0.0032333592 0.06901361 -0.05899919
0.0377809 -0.08012499 0.009737579 0.012370917 -0.016044946 0.0009966507 0.05518343 -0.08394443
00000000: a9d1 c53c 18fb 583d 0a53 9a3c aa5d 923b
00000010: 5933 d2bd 1caf 9c3d 113c b83d f0ad 98bd
00000020: d3f1 13bd 05f1 da3c 02a2 0dbd 2bf2 92bc
00000030: eb56 cebd eac1 8ebc fb8c a1bd f8e1 85bd
00000040: bfac ba3d e041 c7bc 4364 70bb bb33 acbc
00000050: e386 13bd 3913 d3bd 81f5 e9bd 4050 a6bc
00000060: fa5f 9fbc 4876 903c 91e1 d3bc 4513 9ebd
00000070: cca2 99bd 4d54 7dbd f69a 05bd 0e5b a2bc
00000080: 8da3 a3bd d3e1 a1bd c3db 893d ee87 42bb
00000090: 2475 94bd 1e87 4f3d a2e6 ddbc 9369 1c3e
000000a0: 2954 483d 68a5 7a3d 7bfc a6bc ba77 adbc
000000b0: 38c1 123d 2733 f8bd 96fb 43bc 4c9d 15bd
000000c0: e56a bd3c 801a f4bc 1a34 da3d 48ac 80bd
000000d0: 110f 0c3c c4e6 53bb 0257 8d3d 22a9 71bd
000000e0: 25c0 1a3d 9218 a4bd 5e8a 1f3c 63af 4a3c
000000f0: b170 83bc 0ca2 823a 0508 623d 0feb abbd

conv2.weight f4 [32, 64, 5, 5]
-0.021399666 -0.038091123 0.013962768 -0.012038366 0.029206472 0.0066274498 -0.01001204 0.026470287
-0.0074338587 0.010704075 -0.0030127147 -0.0074545643 -0.008006034 -0.020078778 0.0017578048 -0.044532657
-0.021448845 -0.034948513 -0.032041326 0.00014212907 0.0031574294 0.018119536 0.020998355 0.038241927
0.04958524 -0.12403295 -0.021342149 0.05552558 0.0071296664 -0.016855935 -0.0049630115 -0.042404287
0.060177952 0.043859467 0.00491039 -0.059985667 -0.08085702 0.004600589 -0.012387535 -0.004866793
-0.084148765 -0.0724766 -0.014526779 -0.0116205625 -0.0096534435 -0.045125674 -0.012257209 0.007982103
-0.0039059955 -0.028718935 0.016543105 0.008471723 0.022520177 0.029094815 0.014790351 -0.029091429
-0.013389679 -0.016068492 -0.014234266 0.010805933 -0.030478347 -0.00044097006 -0.008592086 0.010499512
0.012102353 -0.04313347 -0.003202285 -0.032240618 0.03545223 0.06506199 -0.002517915 0.0128180785
0.021465827 0.052856617 0.1621496 0.021857196 -0.02730705 -0.0041992087 -0.0055637327 0.030018132
0.009527911 0.0032526676 -0.036400463 -0.008747368 0.01449312 -0.010454166 0.0088606095 0.0042590485
0.025548825 0.015899824 -0.004076869 -0.034699593 -0.011710149 -0.007654872 -0.027889827 -0.030952359
-0.045270015 -0.0541262 -0.124964 -0.17368343 0.0017551014 0.011858955 0.008638804 -0.015140112
-0.043119833 0.018868715 0.007502807 -0.0039400565 0.0081777265 -0.04630667 0.03256183 0.024291424
0.00394196 -0.0009777755 -0.03181805 -0.004898227 0.016596202 -0.04849012 -0.03318691 -0.0249691
0.055418603 0.010670364 0.034836143 0.045505576 0.06376273 0.005445828 0.011823958 0.00035770977
0.018088233 -0.018629963 0.0029860223 0.008322597 -0.0041958396 0.007846401 -0.03140369 -0.027690802
-0.025137374 -0.027147863 -0.032984797 -0.029289702 0.0043473626 -0.007198658 0.0031969023 0.016702522
-3.0361221e-05 0.01073948 0.030974494 0.01846927 0.029022593 0.014601525 0.0035822645 0.035330806
0.055666193 -0.022441564 -0.057951484 -0.0050088936 -0.0012648902 -0.020863565 -0.062939465 -0.035997793
0.00955647 -0.007168789 -0.009063618 -0.054567583 0.0012186663 0.052672714 0.01984186 -0.053219717
0.0077592274 0.012576933 0.044535555 0.042124584 -0.04093581 0.020140162 0.079727255 -0.018548574
-0.027783245 0.009819107 -0.020361537 -0.034192815 -0.03190576 0.01315185 0.018786905 -0.026562264
0.017984664 0.00039002104 0.034190323 0.010078065 -0.012900296 -0.016517455 0.020142928 -0.006007611
-0.016459012 0.0068956884 0.030749545 0.020528274 0.0006648248 -0.0009805409 0.04055296 0.09417299
0.033807658 -0.05617404 -0.037333842 -0.025899347 -0.048951775 -0.012881311 -0.03086757 -0.045582887
-0.007079593 0.017637862 -0.09022611 -0.038120057 -0.076229036 -0.04879299 0.09993377 -0.138984
-0.106312945 -0.08531551 -0.048120536 0.09154856 -0.048877105 -0.061966754 -0.052141175 0.05216131
0.15001425 0.01620113 0.0016445402 0.002914249 -0.026465042 -0.012914088 0.050894305 0.008289785
-0.01812332 -0.05277172 0.0350977 -0.052920774 -0.03762164 -0.06467716 -0.059615314 0.045262247
-0.08553966 -0.07364678 -0.0314594 0.020808969 0.049937703 -0.07630174 -0.038479082 -0.031060793
0.22172403 0.056924954 0.06938786 -0.025132013 -0.055642262 -0.07528674 -0.12304283 0.05987508
00000000: 5a4e afbc 7005 1cbd 18c4 643c 913c 45bc
00000010: 6942 ef3c 142b d93b 8a09 24bc 37d8 d83c
00000020: ba97 f3bb 2560 2f3c f770 45bb 6b45 f4bb
00000030: be2b 03bc 407c a4bc 2466 e63a e067 36bd
00000040: 7db5 afbc 2c26 0fbd c43d 03bd 7b08 1539
00000050: e0ec 4e3b 6c6f 943c be04 ac3c 91a3 1c3d
00000060: e519 4b3d fd04 febd bbd5 aebc ca6e 633d
00000070: fa9f e93b 7515 8abc c2a0 a2bb 1eb0 2dbd
00000080: 287d 763d fca5 333d 56e7 a03b 88b3 75bd
00000090: 5e98 a5bd 8ac0 963b 16f5 4abc 9e79 9fbb
000000a0: 3056 acbd 9d6e 94bd ba01 6ebc 2c64 3ebc
000000b0: 7a29 1ebc b3d5 38bd 76d2 48bc 5ec7 023c
000000c0: bbfb 7fbb f943 ebbc 6885 873c fbcc 0a3c
000000d0: 3c7c b83c 4058 ee3c 3a53 723c 2651 eebc
000000e0: 6260 5bbc 12a2 83bc d736 69bc 5e0b 313c
000000f0: baad f9bc 0032 e7b9 d2c5 0cbc 2506 2c3c
00000100: f348 463c b9ac 30bd 6ddd 51bb bd0e 04bd
00000110: 5c36 113d 383f 853d 9b03 25bb eb02 523c
00000120: 1ad9 af3c 2e80 583d 8b0a 263e dd0d b33c
00000130: 09b3 dfbc 8499 89bb f94f b6bb 96e8 f53c
00000140: f51a 1c3c b52a 553b a718 15bd 1f51 0fbc
00000150: 8d74 6d3c f347 2bbc 172c 113c 7d8f 8b3b
00000160: c54b d13c 5940 823c 4297 85bb 2921 0ebd
00000170: eddb 3fbc b8d5 fabb 3579 e4bc cd8f fdbc
00000180: 0d6d 39bd 6fb3 5dbd 20ed ffbd 12da 31be
00000190: 6e0b e63a 104c 423c c589 0d3c 3b0e 78bc
000001a0: 6c9e 30bd 9092 9a3c 1bda f53b 971b 81bb
000001b0: dffb 053c 10ac 3dbd 8e5f 053d cffe c63c
000001c0: 8f2b 813b b428 80ba a553 02bd 4e81 a0bb
000001d0: c2f4 873c 939d 46bd ffee 07bd ff8b ccbc
000001e0: 9efe 623d c0d2 2e3c 58b0 0e3d 0e64 3a3d
000001f0: 0996 823d eb72 b23b 46b9 413c fe8a bb39
00000200: c62d 943c dd9d 98bc 24b1 433b 805b 083c
00000210: 417d 89bb 318e 003c 28a1 00bd d2d7 e2bc
00000220: e5ec cdbc 3265 debc 111b 07bd f5f0 efbc
00000230: 5274 8e3b b8e2 ebbb 1f83 513b bad3 883c
00000240: 3ab0 feb7 a5f4 2f3c 39be fd3c de4c 973c
00000250: cac0 ed3c 3c3b 6f3c 6dc4 6a3b 09b7 103d
00000260: 3c02 643d 5fd7 b7bc 895e 6dbd a521 a4bb
00000270: acca a5ba 11ea aabc 68e6 80bd 6c72 13bd
00000280: be92 1c3c 29e8 eabb 927f 14bc 4282 5fbd
00000290: a8bb 9f3a 58bf 573d 658b a23c ebfc 59bd
000002a0: 1e41 fe3b 7b0f 4e3c ea6a 363d d48a 2c3d
000002b0: 4fac 27bd fbfc a43c 0b48 a33d 2ef3 97bc
000002c0: b099 e3bc 52e0 203c 3dcd a6bc c40d 0cbd
000002d0: 9daf 02bd db7a 573c ffe6 993c 1b99 d9bc
000002e0: 9354 933c bd7b cc39 270b 0c3d 781e 253c
000002f0: c35b 53bc 9d4f 87bc c802 a53c 7edb c4bb
00000300: 0dd5 86bc 3af5 e13b 78e6 fb3c e92a a83c
00000310: a347 2e3a 7e85 80ba dc1a 263d c5dd c03d
00000320: e679 0a3d c016 66bd 5feb 18bd de2a d4bc
00000330: a881 48bd 220c 53bc fcdd fcbc 1fb5 3abd
00000340: eefb e7bb 477d 903c 77c8 b8bd c723 1cbd
00000350: f81d 9cbd 29db 47bd 14aa cc3d d251 0ebe
00000360: 9aba d9bd e6b9 aebd 0a1a 45bd d07d bb3d
00000370: 5c33 48bd dad0 7dbd fc91 55bd 19a7 553d
00000380: 569d 193e 3bb8 843c 9d8d d73a fcfc 3e3b
00000390: 37cd d8bc 9c95 53bc 8c76 503d e1d1 073c
000003a0: 5b77 94bc 2927 58bd 9bc2 0f3d 74c3 58bd
000003b0: 2619 1abd 7575 84bd 302f 74bd e864 393d
000003c0: 6b2f afbd 1fd4 96bd 92db 00bd 9277 aa3c
000003d0: 7a8b 4c3d 1644 9cbd 3e9c 1dbd 3473 febc
000003e0: a00b 633e 242a 693d 391b 8e3d a7e1 cdbc
000003f0: 24e9 63bd ef2f 9abd e1fd fbbd 923f 753d

conv2.bias f4 [32]
0.0057192333 -0.033283666 0.012198696 -0.021989612 0.015002204 -0.017260524 -0.022423802 0.018478334
-0.0125710545 -0.018936578 -0.024587352 0.014262489 -0.0116015915 -0.015372918 0.016000794 -0.028808277
-0.025671892 -0.014653595 0.0021059203 -0.058497407 0.050003827 -0.008322206 -0.010852922 0.0041521355
-0.01790558 -0.009952037 -0.019108929 0.019874433 -0.027376575 0.0038516412 0.020261806 -0.026839558
00000000: 6868 bb3b 7454 08bd 0add 473c 8f23 b4bc
00000010: cecb 753c f165 8dbc 1fb2 b7bc e05f 973c
00000020: d3f6 4dbc e220 9bbc 6a6b c9bc 37ad 693c
00000030: 9a14 3ebc b1de 7bbc 1914 833c 56ff ebbc
00000040: dc4d d2bc a215 70bc 7b03 0a3b fa9a 6fbd
00000050: d0d0 4c3d dd59 08bc 74d0 31bc a30e 883b
00000060: b9ae 92bc de0d 23bc 548a 9cbc b5cf a23c
00000070: d744 e0bc d16b 7c3b 16fc a53c a2de dbbc

conv3.weight f4 [1, 32, 5, 5]
-0.048018876 -0.015112327 -0.021226685 -0.029487874 0.004839957 0.0065467227 -0.028069898 -0.052960724
-0.010379009 0.01724862 0.019451411 -0.0461139 -0.042725462 -0.0011436475 0.008752006 -0.0061760945
-0.023837587 -0.028797159 -0.013155799 0.017790206 0.06669576 0.055233005 0.04838499 0.03949445
0.118386805 -0.040729605 -0.026594888 -0.043379728 -0.008141331 -0.0018901133 -0.040632054 -0.05259723
-0.0229572 -0.013284938 -0.031603906 -0.03212808 -0.013351957 -0.040017158 -0.026127724 -0.01383076
-0.039719004 0.0122409025 -0.0381713 -0.012398208 -0.02224145 -0.0056975516 -0.05703388 -0.016685659
-0.027381582 -4.981132e-05 0.036488317 -0.014880689 0.0064675263 0.033109028 0.034385078 -0.008603622
0.017269302 -0.020205252 -0.013950726 -0.026515076 0.013003628 -0.028897876 -0.016221931 -0.014503212
0.0047121886 0.0053372723 -0.0067800456 -0.027245887 -0.004937272 0.017335793 0.012622622 -0.017169451
-0.0055328114 -0.0320433 0.01900252 -0.0321488 -0.021178376 -0.054778006 -0.049950104 -0.02572012
-0.012142873 0.024943663 0.021650309 -0.013472583 0.028319426 -0.006441197 -0.01807397 0.01653168
-0.005589005 0.033165302 0.009968186 0.01294729 -0.02415722 -0.008666739 0.039157722 0.047555104
0.025737269 0.0025895291 0.036398306 0.08011808 -0.075062 -0.039021913 -0.022103414 -0.011882971
-0.06639283 -0.001242213 -0.0045586117 0.03957959 -0.020414893 -0.017794847 -0.02515352 -0.0029742678
0.018736472 -0.0003584044 0.01545572 -0.021093206 0.021319004 -0.008184637 -0.012384313 0.009863383
-0.012487984 0.0370771 0.030856619 0.005272253 0.012778957 -0.106102295 -0.0825069 -0.042877205
-0.05693323 -0.06425139 -0.032992586 -0.03572831 -0.03374011 -0.03338122 -0.032119974 -0.07931979
-0.02007786 -0.056659646 0.0029358594 -0.06732289 -0.05532649 -0.007819138 -0.034170624 -0.03749455
-0.014576208 -0.08154192 -0.054680645 -0.043500915 -0.013079054 -0.034261394 0.042196617 -0.006831221
-0.005752111 0.03751643 0.030111555 -0.0090054395 -0.0020573628 -0.011279443 0.002324657 0.033617403
-0.028250605 0.007629402 -0.0025836104 -0.0070474716 0.01069114 0.027911594 -0.017522741 -0.007913306
0.0046649734 0.011014089 0.016137486 0.029702865 0.015116978 0.024962554 0.0075082076 0.0737049
0.0690318 0.02006599 0.006532179 0.040017247 0.08032191 0.020214494 0.022053925 0.016841082
0.031030757 0.061636392 -0.010146823 0.035968896 -0.0113361785 -0.0046573407 0.030743083 0.031497043
0.032922942 0.0032342249 0.011367462 0.023545828 0.021979628 0.01792845 0.0032997997 0.040505562
0.04388931 0.04119762 0.0474091 0.03574379 0.07343405 -0.0020625745 0.03905252 0.0021006828
0.024273356 0.056572996 0.01675057 0.023761533 0.041741166 0.0045161527 0.018303178 0.020834696
0.011536571 0.027011033 0.0198108 0.0063442714 0.02900939 0.013101852 0.030146576 -0.016332263
0.020715613 0.034694545 0.02270988 0.019732364 0.04530411 0.03151255 0.037587117 0.021810193
0.0067095696 0.020345842 0.032193303 -0.0067762057 -0.0049629193 0.013712741 0.03245575 0.019144263
0.027623821 0.038049378 0.021378791 0.0016161202 0.03920326 0.043659206 0.049770523 0.03497905
0.03263649 0.067453645 0.02664029 -0.0063374825 0.013830287 -0.003444427 0.04095113 0.00240086
00000000: 71af 44bd b299 77bc 96e3 adbc 8e90 f1bc
00000010: 8198 9e3b e485 d63b d8f2 e5bc 58ed 58bd
00000020: b80c 2abc fa4c 8d3c 9158 9f3c eee1 3cbd
00000030: e500 2fbd 71e6 95ba 9364 0f3c d660 cabb
00000040: 0b47 c3bc 05e8 ebbc 6c8b 57bc c4bc 913c
00000050: c997 883d 013c 623d 572f 463d efc4 213d
00000060: c874 f23d 16d4 26bd 86dd d9bc f1ae 31bd
00000070: 3863 05bc aebd f7ba cc6d 26bd 3170 57bd
00000080: bd10 bcbc 12a9 59bc 1973 01bd bc98 03bd
00000090: 2bc2 5abc 08e9 23bd cf09 d6bc 699a 62bc
000000a0: 65b0 22bd 118e 483c 8259 1cbd da21 4bbc
000000b0: b433 b6bc 87b2 babb 5c9c 69bd 5db0 88bc
000000c0: 574f e0bc 7fec 50b8 c674 153d 22ce 73bc
000000d0: 8bed d33b 559d 073d 5ed7 0c3d 35f6 0cbc
000000e0: 5a78 8d3c 7c85 a5bc 9691 64bc 2536 d9bc
000000f0: 2b0d 553c 3dbb ecbc dbe3 84bc e19e 6dbc
00000100: b468 9a3b 49e4 ae3b 252b debb c432 dfbc
00000110: d7c8 a1bb cb03 8e3c 1dcf 4e3c f3a6 8cbc
00000120: 964c b5bb d63f 03bd 2cab 9b3c 76ae 03bd
00000130: 467e adbc e75e 60bd 7b98 4cbd 00b3 d2bc
00000140: e7f2 46bc a756 cc3c fd5b b13c 1cbc 5cbc
00000150: 24fe e73c ad10 d3bb dd0f 94bc 726d 873c
00000160: f923 b7bb 57d8 073d 9a51 233c df20 543c
00000170: 5de5 c5bc f0fe 0dbc d963 203d 24c9 423d
00000180: f7d6 d23c 17b5 293b 6416 153d f314 a43d
00000190: 1bba 99bd 71d5 1fbd 3812 b5bc cbb0 42bc
000001a0: f7f8 87bd c0d1 a2ba 6860 95bb 351e 223d
000001b0: 223d a7bc 80c6 91bc c10e cebc efeb 42bb
000001c0: 3b7d 993c 39e8 bbb9 fd39 7d3c a9cb acbc
000001d0: 31a5 ae3c db18 06bc 93e7 4abc 079a 213c
000001e0: 679a 4cbc 28de 173d 05c7 fc3c ddc2 ac3b
000001f0: d55e 513c 294c d9bd 61f9 a8bd 02a0 2fbd
00000200: d232 69bd 3c96 83bd 3c23 07bd d957 12bd
00000210: 1233 0abd bfba 08bd 3c90 03bd 6a72 a2bd
00000220: 537a a4bc f213 68bd 8c67 403b 95e0 89bd
00000230: 089e 62bd d71b 00bc 7ff6 0bbd e393 19bd
00000240: 0cd1 6ebc 73ff a6bd d0f8 5fbd 042e 32bd
00000250: 8749 56bc ad55 0cbd 5cd6 2c3d 6fd8 dfbb
00000260: 347c bcbb d4aa 193d 82ac f63c 8d8b 13bc
00000270: d2d4 06bb 6acd 38bc 4659 183b 67b2 093d
00000280: d06d e7bc 1000 fa3b ca51 29bb 7aee e6bb
00000290: e429 2f3c dba6 e43c da8b 8fbc d0a6 01bc
000002a0: a2dc 983b 7074 343c c332 843c 6c53 f33c
000002b0: 34ad 773c 457e cc3c 6907 f63b 98f2 963d
000002c0: 8b60 8d3d 6e61 a43c e40b d63b 20e9 233d
000002d0: d07f a43d de98 a53c 6faa b43c 4ff6 893c
000002e0: 3734 fe3c 7176 7c3d dc3e 26bc 1f54 133d
000002f0: 61bb 39bc 9b9c 98bb ebd8 fb3c 0b03 013d
00000300: 35da 063d 4af5 533b 973e 3a3c 2ee3 c03c
00000310: 9f0e b43c afde 923c 7441 583b 29e9 253d
00000320: 47c5 333d d6be 283d 0b30 423d 1568 123d
00000330: 9764 963d 422c 07bb 89f5 1f3d 9cab 093b
00000340: ebd8 c63c 16b9 673d 7e38 893c 8ca7 c23c
00000350: c9f8 2a3d 3cfc 933b 8cf0 953c 86ad aa3c
00000360: e303 3d3c 3e46 dd3c 424a a23c 9be3 cf3b
00000370: 1aa5 ed3c 26a9 563c f4f5 f63c 3dcb 85bc
00000380: cab3 a93c de1b 0e3d 120a ba3c c4a5 a13c
00000390: cd90 393d 4e13 013d f3f4 193d 4aab b23c
000003a0: f3db db3b 53ac a63c 20dd 033d ef0a debb
000003b0: fc9f a2bb 68ab 603c 52f0 043d 6ed4 9c3c
000003c0: 5a4b e23c aad9 1b3d 9322 af3c ffd3 d33a
000003d0: 9993 203d ffd3 323d 2ddc 4b3d 3146 0f3d
000003e0: d7ad 053d 2325 8a3d bd3c da3c a8aa cfbb
000003f0: 6e98 623c e5bb 61bb 5fbc 273d bf57 1d3b

exp_avg f4 [64, 1, 9, 9]
-0.0006904023 -0.00065342814 -0.0006277464 -0.0006051065 -0.00061630656 -0.0006640843 -0.0006815906 -0.00072922005
-0.000752335 -0.00072936574 -0.00071759993 -0.0006803467 -0.0006448784 -0.0006679498 -0.00072431134 -0.0007222546
-0.000719087 -0.00075880537 -0.00076704996 -0.00073616364 -0.00076050183 -0.0007711329 -0.0007453264 -0.0007841104
-0.0007719788 -0.00075841765 -0.00074705837 -0.00084862945 -0.0008531503 -0.0008407862 -0.0008602479 -0.00086356583
-0.0008466417 -0.00083879946 -0.00078155065 -0.00076391443 -0.0009941645 -0.0009807326 -0.0010204288 -0.0009993019
-0.00096846704 -0.0009206789 -0.00085764367 -0.0007758281 -0.00079073047 -0.0010749974 -0.0011037114 -0.00112734
-0.0010810208 -0.0010518613 -0.00091786863 -0.0008554525 -0.0007729435 -0.0007304055 -0.0010942284 -0.0011537604
-0.0011470872 -0.001085822 -0.0010521181 -0.00092849147 -0.000843883 -0.0007711019 -0.00074977224 -0.0010490412
-0.0010827223 -0.0010532503 -0.0009906068 -0.0009305668 -0.0008715655 -0.0008137824 -0.0008076024 -0.0007803353
-0.0010054043 -0.001014342 -0.000968575 -0.00088152 -0.00088753 -0.0008279905 -0.0008085781 -0.0008112991
-0.0008027181 0.001276043 0.0012572878 0.0012226505 0.0012108758 0.0012005123 0.0011977515 0.0012222616
0.0012511826 0.0012631902 0.0012534056 0.0012349099 0.00117754 0.0011389239 0.0011500489 0.0011942062
0.001220668 0.0012414957 0.0012666687 0.0012178826 0.0012023083 0.001144937 0.0011136843 0.0011261868
0.0011576213 0.0011903706 0.0012382641 0.0012598778 0.0011930455 0.0011586114 0.0011241235 0.0011000782
0.0011071342 0.0011639616 0.0011887877 0.0012299255 0.0012707958 0.0011623709 0.00115614 0.0011394251
0.0011048542 0.0011308308 0.0011700359 0.001227868 0.0012504546 0.0012906305 0.0011726187 0.0011553549
0.0011458254 0.001142263 0.0011466759 0.0011827513 0.0012290799 0.0012633404 0.0013022668 0.001178486
0.0011680094 0.0011593283 0.0011747928 0.0011841502 0.001211294 0.0012615279 0.0012955188 0.001321255
0.0011795523 0.0011795092 0.0011763003 0.0011945693 0.0012243488 0.0012459581 0.0012836084 0.0013342001
0.0013278477 0.001199504 0.0011978495 0.0012043607 0.0012338646 0.0012566857 0.0012836503 0.0013218824
0.0013305784 0.0013402697 -0.0029340256 -0.0027071477 -0.0026201222 -0.0026885022 -0.0029145111 -0.003241315
-0.0035119553 -0.0037267627 -0.003959671 -0.0027562128 -0.0024984896 -0.002451713 -0.0025964112 -0.0029192008
-0.0033187543 -0.0037286778 -0.00403824 -0.004239358 -0.002599252 -0.0023630257 -0.0024173276 -0.0026281003
-0.0029966156 -0.0035396623 -0.0039998144 -0.004308629 -0.004500779 -0.0025346356 -0.0023809718 -0.002480653
-0.0027578073 -0.0032759986 -0.0038644008 -0.0043776566 -0.0046666777 -0.0047668763 -0.0026354278 -0.002512258
-0.002702969 -0.003082246 -0.0036128617 -0.0042368844 -0.0047229836 -0.004964696 -0.0050209737 -0.0028005233
-0.0028264646 -0.0030430018 -0.0034027284 -0.0039882357 -0.004520936 -0.00498226 -0.005051016 -0.0050312253
-0.0030742716 -0.0031108467 -0.003378635 -0.0037963314 -0.004252907 -0.0048231697 -0.0050440626 -0.005138338
-0.0050090826 -0.0033124762 -0.0033861808 -0.0036365143 -0.004024401 -0.004454908 -0.004867532 -0.0050339764
-0.004990743 -0.0049306247 -0.0035451958 -0.0036595191 -0.0038329507 -0.0041775806 -0.004480979 -0.0046922807
-0.0048933397 -0.004850283 -0.004642973 0.0008615343 0.0005827735 0.0005507358 0.00045793096 0.0004458277
0.00047447192 0.00052755215 0.00073962926 0.000611161 0.0007766371 0.0005853385 0.000398558 0.00041195165
00000000: 1dfc 34ba d24a 2bba 598f 24ba 03a0 1eba
00000010: a28f 21ba f115 2eba c5ac 32ba 2129 3fba
00000020: 5938 45ba e832 3fba 511d 3cba 4b59 32ba
00000030: 0f0d 29ba 5a19 2fba b6df 3dba b055 3dba
00000040: 1d81 3cba 91ea 46ba da13 49ba 1bfb 40ba
00000050: 6a5c 47ba da25 4aba 0262 43ba c28c 4dba
00000060: 9f5e 4aba 8cd0 46ba 3dd6 43ba 8f76 5eba
00000070: f3a5 5fba 3568 5cba 4282 61ba ec60 62ba
00000080: 2af1 5dba e1e2 5bba fae0 4cba 6e41 48ba
00000090: a04e 82ba ed8b 80ba e9bf 85ba 02fb 82ba
000000a0: b9e0 7dba b759 71ba 7ed3 60ba f160 4bba
000000b0: 0649 4fba ede6 8cba 69aa 90ba 41c3 93ba
000000c0: 0ab1 8dba 9cde 89ba 1f9d 70ba 7240 60ba
000000d0: 5c9f 4aba af78 3fba 366c 8fba c639 97ba
000000e0: dc59 96ba 2452 8eba 3ae7 89ba 0266 73ba
000000f0: 0838 5dba c623 4aba 5d8c 44ba fb7f 89ba
00000100: 22ea 8dba 370d 8aba 40d7 81ba 48f1 73ba
00000110: c579 64ba 0354 55ba 48b5 53ba 6a8f 4cba
00000120: c5c7 83ba abf3 84ba f8e7 7dba ce15 67ba
00000130: 21a9 68ba 800d 59ba c2f6 53ba 5cad 54ba
00000140: 806d 52ba e640 a73a 94cb a43a 5841 a03a
00000150: 40b6 9e3a 825a 9d3a dffd 9c3a 4b34 a03a
00000160: b9fe a33a a191 a53a 5049 a43a b3dc a13a
00000170: b057 9a3a f247 953a 3dbd 963a e986 9c3a
00000180: d2fe 9f3a afb9 a23a 5906 a63a 5ca1 9f3a
00000190: c696 9d3a b611 963a 0bf9 913a 8f9c 933a
000001a0: 53bb 973a 3606 9c3a 404d a23a 7c22 a53a
000001b0: f75f 9c3a 8cdc 973a 5357 933a 8030 903a
000001c0: 421d 913a 1290 983a 19d1 9b3a 7435 a13a
000001d0: d590 a63a b25a 983a 9f89 973a c358 953a
000001e0: c1d0 903a 6338 943a e45b 993a 6af0 a03a
000001f0: 4be6 a33a 602a a93a 8eb2 993a 476f 973a
00000200: 852f 963a fcb7 953a 0f4c 963a 8c06 9b3a
00000210: 1419 a13a ab96 a53a d3b0 aa3a 6e77 9a3a
00000220: e417 993a 9af4 973a 81fb 993a 7d35 9b3a
00000230: 48c4 9e3a da59 a53a 66ce a93a f62d ad3a
00000240: 359b 9a3a c399 9a3a 172e 9a3a 1893 9c3a
00000250: 547a a03a 6b4f a33a c03e a83a 54e0 ae3a
00000260: 2d0b ae3a ad38 9d3a 2901 9d3a a4db 9d3a
00000270: a0b9 a13a 60b7 a43a 2840 a83a 0343 ad3a
00000280: cd66 ae3a fdab af3a c848 40bb 676a 31bb
00000290: 5bb6 2bbb 9531 30bb 6201 3fbb 3e6c 54bb
000002a0: d528 66bb b43c 74bb 21c0 81bb 94a1 34bb
000002b0: b3bd 23bb ebac 20bb 8d28 2abb 1050 3fbb
000002c0: 757f 59bb d55c 74bb 3653 84bb 50ea 8abb
000002d0: 3658 2abb fedc 1abb 076c 1ebb 353c 2cbb
000002e0: de62 44bb aef9 67bb e010 83bb 662f 8dbb
000002f0: 457b 93bb 211c 26bb 140a 1cbb 7492 22bb
00000300: 54bc 34bb 23b2 56bb e341 7dbb 7272 8fbb
00000310: eeea 98bb 7533 9cbb 24b7 2cbb b2a4 24bb
00000320: 4b24 31bb 82ff 49bb c3c5 6cbb 90d5 8abb
00000330: 42c3 9abb e3ae a2bb fb86 a4bb fc88 37bb
00000340: 353c 39bb 196d 47bb 4f00 5fbb bfaf 82bb
00000350: 5c24 94bb 3a42 a3bb fe82 a5bb fadc a4bb
00000360: b879 49bb 59df 4bbb 176c 5dbb dfcb 78bb
00000370: f85b 8bbb ae0b 9ebb aa48 a5bb 815f a8bb
00000380: 3b23 a4bb 2116 59bb b0ea 5dbb 9652 6ebb
00000390: 1fdf 83bb 7afa 91bb d17f 9fbb 0ef4 a4bb
000003a0: 6389 a3bb 1491 a1bb 8456 68bb 8bd4 6fbb
000003b0: 3e32 7bbb 16e4 88bb 2dd5 92bb b4c1 99bb
000003c0: 4f58 a0bb 1fef 9ebb 1524 98bb 97d8 613a
000003d0: 44c5 183a 415f 103a 7416 f039 fbbd e939
000003e0: 8bc2 f839 6d4b 0a3a aee3 413a 5236 203a
000003f0: 3c97 4b3a 6771 193a 8df5 d039 37fb d739

exp_avg_sq f4 [64, 1, 9, 9]
8.728129e-06 8.436406e-06 8.203383e-06 7.3708243e-06 7.0374886e-06 6.6568696e-06 6.7350265e-06 6.952913e-06
7.579421e-06 9.1412085e-06 8.947979e-06 8.763188e-06 7.758026e-06 7.066154e-06 6.6075618e-06 6.372688e-06
6.4899978e-06 7.0046094e-06 1.0058775e-05 1.0083859e-05 9.436518e-06 8.689626e-06 7.5077874e-06 6.5386657e-06
6.0826965e-06 6.045561e-06 6.5178874e-06 1.0494042e-05 1.1358622e-05 1.1074203e-05 9.6116955e-06 8.172437e-06
6.878324e-06 6.1389287e-06 5.8569594e-06 6.3202397e-06 1.1562627e-05 1.236837e-05 1.2580219e-05 1.1204758e-05
8.967336e-06 7.3084084e-06 6.1581086e-06 5.8605306e-06 6.118116e-06 1.2304278e-05 1.3202845e-05 1.3725475e-05
1.1904662e-05 1.0109193e-05 7.960555e-06 6.677192e-06 6.15021e-06 6.3626103e-06 1.2383653e-05 1.3788373e-05
1.4006238e-05 1.287004e-05 1.0961365e-05 8.66516e-06 7.306011e-06 6.842191e-06 6.791341e-06 1.1849569e-05
1.2971418e-05 1.3242155e-05 1.2519889e-05 1.0846242e-05 9.334113e-06 7.9211795e-06 7.541058e-06 7.3599936e-06
1.1020165e-05 1.14779905e-05 1.2055639e-05 1.2005439e-05 1.11240315e-05 9.8848595e-06 8.801458e-06 8.421008e-06
8.03161e-06 7.5159132e-06 7.695051e-06 7.755999e-06 7.995123e-06 8.192658e-06 7.740744e-06 7.3913952e-06
7.807703e-06 7.575302e-06 7.6050533e-06 7.665208e-06 8.195065e-06 8.019326e-06 8.644351e-06 8.402349e-06
8.070735e-06 7.814458e-06 7.899215e-06 7.5487114e-06 7.757228e-06 8.095407e-06 9.094184e-06 9.18755e-06
8.299818e-06 8.077893e-06 7.542871e-06 7.6266033e-06 7.374347e-06 7.491166e-06 7.701136e-06 9.105338e-06
9.192053e-06 8.359595e-06 7.888172e-06 7.764681e-06 7.5344196e-06 7.036841e-06 7.2143316e-06 7.4927507e-06
8.608177e-06 9.35732e-06 8.6788295e-06 8.167664e-06 8.2955685e-06 7.688849e-06 6.9931407e-06 6.9750668e-06
7.5656203e-06 7.664338e-06 7.990369e-06 8.548056e-06 8.091152e-06 7.948567e-06 8.181235e-06 6.8979584e-06
7.2052e-06 7.246042e-06 7.5439166e-06 7.740353e-06 8.254378e-06 8.422958e-06 8.594687e-06 8.537055e-06
6.72173e-06 7.050172e-06 6.971472e-06 7.1285986e-06 7.815355e-06 8.02433e-06 8.312609e-06 8.844344e-06
8.875916e-06 6.961369e-06 6.9785424e-06 7.2187e-06 7.3419737e-06 7.4131576e-06 7.664951e-06 8.438381e-06
8.845225e-06 9.2169585e-06 0.00015268833 0.00015653617 0.00015877553 0.00015363136 0.00014523065 0.00013776471
0.00013297841 0.00013018893 0.00012907636 0.00015963557 0.00016594006 0.00016726127 0.00015840202 0.00014714587
0.00013757496 0.00013427086 0.00013298774 0.00013236377 0.00016518924 0.0001725883 0.00016982372 0.0001586297
0.00014523693 0.00013583853 0.00013546947 0.00013737561 0.00013740857 0.00016552075 0.00016997992 0.00016561695
0.00015141357 0.00013831534 0.0001347151 0.00013981196 0.00014491394 0.00014470317 0.00016033562 0.00016192303
0.00015320507 0.00013923545 0.00013096609 0.0001347212 0.00014607374 0.00015414786 0.00015269643 0.00015068999
0.00014778272 0.00013788603 0.00012812407 0.0001272583 0.00013627716 0.00015214877 0.00015779515 0.00015588594
0.00013830619 0.00013362119 0.00012650536 0.00012207055 0.00012686361 0.00014093418 0.00015246488 0.00015973
0.00015598863 0.0001287548 0.00012446451 0.00012033553 0.00011986468 0.00012808455 0.00014069496 0.00015111553
0.00015463556 0.00015312327 0.00012363547 0.000121414894 0.000119122764 0.00012059398 0.0001266994 0.00013505862
0.00014510412 0.00014783566 0.00014426625 0.00016346254 0.00015134255 0.00016330897 0.00016482286 0.0001603596
0.00015140139 0.00014853082 0.00015084451 0.00014479284 0.00016037708 0.00015698251 0.00015916354 0.00016632618
00000000: 076f 1237 168a 0d37 43a1 0937 e652 f736
00000010: 9123 ec36 135e df36 70fd e136 114d e936
00000020: bb52 fe36 315d 1937 471f 1637 9b05 1337
00000030: 7828 0237 cd19 ed36 86b6 dd36 f9d4 d536
00000040: a8c4 d936 2309 eb36 1cc2 2837 d82d 2937
00000050: 8951 1e37 a9c9 1137 67eb fb36 b666 db36
00000060: f719 cc36 f9da ca36 3ab4 da36 910f 3037
00000070: e990 3e37 57cb 3937 eb41 2137 5a1c 0937
00000080: 5acc e636 fffc cd36 e686 c436 7212 d436
00000090: 1bfd 4137 bf81 4f37 a10f 5337 12fc 3b37
000000a0: 6a72 1637 c03a f536 c0a1 ce36 93a5 c436
000000b0: 374a cd36 796e 4e37 ca81 5d37 7746 6637
000000c0: 22ba 4737 a79a 2937 538e 0537 a40c e036
000000d0: e75d ce36 687e d536 62c3 4f37 9c54 6737
000000e0: 56fc 6a37 67ec 5737 b4e6 3737 9460 1137
000000f0: 2826 f536 f995 e536 2de1 e336 83cd 4637
00000100: d19f 5937 9f2a 5e37 840c 5237 41f8 3537
00000110: b699 1c37 35e5 0437 3209 fd36 ddf5 f636
00000120: 40e3 3837 9891 4037 9342 4a37 f86a 4937
00000130: 5aa1 3a37 26d7 2537 f9a9 1337 f447 0d37
00000140: 81bf 0637 3431 fc36 fe19 0137 c31f 0237
00000150: cb22 0637 3373 0937 3ede 0137 9a03 f836
00000160: d4fd 0237 592f fe36 e92e ff36 d199 0037
00000170: 897d 0937 be8a 0637 3407 1137 d0f7 0c37
00000180: 8b67 0737 d71a 0337 df86 0437 f04a fd36
00000190: 0a25 0237 82d1 0737 3993 1837 3a24 1a37
000001a0: 723f 0b37 4986 0737 c518 fd36 06e8 ff36
000001b0: 2971 f736 a05c fb36 2134 0137 21c3 1837
000001c0: 9137 1a37 3040 0c37 7157 0437 0d45 0237
000001d0: 2cd0 fc36 011e ec36 a312 f236 3d6a fb36
000001e0: d76b 1037 62fd 1c37 4a9b 1137 da07 0937
000001f0: 322d 0b37 5bff 0037 9fa6 ea36 5e0b ea36
00000200: 2fdc fd36 1596 0037 600e 0637 9f69 0f37
00000210: 3cbf 0737 d65a 0537 2342 0937 0375 e736
00000220: 32c4 f136 0723 f336 c021 fd36 90dc 0137
00000230: 497c 0a37 5450 0d37 e631 1037 5f3a 0f37
00000240: 398b e136 8490 ec36 7dec e936 3232 ef36
00000250: b21e 0337 3ca0 0637 6276 0b37 2b62 1437
00000260: c5e9 1437 b495 e936 3929 ea36 2938 f236
00000270: 135b f636 8abe f836 b798 0037 9292 0d37
00000280: f465 1437 89a2 1a37 f61a 2039 dc23 2439
00000290: fb7c 2639 1b18 2139 0e49 1839 ef74 1039
000002a0: 1f70 0b39 5383 0839 ac58 0739 d963 2739
000002b0: 3200 2e39 db62 2f39 b818 2639 2b4b 1a39
000002c0: ff41 1039 0fcb 0c39 a072 0b39 21cb 0a39
000002d0: a636 2d39 d2f8 3439 b512 3239 d655 2639
000002e0: be4a 1839 e16f 0e39 cf0c 0e39 7c0c 1039
000002f0: 5515 1039 a38f 2d39 a33c 3239 76a9 2d39
00000300: c5c4 1e39 be08 1139 4f42 0d39 7d9a 1239
00000310: 0af4 1739 76bb 1739 c41f 2839 e2c9 2939
00000320: aca5 2039 bbff 1139 f153 0939 f243 0d39
00000330: 5f2b 1939 c0a2 2139 231d 2039 8902 1e39
00000340: 1ff6 1a39 8095 1039 0b59 0639 a470 0539
00000350: 9fe5 0e39 208a 1f39 d075 2539 5075 2339
00000360: 4906 1139 aa1c 0c39 86a6 0439 1000 0039
00000370: b106 0539 bbc7 1339 fbde 1f39 327d 2739
00000380: e190 2339 5a02 0739 b082 0239 a55c fc38
00000390: dc5f fb38 6f4e 0639 8487 1339 c474 1e39
000003a0: ab25 2239 b78f 2039 25a4 0139 20a0 fe38
000003b0: 8cd1 f938 66e7 fc38 9cda 0439 869e 0d39
000003c0: 1727 1839 5504 1b39 2d46 1739 2467 2b39
000003d0: b5b1 1e39 eb3d 2b39 4dd4 2c39 3426 2839
000003e0: 80c1 1e39 f0be 1b39 042c 1e39 88d3 1739
000003f0: e52a 2839 ac9b 2439 23e5 2639 d867 2e39

exp_avg f4 [64]
-0.0014471019 0.0069943867 -0.009559738 0.007912478 0.047562312 -0.010755357 0.0010842545 0.014363963
0.008954009 0.00018871113 0.0013198683 0.009457375 0.0027550692 0.018806338 0.0072716726 0.052230176
-0.011314052 0.049556274 0.005964939 0.038454518 -6e-45 0.027358923 -0.0050544105 0.0048656575
0.015912801 0.006350344 0.0034990183 -0.006437095 0.02422117 0.05539204 0.009715328 0.007979059
0.02511453 0.002024 0.008595401 0.015739987 0.05235773 0.0056951833 0.0031065624 -0.0033938892
0.0058675376 -0.012388754 0.0015195255 0.011461924 0.0023162637 0.0395928 0.03147387 -4.525374e-06
-0.0053076386 0.0005769002 -0.02759038 0.06364766 -0.0043936507 0.0066122035 0.007589944 0.0073248222
-0.0037807594 -0.00072240445 0.008111513 0.0016689113 0.013389296 0.00074911385 0.008426589 0.031288836
00000000: afac bdba 2b31 e53b 73a0 1cbc 57a3 013c
00000010: b3d0 423d 3d37 30bc 8b1d 8e3a d456 6b3c
00000020: d6b3 123c c2e0 4539 6eff ac3a 1bf3 1a3c
00000030: 648e 343b c00f 9a3c 3647 ee3b 4fef 553d
00000040: 935e 39bc 85fb 4a3d 8975 c33b 7c82 1d3d
00000050: 0400 0080 d21f e03c 789f a5bb 1870 9f3b
00000060: 905b 823c 8c16 d03b c94f 653b 44ee d2bb
00000070: 7a6b c63c c4e2 623d 0a2d 1f3c 99ba 023c
00000080: fdbc cd3c 16a5 043b bad3 0c3c 25f1 803c
00000090: 0f75 563d a99e ba3b 7897 4b3b 036c 5ebb
000000a0: 7944 c03b 33fa 4abc d12a c73a cbca 3b3c
000000b0: 75cc 173b 0f2c 223d bfea 003d abd8 97b6
000000c0: b3eb adbb 1e3b 173a 3805 e2bc b459 823d
000000d0: 9df8 8fbb 2fab d83b 11b5 f83b 1005 f03b
000000e0: 9ec6 77bb be5f 3dba 27e6 043c 5fbf da3a
000000f0: c75e 5b3c 2e60 443a ad0f 0a3c b928 003d

exp_avg_sq f4 [64]
8.191145e-05 0.00016786558 0.0011506648 0.0020354835 0.00734124 0.0014382993 0.00066355977 0.0010315949
0.0014996403 1.5793264e-06 0.0003586568 0.00055373897 9.848746e-05 0.0023667437 0.00037301786 0.012831818
0.002130847 0.016164472 0.00031905665 0.0092281075 3.164e-42 0.0042871134 0.001198088 0.00040116473
0.002013326 0.0003422216 0.00092069514 0.0007631059 0.002879556 0.0130670965 0.0006612336 0.0006481221
0.004304871 0.00041137225 0.0002198447 0.0016034781 0.011389643 0.00019116307 0.00043175774 0.00023695137
0.00095964555 0.0019979833 8.396535e-05 0.0015864692 0.00010366605 0.008598256 0.0063994997 0.00043060342
0.00078935036 2.2605154e-05 0.012189504 0.018847052 0.00010509684 0.00046228606 0.00015111163 0.0004206765
0.00030678543 0.00033562622 0.0004650823 3.993939e-05 0.0010749378 2.7468232e-05 0.0007391846 0.0036595385
00000000: e0c7 ab38 1305 3039 e7d1 963a bf65 053b
00000010: c98e f03b 5185 bc3a bef2 2d3a 9536 873a
00000020: 948f c43a 3ef9 d335 1a0a bc39 cb28 113a
00000030: 0d8b ce38 5f1b 1b3b 9c91 c339 8c3c 523c
00000040: aea5 0b3b 5b6b 843c 0f47 a739 7d31 173c
00000050: d208 0000 ea7a 8c3b 2a09 9d3a 6b53 d239
00000060: 01f2 033b 356c b339 ce5a 713a 2c0b 483a
00000070: efb6 3c3b 6017 563c a356 2d3a bde6 293a
00000080: e00f 8d3b 73ad d739 1d86 6639 cc2b d23a
00000090: a09b 3a3c f272 4839 8b5d e239 2676 7839
000000a0: b990 7b3a 99f0 023b 8e16 b038 13f1 cf3a
000000b0: 4967 d938 b3df 0c3c e5b2 d13b 9dc2 e139
000000c0: 68ec 4e3a 33a0 bd37 7cb6 473c 2265 9a3c
000000d0: 7067 dc38 fc5e f239 b873 1e39 3e8e dc39
000000e0: 0bd8 a039 fdf6 af39 4ad6 f339 9884 2738
000000f0: ede4 8c3a 946b e637 d7c5 413a ded4 6f3b

exp_avg f4 [32, 64, 5, 5]
0.00030409585 0.00025777242 0.00023369242 0.00019719654 0.00017679518 0.0003091907 0.00026487236 0.00023008145
0.00020163246 0.00018841938 0.00026972964 0.00022630484 0.00021428429 0.00021018735 0.0002047658 0.0002611175
0.0002417805 0.00024204285 0.00023941952 0.00025341607 0.00027947867 0.00026020198 0.00026995465 0.00027007566
0.00028746386 6.606973e-06 7.929117e-06 7.86535e-06 4.9464734e-06 3.921687e-06 8.347145e-06 8.439875e-06
8.10937e-06 8.725957e-06 4.4147764e-06 8.058994e-06 8.206071e-06 9.314894e-06 1.0317383e-05 8.005212e-06
8.976825e-06 1.0717215e-05 8.756119e-06 6.4319424e-06 6.0564416e-06 1.0999057e-05 1.1706614e-05 9.928018e-06
6.0260236e-06 6.1704454e-06 0.0004903247 0.0005497009 0.00059280195 0.00060672354 0.0006074853 0.0005459122
0.0005969171 0.0006245556 0.0006262715 0.00061205303 0.00055230485 0.0006169116 0.0006296663 0.00061165553
0.0005949441 0.0005593542 0.0006022615 0.00059440784 0.00059286604 0.0005672766 0.0005541286 0.0005581967
0.0005518105 0.0005304124 0.0004962688 2.3691298e-05 2.5759191e-05 3.4385354e-05 4.3204327e-05 4.6497367e-05
2.8364082e-05 2.6305972e-05 3.884895e-05 5.085006e-05 5.2596e-05 2.638961e-05 3.52206e-05 5.1458e-05
6.0267925e-05 5.8686146e-05 3.3909506e-05 4.7939713e-05 5.986621e-05 5.938782e-05 4.833499e-05 3.5638186e-05
4.5655666e-05 4.457725e-05 4.4599954e-05 3.632621e-05 5.1426676e-05 4.9413575e-05 4.5445104e-05 4.0747498e-05
3.428915e-05 5.205407e-05 4.796401e-05 4.1411167e-05 3.729103e-05 2.9137014e-05 4.5032935e-05 4.2841082e-05
3.8661354e-05 3.3370314e-05 3.1161013e-05 4.249017e-05 4.3499218e-05 4.074176e-05 3.6997466e-05 3.884204e-05
3.5514007e-05 3.794445e-05 3.2032585e-05 2.9689108e-05 3.7386628e-05 0.0003837238 0.00040199351 0.00042137265
0.00044272802 0.00044542135 0.000456107 0.0004883298 0.0005027629 0.0005170669 0.0005237676 0.00048938487
0.0005216542 0.0005497615 0.00056388736 0.0005586866 0.00051377725 0.00053863856 0.0005557845 0.00055335247
0.00054210017 0.00047988194 0.0005076618 0.00049814815 0.0005060506 0.00049878604 4.4368775e-05 5.288675e-05
5.6154095e-05 5.4585587e-05 4.895331e-05 4.3881733e-05 5.3808308e-05 5.9239348e-05 5.0505725e-05 4.8388716e-05
4.1573792e-05 5.169549e-05 5.3258475e-05 5.1688472e-05 4.598181e-05 3.318886e-05 4.2988133e-05 4.4072996e-05
4.6821784e-05 4.708101e-05 3.4175006e-05 4.3220552e-05 4.2387313e-05 4.399772e-05 4.3207026e-05 2.5804798e-05
2.5332949e-05 2.4968229e-05 2.4013954e-05 2.3734792e-05 2.397723e-05 2.1600035e-05 2.5439973e-05 2.5207917e-05
2.8306615e-05 1.8442506e-05 2.2202745e-05 1.954529e-05 2.1021895e-05 2.3864544e-05 1.5070805e-05 1.6939402e-05
1.459837e-05 1.2256358e-05 1.37642755e-05 7.330199e-06 7.664623e-06 8.455037e-06 3.943009e-06 2.8053632e-06
4.1103476e-06 6.1636374e-06 9.683323e-06 1.37738525e-05 1.6298452e-05 -1.5777094e-06 1.9623687e-06 3.3761378e-06
5.5696555e-06 9.023762e-06 -5.5133182e-06 -5.011361e-06 -3.683898e-06 5.5637594e-07 4.8112443e-06 -6.901458e-07
4.0729993e-09 -2.7231856e-06 -1.1669432e-06 -2.9966222e-06 1.3316076e-06 1.5994478e-06 8.035053e-07 -3.1775735e-06
-2.3430814e-06 2.0463315e-07 7.137023e-07 4.978394e-07 7.2561264e-08 1.5643967e-07 7.2007964e-07 4.7083722e-07
3.6875318e-07 -1.6312374e-08 -9.6550224e-08 1.6271864e-07 1.2496099e-07 5.292254e-08 -1.431297e-08 -1.4702246e-07
2.1777216e-08 -1.2868061e-07 -1.0366842e-07 -1.0412539e-07 -5.3092442e-08 -6.677101e-08 -2.9138253e-08 -3.9929823e-08
-9.50518e-08 1.7136112e-07 4.6757842e-07 -2.1842104e-06 -5.7139755e-06 -4.4232943e-06 -2.3347957e-06 1.1037373e-06
00000000: 0e6f 9f39 a125 8739 550b 7539 8bc6 4e39
00000010: 1862 3939 e01a a239 91de 8a39 0542 7139
00000020: 4d6d 5339 7192 4539 806a 8d39 3e4c 6d39
00000030: 80b1 6039 bd65 5c39 67b6 5639 99e6 8839
00000040: 7586 7d39 e2cc 7d39 b00c 7b39 eedc 8439
00000050: fe86 9239 b86b 8839 b388 8d39 f198 8d39
00000060: bfb6 9639 77b1 dd36 4c07 0537 6cf5 0337
00000070: e2f9 a536 0997 8336 b70a 0c37 fd98 0d37
00000080: 7b0d 0837 b365 1237 a422 9436 1e35 0737
00000090: ceac 0937 2a47 1c37 d318 2d37 204e 0637
000000a0: 2b9b 1637 17ce 3337 3fe7 1237 f7d1 d736
000000b0: 7038 cb36 9788 3837 8667 4437 8390 2637
000000c0: 2633 ca36 b90b cf36 2289 003a ce19 103a
000000d0: 4466 1b3a 870c 1f3a a63f 1f3a 8c1b 0f3a
000000e0: 6e7a 1c3a 38b9 233a 5e2c 243a 2f72 203a
000000f0: 8dc8 103a 3db8 213a 3110 253a 8257 203a
00000100: 06f6 1b3a a0a1 123a 16e1 1d3a 09d2 1b3a
00000110: 916a 1b3a 4ab5 143a f142 113a f253 123a
00000120: 60a7 103a 600b 0b3a 0918 023a adbc c637
00000130: 7115 d837 fe38 1038 4b36 3538 2b06 4338
00000140: 67ef ed37 a5ab dc37 bef1 2238 d647 5538
00000150: 869a 5c38 425f dd37 d5b9 1338 9bd4 5738
00000160: 31c8 7c38 c525 7638 0e3a 0e38 e012 4938
00000170: db18 7b38 3017 7938 4dbb 4a38 367a 1538
00000180: 667e 3f38 75f8 3a38 d610 3b38 f95c 1838
00000190: f9b2 5738 6c41 4f38 4f9c 3e38 4be8 2a38
000001a0: b2d1 0f38 a254 5a38 f72c 4938 e7b0 2d38
000001b0: f068 1c38 436b f437 bfe1 3c38 43b0 3338
000001c0: 5028 2238 1af7 0b38 e2b2 0238 7937 3238
000001d0: ee72 3638 22e2 2a38 ba2d 1b38 53ea 2238
000001e0: e0f4 1438 8b26 1f38 ba5a 0638 e00c f937
000001f0: 96cf 1c38 892e c939 a8c2 d239 aeeb dc39
00000200: f31d e839 7187 e939 a521 ef39 4203 003a
00000210: d9cb 033a c68b 073a 734d 093a 104a 003a
00000220: 9fbf 083a df1d 103a d7d1 133a d374 123a
00000230: 02af 063a 6c33 0d3a 11b2 113a db0e 113a
00000240: ba1b 0e3a aa98 fb39 9b14 053a 2896 023a
00000250: 7ba8 043a f7c0 023a 9c18 3a38 b7d2 5d38
00000260: 0087 6b38 d4f2 6438 3753 4d38 a70d 3838
00000270: 3bb0 6138 c477 7838 1cd6 5338 fdf4 4a38
00000280: 855f 2e38 9cd3 5838 da61 5f38 13cc 5838
00000290: 98dc 4038 4434 0b38 284e 3438 05db 3838
000002a0: 8262 4438 d978 4538 2257 0f38 b747 3538
000002b0: 08c9 3138 318a 3838 3139 3538 6277 d837
000002c0: 1882 d437 dd72 d137 9371 c937 141a c737
000002d0: b622 c937 b931 b537 ed67 d537 9775 d337
000002e0: fe73 ed37 fbb4 9a37 0840 ba37 31f5 a337
000002f0: 2d58 b037 b830 c837 9dd8 7c37 1719 8e37
00000300: 86eb 7437 a8a0 4d37 1ded 6637 eef5 f536
00000310: 4e97 0037 1bda 0d37 304e 8436 c643 3c36
00000320: 9eeb 8936 3ed1 ce36 8e75 2237 3f16 6737
00000330: a9b8 8837 afc1 d3b5 3db1 0336 9b91 6236
00000340: fae2 ba36 c364 1737 0bff b8b6 4327 a8b6
00000350: e338 77b6 dd59 1535 4670 a136 7542 39b5
00000360: 7bf2 8b31 f9bf 36b6 dd9f 9cb5 9419 49b6
00000370: b0b9 b235 9cac d635 77b0 5735 4c3e 55b6
00000380: d53d 1db6 22b9 5b34 4095 3f35 43a3 0535
00000390: fad2 9b33 cff9 2734 7f4b 4135 60c7 fc34
000003a0: 0df9 c534 4a1f 8cb2 0c57 cfb3 c2b7 2e34
000003b0: 042d 0634 f34c 6333 1ce5 75b2 3add 1db4
000003c0: 9b10 bb32 752b 0ab4 51a0 deb3 8a9b dfb3
000003d0: c207 64b3 c063 8fb3 b24b fab2 4e7f 2bb3
000003e0: 481f ccb3 63ff 3734 7d07 fb34 7394 12b6
000003f0: adba bfb6 cf6b 94b6 7caf 1cb6 2024 9435
