logs/biosr_ccps_rcan_model-SRCNN_250305_lr0.0001_bs1_Ps256_Npatch128_N300/model_019.pth (torch, 695046 bytes, 15 tensors)

conv1.weight f4 [64, 1, 9, 9]
00000000: 79fc ab3d 5302 dbbc de45 af3d 1f16 a4bc
00000010: 990b 483d f8c7 23bd 7644 073e ba1d 9ebc
00000020: 21cf 413e 173d d9bc 56c0 bebd 0622 503d
00000030: 641b 41bd 7249 173d 8453 3c3d e07d 063d
00000040: 60ad a03d c6cd cc3d e5a3 b23d 6239 243d
00000050: f701 c4bd 2ced 8bbc 58d7 47bd 9611 c0bd
00000060: 95f7 88bd 21cb 90bd f353 433d 933e d1bd
00000070: 8f1d 10bd 904a c33c 6eb0 9cbd 6e4e cbbd
00000080: 6fc3 3f3b 6d1b eebc 4436 2dbd 0ee8 8d3d
00000090: e051 96bd 9daf 83bd 84d3 e0bb b0af 233d
000000a0: 1146 0bbd 1e9c 943d 907b 593d 7e23 863d
000000b0: 0a33 9a3c 58fe 12bd 67fb c9bd e8b6 adbb
000000c0: 3007 c9bd b03c b13c 0194 ce3c 3d33 c73c
000000d0: 877b 5f3d 4ddb f83d 90ea 59bd 7f19 f9bc
000000e0: dff7 4cbc f56f f03c 685a 993d 5b57 713d
000000f0: 3f1a 3ebd 64a9 d73d 83a7 963b af88 263d
00000100: 998f 0e3d e153 36b9 c359 5abd b524 5dbd
00000110: ed56 053c 212a 8abd 72d7 bebc 6f5c 8fbd
00000120: 634a 3f3d c529 c6bc da8e a83c fd3e 603d
00000130: 451f 51bd 8b30 31bc f0a7 b1bd e31e abbb
00000140: bb39 8fbd 6f5f 42bd 2d05 39bb c696 f6bc
00000150: 0323 b93b 2e0a 953d 5c10 06bd d9db fabd
00000160: f1d5 703d 3a44 90bc 37f2 a43c 2632 8ebc
00000170: fab2 683d 8ae9 d2bd 5ffd 903d 76b8 993d
00000180: 19dd 973d c711 133d cd87 ba3d 9a0c 0f3d
00000190: 2f4f a13c ea98 b7bc 5c38 aa3d eb55 983d
000001a0: 073c 4ebd be9a 443c 7c0a c0bd e611 c3bc
000001b0: 6bde d63c 28ad 66bc cb4e f5bd a2e9 a43d
000001c0: fcc0 f23c a5fe bbbd b459 d7bd ebb5 38bd
000001d0: d208 bdbd f14c 80bd 0e7e 74bd aac9 d0bd
000001e0: c39c 443d bd72 ed3d a646 9d3b 1c3c 21bd
000001f0: baf3 b03d a4a0 d2bd d656 0abd 4aec c2bd
00000200: dd85 083d 72e4 b0bd 9d1e bcbd b6cd 413d
00000210: 0984 85bd 117c c1bd 8345 483b f964 50bd
00000220: 04bb 883d e26c e73b 6e85 073c a153 28bd
00000230: 593f 703d b503 8c3d 569e a73d 90ff 123c
00000240: 2589 f5bd 0cfc 193c 7378 97bd f8f7 c6bd
00000250: 957d 923d 63dc 1f3d dbed e73c f530 d93d
00000260: a5d4 cf3c ae7d 96bc abd5 f8bc a6af 3f3d
00000270: c606 7c3c fdb6 88bd 646a d2bd f192 7c3d
00000280: 8db8 893d 7126 ed3d 3b02 713d 4e97 fa3d
00000290: 5cc8 54bd 1024 7b3d c489 173d 458d e43c
000002a0: 98dc 9dbd 5e89 85bd 49b6 453d a7d3 db3d
000002b0: ca94 933d e1b7 00bd d5d3 f43d b13a 6b3d
000002c0: 7714 973c c3f2 ab3c 65e4 b73d fb67 9d3d
000002d0: b777 a53d 3dd7 57bd 0066 bf3d ad2c cb3d
000002e0: 08c6 a336 6755 763d b5c1 93bd 892c ddbd
000002f0: 6b95 a9bd 2592 f03d 6efc dd3d 61c9 b13c
00000300: 7072 c73d 2408 ad3d 69a8 2fbd 8d91 b43c
00000310: d169 7cbd b041 01be f1ea db3d 1522 25bd
00000320: 9c16 00bd ba81 b13c 0e93 8f3d 47b0 a23d
00000330: b331 03bd 25c4 6e3b 2d1f 99bb ad84 21bd
00000340: 2a99 51bc 9bac b23c 4508 9fbd 5c2e 553d
00000350: c30b e0bd 2918 bc3c 3a51 e6bd 521f 0bbe
00000360: 2088 de3c e3d3 ca3c f3c9 2cbd ec29 853d
00000370: e8d2 b93d aeb0 0e3c 0683 dfbd 0fd2 eebd
00000380: 19e4 22be f8ec e73b 0e83 d93d 6d80 5f3c
00000390: b28f c8bd 2a18 8f3d bc49 e03c 23de a6bd
000003a0: 8028 1bbe e525 ad3c b954 e23d 6839 a63c
000003b0: 5a8c 15bd 6f4c d7bc 5689 38bd 97b9 ecbd
000003c0: c8d7 c13b 64ae c1bd 3037 01be e12d dc3d
000003d0: 297e b1bd b4fa c53d fc10 f13d cef5 953d
000003e0: 6eac 0cbd cf86 3abd f3c5 d73c 9a00 9abd
000003f0: 0198 4f3d 9e76 babb 06d9 eb3b ed94 e93d
0.08397765 -0.026734507 0.08558248 -0.02003008 0.048839185 -0.039985627 0.1320971 -0.019301284
0.1892667 -0.026518388 -0.09314029 0.050813697 -0.047145262 0.036935277 0.045978084 0.032834888
0.07845569 0.10000186 0.08722667 0.040093787 -0.09570687 -0.017080866 -0.048789352 -0.09378354
-0.066878475 -0.07069994 0.047687482 -0.10217013 -0.03518444 0.023839265 -0.07650839 -0.09927069
0.0029260775 -0.029065812 -0.04228808 0.069290265 -0.07339835 -0.0642998 -0.006861152 0.03996247
-0.034002367 0.072563395 0.053096354 0.06549738 0.018823165 -0.035887092 -0.09862404 -0.005301345
-0.09815824 0.021635383 0.025217058 0.024316425 0.054561164 0.12151203 -0.05320221 -0.030407665
-0.012510269 0.02935026 0.07487947 0.0589212 -0.04641175 0.105303556 0.0045976057 0.040657695
0.034804914 -0.0001738812 -0.05330826 -0.053990085 0.0081384005 -0.06746317 -0.023296092 -0.07000052
0.0467018 -0.02418984 0.02057593 0.05474757 -0.05105521 -0.010814796 -0.0867461 -0.005222188
-0.06993433 -0.047454294 -0.0028231845 -0.030101191 0.0056499257 0.07277332 -0.032730445 -0.12248964
0.05879778 -0.017610658 0.020135028 -0.017357897 0.05681131 -0.1029845 0.07079577 0.07505886
0.07415218 0.035905626 0.09107933 0.034924127 0.019691078 -0.022411782 0.08311531 0.074382626
-0.050350215 0.011999784 -0.09377 -0.023812246 0.026229104 -0.01407937 -0.11977919 0.080523744
0.029633038 -0.09179429 -0.105151564 -0.045095365 -0.09230198 -0.062646754 -0.059690528 -0.10194714
0.048001062 0.1159415 0.0047996817 -0.039363965 0.08640237 -0.10284546 -0.03377422 -0.09517725
0.033330787 -0.086373225 -0.091855265 0.047315322 -0.06519324 -0.09447492 0.003055901 -0.050877545
0.066762954 0.0070625404 0.008271558 -0.04109538 0.058654163 0.068366446 0.08184497 0.008972064
-0.11989049 0.009398472 -0.07396021 -0.09715265 0.07152859 0.039028537 0.02831166 0.10605041
0.025369952 -0.018370476 -0.030375322 0.04679837 0.015382474 -0.06675527 -0.10274199 0.06166357
0.067246534 0.11579598 0.058840018 0.1223589 -0.05194889 0.06131369 0.036996618 0.027899394
-0.077080905 -0.06520341 0.048269544 0.10733729 0.07206114 -0.03142536 0.11954466 0.05742902
0.018442376 0.020989781 0.0897911 0.07685848 0.080794744 -0.0526955 0.09345627 0.099206306
4.8808324e-06 0.06014004 -0.07214681 -0.1079951 -0.08280452 0.11746625 0.10839163 0.02170247
0.09738624 0.08448818 -0.042885218 0.02204206 -0.061624352 -0.12622714 0.10738171 -0.040315706
-0.031271562 0.021668304 0.0701047 0.079437785 -0.03202982 0.003643283 -0.004672906 -0.03943317
-0.012792865 0.02181082 -0.07765249 0.052046165 -0.10939743 0.02296074 -0.112459615 -0.13586167
0.027164519 0.024759239 -0.04218478 0.065021366 0.0907343 0.008709116 -0.109136626 -0.11661159
-0.15907325 0.0070778094 0.106207 0.013641459 -0.09793033 0.06987031 0.02737891 -0.08147838
-0.15152168 0.021136234 0.11051316 0.020291045 -0.036510803 -0.026281564 -0.04505285 -0.11558836
0.0059156157 -0.094570905 -0.12618709 0.10750938 -0.08666641 0.096669585 0.11770818 0.07322274
-0.03434413 -0.04553872 0.026339507 -0.07519646 0.05068207 -0.00569041 0.007197502 0.114053585

conv1.bias f4 [64]
00000000: f5e2 b13c 7372 5c3d 7f62 a33c 22a2 7d3b
00000010: 6503 d3bd de3c 9c3d 6a96 b33d e4f1 99bd
00000020: 96f1 0cbd b972 ab3c 7c07 03bd c4e3 9abc
00000030: 0a8a cbbd 634b 93bc efd1 a0bd efbd 85bd
00000040: 8d77 b83d f5a3 c5bc ec05 8fbb 0cde aabc
00000050: 0ab7 13bd 2ab6 d2bd 0de4 e4bd b3da acbc
00000060: b3fa a5bc 83f7 8d3c 7621 d3bc 6c38 99bd
00000070: 1d65 99bd 205c 7dbd 67d7 07bd 0714 9ebc
00000080: 3173 a3bd fb95 9bbd 3561 883d 1e2e 87bb
00000090: 7d73 94bd 11de 513d 1834 ecbc 5dd6 183e
000000a0: c18b 573d de81 793d 43b4 a0bc 1979 afbc
000000b0: 4fc8 1c3d 6a02 f7bd 1093 3abc 4663 1abd
000000c0: 0bf6 c13c f287 e8bc a6fc d73d 8eb3 80bd
000000d0: 7ee9 4c3c 8bef 0dbb cc44 8e3d 526e 73bd
000000e0: d56e 1f3d 1d3b a3bd bdc0 213c 13a0 5f3c
000000f0: 43ef 81bc b05b 1a3b f4b2 613d 074d acbd
0.021714667 0.053820085 0.019944428 0.0038701375 -0.10303382 0.07628797 0.087689236 -0.0751684
-0.03441008 0.020928727 -0.03198956 -0.018907435 -0.09938438 -0.017980283 -0.07852542 -0.065303676
0.090071775 -0.024126032 -0.0043647196 -0.020857833 -0.03606323 -0.10288651 -0.1117631 -0.021100378
-0.020261144 0.017329937 -0.025772791 -0.07481465 -0.07489989 -0.061855435 -0.033164408 -0.01929666
-0.079809554 -0.07596966 0.06659166 -0.0041253706 -0.0724859 0.05123717 -0.028833434 0.14925523
0.052623514 0.060914867 -0.019617205 -0.021420049 0.038276967 -0.12061007 -0.0113876015 -0.03769233
0.023676893 -0.028385136 0.10546236 -0.06284247 0.012506841 -0.0021657671 0.06946716 -0.05943138
0.038924057 -0.07970259 0.009872613 0.0136490045 -0.01586116 0.0023553185 0.055102304 -0.08413129

conv2.weight f4 [32, 64, 5, 5]
00000000: 4e24 9fbc 4fab 1bbd 8e70 573c e623 58bc
00000010: 23c5 e03c 227f 073c 6fee 14bc 561c da3c
00000020: b651 eabb 1937 183c 025d 45bb 0f08 18bc
00000030: 06c6 2abc 744c b0bc 88d8 8b3a 6783 38bd
00000040: 9ae7 b8bc 7994 13bd 15f4 fbbc a1fa e039
00000050: d9b3 d73b 4f4a 9e3c 7dce ac3c 6370 1e3d
00000060: cecc 463d 53b3 fabd 9042 afbc 4009 703d
00000070: c688 593c 9dda 47bc 2229 aebb aef2 3dbd
00000080: d7ae 6c3d 23cc 333d 0b9a be3b 1581 54bd
00000090: 7d53 9cbd 6dd6 063c 0f02 0dbc 5688 8fbb
000000a0: a00f a0bd 7307 87bd db95 3bbc 2254 68bc
000000b0: ccc4 2cbc 75de 26bd 2cec 21bc 5f68 d43b
000000c0: 28ec 38bc 02f5 06bd 2ac5 823c f37a 043c
000000d0: eabf b53c d79b eb3c aa06 673c 8da5 eebc
000000e0: 216b 5dbc 37d5 85bc 705b 74bc d6f2 253c
000000f0: ddb5 f7bc 2700 4fb9 e539 10bc a7ef 2c3c
00000100: 609e 433c a8e6 2bbd 31b5 04bb 4062 fabc
00000110: 2429 193d 6c5e 883d 02b9 9eba 8917 673c
00000120: 53ec bb3c 5094 5c3d c685 243e e05a aa3c
00000130: 94f9 ebbc 8f43 82bb 04a2 aebb c354 ef3c
00000140: 2b2a dd3b b445 8a39 2356 14bd bcf6 0dbc
00000150: 34e1 513c 298d 41bc 4e46 0f3c 40d0 a23b
00000160: 2be3 d93c 7699 773c f170 57bb 953c 0fbd
00000170: 8ddf 2cbc feee 05bc 1648 f8bc 67fa fcbc
00000180: 0328 37bd dfb2 66bd fdc5 03be bcb0 37be
00000190: 959b d739 d525 463c 244c 103c 9948 44bc
000001a0: 2353 21bd 1872 9f3c 6f86 0d3c eb9f 52bb
000001b0: f43a 073c 6c21 3abd d9a3 013d 92cf c43c
000001c0: 9e3e 853b c49c 64ba 665a 06bd ef60 0fbc
000001d0: 9a6e 393c 8c1b 51bd 23a0 16bd 4575 d2bc
000001e0: 29f8 3e3d 418a ee3b cf0c ec3c 58a3 2e3d
000001f0: 005e 863d 987d b03b fb00 2e3c 303a 70ba
00000200: bca2 8f3c d8bd 9abc aa25 6c3b d317 053c
00000210: c3a6 9cbb 82e4 fa3b 12b7 01bd 6ac5 debc
00000220: a5c1 c9bc db7c ddbc 994e 04bd 3c30 ebbc
00000230: fec1 b53b a35f d1bb 28c0 673b 2edb 903c
00000240: fb85 493a 474a 333c 3e4d 003d 76f9 963c
00000250: 3949 f33c 0380 703c 1b2e dd3a 8f69 103d
00000260: fbbf 653d b213 abbc 2100 67bd d923 abbb
00000270: 2ad9 0f3b 961c 8bbc a41b 6ebd 43d6 febc
00000280: f53f 1e3c 486b b9bb 50b4 00bc 0b26 50bd
00000290: 33aa 6b3b 44d7 4e3d a635 9a3c 4dce 5bbd
000002a0: 39e8 043c 6ec6 763c c2a9 323d 0c28 273d
000002b0: 1d8c 24bd 065a ab3c 73ae a83d 51f0 85bc
000002c0: d467 d0bc 43c4 093c 279f aebc 6478 13bd
000002d0: 3b97 01bd 5222 2f3c 8ab6 6c3c 587b fabc
000002e0: 3bbd 583c 0279 18bb a604 f23c c41f 6a3b
000002f0: 1e35 9abc b825 a8bc 0194 823c 2b89 41bc
00000300: e0c2 b0bc 4bdb ccba e964 bf3c 664f cf3b
00000310: 4ed5 2dbc 0d17 81bc 715b b23c 497b 9f3d
00000320: b2dd ff3c c285 62bd 682c 1ebd 3738 02bd
00000330: ab61 4bbd 9cb2 18bc 260d f1bc 5a7b 49bd
00000340: 1ae0 2dbc 5b70 843c 01d6 a0bd 9560 2ebd
00000350: 2702 9ebd 8bb3 3fbd 5dd4 c83d dbff 01be
00000360: 6fb1 c7bd 5867 b3bd 5285 3dbd 0a26 be3d
00000370: a7e4 0ebd c820 56bd f2ec 4fbd 2af1 4e3d
00000380: f850 163e 0f7d 633c 03ed 503c 8eaf 973c
00000390: 53b7 d0bb 8af4 613c fcf2 583d 17f0 893c
000003a0: 6b8e a9bb 0a4a 9bbc 0786 133d c345 eabc
000003b0: 988a 9fbc 1887 56bd 9a0e 51bd d279 ba3c
000003c0: cfd3 73bd 3628 5dbd a493 f9bc 63e8 86bb
000003d0: 82d0 2e3d e510 14bd e67d 8abc b44d e1bc
000003e0: 8314 303e 0ed4 963d 7a29 8d3d 49d3 f5bc
000003f0: 84ab 78bd 9792 a0bd f0f4 00be f17e 743d
-0.019426491 -0.03800517 0.013149394 -0.013192153 0.027437752 0.008270057 -0.00909005 0.02662484
-0.007150854 0.00929048 -0.0030115251 -0.009279265 -0.010423189 -0.02152083 0.001066939 -0.04504719
-0.022571374 -0.036030266 -0.030756036 0.00042911342 0.006582719 0.019322542 0.021094555 0.0386814
0.04853516 -0.12241235 -0.021394044 0.05860257 0.013277238 -0.012198118 -0.005314962 -0.046374016
0.057783928 0.04389585 0.005816703 -0.051880915 -0.076331116 0.008229834 -0.008606448 -0.004380266
-0.0781548 -0.06593218 -0.011449303 -0.014180215 -0.010544967 -0.040739495 -0.009882968 0.0064821686
-0.011286773 -0.0329485 0.015963156 0.008085954 0.022186238 0.028760834 0.01410071 -0.029131675
-0.013514311 -0.01633702 -0.0149143785 0.010128697 -0.030238086 -0.00019741115 -0.008802866 0.010555184
0.011939615 -0.041968018 -0.00202496 -0.030564427 0.03739275 0.066586345 -0.001210958 0.014104732
0.022939837 0.05385238 0.16066656 0.020795286 -0.028805532 -0.003975339 -0.0053293724 0.029215222
0.0067494116 0.00026373344 -0.03621496 -0.008664783 0.01281004 -0.01181344 0.008744789 0.004968673
0.02659758 0.0151122715 -0.0032873715 -0.034969885 -0.010551346 -0.008174656 -0.03030781 -0.03088112
-0.044715893 -0.05632293 -0.12868495 -0.17938513 0.00041123913 0.012093981 0.008807216 -0.011980199
-0.039385926 0.019463584 0.0086380085 -0.0032138776 0.008253802 -0.04544203 0.031650398 0.024024758
0.0040663024 -0.00087208697 -0.032801054 -0.008751138 0.011317873 -0.05105166 -0.036773812 -0.025690684
0.046623383 0.0072796647 0.028814701 0.042636245 0.06560898 0.0053860657 0.010620351 -0.0009163944
0.017533652 -0.018889353 0.0036033192 0.008123356 -0.0047806217 0.007656635 -0.03166873 -0.027193744
-0.02462847 -0.027037075 -0.03230152 -0.028709523 0.0055468073 -0.0063895746 0.0035362337 0.017682638
0.0007687506 0.010943002 0.031323664 0.0184295 0.029698001 0.014678958 0.0016874702 0.03525692
0.05609129 -0.020883415 -0.056396607 -0.0052227792 0.0021949508 -0.016981404 -0.05813183 -0.031108027
0.009658803 -0.005658541 -0.00785549 -0.05081753 0.00359596 0.050498262 0.01882441 -0.05366354
0.008112007 0.015061958 0.043618925 0.040809676 -0.040172685 0.02091695 0.082363985 -0.016349943
-0.025440134 0.008408609 -0.021316124 -0.036003485 -0.031638365 0.010689335 0.014447818 -0.030576393
0.01322871 -0.0023265486 0.029543232 0.00357245 -0.018824156 -0.020525798 0.015939714 -0.011812489
-0.021577299 -0.0015629319 0.023363547 0.0063266037 -0.010609938 -0.015758062 0.021772118 0.07787187
0.031233642 -0.055303343 -0.038616568 -0.031791892 -0.04965369 -0.009319928 -0.029425215 -0.049189903
-0.010612512 0.016166857 -0.07853318 -0.042572577 -0.07715254 -0.046802085 0.0980613 -0.12695257
-0.0975064 -0.08759946 -0.046269722 0.09284599 -0.03488603 -0.052277356 -0.050763078 0.05052296
0.14679325 0.013884797 0.0127518205 0.018516328 -0.00636951 0.013791213 0.052966103 0.016838117
-0.0051744482 -0.018956203 0.03601649 -0.028597718 -0.019475266 -0.05237493 -0.051039316 0.022763167
-0.05952817 -0.053993426 -0.030465908 -0.004117058 0.042679317 -0.036148924 -0.016905736 -0.027502872
0.17195325 0.07364665 0.06892677 -0.030007975 -0.060710445 -0.0784046 -0.12593436 0.059691373

conv2.bias f4 [32]
00000000: 01db ce3b 0774 05bd 89e2 473c 6337 abbc
00000010: 569e 6f3c 350c 92bc f208 b4bc fd32 9b3c
00000020: c11d 46bc 1fd0 95bc cc11 c1bc 2f45 783c
00000030: 1362 43bc b1de 7bbc 0b2f 7e3c ab6d e5bc
00000040: 4b14 cabc ea27 7bbc dc4e 473b 0365 73bd
00000050: 63a2 483d 6849 f5bb d64c 38bc a30e 883b
00000060: 8ab9 8ebc 4fc4 1ebc fd7e 96bc 2363 983c
00000070: dc81 e2bc d16b 7c3b b47d a73c 0783 d3bc
0.0063127284 -0.032581355 0.012200006 -0.020900434 0.014625153 -0.017828086 -0.021976922 0.018945212
-0.012092055 -0.018287716 -0.023568057 0.015153213 -0.011925238 -0.015372918 0.015514146 -0.028006395
-0.02466788 -0.0153293405 0.0030411994 -0.059422504 0.04898299 -0.0074855573 -0.011248788 0.0041521355
-0.017422456 -0.009690358 -0.0183711 0.01860196 -0.027649812 0.0038516412 0.020445682 -0.025819315

conv3.weight f4 [1, 32, 5, 5]
00000000: 20aa 40bd bbb1 53bc de2a 9cbc 1d09 dcbc
00000010: 4511 d43b 97f5 f23b 1bcf e1bc 345f 59bd
00000020: b497 11bc fcef 943c 5ea5 9d3c 4403 41bd
00000030: c92d 34bd 2ad8 60ba 9d80 043c d5fa e4bb
00000040: 7a2e c2bc 8c83 eabc 4ea5 41bc 24bd 913c
00000050: 9bca 7f3d bd34 5c3d 6633 423d 549f 1d3d
00000060: fc56 eb3d 5325 26bd d9b7 d3bc fc78 2dbd
00000070: f3f5 edbb 9270 a7ba 0963 24bd 0ef7 53bd
00000080: 0dbc b4bc 5c27 52bc 6e01 01bd 51bb 00bd
00000090: 57f3 4cbc 1d15 21bd 50ce d4bc 3d8c 64bc
000000a0: b5ff 1fbd f90c 543c 8dac 19bd ef84 47bc
000000b0: 41f6 b3bc ec9a 94bb cb1a 67bd 077a 81bc
000000c0: 2af8 dbbc c417 af3a c674 153d 22ce 73bc
000000d0: dbea d33b 209d 073d 4ed7 0c3d 35f6 0cbc
000000e0: 5a78 8d3c 0686 a5bc 4792 64bc 4f36 d9bc
000000f0: 2b0d 553c 3dbb ecbc 80e4 84bc ca9f 6dbc
00000100: 7267 9a3b 49e4 ae3b 252b debb c432 dfbc
00000110: d7c8 a1bb cb03 8e3c 1dcf 4e3c f3a6 8cbc
00000120: 964c b5bb d63f 03bd 2cab 9b3c df39 06bd
00000130: 4bb6 a6bc 12a4 60bd f003 4cbd d60a d4bc
00000140: 8b61 61bc abdd d83c cce3 b83c 586f 62bc
00000150: e1df e43c 131e 03bc db1f 8ebc 3e9e 8e3c
00000160: 113e a9bb a8f6 093d 7144 163c 6271 623c
00000170: 7043 d0bc 0124 0dbc 6037 213d ea19 3f3d
00000180: fba7 d23c aefd 5838 82ac 123d 899a 9f3d
00000190: 72e7 95bd 0814 1fbd 97f7 abbc 8f62 37bc
000001a0: ab82 84bd 1b00 34b8 a730 9abb eb3b 253d
000001b0: 5011 a9bc eb63 8bbc 3bfc c2bc 75b1 1ebb
000001c0: 0dd4 a13c 53ea 3e3a 4dcf 913c d9cd 9cbc
000001d0: fae2 b93c a990 f9bb 8b27 43bc 39db 3a3c
000001e0: 2a39 3cbc a6ed 1b3d edf9 fd3c 674f a73b
000001f0: cf1d 573c 87d8 ccbd a875 a6bd e320 24bd
00000200: 9087 62bd 2fd2 80bd 99d1 f5bc 4bce 16bd
00000210: d8ee 06bd d99f 08bd 2c66 03bd 8531 9bbd
00000220: 9bb5 9bbc 6ed4 5ebd 4752 793b 85c0 87bd
00000230: a1e6 5bbd de5a 03bc 7224 0abd 8e74 22bd
00000240: ecd9 70bc 677b a5bd 5edb 61bd ce55 28bd
00000250: d8f3 57bc 207d 05bd 30d1 2e3d 2346 d0bb
00000260: 2439 afbb 7392 1b3d be14 f93c 7c86 09bc
00000270: 2e03 b3ba 0691 2ebc 4a8b 443b 3c68 0c3d
00000280: 9190 e3bc 8d25 073c 9bb8 02bb f13c d3bb
00000290: c841 393c c365 e83c 7997 8abc 867c efbb
000002a0: 3db4 ad3b b70f 3f3c 45c3 863c a106 f83c
000002b0: a813 813c b0d5 d13c 0bec 043c 5401 953d
000002c0: 8b7d 8c3d 5855 993c bd4a a93b 2fd6 1e3d
000002d0: b1ec a33d 7abf a43c b1f0 ad3c cb99 843c
000002e0: c48b f93c 2e50 793d bb1d 2fbc 5edf 0f3d
000002f0: 11a7 4abc 7f3d cbbb 2c35 f53c e49c 003d
00000300: bbb1 053d 3845 253b eee2 253c 8891 b93c
00000310: 2228 b13c dc3f 8b3c 350c ef3a 9c10 1f3d
00000320: 500d 303d e026 263d 02dc 3f3d 550a 113d
00000330: d1c9 943d 8b64 30bb 1e68 1f3d cc29 e13a
00000340: 9a52 c43c e04b 643d c5a1 7d3c 47ba bd3c
00000350: 53d5 273d 9c41 5e3b 7a9b 873c 5398 a33c
00000360: c7f0 3b3c 1a77 dc3c 9798 9d3c 9bec 9e3b
00000370: f5c6 ea3c 4072 523c e902 f43c 3ab7 8fbc
00000380: b400 953c f94b e93c 7e34 953c 1021 823c
00000390: 518a 2a3d 5c1b d43c 6040 093d 562e 9b3c
000003a0: 58de 8c3b 83b9 933c c07d df3c b89d 43bc
000003b0: bd12 12bc baac 2e3c c309 f43c 61e2 663c
000003c0: 5513 b43c ca3f 0b3d 5326 923c f646 edba
000003d0: cc5f 0f3d ae27 1a3d 3e97 393d 7713 fa3c
000003e0: b8ea e43c d2b7 803d f800 d03c eb9c fbbb
000003f0: ebb4 4b3c 3ebd 6dbb b4d0 233d 4562 033b
-0.047037244 -0.012920792 -0.01906341 -0.026859814 0.0064717853 0.0074145305 -0.027564576 -0.05306931
-0.0088862665 0.01818084 0.019243892 -0.047122255 -0.043988977 -0.0008577133 0.008087304 -0.0069879093
-0.023703802 -0.02862718 -0.011819197 0.017790385 0.06244908 0.053761233 0.0474123 0.038482025
0.114912 -0.04056294 -0.025844501 -0.042351708 -0.0072619854 -0.0012774637 -0.04013351 -0.05174928
-0.022062326 -0.012826767 -0.031495504 -0.03142864 -0.012509189 -0.039326776 -0.025977284 -0.013949451
-0.03906222 0.012942546 -0.037518073 -0.01217769 -0.021968009 -0.0045350697 -0.056422036 -0.015805257
-0.026851732 0.0013358523 0.036488317 -0.014880689 0.006467206 0.03310883 0.034385018 -0.008603622
0.017269302 -0.020205509 -0.013950891 -0.026515154 0.013003628 -0.028897876 -0.016222239 -0.014503429
0.0047120387 0.0053372723 -0.0067800456 -0.027245887 -0.004937272 0.017335793 0.012622622 -0.017169451
-0.0055328114 -0.0320433 0.01900252 -0.032770034 -0.020350596 -0.05484397 -0.049808443 -0.025884073
-0.013756166 0.026472887 0.02256956 -0.013820492 0.027938785 -0.008002776 -0.017349174 0.01740944
-0.0051648696 0.033682495 0.009171591 0.013820978 -0.025422782 -0.008614541 0.03935945 0.046655573
0.025714865 5.173467e-05 0.035809048 0.07793147 -0.07319535 -0.038837463 -0.020992083 -0.011192932
-0.064702354 -4.2915442e-05 -0.004705507 0.040340345 -0.020638138 -0.017015418 -0.023801913 -0.002421466
0.019754434 0.0007282842 0.017799044 -0.019141125 0.022691239 -0.007616122 -0.011911283 0.011404806
-0.011488238 0.038068436 0.031002963 0.005105901 0.0131296655 -0.10002237 -0.0812791 -0.040070426
-0.055305064 -0.06290089 -0.03000717 -0.03681783 -0.032942623 -0.033355568 -0.03207986 -0.075778045
-0.019007495 -0.054401807 0.0038043426 -0.06628517 -0.05368674 -0.00801727 -0.033726163 -0.039661936
-0.014700394 -0.08080178 -0.055140845 -0.041097455 -0.0131806955 -0.03259003 0.042679965 -0.006356017
-0.005347388 0.03798146 0.030405398 -0.00839388 -0.0013657564 -0.0106546935 0.002999025 0.034279093
-0.027778896 0.008248699 -0.001994646 -0.0064464738 0.011307187 0.028368836 -0.01691793 -0.0073085455
0.005301027 0.011661462 0.016450534 0.030276598 0.015756443 0.02561459 0.008112918 0.07275644
0.06859883 0.018717453 0.00516638 0.03877848 0.0800413 0.020110834 0.021232935 0.016186615
0.030462153 0.06086748 -0.010688241 0.03512513 -0.012368933 -0.0062023993 0.02993258 0.031399623
0.0326402 0.002521826 0.010124905 0.022652403 0.021625582 0.016998224 0.0018237891 0.0388342
0.042981446 0.040564418 0.046840675 0.035410244 0.07265056 -0.0026915397 0.038917653 0.0017178594
0.023965169 0.055736423 0.015480463 0.023160113 0.040974926 0.0033913618 0.01655363 0.019970095
0.01147098 0.02691226 0.0192378 0.004849983 0.028659323 0.012844622 0.029786544 -0.017543424
0.018188812 0.02847861 0.018213507 0.015884906 0.041635815 0.025891952 0.03350866 0.018942993
0.0042989664 0.018032795 0.027281642 -0.011939459 -0.0089156 0.010661298 0.029789811 0.014092059
0.021981874 0.03399638 0.01784054 -0.0018102813 0.03500347 0.037635498 0.04531025 0.03052686
0.027943954 0.06285061 0.025391087 -0.007678618 0.012433271 -0.0036276127 0.039993957 0.0020047587

exp_avg f4 [64, 1, 9, 9]
00000000: d7fd efb8 2fd6 14b9 5b78 64b9 79c9 62b9
00000010: 350c 20b9 4359 bfb8 5c5f a2b8 c991 a3b7
00000020: 9592 d1b8 9e09 fab8 b3ae 21b9 bcb0 4db9
00000030: 6997 3ab9 1526 08b9 f91d bdb7 f296 b3b7
00000040: 5f96 38b7 dade 97b8 b3fe f2b8 39d0 39b9
00000050: 572a 3ab9 e163 24b9 2a7e 0cb9 eabb a9b8
00000060: d115 f837 a526 ae35 5da0 9bb8 739a b5b8
00000070: 5172 05b9 c6d7 31b9 4cf0 02b9 f614 adb8
00000080: c530 14b8 ea0b 7a38 9aad 0038 69b6 22b8
00000090: 0234 75b8 3a4f efb8 bd7d 28b9 5d51 1db9
000000a0: 7ed7 69b8 64be b6b6 c80d 0038 6899 2938
000000b0: 617e 39b8 ae60 14b7 6be4 65b8 f7bb ddb8
000000c0: 52e8 8bb8 56e2 51b8 21d6 1437 67b5 5338
000000d0: e4fa ac38 f043 1438 70b5 e337 b20c 7ab8
000000e0: 79f5 dab8 fa01 a2b8 d6be 98b7 2d28 1b38
000000f0: 32c8 a438 e46a af38 701f 2238 e0d1 e8b7
00000100: 0324 dbb8 de97 1eb9 6378 68b8 1a81 5fb8
00000110: 2401 9a37 d772 ac37 8af9 cb37 e9e6 d036
00000120: bdef 4fb8 5683 a1b8 a28e 07b9 1a42 acb8
00000130: 1588 54b8 a917 cdb7 4f46 bcb7 f085 c3b6
00000140: 08eb 16b8 bfef 87b8 0f4b 70b8 3b2a 7fb8
00000150: bdcc a7b8 4baa b0b8 f9e1 68b8 e957 5cb8
00000160: a625 58b8 1204 7db8 9f3a 80b8 9449 8db8
00000170: fc85 8ab8 a078 a4b8 bd0d aab8 ace3 b1b8
00000180: ee50 78b8 61d4 8ab8 8958 99b8 c601 c8b8
00000190: 9a26 c4b8 627e d0b8 9db3 02b9 6dfe 03b9
000001a0: 648e aeb8 9dd5 6fb8 7a7d 97b8 a44d 7cb8
000001b0: 3a6d efb8 5eec ddb8 099e dcb8 aa9e fcb8
000001c0: 92ef f0b8 cf82 e5b8 ba08 b5b8 78dc 84b8
000001d0: 10dd 6db8 0abd c8b8 0994 dab8 c586 02b9
000001e0: 8b85 05b9 7d5e 17b9 a59b d4b8 0ca2 c7b8
000001f0: 1041 cbb8 a3b7 89b8 cab9 bab8 34b5 b3b8
00000200: 81e7 deb8 70c0 e3b8 bc73 03b9 68a0 0cb9
00000210: 6bd1 feb8 29af c7b8 c486 8eb8 32ac ddb8
00000220: fcea 8fb8 c015 afb8 2090 ccb8 99ab d9b8
00000230: 40f7 f8b8 9026 dab8 5336 c3b8 009c bab8
00000240: 5099 a8b8 1a27 a1b8 2d66 a8b8 901a cab8
00000250: 71a8 c4b8 650b cdb8 6bee e4b8 e471 f9b8
00000260: 92a9 03b9 a23d a0b8 51e2 9bb8 eac8 97b8
00000270: 19fb 89b8 05ec c4b8 df79 d7b8 3852 07b9
00000280: 04d4 ffb8 934f d3b8 7173 98bb bfeb 8fbb
00000290: 1c64 8cbb 81de 87bb 2111 85bb 0231 83bb
000002a0: eabd 7ebb 40ee 70bb 2095 60bb b32c 9bbb
000002b0: 71c0 96bb 0698 92bb b567 8cbb eeb0 89bb
000002c0: 5c67 85bb 32a9 7cbb ace2 6abb aa66 5cbb
000002d0: 9aac 9fbb cffe 9dbb 7bf4 96bb e3ec 90bb
000002e0: e92e 8bbb acb9 81bb 948c 7cbb 25d1 6dbb
000002f0: 3f99 5fbb 2878 9fbb e5bc 9bbb 9192 99bb
00000300: cdc8 8fbb 2606 87bb 10cc 81bb c7ec 74bb
00000310: 1c7e 64bb e4f1 5bbb cc30 9ebb e13d 9abb
00000320: 7a22 95bb 840b 8cbb af44 7fbb 7aed 72bb
00000330: 4ad4 69bb 353f 5dbb 3570 51bb 0976 99bb
00000340: a132 93bb 4e01 8bbb 37db 84bb 4fef 72bb
00000350: e2d7 6ebb 7e94 61bb a32b 5ebb 686b 56bb
00000360: 59b1 8fbb a5b1 88bb e428 83bb 90db 76bb
00000370: f5fb 64bb 4dd2 5fbb d69c 62bb 732e 59bb
00000380: 26e3 51bb 1473 88bb 43c1 80bb 614d 79bb
00000390: c6e5 6abb 195f 5dbb 54e9 5abb 7f0a 5dbb
000003a0: ab49 55bb f27d 4bbb a378 80bb ca50 7abb
000003b0: bb34 72bb 6fad 63bb 79ec 5ebb c92b 5fbb
000003c0: 6b19 5cbb 99d3 56bb c44c 55bb f21a 96b9
000003d0: 2fff ccb7 7e52 52b8 8ffe 1138 bc46 d6b7
000003e0: 08e8 ae38 5774 0c39 27d3 a2b8 d3d0 43b9
000003f0: 48e5 24b9 89a3 5237 bbab c438 c50c 2d39
-0.000114436894 -0.0001419417 -0.0002178861 -0.00021628094 -0.00015263337 -9.124216e-05 -7.742524e-05 -1.9499e-05
-9.9932e-05 -0.0001192272 -0.00015419237 -0.00019616162 -0.00017794747 -0.00012984157 -2.2544513e-05 -2.1408752e-05
-1.1002266e-05 -7.2417504e-05 -0.00011586901 -0.00017720544 -0.00017754115 -0.00015677467 -0.0001339844 -8.09355e-05
2.9574063e-05 1.2975257e-06 -7.420846e-05 -8.659521e-05 -0.00012726455 -0.00016960417 -0.00012487284 -8.253187e-05
-3.533137e-05 5.961574e-05 3.0679257e-05 -3.8793693e-05 -5.8460988e-05 -0.00011411165 -0.0001606857 -0.00015002997
-5.575222e-05 -5.446187e-06 3.0530413e-05 4.043561e-05 -4.4225137e-05 -8.843997e-06 -5.4810585e-05 -0.000105731124
-6.6713095e-05 -5.0040275e-05 8.871343e-06 5.0475264e-05 8.248331e-05 3.534922e-05 2.7144997e-05 -5.961647e-05
-0.00010440773 -7.72513e-05 -1.8208677e-05 3.6992296e-05 7.857419e-05 8.36456e-05 3.865309e-05 -2.7754286e-05
-0.000104494415 -0.00015124629 -5.542523e-05 -5.328758e-05 1.8358762e-05 2.0557474e-05 2.4315686e-05 6.2257645e-06
-4.957592e-05 -7.7015415e-05 -0.00012927738 -8.2139115e-05 -5.0671475e-05 -2.4448922e-05 -2.2444086e-05 -5.8270452e-06
-3.5981677e-05 -6.481958e-05 -5.7290363e-05 -6.0836068e-05 -8.001316e-05 -8.4240535e-05 -5.5523564e-05 -5.253396e-05
-5.1533476e-05 -6.032369e-05 -6.114435e-05 -6.737109e-05 -6.605309e-05 -7.8425976e-05 -8.108791e-05 -8.482425e-05
-5.920318e-05 -6.6199114e-05 -7.3120995e-05 -9.5370735e-05 -9.3531984e-05 -9.9417535e-05 -0.00012464677 -0.00012587915
-8.323489e-05 -5.7180983e-05 -7.223613e-05 -6.015379e-05 -0.00011416753 -0.00010582128 -0.00010519854 -0.0001204585
-0.00011488715 -0.00010943936 -8.632378e-05 -6.335316e-05 -5.6711084e-05 -9.5719544e-05 -0.00010422624 -0.00012447972
-0.00012733617 -0.00014435682 -0.00010137939 -9.519243e-05 -9.691913e-05 -6.566874e-05 -8.903777e-05 -8.569137e-05
-0.00010628906 -0.00010860048 -0.00012536248 -0.00013411196 -0.00012150671 -9.5216856e-05 -6.79619e-05 -0.00010570175
-6.8625406e-05 -8.3487015e-05 -9.7543234e-05 -0.00010379329 -0.000118716154 -0.00010402233 -9.308443e-05 -8.8982284e-05
-8.039421e-05 -7.6843615e-05 -8.029896e-05 -9.637058e-05 -9.377383e-05 -9.777284e-05 -0.00010916296 -0.00011894459
-0.00012556303 -7.6408745e-05 -7.433131e-05 -7.237664e-05 -6.57944e-05 -9.3899704e-05 -0.00010274699 -0.00012905232
-0.000121988385 -0.00010076086 -0.0046524336 -0.004392117 -0.004284395 -0.0041463976 -0.00406088 -0.004003645
-0.0038870522 -0.0036763102 -0.0034268573 -0.004735553 -0.0046005775 -0.004473689 -0.004284824 -0.004202
-0.0040711593 -0.0038552997 -0.0035840673 -0.0033630528 -0.0048728706 -0.0048216353 -0.004606781 -0.0044227703
-0.0042475355 -0.0039589014 -0.003853594 -0.003628799 -0.0034118441 -0.0048666187 -0.0047527426 -0.0046866615
-0.004387951 -0.004120606 -0.0039610937 -0.0037372576 -0.0034865206 -0.0033560926 -0.0048275944 -0.0047070836
-0.004551229 -0.0042738337 -0.003895085 -0.0037067817 -0.0035679513 -0.0033759598 -0.003195775 -0.0046832603
-0.0044921194 -0.004242099 -0.0040544528 -0.0037068909 -0.0036444594 -0.0034420784 -0.0033900521 -0.0032717828
-0.004385155 -0.0041715675 -0.0040026773 -0.003766749 -0.0034940217 -0.0034152449 -0.0034578345 -0.0033139258
-0.003202626 -0.004164109 -0.0039292886 -0.0038040506 -0.0035842522 -0.0033778606 -0.0033403235 -0.003372818
-0.003254513 -0.003105041 -0.003920631 -0.0038195127 -0.00369577 -0.0034740826 -0.003401546 -0.0034053198
-0.0033584486 -0.003277993 -0.0032546977 -0.00028630305 -2.4437524e-05 -5.014473e-05 3.480777e-05 -2.5543726e-05
8.340186e-05 0.0001339478 -7.764092e-05 -0.00018674442 -0.00015725673 1.2555051e-05 9.3779956e-05 0.00016503323

exp_avg_sq f4 [64, 1, 9, 9]
00000000: 8bab b336 22fe b236 3707 b536 bc81 a836
00000010: 1897 a236 bbee 9836 6aff 9836 5830 9536
00000020: 7f34 9d36 6c43 b236 d5e9 b236 bea8 b536
00000030: 4fe4 a436 7fb0 9c36 d7c0 9236 c373 8e36
00000040: 59e4 8f36 0ee1 9336 65e6 ba36 890e be36
00000050: 927e af36 3c9b a536 da84 9336 457c 8736
00000060: afc8 8336 9798 8436 c03d 8b36 074d b036
00000070: 0975 be36 31f5 bd36 1ab9 a436 1598 8f36
00000080: 4189 8436 00f3 7d36 7a89 8036 1f3c 8636
00000090: 44b7 b436 f68a c236 bf87 c636 36a0 b336
000000a0: aa21 9336 eb4b 8536 cba1 8036 f2b6 8036
000000b0: bf8b 8236 7376 b836 3955 c436 8746 cf36
000000c0: 4080 b336 590e 9d36 fdf9 8836 b64c 8436
000000d0: 5a46 8336 fe0b 8536 2b10 b536 b86b cb36
000000e0: 8579 d336 af87 c736 ec4f ab36 2e11 9236
000000f0: fb00 8836 cafd 8736 404d 8836 4f23 b136
00000100: f77b c436 1172 ce36 c3bf c536 de9e af36
00000110: beac 9c36 81cf 8e36 a8bf 8c36 7c3b 8c36
00000120: bf4b a836 2e56 b236 3ea2 c336 0954 cb36
00000130: c1dd b936 906f ab36 cf14 9b36 d0e6 9636
00000140: 11f3 9136 d364 a136 ba3a a336 f736 a136
00000150: a96a a336 f295 a736 b245 a136 013e 9c36
00000160: 4c34 a736 7430 a336 b345 a136 7ca9 9e36
00000170: 078f a336 be8a 9c36 83a6 a836 9daa a736
00000180: 402f a636 e27a a436 3134 a836 4b59 9e36
00000190: 8580 9d36 abf4 9c36 a1d9 aa36 5798 ac36
000001a0: 491f a136 7ae9 a136 1049 9c36 48a0 a036
000001b0: da82 9936 6aa9 9736 5fa8 9536 d7df a936
000001c0: d3c3 aa36 1fdc 9f36 22a3 9c36 2606 9f36
000001d0: 4efa 9d36 396f 9236 05b3 9236 6d33 9336
000001e0: 1bd0 a236 3fe2 ae36 c394 a636 1df7 a136
000001f0: bae2 a936 664e a136 59c3 9136 a204 8f36
00000200: 7f67 9736 94ac 9636 dfa8 9b36 52a7 a736
00000210: 737b a336 913c a536 c683 ae36 9421 9036
00000220: b858 9536 fccf 9436 d524 9936 f30c 9d36
00000230: cc74 a836 8d53 af36 e0e7 b736 2ddd ba36
00000240: b806 8d36 f076 9336 c953 9236 ae23 9536
00000250: 46ea a336 3419 ab36 5d97 b436 8a72 c436
00000260: 08f7 c836 fbeb 9236 30c8 9336 1e50 9936
00000270: 822b 9d36 3c9d a036 c2e3 a836 f8d4 bd36
00000280: 632d cb36 53ff d536 0832 6639 bf41 6e39
00000290: 191e 7239 a0f5 6839 a4cf 5939 b531 4839
000002a0: ab23 3a39 822f 2f39 b871 2739 9368 7239
000002b0: 1f1b 7e39 9252 8039 e512 7239 9679 5d39
000002c0: 6082 4739 f95d 3739 ea9f 2c39 f929 2639
000002d0: 12b3 7b39 dc7d 8439 0266 8239 3a65 7239
000002e0: 0a17 5939 96fc 4039 1fd7 3339 c180 2c39
000002f0: 4469 2739 fb42 7c39 e221 8239 a8a4 7d39
00000300: b43d 6539 d2da 4939 55b0 3739 1992 2f39
00000310: 34a8 2d39 4d44 2a39 6c30 7339 baf1 7639
00000320: c5a9 6839 5986 4e39 a034 3739 1e0e 2d39
00000330: ce76 2e39 91e7 3039 a62e 2e39 3c24 6339
00000340: 21f0 5d39 b796 4c39 3654 3739 efee 2739
00000350: 0726 2739 8eb6 2e39 12f7 3239 caa9 3039
00000360: 06d4 4c39 ca32 4439 520c 3539 0f97 2439
00000370: 27eb 1e39 3104 2539 d097 2d39 0099 3339
00000380: 35f8 3039 1246 3a39 7154 3039 bdce 2439
00000390: f0c2 1b39 58f3 1a39 469c 2239 17b8 2b39
000003a0: afc4 2f39 0568 2e39 9dc6 2c39 aadf 2539
000003b0: b18d 1d39 cdfb 1739 1c28 1939 ed49 1f39
000003c0: 8162 2739 4ef6 2a39 c8e9 2839 017e 1139
000003d0: 6008 0539 ec19 1039 f5ee 1039 975c 0c39
000003e0: c7a8 0339 8f36 0139 fee3 0339 c61b fd38
000003f0: a838 0e39 e291 0a39 859f 0b39 ca3a 1239
5.354586e-06 5.3343983e-06 5.3950603e-06 5.0218932e-06 4.845566e-06 4.557745e-06 4.559687e-06 4.446174e-06
4.685076e-06 5.3126623e-06 5.332035e-06 5.4138645e-06 4.9141595e-06 4.669709e-06 4.3735886e-06 4.245406e-06
4.2883153e-06 4.407141e-06 5.5700534e-06 5.6641334e-06 5.230141e-06 4.935455e-06 4.3964073e-06 4.0377804e-06
3.927467e-06 3.9516704e-06 4.1497115e-06 5.254176e-06 5.676066e-06 5.661183e-06 4.9091295e-06 4.279437e-06
3.949885e-06 3.7841382e-06 3.8307016e-06 4.00051e-06 5.385753e-06 5.7978277e-06 5.9166628e-06 5.3532667e-06
4.3848604e-06 3.972547e-06 3.8335324e-06 3.835995e-06 3.8905705e-06 5.4974166e-06 5.8511764e-06 6.177291e-06
5.349546e-06 4.680635e-06 4.0822183e-06 3.942837e-06 3.9122942e-06 3.965105e-06 5.3961026e-06 6.0624116e-06
6.3024368e-06 5.946458e-06 5.1055013e-06 4.353139e-06 4.05323e-06 4.0528585e-06 4.062109e-06 5.2791215e-06
5.8556866e-06 6.1525575e-06 5.8933815e-06 5.233901e-06 4.669272e-06 4.2560864e-06 4.194637e-06 4.17925e-06
5.015608e-06 5.314846e-06 5.8303403e-06 6.0596544e-06 5.539245e-06 5.1091847e-06 4.6217824e-06 4.4972185e-06
4.3496334e-06 4.8099114e-06 4.864615e-06 4.8045727e-06 4.8701954e-06 4.9944438e-06 4.8062875e-06 4.6563805e-06
4.983076e-06 4.8634192e-06 4.806288e-06 4.7284975e-06 4.874429e-06 4.665314e-06 5.0261747e-06 4.99685e-06
4.952686e-06 4.9018863e-06 5.012866e-06 4.719162e-06 4.6939263e-06 4.6776454e-06 5.09173e-06 5.143734e-06
4.801816e-06 4.825354e-06 4.657668e-06 4.787031e-06 4.5749885e-06 4.519873e-06 4.460147e-06 5.062651e-06
5.0891917e-06 4.7641947e-06 4.6681535e-06 4.739285e-06 4.708104e-06 4.364087e-06 4.3719797e-06 4.386928e-06
4.852203e-06 5.2119426e-06 4.9645037e-06 4.8269417e-06 5.062987e-06 4.8073007e-06 4.344078e-06 4.2622714e-06
4.512199e-06 4.490439e-06 4.639019e-06 4.9964665e-06 4.87215e-06 4.924434e-06 5.2009445e-06 4.2954434e-06
4.4508743e-06 4.4349563e-06 4.564043e-06 4.680472e-06 5.020387e-06 5.225133e-06 5.480819e-06 5.56898e-06
4.2029096e-06 4.3947875e-06 4.360893e-06 4.4446997e-06 4.8850516e-06 5.099131e-06 5.382039e-06 5.8545893e-06
5.9892227e-06 4.378611e-06 4.4042463e-06 4.569082e-06 4.6840296e-06 4.786676e-06 5.0333047e-06 5.6574318e-06
6.055155e-06 6.3776183e-06 0.00021953147 0.00022721941 0.0002309013 0.00022216747 0.00020772085 0.00019092004
0.0001775163 0.00016706999 0.00015968725 0.00023117875 0.00024233431 0.00024475582 0.00023085957 0.00021121497
0.00019026687 0.00017487248 0.00016462771 0.0001584663 0.00024003934 0.00025270774 0.00024871534 0.00023116628
0.00020703315 0.00018404642 0.00017150909 0.00016451163 0.00015965576 0.00024057545 0.00024820777 0.000241893
0.00021862128 0.0001925037 0.00017517929 0.00016743726 0.00016561226 0.00016237907 0.00023192324 0.00023550438
0.00022188488 0.0001969574 0.00017471844 0.00016503825 0.00016638191 0.00016870933 0.00016611311 0.00021661905
0.00021165657 0.00019511102 0.00017483611 0.00016015371 0.00015940527 0.0001666194 0.00017067444 0.0001684792
0.00019533941 0.00018710937 0.00017266095 0.00015696533 0.00015155655 0.00015737188 0.0001655512 0.00017127767
0.00016877132 0.00017764446 0.00016816125 0.00015717275 0.00014854572 0.00014777237 0.0001550774 0.0001637641
0.00016762571 0.00016632683 0.00016477187 0.00015818948 0.00015025471 0.00014494285 0.00014606159 0.00015190961
0.00015963057 0.00016304219 0.00016108819 0.00013875218 0.00012686988 0.00013742567 0.00013821929 0.00013385933
0.00012556008 0.00012322723 0.00012578067 0.00012069153 0.00013563281 0.00013215051 0.00013315499 0.00013945546

exp_avg f4 [64]
00000000: 0cd9 6539 d125 e2b8 1aff 09bc 6e6a 00ba
00000010: 804e 63bc d86f 9e3a 9e58 933b 066e 24bb
00000020: b549 9b3b aa13 0839 b15f d23b 9a63 02bb
00000030: 8018 ca3a adf7 b1bb 01cb 95ba 41d8 a8bc
00000040: c827 dbbb b452 6ebc 5539 23bb 2213 31bc
00000050: 0400 0080 e5a4 3cbc 3f5a 3139 06e6 0739
00000060: bb85 43bc c73e cc38 8d56 6ebc b45a 563c
00000070: 32a8 49bc 055c afbc 446a 02bb 06c5 82bb
00000080: 4aaf 7cbb 895e b13b d618 393a 5eee 06bc
00000090: 46c6 afbc 9c68 263b e786 c0bb 5ea7 03bb
000000a0: 624d 86ba b66d 19bc a12a b1bb 1e5a 83ba
000000b0: 35d2 d63a 4898 e7bc 607c 22bc 092a 30bc
000000c0: dbdf be3a e728 1b39 8a0e 75bc 48cc dabc
000000d0: c4ae 05bb f449 3abb c79d 0c3a 0ac3 dbb9
000000e0: bf27 f7ba 1a17 13bc bda7 b8ba 5f92 4bb9
000000f0: 3553 08bb 2236 6eba 02a5 613b e1f0 2fbc
0.00021919998 -0.000107835636 -0.008422637 -0.0004898672 -0.013873696 0.0012087775 0.004496648 -0.0025089993
0.004739011 0.00012977296 0.0064200987 -0.0019895793 0.0015418679 -0.0054311366 -0.0011428298 -0.02061093
-0.006688092 -0.014546085 -0.0024905999 -0.010807784 -6e-45 -0.011513923 0.00016913655 0.00012960294
-0.011933739 9.739171e-05 -0.0145470025 0.013083149 -0.012308167 -0.021406183 -0.0019899765 -0.003990772
-0.003855663 0.005412881 0.0007060891 -0.008235542 -0.021456849 0.0025391942 -0.0058754566 -0.0020088772
-0.001024645 -0.009364536 -0.005406693 -0.0010021364 0.0016389551 -0.028270856 -0.009917349 -0.010752209
0.0014562564 0.00014797189 -0.01495708 -0.026708737 -0.0020398358 -0.0028425427 0.0005364087 -0.0004191625
-0.001885645 -0.008977676 -0.0014088076 -0.00019414116 -0.0020801548 -0.0009087046 0.0034430628 -0.010738582

exp_avg_sq f4 [64]
00000000: 304e 4838 4c43 ed38 35d3 ce3a 94f1 e33a
00000010: f5e3 c63b 9604 9d3a 5691 8639 ebbe 0739
00000020: 3ec3 cb3a 14c3 9034 4ad8 8539 4454 7e39
00000030: fad9 d438 d5c6 b13a 7db7 1b3a 4db3 033c
00000040: e9c8 cd3a 5418 753b 2d90 5439 60ea 653b
00000050: 1548 7321 bcae ca3b 972a 383b 56a2 b539
00000060: eaf5 cc3a 27fe 5339 1ece ef3a a038 053a
00000070: f63b 583b bb14 cc3b 2b11 163a 9844 ca39
00000080: 0d54 473b 78cc 003a 4827 4139 ea7d 3c3a
00000090: 5d2e f23b 052b 1739 77d4 293a f9c1 5439
000000a0: 2177 4339 484a d53a 5a78 f338 b5b5 933a
000000b0: ca53 ad38 92e4 753c 4884 9c3a 8c00 333a
000000c0: bcfb 733a d593 0a37 94d9 1d3c bf63 293c
000000d0: e836 0d39 1493 b839 10a2 b038 f65b 3a37
000000e0: ea52 8c39 adc2 113a e326 1539 0483 6237
000000f0: b7de cd39 5d84 af37 f9d1 ee39 8e41 543b
4.7756534e-05 0.00011313576 0.0015779497 0.0017390721 0.006069655 0.0011979516 0.00025666755 0.00012945726
0.0015545858 2.6964028e-07 0.00025528885 0.00024254719 0.00010149549 0.0013563285 0.00059401226 0.008038354
0.0015700135 0.0037398534 0.00020271605 0.0035082325 8.2427e-19 0.0061853807 0.0028101557 0.0003464396
0.0015637253 0.00020217207 0.0018295681 0.0005081985 0.0032994724 0.006228057 0.0005724604 0.0003857955
0.0030415088 0.0004913281 0.00018420548 0.00071903935 0.007390781 0.00014416508 0.0006478498 0.00020290156
0.00018641028 0.0016272748 0.0001160956 0.0011269363 8.26489e-05 0.015008109 0.0011941278 0.00068283896
0.00093072257 8.259861e-06 0.009634394 0.010338723 0.00013467262 0.00035204797 8.4225205e-05 1.1107875e-05
0.00026764657 0.000556032 0.00014224234 1.3501154e-05 0.00039266582 2.0923262e-05 0.0004555134 0.0032387706

exp_avg f4 [32, 64, 5, 5]
00000000: 8622 11b9 6812 c5b8 f71d 81b8 8990 20b8
00000010: 3c04 57b7 b4a3 e1b8 04af b2b8 f7f2 82b8
00000020: 3896 cfb7 6daa c9b7 bd7b c1b8 5fec b6b8
00000030: 5dad a4b8 f909 7eb8 e589 74b8 e489 b5b8
00000040: 1d11 a8b8 d11f abb8 3f05 88b8 a8ac bab8
00000050: 1114 c4b8 e1de e9b8 baa5 ddb8 4db0 fbb8
00000060: cbb7 03b9 979b 00b5 cf8c e235 0812 d134
00000070: c03f 41b5 9eb2 57b5 6d3a 9336 2f8e 5136
00000080: d88d 37b5 41ae 56b6 03ec 3fb5 e472 7536
00000090: 3e4c cf36 8f96 0536 a55d 8f35 1c10 5135
000000a0: 839a 0336 bcb1 2f36 433e 7f36 74d5 7b34
000000b0: 5ccf 80b4 74a8 2336 2f7c 7635 694f b434
000000c0: c38e 33b5 bbde 4936 5fba 6db9 4db5 8bb9
000000d0: 524e a0b9 c469 b3b9 cf3e b4b9 01b9 94b9
000000e0: bc69 a6b9 d7da b5b9 c584 b8b9 401e b8b9
000000f0: edeb 9ab9 dcd5 a5b9 4f5f b3b9 5f2e b9b9
00000100: 9288 adb9 9346 8fb9 75c1 97b9 93ae abb9
00000110: 122c a1b9 5905 a0b9 bad5 74b9 4f01 84b9
00000120: 5a81 96b9 7285 89b9 04ce 85b9 2803 75b7
00000130: 26a5 a5b7 47b6 09b8 92a0 40b8 b953 89b8
00000140: be4a bab7 d161 06b8 04f0 43b8 5bef 87b8
00000150: 0bd8 a4b8 e06d a3b7 8315 34b8 59f9 6cb8
00000160: e035 92b8 b4cd b7b8 4733 82b7 1b29 0cb8
00000170: 808b 69b8 2719 9cb8 610a 9fb8 873c 2cb7
00000180: e183 cdb7 a577 2cb8 8bf7 39b8 1a8c 1bb8
00000190: 6f09 27b8 e8b1 32b8 c15a 1db8 eec6 0ab8
000001a0: 7cce efb7 9b33 61b8 178d 3db8 1885 2fb8
000001b0: a074 21b8 7434 c5b7 b4df 49b8 5099 6db8
000001c0: 1e0c 31b8 7a2b 24b8 3c0c fcb7 24ef 79b8
000001d0: 3edd 7bb8 ee59 55b8 2b92 2db8 6434 2bb8
000001e0: 6e98 47b8 d737 32b8 9875 30b8 ad13 15b8
000001f0: 830a 26b8 4848 29b9 4581 4ab9 4a8c 4bb9
00000200: 49ac 42b9 9961 53b9 572a 7db9 7d0d 82b9
00000210: fe77 90b9 3cd9 82b9 686b 85b9 d422 9ab9
00000220: e100 9fb9 9899 a7b9 9e7b 97b9 9458 95b9
00000230: 0bd4 80b9 e13e 8bb9 fce3 94b9 b221 85b9
00000240: 3288 85b9 d7a3 81b9 de54 63b9 e398 7eb9
00000250: 4da0 5ab9 6880 5eb9 1cee 5e37 50af 6937
00000260: 241e 0037 6ded 1637 1424 cf36 581a aa37
00000270: 6534 ce37 93a5 6c37 f60e 7437 f148 8037
00000280: ca88 a837 add4 a337 6bf2 4e37 5332 7137
00000290: 7dc6 8237 c6b4 a437 224d 9837 8dd3 4337
000002a0: 11f2 b337 ade6 c237 7926 d937 ff7a d537
000002b0: dd46 b437 8e09 f637 e821 1b38 d5cd 15b8
000002c0: 688d 1bb8 c76e 26b8 8d5e 12b8 46b8 01b8
000002d0: 573e e9b7 d1bd 06b8 8e27 0eb8 c959 e6b7
000002e0: c7f3 ecb7 94d8 b9b7 f0b9 c8b7 0873 bab7
000002f0: ca78 a9b7 270f b9b7 81ac 99b7 b52a a3b7
00000300: 1682 99b7 afa7 93b7 eab9 82b7 1155 4db7
00000310: 2088 2eb7 b3d9 37b7 80da 35b7 300d 1db7
00000320: 8f08 9e36 7143 2736 e7d4 05b7 19a3 dbb7
00000330: f204 04b8 5f3f 3937 ce51 3037 3059 0737
00000340: 2395 e9b6 1b03 a2b7 a5a9 3837 b235 9436
00000350: 6567 a936 726b 1db7 acf7 a3b7 39f7 c336
00000360: 62c8 99b5 eb79 f7b5 ebfe 85b6 ca63 20b7
00000370: ccc4 07b7 9652 5db7 9959 53b7 408f 59b7
00000380: a2b8 64b7 4c07 a733 f3cc 3e34 6d62 7430
00000390: 3955 4e33 2464 c832 cbe9 1832 b33a fe32
000003a0: c04a dd32 f6fa 3d32 e9d3 1b32 3945 ce2f
000003b0: 2dd1 2db2 d569 2731 fa9a 3332 cb77 0132
000003c0: 8041 ea31 dd0d 1931 51d4 1b32 e391 f3af
000003d0: 3d97 14ae 0951 47b1 8580 8531 6a0a 2fb1
000003e0: 3036 f5b2 b5d4 c9b2 e6af 2fb7 3e08 a1b7
000003f0: ec72 d3b7 f99a f2b7 331a 08b8 6a20 d234
-0.00013841139 -9.3971204e-05 -6.156781e-05 -3.828158e-05 -1.28159845e-05 -0.00010759328 -8.5203006e-05 -6.244139e-05
-2.4746274e-05 -2.4040428e-05 -9.226005e-05 -8.722464e-05 -7.852421e-05 -6.0567607e-05 -5.8302558e-05 -8.656437e-05
-8.014052e-05 -8.159842e-05 -6.4859625e-05 -8.901331e-05 -9.349746e-05 -0.0001115182 -0.0001056897 -0.00012001451
-0.00012561602 -4.791013e-07 1.6879293e-06 3.8942403e-07 -7.199087e-07 -8.0353664e-07 4.387743e-06 3.1226189e-06
-6.837922e-07 -3.1989914e-06 -7.1496487e-07 3.657472e-06 6.1779565e-06 1.990618e-06 1.0681584e-06 7.788201e-07
1.9610459e-06 2.6180487e-06 3.8034202e-06 2.345385e-07 -2.3992732e-07 2.4386945e-06 9.182285e-07 3.358539e-07
-6.689044e-07 3.008098e-06 -0.0002267151 -0.00026647226 -0.0003057593 -0.00034220342 -0.0003437907 -0.00028366598
-0.00031740766 -0.0003468606 -0.00035194136 -0.00035117753 -0.00029548947 -0.0003163059 -0.0003421255 -0.000353205
-0.00033098884 -0.00027327667 -0.000289451 -0.0003274573 -0.00030741148 -0.00030521562 -0.00023349273 -0.00025177977
-0.00028706604 -0.000262301 -0.0002552123 -1.4603873e-05 -1.9746436e-05 -3.2833104e-05 -4.592591e-05 -6.5482636e-05
-2.2207732e-05 -3.203919e-05 -4.6715155e-05 -6.481885e-05 -7.8603705e-05 -1.9482279e-05 -4.293538e-05 -5.6499008e-05
-6.9718575e-05 -8.764435e-05 -1.5521086e-05 -3.3416884e-05 -5.568145e-05 -7.443345e-05 -7.583644e-05 -1.02660915e-05
-2.4499315e-05 -4.1119423e-05 -4.433798e-05 -3.708536e-05 -3.982469e-05 -4.2604195e-05 -3.7516238e-05 -3.308703e-05
-2.8587172e-05 -5.369224e-05 -4.519251e-05 -4.1847205e-05 -3.8494007e-05 -2.3508655e-05 -4.8130474e-05 -5.6647987e-05
-4.2211374e-05 -3.9141138e-05 -3.0046438e-05 -5.9588943e-05 -6.004911e-05 -5.086691e-05 -4.1382544e-05 -4.081837e-05
-4.758726e-05 -4.2490512e-05 -4.2071188e-05 -3.5542693e-05 -3.9587274e-05 -0.00016144023 -0.00019312378 -0.0001941185
-0.00018565463 -0.00020158886 -0.00024143733 -0.00024805582 -0.00027555221 -0.00024957384 -0.0002544776 -0.00029399118
-0.00030327498 -0.00031967158 -0.00028893066 -0.0002848549 -0.00024572047 -0.00026558994 -0.0002839862 -0.00025392842
-0.0002546921 -0.00024726868 -0.00021680022 -0.00024280282 -0.00020849817 -0.00021219405 1.328767e-05 1.39287e-05
7.636412e-06 8.995977e-06 6.173281e-06 2.0277846e-05 2.4581512e-05 1.4105247e-05 1.4547017e-05 1.5292755e-05
2.0090858e-05 1.9530149e-05 1.2334999e-05 1.4376436e-05 1.5589636e-05 1.9634503e-05 1.815573e-05 1.1672161e-05
2.1451184e-05 2.3234019e-05 2.5886331e-05 2.5448853e-05 2.149067e-05 2.9329934e-05 3.6986457e-05 -3.5716064e-05
-3.7086575e-05 -3.9680654e-05 -3.489717e-05 -3.0927615e-05 -2.7804794e-05 -3.212487e-05 -3.3892276e-05 -2.7459946e-05
-2.824691e-05 -2.215457e-05 -2.3928442e-05 -2.2226493e-05 -2.0202617e-05 -2.2060774e-05 -1.831935e-05 -1.9451001e-05
-1.8299597e-05 -1.760185e-05 -1.558378e-05 -1.2238758e-05 -1.0402902e-05 -1.0958337e-05 -1.0839314e-05 -9.361e-06
4.7097633e-06 2.4924195e-06 -7.976988e-06 -2.6182783e-05 -3.1475858e-05 1.1041614e-05 1.0509464e-05 8.067393e-06
-6.961303e-06 -1.9313351e-05 1.1006753e-05 4.4169947e-06 5.048629e-06 -9.382946e-06 -1.9546445e-05 5.8402334e-06
-1.1457707e-06 -1.8438417e-06 -3.9933852e-06 -9.559977e-06 -8.092447e-06 -1.3191855e-05 -1.2597441e-05 -1.2967561e-05
-1.3632847e-05 7.777871e-08 1.7769689e-07 8.8906554e-10 4.8040622e-08 2.3328603e-08 8.900723e-09 2.9596185e-08
2.5761778e-08 1.105831e-08 9.07037e-09 3.7520367e-10 -1.0117486e-08 2.4361857e-09 1.0454409e-08 7.536026e-09
6.817743e-09 2.227231e-09 9.070463e-09 -4.43051e-10 -3.378563e-11 -2.9004374e-09 3.8854204e-09 -2.5471771e-09
-2.8546395e-08 -2.3496208e-08 -1.0471767e-05 -1.9196534e-05 -2.5206675e-05 -2.8920813e-05 -3.2449327e-05 3.9139132e-07
