logs/biosr_ccps_rcan_model-SRCNN_250305_lr0.0001_bs1_Ps256_Npatch128_N300/model_234.pth (torch, 695046 bytes, 15 tensors)

conv1.weight f4 [64, 1, 9, 9]
000000 71 00 a4 3d f3 4b eb bc 94 e4 a9 3d fc 9c bb bc
       0.08007897 -0.028722739 0.08295551 -0.022902004
000010 4f 03 3c 3d 76 1c 20 bd af 76 09 3e 2f 25 37 bc
       0.045901593 -0.039089642 0.1342418 -0.011178299
000020 8f 0f 52 3e cc 89 e3 bc 5c 83 bd bd 2e 29 45 3d
       0.20513748 -0.027775668 -0.092535704 0.048134975
000030 cd 4b 4d bd 7e ed fa 3c 68 6f 2e 3d 7d 1d f4 3c
       -0.050121117 0.030630823 0.042586714 0.029799217
000040 85 9f 9d 3d 42 c5 da 3d 95 2c ae 3d 55 63 1b 3d
       0.076964416 0.10682155 0.08504597 0.037936527
000050 2f 63 c5 bd 9b bc 9a bc a7 0e 54 bd f2 39 c1 bd
       -0.096380584 -0.018888762 -0.051771786 -0.0943488
000060 56 3a 8d bd 95 c4 94 bd b1 ce 4c 3d 39 cf d2 bd
       -0.06895892 -0.072640575 0.050001804 -0.10293431
000070 a7 c1 0c bd 16 2a be 3c 18 38 9e bd db 1e ce bd
       -0.03436437 0.023213428 -0.07725543 -0.10064479
000080 61 65 bc 3a 62 8b ff bc 5c 57 2d bd a8 45 98 3d
       0.0014373475 -0.031194393 -0.04231964 0.07435161
000090 07 64 95 bd 7e 29 80 bd c6 99 7c bb 47 f5 32 3d
       -0.07294469 -0.06257914 -0.0038543805 0.043690946
0000a0 4b 14 02 bd bc fe 92 3d fe b8 51 3d 92 a3 84 3d
       -0.031757634 0.07177493 0.051201813 0.06476511
0000b0 57 f6 c5 3c 20 6a 16 bd 01 7d c8 bd d2 49 b9 ba
       0.024165316 -0.036722302 -0.097894676 -0.001413638
0000c0 9f e9 c0 bd ef 48 d6 3c 2f d0 d6 3c b2 97 b0 3c
       -0.0941956 0.026157824 0.026222317 0.021556709
0000d0 ea b3 59 3d e5 78 ff 3d ec be 5f bd 66 c6 e5 bc
       0.053150095 0.12474231 -0.054625437 -0.028048705
0000e0 bc 0e 0d bc 03 21 06 3d 34 c7 9f 3d e5 f7 76 3d
       -0.00860947 0.032746326 0.07801667 0.060295004
0000f0 07 7a 3d bd 1d 5b d6 3d c2 ad de 3b d7 a8 18 3d
       -0.046258952 0.10466597 0.006795616 0.037270393
000100 52 54 13 3d 7f 00 00 3b 2b 20 51 bd 65 33 55 bd
       0.035969086 0.0019531546 -0.05105607 -0.052050967
000110 1c 1b 25 3c 29 c4 87 bd a7 0f b5 bc 02 2c 89 bd
       0.010077264 -0.066292115 -0.02210219 -0.06697847
000120 3b 15 2e 3d c0 24 c4 bc 82 2b b0 3c 01 9d 63 3d
       0.042500716 -0.023943305 0.021505121 0.055569652
000130 29 ad 46 bd 86 78 00 bc 57 20 af bd 04 9f c3 bb
       -0.048504982 -0.007841235 -0.0855109 -0.005969884
000140 09 5c 8e bd 8a db 42 bd 8a 4b 92 bb ea 80 ed bc
       -0.06951148 -0.04757265 -0.0044645714 -0.028992135
000150 22 ef ef 3b be ba 93 3d 1d 13 02 bd a8 04 fc bd
       0.007322208 0.072133526 -0.03175651 -0.123055756
000160 9e 53 65 3d 16 66 88 bc 86 f7 9d 3c aa 77 8f bc
       0.055987947 -0.01665024 0.019283067 -0.017513115
000170 2f 1a 6c 3d 2f 14 cf bd 27 aa 8d 3d e7 3c 97 3d
       0.057642158 -0.101112716 0.069172196 0.07384663
000180 42 ca 92 3d c1 d5 0c 3d 1c 7f b8 3d 5b e6 09 3d
       0.07167484 0.03438354 0.09008619 0.03366695
000190 8d f8 96 3c 68 9d b4 bc 3f 4f ae 3d 8b 51 97 3d
       0.018429065 -0.022047713 0.08511209 0.073886
0001a0 e2 82 49 bd 29 8f 4a 3c 30 20 c1 bd 6a 73 c9 bc
       -0.049197085 0.012363234 -0.094299674 -0.024591167
0001b0 5b 51 e1 3c 04 a9 5c bc f7 c3 f4 bd a7 bb ab 3d
       0.027504614 -0.013468031 -0.1195144 0.08385401
0001c0 6a 05 fb 3c 2b eb ba bd c9 0c d6 bd 30 45 43 bd
       0.03064223 -0.09126886 -0.10451657 -0.047673404
0001d0 04 0f c0 bd 0c e8 7f bd 7c 6d 74 bd 5f 49 cf bd
       -0.09377864 -0.062477157 -0.059674725 -0.10121416
0001e0 fc bf 44 3d df c1 f2 3d b6 71 ea 3a 45 75 2d bd
       0.048034653 0.11853384 0.0017886672 -0.042348165
0001f0 c6 5d af 3d ad f1 d6 bd 9a 48 0d bd db 82 c0 bd
       0.08562808 -0.10495315 -0.034493066 -0.09399959
000200 5c db 07 3d 7f dd b1 bd 92 fc be bd 3f a4 35 3d
       0.03316818 -0.08684825 -0.09325518 0.04434609
000210 2f 5a 8a bd 72 11 bf bd 22 bd 55 3b d5 9d 4f bd
       -0.067554824 -0.09329499 0.0032613953 -0.05068763
000220 95 d6 8f 3d 3b ba 02 3c 1a 0c e0 3b 38 8e 29 bd
       0.0702335 0.007978971 0.00683738 -0.041395396
000230 36 13 74 3d 96 6d 92 3d 4c a1 ac 3d 01 ab 62 3c
       0.059588633 0.07149808 0.084292024 0.013834716
000240 b2 f0 ed bd 45 14 1a 3c 11 44 93 bd f2 d4 be bd
       -0.116181746 0.009404247 -0.07190717 -0.0931796
000250 3a 00 94 3d 56 9d 2a 3d 77 cd 0d 3d 9c 33 e2 3d
       0.07226606 0.041653953 0.034619775 0.11045
000260 d2 5f 03 3d c4 fe 8f bc 8e 9e ef bc bf 97 43 3d
       0.032073803 -0.017577536 -0.02925041 0.04775214
000270 50 13 8a 3c f4 61 83 bd 88 cc c5 bd 1f 67 8c 3d
       0.016854912 -0.064151675 -0.09658152 0.06855606
000280 8e 44 99 3d 44 f8 fc 3d 09 3e 86 3d 9e 47 fd 3d
       0.07483779 0.123520404 0.06554801 0.123671755
000290 4f fa 4d bd cd 03 7c 3d cc da 15 3d 15 2d e3 3c
       -0.05028754 0.061527062 0.036585614 0.027731458
0002a0 58 51 9c bd dc 4d 87 bd 93 5f 3d 3d cd 96 e4 3d
       -0.076327026 -0.06606647 0.046233725 0.111615755
0002b0 d9 30 94 3d 5c f4 fc bc c6 ad f2 3d f7 3f 68 3d
       0.072358795 -0.030878238 0.11849551 0.056701627
0002c0 0c ac 90 3c 7c f6 a8 3c b1 a1 b3 3d 28 dd 96 3d
       0.017660163 0.020625345 0.087710746 0.07366401
0002d0 f6 ac ab 3d 79 bc 54 bd 4e 95 be 3d 9f b7 c9 3d
       0.08382599 -0.051937554 0.09305821 0.09849476
0002e0 72 48 09 ba 9a 2f 75 3d 9d 5b 93 bd 9e 88 dd bd
       -0.00052369304 0.05985985 -0.07195208 -0.10817073
0002f0 bd 29 ad bd 78 59 f5 3d cb e5 db 3d ff 7e b0 3c
       -0.084552266 0.119799554 0.10737189 0.021544931
000300 ab 15 c5 3d 93 bf aa 3d ab 7b 2b bd 6a a6 b9 3c
       0.096232735 0.08337321 -0.041865986 0.02266236
000310 33 ac 7d bd 8b fe 02 be fa 53 e0 3d f7 b1 24 bd
       -0.0619318 -0.12792413 0.10953517 -0.040208783
000320 66 64 ff bc 0c 4e a9 3c ee 11 8b 3d fe 8c a2 3d
       -0.031175803 0.020667098 0.06790529 0.079370484
000330 aa 07 f5 bc e4 26 a1 3b 27 0c b0 bb 33 d5 15 bd
       -0.029910881 0.004917966 -0.0053725424 -0.036580276
000340 8b a2 52 bc 7f 93 ae 3c ac 33 a1 bd 44 6f 4d 3d
       -0.012856136 0.021310566 -0.07871184 0.05015494
000350 cd 5a de bd ca f4 cc 3c 58 18 e3 bd c0 c2 0b be
       -0.108571626 0.025019068 -0.110886276 -0.1364851
000360 fa d4 f2 3c 76 0e c2 3c 4e 3c 2f bd 0b 7d 82 3d
       0.02964257 0.023688536 -0.04278212 0.06371506
000370 8f e3 b5 3d 57 ba 29 3c 29 ee db bd 7a 8d eb bd
       0.08881294 0.010359368 -0.10738785 -0.11501594
000380 fc 71 24 be 70 e9 1c 3c da 8e d4 3d db ba 4d 3c
       -0.16059107 0.00957714 0.10378809 0.012556757
000390 89 47 c8 bd 9f db 8e 3d 97 1b e9 3c b0 98 a3 bd
       -0.09779269 0.06975483 0.028455539 -0.07988107
0003a0 01 4a 1b be 3a 04 9e 3c d6 be e7 3d 66 49 a7 3c
       -0.15164949 0.019289125 0.11315696 0.020420741
0003b0 28 af 13 bd dd 18 d6 bc 91 a0 37 bd bf 8b ec bd
       -0.036055714 -0.026134903 -0.044830862 -0.11550092
0003c0 4d ea d6 3b 05 77 c2 bd 3a 5b 05 be 13 6b d9 3d
       0.0065586925 -0.094953574 -0.13023081 0.10616126
0003d0 e0 0c af bd 8b 79 c8 3d 47 2a f3 3d 1b 40 99 3d
       -0.085473776 0.097888075 0.11873298 0.0748293
0003e0 dd 35 0c bd 7c e3 39 bd 0a 34 c9 3c 5c 15 9b bd
       -0.034231056 -0.04538296 0.024560947 -0.07572433
0003f0 1a fc 4a 3d b2 ad 96 bb 28 48 0e 3c c6 85 ea 3d
       0.04955683 -0.004598343 0.008684196 0.114512965

conv1.bias f4 [64]
000000 da b8 dd 3c 08 1c 52 3d 1e c8 8c 3c eb 72 b2 3b
       0.027065683 0.051296264 0.017185267 0.005445828
000010 e8 43 d1 bd 4f 6b 9c 3d 7d ca bc 3d 15 62 97 bd
       -0.1021803 0.07637655 0.09218309 -0.073917545
000020 30 bf 1d bd 7f 59 f8 3c a9 28 19 bd bc ca 8b bc
       -0.03851241 0.030316113 -0.037392292 -0.017064445
000030 fa 17 d4 bd bc 4e 88 bc 5f e2 a4 bd f8 dc 85 bd
       -0.10356136 -0.016639106 -0.08050989 -0.06536287
000040 2d 65 bc 3d 6d 63 c5 bc e7 28 38 bb 91 d5 a7 bc
       0.09198985 -0.024095261 -0.0028100552 -0.020487579
000050 73 5c 13 bd e9 1d d3 bd f9 59 f1 bd cc 01 96 bc
       -0.03597684 -0.10308439 -0.11784739 -0.018311404
000060 03 92 97 bc f2 a7 95 3c 4f 52 d7 bc fd f7 a4 bd
       -0.018502241 0.01826856 -0.026284365 -0.080551125
000070 4b a8 99 bd e0 eb 7c bd ea fa 00 bd bd 1f a3 bc
       -0.075028025 -0.061748385 -0.03148929 -0.019912595
000080 b9 16 a4 bd 80 c9 ad bd 67 ef 8a 3d b6 96 eb ba
       -0.080121465 -0.08485699 0.067839436 -0.0017973993
000090 64 4f 94 bd 32 62 46 3d bc b5 cb bc f4 35 22 3e
       -0.07241705 0.04843349 -0.024866931 0.15840894
0000a0 ff 30 42 3d 88 b1 78 3d 61 9a ab bc 31 27 a7 bc
       0.047410008 0.060716182 -0.020947637 -0.02040443
0000b0 d4 f0 06 3d e1 29 f9 bd c0 72 46 bc 92 5f 0d bd
       0.032944515 -0.12166191 -0.0121123195 -0.03451497
0000c0 3e bb b3 3c 88 ad 04 bd b7 75 db 3d b2 74 80 bd
       0.02193987 -0.032392055 0.10715812 -0.06272258
0000d0 1d ab ac 3b ed 15 3f bb 78 89 8b 3d c7 ca 72 bd
       0.0052694217 -0.0029157356 0.068133295 -0.059275415
0000e0 4d 1f 14 3d f5 6b a6 bd e1 29 1c 3c e2 15 35 3c
       0.036162663 -0.0812606 0.009531469 0.011052581
0000f0 2f ba 7e bc f1 32 e4 39 50 3f 5e 3d d0 97 ab bd
       -0.015547319 0.00043525503 0.0542596 -0.08378565

conv2.weight f4 [32, 64, 5, 5]
000000 af 19 c1 bc 29 c8 1c bd 53 2f 7d 3c 0a 0d 20 bc
       -0.023571817 -0.038276825 0.0154531775 -0.009768734
000010 c0 d6 ff 3c 51 05 99 3b 66 ac 3b bc 50 15 d1 3c
       0.03123033 0.004669823 -0.011454677 0.025522858
000020 55 f5 08 bc ab 2d 23 3c 0f d5 74 bb fd ad c1 bb
       -0.008359273 0.009959619 -0.0037358438 -0.0059106336
000030 ff 1f bf bb a5 01 9e bc a8 0e 00 3b 14 be 33 bd
       -0.0058326717 -0.019287894 0.0019539986 -0.043882445
000040 27 14 ac bc 2f e1 0c bd 6e 38 0e bd a5 f1 db b9
       -0.021005703 -0.03439444 -0.034721784 -0.00041950974
000050 c3 5b e3 b8 e7 05 84 3c d2 1d 9d 3c 3c 63 17 3d
       -0.000108412954 0.016116096 0.019179258 0.03695987
000060 93 a2 4f 3d 5a 54 ea bd b4 81 89 bc c4 72 5e 3d
       0.050692152 -0.1144187 -0.01678548 0.054308668
000070 42 eb a5 b7 e5 3d e3 bc 64 0a df 3a ba 02 10 bd
       -1.9779083e-05 -0.027739475 0.0017016646 -0.03515885
000080 9d a3 6c 3d 8f b5 18 3d a3 49 f9 39 14 02 90 bd
       0.05777322 0.037282523 0.00047547845 -0.07031646
000090 37 c6 af bd ba a1 08 bc 15 30 c7 bc 01 19 23 bc
       -0.08582728 -0.00833934 -0.02431492 -0.009954692
0000a0 2f df bf bd ee 20 b0 bd 03 5f d1 bc 10 96 53 bc
       -0.09368741 -0.08600031 -0.025558 -0.012914196
0000b0 2a 42 51 bc 81 48 61 bd 7e f2 91 bc c9 6f 9b 3b
       -0.012772122 -0.055000786 -0.017815825 0.0047435504
0000c0 2c 9e a6 3b eb 40 c9 bc 86 07 8a 3c 47 27 0b 3c
       0.0050847735 -0.024567088 0.01684929 0.008493251
0000d0 8b 44 bb 3c 75 d5 f0 3c 33 16 76 3c 29 d8 ed bc
       0.022859832 0.02939866 0.015019941 -0.029033737
0000e0 b8 c8 59 bc 8c eb 80 bc df 9f 56 bc dc a3 33 3c
       -0.013292484 -0.015737318 -0.01309964 0.01096436
0000f0 e9 a6 00 bd c9 10 99 ba 2f f2 04 bc eb 18 27 3c
       -0.031409178 -0.0011677976 -0.008114382 0.010198812
000100 72 9b 40 3c 26 7a 38 bd 07 42 aa bb 34 51 0d bd
       0.011755811 -0.045038365 -0.0051958594 -0.03450127
000110 56 54 05 3d ee cd 7b 3d a6 65 a1 bb cf 09 32 3c
       0.032551132 0.061475687 -0.0049254475 0.010866596
000120 d0 85 9a 3c 56 c2 51 3d a5 0a 27 3e c9 0e b0 3c
       0.018862635 0.051210724 0.16312654 0.021491425
000130 5a c2 e2 bc 50 1f c1 bb 43 3e c8 bb b9 b2 f6 3c
       -0.027680565 -0.0058936253 -0.006110938 0.030114518
000140 5d 2b 29 3c ee ac a9 3b 38 18 1a bd f6 ad 1a bc
       0.01032528 0.0051780855 -0.037620753 -0.00944089
000150 ec 99 86 3c 99 63 4c bc 4a 0b d4 3b 62 d3 35 3b
       0.016430818 -0.012474918 0.0064710723 0.0027744402
000160 4f 28 c1 3c 09 cb 82 3c c6 0f 07 bc 36 59 13 bd
       0.023578791 0.015965955 -0.008243507 -0.03597375
000170 ad 8a 68 bc de df df bb 12 a7 d6 bc 26 41 07 bd
       -0.014193219 -0.006832107 -0.026202712 -0.033021115
000180 57 7f 40 bd f9 5a 49 bd 31 b1 f1 bd 98 a6 29 be
       -0.04699644 -0.049159024 -0.11801375 -0.16567457
000190 2f a7 8d 3b 09 80 36 3c f8 74 fb 3b 20 ec 9e bc
       0.0043229084 0.011138924 0.007673856 -0.019399703
0001a0 91 37 43 bd 33 84 93 3c 29 a2 98 3b 0f 92 a2 bb
       -0.047660414 0.018007373 0.004658003 -0.004961259
0001b0 a7 4d ed 3b c3 28 4d bd ef 2c 09 3d 65 56 c3 3c
       0.007241923 -0.0500877 0.033490118 0.023844907
0001c0 4d 61 41 3b d9 24 05 bb b4 43 08 bd 5f b7 3e ba
       0.0029507459 -0.0020316152 -0.03326769 -0.0007275249
0001d0 c6 2d b3 3c 25 14 41 bd 81 69 05 bd 64 97 cb bc
       0.021872412 -0.047138352 -0.03257132 -0.024852462
0001e0 70 b3 86 3d 45 09 39 3c 19 6d 23 3d 1d b4 39 3d
       0.06577194 0.011293714 0.039898966 0.045337785
0001f0 d3 ae 6c 3d 73 d2 ab 3b 60 e8 55 3c 5f fc d3 3a
       0.057783913 0.0052435934 0.013055891 0.0016173235
000200 00 33 99 3c dc 6f 97 bc 20 e0 fa 3a 45 5f 06 3c
       0.018701077 -0.018485956 0.0019140281 0.008201425
000210 dd 65 7f bb 20 f8 f3 3b 95 35 01 bd 40 c6 ed bc
       -0.0038970627 0.0074453503 -0.03154524 -0.029025197
000220 d6 ea d9 bc 80 ac e4 bc 76 4b 0c bd a0 cf fb bc
       -0.026601236 -0.027914286 -0.034251653 -0.030738652
000230 5c 39 0b 3b 29 cf 13 bc 1b 5b f8 3a e0 d9 75 3c
       0.0021243906 -0.009021559 0.001894805 0.015005559
000240 8e d8 c3 ba c4 f0 24 3c 56 cc f4 3c bc 24 92 3c
       -0.0014941858 0.010067169 0.029882591 0.017839782
000250 73 3c e1 3c 2e 3e 73 3c 27 05 6a 3b 20 7d 06 3d
       0.027494645 0.014846368 0.0035708637 0.032834172
000260 fe cd 5a 3d 5b e7 d6 bc 91 cf 7b bd ca 0c 93 bb
       0.053419106 -0.026233366 -0.061477248 -0.0044876086
000270 be 46 d2 bb 76 1b d3 bc 52 27 91 bd 9d ff 34 bd
       -0.0064171245 -0.02576993 -0.07087578 -0.044189084
000280 d6 28 0e 3c e2 79 18 bc 7a c1 26 bc 4b 4c 7b bd
       0.008676728 -0.009306403 -0.010177964 -0.061352056
000290 b3 3f 88 bb ea fd 57 3d ce e6 96 3c 08 a1 56 bd
       -0.004157984 0.052732386 0.018420603 -0.052399665
0002a0 6c e2 9a 3b 73 19 bc 3b 33 26 2b 3d 19 b7 24 3d
       0.0047266986 0.0057403385 0.041784476 0.040213678
0002b0 72 ec 32 bd c9 46 83 3c fd 0d 92 3d 93 cb b8 bc
       -0.043682523 0.016024964 0.07131574 -0.02255801
0002c0 a4 72 01 bd 28 df 63 3c 5e 4a 96 bc 87 3e f9 bc
       -0.03160347 0.013908185 -0.018346008 -0.030425323
0002d0 08 36 06 bd b2 a5 7f 3c df e6 c3 3c 0e 46 ae bc
       -0.032766372 0.01560347 0.023913799 -0.021273639
0002e0 9f c6 d7 3c 95 5a 18 3b 68 32 17 3d e9 bd 8c 3c
       0.026339827 0.002324735 0.036913306 0.0171804
0002f0 b0 39 95 bb a9 87 14 bc 31 18 ba 3c a0 a1 98 b9
       -0.004553996 -0.009065547 0.022716613 -0.0002911212
000300 3d 69 45 bc f1 d9 87 3c fb 67 1d 3d 36 d6 21 3d
       -0.012049017 0.016583415 0.03842924 0.039510928
000310 32 3a 79 3c 4b 96 a0 3c cc d6 80 3d bd 36 e9 3d
       0.015211629 0.019602915 0.06290969 0.113873936
000320 dc 0f 2d 3d c1 1b 59 bd d3 25 fe bc 4c ff 8a bc
       0.042251453 -0.053004984 -0.031023895 -0.016967438
000330 f8 f5 3c bd 1e fc 1d bc 33 05 f5 bc 99 b1 1c bd
       -0.04613301 -0.009642629 -0.029909706 -0.038255308
000340 2a ab 27 bb 57 cb a4 3c 65 45 cb bd 1c ed ce bc
       -0.00255842 0.020116491 -0.09925345 -0.025259547
000350 ba 40 97 bd 7c 12 54 bd a9 c6 cd 3d e4 ad 1c be
       -0.073853925 -0.05177544 0.10047657 -0.15300709
000360 12 8e f2 bd 41 8b 9c bd ae 45 47 bd 6a aa b0 3d
       -0.11843504 -0.07643748 -0.048650436 0.08626254
000370 f5 1c 95 bd 0f 71 a0 bd 58 7f 55 bd ff 34 60 3d
       -0.07280914 -0.07834064 -0.052123398 0.05473804
000380 2d a0 19 3e f6 c4 a1 3c 2f 1a 2b bc e3 7b 16 bc
       0.15002508 0.019747239 -0.010443254 -0.00918481
000390 5f dd 35 bd 92 b6 0d bd 02 41 1d 3d 55 c2 0a 3b
       -0.04440057 -0.03459794 0.038392074 0.002117296
0003a0 8c 3b 9b bc 80 ca 83 bd 83 0c 48 3d 8e b9 bc bd
       -0.018949293 -0.06435108 0.048840057 -0.09215079
0003b0 0d 26 59 bd 4b 03 95 bd 8d 2d 43 bd ad e4 bc 3d
       -0.053014804 -0.07276019 -0.047650862 0.09223304
0003c0 86 ca 01 be d5 6d b7 bd fd 88 7f bb 68 d1 c5 3d
       -0.12674913 -0.08956496 -0.0038991563 0.09659082
0003d0 11 7d a9 3d 7e c4 ef bd 20 0a ec bc 28 12 65 bc
       0.08275808 -0.117074 -0.028813422 -0.01398138
0003e0 ce e9 9d 3e 03 be ba 3c 1b 57 84 3d 5a 7f bb bc
       0.3084244 0.022795683 0.064619265 -0.022887874
0003f0 8b 32 53 bd e7 36 98 bd 26 dc f6 bd ca 17 63 3d
       -0.051561873 -0.07432347 -0.12053709 0.05544261

conv2.bias f4 [32]
000000 49 c8 b4 3b 9f 8f 0a bd ee e0 47 3c 3b 21 b9 bc
       0.00551704 -0.033828374 0.0121996235 -0.022598853
000010 f8 69 77 3c 4d a9 89 bc d3 96 b8 bc 0d f5 96 3c
       0.0151009485 -0.016804362 -0.022532856 0.018427396
000020 f1 b1 4c bc ec 0f 9c bc 7a 4c cd bc b9 3e 68 3c
       -0.012493596 -0.01905056 -0.02506088 0.0141751105
000030 1c 73 42 bc f8 fd 7b bc f4 48 85 3c 01 f3 ee bc
       -0.0118682645 -0.015380375 0.016270138 -0.029168608
000040 57 97 d5 bc a7 49 66 bc 75 1a d2 3a 68 a5 6c bd
       -0.026073141 -0.014055646 0.0016029613 -0.05777493
000050 ae 12 4e 3d e1 29 12 bc 63 34 30 bc a3 0e 88 3b
       0.050310783 -0.0089211175 -0.0107546775 0.0041521355
000060 b4 16 93 bc bb 1f 27 bc 5a 57 9b bc 35 1b a5 3c
       -0.017955162 -0.010200436 -0.01896255 0.020154575
000070 9a 63 de bc d1 6b 7c 3b 6b 8c a7 3c df b4 d9 bc
       -0.027147103 0.0038516412 0.020452699 -0.026575504

conv3.weight f4 [1, 32, 5, 5]
000000 0e 50 50 bd 95 12 9d bc a8 96 cc bc 17 36 09 bd
       -0.050857596 -0.0191739 -0.024974182 -0.03349885
000010 85 5f 10 3b 1e 86 8c 3b f0 2e f1 bc 0d 89 5a bd
       0.002202959 0.004288449 -0.029441327 -0.053353358
000020 c7 03 56 bc 4b 6d 7a 3c 60 6e 9c 3c c4 cb 38 bd
       -0.013062424 0.015284847 0.0190956 -0.0451162
000030 11 5d 29 bd fd d7 0b bb f4 59 13 3c 22 9d b3 bb
       -0.04134852 -0.0021338456 0.008993614 -0.005481378
000040 59 ed c7 bc b3 d7 ef bc 2f f7 7d bc 3f b5 8b 3c
       -0.024405168 -0.029277658 -0.015500828 0.017054198
000050 b0 f5 93 3d 43 1b 69 3d 0b 97 4a 3d 6d 59 26 3d
       0.072245955 0.056910764 0.049460452 0.040612627
000060 14 af fa 3d 3c 72 27 bd b2 8c e2 bc d6 38 38 bd
       0.12240425 -0.040880427 -0.02765498 -0.044976078
000070 56 a8 22 bc a6 09 6d bb 1a d1 28 bd 96 77 5c bd
       -0.00992783 -0.003616908 -0.04121504 -0.053824984
000080 f2 ce c7 bc 73 3f 6c bc eb b6 04 bd b5 5e 07 bd
       -0.024390671 -0.014419424 -0.032401007 -0.033049304
000090 8f 65 6f bc d3 44 28 bd d2 e6 d9 bc e3 ee 64 bc
       -0.014611616 -0.04108126 -0.026599322 -0.013972971
0000a0 e9 0c 26 bd e9 db 37 3c 65 1e 20 bd ba 0a 51 bc
       -0.040539656 0.011221864 -0.039091486 -0.012758905
0000b0 6d bf b9 bc eb a7 e9 bb eb 32 6d bd d5 dc 92 bc
       -0.022674287 -0.007130613 -0.057909887 -0.017927567
0000c0 27 4f e6 bc 8f fc 03 bb c6 74 15 3d 22 ce 73 bc
       -0.028113915 -0.002013955 0.036488317 -0.014880689
0000d0 8e ed d3 3b 55 9d 07 3d 5e d7 0c 3d 35 f6 0c bc
       0.0064675277 0.033109028 0.034385078 -0.008603622
0000e0 5a 78 8d 3c 7c 85 a5 bc 96 91 64 bc 25 36 d9 bc
       0.017269302 -0.020205252 -0.013950726 -0.026515076
0000f0 2b 0d 55 3c 3d bb ec bc db e3 84 bc e1 9e 6d bc
       0.013003628 -0.028897876 -0.016221931 -0.014503212
000100 b4 68 9a 3b 49 e4 ae 3b 25 2b de bb c4 32 df bc
       0.0047121886 0.0053372723 -0.0067800456 -0.027245887
000110 d7 c8 a1 bb cb 03 8e 3c 1d cf 4e 3c f3 a6 8c bc
       -0.004937272 0.017335793 0.012622622 -0.017169451
000120 96 4c b5 bb d6 3f 03 bd 2c ab 9b 3c 9f a0 00 bd
       -0.0055328114 -0.0320433 0.01900252 -0.03140318
000130 4a f4 b4 bc 82 82 5d bd 6f 3a 4b bd 02 de d1 bc
       -0.022089142 -0.05407954 -0.049616273 -0.025618557
000140 48 7e 27 bc 0e 15 bc 3c e1 ce aa 3c c6 68 4a bc
       -0.010222979 0.022959258 0.0208506 -0.0123540815
000150 0c 3d eb 3c 13 9e 8c bb 45 fd 96 bc 06 4c 84 3c
       0.028715633 -0.004291305 -0.018431315 0.016149532
000160 b7 48 a2 bb 5a 00 06 3d 5e 44 3a 3c 12 4a 46 3c
       -0.004952516 0.03271518 0.011368839 0.012102621
000170 27 75 b0 bc 97 4f f8 bb 52 1d 20 3d 84 8a 4a 3d
       -0.021540238 -0.007577847 0.039090462 0.049448505
000180 33 82 d7 3c be 0b e5 3b ad 0f 1d 3d bd 63 aa 3d
       0.026307201 0.006989925 0.038345028 0.08319805
000190 69 11 9e bd 3a c0 1f bd e9 25 c1 bc 60 51 4f bc
       -0.077181645 -0.03900168 -0.023577647 -0.012653679
0001a0 2b 57 8c bd 97 03 63 bb df 55 9a bb 08 d3 1c 3d
       -0.068525635 -0.003463959 -0.0047099437 0.038287193
0001b0 11 32 a2 bc 81 2e 97 bc 92 ca e2 bc fc 75 85 bb
       -0.019799264 -0.018454792 -0.027684484 -0.0040729027
0001c0 13 f4 8b 3c 08 34 01 bb 54 59 45 3c 12 c4 c2 bc
       0.017084157 -0.001971485 0.012045223 -0.023775134
0001d0 b8 f4 9e 3c 6e ed 12 bc 10 21 56 bc bf 19 f9 3b
       0.0194038 -0.00896774 -0.013069406 0.007601946
0001e0 f6 68 6a bc 1d e3 0e 3d 74 b6 f3 3c 24 fd 97 3b
       -0.014307251 0.03488456 0.029750086 0.004638331
0001f0 fc 37 3c 3c 3d 70 e5 bd 6b 33 a7 bd 98 8e 36 bd
       0.011487957 -0.112030484 -0.08164104 -0.04456958
000200 ac b0 6b bd 95 0f 86 bd 91 6e 0e bd 37 57 04 bd
       -0.057541534 -0.06545941 -0.034773413 -0.032309737
000210 25 55 08 bd a2 78 05 bd 6a 77 05 bd 49 da a9 bd
       -0.033284325 -0.032585748 -0.032584585 -0.08293588
000220 ff 9a ab bc 1d 3c 71 bd 95 c5 0f 3b a4 22 8e bd
       -0.020947931 -0.05889522 0.0021937836 -0.06940201
000230 8d 03 66 bd b2 46 f7 bb 56 10 0d bd 3d 5f 0d bd
       -0.05615573 -0.0075462693 -0.034439407 -0.034514654
000240 b1 cf 7f bc fc 17 a3 bd c7 22 5b bd 65 b8 3f bd
       -0.015613482 -0.07963559 -0.053499963 -0.04680671
000250 79 71 61 bc d1 d3 1d bd 3a 69 2a 3d 8d e4 f2 bb
       -0.013759964 -0.038532082 0.041604258 -0.0074124993
000260 1a aa cb bb 78 71 17 3d 5e 25 f4 3c 69 cc 1e bc
       -0.006215346 0.036973447 0.029802974 -0.00969229
000270 48 1d 3a bb 3c 8a 43 bc a6 78 d3 3a cb ce 06 3d
       -0.00283988 -0.011934813 0.0016133978 0.032912057
000280 f3 4f eb bc c7 f2 e4 3b c6 14 4d bb cf 8e f8 bb
       -0.028724646 0.006986949 -0.00312929 -0.0075853835
000290 46 eb 25 3c 06 21 e1 3c f1 4a 94 bc c8 09 0a bc
       0.010126894 0.027481567 -0.018102141 -0.008425184
0002a0 7d 15 88 3b 1a 1a 2c 3c a5 9b 82 3c 15 3f ef 3c
       0.004152952 0.01050427 0.015943358 0.029204885
0002b0 eb 0c 6f 3c c1 81 c8 3c 8b 13 e9 3b ab 9a 9a 3d
       0.014590482 0.024475934 0.0071129254 0.07549032
0002c0 9d 37 8f 3d a9 2b b4 3c 50 29 03 3c fe 57 28 3d
       0.06993029 0.021993475 0.008005455 0.04109954
0002d0 50 f9 a5 3d 5d 44 a7 3c db d9 bb 3c cd 17 8c 3c
       0.08104193 0.02041834 0.02293103 0.017101193
0002e0 ef 05 00 3d cd f3 80 3d 24 a8 1a bc 0b 8e 16 3d
       0.03125566 0.06296501 -0.009439502 0.036756556
0002f0 51 be 2d bc 3a bd 46 bb 85 79 03 3d 7a 24 01 3d
       -0.010604457 -0.003032519 0.032098312 0.031528927
000300 26 e4 06 3d 39 d8 65 3b aa 0f 4d 3c e8 49 cd 3c
       0.032932423 0.0035071506 0.012515942 0.025059655
000310 22 f9 b8 3c 1f 81 9d 3c e3 41 a8 3b 51 87 2f 3d
       0.022579733 0.019226609 0.0051348074 0.042853657
000320 f5 59 39 3d 00 77 2c 3d 35 4e 45 3d 82 55 13 3d
       0.045251805 0.042105675 0.048170287 0.03597022
000330 88 8f 97 3d eb fd 67 ba e7 05 21 3d 62 72 2e 3b
       0.07400423 -0.00088497874 0.03931227 0.002661847
000340 ab 85 c8 3c 1b 2e 6a 3d 9c db 97 3c 3a b7 c7 3c
       0.0244778 0.057172876 0.018537335 0.024379361
000350 8d 7c 2e 3d aa 6c bd 3b 62 71 a5 3c 36 f4 b3 3c
       0.04259925 0.005780776 0.020195667 0.021967035
000360 4e d9 39 3c c9 1a dc 3c 96 1b a7 3c bc db 06 3c
       0.011343313 0.02686824 0.020398896 0.0082311
000370 79 31 ef 3c ef 8b 57 3c 1b 10 f9 3c ac 9e 6e bc
       0.029198395 0.013155921 0.030403187 -0.0145641975
000380 a9 6d c9 3c 6b b9 38 3d aa c5 f8 3c 2b 81 da 3c
       0.024588423 0.045098703 0.030367691 0.02667292
000390 96 7a 53 3d 27 b6 25 3d e8 79 37 3d 8e 6e dc 3c
       0.05163058 0.040456917 0.044793993 0.026908185
0003a0 21 0c 36 3c b2 a6 c5 3c e3 5a 22 3d 44 8f 00 3b
       0.01111129 0.024127338 0.039637458 0.0019616643
0003b0 10 1d cb 3a dd 61 9a 3c a9 0b 16 3d 81 a8 da 3c
       0.0015496332 0.018845493 0.036632214 0.026691677
0003c0 1a 6d 17 3d 85 26 36 3d f6 ed de 3c c8 ef ec 3b
       0.03696928 0.04447033 0.027213078 0.0072307326
0003d0 f4 6e 3b 3d fb 59 5d 3d c9 aa 69 3d 6a ed 2d 3d
       0.04576011 0.05404089 0.05704764 0.042462744
0003e0 e4 6e 26 3d 9d 83 99 3d 6a 92 e5 3c 00 42 a1 bb
       0.040633097 0.07495806 0.028023917 -0.004921198
0003f0 8d ed 7a 3c f5 dd 72 bb 26 06 2c 3d e2 91 ed 3a
       0.015315426 -0.0037058566 0.04199805 0.0018125142

exp_avg f4 [64, 1, 9, 9]
000000 39 c8 1f 3b 60 d6 1d 3b d8 50 1a 3b e7 d3 18 3b
       0.0024380817 0.0024084076 0.0023546722 0.0023319663
000010 2f 35 1a 3b 7c 48 1b 3b d5 79 19 3b 5c 57 1e 3b
       0.0023530235 0.0023694327 0.0023418565 0.0024160957
000020 a6 dd 20 3b a9 ba 22 3b b8 e1 1f 3b 99 2c 1f 3b
       0.0024546175 0.0024830496 0.0024396013 0.0024288057
000030 14 1e 1e 3b 3e 1a 1e 3b 54 3c 1f 3b 20 77 1f 3b
       0.0024126815 0.0024124528 0.0024297433 0.0024332479
000040 e1 fa 1e 3b f2 fe 21 3b 88 b5 27 3b ef 37 26 3b
       0.0024258422 0.002471861 0.0025590379 0.002536293
000050 da 4a 28 3b ed 37 29 3b f8 2c 26 3b c7 5f 23 3b
       0.002567938 0.0025820688 0.0025356393 0.0024928914
000060 50 bc 23 3b 9a 30 23 3b 83 98 24 3b ef bd 2e 3b
       0.002498407 0.0024900795 0.0025115318 0.0026663502
000070 7c 05 33 3b 0e a2 31 3b ce ff 30 3b 22 c4 2e 3b
       0.0027316501 0.0027104649 0.002700794 0.0026667197
000080 f5 0b 2a 3b f2 1f 28 3b d9 21 26 3b 18 95 25 3b
       0.0025947068 0.0025653807 0.0025349765 0.0025265869
000090 f0 55 37 3b 0c 9e 39 3b ba 82 3e 3b ed 1e 3a 3b
       0.0027974807 0.0028322963 0.0029069618 0.002839978
0000a0 96 8d 32 3b 04 c1 29 3b 6c 28 23 3b e1 9e 22 3b
       0.0027245036 0.00259024 0.002489592 0.0024813937
0000b0 89 c3 23 3b 04 88 3e 3b c0 b5 42 3b fc 2c 45 3b
       0.0024988374 0.002907277 0.0029710382 0.0030086627
0000c0 8d b5 40 3b bc f0 37 3b 2b 6b 2b 3b fa 48 23 3b
       0.0029405088 0.0028067073 0.0026156406 0.0024915324
0000d0 62 e3 20 3b eb 28 21 3b cf 76 41 3b c8 7c 45 3b
       0.0024549593 0.002459104 0.0029520278 0.003013419
0000e0 13 ad 45 3b 5e 53 3f 3b ab cb 39 3b 33 37 2d 3b
       0.0030162975 0.0029193978 0.0028350155 0.0026430606
0000f0 0c f8 23 3b 2d d5 20 3b 06 02 21 3b 0d d5 40 3b
       0.0025019674 0.0024541125 0.0024567856 0.0029423863
000100 cb 05 41 3b 88 08 42 3b e2 ce 3f 3b b0 cd 38 3b
       0.0029452916 0.0029607136 0.00292676 0.0028198771
000110 e9 b4 2f 3b 5c c0 26 3b 73 5d 23 3b 65 b1 21 3b
       0.0026810712 0.0025444245 0.0024927526 0.0024672386
000120 84 da 3d 3b b6 73 3b 3b 57 70 3b 3b d7 c3 37 3b
       0.0028969357 0.0028602905 0.0028600895 0.0028040314
000130 ea 1f 38 3b 44 1c 2f 3b db b1 2b 3b 6b ef 29 3b
       0.0028095194 0.0026719728 0.002619854 0.0025930058
000140 39 65 26 3b 58 4e 87 39 4d 90 54 39 20 72 f0 38
       0.0025389923 0.00025807577 0.00020271652 0.00011465349
000150 2f 62 8b 38 fd 7f 3a 38 64 b2 a3 38 1a f3 0b 39
       6.6463246e-05 4.4465054e-05 7.8056735e-05 0.00013346635
000160 21 24 37 39 a3 e0 4a 39 83 4c 6a 39 40 03 3c 39
       0.00017465699 0.00019347905 0.00022344482 0.00017930288
000170 de 65 b2 38 70 d1 bc 36 33 00 8b 37 16 a0 c8 37
       8.506676e-05 5.6272183e-06 1.6570184e-05 2.3916404e-05
000180 85 fe 12 39 1e 07 4c 39 32 5d 74 39 d2 ee 5b 39
       0.00014018461 0.00019457607 0.00023304371 0.00020974435
000190 dd f1 4a 39 6c 10 81 38 57 0b d3 b7 9f 70 dd b5
       0.00019354322 6.154258e-05 -2.515844e-05 -1.649856e-06
0001a0 cc 0d c8 37 31 c7 f5 38 8b fb 52 39 92 86 99 39
       2.3848283e-05 0.00011719613 0.00020120868 0.00029282697
0001b0 b7 be 6e 39 d7 02 32 39 b7 90 03 39 dd bd 97 38
       0.00022768496 0.00016976461 0.00012547044 7.235606e-05
0001c0 06 b6 3e 38 52 04 c8 38 a8 ab 42 39 b0 6c 83 39
       4.5469053e-05 9.537548e-05 0.00018565229 0.00025067246
0001d0 80 18 9d 39 02 ee 86 39 dd 3b 86 39 b8 f4 61 39
       0.00029963627 0.000257358 0.00025603073 0.00021548837
0001e0 07 32 2a 39 20 bd 0f 39 74 6d 0e 39 e2 f7 80 39
       0.000162311 0.00013707997 0.0001358295 0.0002459875
0001f0 ee 0c b5 39 81 82 c2 39 5d 74 9b 39 29 9d 70 39
       0.00034532644 0.00037099796 0.000296506 0.0002294673
000200 94 c5 96 39 02 8e 57 39 27 ce 37 39 7b 30 82 39
       0.00028757437 0.000205569 0.00017529038 0.00024831653
000210 f5 79 8f 39 06 5a b7 39 ec c5 e8 39 88 bc 8a 39
       0.0002736595 0.00034971553 0.00044397952 0.00026461878
000220 f4 99 a7 39 02 5f 8f 39 35 cb 8e 39 e0 ca 89 39
       0.00031967426 0.00027345872 0.00027235752 0.0002628183
000230 20 51 a0 39 9f 13 b1 39 4c bf dc 39 7b c0 02 3a
       0.0003057802 0.0003377469 0.00042104197 0.0004987788
000240 6b 87 91 39 74 96 a3 39 1d 33 8c 39 16 b1 91 39
       0.0002775745 0.0003120188 0.00026740963 0.00027788494
000250 72 12 a0 39 97 1f af 39 16 ef c0 39 b9 e1 f3 39
       0.0003053132 0.00033402137 0.00036799227 0.00046516748
000260 44 2f 0c 3a 01 80 ac 39 98 01 9a 39 d3 ce 99 39
       0.00053476193 0.00032901767 0.00029374356 0.0002933653
000270 ed bd 96 39 ac ee a4 39 c1 d7 b1 39 c9 20 da 39
       0.00028751735 0.00031458342 0.0003392082 0.00041604627
000280 fe 57 fe 39 9b 08 10 3a 76 c5 9f ba 3a fc a7 ba
       0.00048512215 0.00054944464 -0.0012189585 -0.0012816258
000290 e9 9d b3 ba 59 20 99 ba 06 05 6c ba 55 9d d9 b9
       -0.0013703677 -0.0011682614 -0.0009003434 -0.00041506687
0002a0 91 fa ef 35 b9 51 c8 39 ae 40 3f 3a 63 95 bc ba
       1.7879812e-06 0.0003820786 0.000729571 -0.0014387782
0002b0 c6 70 cc ba b2 ae d3 ba a4 5d b7 ba 7e 2f 87 ba
       -0.0015597574 -0.0016150086 -0.0013989699 -0.0010313836
0002c0 16 13 e1 b9 65 b6 67 39 c8 bd 31 3a 3a e3 6f 3a
       -0.00042929564 0.00022097824 0.0006780294 0.0009150986
0002d0 e9 52 cf ba 66 b2 ea ba ee 02 e5 ba 65 fe c0 ba
       -0.0015817556 -0.001790595 -0.0017472187 -0.0014724253
0002e0 1a 3a 89 ba 1b 70 85 b9 d2 ce ca 39 a8 59 5f 3a
       -0.0010469586 -0.00025451262 0.00038682536 0.0008520135
0002f0 67 e8 94 3a 9b 57 d3 ba 31 dc e7 ba 8b 2e e9 ba
       0.0011360765 -0.0016124131 -0.0017689524 -0.001779036
000300 86 5f bc ba 95 91 4a ba 0f d1 bc 37 91 77 63 3a
       -0.001437173 -0.0007727382 2.2508697e-05 0.00086771796
000310 72 e3 a9 3a dd 20 ba 3a ff 4a c4 ba 06 56 db ba
       0.0012961461 0.0014200468 -0.0014975964 -0.0016734011
000320 8b 66 cf ba 91 92 97 ba 64 e4 b7 b9 4f 58 1f 3a
       -0.0015823407 -0.0011564066 -0.00035074644 0.00060785277
000330 30 a5 b0 3a 4f 59 df 3a f3 49 e0 3a e0 74 ae ba
       0.0013476964 0.0017040166 0.0017111882 -0.0013309978
000340 59 ed aa ba ae b5 96 ba 21 3b 35 ba 20 77 58 39
       -0.0013040706 -0.0011498237 -0.0006913413 0.00020643743
000350 ce 36 78 3a ad cd da 3a e2 76 ee 3a 74 ab e6 3a
       0.0009468616 0.0016693376 0.0018193389 0.0017598704
000360 21 30 85 ba 79 a9 6a ba 97 fe 27 ba d3 e9 90 b8
       -0.0010161438 -0.0008951645 -0.0006408481 -6.910008e-05
000370 50 92 2a 3a f5 69 b9 3a 51 7e e9 3a 6f 44 fc 3a
       0.00065067876 0.0014145958 0.0017814134 0.0019246469
000380 64 a7 e5 3a 6a 44 35 ba f9 14 d5 b9 ac 65 35 b9
       0.00175212 -0.00069147965 -0.00040642152 -0.00017299381
000390 83 65 a1 39 b1 6f 87 3a e9 0f c9 3a 17 71 ec 3a
       0.00030783945 0.0010332969 0.0015339825 0.0018039074
0003a0 5f e5 e7 3a 59 9e d9 3a ad dc ad b9 d6 aa 06 b9
       0.0017692259 0.0016602977 -0.00033161548 -0.00012842877
0003b0 ef e7 2e 39 0b c1 21 3a cc e3 91 3a b7 ce b4 3a
       0.00016680335 0.0006170428 0.0011130511 0.0013794516
0003c0 f7 ff d6 3a 64 4b cb 3a 5f 7c b0 3a 0a 10 a9 b9
       0.0016403188 0.0015510139 0.00134648 -0.00032246142
0003d0 c9 b5 8e b9 96 f4 81 b9 6d e9 04 b9 1e 03 d9 b8
       -0.0002721979 -0.00024787028 -0.00012675459 -0.00010347947
0003e0 e6 72 d9 b7 c1 7f c9 b8 88 48 82 b8 0d 12 0f b9
       -2.592192e-05 -9.608223e-05 -6.212393e-05 -0.00013644267
0003f0 68 17 bb b9 54 87 a1 b9 38 3e 9a b9 a7 72 6d b8
       -0.00035684858 -0.0003080914 -0.00029419526 -5.661198e-05

exp_avg_sq f4 [64, 1, 9, 9]
000000 87 5b 89 37 4c 32 83 37 f0 d1 79 37 02 e9 6b 37
       1.6374293e-05 1.5639838e-05 1.4890436e-05 1.4061343e-05
000010 98 df 6d 37 b0 8e 71 37 2f 8a 75 37 cf c6 82 37
       1.417836e-05 1.4397941e-05 1.4635311e-05 1.5589785e-05
000020 95 5a 88 37 28 4d 8f 37 6d 4e 8a 37 10 d2 85 37
       1.6254644e-05 1.7082857e-05 1.6487402e-05 1.5952653e-05
000030 96 7f 7f 37 00 48 7a 37 6b e5 7c 37 ee 6b 7d 37
       1.522889e-05 1.4917925e-05 1.5073786e-05 1.51051045e-05
000040 75 05 7e 37 47 ef 84 37 a5 86 9a 37 03 11 98 37
       1.514085e-05 1.5847048e-05 1.842093e-05 1.8127734e-05
000050 21 1a 96 37 1c 6f 92 37 20 e2 8c 37 96 ba 87 37
       1.789356e-05 1.7456296e-05 1.6794598e-05 1.618014e-05
000060 e8 52 83 37 b5 ef 80 37 e9 bf 82 37 87 ec a9 37
       1.5655023e-05 1.5370411e-05 1.5586573e-05 2.0256512e-05
000070 2b 64 b1 37 51 26 ae 37 11 16 a5 37 c8 36 9e 37
       2.1146689e-05 2.0760259e-05 1.9679808e-05 1.8860577e-05
000080 ea a8 92 37 69 eb 8a 37 d7 03 82 37 aa 1e 82 37
       1.7483213e-05 1.6560503e-05 1.5498996e-05 1.5511487e-05
000090 7f ce be 37 80 e9 c4 37 b3 ac ca 37 56 f2 c0 37
       2.2745922e-05 2.3473753e-05 2.4160696e-05 2.300103e-05
0000a0 9b 63 ae 37 79 7e 9d 37 23 28 8d 37 d0 18 83 37
       2.0788799e-05 1.8774752e-05 1.68272e-05 1.5627971e-05
0000b0 c4 7d 81 37 8a 24 d0 37 cd 45 d9 37 8d a6 df 37
       1.5436563e-05 2.4812547e-05 2.590092e-05 2.6661228e-05
0000c0 be c9 cf 37 b2 23 c1 37 af 76 a9 37 6c 3b 96 37
       2.4770266e-05 2.3024015e-05 2.0201636e-05 1.7909064e-05
0000d0 0c 8c 87 37 5b 9a 82 37 33 0f d8 37 22 bc e5 37
       1.6158468e-05 1.5569085e-05 2.5756284e-05 2.7386533e-05
0000e0 22 bd e4 37 85 0c d7 37 80 13 c8 37 d5 d2 ac 37
       2.726779e-05 2.5635827e-05 2.3850938e-05 2.0602174e-05
0000f0 d1 11 9b 37 25 e1 8d 37 bc 3a 88 37 36 da d2 37
       1.8485736e-05 1.6913351e-05 1.6239814e-05 2.5135563e-05
000100 28 b7 db 37 8e 9e db 37 00 49 d2 37 98 76 be 37
       2.6192123e-05 2.6180667e-05 2.5067944e-05 2.270499e-05
000110 9d 1f b0 37 60 de 9c 37 1f 0e 95 37 40 02 8e 37
       2.0995556e-05 1.87002e-05 1.776876e-05 1.6928767e-05
000120 bd fd c8 37 24 6f c8 37 fd 6f c9 37 e8 25 c2 37
       2.3960014e-05 2.3893612e-05 2.4013216e-05 2.3144254e-05
000130 77 2b bc 37 3b 38 ac 37 e4 05 a2 37 80 64 9c 37
       2.2431586e-05 2.0530182e-05 1.9314648e-05 1.8643448e-05
000140 2b ff 94 37 d7 ac 5f 37 14 78 74 37 b6 ef 83 37
       1.7761797e-05 1.3332078e-05 1.4571491e-05 1.5728041e-05
000150 69 d3 90 37 8c 38 99 37 90 b4 89 37 42 a6 75 37
       1.7264583e-05 1.8265353e-05 1.6415754e-05 1.4641848e-05
000160 83 09 81 37 13 ed 6d 37 cf b2 6e 37 5a c4 80 37
       1.5382428e-05 1.4181499e-05 1.4227538e-05 1.5350222e-05
000170 4b 85 98 37 7f f2 97 37 8d 20 ab 37 99 4c a0 37
       1.8181881e-05 1.8113524e-05 2.0399946e-05 1.9109155e-05
000180 dd d9 90 37 41 d0 82 37 0d 2b 80 37 c3 30 77 37
       1.7267588e-05 1.5594183e-05 1.5278836e-05 1.47337005e-05
000190 75 a9 88 37 b0 be 99 37 90 37 b9 37 79 6a ba 37
       1.6291373e-05 1.8327817e-05 2.2079592e-05 2.2222508e-05
0001a0 60 ce 9c 37 5b 03 91 37 c7 eb 76 37 08 61 70 37
       1.869275e-05 1.728691e-05 1.4717639e-05 1.4327707e-05
0001b0 2e e4 78 37 8f 76 86 37 f9 b9 90 37 48 fa b9 37
       1.4835079e-05 1.6029253e-05 1.7252738e-05 2.2170265e-05
0001c0 58 90 b6 37 ca f2 9a 37 ca ce 88 37 cb 0c 80 37
       2.1763306e-05 1.8471288e-05 1.6308757e-05 1.5264746e-05
0001d0 36 df 67 37 1d 12 6c 37 87 48 80 37 f5 45 8b 37
       1.3820643e-05 1.40709135e-05 1.5292562e-05 1.6602668e-05
0001e0 0c 3e ab 37 76 37 ba 37 2e f1 9f 37 39 69 8c 37
       2.0413681e-05 2.2198754e-05 1.9066585e-05 1.6738299e-05
0001f0 80 8d 8b 37 01 bb 65 37 3d bc 6d 37 d7 aa 72 37
       1.6635982e-05 1.3693004e-05 1.4170128e-05 1.4464101e-05
000200 d3 eb 8e 37 e7 28 8d 37 21 d1 90 37 5d 92 9a 37
       1.7037533e-05 1.6827556e-05 1.7263521e-05 1.8426386e-05
000210 19 bf 85 37 e9 66 74 37 79 13 6f 37 a5 92 68 37
       1.5943822e-05 1.4567494e-05 1.4250044e-05 1.3862421e-05
000220 32 1c 82 37 29 a3 82 37 59 58 88 37 60 84 86 37
       1.5510337e-05 1.5573185e-05 1.6253603e-05 1.6035687e-05
000230 5b a7 8d 37 cd 43 88 37 1b 58 81 37 83 37 6a 37
       1.688644e-05 1.6244036e-05 1.5419026e-05 1.3960412e-05
000240 47 53 5c 37 28 9a 73 37 b0 30 6d 37 b7 1a 6e 37
       1.3132411e-05 1.4519821e-05 1.4137637e-05 1.41921255e-05
000250 33 33 85 37 70 1a 80 37 2e 06 78 37 1a 03 79 37
       1.5878677e-05 1.52711e-05 1.4783391e-05 1.4842279e-05
000260 cd 82 64 37 62 23 67 37 cc f8 68 37 73 76 76 37
       1.3620313e-05 1.3776911e-05 1.3886205e-05 1.4690321e-05
000270 ee c4 71 37 fd 5b 66 37 0e 2d 5e 37 36 35 6e 37
       1.4410571e-05 1.3730486e-05 1.3242721e-05 1.4198295e-05
000280 40 33 6a 37 cc 8f 68 37 d0 e8 27 39 0d 77 2c 39
       1.3959419e-05 1.3861758e-05 0.0001601309 0.00016447548
000290 4b f8 2e 39 b6 db 29 39 dc d9 20 39 e0 67 19 39
       0.0001668643 0.00016198945 0.00015339948 0.00014629913
0002a0 db d3 14 39 09 f5 12 39 74 1b 13 39 e9 87 2f 39
       0.00014193302 0.00014014928 0.0001402924 0.00016739931
0002b0 41 be 36 39 ed 08 39 39 81 d7 2f 39 c5 de 23 39
       0.00017427748 0.000176463 0.00016769582 0.0001562788
0002c0 3f 3a 1a 39 e5 f8 17 39 32 62 18 39 7a 3c 18 39
       0.00014708283 0.00014493203 0.0001453243 0.00014518379
0002d0 f2 aa 35 39 ac ec 3e 39 31 b6 3c 39 94 4a 31 39
       0.00017325187 0.00018207979 0.00017996949 0.00016907818
0002e0 bb 2e 23 39 31 98 19 39 f0 82 1a 39 b7 b9 1d 39
       0.000155623 0.00014647913 0.00014735362 0.00015041871
0002f0 77 11 1e 39 bd f8 35 39 30 13 3c 39 f1 a8 38 39
       0.0001507456 0.00017354167 0.00017936225 0.00017610543
000300 c7 24 2a 39 7a 7d 1c 39 27 a3 19 39 99 48 21 39
       0.00016226164 0.00014924063 0.00014651996 0.00015381201
000310 09 64 27 39 7c 52 26 39 88 d8 2f 39 f3 d7 32 39
       0.00015963627 0.00015861721 0.00016769965 0.0001705585
000320 90 ee 2a 39 4a da 1c 39 6c 72 15 39 4f 7d 1b 39
       0.00016301335 0.00014958638 0.00014252373 0.00014828633
000330 26 17 29 39 e3 d6 32 39 d2 33 30 39 59 6e 24 39
       0.0001612572 0.00017055454 0.00016803973 0.00015681366
000340 f1 f0 22 39 78 cb 19 39 9c 5b 10 39 a2 e0 11 39
       0.00015539282 0.00014667015 0.00013767037 0.0001391196
000350 bd 99 1c 39 45 9d 30 39 c7 34 35 39 37 31 32 39
       0.00014934591 0.00016843255 0.00017281166 0.00016993737
000360 c1 0a 17 39 b3 64 13 39 ab db 0c 39 64 bc 0a 39
       0.00014404488 0.00014056526 0.00013433273 0.00013230887
000370 34 b9 11 39 d6 e3 22 39 38 dd 2e 39 18 8d 36 39
       0.00013897271 0.000155344 0.00016676344 0.00017409434
000380 dc d6 31 39 c9 61 0d 39 bc 72 0a 39 90 1a 07 39
       0.00016960077 0.00013483236 0.00013203447 0.00012884499
000390 58 c0 07 39 64 04 13 39 91 eb 21 39 04 00 2d 39
       0.00012946257 0.00014020648 0.00015441912 0.00016498571
0003a0 f9 e4 2f 39 cd 94 2f 39 ca 1a 09 39 c2 b7 07 39
       0.000167746 0.00016744733 0.00013075318 0.00012943058
0003b0 e7 16 06 39 c6 e2 08 39 70 93 10 39 8b e9 19 39
       0.00012787768 0.0001305445 0.00013787835 0.00014678219
0003c0 e7 42 26 39 68 75 28 39 7b 7c 24 39 03 f8 48 39
       0.00015855917 0.00016065466 0.00015686631 0.00019165878
0003d0 4e ae 3c 39 e6 2f 4d 39 98 0f 52 39 af 99 4e 39
       0.0001799401 0.00019568167 0.0002003297 0.00019702943
0003e0 c4 98 43 39 98 f0 3e 39 73 00 40 39 89 42 37 39
       0.00018653559 0.0001820944 0.00018310714 0.00017477026
0003f0 0f 13 46 39 77 58 45 39 c9 94 4b 39 a9 e7 57 39
       0.00018889851 0.0001882034 0.00019415015 0.00020590298

exp_avg f4 [64]
000000 15 0e f3 3b 3a 0d bc 3a 1e ac 21 b9 89 83 e5 b9
       0.00741745 0.0014347204 -0.00015418275 -0.00043776285
000010 a2 b4 2f bd ba 1a 88 3c 2c 3a 8d 3c 48 56 e0 bc
       -0.042896874 0.016614307 0.017239653 -0.027384892
000020 c3 75 f7 bb f4 1a 66 ba b4 b1 ec 3b 3d 6f 94 bc
       -0.00755188 -0.000877782 0.0072233323 -0.018119449
000030 95 f6 26 35 4c 14 b4 bc 0d d7 89 bb 9c ab 7a bd
       6.2198643e-07 -0.021982335 -0.0042065443 -0.061198816
000040 dd a2 8c 3c ba 17 a8 bd a0 c1 46 bc 5e 6d 8b bd
       0.017167503 -0.082076505 -0.012131125 -0.068079695
000050 04 00 00 80 a1 b9 e9 bc 3c aa 43 3c 78 16 1e bc
       -6e-45 -0.028530898 0.0119424425 -0.009648912
000060 80 97 af bc 24 33 22 3b 77 f1 a6 bb 53 73 47 3c
       -0.021434546 0.002474972 -0.005094703 0.0121734915
000070 64 e8 e3 bc 6a 92 89 bd cc 5f 86 bc 41 cb 8b bc
       -0.027820773 -0.067173794 -0.016403101 -0.017064692
000080 9a 67 94 bc ea 97 3b 3a 00 ad ab 3b 11 ab ac bc
       -0.018115807 0.0007156121 0.005239129 -0.021077665
000090 c2 80 73 bd 59 dd c5 3b 1b ff 18 bc 08 09 da 38
       -0.059448965 0.0060383496 -0.009338166 0.00010396732
0000a0 47 82 e7 bc 3d 06 06 3d cc 72 4c 3a 00 52 31 bc
       -0.028260363 0.032720793 0.00077990885 -0.010822773
0000b0 97 c7 04 3b f7 0d 0f bd 86 fb 42 bd d6 a0 4c 3b
       0.0020260566 -0.034925427 -0.047603153 0.0031223795
0000c0 0a 0e 99 3c 1c 22 31 3a 1c a6 7c 3d 2f 53 93 bd
       0.018683452 0.0006757097 0.06168185 -0.071936004
0000d0 54 b5 21 3c 99 3d e2 bb a4 88 fb 3a a0 59 6b bc
       0.009869892 -0.0069043157 0.0019190502 -0.01436463
0000e0 5b 3c e8 3b ed b6 6e 3b 28 f2 42 bc 0d 19 35 bb
       0.007087273 0.003642495 -0.011898555 -0.002763334
0000f0 c3 9f 99 bc 3b 3a 90 ba 68 3c 3f 3c 0d 5b 04 bd
       -0.018752938 -0.0011003682 0.011672117 -0.032313395

exp_avg_sq f4 [64]
000000 fa 57 2c 39 2c e8 68 39 32 98 a7 3a 80 fc 1a 3b
       0.00016435972 0.00022211735 0.0012786447 0.0023649037
000010 4f 77 10 3c 43 1b 00 3b 05 ef 2d 3b fc e1 8d 3b
       0.008817508 0.00195475 0.0026540172 0.004329918
000020 32 f7 a8 3a 8e 2a 1a 37 8d 02 4c 3a da 19 c3 3a
       0.0012891053 9.189023e-06 0.00077823625 0.0014885024
000030 12 d1 0c 39 d8 2a 30 3b bb 1d a3 39 63 f8 85 3c
       0.00013429325 0.0026881006 0.00031111934 0.016353792
000040 ad 5e 3f 3b 5a 87 e7 3c 97 e8 47 3a 9b ab 9f 3c
       0.0029200718 0.028262783 0.0007625906 0.019491008
000050 8f 6e d0 21 23 c7 31 3b e7 27 d5 3a 54 ba 1b 3a
       1.4123893e-18 0.0027126751 0.0016262502 0.0005940546
000060 f4 2c 45 3b 1a 4d 8e 39 0c 3b 5f 3a b9 86 cd 3a
       0.0030086609 0.00027141796 0.00085155736 0.0015680409
000070 79 9d 64 3b 7a 6c 8f 3c 56 8a 95 3a c8 61 a3 3a
       0.00348839 0.01750778 0.0011409025 0.0012465054
000080 ec ca 8c 3b c7 38 11 3a 36 3d c6 39 40 44 3c 3b
       0.004296651 0.00055397715 0.0003781111 0.0028727204
000090 c8 d8 8b 3c 59 46 58 39 37 c9 6e 3a 53 19 d2 39
       0.017071143 0.00020625572 0.0009108963 0.0004007319
0000a0 b4 f8 8c 3b 45 32 34 3b bf 89 dd 38 3c 75 df 3a
       0.0043021087 0.0027495783 0.000105637584 0.0017048488
0000b0 78 89 05 39 24 6d ab 3b 43 52 41 3c 54 b8 03 3a
       0.0001273508 0.0052315164 0.011799398 0.00050247204
0000c0 a3 52 9d 3a 16 d0 5d 38 61 8a 7e 3c 10 da b9 3c
       0.0012002777 5.28843e-05 0.015535922 0.022686988
0000d0 27 a2 d5 39 c4 3f 1d 3a ff 23 e4 39 1e 98 8f 3a
       0.0004074734 0.00059985765 0.00043514368 0.0010955369
0000e0 15 fb cb 39 d7 de fa 39 6b 71 a1 3a d2 4c 81 38
       0.00038906248 0.00047849744 0.0012317126 6.165508e-05
0000f0 4b 66 28 3b 4b 21 a1 37 51 13 8e 3a 8b 8c 97 3b
       0.0025695737 1.9208199e-05 0.0010839497 0.0046249083
