logs/biosr_ccps_rcan_model-SRCNN_250305_lr0.0001_bs1_Ps256_Npatch128_N300/model_209.pth (torch, 695046 bytes, 15 tensors)

conv1.weight f4 [64, 1, 9, 9]
00000000: 7a77 a43d 3949 eabc 9c31 aa3d 86f2 b9bc
00000010: a89d 3c3d 402e 20bd 0f63 093e 8dd3 3dbc
00000020: b120 513e 4449 e3bc 558d bdbd 20b4 453d
00000030: 3657 4cbd e002 fe3c d062 2f3d 80c6 f53c
00000040: 2dd7 9d3d 4d02 da3d cc6e ae3d f8f1 1b3d
00000050: 2c57 c5bd 35be 99bc 835d 53bd 5e09 c1bd
00000060: 28d2 8cbd d580 94bd 8f2e 4c3d 66c1 d2bd
00000070: 3fe6 0cbd 156b be3c 0c18 9ebd 38e9 cdbd
00000080: a106 d03a 9983 febc 5d39 2dbd f0a4 973d
00000090: 6268 95bd 3d48 80bd 00fb 82bb 7a53 323d
000000a0: 096e 02bd d128 933d 6f2b 523d 4aa5 843d
000000b0: 411f c33c 0828 16bd e583 c8bd 2b9d ceba
000000c0: a458 c1bd 0b98 d43c 575b d63c 6ecf b13c
000000d0: f7e4 593d 3ff2 fe3d e774 5fbd 7f88 e6bc
000000e0: 39a9 10bc d680 053d fa80 9f3d 43e6 763d
000000f0: c68c 3dbd f652 d63d 094a d93b 345a 193d
00000100: 3b04 133d 9ca8 f03a 2898 51bd 3c47 55bd
00000110: a7b1 233c 4cbd 87bd 22ee b5bc ec82 89bd
00000120: 37c4 2e3d 3683 c4bc dbdd af3c 7387 633d
00000130: 470a 47bd 0b66 02bc 0d14 afbd 5526 c1bb
00000140: 7c56 8ebd ceb1 42bd 7388 8dbb 28bc edbc
00000150: 528c ed3b 58ca 933d a147 02bd 13f8 fbbd
00000160: b114 663d c4c1 88bc 9d24 9f3c 070a 8fbc
00000170: 86d7 6b3d 9836 cfbd afef 8d3d 2570 973d
00000180: 0222 933d 9652 0d3d cfbc b83d 6a4c 0a3d
00000190: b6ed 973c b448 b4bc 451a ae3d 9f71 973d
000001a0: 678b 49bd 56b7 4a3c 9702 c1bd e4cc c8bc
000001b0: a179 e13c aa70 5cbc 89cd f4bd 0355 ab3d
000001c0: 16be fa3c 3cc6 babd db16 d6bd 2574 42bd
000001d0: 7cc8 bfbd 96d7 7fbd c444 74bd 0352 cfbd
000001e0: dcea 443d fd8f f23d 4d5b 083b 3671 2cbd
000001f0: ad99 af3d 6a9e d6bd 78bb 0cbd c297 c0bd
00000200: f91c 083d 5cab b1bd 489b bebd 57ef 363d
00000210: 3dd0 89bd 872e bfbd 8994 593b 36c7 4fbd
00000220: a755 8f3d 675f 013c 1f9c e43b 2718 29bd
00000230: 1912 743d f71d 923d 8c6f ac3d 37ff 5d3c
00000240: 269d eebd e6be 1a3c 278f 93bd c056 bfbd
00000250: e401 943d 682e 2a3d 1060 0c3d 3ba6 e13d
00000260: 2169 013d 0d69 90bc 6ef9 efbc 2d87 433d
00000270: 3448 893c 4dbf 83bd 19b1 c6bd 3d8f 8b3d
00000280: 9b32 983d 51e4 fb3d da62 853d 303b fd3d
00000290: 2d4f 4ebd 030f 7c3d 711b 163d 4284 e33c
000002a0: e866 9cbd 852e 87bd eae2 3d3d f917 e43d
000002b0: 7646 943d 42f9 fcbc 9ae1 f23d ee90 683d
000002c0: 4c55 913c fa39 a93c e1ea b33d b64a 973d
000002d0: 7556 ab3d 4bc1 54bd 96ba be3d 3adb c93d
000002e0: 59f5 fcb9 4d4d 753d 7f5f 93bd 958a ddbd
000002f0: 20fc acbd 441b f53d b726 dc3d 84de b03c
00000300: 9049 c53d abed aa3d c1c9 2bbd ad0a b93c
00000310: 07a6 7dbd 58e3 02be a41d e03d 9b7e 24bd
00000320: 0c24 ffbc d7f7 a93c 4367 8b3d d886 a23d
00000330: da9b f6bc 9ef2 9c3b 89d4 afbb ab76 16bd
00000340: bba5 51bc 3228 af3c f804 a1bd 1df6 4d3d
00000350: 5a82 debd 3c8a cb3c 3159 e3bd 17c2 0bbe
00000360: 4eae f13c 130e c33c c8f2 2ebd 29a9 823d
00000370: 7821 b63d d2a1 273c 9a33 dcbd f7ce ebbd
00000380: 255d 24be 708b 1a3c 9301 d53d b13d 4f3c
00000390: 1f4c c8bd d2db 8e3d e464 e83c 70db a3bd
000003a0: 6648 1bbe 2cbb 9e3c ad67 e73d d35a a73c
000003b0: 1ccf 13bd cd3a d6bc 00ba 37bd 908a ecbd
000003c0: c163 d43b be76 c2bd ea1c 05be 8a8d d93d
000003d0: f14c afbd 9c4a c83d b505 f33d 49fc 983d
000003e0: ba43 0cbd 111e 3abd 2e26 ca3c 5712 9bbd
000003f0: fb38 4b3d a76f 99bb 2fed 0c3c 207d ea3d
0.08030601 -0.028599368 0.083102435 -0.022698652 0.04604879 -0.039106607 0.13416694 -0.011586082
0.20422627 -0.027744897 -0.092554726 0.048267484 -0.04988786 0.03100723 0.042818844 0.030001879
0.07707057 0.1064497 0.085172266 0.038072556 -0.09635767 -0.018767456 -0.05160285 -0.09425615
-0.068760216 -0.07251135 0.04984909 -0.10290794 -0.034399267 0.02324442 -0.0771943 -0.100542486
0.0015871116 -0.03106861 -0.042291034 0.07404506 -0.072953 -0.06263778 -0.0039972067 0.04353664
-0.03184322 0.071855195 0.051310953 0.06476839 0.023818614 -0.03665927 -0.09790782 -0.0015763392
-0.09440735 0.025951406 0.026166601 0.021705355 0.053196874 0.124485485 -0.054554846 -0.028141258
-0.008829408 0.03259357 0.07788272 0.06027819 -0.04627683 0.10465042 0.00663114 0.03743954
0.035892706 0.0018360796 -0.051170498 -0.052069888 0.009991086 -0.066279024 -0.022208277 -0.067144245
0.042667594 -0.023988348 0.021468094 0.055549096 -0.048593786 -0.007958899 -0.08548746 -0.005894462
-0.06950089 -0.04753285 -0.0043192445 -0.029020384 0.0072493935 0.072163284 -0.031806592 -0.12303176
0.056172077 -0.016693957 0.019426638 -0.017460836 0.057578586 -0.10117835 0.06930482 0.07394437
0.07184221 0.03450259 0.090203874 0.03376428 0.018545967 -0.022007324 0.08501104 0.073947184
-0.04920521 0.012372812 -0.09424322 -0.024511762 0.027523817 -0.013454596 -0.11953265 0.08365824
0.030608218 -0.091198415 -0.10453578 -0.047474045 -0.09364411 -0.06246146 -0.059635893 -0.10123064
0.04807554 0.1184387 0.0020806373 -0.042100154 0.08574233 -0.10479434 -0.03435847 -0.094039455
0.033230755 -0.08675262 -0.09306961 0.044661846 -0.067291714 -0.09335046 0.0033200106 -0.05072709
0.06998759 0.007896281 0.006976619 -0.0412828 0.05958757 0.071346216 0.084197134 0.0135496175
-0.116510674 0.009444928 -0.072050385 -0.09342718 0.07226923 0.041548163 0.0342713 0.11018034
0.0315944 -0.017628217 -0.029293742 0.047736336 0.016758062 -0.06432972 -0.097017474 0.0681443
0.07431527 0.12299407 0.06512995 0.12364805 -0.050368477 0.061537754 0.036647264 0.027773026
-0.07636815 -0.0660067 0.04635898 0.11137385 0.07240002 -0.030880574 0.11859436 0.05677884
0.017740868 0.020657528 0.08785034 0.07387297 0.083661 -0.05194215 0.09312932 0.09856267
-0.00048247984 0.059888173 -0.07195949 -0.10817448 -0.084465265 0.11968091 0.10749572 0.021590479
0.096331716 0.08346113 -0.041940454 0.022588098 -0.061925914 -0.12782037 0.109431535 -0.040159803
-0.031145118 0.020748062 0.06806805 0.07935876 -0.030103613 0.0047896644 -0.0053659123 -0.036734264
-0.012795861 0.021381471 -0.07862276 0.05028354 -0.10864706 0.024846189 -0.11100996 -0.13648258
0.02950206 0.023810422 -0.042712003 0.06379921 0.088931024 0.010231452 -0.1075203 -0.11514085
-0.16051157 0.009432659 0.10400691 0.012648986 -0.09780144 0.06975521 0.02836842 -0.08000839
-0.15164337 0.01937636 0.112990715 0.02042905 -0.036086187 -0.026151085 -0.044855118 -0.11549866
0.006481618 -0.094953045 -0.12999311 0.106226996 -0.08559597 0.097798556 0.11866323 0.074699946
-0.034244277 -0.04543883 0.024676409 -0.075718574 0.049614888 -0.0046824994 0.008601471 0.11449647

conv1.bias f4 [64]
00000000: ca43 db3c 6fbd 523d e606 8e3c 78c3 ae3b
00000010: 7b60 d1bd 1d5f 9c3d 5f38 bc3d 6377 97bd
00000020: e790 1cbd 4fb1 f43c f3fe 17bd 7260 8cbc
00000030: 3035 d3bd a4e7 88bc a562 a4bd bed2 85bd
00000040: 0f3c bc3d f06c c5bc c92c 3cbb be1d a8bc
00000050: 1066 13bd 2505 d3bd ed8a f0bd 3cca 97bc
00000060: 44ff 97bc b900 953c d515 d7bc 1a3c a4bd
00000070: 90a0 99bd 80e0 7cbd 935e 01bd 2007 a3bc
00000080: cc07 a4bd f249 acbd adb9 8a3d 93e4 f7ba
00000090: 264e 94bd 1969 473d bf63 cdbc b8a8 213e
000000a0: 21c4 423d d705 793d a2b1 aabc a0e6 a7bc
000000b0: ea38 083d b1f3 f8bd 99f6 45bc c634 0ebd
000000c0: 943b b43c 0cf5 02bd 2f4e db3d f575 80bd
000000d0: 61d6 b33b 8791 44bb 89a2 8b3d 5e95 72bd
000000e0: 86a7 143d d222 a6bd 25a0 1d3c 85ff 363c
000000f0: 8e32 7fbc eec9 0c3a 94ad 5e3d 439d abbd
0.026765723 0.05145019 0.017337274 0.0053333603 -0.1022348 0.07635329 0.091904394 -0.07395818
-0.038224127 0.029869704 -0.037108373 -0.017135832 -0.10312879 -0.016712017 -0.080266275 -0.065343365
0.09191143 -0.024099797 -0.0028713217 -0.020521995 -0.035986006 -0.103037156 -0.11745248 -0.01852905
-0.018554337 0.018188821 -0.026255528 -0.08019276 -0.07501328 -0.061737537 -0.031584334 -0.019900858
-0.080093 -0.084125414 0.06773696 -0.0018912725 -0.07241468 0.048684213 -0.025071977 0.15787017
0.047550324 0.060796585 -0.020836655 -0.020495713 0.033257402 -0.121558554 -0.012082719 -0.034718297
0.022001065 -0.031971976 0.10708272 -0.062724985 0.0054882024 -0.0029993968 0.068181105 -0.05922448
0.036292575 -0.0811211 0.009620701 0.011169319 -0.015576018 0.0005370666 0.054364756 -0.08379605

conv2.weight f4 [32, 64, 5, 5]
00000000: 0b31 bfbc df82 1cbd f0f7 793c e494 24bc
00000010: 3e3c fe3c cd8b a03b c534 38bc 8c27 d23c
00000020: 825f 05bc 749a 263c c8e7 6ebb d96a c5bb
00000030: de01 c7bb 5b7d 9ebc 1df9 003b 56ff 33bd
00000040: 513c acbc 0945 0dbd 63d0 0cbd 4cf2 d4b9
00000050: 8396 6039 43ce 853c 50fe 9e3c eaec 173d
00000060: a00d 4f3d 6971 edbd b126 90bc 2963 5d3d
00000070: c51d a639 c303 dcbc af18 193a bf19 15bd
00000080: 5ab0 6c3d 9054 1b3d ee2a 863a 5564 8ebd
00000090: 58a4 afbd 66b0 dfbb 4971 babc 927f 18bc
000000a0: 74e4 bdbd 58f1 acbd b46c c5bc 5e88 4ebc
000000b0: 1a1c 47bc 998a 5cbd bc68 8dbc 34e3 b13b
000000c0: 7c2a 873b 09f3 cabc cecd 893c bea8 0a3c
000000d0: 820e bb3c 996d f03c 59ce 753c 4e29 eebc
000000e0: 7a7b 5abc 6c5e 81bc c02d 59bc 1152 333c
000000f0: b515 00bd 4838 90ba 3b9f 06bc 48cf 263c
00000100: 38c9 403c f076 37bd 4a0a a3bb 0d6e 0cbd
00000110: 7495 063d 7088 7d3d cc1a 96bb 2458 353c
00000120: 4cbc 9c3c 554d 523d 52d8 263e 2437 b03c
00000130: 0e51 e1bc 56a6 b8bb bf0a c6bb 054d f63c
00000140: 8bb6 263c b331 a33b a24f 19bd 2a34 19bc
00000150: cf5e 843c d3b3 48bc 879e dd3b 2f89 413b
00000160: cecc c23c 640a 823c cd2c 00bc feed 12bd
00000170: c0af 63bc 9e57 e4bb ba01 d8bc c39e 06bd
00000180: 0709 40bd 9a20 4cbd 0d94 f3bd 179e 2abe
00000190: 2c5c 863b 9d0c 393c de56 ff3b 7dd2 9abc
000001a0: d51f 41bd d7ea 943c 13f0 a13b 2bb9 a1bb
000001b0: 7ea4 ef3b 200e 4bbd 7225 093d f7f9 c33c
000001c0: 1746 4a3b 50ce 01bb fd67 07bd b4c7 97ba
000001d0: 9b62 ad3c a2a8 41bd fbb6 05bd 5185 cbbc
000001e0: 0d22 843d a567 3a3c 95bc 203d 0b11 3a3d
000001f0: bf77 703d 8ca3 ac3b e09b 533c 6f97 c03a
00000200: 5fa2 983c e188 97bc 8b88 043b 7d69 063c
00000210: e152 80bb 54d7 f53b 2617 01bd 905f ecbc
00000220: eb93 d8bc ea17 e4bc 4bb9 0bbd 315b fabc
00000230: e3f0 1b3b 0c60 10bc 081c 073b 7a1c 793c
00000240: a706 aaba 4280 263c 81e1 f53c 8221 933c
00000250: 8041 e33c fa9c 723c c363 623b 6a8a 073d
00000260: 1ca5 5b3d 09bd d3bc 3888 7abd 769d 95bb
00000270: 69e3 bfbb 4ccf cebc 1545 8fbd 9455 31bd
00000280: 48fd 0f3c ad65 14bc a538 24bc b9ea 77bd
00000290: 2509 69bb afb7 583d 98fc 983c 7209 57bd
000002a0: 0a43 a53b 3442 d73b ba52 2d3d a901 263d
000002b0: a757 31bd c43c 873c b068 943d 9139 b4bc
000002c0: 1d2c febc 663b 5b3c 480a 98bc 93a4 fcbc
000002d0: b87e 05bd b900 7d3c cec4 bf3c b3aa b2bc
000002e0: c692 cf3c 4075 0e3b 94f1 163d cd82 873c
000002f0: 4edf b1bb 93bd 23bc 8165 b93c 711c 1eba
00000300: 4307 45bc 6018 823c 7637 1b3d e319 193d
00000310: 7bff 643c fe27 923c ffaf 783d 0667 e53d
00000320: 3af8 263d 4cd8 5bbd efa7 02bd a707 93bc
00000330: d592 3ebd 0f7a 2dbc 9abd f8bc 3390 20bd
00000340: bcae 45bb 473a a13c 1e9a cabd a7e7 e1bc
00000350: da45 98bd 6752 53bd 8765 cd3d 29d7 1bbe
00000360: ad9f f0bd cc70 a0bd 3e84 48bd 7996 b13d
00000370: cabe 8fbd d9f1 9cbd 59e0 57bd 646b 5d3d
00000380: ec7f 193e f2f7 9b3c bbd0 1dbc de91 07bc
00000390: 6c6a 2fbd 1106 08bd 0e96 223d 9170 e93a
000003a0: 34f0 a5bc 71de 83bd 9a86 3f3d 954b b6bd
000003b0: 9bc7 58bd 1af9 95bd 0480 4ebd 1e8a b33d
000003c0: 2141 fcbd f040 b5bd 697c 08bc b599 b13d
000003d0: d6e1 a23d 6690 e7bd 4714 01bd e01b 8ebc
000003e0: 6d94 983e 7393 d23c 0252 853d a1c9 bdbc
000003f0: 3ee6 54bd b12f 98bd 6891 f7bd e6cf 643d
-0.023338815 -0.038210746 0.015256867 -0.010045264 0.031034585 0.004899478 -0.01124305 0.025653623
-0.008140447 0.01016866 -0.003645407 -0.0060247 -0.0060732206 -0.019346884 0.0019679733 -0.04394468
-0.021024855 -0.034489665 -0.03437842 -0.00040616316 0.00021418375 0.016333705 0.019408375 0.037091173
0.050550103 -0.11593897 -0.017596575 0.054049645 0.00031684167 -0.026857262 0.0005840165 -0.036401507
0.05778537 0.037922442 0.0010236183 -0.069527306 -0.08576268 -0.0068264483 -0.022759097 -0.009307759
-0.092720896 -0.0844447 -0.024099685 -0.012605755 -0.012152696 -0.053843115 -0.017261855 0.005428696
0.0041249376 -0.024774091 0.016821768 0.008463083 0.022834066 0.029349135 0.01500281 -0.02907243
-0.013335103 -0.015792094 -0.013255537 0.010944859 -0.0312707 -0.0011003101 -0.008216674 0.010181256
0.011766724 -0.044791162 -0.004975592 -0.03428464 0.032857373 0.061897695 -0.004580831 0.011068378
0.019132756 0.05134328 0.16293457 0.021510668 -0.02750447 -0.005635063 -0.0060437615 0.030066023
0.010175358 0.00498029 -0.03742946 -0.009350816 0.01615849 -0.012249905 0.0067632827 0.002953123
0.0237793 0.015874095 -0.007823181 -0.0358715 -0.0138968825 -0.0069684526 -0.02636801 -0.03286625
-0.04688361 -0.04983578 -0.11893473 -0.16661869 0.004100343 0.011294511 0.007792338 -0.018899197
-0.047149498 0.018178387 0.004941949 -0.004935404 0.00731331 -0.049574018 0.033482976 0.023922903
0.003086453 -0.001980681 -0.033058155 -0.0011579902 0.021165183 -0.04727996 -0.032645207 -0.024843844
0.06451807 0.01137725 0.039242346 0.04542641 0.05870795 0.0052685197 0.012915581 0.0014693568
0.018632112 -0.018497886 0.0020222988 0.008203861 -0.00391613 0.0075024758 -0.031516217 -0.028854162
-0.02643772 -0.027843434 -0.034112256 -0.030561062 0.0023794703 -0.008811962 0.0020616073 0.015204543
-0.0012971953 0.010162415 0.030014755 0.017960314 0.027741194 0.014807934 0.0034544326 0.033090986
0.053624257 -0.025846975 -0.061165065 -0.00456589 -0.005855967 -0.025245331 -0.06995598 -0.043294504
0.008788414 -0.0090574445 -0.010023271 -0.060526583 -0.003555843 0.05290955 0.018675134 -0.052499242
0.005043392 0.0065691713 0.042315222 0.040528927 -0.043296482 0.016508467 0.0724653 -0.022000106
-0.031026894 0.013380861 -0.01855959 -0.030840194 -0.03259155 0.015442067 0.023409273 -0.021809911
0.025338542 0.0021737367 0.03685148 0.016541863 -0.0054282313 -0.0099939285 0.022631409 -0.000603146
-0.012025657 0.015880764 0.03789469 0.037378203 0.013976927 0.017841335 0.060714718 0.11201291
0.04076407 -0.053673074 -0.031898435 -0.017947985 -0.04652675 -0.010588183 -0.030363847 -0.03920002
-0.0030163964 0.01968111 -0.09892677 -0.02757628 -0.07435198 -0.051592257 0.100291304 -0.15218796
-0.11749206 -0.07834014 -0.04895424 0.086712785 -0.07018812 -0.07663316 -0.05270419 0.054057494
0.14990205 0.019039128 -0.009632285 -0.008274524 -0.0428261 -0.03320891 0.039693885 0.0017810037
-0.02025614 -0.06438912 0.046759225 -0.08901135 -0.052924734 -0.07322903 -0.050415054 0.08766578
-0.1231711 -0.088502765 -0.008330443 0.086718954 0.07953231 -0.11306839 -0.03151348 -0.017347276
0.2980074 0.025705075 0.065097824 -0.023167433 -0.05197739 -0.074309714 -0.12088281 0.05586233

conv2.bias f4 [32]
00000000: ff9b b43b b131 0abd eee0 473c f32f b9bc
00000010: 7a6f 773c 76f8 89bc cbac b8bc d9e1 963c
00000020: 75a6 4cbc 47ec 9bbc d3d8 ccbc 6750 683c
00000030: 29ca 41bc f8fd 7bbc 720a 853c 9a93 eebc
00000040: ed31 d5bc a740 67bc b157 da3a 6be0 6cbd
00000050: aee3 4d3d 5b43 10bc 46cd 2fbc a30e 883b
00000060: abf7 92bc 859a 26bc f765 9bbc 2808 a53c
00000070: dc84 debc d16b 7c3b 3355 a73c 47d1 d9bc
0.0055117602 -0.033738796 0.0121996235 -0.022605872 0.015102262 -0.016842108 -0.022543332 0.01841824
-0.012490858 -0.019033564 -0.025005734 0.014179326 -0.011827984 -0.015380375 0.016240332 -0.029123116
-0.026024783 -0.014114535 0.0016658214 -0.05783121 0.05026596 -0.008805121 -0.010730093 0.0041521355
-0.017940363 -0.010168676 -0.018969519 0.02014549 -0.027162962 0.0038516412 0.020426368 -0.026589049

conv3.weight f4 [1, 32, 5, 5]
00000000: 77de 4ebd 4bfc 98bc 4fc5 c8bc 873f 07bd
00000010: 1467 233b a37f 963b 94a1 efbc 0d39 5abd
00000020: 5246 50bc 2367 7e3c 4526 9d3c b821 39bd
00000030: 98e2 29bd 5412 01bb 3d41 133c 7105 b5bb
00000040: 6f02 c7bc 590e efbc 7fa3 78bc ddc0 8c3c
00000050: 07a6 923d 7d72 683d f03f 4a3d 09fb 253d
00000060: 48d2 f93d a65a 27bd 3a59 e1bc b359 37bd
00000070: 3777 1ebc c21b 5bbb 6779 28bd 05c6 5bbd
00000080: ea40 c6bc 4b82 69bc a41a 04bd 0cd1 06bd
00000090: 9279 6cbc 4eb4 27bd c654 d9bc 4003 64bc
000000a0: e581 25bd 9d69 3a3c 23a3 1fbd e944 50bc
000000b0: 930a b9bc 2362 e2bb 378f 6cbd a773 91bc
000000c0: 126b e5bc b19b e1ba c674 153d 22ce 73bc
000000d0: 8eed d33b 559d 073d 5ed7 0c3d 35f6 0cbc
000000e0: 5a78 8d3c 7c85 a5bc 9691 64bc 2536 d9bc
000000f0: 2b0d 553c 3dbb ecbc dbe3 84bc e19e 6dbc
00000100: b468 9a3b 49e4 ae3b 252b debb c432 dfbc
00000110: d7c8 a1bb cb03 8e3c 1dcf 4e3c f3a6 8cbc
00000120: 964c b5bb d63f 03bd 2cab 9b3c 36c6 00bd
00000130: 09df b3bc dfc6 5dbd 3044 4bbd dcb0 d1bc
00000140: c96d 2abc 3d38 be3c d3c8 ab3c e556 4cbc
00000150: 6e08 eb3c e8e6 93bb 47ad 96bc 88c0 843c
00000160: a453 a5bb 8f2b 063d 49f3 373c 6712 483c
00000170: 2306 b3bc 972a fdbb 7008 203d 0b86 493d
00000180: 7fd7 d63c f922 d33b c1f2 1b3d 7380 a93d
00000190: 44b8 9dbd 6cee 1fbd 00b4 bfbc 1323 4ebc
000001a0: 64e6 8bbd 7cf3 4fbb a1c9 98bb fca9 1d3d
000001b0: 3fb9 a2bc d398 96bc c903 e0bc 2a7e 80bb
000001c0: 4cd8 8d3c f0a1 e5ba 6599 4c3c f018 c0bc
000001d0: 9bce a03c b26c 11bc b6c2 54bc 0c47 013c
000001e0: 7283 66bc 6312 103d 6e0a f53c 743d 9b3b
000001f0: 972a 3f3c c6db e3bd c366 a7bd d98c 35bd
00000200: a824 6bbd bd92 85bd 6046 0dbd 1dd3 05bd
00000210: 363b 08bd 076e 05bd 4899 04bd 09ad a8bd
00000220: bb91 a9bc 4194 6fbd 6349 1f3b d533 8dbd
00000230: d30e 65bd 92c2 f2bb 7663 0cbd 7a52 0ebd
00000240: 71ce 7abc 4276 a3bd 9a45 5bbd d2b9 3dbd
00000250: 9065 5ebc 9e1b 1bbd 9a97 2a3d f268 f1bb
00000260: 929f cabb 77a1 173d be53 f43c bde5 1dbc
00000270: 3b87 35bb daa2 42bc c0fc db3a 4d17 073d
00000280: 890d ebbc f7b8 e63b c458 4abb 262e f7bb
00000290: 94b5 263c 2b5c e13c 40ea 93bc 8270 09bc
000002a0: 3746 893b f8b5 2c3c 1d95 823c 3585 ef3c
000002b0: cea2 6f3c eabd c83c 3aaf e93b e219 9a3d
000002c0: 75f5 8e3d 7e32 b23c 8a9b 003c 8dfa 273d
000002d0: a2be a53d bdf8 a63c 0dfb ba3c 4c0e 8c3c
000002e0: 6311 003d 5496 803d ec2b 1cbc 312e 163d
000002f0: 16bd 2ebc 0006 51bb f2ce 023d ea2f 013d
00000300: 05fd 063d b936 673b 770a 4c3c 22fc cb3c
00000310: 5bab b83c 1b95 9c3c b396 a33b 8dc7 2e3d
00000320: 46ad 383d d8f9 2b3d 6bd7 443d 3a25 133d
00000330: 6167 973d 5a84 86ba 62e3 203d 83f4 283b
00000340: cf3c c83c 81e7 693d 9f38 963c 4f3b c73c
00000350: c511 2e3d 2681 b83b 45b4 a33c 09f1 b23c
00000360: 9d8c 3a3c 6357 dc3c 59a0 a63c 6683 033c
00000370: 7819 ef3c 2fb4 573c 04db f83c ca1f 72bc
00000380: deb2 c53c c1db 333d 4075 f13c 0cb2 d33c
00000390: b272 503d 3e56 213d b92e 343d c2b5 d73c
000003a0: 88dc 2d3c 4b66 c23c 3fe1 1e3d 48a0 7e3a
000003b0: dcb6 573a 4acd 953c 324d 143d 77c1 d33c
000003c0: 8915 133d 5455 333d 43bf d93c 5fed d83b
000003d0: a581 383d 514c 583d f34a 663d b253 2a3d
000003e0: 3881 223d 44bb 973d 848d e43c 1063 a5bb
000003f0: 669b 783c 372c 6fbb 2986 2b3d 0e5e 023b
-0.050505128 -0.01867499 -0.024508147 -0.03301957 0.0024933266 0.004592852 -0.029251851 -0.053277064
-0.012712078 0.015527519 0.019183287 -0.045198172 -0.041475862 -0.0019694762 0.008987722 -0.0055243303
-0.024293153 -0.029181646 -0.015175699 0.017181808 0.071605735 0.05674981 0.04937738 0.04052261
0.12198311 -0.040857933 -0.027508367 -0.04476328 -0.009671978 -0.0033433293 -0.041131403 -0.053655643
-0.024200875 -0.014252256 -0.03225197 -0.032914206 -0.0144332815 -0.040943436 -0.026529681 -0.0139167905
-0.04040708 0.011377719 -0.03897394 -0.012711742 -0.02258805 -0.0069086715 -0.057753768 -0.017755343
-0.028005157 -0.0017212537 0.036488317 -0.014880689 0.0064675277 0.033109028 0.034385078 -0.008603622
0.017269302 -0.020205252 -0.013950726 -0.026515076 0.013003628 -0.028897876 -0.016221931 -0.014503212
0.0047121886 0.0053372723 -0.0067800456 -0.027245887 -0.004937272 0.017335793 0.012622622 -0.017169451
-0.0055328114 -0.0320433 0.01900252 -0.03143903 -0.021956937 -0.054144736 -0.049625576 -0.025597028
-0.010402151 0.023220176 0.020969784 -0.012471889 0.028690543 -0.00451361 -0.018393172 0.016205087
-0.005045371 0.032756384 0.011227437 0.012211419 -0.021853512 -0.0077260244 0.039070547 0.0492001
0.026225803 0.006443378 0.038073305 0.08276453 -0.077011615 -0.039045736 -0.02340126 -0.0125816045
-0.06831053 -0.0031730821 -0.004662708 0.038492188 -0.019863723 -0.01838342 -0.027345555 -0.00392129
0.017315052 -0.0017519575 0.012487744 -0.023449391 0.019629767 -0.008876013 -0.012985876 0.007890474
-0.014069425 0.035173785 0.0299122 0.0047375504 0.011667869 -0.11125903 -0.08173897 -0.044323776
-0.057408005 -0.06522129 -0.034490943 -0.032672036 -0.033259593 -0.032575633 -0.032372743 -0.08236129
-0.020699373 -0.058490995 0.0024305217 -0.06894652 -0.05592234 -0.0074084485 -0.03427454 -0.034746625
-0.0153080085 -0.0798154 -0.053533174 -0.04631979 -0.013574019 -0.037868135 0.041648485 -0.007367247
-0.006183573 0.03701922 0.029825088 -0.009637293 -0.0027699012 -0.011879647 0.0016783699 0.032981206
-0.028692978 0.0070410925 -0.0030875662 -0.007543343 0.010175128 0.02750977 -0.018056035 -0.00838864
0.0041892785 0.010541432 0.015940243 0.029238323 0.014626218 0.02450462 0.0071314843 0.07524468
0.06980411 0.021752592 0.007849583 0.04101043 0.08093001 0.02038228 0.022824788 0.017096661
0.03126658 0.06278673 -0.009531956 0.036665145 -0.010665199 -0.0031894445 0.03193564 0.031539835
0.032956142 0.003528042 0.012453667 0.0249005 0.022542646 0.019114068 0.00499233 0.042670775
0.04508712 0.041986316 0.048057 0.035924174 0.07392765 -0.0010262833 0.03927935 0.0025780506
0.024443058 0.057105545 0.018337546 0.024320273 0.042497415 0.00563063 0.01998342 0.02184345
0.011386064 0.026897138 0.020340132 0.008026933 0.02918695 0.013165518 0.030377872 -0.014778087
0.024133142 0.043910746 0.029474854 0.025841735 0.050890632 0.039388888 0.04398987 0.026331786
0.010611661 0.023730418 0.03878903 0.0009713215 0.00082288473 0.018286366 0.03620643 0.025849087
0.03590921 0.043782547 0.026580459 0.0066200937 0.045045514 0.052807156 0.05622382 0.041583724
0.039674014 0.07408765 0.027899511 -0.0050472096 0.015173769 -0.003649486 0.041875992 0.0019892487

exp_avg f4 [64, 1, 9, 9]
00000000: c68c 17b9 06f1 27b9 6a81 d6b8 2175 a4b7
00000010: 5785 0a37 b13c 8538 697d 1438 5ea4 e537
00000020: e4a0 0bb8 4682 3bb9 4fbf 59b9 cb93 11b9
00000030: cf20 91b8 92f8 e237 29a2 5838 6b01 c838
00000040: 5ccb 0539 1cc2 6238 8145 88b9 7993 88b9
00000050: ece4 72b9 d8ed 05b9 7666 b336 5428 a538
00000060: 0b61 cf38 746b ee38 3eac b938 ac40 9cb9
00000070: 6235 a1b9 bf25 8db9 9e7d 00b9 1b64 0638
00000080: df6b 2139 e100 2139 2d00 1d39 5b6e ad38
00000090: 7ca7 a0b9 6dd8 afb9 45c0 afb9 2800 77b9
000000a0: fbc4 c335 5f6b 2f39 8589 7539 4cc3 4839
000000b0: a129 c738 6195 b0b9 46db d0b9 5025 d4b9
000000c0: b549 8bb9 32cb 50b8 ef11 3239 5aa1 8a39
000000d0: 39cf 5439 0bc7 d038 cf18 b1b9 113e 02ba
000000e0: 2216 fdb9 f10d b9b9 c534 26b9 4a61 8938
000000f0: 1cd6 2b39 3702 1139 3582 1638 6ec1 a9b9
00000100: feb0 ebb9 30d5 f5b9 5feb d1b9 71af 86b9
00000110: d2df dfb8 420a 2c38 e193 8938 aa3e 8d37
00000120: 88d1 9fb9 cbc6 b9b9 47fe d2b9 b21f e0b9
00000130: a0e3 bab9 cccc 80b9 7cbd c5b8 8bad 2eb8
00000140: d862 0db8 aaaf 05ba 80eb eeb9 c38d dfb9
00000150: 2d66 b8b9 ea53 beb9 0beb ddb9 e131 fcb9
00000160: e035 15ba ab48 18ba 37bc 03ba 9091 e6b9
00000170: 1861 ceb9 9dff 98b9 ef49 94b9 6999 bcb9
00000180: 4c3d ddb9 cb43 05ba 8421 17ba e7fb 0dba
00000190: 796f fab9 08af b3b9 c50d 8eb9 35ec 8cb9
000001a0: a077 91b9 4c55 d0b9 b3a4 07ba c8c6 0eba
000001b0: 467a 11ba ac35 fcb9 aab1 bcb9 9744 a2b9
000001c0: 68c9 81b9 f3fb 94b9 6a5f c5b9 8f4f f4b9
000001d0: 837e 09ba 6abd 0cba 6af6 01ba 4ecd e3b9
000001e0: 739e cab9 9654 b1b9 b5f4 aab9 2874 ccb9
000001f0: a04c 06ba 86ea 08ba 3da3 13ba c64d 0eba
00000200: 0792 09ba d908 deb9 0343 bfb9 67ab c8b9
00000210: d60e ccb9 bca4 f1b9 3592 0aba 0902 14ba
00000220: 7f9a 1cba b8ab 12ba 251e feb9 07df eeb9
00000230: 83d8 05ba 6904 05ba c0c5 01ba d291 18ba
00000240: 13b4 0dba 62c0 17ba 3741 10ba e907 0bba
00000250: 64a2 19ba 4201 13ba c53a 12ba 2bd0 1bba
00000260: a1a2 25ba e21b 13ba cc17 13ba c4e9 14ba
00000270: f16f 1bba 549d 13ba b194 15ba d554 20ba
00000280: f710 2bba ff2e 36ba 9281 82bb 26e1 80bb
00000290: e135 7abb b58d 71bb 61aa 5dbb cfde 51bb
000002a0: 5196 4dbb 9df6 45bb 3b4a 44bb c262 81bb
000002b0: 7d04 7ebb bb91 80bb 3060 6fbb ae4c 5bbb
000002c0: 0697 52bb 2416 52bb 75c6 4bbb 1215 49bb
000002d0: 1363 81bb 107b 7fbb 6fbb 7dbb 4193 70bb
000002e0: db98 5ebb 5f3b 55bb fb9a 59bb 7ad9 54bb
000002f0: 7585 54bb cf98 7fbb 89d3 7ebb ffa2 76bb
00000300: b199 66bb 0827 59bb 5229 59bb c44d 62bb
00000310: 11f2 60bb 258f 59bb 37a6 77bb 3b37 70bb
00000320: 3cb3 66bb ec0a 57bb f357 52bb 2106 59bb
00000330: aecb 62bb c4f9 6cbb 1546 69bb 6f6c 6cbb
00000340: 67ed 67bb 7334 5abb ad8a 49bb 05e5 4bbb
00000350: f90c 53bb c5f1 68bb d010 70bb ebf2 6abb
00000360: f68a 63bb 2ec1 55bb 256b 48bb ce10 42bb
00000370: 6d14 4bbb bebb 5abb 06e2 65bb 2824 6fbb
00000380: 4d7a 6abb 1df5 55bb 9d5a 4ebb d324 42bb
00000390: f1fc 3cbb 9014 45bb d315 53bb 0a9c 62bb
000003a0: 456d 67bb 0c6d 6abb 9735 56bb 6a74 4bbb
000003b0: dfa0 44bb ac5b 39bb ed72 3fbb 3294 49bb
000003c0: 2e1b 5abb 2599 5cbb 2762 5abb 0841 6eba
000003d0: 9cda 25ba 200f f3b9 2d24 6fb9 a9e8 2cb9
000003e0: 5c96 61b9 37db 99b9 4181 0bba b0df 17ba
000003f0: cd3a 61ba 9281 01ba 7078 2bb9 91ef 96b7
-0.00014452924 -0.0001601615 -0.000102284204 -1.9604866e-05 8.256487e-06 6.353239e-05 3.5402747e-05 2.7375467e-05
-3.3290024e-05 -0.0001788224 -0.00020766 -0.00013883335 -6.92025e-05 2.7057049e-05 5.1649437e-05 9.537007e-05
0.00012759626 5.4063377e-05 -0.00025991726 -0.00026049817 -0.00023164199 -0.00012772472 5.3465437e-06 7.875325e-05
9.888605e-05 0.00011368739 8.85357e-05 -0.00029802823 -0.00030748086 -0.0002692174 -0.00012253827 3.204132e-05
0.00015394342 0.00015354484 0.00014972752 8.269838e-05 -0.00030642364 -0.0003353985 -0.00033521853 -0.00023555814
1.4585961e-06 0.000167293 0.00023416251 0.0001914624 9.4968134e-05 -0.00033680632 -0.00039836223 -0.0004046359
-0.00026567062 -4.9780305e-05 0.00016982084 0.00026441627 0.00020295092 9.9552875e-05 -0.00033778555 -0.0004968355
-0.0004827241 -0.00035296337 -0.00015850652 6.5507906e-05 0.00016387593 0.00013829103 3.588405e-05 -0.00032378308
-0.00044954562 -0.0004688888 -0.00040038952 -0.00025689186 -0.000106751584 4.101755e-05 6.560214e-05 1.683769e-05
-0.00030482956 -0.00035434062 -0.00040243773 -0.00042748224 -0.00035646278 -0.00024566648 -9.428986e-05 -4.1646457e-05
-3.3709075e-05 -0.00050997233 -0.0004557036 -0.00042639495 -0.00035171342 -0.00036302145 -0.00042327525 -0.00048102348
-0.0005691927 -0.0005809168 -0.00050252996 -0.0004397747 -0.00039363722 -0.00029182146 -0.00028283845 -0.00035972454
-0.00042198075 -0.00050836493 -0.0005765187 -0.00054162595 -0.0004776677 -0.0003427195 -0.0002709461 -0.0002687887
-0.00027745683 -0.00039736403 -0.00051743834 -0.0005446491 -0.0005549531 -0.00048105174 -0.00035990524 -0.0003095015
-0.00024754857 -0.00028416477 -0.00037645857 -0.00046598582 -0.0005244987 -0.0005368801 -0.0004957678 -0.00043449778
-0.00038646496 -0.00033823092 -0.00032607248 -0.00038996455 -0.00051231124 -0.0005222935 -0.00056319294 -0.0005428459
-0.0005247895 -0.00042349732 -0.00036480287 -0.00038274677 -0.00038920966 -0.0004608984 -0.0005286069 -0.0005646055
-0.00059739494 -0.0005595046 -0.00048469115 -0.00045561066 -0.000510581 -0.00050742045 -0.00049504265 -0.0005820069
-0.00054055563 -0.000578886 -0.0005502882 -0.0005303608 -0.0005860685 -0.00056077924 -0.00055782154 -0.00059438
-0.0006318484 -0.000561176 -0.0005611151 -0.0005680586 -0.00059294613 -0.00056310487 -0.00057060557 -0.00061161566
-0.000652566 -0.0006949752 -0.003982731 -0.00393309 -0.0038179087 -0.0036858146 -0.0033823478 -0.0032023673
-0.0031370113 -0.0030206807 -0.0029951471 -0.0039485404 -0.003876 -0.0039236224 -0.0036525838 -0.0033462453
-0.0032133474 -0.0032056654 -0.0031093631 -0.0030682725 -0.003948578 -0.0038983263 -0.0038716455 -0.0036708864
-0.003396562 -0.0032536609 -0.0033203948 -0.003247826 -0.003242818 -0.0039000993 -0.003888341 -0.0037633774
-0.0035186822 -0.0033134837 -0.00331362 -0.0034531215 -0.003432397 -0.0033196893 -0.003778828 -0.0036654014
-0.0035202047 -0.0032812906 -0.003209588 -0.0033115225 -0.0034606266 -0.0036159614 -0.003559475 -0.0036075374
-0.0035389306 -0.0033295422 -0.0030752823 -0.0031111848 -0.0032203777 -0.0035544496 -0.0036631115 -0.0035850357
-0.0034720278 -0.0032616365 -0.0030581441 -0.0029612067 -0.0030987517 -0.0033376063 -0.0035077347 -0.0036490057
-0.0035778463 -0.003264732 -0.0031487115 -0.0029624 -0.0028837288 -0.003007207 -0.0032209053 -0.003457787
-0.0035312932 -0.0035770563 -0.003268575 -0.003104473 -0.0030003113 -0.00282834 -0.0029212788 -0.0030758497
-0.003328036 -0.0033660617 -0.0033322664 -0.000908867 -0.0006326826 -0.0004635984 -0.00022806293 -0.00016489871
-0.00021513685 -0.00029345762 -0.00053216895 -0.0005793525 -0.0008591831 -0.0004940267 -0.00016352697 -1.799295e-05

exp_avg_sq f4 [64, 1, 9, 9]
00000000: 2a46 9637 1328 9037 0cc1 8937 f1d8 8037
00000010: db02 8137 c4ba 8137 b69e 8337 ef21 8c37
00000020: 78bb 9237 c882 9d37 9c7a 9837 5807 9337
00000030: d3d0 8a37 4d53 8637 0b85 8637 d63c 8637
00000040: 8de1 8637 8705 8e37 784f a937 6c38 a737
00000050: e7d9 a337 586f 9e37 67fc 9537 aed1 8e37
00000060: db71 8937 dc70 8737 92d6 8a37 f027 b937
00000070: eb44 c237 2bf2 bd37 db27 b237 9fd2 a737
00000080: b326 9937 40d9 8f37 2cc0 8737 e9d3 8937
00000090: 6d7b cf37 b3ba d637 3c46 dc37 f15b cf37
000000a0: e29f b837 28c9 a337 ffc0 9137 7974 8837
000000b0: 3d6b 8837 843e e137 85a2 eb37 2b4c f237
000000c0: 722d df37 0ea8 cc37 a570 b037 e1f1 9a37
000000d0: 0fbb 8c37 9e83 8937 22df e737 378b f737
000000e0: 4a38 f737 c086 e737 e0ea d437 b089 b537
000000f0: b961 a137 80ba 9437 f4cf 8f37 b6b1 e037
00000100: 15ca eb37 271e ec37 392f e237 e01d cc37
00000110: 6437 bb37 3236 a637 1219 9e37 b6a0 9737
00000120: 7b48 d537 6843 d637 7c8e d837 af58 d137
00000130: 1a7f ca37 6447 b937 a88e ad37 9f71 a737
00000140: 0809 a037 52f9 5b37 7b75 6f37 59df 8037
00000150: 7a03 8c37 e982 9337 a767 8537 9a4f 6f37
00000160: ac61 7a37 c869 6837 fa83 6937 80af 7b37
00000170: 72c4 9337 b386 9337 69d7 a437 302f 9a37
00000180: 8109 8c37 00c6 7d37 8738 7937 9f7e 7137
00000190: ef4f 8537 a91d 9537 b543 b237 2e71 b337
000001a0: 97f7 9737 e67e 8c37 7e79 7137 98b7 6b37
000001b0: 6f9a 7237 9312 8337 abb5 8c37 2b3f b337
000001c0: facb b037 7eca 9637 1f8c 8537 ca24 7a37
000001d0: 9a37 6437 4735 6637 9573 7937 8fb2 8737
000001e0: c0d5 a537 46d7 b337 1bc4 9b37 507e 8937
000001f0: 1154 8737 5bec 6237 4567 6737 5f2f 6c37
00000200: 7df0 8937 6c81 8937 0fc3 8d37 1d4b 9637
00000210: 4b26 8337 fa44 7037 5a5a 6b37 f1f5 6137
00000220: 0dcd 7a37 4c2f 7d37 0b38 8437 ab8e 8337
00000230: 40ee 8937 d625 8537 410c 7d37 6adc 6637
00000240: a37e 5737 9319 6c37 4dac 6637 4ab0 6737
00000250: 9148 8137 4b71 7a37 384b 7337 25f4 7337
00000260: a25d 6137 77a7 6037 3f39 6237 1d3d 6e37
00000270: 7a8d 6a37 341c 6137 fc22 5a37 5965 6937
00000280: d55b 6637 45f8 6437 3de9 2a39 85a1 2f39
00000290: b8f6 3139 b856 2d39 0962 2439 777c 1d39
000002a0: 3ec2 1839 2281 1639 7f64 1639 d665 3239
000002b0: a9a6 3939 6eb1 3b39 1521 3339 fe5a 2739
000002c0: 7edf 1d39 c273 1b39 e14f 1b39 e21e 1b39
000002d0: fc85 3839 953e 4139 4e62 3f39 da3c 3439
000002e0: ec71 2639 babc 1c39 ab79 1d39 7447 2039
000002f0: f9c3 2039 7bc8 3839 0cdd 3e39 d44c 3b39
00000300: d128 2d39 72a8 1f39 4d5f 1c39 1b70 2339
00000310: 9a95 2939 51e2 2839 a4e8 3239 b4b1 3539
00000320: d8f9 2d39 c72d 2039 a95e 1839 448a 1d39
00000330: baac 2a39 a3b7 3439 144d 3239 6005 2839
00000340: 7d6b 2639 4f4d 1d39 63b3 1339 0284 1439
00000350: 687c 1e39 16e6 3139 fb42 3739 64de 3439
00000360: 731d 1b39 3866 1739 7dd1 1039 b4ca 0d39
00000370: b60f 1439 d043 2439 bf5b 3039 1fb6 3839
00000380: 3679 3439 e6ad 1139 4db0 0e39 12f6 0a39
00000390: 21d3 0a39 4902 1539 213a 2339 e57d 2e39
000003a0: af6d 3239 5b07 3239 df78 0d39 c9ea 0b39
000003b0: 95da 0939 54e3 0b39 72d9 1239 00bf 1b39
000003c0: 15d8 2739 b2d7 2a39 3ffb 2639 3396 5039
000003d0: 670f 4339 5fe5 5239 4d8a 5639 2249 5239
000003e0: 3263 4739 2e5c 4339 308e 4539 f661 3d39
000003f0: b953 4d39 db17 4b39 c120 5039 ee44 5b39
1.7914066e-05 1.7184799e-05 1.6421567e-05 1.535981e-05 1.5379328e-05 1.5464968e-05 1.5690322e-05 1.6705102e-05
1.7491853e-05 1.8776758e-05 1.8176906e-05 1.7527185e-05 1.6548123e-05 1.6012835e-05 1.6035998e-05 1.6002374e-05
1.6079075e-05 1.6930293e-05 2.0183375e-05 1.9934225e-05 1.9532583e-05 1.8886916e-05 1.7879718e-05 1.7025359e-05
1.638469e-05 1.6145808e-05 1.6550799e-05 2.2072316e-05 2.3158695e-05 2.2643324e-05 2.1237813e-05 2.000603e-05
1.8257042e-05 1.7148093e-05 1.6182741e-05 1.6430351e-05 2.4733798e-05 2.5597727e-05 2.625875e-05 2.4719136e-05
2.200896e-05 1.9524785e-05 1.7375218e-05 1.62667e-05 1.62624e-05 2.6851201e-05 2.8089862e-05 2.8884117e-05
2.6604834e-05 2.4396952e-05 2.103329e-05 1.8470864e-05 1.6776406e-05 1.6392962e-05 2.764125e-05 2.9509521e-05
2.9470906e-05 2.7600094e-05 2.5381742e-05 2.1640997e-05 1.9238201e-05 1.772982e-05 1.7143764e-05 2.6785634e-05
2.8108285e-05 2.8147433e-05 2.696329e-05 2.4332607e-05 2.231793e-05 1.9813979e-05 1.8846742e-05 1.807544e-05
2.542533e-05 2.5542176e-05 2.5815556e-05 2.4956038e-05 2.4139463e-05 2.2086962e-05 2.0689637e-05 1.996086e-05
1.9077692e-05 1.3111467e-05 1.4272863e-05 1.5362793e-05 1.669092e-05 1.7584725e-05 1.5903102e-05 1.4264044e-05
1.4923902e-05 1.3852907e-05 1.391861e-05 1.5001628e-05 1.7615243e-05 1.758649e-05 1.9650632e-05 1.8380204e-05
1.6693726e-05 1.5126076e-05 1.4854718e-05 1.4394201e-05 1.5892057e-05 1.7775996e-05 2.1250782e-05 2.1391166e-05
1.8115896e-05 1.6748392e-05 1.43930065e-05 1.4049838e-05 1.4460281e-05 1.5625066e-05 1.6773896e-05 2.1367878e-05
2.1075819e-05 1.7975686e-05 1.5920084e-05 1.4909727e-05 1.3602805e-05 1.3721473e-05 1.4868468e-05 1.6176402e-05
1.9769068e-05 2.1438707e-05 1.8568759e-05 1.6390492e-05 1.61324e-05 1.35256805e-05 1.3792717e-05 1.4077726e-05
1.6443659e-05 1.639194e-05 1.6899341e-05 1.791637e-05 1.5634248e-05 1.4321175e-05 1.4028128e-05 1.3468308e-05
1.4948903e-05 1.5090987e-05 1.5761723e-05 1.5682852e-05 1.6442616e-05 1.5872454e-05 1.5082828e-05 1.3760387e-05
1.28444835e-05 1.4072651e-05 1.3749185e-05 1.3809718e-05 1.541179e-05 1.4927539e-05 1.4501442e-05 1.4540773e-05
1.3432846e-05 1.3390431e-05 1.3483978e-05 1.42001345e-05 1.3980427e-05 1.3417612e-05 1.3001958e-05 1.3911479e-05
1.373045e-05 1.3647664e-05 0.00016299351 0.00016749471 0.00016971945 0.00016530871 0.0001567678 0.00015019054
0.0001456821 0.0001435322 0.00014342552 0.0001701334 0.0001770506 0.00017899807 0.00017083094 0.00015960258
0.00015055944 0.00014825075 0.00014811709 0.00014793457 0.0001759752 0.00018429228 0.00018251801 0.00017188807
0.00015873433 0.00014947625 0.00015018012 0.00015285407 0.00015331795 0.00017622292 0.00018202158 0.0001786233
0.00016513771 0.00015226172 0.00014912822 0.00015586654 0.00016172827 0.00016106038 0.00017062068 0.00017327705
0.0001659164 0.00015275842 0.00014531113 0.00015024195 0.00016276809 0.00017234548 0.00017004117 0.00016023731
0.00015871036 0.00015001486 0.00014085839 0.00014163557 0.00015114399 0.00016965749 0.00017477192 0.00017248985
0.00014792923 0.00014438562 0.0001381095 0.0001352232 0.00014120233 0.00015665521 0.00016818846 0.00017615453
0.00017211292 0.0001389306 0.00013607852 0.00013252374 0.00013239357 0.00014210599 0.00015566546 0.00016640832
0.00017016263 0.00016978143 0.00013491836 0.00013343537 0.00013146766 0.0001334076 0.0001400465 0.00014853105
0.00016006858 0.00016292816 0.0001592459 0.0001989238 0.00018602387 0.00020112608 0.00020460151 0.00020054405
0.00019015072 0.00018630989 0.00018840353 0.00018060938 0.00019581513 0.00019368475 0.00019848628 0.00020911146

exp_avg f4 [64]
00000000: ec46 2bba 5c15 f5ba e7b2 10bc 85c9 50bb
00000010: 87d2 5bbb 79ad a8bc 740d 57bc 54a1 8fbb
00000020: cb64 35ba 6622 e3b9 823f 60bc 58eb a33b
00000030: af47 00bb a386 523b 291f 0cbb 4ed7 0f3a
00000040: 28d0 a3bc bfa2 653b 17a2 c139 d3b5 c33b
00000050: 0400 0080 0262 7bbb 782b 5d3c 4999 c13a
00000060: 07c4 88bb 3496 d4bb b049 713b 3cc2 0cbb
00000070: e9b1 48bb e507 6aba 4598 08bb c3a7 993b
00000080: a13d 84ba cd39 a2bb 8a58 8fba c6e4 c6ba
00000090: 7605 e6ba f317 96ba 0fe5 60bb 7a17 d3ba
000000a0: b171 3c3a 5329 23bc f41a c6ba 4262 3fbb
000000b0: 0026 24bb 53ec 9e3b 9bc9 2cbb fb51 25bb
000000c0: 0ccc 63bc bc99 c53a 2b9d 10bd 5a4f 0e3b
000000d0: 9ddb 793a e32a bcbb 826b f6ba c72c f03a
000000e0: bcd9 f1bb dc8c db3b 6f4c 9dbb 21f0 a33a
000000f0: f3a9 88ba e8cd 353a ce6c bfbb 9f27 e5b9
-0.00065337005 -0.0018698382 -0.008831716 -0.0031858396 -0.0033542232 -0.02059053 -0.013125766 -0.0043832455
-0.00069196214 -0.00043322443 -0.013687016 0.0050024204 -0.0019573977 0.0032123707 -0.0021380878 0.00054871
-0.019996718 0.0035039631 0.00036932595 0.005972603 -6e-45 -0.0038357978 0.013499133 0.0014770414
-0.004173759 -0.006487632 0.0036817603 -0.0021478077 -0.003062362 -0.0008927568 -0.0020842713 0.004689188
-0.0010089168 -0.004950738 -0.0010936421 -0.0015174381 -0.0017549235 -0.0011451229 -0.0034316217 -0.0016105019
0.0007188572 -0.009958583 -0.0015114234 -0.0029202853 -0.0025047064 0.0048499494 -0.0026365283 -0.0025225866
-0.013903629 0.0015075724 -0.035306137 0.0021714778 0.0009531321 -0.005742417 -0.001880035 0.0018323892
-0.0073806923 0.0067001414 -0.0048003714 0.0012507477 -0.0010426625 0.00069352845 -0.005841828 -0.00043707804

exp_avg_sq f4 [64]
00000000: e8a3 3539 50e7 7439 cc9d ac3a 780d 203b
00000010: d075 093c ce1e 073b e4c4 0d3b c28b 733b
00000020: aa23 b13a a2a3 f436 d49a 293a c026 b13a
00000030: 3552 fb38 dbdd 3a3b 17ee b739 9e11 8b3c
00000040: f8d8 3e3b 9cbc e33c ab2d 513a 65fe a03c
00000050: c54d 3910 33d2 503b f1c1 d03a bb3f 1e3a
00000060: f3ce 613b 123e 8739 9380 7e3a 6520 ab3a
00000070: 8b7c 623b 4937 8d3c 9500 993a 3add a73a
00000080: 4d1b 983b aa87 f739 70de bf39 3e40 343b
00000090: d69a 843c 2b09 5439 16f4 573a 8385 bf39
000000a0: e73b 823b edc1 3a3b 63c9 c938 c5c7 fe3a
000000b0: a2fc f638 1ebf ac3b 8ae5 393c a05e 073a
000000c0: f99a 9a3a 7b03 4138 e799 813c fac6 b33c
000000d0: 1945 9b39 8b0e 2d3a eac5 c539 cde3 843a
000000e0: 0c53 bf39 3c08 ef39 effa 9d3a e3b3 6638
000000f0: 28bc 243b 797a 9c37 d1e6 763a 474a 893b
0.00017322565 0.00023355824 0.0013169586 0.002442209 0.008389905 0.0020617726 0.0021632249 0.003716216
0.0013514657 7.290816e-06 0.00064699096 0.0013515577 0.00011983925 0.0028513584 0.0003508187 0.016976174
0.0029121023 0.027799897 0.00079795223 0.019652555 3.6544728e-29 0.003186357 0.001592694 0.0006036718
0.0034455627 0.00025795453 0.000970849 0.0013055919 0.0034559097 0.017238276 0.0011673147 0.001280702
0.0046419264 0.0004721259 0.00036596088 0.0027504112 0.016187113 0.00020221311 0.0008237971 0.00036529833
0.003974426 0.0028496936 9.621938e-05 0.0019438198 0.000117772506 0.0052718064 0.01134623 0.00051639415
0.0011795453 4.6018027e-05 0.015820457 0.021945465 0.00029615386 0.00066015933 0.00037722226 0.0010138691
0.00036492234 0.00045591767 0.0012052933 5.5003806e-05 0.0025136564 1.865368e-05 0.00094185496 0.0041897628

exp_avg f4 [32, 64, 5, 5]
00000000: 4999 06b9 9d6b 08b9 3f8c ffb8 3e9c ebb8
00000010: dba0 0fb9 c113 18b9 c21d 1fb9 7620 13b9
00000020: 9867 eab8 7407 09b9 db11 2fb9 11f9 29b9
00000030: 0f56 0cb9 b351 02b9 cc67 10b9 78cb 1cb9
00000040: 2509 1eb9 d1db ebb8 f12a eeb8 a2c8 ebb8
00000050: 1452 1bb9 dd5b 0eb9 fb31 cdb8 d7f9 d3b8
00000060: e228 e4b8 1684 2cb7 0528 b5b6 a5c7 9ab6
00000070: c3c9 deb5 4853 d434 c53e 3ab7 002f a1b6
00000080: a84e 10b7 561a 38b6 f084 03b5 74f5 a4b6
00000090: 7be9 19b6 87be a7b6 17c8 a3b5 580e c135
000000a0: 43c2 b1b5 04fc 3e35 9feb 0b35 fda6 67b5
000000b0: ba5e 2d36 6c4c 66b5 4e68 4ab5 f0e8 9cb5
000000c0: fc24 ccb5 13c9 47b5 f39c 3fb9 6ac0 4cb9
000000d0: 0a1a 80b9 8e05 8fb9 7659 8bb9 4e1a 64b9
000000e0: 0b52 75b9 eedf 88b9 3ff6 9db9 8f7c 94b9
000000f0: b8d7 44b9 a876 66b9 9b34 91b9 72ec 96b9
00000100: a34e 9bb9 4785 5db9 b7f1 7eb9 f497 94b9
00000110: b723 a8b9 5b70 9db9 2cc9 67b9 c6ea 88b9
00000120: c5ec 9eb9 8ba2 a9b9 1319 aeb9 bc42 1cb8
00000130: 913f 0cb8 dc19 0ab8 7e0d 31b8 5997 1fb8
00000140: fd78 ccb7 426c 07b8 eaa0 fdb7 3168 1bb8
00000150: e7ad 00b8 81a6 acb7 eaa8 bcb7 9ae2 d9b7
00000160: 31e4 deb7 cdb3 fbb7 bf71 45b7 be01 62b7
00000170: 8d28 bbb7 b189 04b8 1438 24b8 8fc6 a6b6
00000180: 4d91 87b7 2601 b2b7 3490 fab7 a84c 3eb8
00000190: af33 10b8 21c3 f8b7 ab1e 06b8 92e3 e7b7
000001a0: 84e0 c4b7 66f3 18b8 e3ad 14b8 4537 06b8
000001b0: 5784 d5b7 0e8d 84b7 6848 e8b7 fb05 d7b7
000001c0: 91e0 bab7 c851 92b7 d8fd 68b7 5ca6 b7b7
000001d0: e211 a4b7 e3e2 80b7 3aea 5ab7 d259 80b7
000001e0: cbf5 7ab7 819b 3bb7 cb04 29b7 4373 e5b6
000001f0: 25b1 26b7 e9fe 17b9 8fb3 0eb9 8cfa 15b9
00000200: 2d74 1eb9 e3ef 29b9 fb9b 1fb9 55d9 1bb9
00000210: 812d 16b9 032e 13b9 52bb 1db9 9345 23b9
00000220: 73c4 20b9 f7fe 22b9 35c7 35b9 b93f 35b9
00000230: 8d6b 30b9 615b 42b9 5c08 3cb9 0595 48b9
00000240: 6bcc 62b9 f5d3 42b9 7a9c 4cb9 85f2 56b9
00000250: 1c83 68b9 2a00 69b9 2bfa 9335 045a ae36
00000260: 2c47 fc36 004d 76b5 8872 2e36 0f5a bc36
00000270: a033 fb36 0071 1f36 d056 2536 f9f0 8e36
00000280: f215 f336 c2b6 1036 2f1b afb6 18c0 ceb6
00000290: ec85 7a36 060b 8736 c7a4 05b5 87d4 e3b6
000002a0: 04f2 49b7 8cbb 8f36 bde3 9d36 f789 b8b6
000002b0: 7ecd 4cb7 884a 83b7 80c2 0cb7 6c41 c6b7
000002c0: 168f c0b7 e2b4 e7b7 2f79 c4b7 07db e1b7
000002d0: 6e30 c0b7 542f cbb7 307f ceb7 e239 d6b7
000002e0: c8ad abb7 faf2 65b7 3be0 98b7 6bd2 a9b7
000002f0: 2f1e 8bb7 ad76 5cb7 fe66 00b7 7880 0bb7
00000300: 7435 34b7 4c43 3fb7 7073 0eb7 4409 5ab7
00000310: 1501 60b7 881f 40b7 5089 d8b6 d6a5 eeb6
00000320: 5897 a2b7 2e6e e6b7 5d09 09b8 d735 e5b7
00000330: 435b d6b7 a98b 6fb7 e0b7 b6b7 a89a d7b7
00000340: 8f49 d2b7 c3c4 d1b7 32b9 37b7 bbd5 84b7
00000350: 5557 93b7 a7fd a0b7 3750 96b7 2de1 13b7
00000360: 7021 24b7 bfb6 38b7 5572 34b7 62dd 20b7
00000370: ba28 9eb6 e4b2 cab6 b9e6 89b6 12b9 edb5
00000380: b071 23b5 1b47 69b5 8324 8eb5 6eec dab4
00000390: c0c9 a8b4 f33e c9b4 e5c5 95b4 48e9 12b4
000003a0: 6a46 c2b3 b1d9 27b3 6b34 aeb3 fa4f 3834
000003b0: 1b90 55b2 c60a 8233 10ad 7f32 df33 2a34
000003c0: c3b1 d3b0 747a 9c33 8b91 9eb3 eea8 b532
000003d0: 826a d932 ce7c cd33 302f 7931 c22e 7b33
000003e0: 9c47 8533 6c41 1e32 ef60 aeb7 5d16 d1b7
000003f0: 0ed2 f0b7 cd08 e9b7 df4f f6b7 ce2a 4bb7
-0.00012836339 -0.0001301006 -0.000121854704 -0.000112347756 -0.00013697466 -0.00014503209 -0.00015174507 -0.00014031105
-0.00011177285 -0.00013068115 -0.00016695952 -0.0001620988 -0.000133835 -0.00012428201 -0.00013771578 -0.00014953117
-0.00015071461 -0.00011246617 -0.00011356723 -0.00011243044 -0.00014812528 -0.00013576397 -9.784471e-05 -0.000101078
-0.00010879502 -1.0282753e-05 -5.3988792e-06 -4.6127993e-06 -1.6599009e-06 3.9548672e-07 -1.1101079e-05 -4.8036454e-06
-8.601382e-06 -2.7433466e-06 -4.899475e-07 -4.9161554e-06 -2.293468e-06 -4.999168e-06 -1.220268e-06 1.4383795e-06
-1.3244065e-06 7.1147247e-07 5.212441e-07 -8.6297206e-07 2.5834147e-06 -8.5792885e-07 -7.540265e-07 -1.16907e-06
-1.5209948e-06 -7.442588e-07 -0.00018273648 -0.00019526636 -0.00024433463 -0.00027279224 -0.000265788 -0.00021753574
-0.00023395584 -0.00026106782 -0.0003012884 -0.00028321563 -0.00018772378 -0.00021978712 -0.0002769575 -0.00028786395
-0.00029622493 -0.00021125852 -0.00024313373 -0.00028341974 -0.00032070067 -0.00030029085 -0.00022104819 -0.0002611486
-0.00030312515 -0.00032355296 -0.00033206548 -3.725545e-05 -3.3437802e-05 -3.2925847e-05 -4.2212654e-05 -3.8049508e-05
-2.4375035e-05 -3.228733e-05 -3.0234882e-05 -3.7051916e-05 -3.0679537e-05 -2.0581532e-05 -2.2490003e-05 -2.5973935e-05
-2.6570722e-05 -3.0005258e-05 -1.1768599e-05 -1.3471055e-05 -2.231102e-05 -3.1599488e-05 -3.9152874e-05 -4.970301e-06
-1.6160915e-05 -2.1219788e-05 -2.9869472e-05 -4.537092e-05 -3.438041e-05 -2.9654768e-05 -3.197665e-05 -2.7643317e-05
-2.3469569e-05 -3.6466306e-05 -3.5447894e-05 -3.1999563e-05 -2.5453204e-05 -1.580131e-05 -2.7690272e-05 -2.5632782e-05
-2.22775e-05 -1.7442639e-05 -1.388738e-05 -2.1892767e-05 -1.955865e-05 -1.5364441e-05 -1.3048348e-05 -1.5300615e-05
-1.4958389e-05 -1.1182275e-05 -1.0074301e-05 -6.83815e-06 -9.935616e-06 -0.00014495444 -0.00013609066 -0.00014303083
-0.00015111333 -0.0001620646 -0.00015221529 -0.00014862914 -0.00014322066 -0.00014036153 -0.00015042469 -0.0001557081
-0.00015331972 -0.00015544506 -0.00017335716 -0.00017285244 -0.00016824734 -0.00018535323 -0.00017932191 -0.00019129
-0.00021629191 -0.00018580242 -0.00019513248 -0.00020498976 -0.00022174086 -0.00022220673 1.1025162e-06 5.1960833e-06
7.5184707e-06 -9.175419e-07 2.5994686e-06 5.613321e-06 7.486393e-06 2.375862e-06 2.4637447e-06 4.2599827e-06
7.244519e-06 2.1564051e-06 -5.218571e-06 -6.161641e-06 3.7330856e-06 4.024597e-06 -4.9786144e-07 -6.7898686e-06
-1.2036882e-05 4.2835654e-06 4.705477e-06 -5.4996885e-06 -1.2207192e-05 -1.5651123e-05 -8.389936e-06 -2.3633904e-05
-2.2954813e-05 -2.7621576e-05 -2.3421451e-05 -2.6924083e-05 -2.2910735e-05 -2.4221525e-05 -2.461634e-05 -2.5537742e-05
-2.0465712e-05 -1.3706036e-05 -1.8224227e-05 -2.0244353e-05 -1.6584147e-05 -1.3140653e-05 -7.653374e-06 -8.314957e-06
-1.0741282e-05 -1.1400156e-05 -8.490737e-06 -1.299597e-05 -1.3351692e-05 -1.1451433e-05 -6.453287e-06 -7.1122586e-06
-1.938238e-05 -2.7469443e-05 -3.2672066e-05 -2.7323998e-05 -2.5553285e-05 -1.4278027e-05 -2.1781714e-05 -2.5702015e-05
-2.5068204e-05 -2.5006366e-05 -1.0950769e-05 -1.5835152e-05 -1.7564433e-05 -1.9191602e-05 -1.7918746e-05 -8.814311e-06
-9.782947e-06 -1.10098035e-05 -1.0755456e-05 -9.588288e-06 -4.713508e-06 -6.0408947e-06 -4.109778e-06 -1.7711739e-06
-6.088767e-07 -8.6902736e-07 -1.0590451e-06 -4.077769e-07 -3.143923e-07 -3.748497e-07 -2.78974e-07 -1.3682177e-07
-9.046637e-08 -3.9080707e-08 -8.112041e-08 1.716543e-07 -1.2430998e-08 6.0555564e-08 1.4882303e-08 1.5851354e-07
-1.5402793e-09 7.28659e-08 -7.3839225e-08 2.1147994e-08 2.5310559e-08 9.568758e-08 3.6261092e-09 5.8483018e-08
6.206321e-08 9.211686e-09 -2.0787555e-05 -2.4925155e-05 -2.8708044e-05 -2.7779863e-05 -2.9362678e-05 -1.2109709e-05
