logs/biosr_ccps_rcan_model-SRCNN_250305_lr0.0001_bs1_Ps256_Npatch128_N300/model_024.pth (torch, 695046 bytes, 15 tensors)

conv1.weight f4 [64, 1, 9, 9]
00000000: d323 aa3d fd05 dbbc e341 ae3d a32d a6bc
00000010: 9153 453d 7493 20bd 3754 083e e7d7 87bc
00000020: 3ce4 463e 2f97 dabc b73f bdbd dfa0 4d3d
00000030: 15be 42bd 1465 103d 712f 393d 3033 033d
00000040: f1e4 9f3d 3d83 d13d fef2 b13d 6065 233d
00000050: b2b2 c3bd 520d 8ebc 152d 4bbd ebe4 bfbd
00000060: b3c4 89bd d3dd 91bd 3553 463d f08f d0bd
00000070: e141 0dbd a972 c53c 568f 9cbd cfe2 cbbd
00000080: 74fd 3b3b e8bc f2bc 0368 2cbd 4615 913d
00000090: a0ef 94bd b69e 81bd 0cdc b4bb 4400 2b3d
000000a0: d428 07bd fbb5 943d dfd0 573d a372 853d
000000b0: ea10 a63c c00e 12bd 3fe4 c8bd 5ee0 67bb
000000c0: bef4 c5bd 76aa c03c 2784 d23c 6238 c23c
000000d0: 2c2e 5d3d 1d73 fa3d 7f3a 5abd bed7 eebc
000000e0: c564 35bc f7ac fc3c fae9 9b3d 2c80 743d
000000f0: e050 3dbd 5b1f d73d 7e2e ae3b 698b 233d
00000100: 6421 113d b80c 1d3a cfb6 56bd 6c4b 59bd
00000110: ef30 103c ce51 88bd 35df bbbc 812c 8dbd
00000120: 41f2 393d f14c c4bc 39bf ac3c 1838 623d
00000130: 9c14 4dbd 4df6 1ebc 8a89 afbd ce6c a9bb
00000140: 5908 8ebd 73a8 40bd 0114 3fbb 1a3d f2bc
00000150: 0d80 cd3b 4dc4 943d 97c3 04bd ff39 fbbd
00000160: 4c79 6e3d de38 8cbc 1a6a a63c 3339 8cbc
00000170: f786 6a3d cf13 d1bd b7bf 903d 10a0 993d
00000180: d004 973d 1d6e 123d 0ab7 ba3d 21e7 0e3d
00000190: 5575 a03c 2aee b2bc 8616 ac3d 65ff 983d
000001a0: 8430 4bbd 9bd4 493c 96df bfbd a99e c3bc
000001b0: e44d dc3c 6971 5fbc 0a8c f4bd a38b a73d
000001c0: 1a9c f73c e696 babd 4960 d6bd 4d35 3abd
000001d0: f56a bdbd 89d4 7fbd e199 73bd 53d8 cfbd
000001e0: 1f06 463d 54fd ef3d 82b2 953b 98b0 22bd
000001f0: 2047 b13d 784b d3bd 2dd4 09bd c0e9 c1bd
00000200: b6e2 083d c46e b0bd eaf2 bbbd f9cc 403d
00000210: 03b7 85bd 9f37 c0bd 6edf 643b f91e 50bd
00000220: df66 8a3d 6ae7 ec3b 8a27 033c a13d 27bd
00000230: 4f32 723d 8d31 8e3d 6da7 a93d ac77 2d3c
00000240: 57db f3bd 3042 1c3c 0a9d 96bd cbe6 c4bd
00000250: c728 933d 9571 233d e688 f73c 59fa db3d
00000260: af6b df3c b36f 94bc 7e52 f6bc 955c 413d
00000270: 1b47 813c b665 87bd 5c4c cfbd d45c 823d
00000280: 7be7 8d3d ee3c f13d a6dd 783d 02cf fb3d
00000290: f711 52bd 5a21 7c3d f94f 183d 0a49 e63c
000002a0: c506 9dbd f6af 85bd 2aa6 433d 407a de3d
000002b0: 6944 943d 9d5f febc 8bbd f43d b28f 6b3d
000002c0: 4666 973c b126 ac3c fed4 b63d 4aab 9b3d
000002d0: 8c68 a73d e725 56bd 46b5 bf3d d332 cb3d
000002e0: 66e8 8438 2e65 763d 836b 93bd 0b3a ddbd
000002f0: 9cb1 aabd af28 f23d dbf7 dd3d e053 b33c
00000300: 743a c73d 71c4 ac3d 4375 2ebd c44d b53c
00000310: 3cc5 7cbd 06b9 01be e77b dd3d 1bd1 23bd
00000320: 35eb fdbc 41ea b03c 64a2 8e3d 6e84 a23d
00000330: 6aa4 01bd 8669 7b3b 377e a5bb f57f 1dbd
00000340: 6649 4dbc bb73 b33c 3d41 9fbd 855f 533d
00000350: e9aa dfbd 2f17 bf3c 8e96 e5bd 0f6d 0bbe
00000360: b8e9 e53c 2106 cb3c ff8e 2cbd a58b 843d
00000370: 1fbc b83d d7c9 133c 53af debd eb1f eebd
00000380: 8161 23be 80f7 023c 20e7 d83d 1c48 5d3c
00000390: 785b c8bd 93e9 8e3d 76a0 e13c cd3c a6bd
000003a0: 143f 1bbe f382 a73c 6f31 e43d d860 a83c
000003b0: bf6d 14bd 4280 d6bc 9453 38bd 5ab2 ecbd
000003c0: 7dec c13b 1813 c2bd f472 02be 62c4 db3d
000003d0: 1991 b0bd 2d42 c73d 7e37 f23d 9f50 973d
000003e0: d966 0bbd 1c2d 3abd d473 d53c 5519 9abd
000003f0: bd2c 4f3d 9280 a7bb 7d6f 033c e690 ea3d
0.08307614 -0.026736254 0.08508661 -0.020285433 0.0481754 -0.039203122 0.13313375 -0.016582442
0.19423002 -0.026683418 -0.09240668 0.050202247 -0.047544558 0.035252646 0.04521126 0.032031238
0.07807339 0.1023011 0.08688925 0.0398916 -0.09555568 -0.017340336 -0.04960354 -0.093698345
-0.067269705 -0.07122388 0.048419196 -0.10183704 -0.034486655 0.024102526 -0.07644527 -0.0995537
0.0028685005 -0.029631093 -0.04209138 0.07084136 -0.07272267 -0.063291 -0.0055193957 0.0417483
-0.03299792 0.072612725 0.05268943 0.06516006 0.020271737 -0.035658598 -0.098091595 -0.0035381536
-0.096658215 0.023518782 0.02569778 0.023708526 0.05399911 0.12228987 -0.053278442 -0.029155608
-0.011071389 0.030844195 0.07612987 0.059692547 -0.046219707 0.105040275 0.005315601 0.039927874
0.035432234 0.000599097 -0.052420434 -0.053050444 0.008800729 -0.06656228 -0.022933582 -0.06893254
0.045397047 -0.02396247 0.021087276 0.055229276 -0.050068483 -0.009702277 -0.08571155 -0.005170441
-0.06935186 -0.047035646 -0.002915621 -0.029570151 0.0062713684 0.07264004 -0.03241309 -0.12266921
0.058221146 -0.01711696 0.020314265 -0.017117118 0.05725762 -0.10208856 0.07067817 0.075012326
0.07373965 0.035749543 0.09116943 0.03488839 0.019587198 -0.021842081 0.084027335 0.07470588
-0.049606815 0.0123187555 -0.093688175 -0.023879366 0.02689261 -0.013637879 -0.11940773 0.081809305
0.030225802 -0.09110813 -0.10467584 -0.045460988 -0.09248916 -0.06245855 -0.059472922 -0.101486824
0.04834568 0.117182404 0.004568399 -0.039719194 0.08656144 -0.10317129 -0.033649612 -0.094684124
0.033419333 -0.08614877 -0.091771916 0.047070477 -0.06529047 -0.09385609 0.0034923214 -0.050810788
0.06757902 0.007229735 0.008005032 -0.04083026 0.05913001 0.06943045 0.08283887 0.010587614
-0.1190707 0.009537265 -0.073541716 -0.09614333 0.07185512 0.039903242 0.030216645 0.107411094
0.027273027 -0.018119669 -0.030068632 0.047207434 0.015780976 -0.06611197 -0.10121986 0.06365362
0.06928917 0.117791995 0.060758255 0.12295343 -0.051286664 0.061555244 0.037185643 0.028111
-0.07667307 -0.065277025 0.04776589 0.10863161 0.07239611 -0.031051451 0.11950215 0.057510085
0.018481385 0.021014543 0.08927344 0.0760103 0.081742376 -0.05228224 0.09360747 0.09921803
6.337538e-05 0.060155086 -0.071982406 -0.108020864 -0.083346575 0.11824166 0.1083829 0.02189058
0.09727946 0.08435906 -0.0425923 0.022131808 -0.061711535 -0.12668237 0.10814648 -0.03999434
-0.030995945 0.021596076 0.06964567 0.07935415 -0.031650938 0.0038362457 -0.0050504464 -0.038452107
-0.012529707 0.02190577 -0.07776115 0.051604766 -0.109212704 0.023326484 -0.11210357 -0.13615821
0.028065547 0.024783196 -0.04212856 0.064719476 0.09020256 0.00902029 -0.10873284 -0.116271816
-0.15955164 0.007993579 0.105909586 0.013505962 -0.09783071 0.069781445 0.027542334 -0.081170656
-0.15160781 0.020448184 0.11142241 0.020553991 -0.036237475 -0.026184205 -0.04500158 -0.11557455
0.005918084 -0.09476298 -0.12739164 0.107308164 -0.08621425 0.09729419 0.118269905 0.07388424
-0.03403363 -0.045453176 0.026056208 -0.07524363 0.050579775 -0.0051117623 0.008022186 0.114534184

conv1.bias f4 [64]
00000000: 7f72 be3c 11c7 5a3d bb31 9e3c 4ef1 903b
00000010: 56a2 d2bd c68f 9c3d 7bd8 b63d d22b 99bd
00000020: 95a1 11bd d3fa d13c 999f 0abd 7c73 95bc
00000030: da44 cdbd c6b6 91bc e63a a1bd c0fc 85bd
00000040: 030a ba3d f4d2 c7bc 486e 7ebb b530 adbc
00000050: 1988 13bd 1923 d3bd 6d20 e8bd 77d9 aabc
00000060: 8bab a1bc 7eeb 8e3c 1246 d3bc 111d 9cbd
00000070: a5ab 99bd 6db0 7dbd e321 07bd 8dc7 a1bc
00000080: 5cd0 a3bd 4b2d 9fbd b3a6 893d 2c9b 63bb
00000090: 5699 94bd a661 513d 6cc7 e4bc 54e2 1a3e
000000a0: 4415 4b3d eefc 7a3d d341 a6bc e74b afbc
000000b0: b8d4 153d 4305 f8bd b67a 43bc c020 18bd
000000c0: a3b0 bf3c d5ed efbc 7ed7 d93d 75d6 80bd
000000d0: 4524 273c fa5e 45bb 4206 8e3d 4ce5 71bd
000000e0: d464 1c3d 06a4 a3bd f911 203c e11a 563c
000000f0: 0518 84bc 7b61 aa3a a3c5 623d 162d acbd
0.023247955 0.0534125 0.019310823 0.004423297 -0.102848694 0.0764461 0.08928009 -0.07479061
-0.035554487 0.025632298 -0.03384361 -0.018243544 -0.10022898 -0.017787348 -0.07872562 -0.06542349
0.09083941 -0.024392582 -0.0038823057 -0.02114139 -0.036018465 -0.10309429 -0.1133431 -0.020855648
-0.019735118 0.017446276 -0.025790248 -0.076227315 -0.07503442 -0.06193583 -0.0329913 -0.019748474
-0.07998726 -0.07772311 0.067212485 -0.003472994 -0.07255809 0.051118515 -0.027927123 0.151254
0.049580827 0.06127637 -0.02029506 -0.021398498 0.036579818 -0.121103786 -0.011931112 -0.037140608
0.023399657 -0.029288212 0.10636805 -0.062909044 0.010201518 -0.0030116425 0.06934787 -0.059056565
0.038182095 -0.07990269 0.00976991 0.013067932 -0.016124735 0.0012999022 0.055364262 -0.08407037

conv2.weight f4 [32, 64, 5, 5]
00000000: d237 a8bc cf0e 1bbd f8ea 623c 06c7 49bc
00000010: 66f3 ec3c 9be7 f23b c65c 1abc ba45 dc3c
00000020: c379 eabb 53e0 2e3c f6f3 2fbb 5fa4 00bc
00000030: b132 0cbc 2e44 a6bc 8579 ea3a 6baa 36bd
00000040: 7a2d b0bc dc0a 0fbd 9c61 ffbc aff0 0c3a
00000050: e5a4 973b 4265 9b3c 47f0 af3c 2db4 1e3d
00000060: 7ede 493d 0be0 febd 3709 b0bc 1f78 693d
00000070: e233 263c 753e 6bbc c909 d0bb 25c2 35bd
00000080: b78c 753d ddd1 363d d129 ab3b 018d 6abd
00000090: 72a7 a2bd 32b1 d63b 66a2 2dbc 37dc 8abb
000000a0: 70b8 a7bd 6559 8fbd 182c 59bc 7e39 4bbc
000000b0: c567 22bc 8df9 30bd fdee 38bc 6071 f63b
000000c0: 9c2d e6bb ba16 fbbc f671 873c 6698 0b3c
000000d0: 143f b83c a652 ee3c 8a92 713c bd71 edbc
000000e0: 2189 5abc 7fe5 83bc 8bbe 6bbc 01cb 303c
000000f0: 7a96 f7bc b5f8 4ab9 5d83 0cbc aaec 2f3c
00000100: aed7 493c 6925 2ebd 01c8 27bb 0bb9 00bd
00000110: c00c 153d 9630 873d 25b7 eeba 1b73 5d3c
00000120: 98db b63c 4c10 5b3d 71ea 253e 6ed0 b23c
00000130: e635 e2bc 0627 81bb cc2a b1bb e9db f43c
00000140: 2d32 0f3c ec11 163b 5871 14bd 4d10 0dbc
00000150: 3ec3 643c da7b 2dbc 8eb8 133c 80d0 993b
00000160: b9aa d53c aa0b 823c febd 65bb 12e8 0dbd
00000170: 3106 37bc 4083 ffbb 440d eabc 5747 fbbc
00000180: 2456 38bd 0e1e 62bd 5986 01be a62d 34be
00000190: b052 793a a007 413c 223f 0e3c 9237 62bc
000001a0: e2d9 29bd 634a 9c3c 4ed8 033c 4e79 59bb
000001b0: 546e 0d3c d39c 3abd 7d2a 033d 3b24 c53c
000001c0: 67ae 843b f55c 18ba 6dde 03bd d565 d9bb
000001d0: d2c3 6d3c 0bcd 49bd 59d1 0abd 0096 cebc
000001e0: 8090 543d 5dfb 203c bb73 083d 3a38 383d
000001f0: 9626 843d b4a1 ba3b a6c4 3d3c c0b7 5838
00000200: 0e89 933c e741 98bc 9555 613b d51c 0a3c
00000210: bf89 8bbb 6908 023c c068 00bd b02f dfbc
00000220: b227 cabc 19db dbbc 524a 05bd 3883 ecbc
00000230: 525e a73b c701 d8bb ba55 6c3b ca92 8d3c
00000240: f409 ed39 69ef 353c 0a9f 003d 046d 993c
00000250: 43e2 f13c 17c7 723c 105a 593b 3af8 113d
00000260: 59a3 653d 981e b1bc 6fcf 6abd a665 a8bb
00000270: 83e5 f638 47a0 9ebc c0b1 79bd 798a 0bbd
00000280: 615a 1d3c 5366 d8bb f079 0dbc 15d4 58bd
00000290: 1d9c 163b c545 543d d544 9f3c 4386 5bbd
000002a0: 8249 063c 7092 643c 9bb5 343d a669 2a3d
000002b0: 9852 27bd 3e86 a93c 6eee a53d 5fa8 8fbc
000002c0: 8679 dbbc 8848 153c 3e82 aabc b46e 0fbd
000002d0: 3df3 01bd d53d 473c 7e18 8b3c 436c e6bc
000002e0: 577f 823c fce0 99b9 d7e1 053d 839d f93b
000002f0: 8d4c 7bbc 8e9b 95bc 6875 9c3c c56c 02bc
00000300: ef1f 95bc dfc6 663b 2b73 e83c f55d 7b3c
00000310: b325 70bb cd22 eebb e387 093d e3aa b53d
00000320: 33f7 063d 60bf 63bd 666b 1abd 5eb3 e3bc
00000330: f2c9 47bd 0af7 42bc 779d f4bc 2154 3fbd
00000340: cb2d 05bc 12aa 903c 0920 b0bd d743 1fbd
00000350: fdaf 9bbd d4c6 42bd 51ab cc3d 3c95 09be
00000360: 1c39 d1bd 9646 afbd 982f 41bd b2b1 bd3d
00000370: 7722 31bd 3944 6bbd b1b9 50bd 1660 553d
00000380: 00dc 183e 786f 783c d011 c43b 99d6 f83b
00000390: 3ed2 a1bc c5c4 18bb dbd8 5b3d 74c9 3f3c
000003a0: 41bb 61bc cfc2 25bd 0d72 0e3d e915 22bd
000003b0: 9ad2 ebbc 10e7 6cbd ff5c 68bd 7db4 073d
000003c0: 6c2e 97bd 1c79 89bd 04f9 04bd 9c69 0c3c
000003d0: d447 333d 0c0e 7bbd 5437 04bd ea5a fabc
000003e0: 0403 4d3e c0c0 873d 54ff 8f3d 8602 d7bc
000003f0: faf9 69bd 20dd 9bbd f8e9 fdbd fce7 773d
-0.02053443 -0.03785592 0.013849966 -0.012315517 0.028924655 0.0074128634 -0.009421533 0.026888717
-0.0071556284 0.0106736 -0.0026848293 -0.007851689 -0.008557008 -0.020296182 0.0017888999 -0.044596117
-0.02150606 -0.034922466 -0.031174473 0.0005376441 0.0046278113 0.018969182 0.021476878 0.038746048
0.04928445 -0.124450766 -0.021488769 0.056999322 0.010144206 -0.014358153 -0.0063488227 -0.044374604
0.05994865 0.044633735 0.0052234908 -0.057263378 -0.07942094 0.006551885 -0.010597801 -0.0042376774
-0.081894755 -0.069994725 -0.013255142 -0.012403844 -0.009912436 -0.04320674 -0.011287448 0.0075208396
-0.00702448 -0.030650485 0.016533833 0.008520221 0.022491015 0.029092144 0.01474441 -0.028984899
-0.013338358 -0.016100643 -0.014388691 0.010790587 -0.03022312 -0.00019356872 -0.008576241 0.010737577
0.012319488 -0.042516146 -0.002560139 -0.03142647 0.036389112 0.06601064 -0.001821254 0.013516213
0.022321507 0.05348234 0.16202714 0.021827903 -0.027613591 -0.0039414195 -0.005406713 0.029890018
0.00873999 0.0022898866 -0.036240906 -0.008609843 0.013962565 -0.010588611 0.009016169 0.0046940446
0.026082383 0.015874702 -0.003505587 -0.034645148 -0.01117091 -0.0077976286 -0.028570779 -0.030673666
-0.045004025 -0.055204444 -0.12648906 -0.17595538 0.00095109176 0.011781603 0.008682044 -0.013807194
-0.041467555 0.01907844 0.0080471765 -0.0033183875 0.008632261 -0.045559715 0.03202294 0.024065128
0.0040491107 -0.00058121915 -0.032194544 -0.006634454 0.014512019 -0.04926781 -0.033891056 -0.02521801
0.05189562 0.009825555 0.033313494 0.044975497 0.06452672 0.005695546 0.011582529 5.1669544e-05
0.018009689 -0.018586112 0.0034383286 0.008429726 -0.004258364 0.007936575 -0.031349897 -0.027244419
-0.024677131 -0.026837872 -0.03254158 -0.028871164 0.0051076794 -0.0065920088 0.003606184 0.017281909
0.00045211578 0.011104443 0.03140167 0.01872874 0.029526835 0.0148179745 0.0033165254 0.035637118
0.056063984 -0.021621034 -0.05732673 -0.0051390706 0.00011772944 -0.019363536 -0.06096053 -0.034067605
0.009604068 -0.006603995 -0.008635029 -0.052936632 0.0022981234 0.05182435 0.019442001 -0.05359484
0.008196237 0.013950929 0.044118505 0.04160466 -0.040850252 0.020693894 0.081021175 -0.01753634
-0.026791345 0.009111531 -0.020814057 -0.035017684 -0.03172611 0.012160738 0.016979452 -0.028127795
0.015929861 -0.0002935006 0.03268608 0.007617654 -0.015338075 -0.01826265 0.019098952 -0.007960503
-0.018203704 0.0035213751 0.028375229 0.015342225 -0.0036643564 -0.007267332 0.033576857 0.08870485
0.03295059 -0.05560243 -0.03770008 -0.02779549 -0.048776574 -0.011899719 -0.029860241 -0.04671109
-0.008128594 0.01765922 -0.0859986 -0.038883056 -0.076019265 -0.0475529 0.099936135 -0.13435835
-0.10215971 -0.08558385 -0.04716453 0.09262408 -0.04324576 -0.05743811 -0.05095834 0.052093588
0.14927673 0.015163295 0.0059835687 0.0075939414 -0.019753572 -0.0023310643 0.053673606 0.011705745
-0.013777555 -0.040468987 0.034776736 -0.039571676 -0.028786946 -0.057837546 -0.056729313 0.03313111
-0.07381901 -0.06712553 -0.032464042 0.008570101 0.043769673 -0.061292693 -0.032279328 -0.03056093
0.20020682 0.06628561 0.07031122 -0.02624632 -0.05712316 -0.076105356 -0.123981416 0.060523972

conv2.bias f4 [32]
00000000: f0b3 c73b 4b12 08bd 89e2 473c d51c b0bc
00000010: 0b47 733c 3206 91bc 7b0b b6bc 651f 993c
00000020: 586e 4bbc c62f 9abc 6d4c c6bc 3291 6d3c
00000030: b4de 3fbc b1de 7bbc b65a 833c 288a e9bc
00000040: d198 d0bc 78ac 76bc d07f 203b d9ce 71bd
00000050: 1c9e 4b3d 6e2a 02bc d3e1 36bc a30e 883b
00000060: a2ee 90bc 4209 21bc 5ad4 9bbc 78c3 a03c
00000070: 770d e3bc d16b 7c3b 824c a73c 48ac d9bc
0.0060944483 -0.03322057 0.012200006 -0.021498123 0.014848481 -0.01770315 -0.022222271 0.018691728
-0.012416445 -0.018821608 -0.024206365 0.014499949 -0.011710811 -0.015372918 0.016034465 -0.02850826
-0.025463494 -0.015055768 0.0024490245 -0.059035156 0.04971133 -0.007944686 -0.011162239 0.0041521355
-0.017691914 -0.009828867 -0.019022156 0.019624457 -0.027716381 0.0038516412 0.020422224 -0.026571408

conv3.weight f4 [1, 32, 5, 5]
00000000: 2170 43bd 6c43 6bbc 1903 a8bc 7284 eabc
00000010: 8453 b03b d26d dd3b 4266 e5bc 1c99 59bd
00000020: 288d 22bc d5f3 8f3c f758 9d3c be1a 3fbd
00000030: 6985 31bd 4570 95ba 02f9 0a3c ee78 d9bb
00000040: dff1 c3bc cb42 ecbc 9c63 50bc 4ce3 913c
00000050: fd11 853d 7898 5f3d 2b6b 443d 5302 203d
00000060: ecd8 ef3d 5a0f 26bd 2db6 d6bc 379a 2fbd
00000070: 5e3f fcbb 80e2 ceba e74c 25bd 0ec0 55bd
00000080: a13f b8bc dbbc 54bc 46ed 00bd ea23 02bd
00000090: 0fc1 53bc 6839 22bd cb5b d4bc edda 61bc
000000a0: 584d 21bd 9db2 4e3c e7b9 1abd 07a6 47bc
000000b0: 86fc b4bc b351 aabb 5c51 68bd e802 85bc
000000c0: 221e debc f6de e539 c674 153d 22ce 73bc
000000d0: dbea d33b 209d 073d 4ed7 0c3d 35f6 0cbc
000000e0: 5a78 8d3c 0686 a5bc 4792 64bc 4f36 d9bc
000000f0: 2b0d 553c 3dbb ecbc 80e4 84bc ca9f 6dbc
00000100: 7267 9a3b 49e4 ae3b 252b debb c432 dfbc
00000110: d7c8 a1bb cb03 8e3c 1dcf 4e3c f3a6 8cbc
00000120: 964c b5bb d63f 03bd 2cab 9b3c 18bf 04bd
00000130: c33e abbc b3c4 60bd 3bbc 4cbd d334 d3bc
00000140: fdf0 50bc 15c0 d03c f193 b33c 8f63 60bc
00000150: 83d9 e63c 3d79 e6bb 934f 92bc 615c 893c
00000160: 48d5 b5bb 839d 083d 844e 1e3c 79f8 583c
00000170: 1aa2 cabc 5fd3 0fbc 29ab 203d 159e 413d
00000180: acaa d23c da01 cb3a 3297 133d 3969 a23d
00000190: 72b2 97bd 15d4 1ebd 858d b0bc edf5 3bbc
000001a0: 1c44 86bd 527b 0bba 9566 92bb 4aaf 233d
000001b0: 3e47 a7bc 9e88 8ebc 8533 c8bc bec7 2cbb
000001c0: 4783 9d3c 01da 2b39 3fd2 863c 4daa a5bc
000001d0: 29ca b33c 1bd9 00bc 5925 46bc 25c8 2c3c
000001e0: 11d2 44bc 2fd1 193d ba09 fe3c 2aec ad3b
000001f0: 24e7 543c dfc6 d4bd e4fd a7bd 9619 2bbd
00000200: 4270 66bd ed93 82bd e5ec 02bd e6e5 13bd
00000210: f1c7 08bd cf7a 08bd ecb1 03bd 4fd5 9fbd
00000220: 77b6 a0bc eb90 64bd cf5d 533b 6e7a 89bd
00000230: dd56 60bd 8d1c 00bc e33e 0bbd 4526 1dbd
00000240: eb6f 73bc 7bee a6bd a3be 60bd b193 2ebd
00000250: 660b 58bc dbbb 0abd 92e0 2d3d 90e0 d7bb
00000260: fb96 b5bb a891 1a3d 86e0 f73c c7b9 0ebc
00000270: 42b0 e4ba 5939 34bc ed06 2b3b bace 0a3d
00000280: 0476 e5bc 8e9f 013c e22a 18bb d1a1 debb
00000290: 9a46 333c 228d e63c d54b 8dbc dc99 fabb
000002a0: 797c a13b 05af 383c 939a 853c c66d f53c
000002b0: 3724 7c3c dfa8 ce3c bcd4 fd3b a954 963d
000002c0: 7f28 8d3d 89a7 a03c 3fa6 c63b cd24 223d
000002d0: 6869 a43d 8df5 a53c f8e8 b23c 5f9e 883c
000002e0: 75d8 fc3c 9790 7b3d ea05 28bc 3477 123d
000002f0: c0ae 3ebc c19b aabb e5cd f93c e126 013d
00000300: f6ad 063d f91f 443b 51e4 313c 1c49 be3c
00000310: bcfa b23c b8af 8f3c 1939 2d3b d6a5 223d
00000320: 79a7 323d a20d 283d 9db1 413d a372 123d
00000330: 4528 963d 8934 14bb 35fc 1f3d 520c 063b
00000340: 3a0b c73c e834 673d 69ca 853c 386c c13c
00000350: 4834 2a3d aa85 8a3b bfe4 913c 61af a83c
00000360: 3000 3e3c a2d5 dd3c 2b78 a13c 7cd8 c03b
00000370: 395e ed3c 542d 563c 0089 f63c 1ef2 88bc
00000380: ae17 a23c 6b4a 033d 3754 aa3c f3f7 933c
00000390: d81c 333d 4151 ef3c 6757 123d c4e4 a73c
000003a0: 2f89 b73b 293e 9e3c f732 f73c 5d57 14bc
000003b0: 9c0e dbbb 5ddb 4a3c 014e 003d 0f27 8c3c
000003c0: 615e ce3c f2c7 143d 24eb a23c 829f 4d39
000003d0: f489 193d 1c6a 283d 7455 443d 4eed 073d
000003e0: 42fa fb3c 375a 863d 4867 d63c c09b ddbb
000003f0: aa51 5b3c 8803 60bb a4ae 263d 5202 1a3b
-0.047714356 -0.014359336 -0.02050929 -0.028627608 0.0053810496 0.0067574764 -0.028002862 -0.053124532
-0.00992135 0.017572323 0.01920746 -0.046656363 -0.04334012 -0.0011401257 0.00848222 -0.0066367304
-0.023919044 -0.028840443 -0.012719061 0.017808579 0.064975716 0.054588765 0.047953766 0.039064717
0.117112964 -0.040541984 -0.026209915 -0.04287168 -0.0076979836 -0.0015784055 -0.040356543 -0.05218511
-0.022491278 -0.01298448 -0.03147628 -0.03177253 -0.012924447 -0.039605528 -0.025922677 -0.013785106
-0.0393804 0.012615827 -0.037774947 -0.01218558 -0.022093069 -0.0051977276 -0.056718215 -0.016236737
-0.027113978 0.00043844403 0.036488317 -0.014880689 0.006467206 0.03310883 0.034385018 -0.008603622
0.017269302 -0.020205509 -0.013950891 -0.026515154 0.013003628 -0.028897876 -0.016222239 -0.014503429
0.0047120387 0.0053372723 -0.0067800456 -0.027245887 -0.004937272 0.017335793 0.012622622 -0.017169451
-0.0055328114 -0.0320433 0.01900252 -0.032408804 -0.02090395 -0.054875087 -0.049984198 -0.025782024
-0.012752769 0.025482217 0.02192113 -0.013695612 0.02817989 -0.0070334957 -0.01786021 0.016767683
-0.0055491067 0.03335334 0.009662274 0.013242834 -0.0247355 -0.008778422 0.03922573 0.0472699
0.025716148 0.0015488223 0.036032863 0.07930226 -0.074070826 -0.038776476 -0.021551857 -0.0114722075
-0.065559596 -0.00053208054 -0.004467795 0.03996209 -0.020419713 -0.017399129 -0.024438629 -0.0026364173
0.019227637 0.00016389044 0.016457675 -0.020222807 0.021946983 -0.007864262 -0.012093865 0.010545765
-0.012012974 0.03755301 0.031010497 0.005307694 0.012994561 -0.10389494 -0.08202723 -0.041772448
-0.0562594 -0.06375871 -0.0319642 -0.03610792 -0.033393804 -0.033320244 -0.0321521 -0.07804357
-0.019618256 -0.055802267 0.003225196 -0.06712805 -0.05477034 -0.007819307 -0.03399552 -0.038366575
-0.014858226 -0.08150955 -0.054869305 -0.04262132 -0.013186311 -0.03387056 0.042450495 -0.0065880492
-0.00554168 0.037736565 0.030258428 -0.008711285 -0.0017447548 -0.011000001 0.0026096657 0.033888556
-0.028010376 0.007911576 -0.002321892 -0.0067941924 0.010942126 0.02814347 -0.017248074 -0.007647736
0.0049281684 0.011272197 0.016309058 0.02995957 0.015389494 0.025227008 0.007746307 0.073403664
0.0689249 0.019611137 0.0060622985 0.039585877 0.08027917 0.02025869 0.021839604 0.01667708
0.030864934 0.06141719 -0.010255316 0.035758212 -0.011638343 -0.0052065556 0.030493686 0.03153122
0.032880746 0.0029926284 0.0108576575 0.02322822 0.021848075 0.017539844 0.0026431738 0.039708935
0.043616746 0.041028626 0.047288526 0.035753857 0.073318996 -0.0022614321 0.039058883 0.002045412
0.024297345 0.05644694 0.016331868 0.023611173 0.041553766 0.00422736 0.01780927 0.02059144
0.011596724 0.027079407 0.01971062 0.005885182 0.028975593 0.0130723305 0.030094624 -0.016717013
0.019786682 0.032053392 0.02079211 0.018062567 0.04372868 0.02921355 0.035727885 0.020494826
0.0056010704 0.01931675 0.03017567 -0.009054032 -0.006685091 0.012381402 0.03132439 0.017108468
0.025191488 0.036323495 0.019887514 0.00019609745 0.037485078 0.04111682 0.047933057 0.033185296
0.03075898 0.06560176 0.026172295 -0.0067629516 0.013386169 -0.0034181792 0.040693894 0.0023499918

exp_avg f4 [64, 1, 9, 9]
00000000: cc99 38ba 39fd 42ba 46bc 49ba c032 52ba
00000010: 9bde 57ba 2116 5cba 585e 57ba 9687 61ba
00000020: f1f2 60ba afcd 2aba f422 34ba 5044 3aba
00000030: d461 41ba da27 40ba 0655 52ba c8a6 4cba
00000040: 41a3 4eba af32 4cba 9bb6 2dba 09a2 27ba
00000050: 0430 33ba 7f96 35ba 803d 3aba db91 4fba
00000060: 26e9 48ba 386b 4aba 7034 46ba ba39 20ba
00000070: f2ab 11ba 6c02 1cba 3e42 1bba ce6b 2cba
00000080: bdea 43ba a1bf 47ba efa3 51ba 934f 4aba
00000090: 6490 0eba 9c47 15ba 151b 13ba d210 1bba
000000a0: 11fc 21ba 42bd 31ba 3c4f 4bba 3a17 53ba
000000b0: 04b2 53ba 4089 06ba 7ea6 05ba 1169 07ba
000000c0: 4808 0bba bf49 13ba d6ca 2dba c740 42ba
000000d0: 1afd 4cba 886a 57ba fb9b feb9 c799 feb9
000000e0: 6c9e feb9 d82a 04ba 3616 03ba b780 28ba
000000f0: e2a2 44ba 07bb 4eba ae78 54ba 14f7 0cba
00000100: dc0d 01ba b5c2 fcb9 458e f8b9 751c 08ba
00000110: 7f0e 1eba d810 3eba 35d7 44ba 8e5f 50ba
00000120: a815 19ba cbfd 0cba ce82 06ba b114 0bba
00000130: 187b 0bba 3140 1fba 054b 33ba 78da 3aba
00000140: f38d 40ba 2761 35b9 bda8 3eb9 fcde 28b9
00000150: 56d4 37b9 1b32 01b9 20f5 07b9 ae76 e0b8
00000160: 8789 a5b8 ee98 aab8 aecc 42b9 3a3d 3db9
00000170: 0a83 37b9 7b34 3cb9 b85e 25b9 7930 17b9
00000180: e543 f8b8 df8b fdb8 2013 03b9 da76 38b9
00000190: 35d3 30b9 d737 01b9 4181 22b9 5705 10b9
000001a0: 23e1 11b9 d48b 0bb9 ea62 14b9 b801 f1b8
000001b0: 3bdd 06b9 4203 cfb8 593e e8b8 1072 0ab9
000001c0: 2468 f2b8 8ca1 12b9 24ec 00b9 455c b7b8
000001d0: bfb6 e5b8 dc8b 01b9 820e 01b9 b996 deb8
000001e0: 4f42 b2b8 db51 97b8 72f0 c9b8 6e87 c3b8
000001f0: 0177 c7b8 bb0a fab8 d18d 06b9 472a cab8
00000200: b7a0 cab8 00c5 c7b8 5e30 b1b8 7355 c4b8
00000210: 5a53 17b9 0453 e8b8 81b3 2fb9 1ab9 a9b8
00000220: 177b c8b8 4a2e b8b8 b7e0 8cb8 dbfc d5b8
00000230: f259 edb8 d736 3cb9 9073 01b9 3511 35b9
00000240: 4f93 f5b8 f1f6 b7b8 a0b4 dbb8 ffdf e2b8
00000250: 464c d2b8 12eb 17b9 f0cf 26b9 e526 29b9
00000260: 3921 41b9 629c d7b8 9a52 04b9 f5aa cfb8
00000270: d5df f6b8 1488 05b9 ee1e 37b9 7e98 4eb9
00000280: a152 2fb9 447f 4ab9 d0ec c0b8 7414 0d38
00000290: 3264 d6b7 2a86 1539 bcb4 9439 a6cc 053a
000002a0: 2901 1b3a 5110 563a 31f0 813a cdb8 03b9
000002b0: 132a e9b8 b5a2 0bb9 00f4 1939 10bc b839
000002c0: 6d9c 193a c196 5d3a f9ed 8d3a 0ba2 9e3a
000002d0: d532 45b9 eb0b 78b9 4914 d3b8 1f30 0839
000002e0: 7f19 bc39 a201 413a f410 7c3a f72b 8e3a
000002f0: 960a a13a de61 49b9 ec4f 19b8 2cbf 76b8
00000300: 9d85 8539 0d98 0c3a 9b58 5b3a 17b7 9e3a
00000310: 3b33 a83a 9b7d bc3a 291d beb8 9f3d 6bb8
00000320: 40d4 5b38 02c6 9f39 f829 333a f084 8e3a
00000330: 7136 b33a af35 cb3a 5bc0 d73a 40d4 bc37
00000340: 6ac4 0639 fe02 a739 20d3 0c3a 52d2 753a
00000350: adda a03a 9d3f cd3a dbf5 c93a b692 cb3a
00000360: 2ac5 9f39 d9f5 033a 53c0 103a 4982 5a3a
00000370: ccb0 963a ce01 be3a 77cd cd3a af41 da3a
00000380: 3f17 d93a 825d 133a 257a 443a ace1 5c3a
00000390: 610b 663a 4142 a33a e85b cc3a c752 d53a
000003a0: 1571 d73a a5b4 e13a 6285 4f3a ca2d 703a
000003b0: b134 6e3a 68ef 873a 3a7c a03a 3756 ba3a
000003c0: 41b7 d03a dbf5 c83a c248 c83a 5dc6 d1bb
000003d0: 2f60 c8bb 2fd1 d2bb d5ac d0bb 2014 d1bb
000003e0: 0fbd c8bb 87a3 c4bb e34a ccbb a213 c5bb
000003f0: f2f4 cdbb bec5 c9bb a4b1 c8bb f910 cdbb
-0.00070419605 -0.0007438246 -0.00076955964 -0.00080184266 -0.000823477 -0.00083956314 -0.00082156574 -0.0008603273
-0.0008581123 -0.00065156346 -0.00068716635 -0.0007105516 -0.0007376943 -0.0007330157 -0.0008023534 -0.0007806835
-0.0007882603 -0.0007789535 -0.00066266366 -0.00063946896 -0.0006835463 -0.0006927028 -0.0007104501 -0.00079181575
-0.00076641364 -0.00077216653 -0.00075609144 -0.00061121176 -0.0005556933 -0.00059512886 -0.00059226516 -0.00065773434
-0.00074736384 -0.00076198025 -0.00079971453 -0.0007717546 -0.0005438386 -0.00056945696 -0.00056116405 -0.0005915287
-0.00061792234 -0.0006780216 -0.00077556423 -0.0008052472 -0.00080755376 -0.0005132146 -0.00050983566 -0.00051654974
-0.0005303663 -0.0005618594 -0.0006629651 -0.0007410165 -0.00078196975 -0.00082174735 -0.0004856287 -0.00048561228
-0.0004856469 -0.00050417846 -0.0005000563 -0.00064278714 -0.0007501078 -0.00078861456 -0.0008105141 -0.00053773937
-0.00049230247 -0.00048210254 -0.00047408245 -0.0005192229 -0.0006029382 -0.0007250435 -0.0007508875 -0.0007948809
-0.0005839714 -0.0005378394 -0.0005131186 -0.00053055125 -0.00053207716 -0.0006074934 -0.0006839487 -0.00071278913
-0.0007345371 -0.00017297697 -0.00018182672 -0.00016104797 -0.00017531341 -0.00012321064 -0.0001296592 -0.00010703258
-7.8934296e-05 -8.134717e-05 -0.00018577531 -0.00018047253 -0.00017501056 -0.00017948628 -0.00015770912 -0.0001441854
-0.00011838208 -0.00012090033 -0.00012500258 -0.00017591883 -0.00016863349 -0.000123232 -0.00015497675 -0.000137349
-0.00013912148 -0.00013308163 -0.00014151228 -0.00011492096 -0.0001286165 -9.871136e-05 -0.00011074235 -0.00013203197
-0.00011558857 -0.00013983826 -0.00012295 -8.7433065e-05 -0.0001095361 -0.000123545 -0.00012307803 -0.00010613859
-8.500052e-05 -7.215488e-05 -9.629213e-05 -9.32355e-05 -9.511226e-05 -0.00011922928 -0.00012832067 -9.6399854e-05
-9.662046e-05 -9.5257536e-05 -8.449027e-05 -9.3619245e-05 -0.00014431533 -0.00011078085 -0.00016756171 -8.093026e-05
-9.5596704e-05 -8.782426e-05 -6.7175766e-05 -0.000102037295 -0.00011317794 -0.00017949507 -0.00012345449 -0.00017267915
-0.00011709949 -8.7721164e-05 -0.00010476378 -0.00010818242 -0.00010027787 -0.00014488053 -0.00015908456 -0.00016131585
-0.0001841829 -0.000102811275 -0.00012619272 -9.9023724e-05 -0.00011771886 -0.00012734561 -0.00017463762 -0.00019702499
-0.00016720082 -0.00019311631 -9.199383e-05 3.3636068e-05 -2.5557445e-05 0.00014259727 0.00028363417 0.00051040424
0.00059129536 0.00081658835 0.0009913502 -0.00012561977 -0.00011118143 -0.00013316686 0.00014682114 0.00035235332
0.0005859796 0.0008452945 0.0010828368 0.0012102736 -0.0001880632 -0.00023655563 -0.000100650424 0.00012987897
0.0003587715 0.0007362609 0.00096155633 0.0010846843 0.001228648 -0.00019205312 -3.6552476e-05 -5.8829013e-05
0.00025467286 0.00053632335 0.000836739 0.0012109008 0.0012832651 0.0014380695 -9.0653375e-05 -5.6085755e-05
5.2411342e-05 0.0003047437 0.0006834562 0.0010873359 0.0013672841 0.001550367 0.0016460525 2.2510183e-05
0.00012852406 0.00031854952 0.0005372036 0.00093773485 0.0012272202 0.0015659217 0.0015408354 0.0015531394
0.00030473742 0.00050338876 0.00055218226 0.0008335454 0.0011496781 0.0014496387 0.0015701492 0.0016651655
0.0016562714 0.0005621539 0.00074950076 0.0008425962 0.00087754993 0.0012455658 0.0015591355 0.001627528
0.0016436899 0.0017219974 0.0007916299 0.00091620965 0.0009086831 0.0010371031 0.0012244054 0.0014216368
0.0015923755 0.001533206 0.0015280473 -0.0064018206 -0.0061149816 -0.006433628 -0.0063682594 -0.006380573
-0.006126053 -0.0060009393 -0.006234513 -0.0060143033 -0.0062853033 -0.006157606 -0.006124692 -0.006258127

exp_avg_sq f4 [64, 1, 9, 9]
00000000: b0ac 0b37 5de2 0837 cbca 0737 06fc f436
00000010: 00ae e736 096b d636 e6b7 d736 0c34 d736
00000020: 4b5d e936 736d 1037 964d 0f37 4de2 0e37
00000030: e383 fc36 3031 e536 fede d136 c094 c636
00000040: 9224 c936 0f0b d636 5ab0 1d37 cccb 1f37
00000050: 01a3 1337 83f5 0737 493f e736 5e7e c536
00000060: d3ad b636 a349 b536 ca42 c536 4312 1e37
00000070: 8b29 2c37 ba2f 2937 92f1 0f37 f749 ee36
00000080: b672 c736 55a6 af36 1fee aa36 2b7e bb36
00000090: 2408 2837 ab1d 3637 9a6d 3937 73ac 2337
000000a0: cdc8 fd36 6f35 cb36 49e5 ab36 cfd2 a636
000000b0: e234 b236 6def 2e37 8f22 3d37 d122 4637
000000c0: 1026 2837 eca2 0b37 1d51 d636 91e4 b336
000000d0: 48ac ab36 99be b736 3e08 2d37 2f1e 4437
000000e0: 3dec 4937 4833 3937 8b64 1937 cd5e ee36
000000f0: b6f9 c636 ef13 c036 837e c236 cfbc 2537
00000100: 6ce2 3837 b7c1 3f37 e746 3537 db1f 1c37
00000110: 3f0a 0437 a833 df36 fdcc d436 2bf7 d236
00000120: 2482 1937 f6d1 2337 4a5f 3037 a5a6 3237
00000130: 9150 2337 0ad9 1137 6115 ff36 b727 f336
00000140: f352 e836 269c 0637 2843 0937 ad13 0937
00000150: 0cbd 0b37 acc9 0e37 2e29 0837 350a 0337
00000160: ea11 0a37 7f5e 0637 8b66 0737 3621 0737
00000170: 27d9 0d37 53d7 0937 671e 1337 21a7 1037
00000180: e8c3 0c37 5e7a 0937 76e6 0a37 cc59 0537
00000190: 7c1c 0737 6512 0a37 145a 1737 4ef7 1837
000001a0: a43d 0d37 c574 0b37 f442 0437 4d11 0637
000001b0: 1258 0137 fbcb 0137 d11f 0337 869c 1637
000001c0: fcfb 1737 9672 0d37 cbd2 0737 564d 0737
000001d0: fe59 0437 26d0 f636 cbd8 f936 55cd ff36
000001e0: 5266 0f37 6c73 1a37 0e57 1237 b77a 0c37
000001f0: 00e2 0f37 0032 0737 c1b6 f436 82b9 f236
00000200: d052 0137 1881 0237 92ae 0737 21b0 1137
00000210: fe00 0c37 bcef 0a37 29a4 0f37 f0fc f136
00000220: 3a7c fa36 6623 fb36 6b2a 0237 e9fd 0537
00000230: b2d9 0e37 24e1 1237 843a 1637 3b4d 1637
00000240: 0f12 ed36 25b8 f636 f65b f536 a924 fa36
00000250: 1181 0837 06f8 0c37 b666 1237 f1a0 1b37
00000260: c986 1c37 af73 f536 9b19 f636 f2ec fd36
00000270: 55a6 0137 d75a 0337 1052 0837 4855 1537
00000280: a18b 1c37 e147 2337 9940 3839 5689 3d39
00000290: d2f8 3f39 cb80 3939 3821 2f39 7fc1 2439
000002a0: a06d 1d39 725e 1839 27f4 1539 e44a 4139
000002b0: 9808 4939 a99b 4a39 f5fa 3f39 a6e7 3139
000002c0: 89b7 2439 c435 1e39 673c 1b39 9c56 1939
000002d0: 28ed 4739 a8ff 5039 db26 4e39 5140 4039
000002e0: 023b 2f39 9e2d 2239 1040 1f39 1258 1f39
000002f0: eca3 1e39 7e49 4839 28dd 4d39 f4b8 4839
00000300: 5526 3739 e736 2639 165f 1f39 37f6 2239
00000310: 739f 2739 bf63 2639 0399 4139 ba84 4339
00000320: 6a26 3939 2a8f 2739 1309 1c39 9306 1e39
00000330: 77a9 2839 5377 3139 7472 2f39 a9fd 3439
00000340: 078a 3139 679e 2539 d58d 1839 db9b 1539
00000350: 4d04 1e39 c7ff 2e39 1a0c 3539 b2b8 3239
00000360: d843 2539 e39b 1f39 ef33 1639 9d8f 0f39
00000370: caa4 1339 9718 2239 6996 2e39 01f6 3639
00000380: ffca 3239 ffeb 1839 f556 1339 e265 0d39
00000390: 531b 0b39 ad72 1339 5c0c 2139 cc9c 2c39
000003a0: cec0 3039 e2b4 2f39 4de4 1139 6542 0e39
000003b0: 4697 0a39 4304 0b39 d455 1139 8e60 1a39
000003c0: e727 2639 3f11 2939 6c3b 2539 f7ac 4239
000003d0: 0151 3339 df78 4139 fab2 4239 850a 3d39
000003e0: 7ffb 3139 c5e9 2e39 a42c 3239 1d50 2b39
000003f0: 9cac 3e39 2279 3a39 5120 3c39 a3bb 4439
8.325253e-06 8.158936e-06 8.0938435e-06 7.301106e-06 6.9045927e-06 6.3901575e-06 6.428908e-06 6.4135584e-06
6.954802e-06 8.608552e-06 8.541529e-06 8.516549e-06 7.525539e-06 6.830458e-06 6.254645e-06 5.9181766e-06
5.994524e-06 6.3789844e-06 9.398989e-06 9.524589e-06 8.799835e-06 8.10379e-06 6.891704e-06 5.8857686e-06
5.4442585e-06 5.402793e-06 5.878833e-06 9.421786e-06 1.0261671e-05 1.0084297e-05 8.579709e-06 7.1015634e-06
5.9440163e-06 5.23477e-06 5.0941157e-06 5.587722e-06 1.0015476e-05 1.0854953e-05 1.1052378e-05 9.755709e-06
7.563364e-06 6.056092e-06 5.1228894e-06 4.971727e-06 5.3109698e-06 1.0426954e-05 1.1273324e-05 1.1809826e-05
1.0022442e-05 8.322979e-06 6.38714e-06 5.3612243e-06 5.1162533e-06 5.4760135e-06 1.0313523e-05 1.1689538e-05
1.2035537e-05 1.1038799e-05 9.14292e-06 7.103989e-06 5.92993e-06 5.7243665e-06 5.7963784e-06 9.878727e-06
1.1019973e-05 1.142959e-05 1.0804949e-05 9.3057415e-06 7.870199e-06 6.6519315e-06 6.341956e-06 6.287262e-06
9.149811e-06 9.764442e-06 1.0512604e-05 1.0648427e-05 9.734315e-06 8.693207e-06 7.602081e-06 7.2465878e-06
6.9237954e-06 8.0233785e-06 8.181472e-06 8.1704175e-06 8.3290615e-06 8.510815e-06 8.11582e-06 7.810585e-06
8.229612e-06 8.009024e-06 8.070502e-06 8.05436e-06 8.454815e-06 8.21597e-06 8.768961e-06 8.621982e-06
8.390263e-06 8.194327e-06 8.279099e-06 7.948325e-06 8.053259e-06 8.229724e-06 9.021274e-06 9.117486e-06
8.418607e-06 8.312233e-06 7.883402e-06 7.991051e-06 7.709505e-06 7.736492e-06 7.815616e-06 8.97714e-06
9.058971e-06 8.430934e-06 8.095706e-06 8.064633e-06 7.888766e-06 7.355603e-06 7.4460163e-06 7.623496e-06
8.5472875e-06 9.205989e-06 8.722547e-06 8.373222e-06 8.576084e-06 8.058269e-06 7.293042e-06 7.233758e-06
7.7082805e-06 7.778661e-06 8.087272e-06 8.683682e-06 8.344881e-06 8.2812585e-06 8.561686e-06 7.2118055e-06
7.4650425e-06 7.484504e-06 7.75848e-06 7.986536e-06 8.514546e-06 8.754698e-06 8.954321e-06 8.958678e-06
7.0652527e-06 7.3528086e-06 7.3122746e-06 7.4548484e-06 8.136282e-06 8.402398e-06 8.726192e-06 9.276192e-06
9.329707e-06 7.3150363e-06 7.334352e-06 7.5675716e-06 7.727726e-06 7.829359e-06 8.125338e-06 8.900948e-06
9.3308345e-06 9.732293e-06 0.00017571672 0.00018075606 0.00018307872 0.00017690954 0.00016701675 0.00015712342
0.00015013525 0.00014531033 0.00014300701 0.00018433813 0.00019172055 0.00019322209 0.00018308668 0.00016966331
0.00015708631 0.00015088083 0.00014804454 0.00014623482 0.00019066466 0.00019931665 0.00019660166 0.00018334507
0.00016711283 0.00015466518 0.00015187287 0.0001519623 0.0001512912 0.00019100864 0.0001963271 0.00019142387
0.0001746652 0.00015851446 0.00015198844 0.00015541246 0.0001598576 0.00015868152 0.00018462916 0.00018646094
0.00017657285 0.00015979694 0.000148807 0.00015070503 0.00016084859 0.00016924487 0.00016731938 0.00017260633
0.00016931455 0.00015794636 0.00014548686 0.00014267808 0.00015069656 0.00016689218 0.00017266013 0.00017044207
0.000157609 0.00015221494 0.00014324462 0.00013691043 0.00014080401 0.00015458684 0.00016649965 0.00017448516
0.00017051025 0.00014583765 0.00014051406 0.00013484762 0.00013266252 0.00014061733 0.0001535876 0.0001646161
0.00016856493 0.00016756685 0.00013913326 0.00013566909 0.0001321706 0.0001325766 0.00013860251 0.00014722554
0.00015845858 0.0001612352 0.00015757763 0.00018565716 0.00017100947 0.00018450942 0.00018567956 0.00018028363
0.00016973725 0.00016681019 0.00016992033 0.00016337675 0.00018184114 0.00017783468 0.00017941116 0.00018761917

exp_avg f4 [64]
00000000: c925 24bb 75c0 96b9 67e6 743b 6125 b5bc
00000010: e7b3 12bc f7e4 0e3b 815d 983b cba9 12bb
00000020: 6554 7bbc fabe cbb8 6278 ac3b cd07 a1bb
00000030: 4e67 c3ba 5763 47bc be96 e8bb 85f1 9fbc
00000040: 68dd ac3b ffdc acbc 92e7 ecbb f907 c1bc
00000050: 0400 0080 5ac4 7ebc b48a 7bbc 8f31 dfbb
00000060: 8bac 66bc dc3f 85bb c3da dbbb 0513 ca3b
00000070: 051f 39bc b8d5 a6bc 9c44 46bc 18a3 b6bb
00000080: 9a26 75bc d687 16ba 3b09 d03a cd46 0ebc
00000090: 072f 60bc b12a 8a39 b326 04bb 7d71 b1bb
000000a0: 7848 b6ba ac91 6b39 05b1 68bb 61cf 86bc
000000b0: 0fea ad3a 6480 4abc f733 42bc 8980 9cbb
000000c0: 2868 a3ba 7a8d 4bb8 cb4c 2f3c 82cb bcbc
000000d0: 98dd 39bb 8b7d 08bc 8ccd c8ba 51db 98ba
000000e0: 1d25 e639 60eb b1bb 24ab 99bb 34dc 0ebb
000000f0: e9c1 f2bb 4c73 28ba e7b0 59b9 ec10 e8bb
-0.0025046936 -0.0002875362 0.0037368776 -0.02211255 -0.008954025 0.0021803954 0.0046498184 -0.0022379037
-0.015339945 -9.7153665e-05 0.005263374 -0.00491426 -0.0014908107 -0.012169681 -0.007098048 -0.019524345
0.005275417 -0.021101473 -0.007229754 -0.023563372 -6e-45 -0.015549744 -0.015352894 -0.0068113278
-0.014079223 -0.0040664505 -0.006709428 0.006166818 -0.0112989 -0.02036558 -0.012101319 -0.0055736415
-0.014962817 -0.0005742287 0.0015871892 -0.008683872 -0.013683087 0.0002635322 -0.0020164668 -0.00541514
-0.0013907095 0.00022465613 -0.0035505902 -0.016456308 0.0013268607 -0.012359712 -0.01185321 -0.004776065
-0.0012466954 -4.8530732e-05 0.010699461 -0.023046259 -0.002836084 -0.008330713 -0.0015320047 -0.0011662041
0.0004389667 -0.00542967 -0.004689591 -0.0021798732 -0.00740837 -0.0006425872 -0.00020760634 -0.0070820954

exp_avg_sq f4 [64]
00000000: 10c2 a238 5cb7 4339 a09b ab3a b955 1c3b
00000010: ef12 ad3b 814f a93a 0aef fb39 eb32 163a
00000020: ed76 bd3a 6769 4135 e467 ba39 a832 d639
00000030: 08a0 f638 35ba d43a e7bb ba39 7b1b 283c
00000040: 5690 033b 5bef 1b3c a954 8439 f347 c13b
00000050: b2de b11d 0b08 a53b 5953 093b 79af d739
00000060: 41ac ff3a c255 9139 781b a73a c23f 163a
00000070: 16e7 393b 3dcf 143c 1bbe 1c3a 5cdc e039
00000080: 4754 453b 1a56 e439 de5d 7e39 4a70 8c3a
00000090: 35c9 0b3c 62b1 6139 e442 043a b989 8639
000000a0: f15b d939 206c dc3a 5251 e938 4577 b33a
000000b0: be33 e038 be17 383c 9ccd 393b 9109 093a
000000c0: f91a 513a a617 ad37 8524 353c a49b 5f3c
000000d0: 93b2 c638 21b2 d439 46ee 0b39 a44a 2839
000000e0: a7f3 8c39 f055 c739 73d3 aa39 d0ec 0638
000000f0: 2090 3a3a 3653 e437 4f40 4b3a bdb8 373b
7.760909e-05 0.00018664956 0.0013092645 0.0023854806 0.005281798 0.0012917371 0.0004805255 0.0005729633
0.0014454998 7.2051483e-07 0.0003555409 0.00040855003 0.00011760002 0.001622981 0.00035616683 0.010260458
0.0020075045 0.009517516 0.0002524008 0.0058984696 4.708177e-21 0.005036359 0.002095422 0.00041138733
0.0019506292 0.0002772045 0.0012749275 0.00057315466 0.0028366498 0.009082613 0.00059792557 0.0004288879
0.0030110048 0.000435517 0.00024258296 0.0010714617 0.008531858 0.00021523752 0.0005045368 0.00025661083
0.00041457967 0.0016816892 0.00011125453 0.0013692161 0.0001069079 0.011236129 0.0028351313 0.0005227561
0.00079767365 2.063422e-05 0.01105607 0.013647947 9.474638e-05 0.00040568507 0.00013344837 0.00016049534
0.00026884416 0.00038020266 0.0003258247 3.216864e-05 0.0007116813 2.7218466e-05 0.0007753418 0.0028033697

exp_avg f4 [32, 64, 5, 5]
00000000: 89cc 91b9 3f65 80b9 8b37 7db9 51ce 60b9
00000010: 7ec1 50b9 fa1a 8db9 bd84 88b9 3811 82b9
00000020: e31f 7cb9 4072 61b9 1992 a7b9 7df8 9ab9
00000030: 9961 8fb9 d533 82b9 3f08 5cb9 6321 9cb9
00000040: 5be4 8db9 7a7f 7ab9 db0f 68b9 67c3 44b9
00000050: f4fa 99b9 5dc5 89b9 91d8 6eb9 3a9c 5bb9
00000060: ac64 43b9 8fcb 97b5 384a 8cb6 1475 80b6
00000070: ab9b 4ab6 4202 e2b6 8885 89b6 b9cb 8db6
00000080: b23a f5b5 89dc 5cb5 9e05 16b7 4668 feb6
00000090: 401a d3b6 b842 e0b6 bb47 08b7 5c78 e9b6
000000a0: f8a0 6bb6 98e9 b3b6 d7e8 06b7 72b0 18b7
000000b0: 400d 1ab7 1a12 50b6 58d0 deb6 a56b 02b7
000000c0: 491d 5eb7 00cc 24b7 506f a0b9 e27a bdb9
000000d0: acac deb9 b9ed e7b9 c13b 00ba b7ce b5b9
000000e0: c798 d1b9 817a efb9 f370 fdb9 dc0e 05ba
000000f0: caac c0b9 c77b e0b9 ac53 f2b9 2dac 00ba
00000100: aaba 05ba 0d63 c0b9 7da6 e0b9 ab69 f0b9
00000110: fb4c fdb9 dd53 f9b9 910d ddb9 276f f0b9
00000120: 6f1f fab9 359a feb9 9ae8 f4b9 cd27 11b8
00000130: 1417 c7b7 fb9b 27b8 e014 36b8 4118 6ab8
00000140: a835 d2b7 1025 08b8 76d2 11b8 8469 4cb8
00000150: a32a 86b8 58a2 a9b7 2cf5 3ab7 6eb7 a0b7
00000160: 2102 4bb8 79cc 72b8 d5bb ddb7 eada ebb7
00000170: e70b 4bb8 118c 98b8 9f43 9cb8 1497 00b8
00000180: 3cd6 2bb8 0176 61b8 7cab 9ab8 fe84 bfb8
00000190: f47f dfb6 6c15 8cb7 c963 9eb7 5c7c 90b7
000001a0: e55d 80b7 edab 5536 b1b5 b9b6 fbfe c7b6
000001b0: 4a20 02b7 8e84 44b7 4dd7 6db6 ae74 97b6
000001c0: 423f 04b7 d8cf b4b6 71fc 07b7 7190 cab5
000001d0: 9caa 99b6 37da 41b6 c85b eeb6 f418 f6b6
000001e0: 335c fcb4 d148 e0b6 bd00 92b6 7d38 bfb5
000001f0: aa80 0236 d527 c5b9 3636 c2b9 1872 b3b9
00000200: a2bc bab9 7a49 b7b9 9986 d0b9 1373 d2b9
00000210: 6c7d ccb9 b22c d8b9 c4be d1b9 7067 d4b9
00000220: e731 d5b9 1217 c9b9 e143 dbb9 f1ce dfb9
00000230: 1421 ddb9 ca6d e6b9 15f8 e7b9 c31f eab9
00000240: ed14 e2b9 bd87 e9b9 5774 f2b9 9098 efb9
00000250: e979 fcb9 d91f fab9 ca9c 25b8 3514 31b8
00000260: b001 70b8 3ff2 7fb8 f8bc 87b8 33ac 23b8
00000270: c877 49b8 9901 82b8 a232 8db8 e507 89b8
00000280: ebe9 5db8 d46a 68b8 be88 84b8 0441 76b8
00000290: 72e7 71b8 ece6 2cb8 7e70 83b8 d084 8cb8
000002a0: 51ab 84b8 1e42 4eb8 116a 3db8 f5c9 68b8
000002b0: ffed 53b8 6afa 23b8 0ac0 01b8 30fa 39b6
000002c0: e035 c2b5 c3ff ccb5 5631 9db6 5eb1 f1b6
000002d0: a430 86b6 40f3 64b6 6f6d d1b6 bff8 15b7
000002e0: 85a5 ecb6 9121 3bb6 6e2c b9b6 c7fe 27b7
000002f0: 6862 23b7 4fce f8b6 c006 8fb4 0273 c7b6
00000300: 5acc 2ab7 1920 1ab7 4631 0bb7 e987 40b7
00000310: 7220 67b7 93af 8eb7 14d5 6cb7 615b 33b7
00000320: 5c04 72b7 95a7 7cb7 6103 87b7 87e4 59b7
00000330: 45be 67b7 f307 47b7 b489 92b7 28ed afb7
00000340: 14bd 85b7 8459 72b7 1252 43b6 0bcb efb6
00000350: 34c0 2db7 7ec1 c0b6 7ddb 27b7 fce4 2bb6
00000360: e4bc 52b6 0dd7 a9b6 cbd2 0936 5a5a 7c35
00000370: 081a 7736 3f8a 2f36 5aa4 3334 14fa 9936
00000380: 32c3 bbb6 4a1e eab2 ff71 5fb4 44bf 02b4
00000390: 50d6 efb3 cd6a ccb3 5f45 bdb2 eaa6 3633
000003a0: bd57 e0b3 b31d e4b2 b9aa cdb2 52e3 13b3
000003b0: 9d4b 9e33 6598 14b3 547c 65b2 6de2 c632
000003c0: 2576 e633 d0a3 ce33 7951 2e33 a943 fc32
000003d0: f007 8d32 e06d e933 678e 3434 66d2 1e34
000003e0: 6098 67b3 c38b 1234 0b6e 5ab7 bcf5 2eb7
000003f0: d6ee 2cb7 c5cb f6b6 33fd 2eb7 cbb1 37b7
-0.00027808946 -0.00024489497 -0.00024148652 -0.00021439164 -0.00019908507 -0.00026913715 -0.0002603884 -0.0002480836
-0.00024044472 -0.00021500234 -0.00031961573 -0.00029558307 -0.000273478 -0.0002483415 -0.00020983907 -0.00029779514
-0.00027063754 -0.00023889347 -0.00022131151 -0.0001876481 -0.0002936941 -0.00026277723 -0.00022778126 -0.00020943666
-0.00018634152 -1.130962e-06 -4.1809653e-06 -3.828327e-06 -3.0190956e-06 -6.7355877e-06 -4.0984633e-06 -4.225844e-06
-1.8271005e-06 -8.227731e-07 -8.942005e-06 -7.581929e-06 -6.291346e-06 -6.6834873e-06 -8.122933e-06 -6.957953e-06
-3.5111425e-06 -5.3618096e-06 -8.041235e-06 -9.100988e-06 -9.1822e-06 -3.1004952e-06 -6.64037e-06 -7.773667e-06
-1.323905e-05 -9.822659e-06 -0.00030600512 -0.00036140444 -0.0004247179 -0.0004423687 -0.00048917165 -0.00034677025
-0.00039977414 -0.00045676905 -0.00048340074 -0.00050757616 -0.00036749832 -0.0004281683 -0.00046220177 -0.00049084687
-0.00051013625 -0.00036694892 -0.00042848653 -0.00045855096 -0.00048313275 -0.00047555464 -0.00042162513 -0.00045859182
-0.00047707136 -0.00048561548 -0.00046712608 -3.460776e-05 -2.3733395e-05 -3.996117e-05 -4.3411623e-05 -5.5812536e-05
-2.5058936e-05 -3.2459444e-05 -3.47667e-05 -4.873566e-05 -6.3975596e-05 -2.0221967e-05 -1.1143547e-05 -1.9158902e-05
-4.8400954e-05 -5.7887726e-05 -2.643272e-05 -2.8116123e-05 -4.8410056e-05 -7.274014e-05 -7.451255e-05 -3.065828e-05
-4.09691e-05 -5.375408e-05 -7.375234e-05 -9.1323614e-05 -6.6608136e-06 -1.6699276e-05 -1.8881534e-05 -1.7224047e-05
-1.5302512e-05 3.1839547e-06 -5.5345813e-06 -5.960346e-06 -7.756122e-06 -1.1713373e-05 -3.5441074e-06 -4.513734e-06
-7.8825415e-06 -5.388614e-06 -8.105403e-06 -1.5092211e-06 -4.579617e-06 -2.8886259e-06 -7.1036375e-06 -7.3342762e-06
-4.7005742e-07 -6.684197e-06 -4.351225e-06 -1.4247049e-06 1.9446402e-06 -0.00037604445 -0.00037042954 -0.00034226547
-0.00035617227 -0.00034959224 -0.00039773135 -0.00040140058 -0.0003900336 -0.0004123203 -0.00040005718 -0.00040512858
-0.00040663706 -0.00038354896 -0.0004182151 -0.00042688058 -0.0004217705 -0.00043950818 -0.0004424459 -0.00044655622
-0.0004312167 -0.00044542356 -0.00046244517 -0.000456993 -0.00048156016 -0.00047707444 -3.9485087e-05 -4.2218908e-05
-5.722203e-05 -6.1022347e-05 -6.4725e-05 -3.90226e-05 -4.803369e-05 -6.199181e-05 -6.732835e-05 -6.5341395e-05
-5.290836e-05 -5.54126e-05 -6.319721e-05 -5.871152e-05 -5.7674428e-05 -4.122306e-05 -6.26752e-05 -6.7004585e-05
-6.326161e-05 -4.9175804e-05 -4.5159893e-05 -5.5501197e-05 -5.052797e-05 -3.9095445e-05 -3.0934847e-05 -2.7712777e-06
-1.4469806e-06 -1.5273621e-06 -4.684708e-06 -7.203008e-06 -3.9991737e-06 -3.4116238e-06 -6.241425e-06 -8.939008e-06
-7.052617e-06 -2.788471e-06 -5.518602e-06 -1.0013296e-05 -9.738469e-06 -7.4149934e-06 -2.6640737e-07 -5.944051e-06
-1.0180369e-05 -9.186589e-06 -8.296518e-06 -1.1475736e-05 -1.3776227e-05 -1.7009477e-05 -1.4116307e-05 -1.0690507e-05
-1.4425339e-05 -1.5059389e-05 -1.6094828e-05 -1.2987416e-05 -1.38129735e-05 -1.1863175e-05 -1.746868e-05 -2.097206e-05
-1.5942882e-05 -1.4445166e-05 -2.9105036e-06 -7.1463924e-06 -1.0356354e-05 -5.7445714e-06 -1.0005079e-05 -2.5614272e-06
-3.1402387e-06 -5.0616277e-06 2.0537288e-06 9.4008794e-07 3.682102e-06 2.6157502e-06 1.6730465e-07 4.5888683e-06
-5.595758e-06 -2.725496e-08 -2.0809965e-07 -1.2176775e-07 -1.1168288e-07 -9.518917e-08 -2.2034042e-08 4.2526985e-08
-1.0446772e-07 -2.6556199e-08 -2.3942777e-08 -3.443285e-08 7.371202e-08 -3.4597537e-08 -1.3357823e-08 2.31532e-08
1.07317e-07 9.62242e-08 4.058663e-08 2.936743e-08 1.641817e-08 1.0869894e-07 1.6815612e-07 1.4791439e-07
-5.3922463e-08 1.3648155e-07 -1.3019434e-05 -1.0428423e-05 -1.0307607e-05 -7.355093e-06 -1.0430161e-05 -1.0949046e-05
