logs/biosr_ccps_rcan_model-SRCNN_250305_lr0.0001_bs1_Ps256_Npatch128_N300/model_094.pth (torch, 695046 bytes, 15 tensors)

conv1.weight f4 [64, 1, 9, 9]
0.08155333 -0.027777843 0.083958216 -0.02159379 0.046882063 -0.039181538 0.13367668 -0.013818461
0.19962971 -0.027430361 -0.09253703 0.049039748 -0.048775915 0.032892097 0.043851703 0.030813083
0.077396266 0.104517326 0.08589658 0.03882196 -0.09610969 -0.018191284 -0.0507805 -0.09393773
-0.06806688 -0.07193748 0.049068063 -0.10256945 -0.034533355 0.023458546 -0.07696795 -0.10012623
0.0022191848 -0.030497288 -0.042169753 0.072545275 -0.07297671 -0.062994935 -0.0047690044 0.04264743
-0.03244192 0.07213014 0.051847782 0.064793155 0.022094648 -0.036293577 -0.09802894 -0.0024840448
-0.09551334 0.024823695 0.025893396 0.022465039 0.053435035 0.12332119 -0.05405878 -0.028615957
-0.009947991 0.031768017 0.07709511 0.060081445 -0.046374265 0.104660064 0.005949187 0.03845157
0.035609648 0.0012373719 -0.051737335 -0.052389693 0.009482224 -0.06633083 -0.02269819 -0.06796302
0.043672875 -0.024092281 0.021293517 0.05545927 -0.04917562 -0.008670081 -0.085438915 -0.005596154
-0.06948306 -0.04727658 -0.0036215142 -0.0292984 0.0066967895 0.07223349 -0.03220272 -0.12296253
0.057132624 -0.016897125 0.019932022 -0.017294709 0.05726705 -0.10163348 0.069878794 0.074373394
0.07271405 0.03513808 0.090725146 0.034256294 0.018996768 -0.021913577 0.0844143 0.07422898
-0.049390115 0.012320328 -0.09395025 -0.024138106 0.02728071 -0.013551683 -0.11959679 0.082660094
0.030315533 -0.0910554 -0.10464941 -0.04642829 -0.093007386 -0.06244929 -0.05953245 -0.10145424
0.04815406 0.117797226 0.0033865888 -0.04088116 0.086260304 -0.1039556 -0.033910517 -0.094345115
0.033318654 -0.08643017 -0.09237962 0.045966163 -0.06616077 -0.09365034 0.0035026434 -0.05083934
0.06869841 0.0074683814 0.007482049 -0.040971518 0.059393167 0.07044384 0.08353621 0.012088814
-0.11799858 0.009517919 -0.07286866 -0.09482425 0.072073415 0.040759616 0.032266147 0.108826056
0.029369831 -0.017937405 -0.029676994 0.047516394 0.016192479 -0.06527107 -0.099247664 0.06598267
0.071718335 0.12036033 0.062958345 0.123383425 -0.05081873 0.06155248 0.036931552 0.027954936
-0.07653971 -0.06567772 0.047011305 0.11004442 0.07247037 -0.030940695 0.119063 0.05716341
0.018134657 0.020815587 0.088527836 0.074905045 0.08273577 -0.05205211 0.093407884 0.098892234
-0.00024806295 0.06003135 -0.07196888 -0.108143754 -0.084000394 0.11899243 0.10799843 0.02175919
0.096807785 0.0839005 -0.04230274 0.022299275 -0.061858114 -0.12728758 0.10883053 -0.040016558
-0.031052437 0.021161688 0.06884453 0.07931236 -0.030954735 0.004221665 -0.0052906475 -0.037558846
-0.012598177 0.0216517 -0.07819796 0.05088289 -0.10898111 0.02402503 -0.11160841 -0.13640268
0.028763508 0.024320636 -0.042426955 0.0641948 0.08948516 0.009581924 -0.10816933 -0.11575805
-0.16008468 0.008696409 0.1049828 0.013040534 -0.09787425 0.06970964 0.027907066 -0.08064649
-0.15164827 0.019809486 0.112163536 0.020441052 -0.03622628 -0.026224904 -0.044985294 -0.11554446
0.0060986006 -0.09493985 -0.12880161 0.10662866 -0.08606438 0.0974413 0.11836925 0.07415385
-0.03425944 -0.045593496 0.0252367 -0.07561893 0.049971964 -0.004998309 0.008250411 0.114453346
00000000: 6f05 a73d 5c8e e3bc 49f2 ab3d 76e5 b0bc
00000010: 6807 403d d27c 20bd 8ae2 083e d466 62bc
00000020: bb6b 4c3e a3b5 e0bc 0e84 bdbd e7dd 483d
00000030: 41c9 47bd ddb9 063d d89d 333d b86b fc3c
00000040: ef81 9e3d 2e0d d63d 8cea af3d c703 1f3d
00000050: 28d5 c4bd e305 95bc 37ff 4fbd 6d62 c0bd
00000060: a666 8bbd f553 93bd 98fb 483d ef0f d2bd
00000070: d972 0dbd 232c c03c 5fa1 9dbd fb0e cdbd
00000080: be6f 113b 73d5 f9bc 31ba 2cbd 9e92 943d
00000090: d074 95bd 7d03 81bd 4f45 9cbb 12af 2e3d
000000a0: d2e1 04bd f8b8 933d 575e 543d 46b2 843d
000000b0: d6ff b43c 93a8 14bd 66c3 c8bd 5bcb 22bb
000000c0: 7f9c c3bd 105b cb3c 631e d43c 9a08 b83c
000000d0: b2de 5a3d d28f fc3d bd6c 5dbd 036c eabc
000000e0: e6fc 22bc 2e1f 023d 0be4 9d3d f617 763d
000000f0: f1f2 3dbd 0458 d63d 66f1 c23b 657f 1d3d
00000100: 6cdb 113d 502f a23a 87ea 53bd 9396 56bd
00000110: 545b 1b3c 75d8 87bd 8ef1 b9bc 3230 8bbd
00000120: 54e2 323d 2d5d c5bc be6f ae3c 4229 633d
00000130: 606c 49bd f50c 0ebc 99fa aebd f15f b7bb
00000140: 224d 8ebd 16a5 41bd ed56 6dbb 3303 f0bc
00000150: be70 db3b 27ef 933d 00e7 03bd c7d3 fbbd
00000160: e603 6a3d d76b 8abc 7b48 a33c a2ad 8dbc
00000170: db90 6a3d 3725 d0bd 9d1c 8f3d 1451 983d
00000180: 1beb 943d f3ec 0f3d 1bce b93d 5450 0c3d
00000190: 1c9f 9b3c 1a84 b3bc 68e1 ac3d 5d05 983d
000001a0: 4a4d 4abd 33db 493c fd68 c0bd 47bd c5bc
000001b0: cc7b df3c e107 5ebc 29ef f4bd b249 a93d
000001c0: 4858 f83c 417b babd 6e52 d6bd 972b 3ebd
000001d0: a87a bebd d4ca 7fbd 4cd8 73bd 3ec7 cfbd
000001e0: 313d 453d ac3f f13d 88f1 5d3b 0173 27bd
000001f0: 3ea9 b03d ace6 d4bd c1e5 0abd 0338 c1bd
00000200: 2479 083d 4d02 b1bd 8731 bdbd 0447 3c3d
00000210: 4c7f 87bd c0cb bfbd 9b8c 653b e93c 50bd
00000220: c1b1 8c3d 53b9 f43b fa2b f53b c0d1 27bd
00000230: 4046 733d dc44 903d 0815 ab3d 2910 463c
00000240: 3da9 f1bd 0cf1 1b3c 2a3c 95bd 3733 c2bd
00000250: 3a9b 933d 8ef3 263d 8229 043d 32e0 de3d
00000260: 0099 f03c 77f1 92bc 2b1d f3bc 8da0 423d
00000270: 17a6 843c d7ac 85bd 5c42 cbbd ec21 873d
00000280: 10e1 923d 7a7f f63d 4ef0 803d 73b0 fc3d
00000290: 4d27 50bd 741e 7c3d 8a45 173d c001 e53c
000002a0: dac0 9cbd 0a82 86bd ed8e 403d f85e e13d
000002b0: 586b 943d 5777 fdbc 4dd7 f33d 2e24 6a3d
000002c0: 228f 943c 7385 aa3c 154e b53d d167 993d
000002d0: 5f71 a93d 9834 55bd a24c bf3d 0388 ca3d
000002e0: 720e 82b9 6fe3 753d 6c64 93bd 797a ddbd
000002f0: 6608 acbd 4eb2 f33d 482e dd3d 5440 b23c
00000300: 2943 c63d 06d4 ab3d a345 2dbd f8ac b63c
00000310: ef5e 7dbd ad57 02be 8ae2 de3d 67e8 23bd
00000320: ae61 febc 475b ad3c 5cfe 8c3d 856e a23d
00000330: c994 fdbc e555 8a3b 2b5d adbb 4ed7 19bd
00000340: 9668 4ebc e85e b13c 4126 a0bd 946a 503d
00000350: 7d31 dfbd 24d0 c43c f392 e4bd 25ad 0bbe
00000360: 73a1 eb3c 123c c73c e3c7 2dbd 9078 833d
00000370: ff43 b73d 81fd 1c3c e287 ddbd 8e12 edbd
00000380: 3ded 23be 627b 0e3c 3901 d73d f7a7 553c
00000390: 4b72 c8bd eec3 8e3d 5c9d e43c fd29 a5bd
000003a0: af49 1bbe 8147 a23c ffb5 e53d fe73 a73c
000003b0: 0262 14bd 9cd5 d6bc 8042 38bd 93a2 ecbd
000003c0: c5d6 c73b d36f c2bd 92e4 03be 2060 da3d
000003d0: 8642 b0bd 4e8f c73d 946b f23d f9dd 973d
000003e0: a053 0cbd 3fc0 3abd 32bd ce3c 19de 9abd
000003f0: 67af 4c3d dbc8 a3bb bb2c 073c 8466 ea3d

conv1.bias f4 [64]
0.02520273 0.05245311 0.018247798 0.004755815 -0.102463044 0.076507464 0.090703025 -0.07427477
-0.036880698 0.02787171 -0.035395015 -0.017615007 -0.101482764 -0.017127423 -0.07924509 -0.06535553
0.09151153 -0.02421149 -0.0033841124 -0.020820053 -0.036001474 -0.10301139 -0.11538778 -0.019709976
-0.0190334 0.01795868 -0.025929218 -0.07833571 -0.074997015 -0.06178196 -0.032255545 -0.019861016
-0.079981364 -0.08059545 0.06740932 -0.0024565167 -0.07242963 0.050006676 -0.026234023 0.15467255
0.04837275 0.061190445 -0.020436058 -0.020907005 0.035097476 -0.12125319 -0.011971453 -0.03580139
0.02276924 -0.030449338 0.10680561 -0.06278512 0.0071385973 -0.0032051094 0.06867172 -0.059044007
0.037285514 -0.08050878 0.009820744 0.011993267 -0.015837347 0.00090818596 0.05491786 -0.083862334
00000000: f575 ce3c 13d9 563d 687c 953c abd6 9b3b
00000010: 25d8 d1bd f2af 9c3d 82c2 b93d 5f1d 98bd
00000020: 3710 17bd 3653 e43c 5dfa 10bd 594d 90bc
00000030: 32d6 cfbd cf4e 8cbc 404b a2bd 1fd9 85bd
00000040: 666a bb3d 2d57 c6bc fcc7 5dbb d18e aabc
00000050: 4876 13bd a3f7 d2bd 6e50 ecbd d176 a1bc
00000060: efeb 9bbc 151e 933c 8369 d4bc 796e a0bd
00000070: 0998 99bd 150f 7dbd 641e 04bd 92b3 a2bc
00000080: 45cd a3bd 3a0f a5bd e60d 8a3d 83fd 20bb
00000090: fc55 94bd cdd3 4c3d bce8 d6bc 7b62 1e3e
000000a0: 8122 463d d5a2 7a3d 8569 a7bc 2b45 abbc
000000b0: 5fc2 0f3d 9853 f8bd ea23 44bc 7aa4 12bd
000000c0: 8f86 ba3c e470 f9bc e6bc da3d 7c95 80bd
000000d0: e5ea e93b d00c 52bb c2a3 8c3d 21d8 71bd
000000e0: b2b8 183d cae1 a4bd 30e7 203c 687f 443c
000000f0: 53bd 81bc 5413 6e3a 8df1 603d 04c0 abbd

conv2.weight f4 [32, 64, 5, 5]
-0.02220264 -0.03820306 0.0143470485 -0.011398366 0.029908774 0.005849904 -0.010538275 0.026057241
-0.007606256 0.01069626 -0.0033199666 -0.0069964183 -0.007396371 -0.01974957 0.00186219 -0.044304106
-0.021202283 -0.0347402 -0.03274275 -6.140444e-05 0.0020681845 0.01754541 0.020554772 0.037890486
0.04992541 -0.12164835 -0.019904338 0.054688323 0.003864445 -0.020615734 -0.003345295 -0.04055181
0.05935516 0.04182818 0.0035579393 -0.06342717 -0.08287488 0.0010642152 -0.015580958 -0.006127057
-0.08719583 -0.07651112 -0.017293843 -0.011854308 -0.0101269735 -0.048025478 -0.014069573 0.0075658914
-0.000922293 -0.026936095 0.016714796 0.008496978 0.022648733 0.029180223 0.014874034 -0.029106112
-0.01341764 -0.016012657 -0.013957569 0.01082173 -0.030710107 -0.00068311417 -0.008524566 0.010318956
0.011943557 -0.043678854 -0.0038233215 -0.032993753 0.034517135 0.0640236 -0.003150156 0.012174015
0.020652624 0.052294493 0.16232647 0.021678444 -0.027137296 -0.0046987454 -0.005873197 0.029893061
0.009741884 0.0038838766 -0.036775537 -0.009054411 0.014882167 -0.010992856 0.008157065 0.0036896495
0.024775969 0.015631022 -0.005338541 -0.0352059 -0.012535723 -0.0076651825 -0.02751442 -0.031720642
-0.04593851 -0.052888967 -0.12312143 -0.17133105 0.0025435626 0.0116074495 0.008393069 -0.016417073
-0.044302084 0.018678043 0.0065458827 -0.004418363 0.007852463 -0.04709938 0.03301842 0.02417656
0.0036900034 -0.0013891637 -0.031952612 -0.0033343767 0.018291244 -0.04791623 -0.032935757 -0.02499307
0.058702726 0.011287127 0.036088265 0.04556162 0.062436726 0.0053861807 0.012243901 0.00079500355
0.018309405 -0.018573223 0.0026382634 0.0082671605 -0.004082083 0.007738922 -0.031443834 -0.02806423
-0.02555656 -0.027409172 -0.033407733 -0.029738462 0.0036714482 -0.007778734 0.0028119194 0.0161473
-0.0005049483 0.0105786985 0.030657457 0.01833212 0.028639877 0.014630645 0.0034945204 0.03465742
0.055032153 -0.023527637 -0.059010148 -0.004839039 -0.0027883402 -0.02240737 -0.06524177 -0.03844988
0.009320663 -0.007733672 -0.009336422 -0.056398477 -0.00022074083 0.053063698 0.019779518 -0.052816316
0.007051355 0.01068223 0.04416009 0.04201525 -0.041407697 0.019175665 0.07762497 -0.019783117
-0.028861262 0.010810589 -0.019799272 -0.03318321 -0.032134037 0.014022692 0.020402318 -0.024898166
0.020399341 0.0010501974 0.03548412 0.012474761 -0.010252374 -0.01437478 0.021292387 -0.003746173
-0.014280843 0.010543881 0.033719685 0.026471505 0.0058539324 0.006270083 0.0482455 0.10075969
0.035759762 -0.05580449 -0.036006764 -0.023258897 -0.04850989 -0.012901921 -0.031208577 -0.043816134
-0.0057400153 0.017938044 -0.09389054 -0.035835728 -0.07599328 -0.050154522 0.09983847 -0.14408031
-0.11058383 -0.08428541 -0.049257055 0.08946607 -0.056069147 -0.06731468 -0.053377453 0.051804718
0.14946401 0.017298857 -0.002635597 -0.0020938346 -0.03297265 -0.02187548 0.047711384 0.0048887418
-0.020427182 -0.059573524 0.038042832 -0.066606924 -0.04557005 -0.06878642 -0.058432635 0.060916055
-0.09908893 -0.07958953 -0.02537755 0.04111556 0.058952264 -0.09011665 -0.038945682 -0.027212495
0.24662189 0.04371268 0.06774844 -0.024635125 -0.054496337 -0.074929774 -0.122474335 0.058435176
00000000: 50e2 b5bc d07a 1cbd e20f 6b3c 36c0 3abc
00000010: 3f03 f53c 8db0 bf3b bba8 2cbc ff75 d53c
00000020: e63d f9bb 5e3f 2f3c cc93 59bb 3642 e5bb
00000030: 425d f2bb dac9 a1bc ba14 f43a 3978 35bd
00000040: 69b0 adbc bd4b 0ebd 431d 06bd 42c6 80b8
00000050: 618a 073b 64bb 8f3c 7b62 a83c 0e33 1b3d
00000060: 967e 4c3d c522 f9bd 6c0e a3bc dd00 603d
00000070: a142 7d3b 54e2 a8bc bd3c 5bbb a819 26bd
00000080: 651e 733d 0754 2b3d 512c 693b 1be6 81bd
00000090: 4eba a9bd 237d 8b3a 4647 7fbc 7bc5 c8bb
000000a0: ba93 b2bd ddb1 9cbd d1ab 8dbc 9238 42bc
000000b0: 9beb 25bc 5db6 44bd 1184 66bc 4ceb f73b
000000c0: 09c6 71ba 16a9 dcbc 78ed 883c e936 0b3c
000000d0: d689 b93c 5d0b ef3c 38b2 733c f16f eebc
000000e0: a9d5 5bbc fa2c 83bc 4aae 64bc a04d 313c
000000f0: c393 fbbc 0413 33ba 9faa 0bbc d710 293c
00000100: e9ae 433c 99e8 32bd b190 7abb 7524 07bd
00000110: d761 0d3d ce1e 833d d972 4ebb 8575 473c
00000120: b12f a93c c032 563d e938 263e fe96 b13c
00000130: 094f debc eff7 99bb f373 c0bb 4be2 f43c
00000140: 6c9c 1f3c a388 7e3b f2a1 16bd f458 14bc
00000150: 55d4 733c 611b 34bc 36a5 053c 0cce 713b
00000160: f9f6 ca3c a10c 803c eeee aebb 1034 10bd
00000170: a262 4dbc 362c fbbb ec65 e1bc 81ed 01bd
00000180: 052a 3cbd 1aa2 58bd 1727 fcbd 6871 2fbe
00000190: e6b1 263b 2c2d 3e3c 1583 093c 197d 86bc
000001a0: 1a76 35bd b202 993c d87e d63b eac7 90bb
000001b0: 9ea7 003c 48eb 40bd 533e 073d ec0d c63c
000001c0: fcd3 713b 9914 b6ba bee0 02bd 8f85 5abb
000001d0: 85d7 953c cf43 44bd a5e7 06bd 44be ccbc
000001e0: 4572 703d a4ed 383c 4ad1 133d d29e 3a3d
000001f0: a7bd 7f3d 8f7e b03b a59a 483c c967 503a
00000200: 9bfd 953c df26 98bc b7e6 2c3b fc72 073c
00000210: fec2 85bb c896 fd3b 40cb 00bd f5e6 e5bc
00000220: fe5b d1bc 3389 e0bc 8cd6 08bd 139e f3bc
00000230: ae9c 703b c0e4 febb 2e48 383b 5847 843c
00000240: 825e 04ba 4752 2d3c 5925 fb3c 3e2d 963c
00000250: 2d9e ea3c 5fb5 6f3c 5304 653b f0f4 0d3d
00000260: 6569 613d 08bd c0bc a0b4 71bd cd90 9ebb
00000270: 96bc 36bb a98f b7bc 7a9d 85bd 9f7d 1dbd
00000280: b2b5 183c be6a fdbb cbf7 18bc 1702 67bd
00000290: aa76 67b9 5259 593d a808 a23c ec55 58bd
000002a0: 0e0f e73b 8504 2f3c 36e1 343d 2f18 2c3d
000002b0: 1e9b 29bd 4916 9d3c d7f9 9e3d 3410 a2bc
000002c0: 746e ecbc e61e 313c 1532 a2bc 1eeb 07bd
000002d0: fb9e 03bd 6fbf 653c c322 a73c 3df7 cbbc
000002e0: 851c a73c c7a6 893a cc57 113d f162 4c3c
000002f0: 93f9 27bc 3284 6bbc 5f6d ae3c 5b82 75bb
00000300: 32fa 69bc 3ec0 2c3c a71d 0a3d c5da d83c
00000310: 58d2 bf3b 4575 cd3b 139d 453d 195b ce3d
00000320: d478 123d 4093 64bd d47b 13bd 7189 bebc
00000330: 4eb2 46bd 9462 53bc 21a9 ffbc 8c78 33bd
00000340: bd16 bcbb cef2 923c af49 c0bd 7cc8 12bd
00000350: 5da2 9bbd d46e 4dbd 1d78 cc3d ca89 13be
00000360: c679 e2bd d49d acbd c4c1 49bd fd39 b73d
00000370: c3a8 65bd 47dc 89bd 51a2 5abd 2f31 543d
00000380: 180d 193e 55b6 8d3c fbb9 2cbb b738 09bb
00000390: 540e 07bd 3534 b3bc 036d 433d bd31 a03b
000003a0: e856 a7bc 5e03 74bd cdd2 1b3d 3669 88bd
000003b0: a9a7 3abd e5df 8cbd 0f57 6fbd 1d83 793d
000003c0: 23ef cabd d6ff a2bd 94e4 cfbc ca68 283d
000003d0: ee77 713d 148f b8bd 8285 1fbd bdec debc
000003e0: 738a 7c3e 110c 333d b2bf 8a3d 9acf c9bc
000003f0: 8d37 5fbd c874 99bd d3d3 fabd b959 6f3d

conv2.bias f4 [32]
0.0056168833 -0.033438306 0.0121996235 -0.022259314 0.015098502 -0.01710556 -0.02250427 0.018458834
-0.012538803 -0.018975059 -0.02478258 0.014180408 -0.011616814 -0.015380375 0.016079418 -0.02890571
-0.02579791 -0.014454657 0.0019257151 -0.058169063 0.050125234 -0.008563507 -0.010781324 0.0041521355
-0.017922103 -0.010069622 -0.019095503 0.02000841 -0.027266877 0.0038516412 0.02029533 -0.026795197
00000000: d50d b83b 9bf6 08bd eee0 473c 2a59 b6bc
00000010: b55f 773c f620 8cbc e05a b8bc fb36 973c
00000020: 8d6f 4dbc 9571 9bbc d604 cbbc f154 683c
00000030: 7354 3ebc f8fd 7bbc fcb8 833c abcb ecbc
00000040: 2356 d3bc 3ad3 6cbc 4768 fc3a af42 6ebd
00000050: 1e50 4d3d f44d 0cbc 26a4 30bc a30e 883b
00000060: 60d1 92bc 0efb 24bc 2c6e 9cbc ade8 a33c
00000070: c95e dfbc d16b 7c3b 6442 a63c 9a81 dbbc

conv3.weight f4 [1, 32, 5, 5]
-0.048646573 -0.016112927 -0.022131167 -0.030495372 0.004234447 0.006122077 -0.028253669 -0.052854627
-0.010949103 0.016881006 0.019607287 -0.045575835 -0.04208443 -0.0011886703 0.009057258 -0.005750051
-0.023788478 -0.028741108 -0.013637323 0.017800974 0.06853757 0.055940602 0.04891573 0.040039852
0.119843334 -0.040857475 -0.02694704 -0.043888368 -0.008654209 -0.0023211658 -0.04087077 -0.05298839
-0.023419464 -0.013630774 -0.031808864 -0.0324508 -0.013747287 -0.040393036 -0.026326805 -0.013896852
-0.040010415 0.011910316 -0.0385277 -0.01260095 -0.022424053 -0.006167958 -0.057311285 -0.017120786
-0.027669301 -0.0006452163 0.036488317 -0.014880689 0.0064675277 0.033109028 0.034385078 -0.008603622
0.017269302 -0.020205252 -0.013950726 -0.026515076 0.013003628 -0.028897876 -0.016221931 -0.014503212
0.0047121886 0.0053372723 -0.0067800456 -0.027245887 -0.004937272 0.017335793 0.012622622 -0.017169451
-0.0055328114 -0.0320433 0.01900252 -0.03174716 -0.021375623 -0.054550584 -0.04981792 -0.025629472
-0.011389509 0.024425948 0.021438606 -0.013141243 0.028471502 -0.0056732567 -0.018175624 0.016401121
-0.0054862103 0.032973487 0.0104359 0.012702195 -0.023419913 -0.00843258 0.039049592 0.047959015
0.025801476 0.0037830307 0.03681814 0.080859594 -0.07594084 -0.03914513 -0.022599071 -0.012210759
-0.067169316 -0.0019893735 -0.004641834 0.039193176 -0.020312529 -0.018108236 -0.025911652 -0.0033188318
0.018237758 -0.0008705342 0.01440957 -0.02197447 0.02065799 -0.008518205 -0.012695973 0.00909329
-0.013058166 0.036413908 0.030517746 0.005054042 0.012353988 -0.107982896 -0.08242481 -0.043486316
-0.057146236 -0.064456195 -0.033604607 -0.03478395 -0.033617157 -0.033083715 -0.03199297 -0.08029474
-0.02016864 -0.057171524 0.0029094592 -0.06752916 -0.05548106 -0.00749494 -0.03405993 -0.036408
-0.014460903 -0.08108175 -0.054215755 -0.044353135 -0.013094886 -0.035135534 0.04195433 -0.0070668356
-0.0059522768 0.03729997 0.029973127 -0.009283423 -0.002359935 -0.01154475 0.0020490827 0.033353165
-0.028466418 0.0073656854 -0.0028226974 -0.0072799674 0.010458618 0.027707163 -0.017774565 -0.00815095
0.004429683 0.01078469 0.015991533 0.029465403 0.014866625 0.024723867 0.0073017734 0.07420224
0.06929275 0.020661004 0.007066895 0.040475532 0.08051852 0.020284731 0.022351643 0.01701505
0.031203663 0.062024046 -0.009918281 0.03624864 -0.011019817 -0.0040683406 0.031168234 0.031567875
0.033019338 0.0034778619 0.011905689 0.02405856 0.022263516 0.018457806 0.004072309 0.041464712
0.04427957 0.041464318 0.047630295 0.035819538 0.073634654 -0.0017187751 0.039147235 0.0022727505
0.02435562 0.056803986 0.017308585 0.023993736 0.042030584 0.004929965 0.01893376 0.021190563
0.011525434 0.027010255 0.020030107 0.006977022 0.02908926 0.013156695 0.030251728 -0.015787886
0.021914274 0.037753858 0.024972513 0.021775672 0.047236882 0.03427322 0.039706748 0.023338016
0.008059375 0.021595232 0.034559343 -0.004195737 -0.0029702557 0.0153369075 0.033859182 0.021559373
0.030373726 0.040047284 0.023214383 0.0034070753 0.041322313 0.046619024 0.051953707 0.03720805
0.035009976 0.06977492 0.027096288 -0.0058723334 0.014336692 -0.0034461173 0.04129757 0.0023998409
00000000: a141 47bd 42ff 83bc 6c4c b5bc 6ed1 f9bc
00000010: 1ec1 8a3b b49b c83b 3d74 e7bc 187e 58bd
00000020: de63 33bc 094a 8a3c 769f a03c baad 3abd
00000030: b960 2cbd 28cd 9bba e564 143c ec6a bcbb
00000040: 0ee0 c2bc 7972 ebbc 146f 5fbc 59d3 913c
00000050: 6d5d 8c3d f921 653d dc5b 483d d400 243d
00000060: 6c70 f53d 2b5a 27bd 0ac0 dcbc 4ac4 33bd
00000070: 62ca 0dbc b31e 18bb 1c68 27bd 5b0a 59bd
00000080: 2dda bfbc 9c53 5fbc 034a 02bd 21eb 04bd
00000090: 4d3c 61bc 2b73 25bd 50ab d7bc 9faf 63bc
000000a0: f6e1 23bd 7c23 433c 39cf 1dbd 3774 4ebc
000000b0: a6b2 b7bc 951c cabb 3dbf 6abd e440 8cbc
000000c0: bbaa e2bc bc23 29ba c674 153d 22ce 73bc
000000d0: 8eed d33b 559d 073d 5ed7 0c3d 35f6 0cbc
000000e0: 5a78 8d3c 7c85 a5bc 9691 64bc 2536 d9bc
000000f0: 2b0d 553c 3dbb ecbc dbe3 84bc e19e 6dbc
00000100: b468 9a3b 49e4 ae3b 252b debb c432 dfbc
00000110: d7c8 a1bb cb03 8e3c 1dcf 4e3c f3a6 8cbc
00000120: 964c b5bb d63f 03bd 2cab 9b3c 4f09 02bd
00000130: ee1b afbc 6f70 5fbd e00d 4cbd e6f4 d1bc
00000140: 109b 3abc ed18 c83c 04a0 af3c 5e4e 57bc
00000150: 113d e93c bae6 b9bb 0ce5 94bc a55b 863c
00000160: abc5 b3bb 350f 073d 56fb 2a3c de1c 503c
00000170: 1edb bfbc ce28 0abc 77f2 1f3d ac70 443d
00000180: 9e5d d33c b9ec 773b 9ece 163d b799 a53d
00000190: df86 9bbd a556 20bd b021 b9bc a30f 48bc
000001a0: 1190 89bd 2660 02bb 871a 98bb 0689 203d
000001b0: 7666 a6bc b957 94bc ac44 d4bc c280 59bb
000001c0: 5a67 953c 9034 64ba 1e16 6c3c ce03 b4bc
000001d0: f23a a93c f18f 0bbc c502 50bc 06fc 143c
000001e0: ebf1 55bc c026 153d 5a00 fa3c 619c a53b
000001f0: 6268 4a3c 2326 ddbd 57ce a8bd b51e 32bd
00000200: 2c12 6abd 9c01 84bd fca4 09bd 9d79 0ebd
00000210: 25b2 09bd ca82 07bd 0f0b 03bd 9271 a4bd
00000220: b438 a5bc b02c 6abd a0ac 3e3b ba4c 8abd
00000230: 1c40 63bd 1d98 f5bb 6d82 0bbd 8e20 15bd
00000240: 6ced 6cbc 300e a6bd 5711 5ebd a2ab 35bd
00000250: ef8b 56bc 47ea 0fbd 4ed8 2b3d ea90 e7bb
00000260: 510b c3bb dac7 183d 348a f53c 8019 18bc
00000270: 24a9 1abb 3126 3dbc e749 063b 549d 083d
00000280: 6832 e9bc d95b f13b 01fd 38bb cb8c eebb
00000290: a05a 2b3c 22fa e23c f79b 91bc 908b 05bc
000002a0: e026 913b 45b2 303c ad00 833c 6e61 f13c
000002b0: 2593 733c b589 ca3c b743 ef3b 58f7 973d
000002c0: 5be9 8d3d 4441 a93c 6991 e73b acc9 253d
000002d0: e5e6 a43d 2a2c a63c cb1a b73c 2563 8b3c
000002e0: d39e ff3c ed0c 7e3d 4980 22bc 7479 143d
000002f0: 768c 34bc b74f 85bb 8654 ff3c 514d 013d
00000300: 493f 073d d7ec 633b 1410 433c 7516 c53c
00000310: fa61 b63c d334 973c 0171 853b e7d6 293d
00000320: 7f5e 353d 7dd6 293d fc17 433d 82b7 123d
00000330: c4cd 963d 8648 e1ba da58 203d 6df2 143b
00000340: 7085 c73c 4cab 683d bcca 8d3c 838e c43c
00000350: 4328 2c3d 8b8b a13b f91a 9b3c d597 ad3c
00000360: 2dd5 3c3c 9c44 dd3c 2e16 a43c 819f e43b
00000370: 9a4c ee3c 2e8f 573c 79d2 f73c 9955 81bc
00000380: 9085 b33c caa3 1a3d 2893 cc3c e562 b23c
00000390: 767b 413d 1362 0c3d 8ba3 223d 5e2f bf3c
000003a0: 780b 043c 7ce8 b03c 198e 0d3d 657c 89bb
000003b0: 9fa8 42bb a747 7b3c edaf 0a3d 489d b03c
000003c0: 52d2 f83c 9f08 243d 172c be3c 3d49 5f3b
000003d0: 9641 293d 97f3 3e3d 69cd 543d 7867 183d
000003e0: 9f66 0f3d 27e6 8e3d 09f9 dd3c b46c c0bb
000003f0: 72e4 6a3c 41d8 61bb a427 293d a646 1d3b

exp_avg f4 [64, 1, 9, 9]
8.5820466e-05 8.3218794e-05 6.840095e-05 2.3485753e-05 -1.429684e-05 -0.00011105849 -0.00016064085 -0.00024935632
-0.00024968924 0.00010801756 9.400748e-05 9.145164e-05 4.4046174e-05 -5.2359737e-06 -0.00010885723 -0.00017707296
-0.00022112332 -0.00025202098 0.000116797986 0.00013262937 7.6326585e-05 5.5716748e-05 -4.3332406e-05 -0.00014542663
-0.00022633343 -0.00023907766 -0.0002492878 3.8225022e-05 8.55246e-05 7.51845e-05 1.9309648e-05 -0.00010467111
-0.00020049168 -0.00026504995 -0.00026727503 -0.00024444464 -1.3135327e-05 2.1995982e-05 1.7009888e-05 -3.426136e-05
-0.00017851291 -0.00030397388 -0.0003500352 -0.0003380187 -0.0003151031 -2.8066062e-05 2.7657723e-06 -1.543495e-05
-0.000107577376 -0.00022115973 -0.00036827166 -0.0004246303 -0.0004209895 -0.0003376368 -4.8086295e-05 6.800125e-06
-1.1878292e-05 -8.0133024e-05 -0.00020431087 -0.00034638637 -0.00040728538 -0.0003957679 -0.00033631938 -3.0798157e-05
2.4587955e-05 9.5354034e-07 -3.950895e-05 -0.00014551045 -0.00024331847 -0.00030109566 -0.00029631963 -0.0002709238
3.315599e-06 4.5250963e-05 6.276622e-05 6.585098e-05 -2.2943213e-05 -7.5057156e-05 -0.00013454024 -0.00015740718
-0.00016770967 -7.1667073e-06 -5.3143944e-05 -7.8892546e-05 -5.5401837e-05 -2.3875216e-05 -3.2132211e-06 6.3604115e-05
0.0001226242 0.00012188121 2.185245e-05 -3.4886703e-05 -4.671672e-05 -5.580127e-05 -5.835623e-05 -3.3737026e-05
5.3599553e-05 8.786934e-05 0.00013144179 3.9312872e-05 1.7777053e-05 -4.473188e-06 -1.5168037e-05 -2.3210037e-05
4.6896416e-06 4.1437925e-05 0.00010026197 0.00011255093 9.8908524e-05 6.647612e-05 5.4136315e-05 6.9770713e-06
1.38749e-05 7.512848e-06 5.0625193e-05 7.781557e-05 7.23215e-05 0.00016066978 0.00014040634 0.00013466757
8.817474e-05 6.662137e-05 6.295221e-05 6.321585e-05 6.0189544e-05 6.7458684e-05 0.00020308488 0.00019640266
0.00020060291 0.00015209583 0.000102390804 6.601695e-05 3.8124446e-05 3.5702364e-05 5.081648e-05 0.0002344562
0.00021284871 0.00022515097 0.00015921134 0.00010542305 5.8263e-05 7.801087e-05 9.515674e-05 8.26928e-05
0.00020628286 0.00021405157 0.00018147941 0.00013485255 0.00013456985 0.00011010962 9.042656e-05 0.00015164279
0.00015174916 0.00019552045 0.00015580434 0.00017982295 0.00013943731 0.00012701839 9.375536e-05 0.00013781663
0.00018932235 0.00019517449 0.003286926 0.0034677538 0.0034866342 0.0032413285 0.0028060162 0.0022963083
0.0018956702 0.0016538136 0.0014214376 0.003460356 0.0036369099 0.0036562586 0.0033365295 0.0028621636
0.002317138 0.0018605808 0.0015365076 0.0013571053 0.0035161362 0.003728766 0.0036860078 0.003304413
0.0027890273 0.0022231974 0.0017849286 0.0014968476 0.0012919331 0.0034609057 0.0036015129 0.0035194312
0.0031671645 0.0025844714 0.0020575097 0.0016380675 0.0014534753 0.0013176687 0.003214565 0.0032987818
0.0032006262 0.0028168787 0.0023114325 0.0018221105 0.0015258089 0.0013875483 0.0013593595 0.0028684477
0.002864654 0.0027029468 0.0023782453 0.0019395432 0.0016360233 0.0014424567 0.0014091997 0.0014022179
0.002454616 0.0024027254 0.0022093772 0.0018856011 0.001601722 0.0014088874 0.0013709363 0.0014137314
0.0014440161 0.002095434 0.0020022378 0.0018097033 0.0015857479 0.0013810602 0.0013189857 0.001344853
0.0014415256 0.0014826307 0.0018278453 0.0017075598 0.0015376711 0.0013789461 0.0013021537 0.001290056
0.0013536512 0.0014485064 0.001503028 -0.00564675 -0.0056953644 -0.0060262983 -0.0061918464 -0.006258454
-0.006133752 -0.00592194 -0.0057394165 -0.0055859643 -0.005716835 -0.0059726653 -0.006319666 -0.006582789
00000000: 83fa b338 c085 ae38 7b72 8f38 4503 c537
00000010: 76dc 6fb7 13e8 e8b8 b371 28b9 0abc 82b9
00000020: b9e8 82b9 7c87 e238 e225 c538 bac9 bf38
00000030: 38be 3838 acb0 afb6 484a e4b8 a9ac 39b9
00000040: 57dd 67b9 af21 84b9 71f1 f438 6d12 0b39
00000050: 8611 a038 67b1 6938 d1bf 35b8 aa7d 18b9
00000060: eb53 6db9 ecb0 7ab9 d8b2 82b9 ce53 2038
00000070: ac5b b338 5fac 9d38 27fb a137 e082 dbb8
00000080: 133b 52b9 67f6 8ab9 0c21 8cb9 ce28 80b9
00000090: cd5f 5cb7 0384 b837 75b0 8e37 dbb3 0fb8
000000a0: 322f 3bb9 af5e 9fb9 ee84 b7b9 1a38 b1b9
000000b0: 6c34 a5b9 696f ebb7 9b9b 3936 4d7a 81b7
000000c0: 2a9b e1b8 1de7 67b9 9614 c1b9 eaa0 deb9
000000d0: 41b8 dcb9 d804 b1b9 44b0 49b8 a12c e436
000000e0: e048 47b7 170d a8b8 483c 56b9 319b b5b9
000000f0: eb88 d5b9 117f cfb9 0654 b0b9 452d 01b8
00000100: 3b42 ce37 cbf6 7f35 69b6 25b8 2a94 18b9
00000110: 4e23 7fb9 60dc 9db9 595b 9bb9 c70a 8eb9
00000120: 8f81 5e36 dacb 3d38 5ca1 8338 7a19 8a38
00000130: 2d76 c0b7 0168 9db8 5f13 0db9 ab0d 25b9
00000140: 39db 2fb9 8c79 f0b6 e0e6 5eb8 1d73 a5b8
00000150: 455f 68b8 a347 c8b7 b8a2 57b6 3363 8538
00000160: af94 0039 7a9a ff38 c74f b737 5053 12b8
00000170: b2f1 43b8 280c 6ab8 86c3 74b8 db80 0db8
00000180: 15d0 6038 7e46 b838 a3d3 0939 e0e3 2438
00000190: ee1f 9537 6418 96b6 397a 7eb7 2db3 c2b7
000001a0: b75b 9d36 a2cd 2d38 bc43 d238 5209 ec38
000001b0: 1c6d cf38 1869 8b38 6d10 6338 961c ea36
000001c0: 3ec8 6837 df16 fc36 6356 5438 eb30 a338
000001d0: 4fab 9738 7779 2839 0a3a 1339 8d35 0d39
000001e0: 74ea b838 13b7 8b38 3605 8438 c092 8438
000001f0: 0874 7c38 9b78 8d38 2ff3 5439 70f1 4d39
00000200: ef58 5239 ea7b 1f39 a5ba d638 9572 8a38
00000210: d0e7 1f38 1fbf 1538 c823 5538 5bd8 7539
00000220: 2430 5f39 8116 6c39 f8f1 2639 9216 dd38
00000230: 6b5f 7438 c499 a338 e38e c738 5c6b ad38
00000240: a24d 5839 0873 6039 824b 3e39 3567 0d39
00000250: 521b 0d39 a7ea e638 64a3 bd38 4d02 1f39
00000260: db1e 1f39 9f04 4d39 695f 2339 db8e 3c39
00000270: eb35 1239 3d30 0539 879e c438 df82 1039
00000280: d584 4639 c1a7 4c39 7869 573b 4143 633b
00000290: 0480 643b 786c 543b 24e5 373b a97d 163b
000002a0: 2378 f83a c7c4 d83a 884f ba3a 24c7 623b
000002b0: 3959 6e3b d79d 6f3b ada9 5a3b 2393 3b3b
000002c0: 20db 173b bbde f33a a464 c93a e6e0 b13a
000002d0: fa6e 663b 505e 743b f390 713b da8e 583b
000002e0: 1dc8 363b 10b3 113b 44f4 e93a df31 c43a
000002f0: 1556 a93a 5dd0 623b 5c07 6c3b 42a6 663b
00000300: 3490 4f3b 3c60 293b 49d7 063b 6db4 d63a
00000310: 8a82 be3a a0b5 ac3a 74ab 523b 6030 583b
00000320: 99c1 513b 629b 383b 677b 173b e2d3 ee3a
00000330: a7fd c73a 65de b53a 892c b23a 91fc 3b3b
00000340: ebbc 3b3b ec23 313b 56dc 1b3b 4538 fe3a
00000350: d56f d63a d110 bd3a e5b4 b83a a0ca b73a
00000360: 9fdd 203b 0b77 1d3b 33cb 103b 4626 f73a
00000370: dff0 d13a 6baa b83a fdb0 b33a f44c b93a
00000380: 2445 bd3a 8d53 093b fa37 033b 9133 ed3a
00000390: dfd8 cf3a b104 b53a d1e1 ac3a c745 b03a
000003a0: 93f1 bc3a d554 c23a 5094 ef3a 33d0 df3a
000003b0: ae8b c93a c1bd b43a 07ad aa3a 1917 a93a
000003c0: ff6c b13a cfdb bd3a 4001 c53a 5f08 b9bb
000003d0: 2ea0 babb 4178 c5bb f9e4 cabb b813 cdbb
000003e0: a4fd c8bb d50c c2bb b711 bcbb 770a b7bb
000003f0: 4a54 bbbb 59b6 c3bb 3315 cfbb 70b4 d7bb

exp_avg_sq f4 [64, 1, 9, 9]
1.0504043e-05 1.0042407e-05 9.656943e-06 8.819871e-06 8.612679e-06 8.463748e-06 8.604617e-06 9.129545e-06
9.772366e-06 1.1065793e-05 1.0731245e-05 1.042574e-05 9.489788e-06 8.900299e-06 8.672023e-06 8.561572e-06
8.662829e-06 9.282103e-06 1.2098441e-05 1.2008921e-05 1.1519112e-05 1.0872199e-05 9.8964165e-06 9.084619e-06
8.640519e-06 8.535912e-06 8.924739e-06 1.3104469e-05 1.3941125e-05 1.3586653e-05 1.2287449e-05 1.1140799e-05
9.867334e-06 9.115668e-06 8.605321e-06 8.868611e-06 1.471328e-05 1.5433176e-05 1.5806447e-05 1.445149e-05
1.2388896e-05 1.0687884e-05 9.304834e-06 8.714025e-06 8.738403e-06 1.5935308e-05 1.685682e-05 1.7384595e-05
1.5557014e-05 1.3874148e-05 1.1624102e-05 1.00132365e-05 9.0877675e-06 8.9707455e-06 1.6326774e-05 1.778545e-05
1.7795624e-05 1.6471164e-05 1.4685013e-05 1.2146241e-05 1.0607202e-05 9.772636e-06 9.510805e-06 1.5816917e-05
1.6852868e-05 1.6926993e-05 1.598741e-05 1.4143909e-05 1.2598362e-05 1.0932535e-05 1.0419257e-05 1.0060085e-05
1.48696545e-05 1.5071968e-05 1.5394518e-05 1.4918767e-05 1.4154487e-05 1.2759419e-05 1.1680727e-05 1.1269672e-05
1.0749687e-05 7.977714e-06 8.363694e-06 8.644056e-06 9.135825e-06 9.450276e-06 8.695271e-06 8.081154e-06
8.4934045e-06 8.109566e-06 8.229919e-06 8.522649e-06 9.529397e-06 9.409878e-06 1.0291652e-05 9.802677e-06
9.126644e-06 8.581401e-06 8.577231e-06 8.322265e-06 8.792698e-06 9.514253e-06 1.1073785e-05 1.1137593e-05
9.698365e-06 9.157956e-06 8.243548e-06 8.224023e-06 8.1956305e-06 8.528346e-06 8.994691e-06 1.1067215e-05
1.1081795e-05 9.733589e-06 8.87504e-06 8.536758e-06 8.070495e-06 7.798111e-06 8.165539e-06 8.668546e-06
1.0304479e-05 1.1248414e-05 1.0102872e-05 9.190028e-06 9.191948e-06 8.138328e-06 7.785569e-06 7.811494e-06
8.752188e-06 8.847565e-06 9.197974e-06 9.845579e-06 8.955803e-06 8.517675e-06 8.587692e-06 7.648287e-06
8.171213e-06 8.21093e-06 8.598275e-06 8.740388e-06 9.289393e-06 9.246819e-06 9.130172e-06 8.7635535e-06
7.3750102e-06 7.8735275e-06 7.746969e-06 7.869078e-06 8.694534e-06 8.74359e-06 8.82797e-06 9.1909005e-06
8.948437e-06 7.699335e-06 7.706421e-06 8.035208e-06 8.055951e-06 7.966355e-06 8.054266e-06 8.767927e-06
9.012036e-06 9.248053e-06 0.0001681296 0.00017216822 0.00017422921 0.00016889186 0.00016014952 0.00015296509
0.00014802825 0.00014558922 0.00014501606 0.00017539291 0.00018206777 0.00018345333 0.00017425754 0.00016268244
0.00015323647 0.00015033336 0.00014985974 0.00014949194 0.00018128706 0.00018918452 0.00018642879 0.00017509087
0.0001614016 0.00015225136 0.00015274769 0.00015510211 0.00015528536 0.00018122658 0.00018629002 0.00018209734
0.00016766571 0.00015473693 0.00015198362 0.0001586984 0.00016442304 0.00016353875 0.00017551894 0.0001775846
0.00016907952 0.00015523456 0.00014791191 0.00015331792 0.0001662809 0.00017516357 0.0001727309 0.00016464347
0.0001623861 0.0001529268 0.00014358127 0.00014448381 0.00015507582 0.0001735361 0.0001786973 0.00017591345
0.00015148173 0.00014740611 0.00014065694 0.00013798557 0.00014452211 0.00016076768 0.00017300274 0.00018059887
0.00017573836 0.00014172046 0.00013813096 0.00013471214 0.00013535409 0.00014587313 0.00016025652 0.00017134818
0.00017444731 0.00017288385 0.00013688146 0.00013515935 0.00013365728 0.00013636489 0.00014392858 0.0001532162
0.00016463571 0.00016668302 0.00016229841 0.00016238958 0.00015217756 0.00016561867 0.00016945307 0.00016650266
0.00015742851 0.00015381114 0.00015499591 0.00014783612 0.00015957706 0.00015890482 0.00016380042 0.00017447969
00000000: 853a 3037 cf7b 2837 4104 2237 0ff9 1337
00000010: 2d7f 1037 85ff 0d37 8c5c 1037 192b 1937
00000020: fef3 2337 38a7 3937 590a 3437 36ea 2e37
00000030: 5436 1f37 7e52 1537 0e7e 1137 aca3 0f37
00000040: 9156 1137 54ba 1b37 69fa 4a37 ec79 4937
00000050: 3642 4137 bd67 3637 c908 2637 246a 1837
00000060: bff6 1037 7635 0f37 76bb 1537 44db 5b37
00000070: ade4 6937 3bf2 6337 3126 4e37 5ee9 3a37
00000080: e08b 2537 7fef 1837 935f 1037 65ca 1437
00000090: 0ed9 7637 7e76 8137 1698 8437 ad74 7237
000000a0: e7d9 4f37 1d50 3337 f51b 1c37 7432 1237
000000b0: 289b 1237 d0ac 8537 bf67 8d37 22d5 9137
000000c0: 6f80 8237 03c5 6837 2305 4337 86fe 2737
000000d0: aa77 1837 0f81 1637 7bf5 8837 f731 9537
000000e0: d047 9537 8e2b 8a37 a75f 7637 b5c7 4b37
000000f0: 96f5 3137 27f5 2337 9990 1f37 92ae 8437
00000100: 425f 8d37 71fe 8d37 b41c 8637 a04b 6d37
00000110: 8e5d 5337 e16a 3737 5ece 2e37 bcc7 2837
00000120: ae78 7937 9cdd 7c37 7a23 8137 9e4b 7a37
00000130: 0f79 6d37 4a11 5637 57f8 4337 df12 3d37
00000140: 8e59 3437 05d8 0537 cb51 0c37 f005 1137
00000150: 1246 1937 a08c 1e37 e8e1 1137 4b94 0737
00000160: e57e 0e37 520e 0837 3c13 0a37 80fc 0e37
00000170: 73e0 1f37 1edf 1d37 4faa 2c37 2d76 2437
00000180: a31e 1937 d6f8 0f37 ede6 0f37 db9f 0b37
00000190: 5a84 1337 689f 1f37 8bc9 3937 99db 3a37
000001a0: 29b6 2237 1fa5 1937 c54d 0a37 e9f9 0937
000001b0: f77f 0937 f814 0f37 e7e7 1637 54ad 3937
000001c0: f2eb 3937 724d 2337 02e6 1437 1939 0f37
000001d0: 8366 0737 a2d4 0237 b9fe 0837 1f6f 1137
000001e0: 66e1 2c37 92b7 3c37 817f 2937 df2e 1a37
000001f0: 1e37 1a37 da89 0837 c49e 0237 1c0e 0337
00000200: 5cd6 1237 0170 1437 ff50 1a37 712e 2537
00000210: e240 1637 23e7 0e37 db13 1037 2451 0037
00000220: 1817 0937 adc1 0937 4f41 1037 aea3 1237
00000230: a4d9 1b37 c922 1b37 ca2d 1937 2d07 1337
00000240: db76 f736 8b18 0437 faf8 0137 6f05 0437
00000250: bdde 1137 6fb1 1237 d81b 1437 9e32 1a37
00000260: 3f21 1637 642c 0137 d34a 0137 f5ce 0637
00000270: 0c28 0737 3ca7 0537 cf20 0737 f619 1337
00000280: 6632 1737 1628 1b37 f24b 3039 0e88 3439
00000290: 4cb1 3639 9018 3139 cfed 2739 4165 2039
000002a0: 0838 1b39 4fa9 1839 740f 1839 ade9 3739
000002b0: 72e9 3e39 615d 4039 e7b8 3639 bc95 2a39
000002c0: 1aae 2039 cea2 1d39 ab23 1d39 f0c0 1c39
000002d0: e017 3e39 d55f 4639 197c 4339 9998 3739
000002e0: e93d 2939 aaa5 1f39 e52a 2039 e8a2 2239
000002f0: 19d4 2239 a407 3e39 d956 4339 62f1 3e39
00000300: 6ccf 2f39 e140 2239 cb5d 1f39 4768 2639
00000310: f968 2c39 997b 2b39 820b 3839 0136 3a39
00000320: f04a 3139 76c6 2239 cd18 1b39 f7c3 2039
00000330: b05b 2e39 1dac 3739 191f 3539 25a4 2c39
00000340: 3046 2a39 fa5a 2039 4e8e 1639 9480 1739
00000350: d99b 2239 3ef7 3539 b160 3b39 6875 3839
00000360: 11d7 1e39 0791 1a39 4f7d 1339 38b0 1039
00000370: dc8a 1739 bf93 2839 1268 3539 245f 3d39
00000380: 6846 3839 cc9a 1439 3fd7 1039 8441 0d39
00000390: d6ed 0d39 85f5 1839 880a 2839 edab 3339
000003a0: d8eb 3639 2848 3539 d687 0f39 90b9 0d39
000003b0: 5a26 0c39 2cfd 0e39 89eb 1639 a9a8 2039
000003c0: 10a2 2c39 a2c7 2e39 a62e 2a39 1f47 2a39
000003d0: da91 1f39 eca9 2d39 36af 3139 3897 2e39
000003e0: 6513 2539 5d48 2139 6686 2239 7504 1b39
000003f0: 2454 2739 b09f 2639 d7c1 2b39 89f4 3639

exp_avg f4 [64]
-0.0010039189 0.0006390044 0.0060778544 -0.021818038 0.026271325 0.0059690736 -0.009620031 0.017097613
-0.008754676 -0.00036037297 0.0042092437 0.003040945 0.003606239 0.0023089235 0.0029077928 0.031013763
-0.00207572 0.041449998 0.0017830633 0.020609139 -6e-45 0.014094954 -0.005695042 -0.0027215302
0.0066523226 0.004520521 -0.0038526156 -0.011694228 0.014147977 0.037672833 0.0038815802 0.0007308961
0.004426829 -8.864644e-05 0.0007326776 0.011567651 0.038499814 -0.0065361606 0.007988866 -0.002280334
0.016081557 0.0017596926 -0.0025775381 -0.009136074 0.0052506425 0.03171124 0.025506523 -0.005815028
0.009021799 -0.0018811981 -0.0024681462 0.041855678 -0.005384145 -0.0026561911 0.000679799 0.0064893705
-0.0006116804 0.0055482094 0.010591101 -7.618077e-05 0.007505545 0.001085806 -0.011368498 0.018741857
00000000: ee95 83ba dc82 273a bd28 c73b bebb b2bc
00000010: f636 d73c 3898 c33b 569d 1dbc 4b10 8c3c
00000020: c66f 0fbc 71f0 bcb9 b2ed 893b 974a 473b
00000030: a756 6c3b 4f51 173b ab90 3e3b 9310 fe3c
00000040: ce08 08bb 79c7 293d adb5 e93a 7fd4 a83c
00000050: 0400 0080 86ee 663c 7a9d babb b35b 32bb
00000060: bafb d93b e120 943b 2a7c 7cbb 2699 3fbc
00000070: ebcc 673c d44e 1a3d 1c62 7e3b 9b99 3f3a
00000080: ef0e 913b b2e7 b9b8 2911 403a 3f86 3d3c
00000090: fbb1 1d3d 4a2d d6bb bce3 023c a871 15bb
000000a0: 78bd 833c 7ca5 e63a eaeb 28bb 79af 15bc
000000b0: 950d ac3b a5e3 013d 0ef3 d03c fe8b bebb
000000c0: 2bd0 133c 8992 f6ba 9fc0 21bb dc70 2b3d
000000d0: 7b6d b0bb 7e13 2ebb 8a34 323a c9a4 d43b
000000e0: 2d59 20ba c1cd b53b 4c86 2d3c 3dc3 9fb8
000000f0: 13f1 f53b 9b51 8e3a f042 3abc 8688 993c

exp_avg_sq f4 [64]
0.00010335564 0.00016414149 0.0012942513 0.0019847555 0.008467606 0.0016374179 0.001231919 0.002098789
0.0013727715 2.7439498e-06 0.00052433164 0.0008734136 9.595118e-05 0.0028836306 0.0003591766 0.015027735
0.0027594012 0.02375578 0.00045648837 0.013690824 1.3169793e-22 0.0040458334 0.0012298684 0.000496886
0.002948951 0.0003617413 0.0008013522 0.0012249633 0.00300367 0.016196854 0.00090398086 0.0008592033
0.0046787164 0.00044972962 0.00026276818 0.00237986 0.014465008 0.0002006201 0.00066316506 0.0003324965
0.0020257346 0.0024646993 8.187539e-05 0.001734384 0.000110355555 0.0077319276 0.009631874 0.00041482513
0.00083091116 3.125982e-05 0.01460161 0.02126006 0.0001723174 0.00052084716 0.00018297875 0.0006725474
0.00034320285 0.00035624037 0.0008169522 4.473295e-05 0.0016811438 2.5411598e-05 0.00085042743 0.003980727
00000000: a3c0 d838 651d 2c39 dea3 a93a ac12 023b
00000010: b7bb 0a3c a19e d63a 5878 a13a d68b 093b
00000020: 91ee b33a b324 3836 4d73 093a cbf5 643a
00000030: 6639 c938 4bfb 3c3b de4f bc39 e436 763c
00000040: 12d7 343b 7b9b c23c d554 ef39 7a4f 603c
00000050: 8936 1f1b e992 843b 8933 a13a 7441 023a
00000060: 3043 413b 18a8 bd39 d611 523a f38e a03a
00000070: 38d9 443b 44af 843c 21f9 6c3a 283c 613a
00000080: eb4f 993b b0c9 eb39 26c4 8939 6df7 1b3b
00000090: a4fe 6c3c 8c5d 5239 41d8 2d3a ed52 ae39
000000a0: 30c2 043b cb86 213b 84b4 ab38 4554 e33a
000000b0: b06e e738 1c5c fd3b 02cf 1d3c e37c d939
000000c0: 81d1 593a fa1c 0338 973b 6f3c 9429 ae3c
000000d0: 1ab0 3439 7689 083a fcdd 3f39 e44d 303a
000000e0: e8ef b339 c6c5 ba39 bc28 563a a49f 3b38
000000f0: d359 dc3a fe2a d537 38ef 5e3a c270 823b

exp_avg f4 [32, 64, 5, 5]
3.571945e-05 3.7676555e-06 -3.553287e-05 -5.6093115e-05 -5.5146233e-05 2.7386483e-05 -1.1029212e-05 -1.9082081e-05
-3.44245e-05 -2.453279e-05 1.6941785e-05 -1.6599985e-05 -2.151482e-05 -1.7001688e-05 -1.2976676e-05 -4.0107916e-06
-5.6494855e-06 -5.30277e-06 2.274536e-06 1.6559525e-05 -1.8245947e-06 -4.7461654e-06 4.35574e-07 1.9937212e-05
2.5880321e-05 -2.0471276e-05 -2.2222199e-05 -1.7225924e-05 -1.3889697e-05 -1.5024998e-05 -2.7437514e-05 -2.1099107e-05
-2.2109036e-05 -1.5969792e-05 -1.8620276e-05 -2.6125897e-05 -2.5234262e-05 -2.2015904e-05 -2.2659018e-05 -2.6321752e-05
-2.200943e-05 -2.63343e-05 -2.6811418e-05 -2.7904867e-05 -2.7632941e-05 -2.360101e-05 -2.7633941e-05 -3.2061307e-05
-2.811623e-05 -3.1329204e-05 9.6272175e-05 0.0001446658 0.00018264569 0.000185914 0.00016879202 0.000107580476
0.0001516769 0.00017735339 0.00015544 0.00012680869 9.575736e-05 0.00014688588 0.00013608286 0.00011207277
9.696142e-05 9.451849e-05 0.00010355601 0.00011608111 8.539348e-05 4.7356436e-05 4.7581194e-05 7.352029e-05
4.6504316e-05 1.19139e-05 -3.296688e-05 1.498622e-05 3.566833e-05 5.303367e-05 7.5922086e-05 7.859428e-05
1.50550295e-05 3.656693e-05 5.5132685e-05 6.8470305e-05 6.614221e-05 1.4680113e-05 2.9912291e-05 4.9275517e-05
5.028125e-05 4.6813922e-05 6.9110297e-06 2.5102874e-05 2.5875723e-05 3.0247986e-05 1.2448542e-05 5.2983603e-07
8.444375e-06 7.623036e-06 -7.6539294e-07 -1.4435694e-05 5.6172896e-05 5.328208e-05 4.329618e-05 3.4738096e-05
2.7883256e-05 6.345172e-05 6.144742e-05 4.5841825e-05 3.706332e-05 2.5527519e-05 5.519929e-05 4.704881e-05
3.7860642e-05 2.3435015e-05 2.1681944e-05 3.6614863e-05 3.5578163e-05 2.5757256e-05 1.8415649e-05 1.8703799e-05
2.9231864e-05 2.317825e-05 2.2030381e-05 1.541701e-05 1.1853875e-05 2.7593045e-05 3.3479417e-05 5.845797e-05
6.669717e-05 7.9091515e-05 4.851238e-05 7.4232696e-05 7.865897e-05 8.268262e-05 7.53001e-05 4.8089612e-05
6.4219574e-05 7.2248346e-05 7.357916e-05 6.530989e-05 1.2361273e-05 2.8643137e-05 3.760594e-05 4.546304e-05
2.4823881e-05 -3.9531376e-05 -2.875384e-05 -2.5907812e-05 -2.5221683e-05 -4.0500498e-05 -8.773745e-05 -8.4451196e-05
-8.7806045e-05 -9.7930715e-05 -0.00010436028 -9.101103e-05 -9.01351e-05 -9.222494e-05 -0.000103031874 -0.00010261236
-9.78407e-05 -9.9078934e-05 -0.000105953164 -0.00010748057 -0.0001104749 -0.00010469143 -0.00010823614 -0.000109443645
-0.000119137636 -0.00011530856 -0.00010688426 -0.00011349345 -0.00011539215 -0.00012753325 -0.0001209053 5.1693703e-05
5.7148805e-05 5.780346e-05 5.76984e-05 4.959261e-05 4.7240243e-05 5.041396e-05 4.8064656e-05 4.091755e-05
3.9265055e-05 3.8688126e-05 3.5402834e-05 3.3952943e-05 2.7853292e-05 3.0411757e-05 2.6088725e-05 2.2240252e-05
2.0275966e-05 1.749113e-05 1.769355e-05 1.142548e-05 1.0510258e-05 5.69908e-06 6.88344e-06 8.442126e-06
8.573064e-06 1.4395442e-05 1.7411629e-05 2.03037e-05 2.940006e-05 4.0123973e-06 9.6576105e-06 9.260027e-06
1.3211643e-05 2.1656191e-05 5.8577535e-07 3.4138038e-06 3.2776393e-06 7.0537358e-06 1.1808395e-05 -2.817812e-06
1.0576063e-06 2.832474e-07 6.24235e-07 3.3301726e-06 -4.261927e-06 8.806735e-07 2.9358423e-06 8.277214e-08
-4.598506e-06 -1.2422448e-06 -1.2433719e-06 -1.0752872e-06 -1.1301644e-06 -4.7089026e-07 -8.432399e-07 -1.3761321e-06
-9.5323855e-07 -5.2861844e-07 -1.2717716e-07 -9.874413e-08 -5.4621216e-07 -4.4234443e-07 9.02053e-09 8.413822e-08
1.5797785e-07 -3.932826e-08 -2.258709e-07 -8.2232276e-08 8.589927e-08 2.7897318e-07 -6.809749e-08 -2.4574925e-07
-3.206164e-07 -2.5480322e-08 6.1695737e-06 1.2737028e-05 1.8330818e-05 2.493296e-05 3.284106e-05 -1.7513597e-06
00000000: 78d1 1538 d4d7 7c36 2109 15b8 8645 6bb8
00000010: d14c 67b8 06bc e537 1b0a 39b7 7512 a0b7
00000020: 0763 10b8 c4cb cdb7 351e 8e37 3240 8bb7
00000030: b97a b4b7 d99e 8eb7 66b6 59b7 7094 86b6
00000040: b690 bdb6 73ee b1b6 3ba4 1836 4fe9 8a37
00000050: 99e4 f4b5 4041 9fb6 d6d8 e934 d63e a737
00000060: 9119 d937 bbb9 abb7 cf69 bab7 6480 90b7
00000070: cb07 69b7 e013 7cb7 9d29 e6b7 fdfd b0b7
00000080: cb76 b9b7 def6 85b7 bd32 9cb7 f028 dbb7
00000090: 2aae d3b7 cbae b8b7 df13 beb7 88cd dcb7
000000a0: e4a0 b8b7 7be8 dcb7 15e9 e0b7 3f15 eab7
000000b0: 4acd e7b7 c8fa c5b7 70cf e7b7 9179 06b8
000000c0: 25db ebb7 7a67 03b8 bbe5 c938 6eb1 1739
000000d0: 9484 3f39 e9f1 4239 c3fd 3039 d49c e138
000000e0: 750b 1f39 f0f7 3939 9bfd 2239 f3f7 0439
000000f0: 57d1 c838 6105 1a39 77b1 0e39 9c08 eb38
00000100: c457 cb38 3a38 c638 362c d938 9270 f338
00000110: 4715 b338 96a0 4638 eb91 4738 e82e 9a38
00000120: a10d 4338 d0e1 4737 eb45 0ab8 536d 7b37
00000130: 949a 1538 7870 5e38 5c38 9f38 fcd2 a438
00000140: dc94 7c37 715f 1938 453e 6738 b797 8f38
00000150: d4b5 8a38 9b4a 7637 28ec fa37 2fad 4e38
00000160: 15e5 5238 115a 4438 4be5 e736 0394 d237
00000170: b10f d937 0ebd fd37 15da 5037 0e3a 0e35
00000180: 51ac 0d37 61c9 ff36 6775 4db5 d530 72b7
00000190: 309b 6b38 337b 5f38 eb98 3538 bfb3 1138
000001a0: d6e6 e937 6211 8538 55dd 8038 4946 4038
000001b0: 7074 1b38 ee23 d637 c985 6738 4656 4538
000001c0: 8ecc 1e38 5096 c437 9fe1 b537 e992 1938
000001d0: c339 1538 4911 d837 4e7b 9a37 1ae6 9c37
000001e0: f336 f537 ea6e c237 e2cd b837 c753 8137
000001f0: 01e0 4637 9d77 e737 406c 0c38 c430 7538
00000200: c5df 8b38 efdd a538 c579 4b38 60ad 9b38
00000210: b7f5 a438 e565 ad38 6fea 9d38 d4b3 4938
00000220: 9fad 8638 0984 9738 834e 9a38 fbf6 8838
00000230: 4363 4f37 ab46 f037 12bb 1d38 91af 3e38
00000240: e13c d037 7ece 25b8 6734 f1b7 9a54 d9b7
00000250: 2793 d3b7 14df 29b8 afff b7b8 641b b1b8
00000260: 8324 b8b8 2760 cdb8 00dc dab8 2ddd beb8
00000270: ea06 bdb8 e368 c1b8 d112 d8b8 9731 d7b8
00000280: d32f cdb8 99c8 cfb8 2c33 deb8 3167 e1b8
00000290: c3ae e7b8 c98d dbb8 d6fc e2b8 1c85 e5b8
000002a0: 88d9 f9b8 d0d1 f1b8 0d27 e0b8 5503 eeb8
000002b0: b0fe f1b8 72ba 05b9 8a8e fdb8 b1d1 5838
000002c0: 10b3 6f38 fe71 7238 2f01 7238 a901 5038
000002d0: d323 4638 9473 5338 0899 4938 e39e 2b38
000002e0: 88b0 2438 0f45 2238 817d 1438 b268 0e38
000002f0: 7da6 e937 c01c ff37 1cd9 da37 9490 ba37
00000300: 4e16 aa37 eab9 9237 9c6c 9437 10b0 3f37
00000310: 3755 3037 b93a bf36 4df8 e636 a8a2 0d37
00000320: 08d5 0f37 f483 7137 300f 9237 dd51 aa37
00000330: 26a0 f637 3ba2 8636 1f07 2237 835b 1b37
00000340: 93a7 5d37 51aa b537 2d3e 1d35 b418 6536
00000350: 6af5 5b36 21af ec36 ac1c 4637 a419 3db6
00000360: 13f3 8d35 3a11 9834 1a91 2735 ee7b 5f36
00000370: ad01 8fb6 6c67 6c35 6305 4536 77c0 b133
00000380: de4c 9ab6 35bb a6b5 efe1 a6b5 9652 90b5
00000390: 27b0 97b5 aace fcb4 015b 62b5 8ab3 b8b5
000003a0: 0ee2 7fb5 62e6 0db5 318e 08b4 290d d4b3
000003b0: 6a9f 12b5 5b7b edb4 b6f8 1a32 7aaf b433
000003c0: 9fa0 2934 e1e9 28b3 ec86 72b4 ac97 b0b3
000003d0: a077 b833 c8c5 9534 fe3c 92b3 85ef 83b4
000003e0: 2f21 acb4 d2df dab2 3c04 cf36 1eb1 5537
000003f0: 22c5 9937 2027 d137 d2be 0938 4310 ebb5
