logs/biosr_ccps_rcan_model-SRCNN_250305_lr0.0001_bs1_Ps256_Npatch128_N300/model_004.pth (torch, 695046 bytes, 15 tensors)

conv1.weight f4 [64, 1, 9, 9]
000000 5e 94 b1 3d 4a 7a 0b bd f1 84 aa 3d f7 d2 d2 bc
       0.08670877 -0.03405217 0.08326138 -0.025735362
000010 d1 64 43 3d 1e 68 60 bd c8 43 fb 3d a4 69 42 bd
       0.047703568 -0.054786794 0.122687876 -0.047464028
000020 ae c7 10 3e e5 ef dc bc 87 85 d4 bd f2 57 60 3d
       0.14138672 -0.02696986 -0.10377031 0.05477137
000030 a7 4f 39 bd 39 62 4f 3d 7d 15 6c 3d 20 09 31 3d
       -0.045241978 0.05063078 0.05763768 0.043221593
000040 01 17 b0 3d 77 1a a9 3d 85 06 bf 3d 9d f7 2b 3d
       0.08598138 0.08257001 0.093274154 0.04198419
000050 64 eb be bd d5 85 1b bc 2a f4 19 bd 7b 0f bb bd
       -0.09322241 -0.009492357 -0.03758637 -0.09133812
000060 23 14 78 bd 27 89 7e bd fa 12 42 3d d0 bd de bd
       -0.06056608 -0.062142517 0.04738138 -0.108760476
000070 56 6b 27 bd f3 54 c5 3c ab 7b 85 bd 8f a4 b7 bd
       -0.040873848 0.024088359 -0.065177284 -0.08966934
000080 6c b3 f5 3b 30 34 d9 bc bf 18 30 bd 39 25 87 3d
       0.0074981954 -0.026514143 -0.04299235 0.065988965
000090 57 0c a3 bd 8d d5 8c bd 5a a9 51 bc d8 90 07 3d
       -0.07961338 -0.06876669 -0.012796724 0.03309712
0000a0 3f b8 fd bc 6a 30 a2 3d 9c 0e 83 3d 66 ec 9a 3d
       -0.030971644 0.079193905 0.06399271 0.07564621
0000b0 f4 ac 7e 3c f9 b2 24 bd ff af cd bd 04 5d 8d bc
       0.015544165 -0.040209744 -0.10043334 -0.017256267
0000c0 a7 ff c9 bd f2 e4 48 3c e5 e0 db 3c 28 26 04 3d
       -0.09863215 0.012261616 0.026840637 0.03226295
0000d0 17 ac 89 3d bb 00 fa 3d dd 6b 5b bd a7 ee 24 bd
       0.06722277 0.122071706 -0.053569663 -0.04026666
0000e0 f8 63 ba bc b9 33 c1 3c c4 80 95 3d 2c 95 6a 3d
       -0.022752747 0.023584234 0.07299951 0.057271168
0000f0 92 d3 52 bd 34 f6 e8 3d 01 5c 18 bb ba f7 30 3d
       -0.0514713 0.113750845 -0.0023248198 0.043205
000100 64 be dc 3c 6a 7c 05 bc 58 e7 68 bd 44 4a 6a bd
       0.026946254 -0.008147338 -0.05686125 -0.05719973
000110 b3 24 0d 3c 50 22 a0 bd c1 70 d4 bc 68 9d ad bd
       0.008614707 -0.078190446 -0.025932672 -0.084772885
000120 9a a8 5f 3d b0 ac eb bc 3d 91 79 3c ba b5 5e 3d
       0.05460415 -0.028768867 0.015232381 0.054372527
000130 ca b7 5f bd 20 a9 62 bc 52 d4 c3 bd bf ca c9 bb
       -0.054618634 -0.013834268 -0.09561981 -0.0061582024
000140 66 cc a3 bd 50 2e 60 bd 58 f4 fd b9 8e bb f2 bc
       -0.0799797 -0.054731667 -0.0004843797 -0.029630449
000150 bb 55 bb 3b b1 f2 b1 3d 97 a2 d9 bc 2d bb dc bd
       0.005717007 0.08688868 -0.026566787 -0.107778884
000160 80 9f 97 3d 75 ec 91 bc 3e fe 9f 3c 07 7c 91 bc
       0.07403469 -0.017812947 0.019530412 -0.017759336
000170 f7 6d 6c 3d 8c cd d8 bd fe ce a4 3d e1 df ac 3d
       0.05772206 -0.1058608 0.08047293 0.08441139
000180 45 bc b7 3d 21 a5 3b 3d 7e 2f c5 3d 55 bf 1a 3d
       0.089714564 0.045811776 0.09628199 0.037780125
000190 1b c6 ce 3c 23 a6 d9 bc 8c 0d 98 3d c5 85 90 3d
       0.025240948 -0.026568478 0.07424459 0.070567645
0001a0 c9 89 62 bd ac 25 6c 3c 92 a4 ae bd 1a d5 94 bc
       -0.055307183 0.014413279 -0.08527483 -0.018168021
0001b0 af c5 cd 3c a8 2b 47 bc 5a c4 f4 bd 5f a3 83 3d
       0.025118677 -0.012156405 -0.119515136 0.06427645
0001c0 9a c9 b7 3c 4c a4 be bd 7d e1 d1 bd 75 6e fc bc
       0.022434998 -0.09308681 -0.102480866 -0.030814389
0001d0 86 53 ad bd ea e8 66 bd 97 a6 4b bd a5 2a ca bd
       -0.084631965 -0.056374468 -0.04971942 -0.09871415
0001e0 d7 16 50 3d 71 df d1 3d 24 9d 46 3c 5f 9b c8 bc
       0.05080303 0.10247696 0.012122426 -0.02448815
0001f0 1f b5 af 3d 30 a7 c6 bd ce e7 c1 bc 8f 41 b8 bd
       0.08579468 -0.09699857 -0.023670103 -0.08996879
000200 25 86 38 3d 7e af 9d bd ee e9 ae bd b0 16 5f 3d
       0.045049805 -0.07699488 -0.08540712 0.054464996
000210 68 c8 70 bd 88 25 cb bd 8e 2a 00 bc f5 e8 26 bd
       -0.058784872 -0.09919268 -0.007822646 -0.04074951
000220 ca 42 91 3d df 18 a0 3c 3a 4f d5 3c 2f a7 10 bd
       0.07092817 0.01954311 0.026038755 -0.03531569
000230 0b f6 59 3d b8 a3 6c 3d cd 25 83 3d d1 f3 7c bc
       0.05321316 0.057773322 0.06403694 -0.01543899
000240 20 6f f3 bd e1 df 97 3c 65 e4 83 bd 7f 27 c0 bd
       -0.1188643 0.018539371 -0.06440047 -0.09382533
000250 ae ad 9e 3d 1d 1d 09 3d 8d a6 14 3c e5 5d b4 3d
       0.077479705 0.03347503 0.009072912 0.088069715
000260 5f 57 95 bb c9 e2 57 bc c3 04 c3 bc 89 50 5c 3d
       -0.0045575346 -0.013176628 -0.023805982 0.05378774
000270 2a 36 db 3c ff 13 80 bd 3a e4 e0 bd 2d 43 3c 3d
       0.026759226 -0.06253814 -0.10981031 0.0459625
000280 6c a5 2e 3d 9e f2 ba 3d 2c ec 0d 3d c3 ab e7 3d
       0.042638227 0.09128307 0.03464906 0.11312058
000290 de 8c 84 bd 86 bb 5d 3d 28 6b f5 3c 7a ae ac 3c
       -0.06472181 0.054133914 0.029958323 0.02107929
0002a0 58 6d b0 bd 46 81 8b bd f9 63 63 3d fe 81 b9 3d
       -0.08614606 -0.06811766 0.055515263 0.09057997
0002b0 4c 54 85 3d b5 c7 26 bd eb b8 ef 3d 58 85 5d 3d
       0.06510219 -0.0407178 0.11705192 0.054082245
0002c0 15 5a 87 3c a5 05 b9 3c 28 51 cb 3d f3 1e bc 3d
       0.016522447 0.0225857 0.09927589 0.091855906
0002d0 ff 2a 8a 3d 5a 0f 7f bd 65 17 b4 3d 29 43 c4 3d
       0.06746482 -0.0622705 0.08793525 0.09583122
0002e0 64 31 3d bb ca 82 7f 3d 2a 31 91 bd f0 ff d3 bd
       -0.002886855 0.06238059 -0.070894554 -0.103515506
0002f0 9c b1 91 bd 10 29 d8 3d e7 63 d5 3d fa f4 5d 3c
       -0.071139544 0.10554707 0.104194455 0.0135471765
000300 ee d1 c3 3d 88 1d b0 3d d0 8e 30 bd 9b 18 ef 3c
       0.09561525 0.08599383 -0.043104947 0.029186537
000310 e4 ae 57 bd 99 82 ea bd 54 7c c2 3d 4c 27 4c bd
       -0.052657023 -0.11450691 0.0949637 -0.049842164
000320 fd 61 25 bd 69 1b 9d 3c a0 61 9b 3d 07 ef b4 3d
       -0.040376652 0.01917811 0.0758698 0.08834653
000330 03 07 ce bc 20 84 75 3c ff 23 3f 3c 07 db 69 bd
       -0.025149828 0.014985114 0.011666297 -0.057093646
000340 8f dc ab bc ed 90 89 3c 4b 60 a5 bd b9 91 71 3d
       -0.020979194 0.016792739 -0.08075007 0.058976863
000350 94 90 d8 bd 17 f9 03 3d 02 f5 d4 bd b5 17 f8 bd
       -0.10574451 0.032219972 -0.10398294 -0.12113897
000360 49 e9 34 3c 24 a0 9e 3c cb a3 42 bd e3 4b 8c 3d
       0.011041948 0.01936347 -0.047519486 0.06850412
000370 87 5b ce 3d 8d 35 6f 3c dd f5 d0 bd e5 a2 db bd
       0.10076051 0.01460017 -0.10203145 -0.10724429
000380 85 69 12 be f9 e0 19 bc 05 11 d9 3d f0 9e 48 3c
       -0.14298065 -0.009392017 0.10598949 0.012244925
000390 8c 35 cd bd b9 50 9d 3d af d7 10 3d 34 9d 97 bd
       -0.10019979 0.07681412 0.035361942 -0.07403031
0003a0 a3 ad 0e be d3 ba 2f 3d e8 58 c6 3d b7 bc 6c 3c
       -0.13933425 0.04290278 0.09684926 0.01444929
0003b0 34 40 28 bd 71 4d dc bc 00 69 2c bd 99 0e e1 bd
       -0.041076854 -0.026892396 -0.042092323 -0.109891124
0003c0 aa 27 8c 3c 04 5b a7 bd 06 c6 d3 bd 25 7a f0 3d
       0.017108757 -0.08171657 -0.10340504 0.11742047
0003d0 97 78 b0 bd 8a 5a b9 3d 38 d9 df 3d 00 b5 87 3d
       -0.08616751 0.09050472 0.10930103 0.0662632
0003e0 84 9c 04 bd 4e 72 11 bd 35 df 30 3d 58 7e 78 bd
       -0.032375827 -0.0355094 0.043181617 -0.060667366
0003f0 c7 e1 6b 3d 5c 5c 47 bc 16 ab 25 bc 82 1c cd 3d
       0.057588365 -0.012168016 -0.010111591 0.10015203

conv1.bias f4 [64]
000000 63 da 60 3d 98 cb 58 3d 87 75 a7 3c 15 b6 83 3c
       0.05489577 0.052928537 0.020441784 0.016078034
000010 af 91 cc bd f0 f0 9f 3d 87 1b 9b 3d ef 6b 81 bd
       -0.099887244 0.07809627 0.0757361 -0.06319415
000020 f6 89 e6 bc 60 81 fc 3b d8 32 b4 3a 8c 70 e2 bc
       -0.028141957 0.0077058524 0.0013748063 -0.027641557
000030 33 bd c0 bd 90 3e 8d bc 59 da a0 bd 9f 41 74 bd
       -0.09411087 -0.017241746 -0.078541465 -0.059632894
000040 12 b1 b8 3d 44 ee 2a bc ff 8f 70 3c 4b f5 72 bb
       0.090181485 -0.0104327835 0.014682769 -0.0037072476
000050 58 4c 14 bd ed 8b b5 bd 30 0c a9 bd e6 ea 76 bc
       -0.03620562 -0.08864579 -0.08254278 -0.015070653
000060 5e a6 bf bc 06 a5 05 3d a2 96 9f bc c1 70 8b bd
       -0.02339476 0.03262808 -0.019481007 -0.068086155
000070 d9 38 91 bd d7 c7 51 bd d0 36 e0 bc 4f c9 8b bb
       -0.07090921 -0.051215973 -0.027369887 -0.004265941
000080 b8 fd 9c bd a3 4f 83 bd 91 b8 8c 3d 00 18 5f 3a
       -0.076655805 -0.06411674 0.06871141 0.0008510351
000090 bd 12 85 bd 7c dc 7d 3d 9a 85 d8 bc a4 6f ec 3d
       -0.06497715 0.06197785 -0.026430894 0.11544731
0000a0 2a 11 8c 3d 3c 95 93 3d e6 b8 99 bb 1d c4 25 bc
       0.06839211 0.072061986 -0.004691231 -0.010117558
0000b0 9f d5 8a 3d f4 1d d2 bd e8 ec 35 3a ca 83 19 bd
       0.06779026 -0.10259619 0.0006939904 -0.0374792
0000c0 3a 46 e0 3c e0 49 91 bc 36 8c d1 3d 96 80 70 bd
       0.027377237 -0.017735422 0.10231821 -0.05871638
0000d0 11 2c ff 3c de 75 cf 3c 73 6d a8 3d 3e bf 80 bd
       0.031148942 0.025324758 0.08224001 -0.062864766
0000e0 f7 42 49 3d aa 7a 82 bd 02 97 19 3d d6 e2 8e 3c
       0.04913613 -0.063710526 0.037497528 0.017442148
0000f0 b1 18 c2 bb f3 4b fc 3c 64 48 89 3d 7b ca a0 bd
       -0.0059233536 0.030797934 0.067032605 -0.0785112

conv2.weight f4 [32, 64, 5, 5]
000000 3c e3 83 3a 08 25 94 bc 97 b7 16 3c 61 f4 2a bc
       0.0010062228 -0.018084064 0.009199045 -0.010434241
000010 93 89 b4 3c a6 c9 54 3c 12 04 bd bb a7 ff ac 3c
       0.022038257 0.01298753 -0.0057683075 0.021117998
000020 9d b1 a7 bb 29 fe b8 bb 87 a0 80 bb 0e 10 2d bb
       -0.0051176087 -0.0056455326 -0.0039253864 -0.0026407274
000030 98 6f 21 bc e9 d4 5f bc 14 f4 6e 3c 96 47 b5 bc
       -0.009853266 -0.013661602 0.01458456 -0.022128861
000040 25 01 85 bb f7 2d bb bc cf 34 5b bc 3a 6c 68 3c
       -0.0040589743 -0.022849066 -0.01337929 0.0141859595
000050 28 11 23 3d 99 22 ff 3c 42 4b 7a 3c ce 22 05 3d
       0.039811283 0.031144427 0.015276732 0.032503895
000060 2b ea 00 3d a8 fb 60 bd fe ac 0b bd 74 de 43 3b
       0.03147332 -0.054927498 -0.034100525 0.002988723
000070 b6 79 20 3c 6b 4e 60 3b 04 1e 0c 3c 2e cc 15 bd
       0.009794643 0.0034226428 0.008552078 -0.036571674
000080 80 33 20 3c 4b 46 cd 3c ee c6 ac 3c c2 2c 8a 3c
       0.009777904 0.025057932 0.02109095 0.016867045
000090 39 a5 fc bc a4 dc c6 3b 17 3e bb 3a de 70 1f 3c
       -0.030840503 0.006068783 0.0014285472 0.0097314995
0000a0 52 d0 04 bd 7a ed 13 bd 0d 5d e6 bb 1d 9d eb bc
       -0.032425232 -0.036115147 -0.0070301355 -0.02876144
0000b0 fe f8 11 3b 5c e2 17 bd 53 9d 72 b9 6e 7e 01 3b
       0.0022273655 -0.037081107 -0.00023137526 0.0019759196
0000c0 e6 54 f5 bc 52 b2 ec bc c2 b1 8c 3c dc b0 9d 3a
       -0.02994771 -0.028893624 0.017174605 0.0012030858
0000d0 b5 1d 6f 3c cd a3 b3 3c fb 5a 57 3b 89 a1 ab bc
       0.014594485 0.021928692 0.0032860625 -0.02095105
0000e0 a6 43 45 bc 35 c7 a3 bc c6 ee ac bc 92 0d f2 b9
       -0.012040054 -0.01999245 -0.02110995 -0.00046167948
0000f0 d5 14 ad bc 68 b5 e7 3b 05 08 9f bb 97 07 21 3c
       -0.021128098 0.007071186 -0.004853251 0.00982847
000100 be 55 c7 3a 29 e6 ce bc d6 76 19 3c 8b c4 8a bc
       0.0015208048 -0.025256233 0.009366712 -0.016939422
000110 22 8e 25 3d 5a b3 57 3d 55 3d b9 3b cf 8f 93 3c
       0.04041875 0.052661277 0.0056530633 0.01801291
000120 04 d0 88 3c 56 e0 03 3d 70 ca c9 3d 39 6a fa 3b
       0.016700752 0.032196365 0.09853065 0.0076420573
000130 ae 96 f8 bc 2b cf 14 3c da bc 0e bb ff a0 77 3c
       -0.030345287 0.009082596 -0.0021780045 0.015114068
000140 c9 fa b4 bc 58 95 8a b9 86 91 8a bc ed 49 f2 bb
       -0.02209224 -0.0002643268 -0.016915094 -0.0073940665
000150 08 d0 e8 ba 0d 50 bc bc 80 e1 9d 3c 7f 19 9e 3c
       -0.0017762193 -0.02298739 0.019272566 0.019299267
000160 07 53 d9 3c c3 cc d8 bb d6 ca 4a 3c 97 34 b8 bc
       0.026528848 -0.0066162064 0.012377461 -0.022486014
000170 08 f6 21 3c 73 d7 7d bb e2 c8 47 bd 61 4d c7 bc
       0.009885319 -0.0038733154 -0.04877556 -0.02432889
000180 38 28 f9 bc 03 90 04 bd 86 07 e3 bd 8f a1 23 be
       -0.030414686 -0.032363903 -0.11085419 -0.15979598
000190 a1 bf cb 3a cf f1 83 3c 25 2e f8 3b 5e 56 a2 3c
       0.0015544781 0.016106514 0.00757386 0.019816574
0001a0 93 51 f6 bb ce 07 82 3c 77 a3 57 3c db c0 23 3c
       -0.0075170486 0.015872862 0.013161532 0.009994711
0001b0 17 dc b9 3c af db 4a bb 76 55 b4 3c e9 02 c7 3c
       0.022687955 -0.0030953696 0.022013407 0.02429338
0001c0 41 25 94 3c cf 0e ff 3c 7e 41 30 bc ce dd a0 bc
       0.01808417 0.031134991 -0.010757802 -0.019637015
0001d0 58 19 e7 ba f8 04 0f bd 65 fd cf bc 88 46 61 bc
       -0.0017631454 -0.034916848 -0.025389383 -0.013749726
0001e0 62 48 3b bc ad f9 37 bc aa a5 c7 bb e3 1c 5c 3c
       -0.011430832 -0.011228961 -0.0060927467 0.0134346215
0001f0 f4 c2 3e 3d 6e ba 0e 3c 62 09 95 3b 2a c6 13 bc
       0.04657264 0.0087114405 0.0045482377 -0.009019414
000200 58 05 68 3c b4 f9 69 bc 0c a2 5c 3c af 8d 4a 3c
       0.01416143 -0.014280725 0.013466369 0.012362882
000210 2e 40 5e bb d3 0b e1 3b 29 dc ea bc 23 59 89 bc
       -0.0033912766 0.0068678646 -0.028669434 -0.016766137
000220 9d 66 93 bc 40 c3 b8 bc 23 57 de bc 10 02 c0 bc
       -0.017993266 -0.02255404 -0.02714116 -0.023438483
000230 2f 3a 40 3c a3 36 6d bb 62 f7 fe 3a 8b 4e b0 3c
       0.011732622 -0.0036195896 0.0019452388 0.021521827
000240 28 e4 29 3b d8 5e 10 b9 e6 df b1 3c ff 4b 06 3c
       0.0025923345 -0.00013768242 0.021713208 0.00819683
000250 91 8b d4 3c a4 41 10 3c 06 96 6d bc 6b 0f d6 3b
       0.025945457 0.008804712 -0.0145011 0.0065325997
000260 99 60 bb 3c 75 b0 03 bd 44 dd 0a bd 7d d3 68 bb
       0.02287321 -0.032150704 -0.03390242 -0.0035526447
000270 9d 03 56 3c a4 aa 8f bb c8 f4 ee bc d3 e6 36 3c
       0.013062385 -0.0043843556 -0.029169455 0.011163431
000280 7e 1f 5d 3b c7 28 25 bc 0d 20 b3 39 e8 dc ae bc
       0.0033740695 -0.010080523 0.0003416542 -0.02134557
000290 74 2e ca 3c 6e 94 3a 3c d9 dd 1e bc 19 2b 20 bd
       0.024680354 0.011387927 -0.009696447 -0.0391036
0002a0 c5 b0 54 3c 0e f4 80 3c 90 86 8f 3a 48 09 09 3c
       0.012981598 0.015741374 0.0010950137 0.008364029
0002b0 ec 91 07 bc a9 eb 83 3c be da 5b 3d 94 5d 72 bb
       -0.008274537 0.016103582 0.053675406 -0.0036982046
0002c0 1d 71 4a bc 61 c6 c1 3c ed 7b 59 ba e8 72 ba bc
       -0.01235607 0.023654165 -0.00082963594 -0.02275987
0002d0 07 10 b9 bc 90 86 f8 3b 33 ff cf 3b cd 80 0a bd
       -0.02259065 0.0075844005 0.006347561 -0.03381424
0002e0 0f 05 b4 3b de 28 ae bc 32 e8 f7 3b 1f a0 bf bc
       0.005493767 -0.021259721 0.0075655216 -0.023391781
0002f0 a5 9a 02 bd bb 7d c4 bc 90 a5 53 3b 0d 88 da bc
       -0.03188576 -0.023985734 0.0032294728 -0.026676202
000300 8d bf b7 bc 05 a2 52 bc 9c 3f a0 3c ef 33 5a bc
       -0.022430206 -0.012856011 0.019561581 -0.013318046
000310 dd 4a a7 3b 66 7e 19 bc 22 63 e7 39 7e 09 11 3d
       0.00510536 -0.009368515 0.00044133613 0.035409443
000320 e1 b4 bc bc b4 e5 5e bd 46 4a 0f bd 07 12 5d bd
       -0.023035469 -0.05441828 -0.034982942 -0.05397227
000330 fd c3 5b bd 9e 20 34 bd 9d 61 48 bd 0b b2 8d bd
       -0.053653706 -0.04397642 -0.048921216 -0.069187246
000340 3f 5b 0f bd f2 3e 93 bc 15 36 28 bd 25 d8 61 bd
       -0.03499913 -0.01797435 -0.0410672 -0.055137772
000350 73 6f 87 bd 4e de 03 bd 0e 5f 2e 3d f8 04 1a bd
       -0.06613054 -0.03219443 0.04257112 -0.037602395
000360 4e 60 00 bc 6e 06 1f bd 11 03 b5 bc 9e 4a ea 3c
       -0.007835461 -0.03882449 -0.022096189 0.028600033
000370 87 a5 80 3d 4f 2e 20 3d bb 38 28 3b 2d 00 29 3d
       0.06281572 0.039106663 0.002566858 0.041259933
000380 4c 5a 62 3d 95 37 eb 3c 7c 71 32 3d 21 f3 68 3d
       0.055261895 0.028713027 0.04356526 0.05687249
000390 2b 40 46 3d 3d 4c bf 3c 6a 1d 85 3d 5a 6c 12 3d
       0.04840104 0.023351783 0.06499751 0.035747863
0003a0 59 1f 21 3d fe 9c 1f 3d 2a b7 28 3d 5b 27 fc 3b
       0.039336536 0.03896808 0.041190304 0.007695121
0003b0 ba 9c d0 39 52 cc e6 bc 08 1b c7 bc 23 20 90 3c
       0.00039789622 -0.0281736 -0.024304882 0.017593449
0003c0 67 9b a3 bc 8d 75 55 bc 3c a7 09 bc 48 bc 88 bb
       -0.019971563 -0.013028515 -0.008401688 -0.0041728355
0003d0 be 3f 80 3c 8a c3 a7 3c 8d a8 19 3d 71 46 8f 3b
       0.015655395 0.020478982 0.03751426 0.004372411
0003e0 46 58 af 3d a9 82 d0 3d b5 33 c4 3c fa d2 54 bd
       0.08561759 0.101811714 0.023950437 -0.051959015
0003f0 a4 af 95 bd 6d 08 c3 bd 43 ec ae bd 61 e2 15 3c
       -0.073088914 -0.095230915 -0.08541157 0.009148211

conv2.bias f4 [32]
000000 99 c9 5a 3c ba 2a 30 bc 89 e2 47 3c 49 6f ee bb
       0.013353729 -0.010752374 0.012200006 -0.00727645
000010 54 ea 10 3c 16 cb 77 bc 92 8c 74 bc 28 64 da 3c
       0.008844931 -0.015124103 -0.014926093 0.026659086
000020 ae e3 aa bb 45 e7 06 bc 72 c4 53 bc ae 40 d8 3c
       -0.00521513 -0.00823385 -0.012925254 0.02639803
000030 c9 c8 8f 3b 2c b4 41 bc e6 d4 9b 3c 39 b0 af bc
       0.004387949 -0.0118227415 0.019022416 -0.021446334
000040 ee bb 86 bc 89 99 4a bc 57 98 52 3c 91 9e 48 bd
       -0.016447034 -0.012365707 0.012853703 -0.048979346
000050 64 20 ed 3c 07 fb b5 3b 73 b2 84 bb a3 0e 88 3b
       0.02894611 0.0055536064 -0.004049593 0.0041521355
000060 8a b5 2b bc ca 8a 8a bc 43 e8 56 3b 9e 47 96 3c
       -0.010480294 -0.016911883 0.0032792247 0.018344697
000070 e0 7b 72 bc d1 6b 7c 3b 7d 53 c4 3c 40 e6 24 bc
       -0.014800042 0.0038516412 0.023965592 -0.0100646615

conv3.weight f4 [1, 32, 5, 5]
000000 bd 5c 34 bd 1b 21 ae 3b 9c 1b cd ba 7f b1 20 bc
       -0.044033755 0.005314005 -0.0015648487 -0.009807943
000010 13 5d 26 bb 55 2c 28 3c cd f4 a7 bc 38 02 4c bd
       -0.0025385066 0.010264476 -0.020502472 -0.049806803
000020 c2 35 3e 3a 18 b8 f7 3b b6 fc 98 3c 98 e5 32 bd
       0.00072559353 0.0075597875 0.01867519 -0.04367599
000030 9e 89 1d bd 02 45 37 3c d3 ad 80 bb 5e 63 7d bc
       -0.03846132 0.011185886 -0.0039269715 -0.0154655855
000040 6c d3 2c bc 7b ab cf bb 3f 43 6e 3c ae 43 62 3c
       -0.010548454 -0.0063375807 0.0145424 0.013810081
000050 b8 91 fa 3b 85 41 14 3d 6a dc 28 3d 85 64 d4 3c
       0.0076467656 0.036195297 0.04122583 0.025926838
000060 57 4d 72 3d 57 e1 2f bd 08 be a1 bc e1 9c 11 bd
       0.05915579 -0.04293951 -0.019743934 -0.035550002
000070 5e 46 a0 bb ab 07 8e 3b ed 3c 22 bd 65 9d 39 bd
       -0.004891201 0.00433441 -0.039608885 -0.04531612
000080 92 f5 8f bc 73 c1 83 bc ce 6e 0a bd 0b 77 fd bc
       -0.017573152 -0.016083455 -0.033797078 -0.030940553
000090 83 91 0d bc 8a 5c 25 bd 78 db 13 bd 1a 8b bd bc
       -0.00864065 -0.040371455 -0.036097974 -0.023137618
0000a0 b7 8e 29 bd 6b c9 43 3c 7f 6f 33 bd 62 fd d6 bc
       -0.04139587 0.011949877 -0.043807503 -0.02624387
0000b0 a1 b3 06 bd 5a ef 88 b7 6d 97 68 bd 4b dc a4 bc
       -0.03288615 -1.632392e-05 -0.056785036 -0.020124575
0000c0 c5 cb 1c bd f5 ec 32 bb c6 74 15 3d 22 ce 73 bc
       -0.038280267 -0.0027301882 0.036488317 -0.014880689
0000d0 db ea d3 3b 20 9d 07 3d 4e d7 0c 3d 35 f6 0c bc
       0.006467206 0.03310883 0.034385018 -0.008603622
0000e0 5a 78 8d 3c 06 86 a5 bc 47 92 64 bc 4f 36 d9 bc
       0.017269302 -0.020205509 -0.013950891 -0.026515154
0000f0 2b 0d 55 3c 3d bb ec bc 80 e4 84 bc ca 9f 6d bc
       0.013003628 -0.028897876 -0.016222239 -0.014503429
000100 72 67 9a 3b 49 e4 ae 3b 25 2b de bb c4 32 df bc
       0.0047120387 0.0053372723 -0.0067800456 -0.027245887
000110 d7 c8 a1 bb cb 03 8e 3c 1d cf 4e 3c f3 a6 8c bc
       -0.004937272 0.017335793 0.012622622 -0.017169451
000120 96 4c b5 bb d6 3f 03 bd 2c ab 9b 3c 74 51 d1 bc
       -0.0055328114 -0.0320433 0.01900252 -0.025551535
000130 0a 61 ea bb 0b dd 38 bd a0 89 1f bd f1 61 df bc
       -0.0071526812 -0.045132678 -0.03894961 -0.027268382
000140 e8 bb d4 bc ec 85 0c 3d dc 1a fe 3c e1 49 51 bc
       -0.025968507 0.034307405 0.031018667 -0.012773962
000150 8f 04 6b 3c 38 7b 98 bc 70 ad 50 bc e3 86 f1 3c
       0.014344349 -0.018613443 -0.012736663 0.029483264
000160 54 82 f8 3b 3b ac e5 3c c3 bd 26 3b 00 dd 4a 3c
       0.0075838957 0.028036227 0.0025442697 0.012381792
000170 34 da 04 bd b5 94 10 ba 57 92 ec 3c e5 d3 be 3c
       -0.032434657 -0.0005515323 0.028878374 0.023294399
000180 b9 e5 cd 3b 27 19 e4 bc a6 83 da 3c 72 1c 13 3d
       0.0062834886 -0.027844025 0.026674103 0.0359158
000190 f2 9b 8b bd 1c 90 48 bd 7f 8e b2 bc ff d7 51 bc
       -0.068168536 -0.04896556 -0.021796463 -0.012807845
0001a0 61 b9 6e bd 11 b2 6a bb 8d 89 92 bc 82 96 28 3d
       -0.05828226 -0.0035811702 -0.017887855 0.04115916
0001b0 b8 ad 9d bc 07 56 b3 bb c7 8b 88 bc 52 0a c8 ba
       -0.019247875 -0.0054729017 -0.016668214 -0.0015261865
0001c0 58 73 ea 3c e8 77 58 3c 34 55 22 3d b4 0b ee ba
       0.028619453 0.013212182 0.039632037 -0.0018161447
0001d0 c4 d4 05 3d 12 24 22 bb a7 ca 0d bc b1 84 a7 3c
       0.032673612 -0.0024740738 -0.008654273 0.020449014
0001e0 49 f1 ba bb 60 52 21 3d e4 dd cd 3c 6a 60 c5 bb
       -0.005705033 0.0393852 0.02513022 -0.0060234563
0001f0 d1 91 80 3b 80 7a a2 bc 0f 7f 43 bd ef f8 83 bc
       0.0039236327 -0.019833803 -0.047728594 -0.016109912
000200 d3 36 42 bd 80 02 47 bd bb b7 e0 3c 4d 68 c5 bc
       -0.047415566 -0.04858637 0.02743136 -0.024097586
000210 97 5a e4 bc 56 c1 1c bd 58 a2 a5 bc 79 5e da bc
       -0.027875228 -0.038270317 -0.020219013 -0.026656376
000220 47 c5 50 3b 93 26 1a bd d2 0d 4b 3c 6e eb 0a bd
       0.0031855868 -0.037634443 0.012393432 -0.03391593
000230 49 91 6d bc 95 e5 86 3b 08 83 11 bd de 9d 79 bd
       -0.014499971 0.004116724 -0.03552535 -0.06094157
000240 ec ce b8 3a 1b 21 be bc 59 bd fb bc 09 a8 b5 bc
       0.0014099753 -0.023209145 -0.030729936 -0.022174852
000250 e1 f6 94 bc 96 3e 94 bc d5 3c 1f 3d 8d 9c 1b bc
       -0.018184127 -0.01809625 0.038876373 -0.009497774
000260 7b 50 0d bc 2a 2c 10 3d 30 2f c7 3c 2c d6 2c bc
       -0.008625145 0.035198368 0.024314493 -0.010549109
000270 ac 75 e6 ba bf 7f 36 bc d7 d4 46 3b c4 a8 04 3d
       -0.0017582676 -0.0111388555 0.0030339265 0.03238751
000280 ec 59 fe bc c7 d6 ec 3b e3 07 36 bb 11 57 eb bb
       -0.031048737 0.007227752 -0.0027775697 -0.00718201
000290 3b 69 0f 3c ff 15 d2 3c e9 9b 90 bc b7 dc f8 bb
       0.008753116 0.025645254 -0.017652469 -0.0075946706
0002a0 af b9 aa 3b b5 4d 1c 3c 56 03 4f 3c 06 ef f1 3c
       0.0052101235 0.009540011 0.012635073 0.02953292
0002b0 a9 c4 7e 3c 0f 6c cd 3c 61 24 98 3b 4a f4 78 3d
       0.015549817 0.02507594 0.0046430086 0.060779847
0002c0 c4 be 87 3d 91 a6 25 3c 40 b5 54 bb 75 12 0b 3d
       0.066281825 0.010110513 -0.0032456666 0.03395315
0002d0 5c 03 9e 3d dd 7c c2 3c 56 25 9c 3c 1c 98 7e 3c
       0.077154845 0.02374118 0.019060772 0.015539195
0002e0 5c 55 14 3d df 4a 64 3d 37 02 18 bc 33 5e 09 3d
       0.036214218 0.055735465 -0.009277872 0.0335371
0002f0 c2 ad 79 bc 50 0a d6 bb 5e 17 c9 3c a4 34 16 3d
       -0.015239181 -0.006531991 0.024547275 0.036671296
000300 ef d0 15 3d 3c ce 2c 3b 54 fa 33 3c 85 2e 63 3c
       0.036576208 0.0026368042 0.010984976 0.013866072
000310 91 c1 c4 3c fb d4 84 3c cf a3 92 bb a9 b6 08 3d
       0.02401808 0.016214838 -0.004475094 0.033377323
000320 b2 b5 13 3d 1d da 07 3d 7e a4 22 3d 7c 0d ee 3c
       0.03606195 0.033166993 0.039707653 0.029059164
000330 47 c6 73 3d 40 36 42 bb 44 79 27 3d 18 1e 59 3b
       0.059515264 -0.0029634386 0.040887132 0.003312951
000340 2e 6d c9 3c b0 73 44 3d 4e 2b c5 3b c1 96 ab 3c
       0.024588194 0.04796189 0.006017125 0.020945909
000350 1a 0d 28 3d 81 ba 26 ba ce 51 30 3b 7e 73 3b 3c
       0.04102812 -0.00063601887 0.0026904228 0.01144111
000360 1a 3f 78 3c 4b f5 09 3d 68 59 a7 3c 1a 45 c1 bb
       0.015151763 0.033681195 0.020428374 -0.00589813
000370 82 84 e9 3c 96 57 b1 3c 20 c9 1d 3d a1 5e 9b bc
       0.028505567 0.02164821 0.038521886 -0.018966021
000380 2d ff ab 3a 94 05 be 3b eb f8 7f 3b e9 8d 03 3c
       0.0013122313 0.005799005 0.0039058279 0.0080294395
000390 31 70 01 3d d9 e2 a7 39 20 53 c0 3c 87 02 84 3c
       0.031601135 0.00032021737 0.023477137 0.016114486
0003a0 d3 f5 94 3b 34 d7 54 3c cc 08 86 3b 3d 92 e7 bc
       0.004545906 0.012990762 0.004090404 -0.028267974
0003b0 f5 4d 82 bc f3 ec ff 3b 0c 4f af 3c 15 c1 2e bc
       -0.015906313 0.007810229 0.021399997 -0.0106661515
0003c0 ff d2 4a bb 6e 72 c0 3c bc 6c 3b 3c db e0 49 bc
       -0.0030948517 0.023492064 0.0114394985 -0.012321676
0003d0 6e 69 93 3c de 24 3e 3b 55 fa df 3c 95 99 84 3c
       0.017994609 0.0029013674 0.027341047 0.016186515
0003e0 d8 04 3d 3c 6a fc 2e 3d d5 9c eb 3c 3d 83 5d bc
       0.011536799 0.04272119 0.028761307 -0.013520059
0003f0 4e c8 9a 3b 38 29 32 bb fb 58 f7 3c bb ba 00 3c
       0.004723585 -0.0027185213 0.030193796 0.00785702

exp_avg f4 [64, 1, 9, 9]
000000 2b 33 cc ba 99 90 c7 ba a9 cc c4 ba 9b 9a bc ba
       -0.0015579214 -0.0015225589 -0.0015014607 -0.0014389338
000010 58 b1 bc ba 7b 2e b8 ba f9 04 be ba c0 d0 be ba
       -0.0014396114 -0.0014051938 -0.0014497332 -0.0014558062
000020 4c bc ce ba cc 05 ce ba 3c c3 c4 ba 17 cb c8 ba
       -0.001577267 -0.001571828 -0.0015011798 -0.0015319315
000030 c2 85 be ba bb 99 bd ba 32 8a bb ba 28 7a bb ba
       -0.0014535713 -0.0014465371 -0.0014308153 -0.0014303373
000040 59 84 bf ba 47 24 c8 ba aa 51 d1 ba 53 0c d1 ba
       -0.0014611586 -0.00152696 -0.0015969772 -0.0015949107
000050 13 73 c9 ba af 73 c9 ba ef 87 c5 ba cd cc bf ba
       -0.0015369378 -0.0015369559 -0.0015070419 -0.0014633179
000060 45 fd bc ba 8a be be ba 0c 23 c8 ba 29 a6 d4 ba
       -0.0014418742 -0.0014552635 -0.0015269234 -0.0016223836
000070 00 b9 d6 ba 61 0d d5 ba 1a f0 cd ba 29 30 c8 ba
       -0.0016382039 -0.0016254598 -0.0015711815 -0.0015273142
000080 64 71 c7 ba 3a 5c c5 ba 4e d9 c5 ba 25 c4 cd ba
       -0.0015216288 -0.0015057393 -0.0015094669 -0.0015698714
000090 4b d0 da ba 6d 9a da ba 76 97 db ba eb 14 d8 ba
       -0.0016694156 -0.0016678103 -0.0016753513 -0.0016485726
0000a0 6c 6d d2 ba bd f5 d0 ba 48 eb cc ba 6c 2b cd ba
       -0.0016054339 -0.0015942376 -0.0015634084 -0.00156532
0000b0 af 3b d1 ba a9 13 e0 ba 21 8f dd ba d2 53 e0 ba
       -0.0015963222 -0.0017095703 -0.0016903618 -0.0017114824
0000c0 4c 92 d9 ba 15 fe dd ba d9 8d d7 ba 89 ee d1 ba
       -0.0016599386 -0.0016936684 -0.0016445472 -0.0016016524
0000d0 19 60 d4 ba 2c 69 d8 ba ea e2 e2 ba 77 cf e3 ba
       -0.0016202956 -0.0016510836 -0.0017310057 -0.0017380555
0000e0 80 60 e3 ba f0 c6 e2 ba c9 4f e2 ba a9 82 de ba
       -0.0017347485 -0.001730172 -0.001726621 -0.0016976196
0000f0 9a 02 d7 ba a3 03 d9 ba 3d 6e da ba db af e8 ba
       -0.0016403974 -0.001655687 -0.0016664934 -0.0017752604
000100 cb 55 e5 ba 30 04 e6 ba 07 e2 e0 ba 59 51 dc ba
       -0.0017496882 -0.0017548855 -0.0017157205 -0.0016808911
000110 8c bb dc ba 70 c9 d5 ba 56 3c d7 ba b9 9d d4 ba
       -0.0016840561 -0.0016310643 -0.001642118 -0.0016221321
000120 28 3f ef ba 65 24 e8 ba 06 f4 e9 ba 9c a6 e4 ba
       -0.0018253075 -0.0017711042 -0.0017849214 -0.0017444673
000130 e8 7a da ba a9 fa db ba bd be d4 ba 5d e1 d4 ba
       -0.0016668709 -0.0016783077 -0.0016231161 -0.001624148
000140 07 72 d6 ba e6 4b 44 b8 f6 39 4e b8 a4 84 8e b8
       -0.0016360887 -4.6800727e-05 -4.9168208e-05 -6.795794e-05
000150 e6 ef b0 b8 18 ed da b8 2c e5 02 b9 4a ad f2 b8
       -8.4370186e-05 -0.00010439212 -0.0001248314 -0.00011571737
000160 34 a3 f7 b8 11 88 d7 b8 87 cb bb b8 8e 58 d7 b8
       -0.00011808277 -0.00010277343 -8.954765e-05 -0.000102684935
000170 dc bc 21 b9 72 d6 4b b9 01 8e 6d b9 af 17 7e b9
       -0.00015424512 -0.00019439476 -0.00022654982 -0.0002423215
000180 8d 5d 69 b9 87 39 48 b9 b0 8a 13 b9 be 73 06 b9
       -0.00022255462 -0.00019094917 -0.00014070678 -0.00012822353
000190 3e 92 39 b9 32 d8 65 b9 0b 9b 9d b9 32 7e bc b9
       -0.00017697454 -0.00021919681 -0.0003006089 -0.00035952177
0001a0 eb 2f b4 b9 8b 1d 96 b9 7a 09 64 b9 5d eb 36 b9
       -0.00034367977 -0.0002863224 -0.00021747305 -0.00017444552
0001b0 5a d3 19 b9 dd cf 44 b9 12 8e 7b b9 35 d8 b7 b9
       -0.00014669952 -0.00018769452 -0.0002399015 -0.00035065567
0001c0 f8 b6 c4 b9 64 9c bc b9 0a d0 a7 b9 02 87 81 b9
       -0.00037520356 -0.00035974674 -0.00032007723 -0.00024705386
0001d0 f8 b0 35 b9 3b c8 04 b9 3f eb 3d b9 a1 88 76 b9
       -0.00017327431 -0.00012663093 -0.0001811208 -0.00023511286
0001e0 f3 18 b9 b9 05 82 d8 b9 01 e5 c4 b9 48 21 b5 b9
       -0.00035304538 -0.00041295603 -0.00037554654 -0.00034547807
0001f0 98 d2 92 b9 7d 46 2c b9 3c 48 f2 b8 36 e9 10 b9
       -0.00028004195 -0.00016429457 -0.00011552914 -0.00013819788
000200 32 49 65 b9 59 55 8c b9 8f d0 aa b9 6a 99 c6 b9
       -0.00021866409 -0.0002676647 -0.00032580315 -0.00037879805
000210 15 41 b4 b9 d6 fb 85 b9 2f b2 51 b9 b9 8d f9 b8
       -0.00034380765 -0.0002555537 -0.00019998172 -0.00011899643
000220 34 f4 22 b9 b5 0c 3a b9 be 98 7e b9 6a 56 90 b9
       -0.00015540497 -0.00017743076 -0.00024280229 -0.00027530204
000230 07 7e af b9 68 18 a4 b9 1a 05 85 b9 4c 5a 19 b9
       -0.000334725 -0.00031298702 -0.00025371538 -0.00014624855
000240 e2 fc f9 b8 1e 6c 10 b9 5b e7 08 b9 83 c3 2c b9
       -0.00011920348 -0.00013773187 -0.00013056157 -0.00016476032
000250 10 56 49 b9 7e 50 6b b9 24 54 4b b9 79 99 06 b9
       -0.00019200915 -0.00022441332 -0.00019390933 -0.00012836409
000260 54 0f 88 b8 36 8d ed b8 7d 42 df b8 cc 2d d8 b8
       -6.4878404e-05 -0.00011327343 -0.00010645853 -0.00010308213
000270 a0 61 e0 b8 2f be bd b8 89 7e a9 b8 01 91 60 b8
       -0.000106993364 -9.047647e-05 -8.082117e-05 -5.3540807e-05
000280 bb b7 41 b7 09 a7 32 38 50 3b 4a 3c bf 9b 4b 3c
       -1.15464745e-05 4.259407e-05 0.012343243 0.0124272695
000290 3a 7e 49 3c d7 d9 47 3c a2 43 44 3c 73 8a 40 3c
       0.012298161 0.012197933 0.011979016 0.011751759
0002a0 6e e1 3c 3c e7 c8 3a 3c 89 6b 3a 3c e1 d0 4c 3c
       0.011528356 0.011400438 0.011378177 0.0125009725
0002b0 25 05 4e 3c 69 41 4c 3c 85 ce 49 3c d2 9a 45 3c
       0.012574469 0.012466767 0.0123173045 0.012060838
0002c0 ed 7d 41 3c 87 47 3e 3c 4e 35 3c 3c a3 4a 3b 3c
       0.011809808 0.011613733 0.011487318 0.011431369
0002d0 2d c0 4e 3c 28 2a 4f 3c 43 4a 4e 3c d8 17 4b 3c
       0.01261906 0.012644328 0.012590948 0.0123958215
0002e0 8d 12 46 3c b2 85 41 3c 16 c7 3d 3c dd 9f 3b 3c
       0.012089384 0.011811661 0.01158311 0.011451689
0002f0 b2 5a 3a 3c ae fe 4f 3c 19 8c 50 3c f1 93 4d 3c
       0.0113741625 0.012694998 0.012728714 0.012547479
000300 04 94 4a 3c 52 07 45 3c 4e e9 3f 3c 90 d0 3c 3c
       0.012364391 0.012025671 0.011713339 0.011524335
000310 02 50 3a 3c 91 45 3a 3c 8b 54 4f 3c 43 62 4e 3c
       0.011371614 0.011369125 0.012654434 0.01259667
000320 50 2a 4b 3c dd 6d 47 3c 1e 6d 42 3c bd c3 3e 3c
       0.012400225 0.01217219 0.011866836 0.011643347
000330 9d 86 3b 3c b9 19 3a 3c bc 67 3a 3c 9b a8 4b 3c
       0.0114456685 0.011358672 0.011377271 0.012430335
000340 e5 86 4a 3c b8 d0 47 3c 21 d7 42 3c 8f e1 3e 3c
       0.012361263 0.0121957585 0.011892111 0.011650457
000350 b1 1f 3b 3c 02 b3 3a 3c b8 78 39 3c 51 39 3a 3c
       0.01142113 0.011395218 0.0113202855 0.011366204
000360 de bb 47 3c c7 b0 45 3c 9a 9b 42 3c 1e cd 3e 3c
       0.012190787 0.012066073 0.011877919 0.011645583
000370 6e b0 3a 3c 6d fe 38 3c 51 73 37 3c a9 a8 38 3c
       0.011394603 0.011291129 0.011196927 0.01127068
000380 a2 71 3a 3c f6 4d 43 3c 99 ab 41 3c b7 54 3e 3c
       0.011379631 0.011920443 0.011820697 0.011616877
000390 5f db 39 3c 4f fc 37 3c 34 b0 36 3c 1b 41 36 3c
       0.011343806 0.011229589 0.011150409 0.011123921
0003a0 28 ea 37 3c 31 78 3a 3c d7 63 3f 3c a9 45 3d 3c
       0.011225261 0.011381195 0.0116815185 0.011552253
0003b0 00 58 3a 3c b3 de 37 3c da 0c 36 3c 4b 84 35 3c
       0.01137352 0.011222529 0.0111114625 0.011078904
0003c0 68 d4 36 3c ae f3 37 3c cc 10 3a 3c a0 05 4a b8
       0.01115904 0.011227531 0.011356544 -4.816579e-05
0003d0 57 18 53 b9 4d 8d c9 b9 28 9f 05 ba da 8a 13 ba
       -0.00020131595 -0.00038442985 -0.00050972635 -0.00056282955
0003e0 22 56 14 ba 18 d0 f9 b9 57 93 d2 b9 f8 ea ae b9
       -0.0005658587 -0.00047648023 -0.00040164098 -0.00033362932
0003f0 f1 80 83 b9 a9 65 06 ba a1 10 48 ba c8 a6 64 ba
       -0.00025082336 -0.0005126843 -0.00076318724 -0.0008722362

exp_avg_sq f4 [64, 1, 9, 9]
000000 a1 ca 57 37 de 6f 58 37 b9 6b 5f 37 07 7b 5d 37
       1.2862177e-05 1.2900649e-05 1.3316917e-05 1.3201271e-05
000010 af 99 60 37 d5 0f 5f 37 e3 ec 62 37 a5 91 5e 37
       1.3387223e-05 1.3295522e-05 1.3525804e-05 1.3266142e-05
000020 08 63 60 37 d8 90 54 37 e9 14 56 37 c6 ba 5e 37
       1.3374498e-05 1.2669909e-05 1.27602625e-05 1.3275718e-05
000030 e4 8a 5c 37 09 d9 5f 37 b3 e5 61 37 b8 75 63 37
       1.314536e-05 1.3342368e-05 1.3464526e-05 1.3557663e-05
000040 90 cb 63 37 c9 a8 61 37 38 90 58 37 a6 9e 5b 37
       1.357765e-05 1.3450343e-05 1.2908182e-05 1.3090355e-05
000050 68 9b 58 37 fb 31 5c 37 2c 2c 5b 37 6d 06 5b 37
       1.2910787e-05 1.3124659e-05 1.3063702e-05 1.3054913e-05
000060 aa 6c 5f 37 e5 7f 60 37 e3 09 61 37 33 ec 51 37
       1.3317136e-05 1.3381218e-05 1.3413347e-05 1.2512365e-05
000070 44 61 5a 37 e8 0a 5f 37 a6 80 59 37 89 c2 55 37
       1.3016459e-05 1.3294375e-05 1.2964161e-05 1.2741083e-05
000080 23 20 58 37 c7 4c 59 37 27 d9 5b 37 b5 a8 5d 37
       1.2882086e-05 1.2952084e-05 1.3103977e-05 1.3211907e-05
000090 fd 65 56 37 31 ff 5b 37 52 3f 61 37 7e 6b 5f 37
       1.277914e-05 1.3112834e-05 1.3425788e-05 1.3316863e-05
0000a0 e6 34 56 37 11 25 54 37 42 12 53 37 96 bb 55 37
       1.276771e-05 1.2644815e-05 1.2580831e-05 1.2739465e-05
0000b0 8f db 55 37 e3 cb 5b 37 bd 55 5d 37 11 57 63 37
       1.2746909e-05 1.3100888e-05 1.3192589e-05 1.3550526e-05
0000c0 1e c1 59 37 9d 01 57 37 af 8c 4e 37 f9 5e 4b 37
       1.29791715e-05 1.2815374e-05 1.2311312e-05 1.2121855e-05
0000d0 53 ca 4d 37 cd 92 50 37 13 30 5c 37 88 f7 60 37
       1.22660595e-05 1.2431946e-05 1.3124215e-05 1.3409073e-05
0000e0 49 6f 62 37 b6 58 5f 37 d4 f4 57 37 c6 46 4d 37
       1.349656e-05 1.331249e-05 1.2872002e-05 1.223543e-05
0000f0 74 cc 45 37 28 c2 49 37 a1 da 48 37 82 1b 5f 37
       1.1789718e-05 1.2025739e-05 1.19718325e-05 1.329824e-05
000100 2d a1 60 37 39 15 5d 37 4a 4b 55 37 83 69 4e 37
       1.3388967e-05 1.3177568e-05 1.2713319e-05 1.2303123e-05
000110 b4 fd 49 37 e4 d1 42 37 ef 9e 44 37 bc cd 43 37
       1.20396035e-05 1.161217e-05 1.1719515e-05 1.1670807e-05
000120 67 34 5b 37 3a 6f 56 37 dd 28 58 37 08 60 55 37
       1.3065618e-05 1.2781291e-05 1.28841175e-05 1.2718148e-05
000130 c2 49 4b 37 37 53 48 37 ad 5f 42 37 85 e6 44 37
       1.2116916e-05 1.1940304e-05 1.1585577e-05 1.1736182e-05
000140 c4 69 43 37 d8 74 62 35 73 70 70 35 76 14 74 35
       1.1647531e-05 8.436159e-07 8.95706e-07 9.092686e-07
000150 fc f0 7b 35 21 ed 83 35 a0 39 79 35 9f bd 6b 35
       9.3855465e-07 9.829274e-07 9.2843584e-07 8.7820257e-07
000160 96 03 79 35 55 e8 6a 35 c0 4b 5d 35 0b 53 5e 35
       9.2764947e-07 8.750988e-07 8.2439146e-07 8.282229e-07
000170 df 01 6b 35 af 45 63 35 e7 6a 7f 35 b3 68 7c 35
       8.7547045e-07 8.466549e-07 9.5150466e-07 9.4029673e-07
000180 21 41 74 35 20 8f 67 35 70 50 69 35 1c 08 55 35
       9.099186e-07 8.626248e-07 8.6916316e-07 7.9360484e-07
000190 5f 9e 56 35 e6 05 5b 35 f1 a5 7a 35 9a 9c 86 35
       7.995167e-07 8.159244e-07 9.3373734e-07 1.0029355e-06
0001a0 60 46 75 35 7a b7 6c 35 55 54 54 35 a5 c7 55 35
       9.137202e-07 8.8183845e-07 7.9098874e-07 7.9639204e-07
0001b0 ed d2 4a 35 58 c2 4a 35 e7 03 4e 35 61 08 7f 35
       7.55578e-07 7.553367e-07 7.674666e-07 9.5007096e-07
0001c0 f4 0f 8a 35 49 95 7c 35 8d d3 61 35 52 3a 56 35
       1.0286444e-06 9.4094554e-07 8.412688e-07 7.980608e-07
0001d0 3e a1 4c 35 36 45 3f 35 24 9e 42 35 48 08 49 35
       7.623056e-07 7.125376e-07 7.2500757e-07 7.4890386e-07
0001e0 57 dc 73 35 dd b6 8e 35 20 b1 87 35 34 80 70 35
       9.084519e-07 1.0633045e-06 1.0109834e-06 8.959353e-07
0001f0 17 87 65 35 ff 98 4d 35 88 6e 3e 35 42 65 3c 35
       8.550573e-07 7.659109e-07 7.094136e-07 7.0182807e-07
000200 61 e2 4b 35 7d 32 54 35 ed a8 6b 35 a3 33 84 35
       7.595282e-07 7.9049624e-07 8.779014e-07 9.849795e-07
000210 e3 61 6c 35 13 c8 59 35 b7 7b 5c 35 2d 58 3c 35
       8.8059295e-07 8.1129946e-07 8.2136415e-07 7.016377e-07
000220 f4 05 45 35 aa 63 45 35 d0 b1 4f 35 8e af 5c 35
       7.339688e-07 7.353325e-07 7.737226e-07 8.221185e-07
000230 d8 58 72 35 c1 4e 73 35 0b da 70 35 29 b4 6c 35
       9.028131e-07 9.0639156e-07 8.972426e-07 8.817902e-07
000240 82 4b 3a 35 38 6e 43 35 41 f1 41 35 74 8d 44 35
       6.940028e-07 7.280355e-07 7.2249173e-07 7.322153e-07
000250 b0 d6 5b 35 f4 0e 64 35 55 73 6d 35 d2 42 82 35
       8.189627e-07 8.495838e-07 8.845721e-07 9.705202e-07
000260 8a 0a 85 35 fa 5a 45 35 b2 84 47 35 43 78 50 35
       9.91234e-07 7.352061e-07 7.4326374e-07 7.766104e-07
000270 9e 24 56 35 1e 31 5a 35 86 cb 64 35 3b 3f 84 35
       7.97745e-07 8.1282803e-07 8.5232784e-07 9.853169e-07
000280 d3 29 91 35 02 ff 9c 35 41 ac d2 39 9f 7a d7 39
       1.0815514e-06 1.1697123e-06 0.0004018266 0.00041099355
000290 7f 03 da 39 93 6d d4 39 94 4a cb 39 c9 2d c0 39
       0.00041582805 0.0004051743 0.00038774742 0.00036655206
0002a0 48 76 b6 39 27 e1 ae 39 9e e1 a9 39 bf b0 d9 39
       0.00034801872 0.00033355618 0.0003240229 0.0004152115
0002b0 37 51 e0 39 af 6a e1 39 35 a3 d8 39 ec fe cb 39
       0.0004278512 0.0004299483 0.0004132033 0.0003890911
0002c0 b8 1d be 39 eb eb b2 39 0d 84 ab 39 be 76 a7 39
       0.00036261766 0.00034126578 0.00032714047 0.00031941192
0002d0 02 ff de 39 a7 9a e6 39 c9 a0 e3 39 64 4a d8 39
       0.00042533135 0.00043984244 0.00043416608 0.00041254156
0002e0 51 a8 c8 39 e0 b6 b8 39 0c c8 ae 39 24 2d a9 39
       0.00038272378 0.00035231467 0.00033336913 0.00032267824
0002f0 9a 47 a6 39 e0 85 df 39 d1 53 e4 39 43 8c e0 39
       0.00031715335 0.0004263362 0.00043549997 0.00042829112
000300 5b a0 d1 39 06 0a c0 39 5a 4b b2 39 a5 6d aa 39
       0.0003998306 0.00036628562 0.00034006947 0.00032506618
000310 02 cb a7 39 a0 3a a6 39 2d c5 da 39 15 e0 dd 39
       0.00032003975 0.00031705666 0.00041727108 0.0004231936
000320 ec 32 d6 39 33 2f c6 39 69 c9 b5 39 31 87 ab 39
       0.000408552 0.0003780067 0.00034673073 0.00032716387
000330 5b 60 a8 39 19 79 a8 39 06 c9 a7 39 da 0a d2 39
       0.00032115247 0.00032133682 0.00032002496 0.00040062406
000340 d7 7a d0 39 31 35 c7 39 b5 b0 b9 39 ff f2 ac 39
       0.00039764374 0.00037995868 0.00035417607 0.00032987443
000350 ca c1 a7 39 71 19 a8 39 e5 71 a9 39 36 fb a8 39
       0.00031997106 0.00032062412 0.0003231905 0.00032230624
000360 a7 56 c5 39 6f e0 c1 39 a2 7e b9 39 bc 40 ae 39
       0.0003763933 0.00036979045 0.00035380299 0.00033236097
000370 e1 f6 a6 39 fa d6 a5 39 c7 ce a7 39 7b 16 aa 39
       0.00031845926 0.00031631422 0.00032006783 0.00032441676
000380 6d 4f a9 39 cb f5 b9 39 7e 29 b5 39 37 97 ae 39
       0.0003229337 0.0003546908 0.00034553924 0.0003330053
000390 bd 83 a7 39 07 87 a3 39 0e 50 a4 39 f1 de a6 39
       0.00031950875 0.00031190386 0.00031340163 0.00031828092
0003a0 e0 96 a8 39 df c1 a8 39 8f dc b0 39 e6 30 ad 39
       0.00032155868 0.00032187902 0.00033733665 0.00033033564
0003b0 44 f8 a7 39 81 3f a3 39 db 55 a1 39 97 1a a2 39
       0.00032037694 0.00031137097 0.0003077228 0.0003091886
0003c0 5f bf a4 39 de 69 a6 39 08 3c a6 39 2b 30 f1 38
       0.000314231 0.00031740865 0.00031706714 0.000115007475
0003d0 30 b6 dc 38 96 50 f6 38 02 0b fc 38 8e 25 f7 38
       0.000105243525 0.000117452044 0.00012018347 0.00011784873
0003e0 f6 4d e7 38 96 e1 e1 38 30 80 e5 38 1a 73 d7 38
       0.0001102946 0.00010770855 0.00010943448 0.00010273438
0003f0 1f 13 ec 38 62 87 e8 38 a2 fe ef 38 0e 0b 02 39
       0.000112569185 0.00011087839 0.00011443837 0.00012401884

exp_avg f4 [64]
000000 80 dd 85 bb 8d a8 ac b9 6c 1a 06 3d dc 7d 19 bb
       -0.0040852427 -0.00032931977 0.03274004 -0.0023420965
000010 3b 84 11 3c 37 d4 44 3b 0a 97 8b 39 51 5c f7 3a
       0.008881624 0.0030033716 0.0002662468 0.0018872117
000020 e9 7e 88 3b 33 54 f9 3a ee 13 80 3a 63 39 8e 39
       0.0041655195 0.0019022286 0.0009771565 0.00027127107
000030 a4 87 b1 ba ff 83 fb ba f2 63 9d ba 99 f5 e1 3a
       -0.0013544452 -0.0019189118 -0.0012007935 0.0017239332
000040 d5 85 54 3c b0 c0 c8 b9 9b 59 64 3c c5 5b 81 3a
       0.012971361 -0.00038290536 0.013937379 0.0009869268
000050 00 00 00 00 ed 44 01 3d aa 92 13 bc ec 61 93 bb
       0.0 0.031559873 -0.009007135 -0.004497757
000060 24 5d 2a 3a ef 9e fa 3a e5 86 c7 3c 2d 82 47 bb
       0.00064988644 0.0019120852 0.024356315 -0.003044258
000070 48 8e c3 3b 18 2a ff b7 ff ec ce ba 1f 2e 78 39
       0.005967889 -3.041797e-05 -0.0015787183 0.00023668304
000080 76 77 9a 3a a2 23 a8 ba 0b 6c 82 b9 10 51 48 3a
       0.001178487 -0.0012828002 -0.0002487603 0.0007641474
000090 8b e8 05 3b c6 08 c7 ba 43 18 31 bc d3 b1 c4 b8
       0.0020432796 -0.001518511 -0.010809007 -9.379131e-05
0000a0 b5 f3 36 3a 08 9f a2 bc 55 3b c1 3b 57 5c e7 bb
       0.0006979064 -0.019851223 0.0058969655 -0.0070605683
0000b0 1d 9e ed 39 d6 a0 e1 3c 59 38 9b 38 d1 e0 db 3c
       0.00045321966 0.027542513 7.4014715e-05 0.0268406
0000c0 01 fd 4c bc 8a f8 85 b9 b5 a9 8a bc 8c 85 06 38
       -0.012511493 -0.00025552913 -0.016926626 3.2072465e-05
0000d0 71 50 d8 ba 74 0e 93 3a db 02 38 ba fe 97 f3 b7
       -0.0016503466 0.0011219517 -0.00070194685 -2.9038634e-05
0000e0 35 de a4 3b 40 59 39 3c 74 71 ac ba 5a 56 9b b6
       0.005031372 0.011312783 -0.001315637 -4.6294126e-06
0000f0 8d 0a e5 ba 0b bd 9c b9 6c 30 61 39 34 5c e5 3b
       -0.0017474458 -0.00029895487 0.0002147571 0.006999517

exp_avg_sq f4 [64]
000000 b8 d1 f1 38 30 ca 90 37 4b 6d 57 3b 61 e1 ba 3a
       0.00011530839 1.7260289e-05 0.003287154 0.0014257842
000010 4b 76 a0 3b 16 88 97 3a 27 88 18 39 78 93 d1 38
       0.004896914 0.0011560943 0.0001454657 9.993365e-05
000020 f6 c4 06 3b 73 e7 dd 38 3c d9 4b 38 23 17 e9 38
       0.0020564175 0.00010581212 4.8601287e-05 0.00011114615
000030 cc 5b 12 38 90 df 3e 3a 3a 31 7d 3a 72 50 cb 3a
       3.4894605e-05 0.0007281238 0.00096585194 0.0015511645
000040 00 39 0e 3b 6a 54 53 36 09 bd 6c 3a 9d 34 3d 3a
       0.0021701455 3.1490586e-06 0.0009030854 0.0007217618
000050 00 00 00 00 21 9a 26 3c 65 47 4c 3b 97 ab 20 3a
       0.0 0.010168583 0.0031170484 0.00061290845
000060 51 73 1f 3b d3 0c 7e 38 82 91 a2 3b 48 00 31 39
       0.0024330209 6.0570263e-05 0.0049611935 0.0001688014
000070 bd d0 53 3b 06 60 91 3a 36 5a 2d 3b ae 9c 09 39
       0.0032320463 0.0011091239 0.0026451475 0.00013123706
000080 ac d9 28 3a 1c fe 91 39 f3 8e af 37 2a d1 97 39
       0.0006441127 0.0002784588 2.0928192e-05 0.00028956804
000090 06 14 bd 3a 88 29 60 38 ff c8 ab 3b ea ed 18 39
       0.0014425523 5.344444e-05 0.0052424665 0.0001458448
0000a0 13 53 04 38 1f 6b a7 3a c1 72 02 3a 73 c6 91 3b
       3.154862e-05 0.0012773013 0.0004976206 0.004448706
0000b0 7a 35 16 37 bb 8b dd 3c 48 7b b7 36 6a 80 8d 3b
       8.953148e-06 0.027044168 5.468177e-06 0.0043182867
0000c0 cb 02 83 3a f6 da c6 39 3a 3b be 3b e8 32 4c 3a
       0.0009995339 0.00037928642 0.0058054 0.0007789568
0000d0 fd 37 20 3a 1d a3 c1 38 f3 d6 ad 37 e2 dd 99 37
       0.00061118585 9.2333394e-05 2.07233e-05 1.8342344e-05
0000e0 29 87 8a 3a 67 6c 54 3b 5a 85 9b 38 f1 50 1e 32
       0.0010568845 0.0032413246 7.4158146e-05 9.215214e-09
0000f0 f8 a9 90 38 0f 30 04 37 b4 17 eb 39 01 38 8b 3a
       6.898114e-05 7.879003e-06 0.00044840353 0.0010621549
