logs/biosr_ccps_rcan_model-SRCNN_250305_lr0.0001_bs1_Ps256_Npatch128_N300/model_244.pth (torch, 695046 bytes, 15 tensors)

conv1.weight f4 [64, 1, 9, 9]
0	0x3da3ce9f	0.07998394
1	0xbcebbd0e	-0.028776672
2	0x3da9c6f9	0.08289904
3	0xbcbc4b54	-0.022985138
4	0x3d3bc373	0.04584069
5	0xbd202229	-0.039095078
6	0x3e097a4c	0.13425559
7	0xbc348be2	-0.011019679
8	0x3e526c74	0.20549184
9	0xbce3b987	-0.027798427
10	0xbdbd81d1	-0.09253276
11	0x3d44fbd0	0.04809171
12	0xbd4da855	-0.050209362
13	0x3cf9c04e	0.030487206
14	0x3d2e172e	0.042502575
15	0x3cf368ef	0.029713122
16	0x3d9d8853	0.076920174
17	0x3ddb115d	0.10696671
18	0x3dae12db	0.0849969
19	0x3d1b344b	0.037891667
20	0xbdc562ec	-0.096380085
21	0xbc9affdc	-0.018920831
22	0xbd544655	-0.051824886
23	0xbdc14d1f	-0.09438538
24	0xbd8d65df	-0.06904196
25	0xbd94e29d	-0.072697856
26	0x3d4d08fc	0.050057396
27	0xbdd2d7d7	-0.102950744
28	0xbd0cb40f	-0.034351405
29	0x3cbe2aba	0.023213733
30	0xbd9e390b	-0.07725724
31	0xbdce2e68	-0.10067445
32	0x3ab52571	0.0013820363
33	0xbd0000b0	-0.031250656
34	0xbd2d68ff	-0.04233646
35	0x3d98815f	0.074465506
36	0xbd9566a2	-0.07294966
37	0xbd801a8a	-0.06255062
38	0xbb78610c	-0.0037899641
39	0x3d334453	0.04376633
40	0xbd01e959	-0.03171668
41	0x3d92f062	0.07174756
42	0x3d5188a6	0.05115571
43	0x3d84a0b2	0.06475963
44	0x3cc70a3c	0.024296872
45	0xbd169042	-0.03675867
46	0xbdc87b88	-0.09789187
47	0xbab0b1e3	-0.0013480749
48	0xbdc0bebe	-0.09411381
49	0x3cd6f132	0.026238058
50	0x3cd6f775	0.026241044
51	0x3cb00e66	0.02149124
52	0x3d599593	0.05312116
53	0x3dffacbf	0.124841206
54	0xbd5ff01a	-0.054672338
55	0xbce58baf	-0.028020708
56	0xbc0bb808	-0.008527763
57	0x3d0661a3	0.032807957
58	0x3d9fe2c9	0.07806928
59	0x3d76fff9	0.06030271
60	0xbd3d7490	-0.04625374
61	0x3dd65d8a	0.1046706
62	0x3be0fe6d	0.0068662674
63	0x3d184fac	0.037185356
64	0x3d136c1b	0.03599177
65	0x3b02467d	0.001987844
66	0xbd50f1ad	-0.05101173
67	0xbd55304f	-0.052048024
68	0x3c2590bf	0.010105311
69	0xbd87cd15	-0.06630913
70	0xbcb4c3df	-0.022066055
71	0xbd890926	-0.06691198
72	0x3d2dbe21	0.04241765
73	0xbcc4167f	-0.023936508
74	0x3cb04af4	0.021520115
75	0x3d63aa4a	0.055582322
76	0xbd46847d	-0.048466194
77	0xbbff7274	-0.0077956263
78	0xbdaf2b24	-0.0855315
79	0xbbc4b34b	-0.0060028187
80	0xbd8e6219	-0.069523044
81	0xbd4311ed	-0.047624517
82	0xbb957fa5	-0.0045623356
83	0xbcedc48f	-0.02902439
84	0x3bef4f8d	0.0073031844
85	0x3d93a13c	0.072084874
86	0xbd022905	-0.0317774
87	0xbdfc1d41	-0.12310267
88	0x3d64e4c6	0.055882238
89	0xbc888659	-0.016665624
90	0x3c9d3809	0.019191759
91	0xbc8fe577	-0.017565472
92	0x3d6c0d5d	0.05762993
93	0xbdcf1a0c	-0.1011239
94	0x3d8d7720	0.06907487
95	0x3d971620	0.07377267
96	0x3d929543	0.07157376
97	0x3d0c779c	0.034293756
98	0x3db858ac	0.09001288
99	0x3d099604	0.03359033
100	0x3c9652b7	0.018349988
101	0xbcb4faa9	-0.02209218
102	0x3dae50d7	0.08511513
103	0x3d972ca9	0.07381565
104	0xbd49acc2	-0.04923702
105	0x3c49cbf0	0.012316689
106	0xbdc141da	-0.09436388
107	0xbcca02b1	-0.024659486
108	0x3ce0f50c	0.027460597
109	0xbc5d4f94	-0.013507742
110	0xbdf4d40f	-0.119545095
111	0x3dabcfcc	0.083892435
112	0x3cfadc6a	0.03062268
113	0xbdbb106e	-0.09133993
114	0xbdd61d7c	-0.104548424
115	0xbd43c114	-0.047791556
116	0xbdc03c57	-0.09386509
117	0xbd800c0e	-0.06252299
118	0xbd74a6fd	-0.059729565
119	0xbdcf5a58	-0.101246536
120	0x3d448339	0.047976706
121	0x3df2c0a8	0.118531525
122	0x3ad578b2	0.001628658
123	0xbd2e0992	-0.042489596
124	0x3daf2edf	0.08553862
125	0xbdd7228f	-0.105046384
126	0xbd0da7d6	-0.03458389
127	0xbdc09096	-0.094025776
128	0x3d079498	0.033100694
129	0xbdb20715	-0.08692757
130	0xbdbf39af	-0.09337174
131	0x3d34fa1d	0.04418384
132	0xbd8aa48c	-0.06769666
133	0xbdbf19de	-0.09331106
134	0x3b51da8c	0.0032021133
135	0xbd4fb5a4	-0.050710335
136	0x3d8ff1fb	0.07028576
137	0x3c026ee7	0.0079610115
138	0x3bdd0c57	0.006745856
139	0xbd29f009	-0.04148868
140	0x3d73e6b6	0.059546195
141	0x3d9277e1	0.07151771
142	0x3daca195	0.08429257
143	0x3c63d4fc	0.01390576
144	0xbdedc07b	-0.11608978
145	0x3c1910e2	0.009342404
146	0xbd933a9b	-0.071889125
147	0xbdbeb736	-0.093122885
148	0x3d93e3fb	0.07221218
149	0x3d2a9882	0.04164935
150	0x3d0e3393	0.034717154
151	0x3de257f2	0.110519305
152	0x3d0404b3	0.032231044
153	0xbc902c8f	-0.017599372
154	0xbcefd7b3	-0.029277658
155	0x3d4372e4	0.04771699
156	0x3c8a0085	0.01684595
157	0xbd835979	-0.0641355
158	0xbdc5898e	-0.09645377
159	0x3d8ca2f2	0.06867017
160	0x3d999b9d	0.07500384
161	0x3dfd5502	0.123697296
162	0x3d869b04	0.06572536
163	0x3dfd50d1	0.1236893
164	0xbd4dd3d4	-0.050250843
165	0x3d7c004d	0.061523724
166	0x3d15c3fc	0.03656386
167	0x3ce30628	0.027712896
168	0xbd9c4942	-0.0763116
169	0xbd875c3a	-0.06609388
170	0x3d3d29d6	0.046182476
171	0x3de4cdae	0.11172043
172	0x3d942a5f	0.07234644
173	0xbcfce812	-0.030872378
174	0x3df2986d	0.11845479
175	0x3d6821fe	0.056673042
176	0x3c9068bd	0.017628068
177	0x3ca8d7b1	0.020610662
178	0x3db38563	0.08765676
179	0x3d96b27e	0.073582634
180	0x3dabd305	0.08389858
181	0xbd54b74c	-0.051932618
182	0x3dbe8802	0.09303285
183	0x3dc9abe9	0.098472424
184	0xba0cc20b	-0.0005369491
185	0x3d75218b	0.059846442
186	0xbd935885	-0.07194618
187	0xbddd872c	-0.108167976
188	0xbdad38e3	-0.08458116
189	0x3df57506	0.11985211
190	0x3ddbce57	0.107327156
191	0x3cb06030	0.02153024
192	0x3dc500d5	0.09619299
193	0x3daaad9e	0.08333896
194	0xbd2b592e	-0.041833095
195	0x3cb9e3fd	0.022691721
196	0xbd7dae05	-0.061933536
197	0xbe030989	-0.12796606
198	0x3de06ea1	0.10958601
199	0xbd24be93	-0.04022081
200	0xbcff6ef8	-0.031180844
201	0x3ca90bd0	0.020635515
202	0x3d8af138	0.0678429
203	0x3da28e95	0.079373516
204	0xbcf4678d	-0.029834533
205	0x3ba2b902	0.0049659023
206	0xbbb06155	-0.0053826966
207	0xbd158e75	-0.03651281
208	0xbc52e67b	-0.012872334
209	0x3cae628d	0.021287227
210	0xbda144f0	-0.07874477
211	0x3d4d3fa1	0.05010951
212	0xbdde4ba6	-0.108542725
213	0x3ccd8122	0.02508599
214	0xbde301dc	-0.11084339
215	0xbe0bc473	-0.13649158
216	0x3cf358fa	0.029705513
217	0x3cc1b292	0.02364472
218	0xbd2f55ff	-0.04280662
219	0x3d826be4	0.06368235
220	0x3db5cbb9	0.08876748
221	0x3c2a8d35	0.010409643
222	0xbddbd3c9	-0.10733754
223	0xbdeb7622	-0.114971414
224	0xbe247b7d	-0.16062732
225	0x3c1dfa83	0.009642246
226	0x3dd46256	0.103703186
227	0x3c4d2241	0.012520374
228	0xbdc843ea	-0.097785786
229	0x3d8ed902	0.06974985
230	0x3ce958af	0.02848467
231	0xbda37fb9	-0.079833455
232	0xbe1b4c14	-0.1516574
233	0x3c9db120	0.019249499
234	0x3de7e3dc	0.113227576
235	0x3ca7431a	0.020417739
236	0xbd13a54d	-0.036046315
237	0xbcd614a1	-0.026132884
238	0xbd379923	-0.044823777
239	0xbdec8d9e	-0.11550449
240	0x3bd7c59c	0.006584836
241	0xbdc27849	-0.09495599
242	0xbe057469	-0.13032688
243	0x3dd9603c	0.106140584
244	0xbdaef1ca	-0.08542211
245	0x3dc88c84	0.09792426
246	0x3df33a90	0.11876404
247	0x3d995bb1	0.07488192
248	0xbd0c31f1	-0.034227315
249	0xbd39cb35	-0.04535981
250	0x3cc8d5d4	0.024516024
251	0xbd9b14ce	-0.075723276
252	0x3d4ae566	0.049535178
253	0xbb95bfb7	-0.0045699733
254	0x3c0edc35	0.008719494
255	0x3dea8911	0.114519246

conv1.bias f4 [64]
0	0x3cdea083	0.027176147
1	0x3d51ab91	0.05118901
2	0x3c8c48ea	0.017124612
3	0x3bb3f321	0.0054916297
4	0xbdd13951	-0.1021601
5	0x3d9c63eb	0.07636245
6	0x3dbcec59	0.09224767
7	0xbd975b27	-0.07390433
8	0xbd1e1d87	-0.03860238
9	0x3cf8cb4b	0.030370375
10	0xbd19aa8e	-0.03751617
11	0xbc8b64f8	-0.01701592
12	0xbdd454ae	-0.10367714
13	0xbc882ce5	-0.01662297
14	0xbda52166	-0.08063011
15	0xbd85d809	-0.06535346
16	0x3dbc6f65	0.09200934
17	0xbcc5425e	-0.024079498
18	0xbb364eef	-0.0027818044
19	0xbca7921f	-0.020455418
20	0xbd135a29	-0.035974655
21	0xbdd31ad9	-0.10307855
22	0xbdf18a90	-0.11794007
23	0xbc951051	-0.018196257
24	0xbc97455a	-0.018465687
25	0x3c962e14	0.018332519
26	0xbcd7805b	-0.026306322
27	0xbda534fe	-0.08066748
28	0xbd99a918	-0.07502955
29	0xbd7ce156	-0.061738335
30	0xbd00be82	-0.031431682
31	0xbca2c4b4	-0.019869186
32	0xbda40ed4	-0.08010641
33	0xbdae6444	-0.08515218
34	0x3d8afca9	0.06786472
35	0xbae911f4	-0.001778184
36	0xbd944920	-0.0724051
37	0x3d45d4ac	0.048298523
38	0xbccb721f	-0.02483469
39	0x3e2269f9	0.15860738
40	0x3d420d98	0.047376245
41	0x3d786bb1	0.060649578
42	0xbcabd448	-0.020975247
43	0xbca6d4be	-0.020365115
44	0x3d0670d5	0.03282245
45	0xbdf933e3	-0.121681
46	0xbc469ca6	-0.012122309
47	0xbd0d44b1	-0.034489337
48	0x3cb35723	0.021892136
49	0xbd053931	-0.032525245
50	0x3ddb76e2	0.107160345
51	0xbd807037	-0.06271403
52	0x3ba938a5	0.0051642233
53	0xbb3a1835	-0.0028395776
54	0x3d8b636b	0.06806072
55	0xbd72d8c2	-0.059288748
56	0x3d13d8a6	0.036095284
57	0xbda68ad1	-0.08131946
58	0x3c1b7423	0.009488138
59	0x3c33af1d	0.010967043
60	0xbc7e55b5	-0.015523364
61	0x39cc0f02	0.00038921094
62	0x3d5dd55d	0.054158557
63	0xbdab94d0	-0.08377993

conv2.weight f4 [32, 64, 5, 5]
0	0xbcc19ded	-0.023634875
1	0xbd1cb2b7	-0.038256373
2	0x3c7eb76f	0.015546664
3	0xbc1ddc1a	-0.009634996
4	0x3d002797	0.031287756
5	0x3b980df2	0.0046403343
6	0xbc3b9b5d	-0.011450616
7	0x3cd125ed	0.02553078
8	0xbc09a515	-0.008401175
9	0x3c21e7a0	0.009881884
10	0xbb744107	-0.0037270205
11	0xbbbecfd9	-0.005823117
12	0xbbba69e8	-0.0056888945
13	0xbc9de00c	-0.019271873
14	0x3afd8785	0.0019342756
15	0xbd338541	-0.043828253
16	0xbcabe8ba	-0.020984996
17	0xbd0cb86f	-0.034355577
18	0xbd0ee7d0	-0.034889042
19	0xb9f25e51	-0.00046228108
20	0xb982bfaf	-0.00024938348
21	0x3c834b24	0.01602704
22	0x3c9c5315	0.019082585
23	0x3d1727e6	0.036903284
24	0x3d4fda19	0.050745104
25	0xbde91a20	-0.11381936
26	0xbc86c2c1	-0.016450288
27	0x3d5ec6c8	0.05438879
28	0xb923f3bb	-0.00015635688
29	0xbce699fa	-0.028149594
30	0x3b09bfae	0.002101879
31	0xbd0df051	-0.03465301
32	0x3d6c6cdf	0.057721015
33	0x3d17419a	0.036927797
34	0x3950deab	0.00019919376
35	0xbd910ea3	-0.0708287
36	0xbdaffd2d	-0.08593211
37	0xbc14fbcc	-0.009093236
38	0xbccce769	-0.025012689
39	0xbc28b57f	-0.010297178
40	0xbdc0f7e6	-0.09422283
41	0xbdb1af74	-0.08676043
42	0xbcd79b76	-0.026319247
43	0xbc56ef7f	-0.013118624
44	0xbc55f84e	-0.013059689
45	0xbd642147	-0.0556958
46	0xbc9561fb	-0.018235197
47	0x3b905628	0.004404802
48	0x3bb2c447	0.005455527
49	0xbcc94c9a	-0.02457266
50	0x3c8a3d6c	0.016874991
51	0x3c0b43c2	0.008500041
52	0x3cbb7d6e	0.022886958
53	0x3cf13090	0.029442102
54	0x3c76cf4a	0.01506407
55	0xbced998e	-0.029003885
56	0xbc594a98	-0.013262413
57	0xbc808402	-0.015687946
58	0xbc5506cc	-0.013002109
59	0x3c347042	0.0110130925
60	0xbd00d4a2	-0.031452782
61	0xba9c2aff	-0.0011914669
62	0xbc03fb20	-0.008055478
63	0x3c27a208	0.010231502
64	0x3c40f0b1	0.011776135
65	0xbd38d405	-0.045124073
66	0xbbad08af	-0.005280576
67	0xbd0d9be6	-0.034572504
68	0x3d04f2a3	0.03245796
69	0x3d7b3ddd	0.061338294
70	0xbba5cba6	-0.005059677
71	0x3c30cfe3	0.010791752
72	0x3c99b3a6	0.01876242
73	0x3d519ecc	0.05117683
74	0x3e2727ec	0.16323823
75	0x3cb1301b	0.021629384
76	0xbce2af1a	-0.027671386
77	0xbbc23829	-0.005927105
78	0xbbc7b922	-0.0060950676
79	0x3cf6f38b	0.030145427
80	0x3c2bb4e2	0.010480138
81	0x3bae212d	0.0053140135
82	0xbd1a315f	-0.03764474
83	0xbc1ab1d8	-0.009441815
84	0x3c87aace	0.016560938
85	0xbc4d13dc	-0.012516942
86	0x3bd1aee9	0.0063990247
87	0x3b329034	0.0027246596
88	0x3cc0a3eb	0.023515662
89	0x3c835257	0.016030474
90	0xbc09e450	-0.00841625
91	0xbd138259	-0.03601298
92	0xbc6a9756	-0.014318308
93	0xbbddbf85	-0.0067672157
94	0xbcd5da31	-0.026105018
95	0xbd078ae2	-0.033091433
96	0xbd40bc71	-0.04705471
97	0xbd48217e	-0.048860066
98	0xbdf0d843	-0.11759999
99	0xbe292aa7	-0.16520177
100	0x3b923a2f	0.0044625024
101	0x3c365d58	0.011130653
102	0x3bfb4e39	0.007669237
103	0xbc9fea4a	-0.019520897
104	0xbd43bf59	-0.047789905
105	0x3c934530	0.017977327
106	0x3b9653fe	0.0045876494
107	0xbba18c49	-0.0049300534
108	0x3bef269e	0.0072983047
109	0xbd4de1d9	-0.050264213
110	0x3d093910	0.033501685
111	0x3cc3b71d	0.023891026
112	0x3b413094	0.0029478418
113	0xbaf9b435	-0.0019050898
114	0xbd0824fa	-0.03323839
115	0xba15afe4	-0.00057101087
116	0x3cb5d92a	0.022198278
117	0xbd409546	-0.04701736
118	0xbd04c93f	-0.032418486
119	0xbcca8b4f	-0.02472463
120	0x3d87de6a	0.06634219
121	0x3c38f73f	0.011289417
122	0x3d24de26	0.04025092
123	0x3d3a46c8	0.04547766
124	0x3d6b89ff	0.05750465
125	0x3bacf8c7	0.00527868
126	0x3c573ae6	0.013136601
127	0x3add91ee	0.0016904452
128	0x3c995d0d	0.018721128
129	0xbc9760a0	-0.018478692
130	0x3af87fa9	0.0018958944
131	0x3c068c6d	0.008212191
132	0xbb7cdf76	-0.0038585342
133	0x3bf3ecdb	0.007444007
134	0xbd0129d4	-0.03153403
135	0xbcee306b	-0.029075822
136	0xbcda578d	-0.026653076
137	0xbce4cc1c	-0.027929358
138	0xbd0c723b	-0.034288626
139	0xbcfc2dad	-0.030783499
140	0x3b046d28	0.0020206664
141	0xbc150927	-0.00909642
142	0x3af24301	0.0018483103
143	0x3c7514cb	0.014958571
144	0xbac97d66	-0.0015372455
145	0x3c24504f	0.010028913
146	0x3cf44a3e	0.029820558
147	0x3c91cddb	0.017798355
148	0x3ce09171	0.027413102
149	0x3c73f620	0.014890224
150	0x3b66a647	0.0035194324
151	0x3d05b1a3	0.03264011
152	0x3d5a4962	0.05329264
153	0xbcd82aaa	-0.026387531
154	0xbd7c35e7	-0.061574843
155	0xbb957ed0	-0.0045622364
156	0xbbdcadd7	-0.0067345905
157	0xbcd55f98	-0.02604656
158	0xbd91f8af	-0.07127511
159	0xbd367fba	-0.044555403
160	0x3c0c201b	0.008552576
161	0xbc1b4763	-0.009477469
162	0xbc28276d	-0.010263306
163	0xbd7c9f91	-0.061675612
164	0xbb90a1ef	-0.0044138352
165	0x3d578179	0.05261371
166	0x3c95b551	0.018274935
167	0xbd5698bb	-0.05239175
168	0x3b94c1c3	0.0045396998
169	0x3baf10c6	0.0053425757
170	0x3d2a3d1b	0.04156218
171	0x3d2414b4	0.040058807
172	0xbd339131	-0.043839637
173	0x3c8151d1	0.015786083
174	0x3d90fb7e	0.07079218
175	0xbcb9f89d	-0.022701556
176	0xbd021386	-0.0317569
177	0x3c686cce	0.014186097
178	0xbc95413a	-0.018219579
179	0xbcf77e56	-0.030211609
180	0xbd061df5	-0.032743413
181	0x3c80e8d0	0.015736014
182	0x3cc63026	0.02419288
183	0xbcabecc1	-0.020986916
184	0x3cdb9553	0.026804602
185	0x3b20feae	0.0024565863
186	0x3d178489	0.03699163
187	0x3c8f96cc	0.01752796
188	0xbb878683	-0.004135908
189	0xbc0d72ea	-0.008633355
190	0x3cba4f2e	0.022742834
191	0xb8fbc909	-0.000120060584
192	0xbc444216	-0.011978647
193	0x3c8b1606	0.016978275
194	0x3d1ea7f0	0.038734376
195	0x3d25354a	0.040334024
196	0x3c81213b	0.015762916
197	0x3ca6d78b	0.02036645
198	0x3d82bb77	0.06383412
199	0x3deaa336	0.11456911
200	0x3d2fd1ee	0.042924814
201	0xbd574855	-0.052559216
202	0xbcf9adb0	-0.030478328
203	0xbc866c69	-0.016409116
204	0xbd3bc69c	-0.045843706
205	0xbc1728e4	-0.009226058
206	0xbcf2f41c	-0.029657416
207	0xbd1a9cab	-0.037747066
208	0xbb1636e2	-0.0022920896
209	0x3ca6be95	0.020354548
210	0xbdcb7d11	-0.09935964
211	0xbcc7c3e2	-0.024385396
212	0xbd96d43d	-0.073647
213	0xbd5444cb	-0.05182342
214	0x3dcdf97e	0.100573525
215	0xbe1d1003	-0.15338139
216	0xbdf37f36	-0.11889498
217	0xbd9b1c5e	-0.0757377
218	0xbd470f02	-0.048598297
219	0x3db0351c	0.0860388
220	0xbd976b95	-0.073935665
221	0xbda224b5	-0.079171576
222	0xbd552b11	-0.052043024
223	0x3d60e0e8	0.054901987
224	0x3e19835c	0.14991516
225	0x3ca3fa1b	0.02001672
226	0xbc304eba	-0.010760957
227	0xbc1d8d1b	-0.009616162
228	0xbd388ab2	-0.045054145
229	0xbd0fc43a	-0.035099246
230	0x3d1bdb48	0.03805092
231	0x3b157895	0.0022807468
232	0xbc96a215	-0.018387834
233	0xbd83878d	-0.06422339
234	0x3d4be8e7	0.04978266
235	0xbdbeb81a	-0.09312458
236	0xbd5895f1	-0.05287737
237	0xbd94c8b3	-0.07264843
238	0xbd3ee191	-0.046601836
239	0x3dc08ded	0.0940207
240	0xbe031fa6	-0.12805042
241	0xbdb80670	-0.08985603
242	0xbb0ec5b2	-0.0021785316
243	0x3dcd4a56	0.10023944
244	0x3dabc961	0.08388019
245	0xbdf3c02d	-0.11901889
246	0xbce44cf1	-0.02786872
247	0xbc56da5d	-0.013113585
248	0x3e9fd4fb	0.3121718
249	0x3cb12cb8	0.021627769
250	0x3d845123	0.06460788
251	0xbcb92232	-0.022599313
252	0xbd51eb6b	-0.051249903
253	0xbd980b12	-0.074239865
254	0xbdf683d4	-0.12036863
255	0x3d62fab9	0.05541489

conv2.bias f4 [32]
0	0x3bb47e61	0.0055082296
1	0xbd0aa878	-0.03385207
2	0x3c47e0ee	0.0121996235
3	0xbcb93f96	-0.022613328
4	0x3c7792d4	0.01511069
5	0xbc89a98f	-0.016804485
6	0xbcb86491	-0.022508891
7	0x3c970e61	0.018439474
8	0xbc4c58ed	-0.012472373
9	0xbc9c05fc	-0.019045822
10	0xbccd4bdd	-0.025060588
11	0x3c686e46	0.0141864475
12	0xbc424b34	-0.01185875
13	0xbc7bfdf8	-0.015380375
14	0x3c854bd6	0.016271513
15	0xbceeefbf	-0.029167054
16	0xbcd5aa30	-0.026082128
17	0xbc664384	-0.014054183
18	0x3ad26d27	0.0016054258
19	0xbd6c9096	-0.057755075
20	0x3d4e0be0	0.050304294
21	0xbc122d90	-0.008921996
22	0xbc3092d0	-0.01077719
23	0x3b880ea3	0.0041521355
24	0xbc92fe62	-0.017943565
25	0xbc27049f	-0.010193973
26	0xbc9b221d	-0.018937165
27	0x3ca54b52	0.020177517
28	0xbcde5fbd	-0.027145261
29	0x3b7c6bd1	0.0038516412
30	0x3ca7c4af	0.020479528
31	0xbcd98213	-0.026551282

conv3.weight f4 [1, 32, 5, 5]
0	0xbd50dfe5	-0.050994772
1	0xbc9eacf9	-0.01936959
2	0xbcce255f	-0.025164304
3	0xbd0a0d38	-0.033704013
4	0x3b06e2aa	0.002058188
5	0x3b8910f4	0.004182929
6	0xbcf1a745	-0.029498706
7	0xbd5a9db6	-0.05337306
8	0xbc58482c	-0.013200801
9	0x3c78a9a5	0.015177165
10	0x3c9c3fbc	0.01907336
11	0xbd389892	-0.045067377
12	0xbd291a06	-0.041284584
13	0xbb0fc436	-0.002193702
14	0x3c135722	0.008992942
15	0xbbb29c84	-0.005450787
16	0xbcc82426	-0.0244313
17	0xbcf0031c	-0.029298358
18	0xbc7fda6e	-0.015616043
19	0x3c8b5fe9	0.017013507
20	0x3d947c2a	0.07250245
21	0x3d696477	0.056980576
22	0x3d4ac1c1	0.049501184
23	0x3d2687a3	0.040656697
24	0x3dfb09ce	0.122577295
25	0xbd277fdc	-0.04089342
26	0xbce3117a	-0.027718294
27	0xbd3893a5	-0.04506268
28	0xbc245a1e	-0.010031251
29	0xbb741674	-0.0037244828
30	0xbd28fbe3	-0.041255843
31	0xbd5cc742	-0.053900965
32	0xbcc875ca	-0.024470229
33	0xbc6d570f	-0.014486088
34	0xbd04ede5	-0.032453436
35	0xbd079ec6	-0.033110403
36	0xbc70aa7d	-0.014689085
37	0xbd287ddb	-0.04113565
38	0xbcda14b9	-0.02662121
39	0xbc65185f	-0.013982861
40	0xbd264ace	-0.040598683
41	0x3c36ca54	0.011156637
42	0xbd204a1e	-0.039133184
43	0xbc512c9f	-0.012766986
44	0xbcb9e8c7	-0.022694005
45	0xbbeccfeb	-0.007226934
46	0xbd6d7637	-0.057974067
47	0xbc9360d9	-0.017990516
48	0xbce69739	-0.02814828
49	0xbb0b1a57	-0.0021225417
50	0x3d1574c6	0.036488317
51	0xbc73ce22	-0.014880689
52	0x3bd3ed8e	0.0064675277
53	0x3d079d55	0.033109028
54	0x3d0cd75e	0.034385078
55	0xbc0cf635	-0.008603622
56	0x3c8d785a	0.017269302
57	0xbca5857c	-0.020205252
58	0xbc649196	-0.013950726
59	0xbcd93625	-0.026515076
60	0x3c550d2b	0.013003628
61	0xbcecbb3d	-0.028897876
62	0xbc84e3db	-0.016221931
63	0xbc6d9ee1	-0.014503212
64	0x3b9a68b4	0.0047121886
65	0x3baee449	0.0053372723
66	0xbbde2b25	-0.0067800456
67	0xbcdf32c4	-0.027245887
68	0xbba1c8d7	-0.004937272
69	0x3c8e03cb	0.017335793
70	0x3c4ecf1d	0.012622622
71	0xbc8ca6f3	-0.017169451
72	0xbbb54c96	-0.0055328114
73	0xbd033fd6	-0.0320433
74	0x3c9bab2c	0.01900252
75	0xbd008782	-0.03137923
76	0xbcb52d73	-0.022116398
77	0xbd5d4cfc	-0.054028496
78	0xbd4b21af	-0.04959267
79	0xbcd1d3ef	-0.025613753
80	0xbc260228	-0.01013235
81	0x3cbb7fb4	0.022888042
82	0x3caaad7a	0.020834673
83	0xbc493c68	-0.012282468
84	0x3ceb7613	0.028742826
85	0xbb896655	-0.004193107
86	0xbc96f688	-0.018428102
87	0x3c8443d0	0.016145617
88	0xbba0a8ea	-0.0049029486
89	0x3d05f79b	0.032706838
90	0x3c3b7e46	0.01144368
91	0x3c45ef31	0.012080953
92	0xbcaf49d8	-0.021397516
93	0xbbf61188	-0.007509414
94	0x3d202c56	0.039104782
95	0x3d4b016c	0.049561903
96	0x3cd7e32c	0.026353441
97	0x3bec6ee0	0.007215366
98	0x3d1d8257	0.03845438
99	0x3daabc1b	0.083366595
100	0xbd9e390d	-0.07725725
101	0xbd1fbeb3	-0.039000224
102	0xbcc1eb0e	-0.023671653
103	0xbc504c53	-0.01271351
104	0xbd8c9852	-0.0686499
105	0xbb6967e2	-0.0035614897
106	0xbb9a9607	-0.0047175917
107	0x3d1c8433	0.038212012
108	0xbca1fbd7	-0.019773407
109	0xbc9775e8	-0.01848884
110	0xbce3d64a	-0.027812142
111	0xbb873db6	-0.0041272296
112	0x3c8b3e32	0.01699743
113	0xbb06d7a6	-0.0020575314
114	0x3c426fe0	0.011867493
115	0xbcc3e061	-0.023910703
116	0x3c9e33fb	0.019311896
117	0xbc138a77	-0.009005181
118	0xbc56c367	-0.013108111
119	0x3bf50852	0.0074777985
120	0xbc6c3216	-0.014416238
121	0x3d0e60f3	0.034760427
122	0x3cf31b8e	0.029676225
123	0x3b962f57	0.00458328
124	0x3c3ab626	0.011395967
125	0xbde5e939	-0.11226124
126	0xbda6f77b	-0.08152672
127	0xbd36aea1	-0.044600133
128	0xbd6bae8b	-0.057539504
129	0xbd862d2d	-0.06551585
130	0xbd0ea414	-0.034824446
131	0xbd037e3c	-0.03210281
132	0xbd082257	-0.033235874
133	0xbd054826	-0.03253951
134	0xbd05a2fd	-0.03262614
135	0xbdaa3330	-0.083105445
136	0xbcabe140	-0.020981431
137	0xbd71a0a4	-0.05899109
138	0x3b0d70ca	0.002158212
139	0xbd8e677e	-0.06953333
140	0xbd66424d	-0.056215573
141	0xbbf777b0	-0.0075521097
142	0xbd0d1af5	-0.034449536
143	0xbd0ccc8d	-0.034374762
144	0xbc80a35a	-0.015702892
145	0xbda2f6fc	-0.07957265
146	0xbd5b0415	-0.05347069
147	0xbd4066d0	-0.04697305
148	0xbc6240f7	-0.013809434
149	0xbd1edc2a	-0.038784184
150	0x3d2a5d4a	0.041592874
151	0xbbf34705	-0.0074242377
152	0xbbcbe36e	-0.00622218
153	0x3d176329	0.0369598
154	0x3cf4196a	0.029797275
155	0xbc1f0442	-0.009705605
156	0xbb3b5ece	-0.0028590444
157	0xbc43c53e	-0.011948882
158	0x3ad0d83f	0.0015933587
159	0x3d06b62a	0.03288857
160	0xbceb55eb	-0.028727492
161	0x3be48ea0	0.00697501
162	0xbb4d9776	-0.0031370795
163	0xbbf8e4c0	-0.0075956285
164	0x3c25adfd	0.010112283
165	0x3ce11dd3	0.027480042
166	0xbc945d4d	-0.018110896
167	0xbc0a20a2	-0.008430632
168	0x3b87d50a	0.0041452693
169	0x3c2bf0bb	0.010494406
170	0x3c82b3da	0.0159549
171	0x3cef3728	0.029201105
172	0x3c6ef57e	0.014584897
173	0x3cc87753	0.02447096
174	0x3be8fc4e	0.007110155
175	0x3d9ac650	0.07557356
176	0x3d8f4bc8	0.06996876
177	0x3cb4dddf	0.022078453
178	0x3c040353	0.008057433
179	0x3d287413	0.041126322
180	0x3da607fb	0.08106991
181	0x3ca749c5	0.020420918
182	0x3cbc234b	0.022966048
183	0x3c8c16f3	0.017100787
184	0x3d0003a5	0.031253476
185	0x3d8111c8	0.0630222
186	0xbc1a2cd4	-0.009410102
187	0x3d16b34e	0.036792092
188	0xbc2d42d2	-0.010575013
189	0xbb421478	-0.002961425
190	0x3d03b321	0.032153253
191	0x3d011e0d	0.0315228
192	0x3d06dfb5	0.032928187
193	0x3b65e557	0.0035079324
194	0x3c4d97f6	0.012548437
195	0x3ccdbd37	0.025114639
196	0x3cb917dc	0.022594385
197	0x3c9de8f1	0.019276114
198	0x3baa442f	0.0051961164
199	0x3d2fd0b8	0.04292366
200	0x3d39aba4	0.045329705
201	0x3d2cab01	0.04215527
202	0x3d457671	0.048208658
203	0x3d135e27	0.035978463
204	0x3d979d0d	0.07403002
205	0xba582e9b	-0.0008246691
206	0x3d210d62	0.039319403
207	0x3b2fd679	0.0026830717
208	0x3cc887c9	0.02447881
209	0x3d6a4536	0.05719491
210	0x3c98778c	0.018611692
211	0x3cc7d092	0.024391446
212	0x3d2e982a	0.042625584
213	0x3bbf04ac	0.0058294144
214	0x3ca62218	0.020279929
215	0x3cb43eaa	0.022002537
216	0x3c3953cf	0.011311485
217	0x3cdbe6c4	0.026843436
218	0x3ca73bdd	0.020414287
219	0x3c084368	0.008316852
220	0x3cef0df5	0.02918146
221	0x3c57349d	0.013135103
222	0x3cf90a35	0.030400375
223	0xbc6d549b	-0.014485504
224	0x3ccaf4db	0.02477496
225	0x3d3adc10	0.045620024
226	0x3cfc06f6	0.030765038
227	0x3cdd6f80	0.027030706
228	0x3d54b449	0.051929746
229	0x3d276480	0.04086733
230	0x3d38f594	0.045156077
231	0x3cde9e6d	0.027175153
232	0x3c39c3b6	0.011338165
233	0x3cc70f6e	0.02429935
234	0x3d23c282	0.03998042
235	0x3b1cac50	0.0023906417
236	0x3af557ba	0.0018718161
237	0x3c9c7487	0.019098533
238	0x3d16d677	0.036825623
239	0x3cdd996b	0.027050694
240	0x3d194280	0.037416935
241	0x3d37642c	0.044773266
242	0x3ce1417f	0.027497051
243	0x3bf5e70c	0.0075043496
244	0x3d3cbb9b	0.046077352
245	0x3d5f7157	0.05455145
246	0x3d6b1dd3	0.05740149
247	0x3d2f7ea0	0.04284537
248	0x3d28219a	0.04104767
249	0x3d9a4b05	0.0753384
250	0x3ce5e76a	0.028064448
251	0xbb9f176f	-0.0048550884
252	0x3c7c2117	0.015388749
253	0xbb738d32	-0.0037163016
254	0x3d2c3b89	0.042048965
255	0x3ae5cde9	0.001753268

exp_avg f4 [64, 1, 9, 9]
0	0xb951127f	-0.00019938684
1	0xb92501b7	-0.00015736265
2	0xb78413f1	-1.5744912e-05
3	0x392a733e	0.00016255394
4	0x39904b00	0.000275217
5	0x39a1fe97	0.00030897997
6	0x3992e676	0.00028018997
7	0x397ca9ba	0.00024095821
8	0x3910da24	0.00013814174
9	0xb95e038e	-0.00021172894
10	0xb90c60f7	-0.00013387563
11	0x37c3a4c9	2.3322546e-05
12	0x397f152c	0.00024326582
13	0x39c6b862	0.0003790288
14	0x39dd5581	0.0004221611
15	0x39d5bddd	0.00040767985
16	0x39a90a1d	0.00032241727
17	0x3963749c	0.00021691847
18	0xb96fa428	-0.00022853969
19	0xb931fd02	-0.00016974288
20	0x38511a8c	4.9854207e-05
21	0x3999b1bd	0.0002931486
22	0x3a01d436	0.00049525814
23	0x3a18f108	0.00058342563
24	0x3a0e4097	0.0005426495
25	0x39ddc8fb	0.00042302147
26	0x3993b86c	0.0002817543
27	0xb93dbc21	-0.00018094528
28	0xb91fe6fd	-0.00015249471
29	0x3700c445	7.675092e-06
30	0x39a85db8	0.00032113283
31	0x3a10b781	0.0005520508
32	0x3a332a25	0.0006834588
33	0x3a2a3802	0.0006493331
34	0x3a034aed	0.0005008418
35	0x39a5e106	0.00031638908
36	0xb92352da	-0.00015575756
37	0xb9330ae0	-0.00017074822
38	0xb70b99e0	-8.320872e-06
39	0x398a2975	0.000263523
40	0x3a178f71	0.00057815673
41	0x3a479def	0.00076147815
42	0x3a3dae07	0.000723571
43	0x3a10b581	0.000552021
44	0x39c6c5b6	0.0003791281
45	0xb9045f24	-0.00012623944
46	0xb91d9c08	-0.00015030813
47	0xb8a3da7b	-7.813141e-05
48	0x394bccef	0.00019435932
49	0x3a073c67	0.0005158842
50	0x3a438bd6	0.0007459497
51	0x3a3f6161	0.00073005824
52	0x3a188a99	0.00058189925
53	0x39c00f85	0.00036632657
54	0xb8bba46a	-8.9474794e-05
55	0xb9433a28	-0.00018618314
56	0xb9315ba3	-0.00016914173
57	0x3722b834	9.698841e-06
58	0x399e0d4c	0.00030146015
59	0x3a0a0f7c	0.00052665896
60	0x3a1cd899	0.00059832033
61	0x39f1c2a5	0.00046112124
62	0x39b0f81c	0.00033754192
63	0xb88155a9	-6.167155e-05
64	0xb93e0387	-0.00018121126
65	0xb98b036d	-0.00026514698
66	0xb9396271	-0.00017679647
67	0x37f024ac	2.8627306e-05
68	0x3975d3fa	0.00023443988
69	0x39a3c1d0	0.00031234184
70	0x3998ab99	0.0002911955
71	0x397c894d	0.00024083741
72	0xb857dbde	-5.146476e-05
73	0xb94a4f94	-0.00019293866
74	0xb9b7120d	-0.0003491793
75	0xb9c00163	-0.00036622127
76	0xb984b7d1	-0.00025313956
77	0xb8f20f22	-0.00011542278
78	0x37480c0d	1.1923735e-05
79	0x38cd7cfb	9.798441e-05
80	0x3900f053	0.00012296559
81	0x39bed42b	0.00036397701
82	0x3a12a113	0.000559346
83	0x3a424c59	0.00074118894
84	0x3a731180	0.0009272322
85	0x3a82487c	0.0009939815
86	0x3a58b5db	0.00082668447
87	0x3a2e209a	0.0006642431
88	0x3a1c44c9	0.00059611775
89	0x39e139ef	0.00042958508
90	0x39ff2baf	0.00048669937
91	0x3a2f42d9	0.00066856813
92	0x3a82b50b	0.0009972168
93	0x3a8e6ff5	0.0010867106
94	0x3aa5dfb7	0.0012655173
95	0x3a8aecc1	0.0010599123
96	0x3a5d94a5	0.0008452631
97	0x3a279953	0.00063933915
98	0x3a0a96c5	0.00052867486
99	0x3a1451f0	0.00056579616
100	0x3a5a9df0	0.00083395746
101	0x3a9117f0	0.0011069756
102	0x3abc03d3	0.0014344401
103	0x3abbbf2c	0.0014323941
104	0x3a929fa4	0.0011186493
105	0x3a683f68	0.0008859546
106	0x3a19c356	0.0005865594
107	0x39f1992f	0.00046081233
108	0x3a1f4931	0.0006076275
109	0x3a588223	0.0008259138
110	0x3a8e109b	0.0010838689
111	0x3abcde19	0.0014409452
112	0x3ab970d3	0.0014148004
113	0x3a8e0353	0.0010834731
114	0x3a5469ca	0.0008102922
115	0x3a1efc3f	0.0006064809
116	0x39d0c1d2	0.0003981726
117	0x3a192fbe	0.0005843601
118	0x3a4efd4f	0.0007896022
119	0x3a836c9c	0.0010026875
120	0x3aab378d	0.001306282
121	0x3ab4148c	0.0013739034
122	0x3a8b6705	0.0010635561
123	0x3a4a0a16	0.00077071914
124	0x3a1bc588	0.0005942215
125	0x39a2aee6	0.00031029357
126	0x3a23391e	0.00062264677
127	0x3a32c2ee	0.0006819208
128	0x3a74c538	0.0009337249
129	0x3a8022a5	0.000977595
130	0x3a72c313	0.00092606357
131	0x3a65482d	0.0008746412
132	0x3a1c1928	0.00059546763
133	0x39a8c248	0.00032188208
134	0x394c6d65	0.00019495709
135	0x3a16591f	0.0005735326
136	0x3a31565f	0.00067648845
137	0x3a418e24	0.00073835463
138	0x3a4f1f99	0.0007901132
139	0x3a36fa59	0.0006980054
140	0x3a221115	0.0006182355
141	0x39e5067d	0.00043683118
142	0x3954db25	0.00020299533
143	0xb807abd4	-3.2346536e-05
144	0x3a050bb4	0.0005075291
145	0x3a28185b	0.00064123207
146	0x3a1a421e	0.0005884486
147	0x3a0ed2f6	0.0005448306
148	0x3a0c27a5	0.00053464837
149	0x39a97890	0.00032324018
150	0x390d7b8a	0.0001349283
151	0x36ce2a02	6.1441688e-06
152	0xb953f2c1	-0.00020212961
153	0x3a13e79a	0.00056421163
154	0x3a10e543	0.0005527327
155	0x3a126e53	0.00055858976
156	0x39f6b761	0.00047057404
157	0x39a076d6	0.00030606118
158	0x39072207	0.0001288728
159	0x380221d0	3.1025906e-05
160	0xb907c2bb	-0.00012947146
161	0xb98550a2	-0.00025427813
162	0xbad04b93	-0.0015891663
163	0xbadb60f4	-0.0016737268
164	0xbae2174f	-0.0017249378
165	0xbac47342	-0.0014987963
166	0xba90fd60	-0.001106184
167	0xba2170f7	-0.00061584957
168	0xb931b1ef	-0.00016946321
169	0x397dd2af	0.00024206446
170	0x3a1124ef	0.00055368146
171	0xbafc8c5f	-0.0019267908
172	0xbb06de7a	-0.0020579384
173	0xbb07a71c	-0.002069897
174	0xbadefb40	-0.0017012134
175	0xba9bb1c5	-0.0011878541
176	0xba178b16	-0.0005780918
177	0x387ecc67	6.0748684e-05
178	0x3a09c70f	0.00052557973
179	0x3a426c34	0.0007416636
180	0xbb0f84ea	-0.0021899291
181	0xbb1b622f	-0.0023709645
182	0xbb0fe1ca	-0.002195465
183	0xbae92f35	-0.0017790558
184	0xba94aa65	-0.0011342285
185	0xb9a8de68	-0.00032209163
186	0x398ed070	0.0002723965
187	0x3a259134	0.00063158874
188	0x3a5548eb	0.0008136171
189	0xbb1142bc	-0.002216502
190	0xbb17bf97	-0.0023154968
191	0xbb0a914d	-0.0021143735
192	0xbac989a4	-0.0015376103
193	0xba47eced	-0.0007626552
194	0xb8025639	-3.1074716e-05
195	0x3a1c7439	0.0005968246
196	0x3a5d9894	0.0008453217
197	0x3a67a4c9	0.00088365056
198	0xbb07d4b1	-0.002072614
199	0xbb0887c1	-0.0020832869
200	0xbad6effe	-0.0016398428
201	0xba7d59db	-0.00096645736
202	0xb91a6568	-0.00014724361
203	0x3a0f3879	0.0005463432
204	0x3a6294cf	0.000864339
205	0x3a7c2817	0.0009619011
206	0x3a731fbd	0.0009274444
207	0xbade0600	-0.0016939044
208	0xbabd1a17	-0.0014427331
209	0xba6483d8	-0.0008717156
210	0xb9344383	-0.00017191288
211	0x3a13bbba	0.00056355784
212	0x3a74fee3	0.00093458424
213	0x3a936bc5	0.0011247328
214	0x3a754d52	0.000935753
215	0x3a57627a	0.0008216273
216	0xba8cde47	-0.0010747396
217	0xba41f9e2	-0.0007399601
218	0xb8c1c1ed	-9.239079e-05
219	0x3a28b73f	0.0006435997
220	0x3a9a5447	0.0011774384
221	0x3aaa636f	0.0012999604
222	0x3a937afa	0.001125186
223	0x3a76d04e	0.0009415195
224	0x3a430d31	0.00074406253
225	0xb9f097c6	-0.00045889447
226	0xb7d11ed1	-2.4929092e-05
227	0x3a12f70d	0.00056062714
228	0x3a8cbb8a	0.0010737043
229	0x3ac29594	0.0014845603
230	0x3abc4d6d	0.0014366336
231	0x3a99c292	0.001173096
232	0x3a613c53	0.0008592058
233	0x3a4cc383	0.0007811116
234	0x3833c176	4.28571e-05
235	0x39e16eec	0.00042997987
236	0x3a67e6e9	0.0008846359
237	0x3aa79f4d	0.0012788564
238	0x3ab929d9	0.0014126851
239	0x3aa39fdc	0.0012483555
240	0x3a8ffac8	0.0010984773
241	0x3a571209	0.00082042866
242	0x3a293586	0.0006454814
243	0xbc222dfe	-0.009898661
244	0xbc198c69	-0.009371855
245	0xbc1a83bb	-0.009430821
246	0xbc15a62f	-0.00913386
247	0xbc0f113e	-0.008732138
248	0xbc0a30bb	-0.00843447
249	0xbc0b8d76	-0.008517614
250	0xbc0eb9a1	-0.00871125
251	0xbc0e7a9e	-0.008696226
252	0xbc20ed11	-0.009822146
253	0xbc19fa1d	-0.009398011
254	0xbc1377e9	-0.009000757
255	0xbc0cfcbc	-0.008605178

exp_avg_sq f4 [64, 1, 9, 9]
0	0x3793d587	1.7623197e-05
1	0x378dc68d	1.6900967e-05
2	0x3787195c	1.6105063e-05
3	0x377de4b4	1.5133224e-05
4	0x377faaae	1.5238924e-05
5	0x37816282	1.542387e-05
6	0x3782c32f	1.5588097e-05
7	0x378bb69d	1.6655127e-05
8	0x37918be3	1.7350487e-05
9	0x379a75cc	1.8413084e-05
10	0x379549e6	1.7796596e-05
11	0x378fc9ca	1.7140894e-05
12	0x3788ee4c	1.6323429e-05
13	0x3785839a	1.5916117e-05
14	0x3786b87a	1.6059948e-05
15	0x3786e40e	1.6080241e-05
16	0x3787386e	1.6119531e-05
17	0x378ddd2a	1.6911497e-05
18	0x37a5bb15	1.975665e-05
19	0x37a3394d	1.9457797e-05
20	0x37a098b5	1.9144596e-05
21	0x379c668c	1.8644401e-05
22	0x3795eb9a	1.7871895e-05
23	0x37905e1f	1.7209966e-05
24	0x378bcc37	1.6665186e-05
25	0x37891761	1.634256e-05
26	0x378b6157	1.6615419e-05
27	0x37b6332d	2.1719921e-05
28	0x37be2c4a	2.2670389e-05
29	0x37b9a9f7	2.2132865e-05
30	0x37afe962	2.0970303e-05
31	0x37a88d5a	2.0092983e-05
32	0x379b7e81	1.8536348e-05
33	0x37932c91	1.7544518e-05
34	0x378a0b33	1.6456097e-05
35	0x378aa9b8	1.6529913e-05
36	0x37ccb371	2.4402254e-05
37	0x37d2c375	2.5124968e-05
38	0x37d87037	2.580146e-05
39	0x37ce4919	2.4591152e-05
40	0x37b9fcaa	2.2171374e-05
41	0x37a6eef8	1.990002e-05
42	0x37951999	1.7774104e-05
43	0x378acc47	1.6546006e-05
44	0x3789a512	1.640854e-05
45	0x37defb2b	2.6581421e-05
46	0x37e8ffb0	2.7775619e-05
47	0x37ef4379	2.852244e-05
48	0x37de3f57	2.6493957e-05
49	0x37ce54f8	2.459668e-05
50	0x37b40411	2.1459566e-05
51	0x379e86af	1.8897785e-05
52	0x378ef8e0	1.704361e-05
53	0x378a4f93	1.6487937e-05
54	0x37e6dcb4	2.752091e-05
55	0x37f65f81	2.9369958e-05
56	0x37f50476	2.9208353e-05
57	0x37e69de1	2.7491655e-05
58	0x37d62b59	2.5530973e-05
59	0x37b7eb5e	2.1924901e-05
60	0x37a49c34	1.9623061e-05
61	0x37965ff7	1.792608e-05
62	0x3790c16b	1.7256205e-05
63	0x37e0d4ce	2.6801976e-05
64	0x37eb80f5	2.8074233e-05
65	0x37eb8b27	2.807898e-05
66	0x37e20491	2.6943426e-05
67	0x37ccf038	2.4430556e-05
68	0x37bcb981	2.2497728e-05
69	0x37a818b5	2.0038666e-05
70	0x379f8ec8	1.9020765e-05
71	0x37983f5b	1.8149314e-05
72	0x37d626e8	2.5528905e-05
73	0x37d6c7bd	2.5603798e-05
74	0x37d7fab1	2.5746735e-05
75	0x37d0b81d	2.4881267e-05
76	0x37cacba2	2.41751e-05
77	0x37b9ce3c	2.2149754e-05
78	0x37ae99b9	2.0813999e-05
79	0x37a804a2	2.0029318e-05
80	0x37a03f7a	1.9103045e-05
81	0x375cbeec	1.3157474e-05
82	0x37732bfd	1.44941705e-05
83	0x378361c2	1.5661939e-05
84	0x37907b0d	1.7223438e-05
85	0x37984f68	1.8156788e-05
86	0x3789311f	1.6354546e-05
87	0x3774f3f6	1.4600335e-05
88	0x37805329	1.5297514e-05
89	0x376c7ba7	1.4095486e-05
90	0x376c2f87	1.4077762e-05
91	0x37804d8a	1.5294896e-05
92	0x3798c95e	1.8213581e-05
93	0x379875a2	1.8174589e-05
94	0x37ab4412	2.0416486e-05
95	0x379f7ebb	1.901329e-05
96	0x3790675b	1.7214266e-05
97	0x3782069b	1.5500284e-05
98	0x377edc2a	1.5190841e-05
99	0x37754045	1.4618102e-05
100	0x3789088f	1.6335658e-05
101	0x379a90bf	1.8425633e-05
102	0x37ba5e46	2.2216827e-05
103	0x37bb1241	2.2300637e-05
104	0x379c3e4b	1.8625657e-05
105	0x37905583	1.7205957e-05
106	0x3775aae5	1.4642927e-05
107	0x376ec3a5	1.42314575e-05
108	0x3777eb54	1.4777139e-05
109	0x3786a484	1.6050653e-05
110	0x3791a4ce	1.736209e-05
111	0x37bb07e0	2.2295804e-05
112	0x37b736c7	2.1840808e-05
113	0x379ac0df	1.8448043e-05
114	0x3787c4ff	1.6184988e-05
115	0x377d554c	1.5099835e-05
116	0x37661d8e	1.37159495e-05
117	0x376bb96d	1.4050264e-05
118	0x37809095	1.5326115e-05
119	0x378c77ae	1.674503e-05
120	0x37ac800d	2.0563626e-05
121	0x37baf948	2.2289008e-05
122	0x379f99b0	1.9025843e-05
123	0x378b7999	1.6626715e-05
124	0x3789c362	1.6422655e-05
125	0x37625e1b	1.349256e-05
126	0x376e2c54	1.4196226e-05
127	0x3773482d	1.4500733e-05
128	0x378f1818	1.7058148e-05
129	0x378dbf1b	1.68975e-05
130	0x37911105	1.7293272e-05
131	0x37998778	1.8302104e-05
132	0x37846b68	1.5785641e-05
133	0x37706160	1.4327787e-05
134	0x376aeaa2	1.4002117e-05
135	0x3768fcdd	1.3887152e-05
136	0x3782a422	1.5573638e-05
137	0x3782b061	1.557934e-05
138	0x3788340a	1.6236696e-05
139	0x37863f21	1.6003441e-05
140	0x378c05b9	1.6691965e-05
141	0x37861126	1.598203e-05
142	0x377cfcb0	1.5079204e-05
143	0x376521fd	1.3657377e-05
144	0x375cae73	1.3153639e-05
145	0x3773707e	1.451012e-05
146	0x376d02f2	1.4126987e-05
147	0x376d3739	1.4139158e-05
148	0x3783f914	1.5732403e-05
149	0x377c55ef	1.50403785e-05
150	0x37734630	1.45002705e-05
151	0x3772ddde	1.44759815e-05
152	0x375e834b	1.32628e-05
153	0x3766a459	1.37473335e-05
154	0x37685406	1.3847841e-05
155	0x377587dc	1.463477e-05
156	0x376ff81f	1.430328e-05
157	0x37638c94	1.3562985e-05
158	0x375a3782	1.30067365e-05
159	0x3768bbb4	1.3871981e-05
160	0x37644020	1.3604789e-05
161	0x3761df8b	1.3463093e-05
162	0x392664fc	0.00015868613
163	0x392ae02b	0.00016295972
164	0x392cd13a	0.00016481141
165	0x3928ba5c	0.00016091153
166	0x39212f87	0.00015371862
167	0x391be7e3	0.00014868336
168	0x3918f857	0.00014588363
169	0x391841cc	0.00014520361
170	0x3919b7db	0.00014659709
171	0x392d6cbf	0.00016539077
172	0x3933f7fa	0.00017163149
173	0x3935a549	0.00017323079
174	0x392df188	0.00016588543
175	0x3923d803	0.00015625362
176	0x391cc711	0.00014951477
177	0x391d3062	0.00014990711
178	0x391f4238	0.0001518809
179	0x391feef7	0.00015252443
180	0x3932edb9	0.00017063961
181	0x393ae92a	0.00017825203
182	0x39392892	0.00017658088
183	0x392ef647	0.00016685679
184	0x3923356c	0.00015564793
185	0x391cd078	0.0001495498
186	0x39209d1c	0.00015317317
187	0x3925692d	0.00015774807
188	0x392698fe	0.00015887988
189	0x3932e1cf	0.00017059523
190	0x39387347	0.00017590552
191	0x39350095	0.00017261722
192	0x3928806d	0.00016069571
193	0x391e0e7f	0.00015073454
194	0x391e1984	0.0001507756
195	0x39290927	0.00016120505
196	0x3930997e	0.00016841848
197	0x393024de	0.00016798402
198	0x392d8cce	0.0001655102
199	0x392fc8b8	0.00016764074
200	0x39289709	0.00016077993
201	0x391d2b15	0.00014988736
202	0x3918e320	0.0001458046
203	0x39222a40	0.00015465263
204	0x393226b6	0.00016989824
205	0x393d74a5	0.00018067898
206	0x393acf0f	0.00017815478
207	0x3922fd72	0.0001554394
208	0x39220193	0.0001545011
209	0x391a1a3a	0.00014696355
210	0x3912e0ab	0.0001400734
211	0x3917a43f	0.00014461669
212	0x3924c7aa	0.0001571464
213	0x393b1553	0.00017841654
214	0x393ff122	0.00018305008
215	0x393d34ae	0.0001804407
216	0x39177679	0.00014444617
217	0x3914f519	0.00014205686
218	0x390fcf49	0.00013714762
219	0x39102dca	0.00013749968
220	0x391970c7	0.0001463323
221	0x392c7ac1	0.00016448928
222	0x39393bab	0.00017665203
223	0x3941a0b9	0.00018465788
224	0x393c7614	0.00017973065
225	0x390f6a8a	0.00013677232
226	0x390e113d	0.00013548597
227	0x390c2014	0.0001336339
228	0x390e5d26	0.00013576876
229	0x391bc301	0.00014854597
230	0x392bf93a	0.00016400675
231	0x39375400	0.00017483532
232	0x393a37ea	0.00017759172
233	0x393a11dc	0.00017744995
234	0x390cd45f	0.00013430555
235	0x390c7eb0	0.00013398635
236	0x390c3411	0.00013370837
237	0x39107d07	0.00013779486
238	0x391941af	0.00014615686
239	0x3922fa57	0.00015542783
240	0x392fe0f2	0.00016773099
241	0x3932204f	0.00016987439
242	0x392d7923	0.00016543693
243	0x39674510	0.00022055604
244	0x3957be52	0.00020574898
245	0x3968c864	0.00022199895
246	0x396b9d99	0.00022470056
247	0x39666a5b	0.0002197413
248	0x395a1224	0.00020796858
249	0x3955f5a7	0.00020404776
250	0x3958144f	0.00020606931
251	0x394f4d1f	0.00019769788
252	0x3963b07e	0.00021714155
253	0x396092bd	0.00021416969
254	0x39651005	0.0002184511
255	0x39700bc9	0.00022892574

exp_avg f4 [64]
0	0xb88eadda	-6.80347e-05
1	0x3a8298a9	0.0009963709
2	0x3ac607a1	0.0015108475
3	0xbd2e27ad	-0.042518307
4	0xbc0f6cc9	-0.008753964
5	0xbc1a1791	-0.009405033
6	0xbc6f6674	-0.014611829
7	0xbb90710f	-0.004408009
8	0xbc782dca	-0.015147636
9	0xbb092213	-0.002092485
10	0xbcaa3fb9	-0.020782338
11	0xbbf145f8	-0.0073630773
12	0xbb8b2444	-0.0042462666
13	0xbb0eccf8	-0.0021789651
14	0xbbd183dc	-0.0063938927
15	0xbc6267dc	-0.013818707
16	0xbce3a52c	-0.027788721
17	0xbc84c634	-0.016207792
18	0xbb79416e	-0.0038033384
19	0xbc949d3a	-0.018141378
20	0x80000004	-6e-45
21	0xbc12aa5d	-0.008951751
22	0xbc01bd93	-0.007918733
23	0xbb15b6a3	-0.0022844456
24	0xbbf97d1b	-0.0076137907
25	0xbbc856e5	-0.0061138743
26	0xbcc7e9c0	-0.024403453
27	0xbb8b493d	-0.004250674
28	0xbc48f257	-0.01226481
29	0xbc1463ee	-0.009057028
30	0xba931807	-0.0011222371
31	0xbba166cc	-0.0049255844
32	0xbb823efe	-0.0039747944
33	0xbbe329b8	-0.0069324635
34	0xbb05a42b	-0.0020392041
35	0xbb08bb03	-0.002086342
36	0xbc335545	-0.010945623
37	0xbc35a840	-0.011087477
38	0x3bbb2152	0.005710759
39	0x3b058f26	0.0020379513
40	0xbc756fa4	-0.0149802305
41	0xbc8d9a40	-0.017285466
42	0x3ba686be	0.0050819805
43	0xbc8457ff	-0.016155241
44	0xbac7fcb6	-0.0015257809
45	0xbc02aee7	-0.00797627
46	0xbca47b0a	-0.0200782
47	0x3b90ae23	0.00441529
48	0xbb6bd483	-0.003598482
49	0x3b812017	0.003940593
50	0xbd7c7e37	-0.061643805
51	0xbc47fc30	-0.012206122
52	0x3bfb582f	0.0076704244
53	0xbc8b52cf	-0.01700726
54	0xbc8dbd12	-0.01730207
55	0xbad60a31	-0.0016329942
56	0xbb85c0e4	-0.0040818322
57	0x3c1438c4	0.009046737
58	0xbb2e170d	-0.0026564032
59	0x3aaa0a81	0.0012973101
60	0xbc6fe461	-0.014641852
61	0x3b6d9499	0.0036251901
62	0xbcb9051d	-0.022585446
63	0xbb87fe4e	-0.0041501885

exp_avg_sq f4 [64]
0	0x39392e6d	0.0001766027
1	0x3972897a	0.00023130132
2	0x3aae98fb	0.0013320738
3	0x3b34ff37	0.002761794
4	0x3c15978b	0.009130369
5	0x3b0b61a2	0.002126791
6	0x3b34fd27	0.002761671
7	0x3b917e00	0.004440069
8	0x3aba1122	0.001419578
9	0x36f5481a	7.3099627e-06
10	0x3a4229ae	0.00074067235
11	0x3add6e88	0.0016893903
12	0x38f7ef52	0.00011822455
13	0x3b35beb6	0.002773208
14	0x399811bf	0.0002900492
15	0x3c94338e	0.01809099
16	0x3b3b7716	0.0028604916
17	0x3cf5155a	0.029917408
18	0x3a6499ea	0.0008720445
19	0x3cb0e192	0.021591935
20	0x0fa8621f	1.6603874e-29
21	0x3b31d573	0.0027135282
22	0x3ad73fcf	0.0016422215
23	0x3a2910f2	0.00064493634
24	0x3b687717	0.0035471374
25	0x398adcf1	0.00026486025
26	0x3a827240	0.0009952262
27	0x3ac836c7	0.0015275114
28	0x3b6e7d34	0.0036390545
29	0x3c97511e	0.018471297
30	0x3a9ae057	0.0011816126
31	0x3ac741cd	0.0015202105
32	0x3b98df35	0.00466528
33	0x3a0c403d	0.00053501484
34	0x39dbc393	0.0004191665
35	0x3b4580be	0.003013655
36	0x3c9772e0	0.018487394
37	0x39616840	0.00021496508
38	0x3a66e2e8	0.00088076154
39	0x39d8ee92	0.0004137648
40	0x3b929870	0.0044737384
41	0x3b2a0cc1	0.0025947543
42	0x38e1712f	0.00010749918
43	0x3b0104a1	0.0019686597
44	0x39150684	0.00014212175
45	0x3b9dfe91	0.0048216064
46	0x3c4558d3	0.012045103
47	0x3a165d3f	0.00057359406
48	0x3aabb242	0.001309939
49	0x3866aaf9	5.4995504e-05
50	0x3c7c40ed	0.015396339
51	0x3cc4af2a	0.024009306
52	0x39d8d3f8	0.0004135666
53	0x3a43218d	0.0007443659
54	0x39dfdc8d	0.00042698198
55	0x3a9a8e12	0.0011791608
56	0x39da5b7f	0.0004164837
57	0x3a07b29e	0.00051764573
58	0x3aac139f	0.0013128406
59	0x388e6fdb	6.791922e-05
60	0x3b37a46c	0.0028021587
61	0x37a3c495	1.9522655e-05
62	0x3a8711b0	0.0010304954
63	0x3b9ffea9	0.004882653

exp_avg f4 [32, 64, 5, 5]
0	0xb95a9bdc	-0.00020848162
1	0xb9354416	-0.00017286869
2	0xb91004d7	-0.00013734713
3	0xb9029fe9	-0.00012457337
4	0xb90cc91d	-0.00013426361
5	0xb965e459	-0.00021924208
6	0xb947e0e3	-0.00019061896
7	0xb930331a	-0.00016803705
8	0xb9262bff	-0.00015847383
9	0xb92f5a40	-0.00016722921
10	0xb97cdb6f	-0.00024114338
11	0xb966f139	-0.00022024372
12	0xb958492c	-0.00020626624
13	0xb95287b2	-0.00020077711
14	0xb95cc204	-0.00021053111
15	0xb98912b1	-0.00026144602
16	0xb9838fe2	-0.00025093468
17	0xb978f161	-0.00023741044
18	0xb97df039	-0.0002421745
19	0xb97c1a41	-0.00024042373
20	0xb98ac0ac	-0.00026464963
21	0xb9893803	-0.00026172408
22	0xb9839e4f	-0.00025104216
23	0xb981526f	-0.00024666215
24	0xb981495b	-0.0002465945
25	0xb31b3c1e	-3.6143426e-08
26	0xb7089ade	-8.1422895e-06
27	0xb75af807	-1.3051561e-05
28	0xb786e8d0	-1.6082457e-05
29	0xb7856fa4	-1.5906822e-05
30	0xb769cf0b	-1.3936088e-05
31	0xb7b09ee1	-2.1054819e-05
32	0xb7cde6a1	-2.45453e-05
33	0xb7db7e2d	-2.616559e-05
34	0xb7beb425	-2.2733651e-05
35	0xb80269d8	-3.109299e-05
36	0xb810536f	-3.440998e-05
37	0xb815ddea	-3.5731042e-05
38	0xb811093d	-3.4579298e-05
39	0xb80a9d06	-3.3048003e-05
40	0xb82ad3de	-4.0728475e-05
41	0xb82edbc7	-4.1689516e-05
42	0xb8341866	-4.2938067e-05
43	0xb827e89e	-4.0032544e-05
44	0xb816127b	-3.5779998e-05
45	0xb8365eb9	-4.34804e-05
46	0xb83affbd	-4.458403e-05
47	0xb828a7a4	-4.021045e-05
48	0xb809167f	-3.2684296e-05
49	0xb804ec10	-3.1691103e-05
50	0xb9c8ee1f	-0.00038324387
51	0xb9e0dcb8	-0.00042889058
52	0xb9f3f59a	-0.0004653156
53	0xba01ccee	-0.00049514964
54	0xba026f47	-0.0004975688
55	0xb9dc06ee	-0.00041966833
56	0xb9f4b851	-0.00046676633
57	0xba029ec0	-0.0004982762
58	0xba0ad0f4	-0.00052954187
59	0xba0bd7e8	-0.0005334602
60	0xb9e3c6b0	-0.00043444848
61	0xb9f56d8e	-0.00046811666
62	0xba031ceb	-0.00050015625
63	0xba09df65	-0.00052594236
64	0xba09b6ad	-0.0005253356
65	0xb9d6f289	-0.00040997964
66	0xb9e5289c	-0.0004370854
67	0xb9f0853a	-0.0004587563
68	0xb9f5872a	-0.00046830747
69	0xb9f70281	-0.00047113377
70	0xb9cc9033	-0.0003901735
71	0xb9cce35d	-0.0003907931
72	0xb9d4ada1	-0.00040565155
73	0xb9d6fae2	-0.00041004183
74	0xb9d54e43	-0.00040684835
75	0xb8d54962	-0.000101703
76	0xb9053387	-0.00012703064
77	0xb91d2fae	-0.00014990449
78	0xb9331c8a	-0.00017081402
79	0xb931324d	-0.00016898774
80	0xb902d5c7	-0.00012477404
81	0xb9255f61	-0.00015771158
82	0xb94567fb	-0.0001882612
83	0xb958b0a4	-0.00020665169
84	0xb94f4152	-0.00019765392
85	0xb90e8db3	-0.00013594962
86	0xb9337cf2	-0.00017117316
87	0xb94da13f	-0.00019610392
88	0xb953b914	-0.00020191475
89	0xb9401b6b	-0.00018320761
90	0xb90ca535	-0.00013412985
91	0xb922d13c	-0.0001552747
92	0xb92d6476	-0.0001653599
93	0xb925a3f7	-0.00015796708
94	0xb915855c	-0.00014259428
95	0xb8f7e663	-0.00011820791
96	0xb90372ab	-0.0001253585
97	0xb8ed1868	-0.00011305587
98	0xb8e39aee	-0.000108530614
99	0xb8c202b1	-9.251142e-05
100	0xb7c23265	-2.3150069e-05
101	0xb7dc6a53	-2.6275555e-05
102	0xb7c45ce2	-2.3408273e-05
103	0xb7b6e551	-2.1802874e-05
104	0xb793afd4	-1.7605642e-05
105	0xb7c16af0	-2.305719e-05
106	0xb7cd3634	-2.4463145e-05
107	0xb7e2704c	-2.6993592e-05
108	0xb7c5043d	-2.3486204e-05
109	0xb7b4200d	-2.1472597e-05
110	0xb79cff19	-1.8715438e-05
111	0xb796010b	-1.788188e-05
112	0xb7903dfc	-1.7195001e-05
113	0xb7a0c07a	-1.9163115e-05
114	0xb7914aa8	-1.7320112e-05
115	0xb730d0c5	-1.0539025e-05
116	0xb7052d8e	-7.938024e-06
117	0xb71b4354	-9.254396e-06
118	0xb73eb209	-1.1366335e-05
119	0xb721be4a	-9.640653e-06
120	0xb7156a40	-8.90583e-06
121	0xb69bb104	-4.6399673e-06
122	0xb6b76ed2	-5.466726e-06
123	0xb70548ac	-7.944338e-06
124	0xb7029a5e	-7.784545e-06
125	0xb9e2a778	-0.00043230853
126	0xb9f0297d	-0.00045807278
127	0xb9fcc9ce	-0.00048215542
128	0xba045b2c	-0.0005048986
129	0xba0522f9	-0.00050787587
130	0xba0a8005	-0.00052833586
131	0xba144608	-0.00056561874
132	0xba17bb55	-0.00057881075
133	0xba1ab316	-0.00059013197
134	0xba1b8c6e	-0.00059337064
135	0xba16ce7d	-0.0005752815
136	0xba1edebd	-0.0006060412
137	0xba214b5f	-0.0006152894
138	0xba22c6de	-0.0006209443
139	0xba2326bb	-0.0006223728
140	0xba155ef2	-0.0005698047
141	0xba1a046d	-0.0005875293
142	0xba1e519e	-0.00060393836
143	0xba1ddba2	-0.00060218025
144	0xba1e6cf1	-0.0006043455
145	0xba0e35e7	-0.0005424902
146	0xba0fea21	-0.0005489905
147	0xba124fba	-0.0005581338
148	0xba119575	-0.0005553582
149	0xba113a6d	-0.0005540017
150	0xb95822d3	-0.00020612338
151	0xb9608a93	-0.00021413928
152	0xb961a8eb	-0.00021520599
153	0xb9577438	-0.00020547293
154	0xb9543124	-0.00020236202
155	0xb9441ee8	-0.0001870353
156	0xb94f02d1	-0.00019742108
157	0xb94f2d31	-0.00019757893
158	0xb94fb19f	-0.00019807227
159	0xb95066fb	-0.00019874789
160	0xb924c67d	-0.00015714201
161	0xb930f3e9	-0.00016875532
162	0xb941869d	-0.00018456062
163	0xb94dc826	-0.00019624885
164	0xb95c259d	-0.00020994847
165	0xb9101003	-0.00013738875
166	0xb91be69e	-0.00014867864
167	0xb92d8bd9	-0.00016550663
168	0xb945827a	-0.0001883599
169	0xb95295b2	-0.00020082926
170	0xb90d0feb	-0.00013452738
171	0xb915064f	-0.00014212097
172	0xb9278a7d	-0.00015977952
173	0xb93fdcfb	-0.00018297501
174	0xb9494adc	-0.00019196741
175	0xb8112aed	-3.461067e-05
176	0xb824faa7	-3.9334085e-05
177	0xb822142b	-3.8642593e-05
178	0xb82cd3d5	-4.120528e-05
179	0xb832e8bd	-4.265526e-05
180	0xb7f48d2f	-2.915281e-05
181	0xb80aee9a	-3.312398e-05
182	0xb800f7cb	-3.0748353e-05
183	0xb803d3a8	-3.1429954e-05
184	0xb814b506	-3.545454e-05
185	0xb7af2a70	-2.0881387e-05
186	0xb7b5336f	-2.1600832e-05
187	0xb7a301a6	-1.9431882e-05
188	0xb7af3db6	-2.0890362e-05
189	0xb7a6dd2f	-1.9891739e-05
190	0xb7439f78	-1.1660035e-05
191	0xb7215e57	-9.618313e-06
192	0xb70f3542	-8.535864e-06
193	0xb75ea9f3	-1.32718005e-05
194	0xb7807767	-1.531439e-05
195	0xb70583d2	-7.95811e-06
196	0xb702039e	-7.749446e-06
197	0xb6feb997	-7.5913954e-06
198	0xb73aaf63	-1.1127299e-05
199	0xb76b537f	-1.4026532e-05
200	0xb7dedbf2	-2.6566882e-05
201	0xb7d34bbe	-2.518843e-05
202	0xb7e57f8a	-2.7358317e-05
203	0xb8207d9b	-3.8263952e-05
204	0xb8470f6a	-4.7459653e-05
205	0xb790aaf7	-1.724575e-05
206	0xb78dcfe7	-1.6905322e-05
207	0xb7b1e1d0	-2.1205196e-05
208	0xb8065954	-3.2031283e-05
209	0xb833c332	-4.2858715e-05
210	0xb7547d32	-1.2665334e-05
211	0xb76dbc20	-1.4170102e-05
212	0xb7b099b0	-2.1052401e-05
213	0xb7f0cfa2	-2.8706916e-05
214	0xb81c2b85	-3.723383e-05
215	0xb7394c8f	-1.10446845e-05
216	0xb754ec58	-1.2691213e-05
217	0xb79743b9	-1.8032139e-05
218	0xb7afb8bb	-2.0947647e-05
219	0xb7ba221d	-2.2188813e-05
220	0xb75b2385	-1.3061687e-05
221	0xb7422c79	-1.1573656e-05
222	0xb747aec2	-1.1902013e-05
223	0xb7495b10	-1.2001736e-05
224	0xb70f04b8	-8.524563e-06
225	0xb729d0a9	-1.0121767e-05
226	0xb72441a5	-9.790446e-06
227	0xb70254f4	-7.7683835e-06
228	0xb6927889	-4.365171e-06
229	0xb66398a6	-3.391449e-06
230	0xb6be71a4	-5.6756708e-06
231	0xb699d93e	-4.5850456e-06
232	0xb64092e6	-2.8695736e-06
233	0xb5f5e6e6	-1.8321123e-06
234	0xb5973707	-1.1266392e-06
235	0xb618b9bc	-2.2757877e-06
236	0xb5e702d3	-1.7211663e-06
237	0xb57a5f00	-9.32705e-07
238	0x348fb492	2.6767208e-07
239	0xb43354b0	-1.6701483e-07
240	0xb559445f	-8.093829e-07
241	0xb54df516	-7.67251e-07
242	0xb49c58f8	-2.9121998e-07
243	0x33369c7b	4.2517495e-08
244	0xb45c01ca	-2.0489747e-07
245	0xb489fc56	-2.5701837e-07
246	0xb49f9a7c	-2.972846e-07
247	0xb483dbf3	-2.4560686e-07
248	0xb5371210	-6.8199097e-07
249	0xb4a8b12f	-3.1421357e-07
250	0xb89a1bd3	-7.348475e-05
251	0xb8a5268a	-7.8749916e-05
252	0xb8b9e2db	-8.8637426e-05
253	0xb8cde4f8	-9.8178105e-05
254	0xb8dc6ad4	-0.00010510316
255	0xb890e7a8	-6.9096044e-05
