logs/biosr_ccps_rcan_model-SRCNN_250305_lr0.0001_bs1_Ps256_Npatch128_N300/model_054.pth (torch, 695046 bytes, 15 tensors)

conv1.weight f4 [64, 1, 9, 9]
00000000: b010 a83d ad60 e0bc bdab ac3d 9a51 adbc
00000010: 4a8b 413d fc77 20bd 93af 083e eebe 71bc
00000020: a280 4a3e 6f14 dfbc 6b74 bdbd 032f 4a3d
00000030: 342d 46bd 6db5 093d c84c 353d 0432 ff3c
00000040: d1da 9e3d f978 d43d b390 b03d 5566 203d
00000050: 3595 c4bd 1739 93bc d7ac 4ebd 9132 c0bd
00000060: b7f5 8abd ceea 92bd 2fc7 473d ad9d d1bd
00000070: 289b 0dbd 0742 c13c eb75 9dbd 25ce ccbd
00000080: 036d 1e3b 423b f8bc fdc2 2cbd 6e38 933d
00000090: b268 95bd 4143 81bd d214 a6bb de49 2d3d
000000a0: 13fb 05bd 8df4 933d 695e 553d c6d2 843d
000000b0: c160 af3c abdc 13bd 52d8 c8bd 6298 3bbb
000000c0: 386e c4bd 4183 c73c a430 d33c c932 bb3c
000000d0: 9955 5b3d a4a2 fb3d be67 5cbd 22ce ebbc
000000e0: 8bd3 29bc 2be2 003d b826 9d3d c181 753d
000000f0: d0fd 3dbd e464 d63d 6b29 b93b e26d 1f3d
00000100: 099a 113d dcac 833a 4fe4 54bd 0e7a 57bd
00000110: 1625 173c 13fe 87bd 3553 bbbc 0bf9 8bbd
00000120: b4e3 343d 7d13 c5bc a111 ae3c 3813 633d
00000130: e397 4abd 76fb 13bc 0f1a afbd b5ac b4bb
00000140: 4a45 8ebd eeee 40bd 2858 56bb 4559 f0bc
00000150: a9b5 d63b 1640 943d 2911 04bd 119a fbbd
00000160: 25ff 6b3d 4b96 8abc 1c70 a53c 7e88 8cbc
00000170: b0c2 6a3d e262 d0bd b2cc 8f3d 23ee 983d
00000180: acd1 953d 593e 113d b053 ba3d 27aa 0d3d
00000190: 6efa 9d3c 25ad b2bc 06a8 ac3d 806e 983d
000001a0: d576 4abd ac5e 4a3c 8b13 c0bd 3771 c4bc
000001b0: 18f5 de3c 567f 5dbc cebb f4bd 729d a83d
000001c0: 9501 f83c 7b6f babd 063f d6bd b473 3cbd
000001d0: 3bef bdbd 407e 7fbd 5c77 73bd b5c3 cfbd
000001e0: 4376 453d 7ddc f03d 59d5 7f3b 3354 25bd
000001f0: 2322 b13d 3b1e d4bd 8d08 0abd 3854 c1bd
00000200: 9cbf 083d dabf b0bd aba3 bcbd 6a38 3e3d
00000210: 8ca8 86bd 41db bfbd e65a 6b3b c1dc 4fbd
00000220: abe4 8b3d e648 f33b 314a fd3b b14f 27bd
00000230: 6119 733d 60a3 8f3d 1bae aa3d 078f 3e3c
00000240: d171 f2bd 1595 1d3c 58ba 95bd 262e c3bd
00000250: e48b 933d 20e9 253d bd43 013d 53e5 dd3d
00000260: 18c9 ea3c 620b 93bc 9be3 f3bc 9b89 423d
00000270: 39bc 833c 4736 86bd 94bd ccbd 977f 853d
00000280: 1625 913d 4c9f f43d df76 7e3d 4a5c fc3d
00000290: 0ae8 50bd c21b 7c3d b0b9 173d b39c e53c
000002a0: 76d7 9cbd 1139 86bd f4a7 413d eb40 e03d
000002b0: 575c 943d 80df fdbc 7b2e f43d a6bc 6a3d
000002c0: 65c5 953c cb10 ab3c 31d7 b53d c43c 9a3d
000002d0: 57a7 a83d a395 55bd 5273 bf3d f6c7 ca3d
000002e0: bdf5 07b9 711e 763d 9669 93bd 4d70 ddbd
000002f0: 0695 abbd 6d17 f33d 8378 dd3d aba7 b23c
00000300: 84a1 c63d be34 ac3d ffc2 2dbd 61e7 b53c
00000310: d045 7dbd eb1d 02be 1f54 de3d e2de 23bd
00000320: ca38 febc a7bd ae3c 1b9c 8d3d 666c a23d
00000330: 7b10 00bd 5bfe 833b 7b97 abbb 6c40 1bbd
00000340: ee03 4ebc 9110 b23c a0d1 9fbd e365 513d
00000350: 116f dfbd 5546 c23c 9a03 e5bd b09d 0bbe
00000360: a357 e93c 8f9e c83c a35a 2dbd 95d0 833d
00000370: 95c1 b73d 42d4 183c 2506 debd b18b edbd
00000380: 56be 23be 51fb 093c 53b8 d73d 0e4b 583c
00000390: 9976 c8bd 20c1 8e3d ff16 e33c cca8 a5bd
000003a0: ae4a 1bbe e3f6 a33c bf22 e53d 13be a73c
000003b0: 1b77 14bd 8ee4 d6bc e66a 38bd 4bb4 ecbd
000003c0: 9426 c43b 4b5b c2bd 0362 03be 28e4 da3d
000003d0: 6762 b0bd 0278 c73d 8b5d f23d adad 973d
000003e0: acfa 0bbd 3d9a 3abd a94a d13c 899c 9abd
000003f0: 9a9a 4d3d a857 a5bb a0d4 053c e580 ea3d
0.08206308 -0.027389849 0.08431194 -0.021157075 0.047251977 -0.039176926 0.13348226 -0.014754994
0.19775632 -0.027231423 -0.092507206 0.04936124 -0.048382953 0.033620287 0.044262677 0.031151779
0.0775658 0.10374636 0.08621349 0.03916009 -0.095987715 -0.017971558 -0.0504578 -0.09384645
-0.06785148 -0.07173692 0.04877394 -0.102351524 -0.034571797 0.023591055 -0.07688507 -0.100002564
0.0024173863 -0.030301694 -0.042178143 0.071884975 -0.0729536 -0.06311656 -0.0050684 0.042306773
-0.032710146 0.07224379 0.05209199 0.06485514 0.02140844 -0.036099117 -0.09806885 -0.0028624763
-0.09591335 0.024354579 0.02578003 0.022851365 0.05354843 0.122868806 -0.053809874 -0.028784815
-0.010365377 0.03146569 0.07673401 0.059938196 -0.046384633 0.10468462 0.0056506894 0.03892315
0.03554729 0.0010046023 -0.051975545 -0.052606635 0.009225151 -0.06640258 -0.022866825 -0.068346106
0.044162467 -0.024057144 0.02124864 0.05543825 -0.049461257 -0.009032121 -0.08549892 -0.0055137523
-0.069468096 -0.04710286 -0.0032706354 -0.029339442 0.0065524173 0.07238786 -0.032242928 -0.12285245
0.05761637 -0.016917368 0.02019506 -0.017154928 0.057314575 -0.101751104 0.070214644 0.07467296
0.07315382 0.03545985 0.090979934 0.034586098 0.019284453 -0.021811077 0.084304854 0.07442951
-0.049429733 0.012351673 -0.093787275 -0.023979766 0.02721648 -0.013519129 -0.119498834 0.08233155
0.030274192 -0.091032945 -0.104612395 -0.04600878 -0.09274145 -0.06237626 -0.05944 -0.1014475
0.048208486 0.11760805 0.0039037077 -0.0403635 0.08649089 -0.103573285 -0.03369956 -0.094398916
0.033385858 -0.08630343 -0.09210905 0.04644052 -0.065751165 -0.09367991 0.0035912334 -0.050747637
0.06830724 0.0074244617 0.0077297916 -0.040847484 0.059350375 0.07013583 0.08333989 0.01163078
-0.11838115 0.009618063 -0.07310933 -0.095302865 0.072044164 0.04050553 0.03155874 0.10834756
0.028660342 -0.017949764 -0.029771617 0.047494512 0.016080962 -0.06553321 -0.09997097 0.065184765
0.07087152 0.11944446 0.062125083 0.1232229 -0.05100254 0.06154991 0.03704232 0.028028822
-0.076582834 -0.06553853 0.047279313 0.10949882 0.07244175 -0.030990362 0.11922928 0.057308815
0.018282602 0.020882031 0.08878935 0.075311214 0.082350425 -0.052144658 0.093481675 0.09901421
-0.00012966148 0.060087625 -0.07197873 -0.10812435 -0.08378033 0.118697025 0.108140014 0.021808466
0.096987754 0.08408497 -0.04242229 0.022205057 -0.061834157 -0.12706725 0.108558886 -0.04000748
-0.031032939 0.021330668 0.069145404 0.079308316 -0.031265717 0.0040281243 -0.0052365637 -0.037903234
-0.012574179 0.021736415 -0.07803655 0.051122557 -0.10909856 0.023715178 -0.111823276 -0.13634372
0.028484171 0.02448967 -0.042322766 0.06436268 0.0897247 0.00932795 -0.10841016 -0.1159891
-0.15990576 0.008421735 0.10533204 0.013201488 -0.09788246 0.069704294 0.027720926 -0.08088836
-0.15165207 0.020015186 0.11188268 0.020476377 -0.0362464 -0.02623203 -0.04502382 -0.11557826
0.005986044 -0.09490069 -0.12830357 0.106880486 -0.08612519 0.097396865 0.11834248 0.07406173
-0.034174606 -0.04555725 0.025548296 -0.07549388 0.050196268 -0.00504585 0.0081683695 0.11450366

conv1.bias f4 [64]
00000000: 527c c83c bf58 583d 339b 983c 85ac 953b
00000010: 6d22 d2bd 03b1 9c3d 2eb4 b83d 4d8f 98bd
00000020: 0f9e 14bd b527 de3c ea56 0ebd b1f3 91bc
00000030: 07ab cebd 36d8 8dbc 4bad a1bd 44d7 85bd
00000040: 41ea ba3d 59d1 c6bc 6cb9 69bb 7484 abbc
00000050: 7880 13bd fa05 d3bd 3896 eabd dda0 a4bc
00000060: 2309 9ebc f99e 913c f123 d4bc 11b1 9ebd
00000070: 459e 99bd c92a 7dbd f90d 05bd c45b a2bc
00000080: 7394 a3bd f5a8 a2bd abcd 893d 75c8 37bb
00000090: 7368 94bd 1fd9 4e3d 43bf dbbc e6fd 1c3e
000000a0: 92b8 473d 5cda 7a3d 96ec a6bc 8882 acbc
000000b0: 6de2 113d d846 f8bd 9fe6 43bc 7e0a 15bd
000000c0: 05ed bc3c 478f f5bc 2065 da3d f7a0 80bd
000000d0: b18a 043c bf93 54bb 8c19 8d3d b7b5 71bd
000000e0: 4f3e 1a3d b982 a4bd 12b1 203c 414b 493c
000000f0: 049a 82bc a055 773a c8b5 613d 94df abbd
0.024473343 0.05281901 0.018628692 0.004567685 -0.102604724 0.0765095 0.090187415 -0.074492075
-0.03628355 0.027118543 -0.034750856 -0.017816396 -0.100912146 -0.017315011 -0.07894381 -0.06535199
0.09126712 -0.024269747 -0.0035663499 -0.020937182 -0.03601119 -0.10303874 -0.11454433 -0.020096237
-0.019291466 0.017776 -0.025896044 -0.077486165 -0.07500891 -0.06180838 -0.03248403 -0.019819148
-0.07987299 -0.07942382 0.06728681 -0.0028043066 -0.072464846 0.05050003 -0.0268246 0.1533123
0.048760004 0.0612434 -0.020376485 -0.021058336 0.035616327 -0.121228874 -0.01195684 -0.03638696
0.023062238 -0.029975547 0.10663819 -0.062807016 0.008089707 -0.0032436696 0.06889638 -0.059011187
0.03765708 -0.08032746 0.009807842 0.012286008 -0.015942581 0.00094350614 0.055105 -0.083922535

conv2.weight f4 [32, 64, 5, 5]
00000000: 7260 b1bc e30d 1cbd 412b 673c e33b 41bc
00000010: fcda f13c 4960 d13b d506 26bc b145 d83c
00000020: 0e92 f2bb 778e 303c 4d7e 4bbb a2b3 eebb
00000030: b78a febb d7ee a2bc 97e2 f33a 5711 36bd
00000040: c3ac aebc 88c1 0ebd d6ef 03bd 7c1e dd38
00000050: c3ab 3a3b 1573 933c 4a3a ab3c af50 1c3d
00000060: 17a4 4b3d b502 fdbd 2ad2 acbc ce33 623d
00000070: 3e44 ca3b ab87 93bc 5e86 9abb 2eb6 2bbd
00000080: 60dc 753d da5f 313d 31d8 953b 7aec 79bd
00000090: afc9 a6bd 68df 703b c0d9 58bc b86b a8bb
000000a0: 8545 aebd c7c5 96bd 924e 79bc 43b7 3ebc
000000b0: 3aef 1ebc 541b 3cbd 7a09 51bc 05fd 013c
000000c0: 346d 43bb 1d34 e6bc 0020 883c b221 0b3c
000000d0: 35d0 b83c 187d ee3c 3da5 723c cf39 eebc
000000e0: bc56 5bbc 346a 83bc d9d5 67bc e921 313c
000000f0: 1919 fabc 8fe5 00ba 4f68 0cbc 9e4f 2b3c
00000100: 73c7 453c ea34 31bd 4251 5cbb 21df 04bd
00000110: bc39 103d c2b4 843d 0282 2fbb 4e4d 4f3c
00000120: 5f13 ae3c b1ec 573d a41c 263e 4c1a b33c
00000130: aa2a dfbc 3fdb 8ebb d9b6 b9bb 7f86 f53c
00000140: 323c 1e3c 2e99 613b 8b97 15bd 8669 11bc
00000150: 247f 6e3c 29e5 2cbc f6ca 0d3c 944e 853b
00000160: dc37 cf3c 883a 813c b184 8fbb 2ab9 0ebd
00000170: 6200 44bc 04d2 fbbb 44d1 e3bc 9b36 ffbc
00000180: 4822 3abd 2075 5cbd beea febd 5d2a 31be
00000190: 1240 ff3a ce83 403c 5336 0c3c dd9d 7ebc
000001a0: be1d 32bd 04ff 993c 310b ec3b f0d5 85bb
000001b0: a719 053c f353 3ebd c9d9 053d 029a c63c
000001c0: 9bbc 7e3b fe68 8eba e131 02bd 4a0d 91bb
000001d0: 905e 8c3c e3ad 45bd a951 07bd 3af1 cbbc
000001e0: 2a17 673d 63a0 333c 6378 103d aab4 3a3d
000001f0: 98e5 813d 21ab b23b e841 443c 360c 083a
00000200: f6e3 943c ab63 98bc 13b5 3e3b 35aa 083c
00000210: 00a8 87bb a049 003c 55a5 00bd e193 e3bc
00000220: cda5 cebc 01ca debc a98a 07bd 8ace f0bc
00000230: adca 883b 8985 f0bb ca3f 4b3b eca1 873c
00000240: b53d 14b9 fa5d 2f3c cd3a fd3c 262f 973c
00000250: 1afd ec3c 43b8 6f3c b25d 673b d7f8 0f3d
00000260: 7334 633d 9476 babc 4bb7 6ebd 23b3 a2bb
00000270: 0fcb daba 54af aebc 735a 82bd 2c7e 16bd
00000280: e1b5 1b3c 8cae efbb b35e 16bc d8c2 61bd
00000290: 4cb8 4b3a e341 583d 2ac3 a23c 6ea3 59bd
000002a0: a734 f73b 48aa 443c 9205 363d 8b9b 2c3d
000002b0: 8c30 28bd a6ae a23c df06 a23d 1d7a 9abc
000002c0: a6d8 e5bc d311 253c bfb6 a5bc 2f0a 0bbd
000002d0: fada 02bd ece3 5b3c 307b 9d3c cab9 d5bc
000002e0: 798e 983c df14 193a 74b6 0d3d 9245 313c
000002f0: 1917 46bc 5929 82bc 1621 a83c f63c aebb
00000300: f673 81bc b659 033c 9aa9 013d 97c2 b53c
00000310: d0e4 0e3b cee3 8a3a cd2f 2f3d 40b7 c43d
00000320: d2db 0c3d bab4 65bd 77a0 17bd 6e2b cebc
00000330: 1934 48bd 842c 54bc c657 febc 683e 39bd
00000340: af6b debb bd16 903c 8cf2 babd 2c36 1abd
00000350: ce54 9cbd 22fa 49bd f831 cc3d c2c3 0fbe
00000360: 0661 dcbd 6dcd aebd 2c43 47bd 65e7 b93d
00000370: fbcc 4fbd 2a02 82bd 0591 57bd 9ca0 543d
00000380: 7053 193e 3991 893c 718a 063a 5e89 c23a
00000390: 8413 e8bc 0327 80bc 6441 4e3d eb65 f73b
000003a0: 2307 9abc 4bad 61bd 825e 123d c922 67bd
000003b0: cdee 23bd 3719 87bd 6230 73bd cf2b 4c3d
000003c0: 8cfd b5bd c3bc 9abd 1c64 f5bc 3438 d63c
000003d0: 892d 553d e3ce a4bd 5c87 21bd 5975 f7bc
000003e0: 2bc9 693e 4afa 583d ef60 8d3d 1877 ccbc
000003f0: 097f 62bd eee3 99bd 9193 fbbd d8fc 733d
-0.021652434 -0.03809918 0.014109434 -0.011794063 0.029523365 0.006389652 -0.010133465 0.026400419
-0.007402665 0.010776154 -0.0031050623 -0.0072845975 -0.007768001 -0.019889278 0.0018606958 -0.04445013
-0.021322614 -0.034852535 -0.032211147 0.00010543779 0.0028483726 0.017999211 0.020901818 0.038162883
0.049717035 -0.12354032 -0.021096308 0.055225186 0.006172686 -0.018009027 -0.004715725 -0.041921787
0.06002462 0.0433043 0.004572891 -0.061016537 -0.08143937 0.0036754254 -0.013235509 -0.005139794
-0.085093535 -0.07361942 -0.0152164865 -0.011640373 -0.009700591 -0.0459245 -0.012758607 0.00793386
-0.0029819729 -0.028101021 0.016616821 0.00849192 0.022560218 0.029112384 0.014809904 -0.0290803
-0.013387378 -0.016041853 -0.014150106 0.0108113075 -0.030529546 -0.00049170194 -0.008569791 0.010455994
0.012071478 -0.043263353 -0.003361777 -0.032439355 0.03521131 0.06479789 -0.0026780372 0.012652708
0.021249471 0.05271596 0.16221863 0.021863125 -0.027242023 -0.0043596323 -0.005667549 0.02997136
0.009657906 0.0034423578 -0.036521476 -0.008875256 0.01455668 -0.010552683 0.008654347 0.004068205
0.02529519 0.01577498 -0.0043798317 -0.034844555 -0.011962982 -0.007684948 -0.027809747 -0.031153968
-0.04544285 -0.053822637 -0.12447117 -0.17301317 0.001947405 0.011750175 0.008557874 -0.015540567
-0.043485396 0.018798359 0.0072034826 -0.004084341 0.008123792 -0.04646678 0.0326784 0.024243359
0.0038869742 -0.001086503 -0.03178585 -0.004426633 0.017134935 -0.048261534 -0.03303686 -0.0248953
0.056418575 0.010963532 0.03527106 0.04558245 0.0634262 0.005452529 0.011978604 0.0005189808
0.018175106 -0.018602213 0.0029099628 0.008341362 -0.0041399 0.007830054 -0.031407673 -0.027780475
-0.025225544 -0.027195932 -0.03309122 -0.02939536 0.0041745515 -0.0073401374 0.0031013363 0.016556703
-0.00014137368 0.010703558 0.030911827 0.0184551 0.028929282 0.014631334 0.003530365 0.03514942
0.05546994 -0.02276162 -0.05828027 -0.0049652024 -0.0016692596 -0.021323837 -0.06364908 -0.03674142
0.0095038125 -0.007314509 -0.0091778515 -0.055117458 0.0007771298 0.05279721 0.019868452 -0.053134374
0.0075441184 0.012003489 0.044438906 0.042140525 -0.041061923 0.01985867 0.07911467 -0.018857056
-0.028057408 0.01007505 -0.020228742 -0.03394526 -0.031947114 0.01342104 0.01922378 -0.026089568
0.018622624 0.0005839597 0.03459783 0.0108198095 -0.012090468 -0.015888857 0.02052359 -0.0053173257
-0.015802365 0.008016994 0.031655885 0.022187514 0.0021803863 0.0010596456 0.042770196 0.09605265
0.034389324 -0.056080557 -0.037018266 -0.025167193 -0.04887781 -0.0129500665 -0.031047713 -0.04522553
-0.006787739 0.017588967 -0.091282934 -0.03764932 -0.07633363 -0.04931081 0.09970468 -0.1403952
-0.10760693 -0.085352756 -0.048648044 0.09077338 -0.050732594 -0.06348069 -0.052628536 0.05191098
0.14973235 0.01679288 0.0005132324 0.0014841964 -0.028329618 -0.015643602 0.05035533 0.0075499914
-0.018802231 -0.055096906 0.03573466 -0.056429658 -0.04002266 -0.06596606 -0.059372313 0.049846467
-0.08886251 -0.07555535 -0.029954962 0.026149847 0.05204538 -0.08047273 -0.03943573 -0.030207323
0.22830646 0.05297307 0.06903254 -0.024959132 -0.05529693 -0.07514177 -0.122840054 0.059567302

conv2.bias f4 [32]
00000000: 45d8 ba3b 2797 08bd 0add 473c 8cbf b4bc
00000010: 925c 763c 7709 8dbc 89d0 b7bc 4c6f 973c
00000020: 399a 4dbc 2958 9bbc 5ae7 c9bc 3747 693c
00000030: fc9b 3dbc b1de 7bbc c775 833c c51c ecbc
00000040: fcaf d2bc 00d9 6ebc e072 073b 7128 6fbd
00000050: 8bea 4c3d 62eb 08bc 0432 31bc a30e 883b
00000060: afaf 92bc 7281 23bc f565 9cbc f585 a33c
00000070: afff dfbc d16b 7c3b fef3 a53c 2ee9 dbbc
0.005702051 -0.033347275 0.012198696 -0.022063993 0.015036719 -0.017216427 -0.022438304 0.018485688
-0.012548977 -0.018962936 -0.02464645 0.01423817 -0.011572834 -0.015372918 0.016047372 -0.028822312
-0.025718682 -0.014578104 0.0020667836 -0.058388177 0.050028365 -0.008356901 -0.010815147 0.0041521355
-0.017906038 -0.009979593 -0.019091586 0.019961337 -0.0273436 0.0038516412 0.020257946 -0.026844587

conv3.weight f4 [1, 32, 5, 5]
00000000: 7a6e 45bd c343 7cbc a2f3 afbc 9bed f3bc
00000010: 57f5 983b 1846 d23b 2271 e6bc 46d0 58bd
00000020: b9b0 2cbc 2c77 8c3c e393 9f3c 0f51 3cbd
00000030: d74a 2ebd ffba 97ba 00cd 103c c32f c7bb
00000040: 814d c3bc 4edb ebbc 16cc 59bc d1c8 913c
00000050: 5d97 893d ecf3 623d b1bd 463d 995c 223d
00000060: 9f4a f33d efe6 26bd e890 dabc 773e 32bd
00000070: e3a0 07bc 670f 03bb 8ca2 26bd 37d6 57bd
00000080: aa18 bdbc 5f37 5bbc a1ac 01bd 8ae6 03bd
00000090: 6c5b 5cbc e654 24bd b883 d6bc 07f4 62bc
000000a0: 24f4 22bd 9c4d 473c c9ba 1cbd 3a09 4cbc
000000b0: a299 b6bc 1b52 bebb c5d6 69bd bb8a 89bc
000000c0: 4fd5 e0bc c5c4 4bb9 c674 153d 22ce 73bc
000000d0: 8bed d33b 559d 073d 5ed7 0c3d 35f6 0cbc
000000e0: 5a78 8d3c 7c85 a5bc 9691 64bc 2536 d9bc
000000f0: 2b0d 553c 3dbb ecbc dbe3 84bc e19e 6dbc
00000100: b468 9a3b 49e4 ae3b 252b debb c432 dfbc
00000110: d7c8 a1bb cb03 8e3c 1dcf 4e3c f3a6 8cbc
00000120: 964c b5bb d63f 03bd 2cab 9b3c 081e 03bd
00000130: e4ac adbc a4f9 5fbd 2a57 4cbd 4e4b d2bc
00000140: 9f05 43bc d96e cb3c 7e2a b13c 00e2 5abc
00000150: 0586 e83c eda9 cbbb 822c 94bc e54d 873c
00000160: 9412 b6bb 41aa 073d b27f 253c ca39 533c
00000170: 7f15 c4bc 48ed 0cbc cb45 203d 4b20 433d
00000180: 1be6 d23c a969 3f3b 7686 153d c27b a43d
00000190: fd49 9abd 720e 20bd aa5f b6bc 86b3 44bc
000001a0: 6a7f 88bd 1681 bfba e796 96bb 0795 213d
000001b0: 7c55 a7bc 63e3 92bc 57c7 cfbc dcf3 49bb
000001c0: c828 983c bf57 0cba d1da 773c b9e5 aebc
000001d0: e8f9 ac3c 3919 08bc 22e6 4cbc 2e8b 1d3c
000001e0: bc59 4fbc aa14 173d 80ee fb3c 556a aa3b
000001f0: 0b47 4f3c f977 dabd 2e10 a9bd 1e93 30bd
00000200: 62a3 69bd 4ec4 83bd d20a 08bd c783 11bd
00000210: 4f4d 0abd 9c91 08bd fb7a 03bd ab06 a3bd
00000220: 31c8 a4bc 75bb 68bd a979 3f3b f8f1 89bd
00000230: 5ed8 62bd 2e19 fdbb c1d3 0bbd 284f 18bd
00000240: d5bd 6dbc c0df a6bd 808f 5fbd da37 33bd
00000250: c99e 56bc 0964 0dbd 4397 2c3d a9bf e1bb
00000260: 7416 bebb 0074 193d 646d f63c 55bc 14bc
00000270: 4c04 0cbb 48f0 39bc e6b7 133b 6c6c 093d
00000280: a2e6 e7bc 4caf f73b 7b8c 2dbb 79f0 e8bb
00000290: 2c2c 2e3c 8e31 e43c d81c 90bc 32ba 02bc
000002a0: 75c7 963b a974 333c 0cdc 833c 55c8 f23c
000002b0: 8d87 763c 4df5 cb3c 8137 f43b 2149 973d
000002c0: c693 8d3d 98ec a53c 7dc7 db3b 1d87 243d
000002d0: 95ab a43d 1df9 a53c 7d87 b53c b28b 8a3c
000002e0: f5b8 fe3c 0006 7d3d 9bc4 24bc 16bd 133d
000002f0: 41f6 37bc e1ed 92bb 540c fd3c 4b35 013d
00000300: da0f 073d 8bdf 593b dae5 3c3c 263f c23c
00000310: 6de8 b43c e742 943c 1dc6 673b 7d0c 273d
00000320: 3f4c 343d ad28 293d f48c 423d 3198 123d
00000330: d18c 963d 2bf0 ffba af2a 203d 9278 0e3b
00000340: 3c3c c73c b012 683d c396 8a3c d061 c33c
00000350: 3369 2b3d b090 983b 038e 973c ba92 ab3c
00000360: ba57 3d3c ac7c dd3c d5fb a23c c64b d63b
00000370: b9e5 ed3c 272d 573c e556 f73c 9575 84bc
00000380: dd7d ac3c 087c 113d e503 bf3c 871a a63c
00000390: adae 3b3d 2e1d 043d 6034 1c3d a4da b53c
000003a0: fcff e63b 1b44 a93c f969 063d 083e c8bb
000003b0: 41eb 91bb bc61 673c 0060 063d 04f7 a13c
000003c0: e612 e83c 2ef1 1d3d 5af6 b23c 5e97 073b
000003d0: 23cb 223d 3ee4 353d 6421 4e3d e29d 113d
000003e0: 3e2d 083d 3a5d 8b3d 3183 db3c 985c cabb
000003f0: e275 653c 499c 5fbb 5438 283d f711 203b
-0.04820106 -0.015397015 -0.021478478 -0.029776385 0.0046679187 0.006417047 -0.028130118 -0.052933
-0.010540181 0.01714667 0.019479698 -0.04597574 -0.04255184 -0.0011576115 0.008837938 -0.0060786917
-0.023840668 -0.028791096 -0.013293287 0.017795952 0.067183234 0.055408403 0.048520748 0.03963909
0.11879467 -0.04074758 -0.026680425 -0.043516602 -0.0082781045 -0.0019998194 -0.04068236 -0.052694526
-0.02308305 -0.013379901 -0.031658772 -0.03220228 -0.013449531 -0.040120028 -0.026185855 -0.013852126
-0.039783612 0.0121645 -0.03826407 -0.012453372 -0.022290055 -0.0058081276 -0.057089586 -0.016789785
-0.027445463 -0.00019432891 0.036488317 -0.014880689 0.0064675263 0.033109028 0.034385078 -0.008603622
0.017269302 -0.020205252 -0.013950726 -0.026515076 0.013003628 -0.028897876 -0.016221931 -0.014503212
0.0047121886 0.0053372723 -0.0067800456 -0.027245887 -0.004937272 0.017335793 0.012622622 -0.017169451
-0.0055328114 -0.0320433 0.01900252 -0.032011062 -0.021200605 -0.054681435 -0.049887814 -0.025670674
-0.011903196 0.02483313 0.021626707 -0.013359547 0.028384218 -0.006215325 -0.01808763 0.016516635
-0.005556414 0.03312135 0.010101246 0.012892196 -0.023936031 -0.008601494 0.03912906 0.04763822
0.025744488 0.0029207265 0.036505185 0.080314174 -0.075336434 -0.039076276 -0.022262413 -0.012005692
-0.06664927 -0.0014610614 -0.0045956257 0.039448764 -0.020426504 -0.017930692 -0.025363607 -0.0030815518
0.018574134 -0.00053536514 0.0151278535 -0.021349775 0.021115258 -0.008306795 -0.01250604 0.009615703
-0.012655672 0.03688494 0.030753374 0.005200664 0.012651215 -0.10667414 -0.08255039 -0.043109052
-0.05704058 -0.064339265 -0.033213444 -0.035526063 -0.033765133 -0.03334199 -0.032099705 -0.07960256
-0.02011499 -0.056819398 0.0029216802 -0.06735605 -0.055382125 -0.007723949 -0.03413749 -0.037184864
-0.0145105915 -0.08148146 -0.05458021 -0.043754436 -0.013099381 -0.03451923 0.042136442 -0.0068893027
-0.0058010165 0.03746414 0.030081458 -0.009078105 -0.0021364866 -0.011348791 0.0022540032 0.033550665
-0.028308216 0.007558739 -0.0026481438 -0.0071087447 0.010630649 0.02785566 -0.017591879 -0.007978963
0.004601414 0.010953107 0.016096137 0.029636541 0.015046966 0.024897242 0.0074529056 0.07386995
0.06912951 0.020254418 0.0067071305 0.040167917 0.08040539 0.020260388 0.022159332 0.016912315
0.031094054 0.0617733 -0.01005664 0.036069 -0.011228145 -0.004483924 0.030889668 0.031544965
0.0329741 0.0033244814 0.01152941 0.023711752 0.022083485 0.018098308 0.0035365887 0.040783394
0.044018026 0.041298557 0.047497705 0.035789672 0.07351077 -0.0019526532 0.039103206 0.0021739346
0.024320714 0.056658447 0.016917592 0.023850352 0.041848373 0.00465592 0.018500334 0.020943988
0.01155656 0.027036987 0.019895473 0.0065397946 0.029040204 0.013133324 0.030192802 -0.016169349
0.02105611 0.035518676 0.023317287 0.020276321 0.04582088 0.03225439 0.038135886 0.022198983
0.0070495587 0.020662358 0.032815907 -0.0061109103 -0.0044530933 0.014122423 0.032806396 0.019771107
0.028329324 0.038560085 0.021845985 0.0020689587 0.039744508 0.04440712 0.050324813 0.03555096
0.03324627 0.06804891 0.026795955 -0.006175589 0.014005156 -0.0034120253 0.041069344 0.002442477

exp_avg f4 [64, 1, 9, 9]
00000000: d3e4 3cba ac9b 41ba f49c 45ba 02cf 39ba
00000010: 1165 3bba 4288 33ba 1299 2aba c3fa 2cba
00000020: 2e74 2eba d980 40ba 2311 40ba f60d 40ba
00000030: cfdf 36ba 2c19 37ba 3def 2bba c9df 1fba
00000040: c3ec 1fba 9f7a 1cba 259f 45ba 9048 48ba
00000050: 86b1 3fba 7e9b 41ba 1e51 33ba 8aaf 2fba
00000060: c274 1bba eab0 12ba 6306 15ba 8ce2 50ba
00000070: 3946 58ba 582c 56ba 1624 4aba 67e3 37ba
00000080: 3063 25ba ebfa 16ba a2a7 0dba a4b5 15ba
00000090: db09 6bba 8864 6aba bf7b 64ba 91ac 60ba
000000a0: 1b4d 40ba d5de 2aba 24f3 14ba 8610 0fba
000000b0: 99ed 1eba e3ef 70ba 7ae2 6eba e788 79ba
000000c0: 56a5 6aba 96c4 4cba 8b32 2cba b35d 14ba
000000d0: 4323 0eba 72fb 1eba 9118 6fba 8cdc 7bba
000000e0: e6e5 80ba ffb2 78ba b273 5fba 8df2 31ba
000000f0: c987 1eba ddca 16ba 45ab 1eba a861 6dba
00000100: 455b 75ba cd61 7cba ee91 75ba 26a4 57ba
00000110: edf9 3aba 03ee 23ba bfe6 1bba ff1d 20ba
00000120: d7ca 5dba a59b 66ba d074 69ba be74 6aba
00000130: fd24 60ba 9cf5 42ba a9c6 37ba 2edf 30ba
00000140: db38 2bba f81b 9439 7dfa 8a39 b891 8039
00000150: 20b2 8139 9bc2 7739 c0b3 6939 cbe9 8f39
00000160: e081 9139 cdbd 9639 982b 9739 a858 6e39
00000170: 2c53 7739 60dd 6339 7127 8139 a1db 8739
00000180: 700c 9839 243f 9d39 2d1e a739 dd15 8539
00000190: 06a3 7639 b9c2 7339 a7a2 7139 279f 8139
000001a0: ba31 7f39 a7e5 9439 33bf a139 7579 a339
000001b0: b392 8439 bf5a 7039 0e6e 6939 919b 5939
000001c0: 15de 5f39 24a4 8239 4c3c 9039 67c5 a439
000001d0: 6355 ac39 8e2e 9039 0ed8 8039 7c9b 8039
000001e0: d730 8939 1f29 8439 f608 9039 e4c0 9539
000001f0: a54c 9d39 74c9 a739 4e62 8b39 3388 8d39
00000200: 5d5d 8439 4b63 6e39 edab 8c39 1e88 8f39
00000210: 28a3 9939 e12f 9c39 0452 ad39 c17d 8e39
00000220: 4b95 8739 2e3e 8039 091a 8a39 cdcb 8839
00000230: 05c2 8f39 eb2f 9339 2e8c 9939 b8d4 9c39
00000240: f20f 9439 c21c 9039 3e52 8839 98d7 8539
00000250: 0e13 9639 1857 8939 439a 8339 77d5 8739
00000260: 273c 9239 97b4 8e39 f562 8939 1c46 7a39
00000270: 2145 8139 8def 8e39 104c 8939 a14b 8539
00000280: d3fb 8239 4821 8739 b1af 7bb9 ae08 e4b8
00000290: d8e7 f6b8 4192 40b9 63dd 71b9 f204 c6b9
000002a0: 9d30 17ba 4d93 37ba 49f3 5cba 8d0a 64b9
000002b0: 0ee4 e9b8 eea2 85b8 e325 c6b8 8197 69b9
000002c0: c7bd d5b9 92b7 2aba 0c86 5cba 2098 76ba
000002d0: 65eb 20b9 dc6f b1b8 097b 91b8 be2c cab8
000002e0: 9cc8 67b9 399a eab9 04fc 3eba b917 76ba
000002f0: 0787 81ba ceaf 5fb9 b9ae d7b8 d8df d2b7
00000300: 4881 dfb8 8d3e 92b9 b5c1 19ba 6c92 71ba
00000310: 0cbe 88ba df74 86ba 061f 57b9 ffbd b7b8
00000320: 2817 6bb8 eb1e 44b9 ec58 c8b9 7575 4bba
00000330: f72e 8cba fc34 a0ba 4130 96ba 450d 63b9
00000340: bf85 42b9 b571 2cb9 a98e 99b9 7f8b 0dba
00000350: fae2 60ba 87b4 95ba b79d 9dba 4d1c 94ba
00000360: a039 96b9 47ea 75b9 4603 84b9 3138 d1b9
00000370: 832d 2cba 17ba 79ba e335 8dba 818b 97ba
00000380: 83c7 88ba 0933 c6b9 3cdb 99b9 8466 a0b9
00000390: 6726 01ba d5a8 36ba f4c2 78ba 7e9e 8bba
000003a0: 9f69 82ba 0c3e 87ba e4ac dfb9 ab7d b8b9
000003b0: 4366 bab9 94e5 08ba b007 2aba 0909 64ba
000003c0: 008f 6dba 75b2 76ba 4c8c 5dba a01f af35
000003d0: 6a1c cfb6 b09c 4f38 8b43 8eb7 ec19 a437
000003e0: 2a81 9d38 c7d8 0437 e25a 7ab8 a0dd 2db9
000003f0: 1260 9eb8 f75a 3a38 27c0 cb38 a45d 1038
-0.00072057283 -0.00073855626 -0.00075383415 -0.00070880365 -0.0007148544 -0.0006848612 -0.00065077946 -0.00065986457
-0.00066548854 -0.00073434185 -0.00073267723 -0.0007326299 -0.0006976099 -0.0006984647 -0.00065587816 -0.0006098715
-0.0006100649 -0.00059691997 -0.0007538668 -0.0007640207 -0.0007312525 -0.0007385536 -0.00068403955 -0.00067018776
-0.0005930179 -0.000559582 -0.00056848506 -0.00079683284 -0.000825021 -0.000817006 -0.00077110657 -0.00070147816
-0.00063090306 -0.00057594356 -0.00054037024 -0.00057109655 -0.0008966007 -0.0008941372 -0.00087159494 -0.0008570636
-0.00073357084 -0.000651819 -0.0005681983 -0.0005457479 -0.00060626265 -0.00091910193 -0.0009112727 -0.0009518996
-0.00089510286 -0.0007811276 -0.0006568811 -0.0005659714 -0.00054221245 -0.000606469 -0.0009120787 -0.0009607754
-0.000983414 -0.0009487122 -0.0008524015 -0.0006788157 -0.0006047455 -0.0005752275 -0.0006052743 -0.00090553844
-0.00093596085 -0.00096276106 -0.00093677535 -0.0008226059 -0.0007132579 -0.0006253423 -0.00059471646 -0.00061079854
-0.00084607064 -0.00087969966 -0.0008905651 -0.00089437875 -0.00085504336 -0.00074371113 -0.00070104987 -0.00067471236
-0.00065316044 0.00028249598 0.0002650804 0.0002452263 0.0002473751 0.00023628252 0.00022287574 0.00027449275
0.0002775332 0.00028751642 0.00028833444 0.00022730476 0.0002358674 0.00021730876 0.00024634184 0.00025912843
0.00029000966 0.00029992417 0.00031875205 0.00025384026 0.00023521119 0.00023246826 0.00023044144 0.00024723375
0.0002433722 0.00028399864 0.00030850768 0.00031180275 0.000252863 0.00022921989 0.0002226161 0.00020752686
0.00021349669 0.00024917827 0.00027510745 0.00031427594 0.00032870015 0.00027500506 0.00024575036 0.00024529907
0.00026167065 0.0002520764 0.00027472497 0.0002856321 0.00030002478 0.00032002816 0.0002658539 0.00026995092
0.00025246563 0.00022734438 0.00026830976 0.000273765 0.00029303995 0.0002979031 0.00033058238 0.00027178045
0.00025860438 0.0002446039 0.0002634081 0.00026091785 0.0002741964 0.00028073727 0.00029286876 0.00029913126
0.0002824064 0.00027487247 0.00026001217 0.00025528367 0.00028624426 0.00026195566 0.000251012 0.0002590825
0.00027892107 0.000272189 0.00026204405 0.00023867976 0.00024656302 0.0002726283 0.00026187347 0.00025424085
0.00024983156 0.00025774003 -0.00024002675 -0.00010873504 -0.00011773378 -0.0001836503 -0.00023066024 -0.00037769187
-0.0005767437 -0.00070028455 -0.00084285863 -0.00021747705 -0.00011152784 -6.372282e-05 -9.448433e-05 -0.00022277051
-0.0004076792 -0.00065123395 -0.00084123085 -0.00094068237 -0.0001534648 -8.460853e-05 -6.937056e-05 -9.6404445e-05
-0.0002210461 -0.00044746863 -0.0007285478 -0.000938769 -0.000988216 -0.0002133243 -0.000102845435 -2.5138186e-05
-0.00010657549 -0.00027893894 -0.00058653514 -0.0009215239 -0.0010432615 -0.0010258219 -0.00020515555 -8.7615095e-05
-5.6049932e-05 -0.00018703534 -0.00038213225 -0.0007761338 -0.0010695149 -0.0012222822 -0.0011458473 -0.0002165335
-0.00018551106 -0.00016445557 -0.00029288724 -0.00053995097 -0.0008578744 -0.0011421599 -0.0012025152 -0.0011299938
-0.00028653163 -0.00023452296 -0.0002517944 -0.00039905452 -0.0006568061 -0.0009526326 -0.0010773506 -0.0011561961
-0.0010435436 -0.00037803527 -0.00029345776 -0.00030593958 -0.0004926682 -0.0006967907 -0.00094894995 -0.0010652093
-0.000994969 -0.0010318174 -0.00042662688 -0.00035188845 -0.00035552875 -0.0005222198 -0.0006486131 -0.0008698856
-0.0009062141 -0.00094107474 -0.0008451387 1.304772e-06 -6.1723886e-06 4.9498572e-05 -1.6959171e-05 1.9562394e-05
7.510402e-05 7.9182855e-06 -5.9689286e-05 -0.00016581127 -7.5519216e-05 4.4430573e-05 9.7155855e-05 3.4419485e-05

exp_avg_sq f4 [64, 1, 9, 9]
00000000: a046 0a37 f95c 0537 d7fe 0037 5198 e936
00000010: e2de e036 b15d d836 8594 db36 47da e536
00000020: 82c0 f836 aed0 1037 8f33 0d37 62e7 0937
00000030: baff f636 2c1b e436 ac07 da36 beb8 d336
00000040: 48b6 d736 1ed5 e736 c29e 1e37 0bd1 1e37
00000050: 6e13 1637 35ef 0b37 dc96 f736 acb0 dc36
00000060: b7c4 cf36 a6ac cd36 bb42 da36 3e49 2837
00000070: 65d7 3437 6c19 3137 c2ef 1b37 9f77 0837
00000080: 6b1e ec36 6b33 d736 80bc cb36 d7cf d636
00000090: c01d 3b37 3329 4637 4d52 4a37 cf1f 3637
000000a0: 40a7 1637 e253 fe36 7ab6 da36 3759 ce36
000000b0: 3f1f d236 2579 4937 33e9 5537 4ac2 5d37
000000c0: be28 4237 7f36 2937 3ac6 0a37 289d ed36
000000d0: 9b40 d936 977c db36 96bd 4c37 ccaa 6037
000000e0: 5404 6237 eabc 4f37 490a 3537 a854 1337
000000f0: 6538 fe36 3d1a ed36 6b17 e836 0616 4537
00000100: 8406 5437 ca11 5637 0b96 4937 7996 3037
00000110: dfe8 1a37 6037 0537 e5d6 fe36 63e5 f736
00000120: fda7 3837 6b70 3c37 b059 4237 4a16 3f37
00000130: d215 3337 ecc8 2037 b4d6 1037 c861 0b37
00000140: 08f0 0437 7b24 ef36 3f31 f636 6b33 f936
00000150: 85d5 0037 d10b 0437 1c37 f836 83a1 eb36
00000160: 846e f936 4558 f236 92f0 f236 c998 f636
00000170: c55d 0537 dc91 0237 5819 0d37 e6d7 0737
00000180: a3f7 0137 f570 fa36 9b3c fd36 0a91 f236
00000190: fdf3 fa36 574b 0437 1a40 1637 4eb4 1737
000001a0: d10e 0737 286f 0237 75df f136 083e f436
000001b0: 2780 ee36 49b2 f336 2ae9 fc36 d440 1737
000001c0: 9f32 1837 a283 0837 0251 fe36 31c2 f936
000001d0: 2527 f236 5f90 e336 9623 eb36 620e f636
000001e0: ce08 0f37 46f4 1a37 8135 0e37 36f9 0337
000001f0: 6af9 0537 9a32 f636 6517 e336 ad0b e336
00000200: 546a f836 3b7c fb36 d2ab 0237 4fd0 0b37
00000210: 77cf 0237 7fe4 fe36 05b9 0237 1fcf df36
00000220: 48db eb36 a2fc ec36 0455 f636 cc40 fc36
00000230: 1435 0637 f116 0837 a05b 0937 a3f7 0737
00000240: 8161 d936 b154 e536 5879 e236 d29f e636
00000250: e986 fd36 ad42 0137 ff0b 0537 e000 0d37
00000260: 34e5 0c37 c555 e136 4875 e236 8c8d ea36
00000270: 9ef2 ec36 cb14 ee36 8710 f536 e29b 0637
00000280: 1195 0c37 600f 1237 3825 2339 b835 2839
00000290: 99d5 2a39 8447 2439 3b85 1939 07ed 0e39
000002a0: e080 0739 0670 0239 43c1 fe38 47c8 2b39
000002b0: 69cf 3339 cdaa 3539 1aff 2a39 e153 1c39
000002c0: 960d 0f39 69be 0739 7809 0439 2281 0139
000002d0: 9ed6 3239 4da9 3c39 7c92 3939 faea 2b39
000002e0: f29e 1a39 d02e 0c39 ce13 0839 a004 0739
000002f0: 1983 0539 df3a 3339 8f88 3939 60ee 3439
00000300: b849 2339 d161 1139 afe8 0839 9616 0a39
00000310: 80f8 0c39 ac4e 0b39 10a1 2c39 409e 2f39
00000320: f17a 2539 56a1 1339 e59a 0639 370c 0639
00000330: d82a 0e39 0295 1439 5345 1239 8676 2039
00000340: d64f 1d39 e99c 1139 4074 0439 8e3b fe38
00000350: 49e7 0439 8db1 1239 a862 1739 d427 1539
00000360: c8c6 1039 4a40 0b39 e0d8 0139 caba f438
00000370: 511e f838 a0a0 0739 deb7 1139 7a9c 1839
00000380: 4b34 1539 cc63 0439 e5b8 fd38 8472 f138
00000390: eca2 eb38 ac14 f738 bd8e 0639 4066 1039
000003a0: e2e8 1339 edd7 1239 3929 fa38 2b36 f338
000003b0: e360 eb38 6c7f ea38 eace f338 8031 0139
000003c0: 2d03 0b39 47b1 0d39 acc1 0a39 cbfa 2439
000003d0: 1154 1939 30a8 2539 57b1 2739 9cb4 2339
000003e0: 79ef 1a39 07fe 1739 68b6 1939 c81f 1339
000003f0: e470 2139 5942 1f39 f568 2239 ab4a 2a39
8.241885e-06 7.949065e-06 7.688729e-06 6.961673e-06 6.701667e-06 6.4482088e-06 6.5439986e-06 6.8501427e-06
7.413387e-06 8.631656e-06 8.416259e-06 8.219709e-06 7.361142e-06 6.7980927e-06 6.4977994e-06 6.309797e-06
6.4287196e-06 6.9091466e-06 9.454498e-06 9.4662055e-06 8.9452205e-06 8.34074e-06 7.378736e-06 6.5770782e-06
6.1919814e-06 6.129575e-06 6.5046747e-06 1.0030633e-05 1.07789865e-05 1.0555941e-05 9.294543e-06 8.134083e-06
7.036889e-06 6.413485e-06 6.0718157e-06 6.4018927e-06 1.1152995e-05 1.1811312e-05 1.20593e-05 1.0855451e-05
8.979638e-06 7.579555e-06 6.5181493e-06 6.1496644e-06 6.262125e-06 1.200874e-05 1.2750085e-05 1.3217863e-05
1.1572787e-05 1.0085873e-05 8.271594e-06 7.081446e-06 6.474625e-06 6.5412128e-06 1.2203489e-05 1.3391207e-05
1.3471657e-05 1.2382146e-05 1.0790835e-05 8.781593e-06 7.576355e-06 7.066205e-06 6.916865e-06 1.1747243e-05
1.2637702e-05 1.2759536e-05 1.2015468e-05 1.0525452e-05 9.233335e-06 7.940311e-06 7.594807e-06 7.3878778e-06
1.10063675e-05 1.1231848e-05 1.1584183e-05 1.1389677e-05 1.0674312e-05 9.583524e-06 8.633058e-06 8.307812e-06
7.9237e-06 7.127002e-06 7.3371043e-06 7.426764e-06 7.679108e-06 7.870564e-06 7.3973915e-06 7.022348e-06
7.433644e-06 7.222438e-06 7.240168e-06 7.349158e-06 7.94925e-06 7.782564e-06 8.410156e-06 8.096895e-06
7.746657e-06 7.4637305e-06 7.547043e-06 7.229047e-06 7.4789846e-06 7.8853545e-06 8.9556215e-06 9.042282e-06
8.050077e-06 7.774484e-06 7.2083735e-06 7.278988e-06 7.1078716e-06 7.2627195e-06 7.537329e-06 9.015395e-06
9.071692e-06 8.13688e-06 7.5792204e-06 7.443385e-06 7.216719e-06 6.781934e-06 7.0076885e-06 7.3330457e-06
8.525514e-06 9.23599e-06 8.476317e-06 7.866232e-06 7.985489e-06 7.337262e-06 6.7678507e-06 6.7664864e-06
7.403354e-06 7.4948452e-06 7.788609e-06 8.333546e-06 7.796908e-06 7.5963903e-06 7.791682e-06 6.67003e-06
7.0290735e-06 7.0627584e-06 7.3412684e-06 7.5177286e-06 7.999381e-06 8.111573e-06 8.187169e-06 8.1042845e-06
6.478455e-06 6.834591e-06 6.749451e-06 6.8731397e-06 7.555693e-06 7.704523e-06 7.930211e-06 8.404459e-06
8.398016e-06 6.7155074e-06 6.748978e-06 6.9902217e-06 7.0615924e-06 7.0953733e-06 7.303493e-06 8.023317e-06
8.3793575e-06 8.705858e-06 0.00015558756 0.0001604174 0.00016292035 0.000156669 0.00014640849 0.00013630475
0.00012922613 0.00012439498 0.000121476616 0.0001638244 0.00017148037 0.00017325133 0.00016307496 0.00014908567
0.00013642604 0.00012945537 0.00012592028 0.00012350504 0.00017055354 0.00017992147 0.00017697545 0.00016395366
0.00014745796 0.0001336888 0.00012977349 0.00012876326 0.00012732706 0.00017092701 0.00017693847 0.0001725494
0.00015572354 0.00013864717 0.00013056652 0.0001316912 0.00013444014 0.0001328538 0.00016463199 0.00016748253
0.00015781425 0.00014079115 0.00012836939 0.00012783786 0.00013558136 0.0001416989 0.0001394947 0.00015302942
0.00015002428 0.00013886731 0.00012631807 0.00012122757 0.00012674661 0.00013989788 0.00014437234 0.00014224584
0.00013806962 0.00013280023 0.00012383191 0.00011669619 0.000118312084 0.00012934441 0.00013896773 0.00014554142
0.00014229228 0.00012625678 0.000120984194 0.00011513106 0.0001123602 0.00011781728 0.0001283241 0.00013771001
0.00014105768 0.00014004084 0.00011928607 0.000115972325 0.0001122372 0.00011181724 0.00011625684 0.00012320839
0.00013257256 0.00013512849 0.00013232854 0.00015733686 0.00014622534 0.00015798281 0.00015992425 0.00015612174
0.00014775795 0.00014495115 0.00014659169 0.00014030852 0.00015396212 0.00015188138 0.00015488623 0.0001624028

exp_avg f4 [64]
00000000: 5dd4 0fbb 43fb 0d3b 085e e2ba aafa a43a
00000010: b29c 143c fec9 29bc 3146 7ebb 7d40 a43b
00000020: f695 fc3a ce25 033a 1340 42bb 4d96 693b
00000030: 204b 033b 1c73 f53a 8d1f 9eba f34b 2c3c
00000040: b870 6bbc a98c 6a3c 9ad3 3eba de91 2a3c
00000050: 0400 0080 0908 dc3b 5fc8 043b b3f5 2eba
00000060: 3e9b 553a 478c fe3a 1ca1 acba cccd e13a
00000070: 8fcb 853b 0b86 3a3c 210d aaba 8c0d 4f3b
00000080: f3ee aaba d6dc b23a 0f25 843b 2895 2b3a
00000090: 004e 213c 45a8 223a c9c6 5cbb 5db0 63ba
000000a0: 27a0 39ba 9422 6cbc a9cf f1b9 ae12 4cbb
000000b0: 6545 82ba 7500 823c 624c ca3b 259a 80bb
000000c0: a272 3abc b5b6 9a3a c21d f8bc 25ca 483c
000000d0: ac5e 53bb 6d93 99ba ec9a 1b3b e0da 163b
000000e0: 31be babb db14 963b 1333 e4b9 878e 41b9
000000f0: 3805 e63a 88ff cfb9 783b 433b 49c8 be3b
-0.0021946647 0.0021664656 -0.0017270455 0.0012586911 0.009070562 -0.0103631 -0.0038799162 0.0050125704
0.0019270766 0.0005002887 -0.0029640242 0.0035642565 0.0020033792 0.0018726322 -0.0012063846 0.010516155
-0.014370136 0.014315763 -0.0007279456 0.010410754 -6e-45 0.006714825 0.0020261032 -0.0006674185
0.0008148438 0.0019420468 -0.0013170573 0.001722747 0.004083104 0.011384497 -0.0012973883 0.0031593768
-0.0013041183 0.0013646137 0.004032738 0.00065453583 0.009845257 0.00062048837 -0.003368782 -0.0008685643
-0.00070810545 -0.014412541 -0.0004612182 -0.0031139064 -0.0009938894 0.015869359 0.0061736563 -0.0039246255
-0.01137987 0.0011803719 -0.030287627 0.012255226 -0.0032252474 -0.001171691 0.0023743464 0.0023018643
-0.005698942 0.004580123 -0.00043525602 -0.0001845901 0.0017549163 -0.00039672502 0.0029790085 0.0058222157

exp_avg_sq f4 [64]
00000000: ab27 a838 48a8 2439 3990 913a bed9 fb3a
00000010: f18b c93b 3e70 b33a d371 613a 9858 933a
00000020: 1664 b73a 1f9f 2c36 f791 de39 38fb 213a
00000030: 487b c738 e2a3 313b 6c4b b339 df1c 463c
00000040: c479 0d3b edb4 973c fa45 b939 dde4 293c
00000050: c9d1 0500 021d 813b 9fe2 9d3a 677b c839
00000060: f232 133b 2242 af39 fef4 663a ce88 713a
00000070: 78d9 2c3b c571 5a3c 1fd5 3f3a 7f49 4a3a
00000080: 6bc2 863b e47e c739 90cc 6b39 97bc eb3a
00000090: e1f6 333c 5faa 4c39 24b7 f339 1728 8d39
000000a0: abd9 a83a 7382 113b ae27 a638 ed72 c53a
000000b0: a57a b338 4684 053c 4465 ea3b 6dda d739
000000c0: c014 4c3a 5363 d037 e698 503c 7ed7 953c
000000d0: f383 c938 1e14 fc39 87f1 2239 bbc7 f639
000000e0: bae9 9839 f734 b039 2c0b 0c3a a32b 2b38
000000f0: fbe7 9f3a 72bd db37 5fa1 523a a00d 533b
8.018253e-05 0.00015702948 0.0011105604 0.0019214673 0.0061507155 0.0013690067 0.000860003 0.0011241613
0.001399162 2.5722618e-06 0.00042451892 0.0006179097 9.5120224e-05 0.0027105738 0.00034197734 0.012091844
0.002158747 0.01851889 0.00035338086 0.010369507 5.34434e-40 0.0039402256 0.0012045688 0.00038238915
0.0022460786 0.00033427874 0.00088103104 0.0009213806 0.0026374739 0.013332789 0.00073178293 0.000771664
0.004112532 0.0003805078 0.00022487552 0.0017985281 0.0109841535 0.00019518424 0.00046485022 0.00026923485
0.0012882253 0.0022202998 7.922888e-05 0.0015064158 8.5582295e-05 0.008149212 0.007153185 0.00041170735
0.00077850744 2.4841784e-05 0.012731766 0.018291231 9.609004e-05 0.00048080174 0.000155395 0.00047069587
0.0002916584 0.00033608798 0.0005342241 4.0810217e-05 0.0012199873 2.6195052e-05 0.00080349104 0.0032204166

exp_avg f4 [32, 64, 5, 5]
00000000: 02a9 39b7 f727 7ab7 e2bc f8b7 1b95 e8b7
00000010: 8176 c7b7 1e1a 31b7 3b1c 8db6 18f1 50b7
00000020: faca 95b7 4ae8 40b6 1d0c 05b8 8c50 f4b7
00000030: 558a f1b7 1369 f2b7 457d 75b7 0980 7ab8
00000040: d0bc 3fb8 0274 2ab8 6b3c 09b8 b3b4 eeb6
00000050: 43b1 4ab8 2a37 ffb7 ae1d fab7 5286 fcb6
00000060: 8297 3137 f3ad 94b6 0e1c 4ab5 9e6c 00b6
00000070: 93df 03b6 a308 70b5 283b 2db6 6512 a535
00000080: 7d20 a1b5 ec2e b1b5 b948 e8b5 b97e b135
00000090: 0e03 c3b5 9690 deb5 d50c 17b6 07d7 83b6
000000a0: f9cf 4ab5 784b 8fb5 f559 a3b6 30cf 2bb6
000000b0: 6c4c 1eb6 37f8 eab5 146e 04b6 538e 52b6
000000c0: 955f 98b5 51d4 1bb6 991c 9438 2d8d 9538
000000d0: caa0 8138 bd58 6638 de8b 3038 b804 eb38
000000e0: 953b c138 b349 9f38 696f 5238 e7f8 b437
000000f0: 1614 d138 6e24 c138 e5b6 8138 500c 0738
00000100: e6d5 e2b4 385f ce38 2364 8138 426b da37
00000110: 57c7 cfb6 4d6f e2b7 fd53 8738 9b8f 1738
00000120: 4531 7cb5 fbe8 efb7 9393 8db8 3616 6637
00000130: 2c9f 6537 ea24 3f37 323e 4437 6644 2a36
00000140: e13d 6936 872f 9736 f0bd 0336 0ec9 98b5
00000150: 7cc8 14b5 abe2 e135 4423 feb6 1752 3db5
00000160: f443 b034 fcaf 9336 fe23 92b6 2b9b 52b7
00000170: 5bc8 1cb7 ac91 5eb7 c59a 42b7 04e1 11b7
00000180: dcae 6ab7 faed 73b7 0136 95b7 0b3e 76b7
00000190: ccb8 5037 f022 6d37 34cf 8436 b228 a6b4
000001a0: 6abd a936 e0cd 7437 7982 4c37 9ba8 2737
000001b0: 6b43 7f35 9537 8936 727f 8e37 eb8a 2c37
000001c0: e0d9 f036 05cb 8336 124d dc36 6066 bd36
000001d0: f109 1137 3291 c736 1ea3 a036 542c c436
000001e0: a1a7 9436 c23b d1b1 271a 6836 f329 0537
000001f0: 3e11 3637 376b b636 85be 9f37 8163 ca37
00000200: 4763 fb37 39b2 7c38 a648 2f38 b58e 6838
00000210: 1286 8138 20c7 7838 c9ca 9838 ee2e 3738
00000220: effe 4238 7216 5838 c985 6038 eac0 7338
00000230: 2d9e 0438 2415 3f38 151a 2538 6f64 1f38
00000240: 75f4 3438 327f 9236 4e16 0837 753a 3f37
00000250: 43a9 0537 5779 1db6 6c24 93b7 c8bc 8eb7
00000260: f70b 99b7 7a32 32b7 8a37 8ab7 7f92 95b7
00000270: ffc7 94b7 4ee7 96b7 5111 61b7 8056 48b7
00000280: 8064 76b7 f840 89b7 ac76 85b7 0785 42b7
00000290: 9c10 8eb7 fde2 5bb7 922b a3b7 5910 8fb7
000002a0: a0dd acb7 fb4a afb7 40ea 31b7 ea8b e9b7
000002b0: 6ba5 ceb7 8003 fbb7 6192 f6b7 45e6 2a37
000002c0: a659 3137 f1de 1237 ce67 0337 1521 b936
000002d0: fd7f f636 58de 0c37 f30c b736 df36 2e36
000002e0: af4c 1636 1f49 a536 4eaa 0137 55f8 e336
000002f0: 9840 ae36 e76f e635 799d 8d36 47dc b436
00000300: 1126 9d36 71da be36 07af 8436 680d 6d36
00000310: 64b5 a835 72c8 5c34 b241 7635 3b62 a0b4
00000320: 3717 ba35 b95d dfb5 21b1 1ab7 06a9 25b7
00000330: 7d16 84b6 9093 30b4 c677 bab5 ebcd 04b7
00000340: 34d9 ddb6 223f b7b6 f58c 1ab6 9cc2 b4b5
00000350: 44df efb6 28fd c3b6 a992 3ab7 dbd8 0fb6
00000360: af2c b2b4 c514 69b6 94a3 2db6 d33a 9fb6
00000370: 28e2 a8b4 839b 4c35 ab33 18b5 ce18 3536
00000380: bd89 c935 cca3 c3b4 2970 e0b3 ffa7 ebb2
00000390: 3e90 9233 ee28 4d34 b90a c0b3 c8ea 87b4
000003a0: d42b 31b4 026c c932 3b4f 7132 58b7 cdb3
000003b0: 03fd 65b4 936d 1eb3 3f02 8233 9daa b6b2
000003c0: 2667 c5b3 2dd7 62b4 2673 14b4 1320 29b4
000003d0: 8eb4 5432 76e5 64b4 ce47 a5b4 5908 8fb4
000003e0: 462c 52b4 7f85 9c33 8232 b636 051c 0835
000003f0: 21e4 86b6 ef05 c0b6 10b1 14b7 13d3 0fb4
-1.10662095e-05 -1.4910466e-05 -2.965186e-05 -2.7725988e-05 -2.3777831e-05 -1.0556103e-05 -4.205414e-06 -1.24539e-05
-1.7856702e-05 -2.874544e-06 -3.1720952e-05 -2.9124574e-05 -2.8793855e-05 -2.8897577e-05 -1.4632305e-05 -5.9723887e-05
-4.5713794e-05 -4.06392e-05 -3.2719614e-05 -7.113989e-06 -4.832564e-05 -3.0424057e-05 -2.9816143e-05 -7.525822e-06
1.0585298e-05 -4.430994e-06 -7.529169e-07 -1.913671e-06 -1.9650658e-06 -8.9419535e-07 -2.5813442e-06 1.2298811e-06
-1.200489e-06 -1.3201184e-06 -1.7306512e-06 1.3224409e-06 -1.4529521e-06 -1.6582369e-06 -2.2508223e-06 -3.9291367e-06
-7.5553504e-07 -1.0676295e-06 -4.868251e-06 -2.5601585e-06 -2.3588318e-06 -1.7506599e-06 -1.9733607e-06 -3.1375282e-06
-1.13527e-06 -2.3220384e-06 7.062517e-05 7.13117e-05 6.181149e-05 5.4918917e-05 4.209193e-05 0.00011206552
9.214055e-05 7.5954384e-05 5.017166e-05 2.1573576e-05 9.969638e-05 9.209743e-05 6.185266e-05 3.2197975e-05
-4.2251412e-07 9.840581e-05 6.169851e-05 2.6037571e-05 -6.192287e-06 -2.6993128e-05 6.452946e-05 3.613495e-05
-9.394901e-07 -2.859951e-05 -6.750892e-05 1.371424e-05 1.3686524e-05 1.1393082e-05 1.1696991e-05 2.5371787e-06
3.4755724e-06 4.5056836e-06 1.963108e-06 -1.1383397e-06 -5.542604e-07 1.6829775e-06 -7.5738953e-06 -7.0527443e-07
3.2831997e-07 4.4014287e-06 -4.355329e-06 -1.2553103e-05 -9.3449735e-06 -1.3266148e-05 -1.1599336e-05 -8.695064e-06
-1.39881995e-05 -1.4539337e-05 -1.7787332e-05 -1.4677188e-05 1.24407925e-05 1.4134435e-05 3.958028e-06 -3.094952e-07
5.058643e-06 1.4591467e-05 1.2189726e-05 9.993232e-06 9.509301e-07 4.0893888e-06 1.6987065e-05 1.0284343e-05
7.1779214e-06 3.927739e-06 6.565483e-06 5.644557e-06 8.644988e-06 5.947565e-06 4.787361e-06 5.8464157e-06
4.4302583e-06 -6.0894942e-09 3.4585917e-06 7.937185e-06 1.085206e-05 5.436504e-06 1.9042995e-05 2.4126612e-05
2.9967761e-05 6.0247465e-05 4.179091e-05 5.5446017e-05 6.176172e-05 5.9313257e-05 7.2856965e-05 4.3674307e-05
4.649063e-05 5.1519317e-05 5.353036e-05 5.811538e-05 3.1618565e-05 4.5557637e-05 3.9363356e-05 3.800209e-05
4.3143013e-05 4.3659466e-06 8.111425e-06 1.1398098e-05 7.966827e-06 -2.3465452e-06 -1.7540726e-05 -1.7015627e-05
-1.8244593e-05 -1.0621379e-05 -1.6476744e-05 -1.7830402e-05 -1.7736105e-05 -1.7989103e-05 -1.3415077e-05 -1.1941069e-05
-1.4686142e-05 -1.6361926e-05 -1.5910096e-05 -1.1594274e-05 -1.6935453e-05 -1.3106267e-05 -1.9451403e-05 -1.705454e-05
-2.06072e-05 -2.0896541e-05 -1.0604563e-05 -2.7840917e-05 -2.4634142e-05 -2.9923161e-05 -2.9393648e-05 1.0186403e-05
1.0570895e-05 8.754186e-06 7.832377e-06 5.517281e-06 7.346271e-06 8.396419e-06 5.4553325e-06 2.595996e-06
2.2396378e-06 4.9258956e-06 7.728651e-06 6.794037e-06 5.193124e-06 1.7168903e-06 4.2204597e-06 5.3900617e-06
4.683396e-06 5.687871e-06 3.9542824e-06 3.5323555e-06 1.2569767e-06 2.0562018e-07 9.173774e-07 -2.9873794e-07
1.3864836e-06 -1.6642072e-06 -9.220356e-06 -9.87412e-06 -3.9365245e-06 -1.644496e-07 -1.3892939e-06 -7.915757e-06
-6.611599e-06 -5.4611746e-06 -2.3029836e-06 -1.3467684e-06 -7.1487466e-06 -5.840924e-06 -1.1120611e-05 -2.1434887e-06
-3.3187595e-07 -3.4731795e-06 -2.5874224e-06 -4.7454173e-06 -3.145699e-07 7.622222e-07 -5.66996e-07 2.698554e-06
1.5015754e-06 -3.6440758e-07 -1.0451215e-07 -2.7433996e-08 6.824892e-08 1.9107003e-07 -8.942647e-08 -2.5316535e-07
-1.6500354e-07 2.3448596e-08 1.4046061e-08 -9.5794064e-08 -2.1419332e-07 -3.68869e-08 6.054005e-08 -2.1265175e-08
-9.19229e-08 -2.112617e-07 -1.3825465e-07 -1.575102e-07 1.23810775e-08 -2.1317632e-07 -3.078589e-07 -2.66419e-07
-1.957388e-07 7.288599e-08 5.4299026e-06 5.070472e-07 -4.020069e-06 -5.7227367e-06 -8.862713e-06 -1.3394701e-07
