logs/biosr_ccps_rcan_model-SRCNN_250305_lr0.0001_bs1_Ps256_Npatch128_N300/model_249.pth (torch, 695046 bytes, 15 tensors)

conv1.weight f4 [64, 1, 9, 9]
00000000: b1b0 a33d 3106 ecbc 47b2 a93d 12b5 bcbc
00000010: 0c9a 3b3d 112d 20bd 997a 093e 8c74 33bc
00000020: 6796 523e abd3 e3bc 2e84 bdbd 86dc 443d
00000030: 8ce1 4dbd a61f f93c 11de 2d3d e1fa f23c
00000040: d376 9d3d 8330 db3d a506 ae3d f41b 1b3d
00000050: db63 c5bd 242c 9bbc 716a 54bd 2e59 c1bd
00000060: 9d7e 8dbd 7ef4 94bd b51b 4d3d 5ade d2bd
00000070: 5cb5 0cbd 9e13 be3c d140 9ebd 5b3b cebd
00000080: 6e8e b03a 3c23 00bd 9176 2dbd 7699 983d
00000090: 986a 95bd 7e19 80bd 8d77 77bb e158 333d
000000a0: 5be2 01bd 21e4 923d 286f 513d b29c 843d
000000b0: 487f c73c 5daa 16bd 4080 c8bd a0da aeba
000000c0: 5fb2 c0bd 3b25 d73c 1ce4 d63c 0ab5 af3c
000000d0: 597e 593d 42bf ff3d 110d 60bd dd88 e5bc
000000e0: b361 0bbc f869 063d 70e7 9f3d adec 763d
000000f0: ee85 3dbd 0958 d63d cbb5 e13b 0b1c 183d
00000100: 766e 133d 125b 023b 91f1 50bd d545 55bd
00000110: a475 253c 86da 87bd d8b1 b4bc fafb 88bd
00000120: 4293 2d3d cd15 c4bc 5a45 b03c 31a0 633d
00000130: 9b82 46bd 4a4c ffbb 8735 afbd c07c c5bb
00000140: 2767 8ebd f2f9 42bd eb93 95bb b37f edbc
00000150: 8c6b f03b fbaa 933d ac03 02bd 350e fcbd
00000160: 53df 643d d432 88bc af38 9d3c b8b4 8fbc
00000170: 4c40 6c3d 9a02 cfbd 557a 8d3d f11c 973d
00000180: fc92 923d 8983 0c3d 1060 b83d c7a2 093d
00000190: 9c6e 963c 7cc1 b4bc 446e ae3d 9635 973d
000001a0: b78f 49bd 4d2a 4a3c f638 c1bd dcdc c9bc
000001b0: 6134 e13c 73b5 5cbc 75bf f4bd 65fa ab3d
000001c0: aa2c fb3c b50a bbbd df0b d6bd 80cb 43bd
000001d0: c33a c0bd 04f2 7fbd ff85 74bd 9845 cfbd
000001e0: 68a0 443d 09db f23d d6f6 d13a bc1a 2ebd
000001f0: 8a32 af3d 5824 d7bd 7f9f 0dbd b478 c0bd
00000200: fcb3 073d 7efc b1bd 243c bfbd 95dc 343d
00000210: cdae 8abd 5805 bfbd 5312 533b 5482 4fbd
00000220: e41f 903d 7b48 033c 9f7e dd3b 6aea 29bd
00000230: 5002 743d 4f97 923d 9fb9 ac3d 2e34 653c
00000240: 5f89 edbd 638f 193c 1017 93bd 798d bebd
00000250: a8f1 933d b8c5 2a3d 4392 0e3d dd83 e23d
00000260: 648a 043d 6fcb 8fbc 1f7f efbc e997 433d
00000270: 5877 8a3c 2e39 83bd e550 c5bd f9d7 8c3d
00000280: 01e1 993d 3e9b fd3d 8bc2 863d 124e fd3d
00000290: 6ecf 4dbd d3f0 7b3d 3dab 153d 13db e23c
000002a0: 664d 9cbd 806b 87bd 15fe 3c3d a0e3 e43d
000002b0: 2822 943d 74fb fcbc f688 f23d 2e07 683d
000002c0: a42e 903c 86af a83c 9371 b33d 2396 963d
000002d0: 09e4 ab3d fbbb 54bd ac7e be3d 12a1 c93d
000002e0: 7cb4 11ba 0415 753d 595d 93bd b08b ddbd
000002f0: 8546 adbd 9480 f53d fdbf db3d 0246 b03c
00000300: 2bf4 c43d e0a1 aa3d d450 2bbd 6bf0 b93c
00000310: 13ba 7dbd 6a12 03be 8878 e03d 08cc 24bd
00000320: 6d85 ffbc 92e0 a83c 7fdc 8a3d 178c a23d
00000330: 3d2e f4bc fe4d a33b a8cb b0bb 0874 15bd
00000340: 5634 53bc 1e34 ae3c df52 a1bd ed1e 4d3d
00000350: 3948 debd dbb5 cd3c 3bfb e2bd e8c7 0bbe
00000360: ed87 f33c 0274 c13c 526d 2fbd b35f 823d
00000370: 2dbc b53d 47d3 2a3c f6cb dbbd ae6f ebbd
00000380: 9183 24be 5258 1e3c 5647 d43d d9a6 4c3c
00000390: 5149 c8bd add2 8e3d ff6d e93c 7278 a3bd
000003a0: 5f50 1bbe 2372 9d3c ddf1 e73d e62d a73c
000003b0: f3ab 13bd 6529 d6bc 7ca1 37bd 6092 ecbd
000003c0: 6af5 d73b 697e c2bd 2884 05be 0c59 d93d
000003d0: 1ae9 aebd 5392 c83d 463d f33d 4465 993d
000003e0: 9937 0cbd 54cc 39bd d98e c83c d91a 9bbd
000003f0: 7ad1 4a3d 0e7f 95bb f1e1 0e3c 6e82 ea3d
0.079926856 -0.028811546 0.08285957 -0.02303556 0.045801207 -0.03910548 0.13425674 -0.01095308
0.20565186 -0.027810892 -0.09253727 0.04806187 -0.050263926 0.030410599 0.042448107 0.029660644
0.076886795 0.10702612 0.08497361 0.037868455 -0.096381865 -0.018941946 -0.051859323 -0.09440838
-0.06908915 -0.07273196 0.05007525 -0.102963164 -0.034352645 0.023202714 -0.077272065 -0.10069915
0.0013470182 -0.031283602 -0.0423494 0.07451145 -0.07295722 -0.06254862 -0.0037760467 0.043785933
-0.03171001 0.071724184 0.051131397 0.064752 0.024352685 -0.036783565 -0.09790087 -0.0013340302
-0.094090216 0.02626287 0.026231818 0.02144863 0.05309901 0.124876514 -0.05469996 -0.028019363
-0.00850718 0.032815903 0.07807815 0.060284305 -0.046270303 0.1046601 0.0068881265 0.03713612
0.035994016 0.0019890708 -0.051011626 -0.05206855 0.0100988485 -0.06633477 -0.022057459 -0.06688686
0.042376764 -0.023936177 0.021517444 0.055572692 -0.0484644 -0.007791077 -0.085551314 -0.0060268342
-0.069532685 -0.047601648 -0.0045647523 -0.028991556 0.0073370393 0.07210346 -0.031741783 -0.12307397
0.05587704 -0.0166258 0.019192068 -0.017542228 0.057678506 -0.10107918 0.069080986 0.07378567
0.07156941 0.03430513 0.090026975 0.033602502 0.01836329 -0.022064917 0.08517125 0.073832676
-0.049209323 0.012339187 -0.094346926 -0.024641447 0.027490797 -0.013470995 -0.1195058 0.08397368
0.030660946 -0.091329016 -0.10451483 -0.047801495 -0.09386208 -0.062486663 -0.0596981 -0.10120696
0.048004538 0.11858184 0.0016018997 -0.042505965 0.085545614 -0.10504979 -0.034575935 -0.09398022
0.03313063 -0.08690737 -0.09337643 0.044155676 -0.06771622 -0.09327191 0.0032206967 -0.0506614
0.07037333 0.008012886 0.006759479 -0.04148332 0.059572518 0.07157766 0.08433842 0.013989491
-0.11598467 0.009372565 -0.07182133 -0.093043275 0.07223827 0.041692466 0.034807455 0.11060307
0.032358542 -0.01755306 -0.02923542 0.047752295 0.01690261 -0.064073905 -0.0963457 0.06877131
0.07513619 0.12383126 0.06580075 0.12368406 -0.05024665 0.061508965 0.03654026 0.027692353
-0.0763195 -0.06612301 0.04614075 0.111762285 0.07233077 -0.030881621 0.118425295 0.056647472
0.017600365 0.020591509 0.08761897 0.07352855 0.08393104 -0.051937085 0.093015045 0.09845175
-0.00055582053 0.059834495 -0.07195539 -0.10817659 -0.08460716 0.11987415 0.10729978 0.021517757
0.09616884 0.083316565 -0.04182513 0.022697648 -0.061945032 -0.12799993 0.109604895 -0.040233642
-0.031191552 0.020614896 0.067803375 0.07936876 -0.029807204 0.0049836626 -0.0053953715 -0.03648761
-0.012890896 0.021265086 -0.078771345 0.05007832 -0.10853619 0.02511113 -0.11083075 -0.13650477
0.0297279 0.023614887 -0.042828865 0.063659094 0.08873782 0.010426349 -0.10732262 -0.114959106
-0.16065814 0.009664612 0.10365169 0.012490951 -0.09779609 0.06973777 0.028494833 -0.079819575
-0.15167378 0.019219464 0.11325429 0.020407628 -0.036052655 -0.026142785 -0.044831738 -0.11551356
0.006590535 -0.09496767 -0.13038695 0.106126875 -0.08540554 0.09793534 0.11876921 0.07490018
-0.03423271 -0.045360878 0.024482178 -0.0757348 0.04951618 -0.0045622652 0.008720861 0.11450659

conv1.bias f4 [64]
00000000: 300f df3c d6c2 513d 41fd 8b3c 93bc b33b
00000010: 7c28 d1bd 0d6c 9c3d 4cf2 bc3d 7454 97bd
00000020: 013e 1ebd 132b f93c a8e2 19bd ff33 8bbc
00000030: 4373 d4bd c2c8 87bc fd2a a5bd ccd0 85bd
00000040: e779 bc3d 8426 c5bc eb43 34bb 5769 a7bc
00000050: 0154 13bd cc12 d3bd e1c8 f1bd 3f66 94bc
00000060: 8317 97bc c426 963c 60da d7bc 1a60 a5bd
00000070: e89d 99bd f0d6 7cbd 5aa0 00bd 5fe2 a2bc
00000080: 8007 a4bd ecb4 aebd 7029 8b3d 000a e3ba
00000090: ea45 94bd d37a 453d 06d5 cabc 807a 223e
000000a0: ca04 423d 2659 783d 0920 acbc 4094 a6bc
000000b0: e51e 063d 9c37 f9bd 7b84 46bc 0d2d 0dbd
000000c0: 6037 b33c a57d 05bd 7775 db3d 396e 80bd
000000d0: 0324 a73b c249 39bb dc5d 8b3d 98e5 72bd
000000e0: 32bc 133d 8ca4 a6bd 1ccf 1b3c 5ad1 323c
000000f0: 53fc 7dbc 3f63 be39 a4af 5d3d 5491 abbd
0.027228922 0.0512112 0.017088534 0.0054851263 -0.102128 0.076377966 0.09225902 -0.07389155
-0.03863335 0.030416047 -0.037569672 -0.016992567 -0.10373547 -0.016575221 -0.0806484 -0.065339655
0.092029385 -0.024066217 -0.0027506303 -0.020435972 -0.035968784 -0.103063196 -0.11805893 -0.018115161
-0.018443828 0.018329032 -0.026349247 -0.080749705 -0.07500821 -0.061728418 -0.031402923 -0.019883333
-0.08009243 -0.08530602 0.06795013 -0.0017321706 -0.072398975 0.048212837 -0.02475978 0.15867043
0.04736785 0.060631894 -0.02101137 -0.020334363 0.032744307 -0.1216881 -0.012116547 -0.034466792
0.02187699 -0.032590527 0.10715764 -0.06271023 0.0051007285 -0.0028272723 0.06805012 -0.05930099
0.03606815 -0.081368536 0.009509828 0.010914171 -0.015502053 0.00036313568 0.054122582 -0.083773285

conv2.weight f4 [32, 64, 5, 5]
00000000: 29bb c1bc de98 1cbd e1cc 7f3c aa3e 1cbc
00000010: 5f87 003d 12ab 973b 0b7b 3bbc 4345 d13c
00000020: 9eaa 09bc 84ad 213c 1cfd 71bb 5c5e bcbb
00000030: 7eba b7bb 808c 9dbc 8f39 ff3a d845 33bd
00000040: 059f abbc 5986 0cbd 7403 0fbd 5473 e7b9
00000050: cdbb 9ab9 8d27 833c 6520 9c3c c62c 173d
00000060: d01c 503d 4e60 e8bd 027a 85bc cfbd 5e3d
00000070: 36c0 8fb9 e1db e8bc dfe9 173b ebf8 0cbd
00000080: 771d 6c3d ee58 163d 9954 9036 f090 91bd
00000090: f31e b0bd 8710 1bbc f5e3 cfbc e3ed 2bbc
000000a0: b67c c1bd 1374 b2bd 7270 dabc e5a2 58bc
000000b0: 1f5d 59bc e857 65bd a4f4 96bc 23d8 893b
000000c0: 3834 b73b 27a9 c9bc 4784 8a3c 07c1 0b3c
000000d0: e4bf bb3c ef78 f13c b468 773c b668 edbc
000000e0: baed 58bc 0141 80bc 4243 54bc 0ae5 343c
000000f0: 7dd4 00bd b69d 9cba cd52 03bc 010e 283c
00000100: 6740 413c dce8 38bd fa87 adbb 21ab 0dbd
00000110: 5cd1 043d ae07 7b3d c210 a7bb 6298 303c
00000120: 6a85 993c 9fa7 513d 613d 273e 0cb9 b03c
00000130: 4d23 e3bc eabe c3bb 8dff c7bb 2fe9 f63c
00000140: e155 2b3c 6252 ae3b c861 1abd 9b36 1bbc
00000150: 07eb 873c 86aa 4ebc 3652 ce3b 73c9 2e3b
00000160: 4921 c03c f73e 833c d2fa 0bbc 49bb 13bd
00000170: 4dd1 6bbc 15ff dcbb c7b3 d5bc 15be 07bd
00000180: 2ef5 40bd d0a0 47bd 4378 f0bd fef5 28be
00000190: 80e0 933b 1e48 363c cfdd fa3b fc08 a1bc
000001a0: eb21 44bd 6861 933c e100 943b 1f1a a3bb
000001b0: dc6a ed3b c969 4ebd ec49 093d c1d3 c33c
000001c0: 7b9d 3e3b 5884 fcba 3d5d 08bd 9435 04ba
000001d0: 092b b73c 5caa 40bd 55f3 04bd 59e2 cabc
000001e0: 2b59 883d d90f 383c 334f 253d 4220 3a3d
000001f0: 7898 6a3d 1765 ad3b 98da 573c 82cf e23a
00000200: b57f 993c da48 97bc 67d6 f73a 6e9e 063c
00000210: 18cb 7bbb baec f33b a123 01bd 144d eebc
00000220: 1d7a dabc f1d3 e4bc 657e 0cbd 0e55 fcbc
00000230: 8237 023b 0552 15bc cb23 f13a e8ea 743c
00000240: 4ac1 caba 5e6d 243c 6544 f43c e6cd 913c
00000250: dc68 e03c 2c89 743c 3255 653b 033f 053d
00000260: 35f1 593d 5d16 d9bc 3399 7cbd e38e 96bb
00000270: d28a e2bb 609f d6bc e86b 92bd ba5d 37bd
00000280: 39b2 0a3c 2a55 1dbc c4b6 29bc 4a95 7dbd
00000290: 8782 96bb 782c 573d 26d4 943c 2cb7 56bd
000002a0: d6e0 903b 10b1 a73b 7caf 293d 87b5 233d
000002b0: 31f9 33bd 8c59 803c d276 903d 0cff babc
000002c0: 3e98 02bd a6c1 693c d725 95bc b813 f7bc
000002d0: 2473 06bd 5cff 803c aeb6 c63c 9b2c abbc
000002e0: 1815 dd3c 9fb5 223b b47e 173d a89e 903c
000002f0: f072 82bb 66c6 0abc 7094 ba3c 4797 22b8
00000300: 2e47 44bc 7944 8c3c f419 1f3d 11f7 263d
00000310: 3770 833c f0e9 a93c 329d 833d 533f eb3d
00000320: 1da2 303d 7924 57bd f1f2 f8bc 1e45 85bc
00000330: 7d8d 3bbd 187d 14bc 285b f2bc f0cb 19bd
00000340: cd6c 0fbb f161 a73c 796d cbbd 5772 c3bc
00000350: 6575 96bd c93e 54bd 6218 ce3d 222b 1dbe
00000360: 8fd6 f3bd d035 9abd e58e 46bd 4621 b03d
00000370: c15c 98bd 18b6 a2bd ca84 54bd 09c2 613d
00000380: 3199 193e 6e63 a43c cc57 33bc 6ffb 21bc
00000390: c42c 3abd 27ed 10bd 9483 1a3d 6a79 123b
000003a0: b3c7 94bc 9b73 83bd 35c7 4d3d e1de bfbd
000003b0: 03bb 58bd 85da 94bd 9025 3dbd facd c23d
000003c0: f7d3 03be 76ae b8bd be12 c3ba bf05 d13d
000003d0: 29ba ac3d 8389 f5bd b748 dfbc 1da6 4fbc
000003e0: 0de7 a03e 7461 ad3c 7a00 843d 02f5 b8bc
000003f0: 0496 51bd 470b 98bd 6966 f6bd 1b43 623d
-0.023648815 -0.038231723 0.015612812 -0.009536425 0.0313791 0.0046285475 -0.01144291 0.025545722
-0.008402495 0.0098680295 -0.0036924547 -0.005748553 -0.0056069484 -0.019232035 0.001947211 -0.04376778
-0.02094985 -0.03430781 -0.034915403 -0.0004414568 -0.0002951309 0.01601007 0.019058416 0.036907934
0.050808728 -0.11346494 -0.01629353 0.054380234 -0.00027418294 -0.028425159 0.002318017 -0.034417074
0.057645287 0.036705904 4.301383e-06 -0.07107723 -0.08599653 -0.00946439 -0.025377253 -0.010493728
-0.09447615 -0.08713546 -0.026664946 -0.013222431 -0.013266831 -0.055992037 -0.0184272 0.0042066737
0.0055909418 -0.024616791 0.016908778 0.008529908 0.022918649 0.029476611 0.015100647 -0.028980594
-0.013240272 -0.015655996 -0.012955489 0.011040935 -0.031452645 -0.0011948857 -0.008015347 0.010257245
0.01179514 -0.045143947 -0.0052957507 -0.03458703 0.032426223 0.06128662 -0.0050984332 0.010778518
0.018740375 0.051185247 0.16332008 0.021572612 -0.027726794 -0.0059736865 -0.006103462 0.030140487
0.010457487 0.0053198794 -0.037690908 -0.009473468 0.016591562 -0.012613898 0.0062964214 0.0026670366
0.023453372 0.016021235 -0.008543687 -0.03606728 -0.014393163 -0.0067442753 -0.026086701 -0.03314026
-0.04710882 -0.048737347 -0.11741688 -0.16500089 0.0045128465 0.0111255925 0.007655836 -0.019657604
-0.04788391 0.017990783 0.0045167063 -0.004977479 0.0072454046 -0.050393853 0.033517763 0.023904683
0.0029085565 -0.0019265516 -0.033292044 -0.0005043384 0.022359388 -0.047037467 -0.032458622 -0.024766134
0.066576324 0.011234247 0.040358733 0.04544092 0.05727431 0.005291592 0.013174675 0.0017304274
0.018737653 -0.018467356 0.0018908501 0.0082164835 -0.0038420614 0.0074439915 -0.03152812 -0.029089488
-0.026669556 -0.027933093 -0.034300227 -0.030802276 0.001986951 -0.009113793 0.0018397508 0.014948584
-0.0015468982 0.010035841 0.02981777 0.017798375 0.02739375 0.014925282 0.0034993407 0.032530796
0.05320855 -0.026499921 -0.06166954 -0.00459467 -0.0069135213 -0.026199043 -0.07149488 -0.04476712
0.008465343 -0.009602824 -0.010358516 -0.06190995 -0.004593197 0.052532643 0.018167567 -0.05242078
0.004421334 0.005117543 0.04142712 0.03996804 -0.04393882 0.0156677 0.07053913 -0.022826694
-0.03188347 0.014267361 -0.01820652 -0.03016077 -0.03282465 0.015746765 0.02425703 -0.020895293
0.026987597 0.0024827493 0.036986068 0.017653778 -0.003980987 -0.008470153 0.022775859 -3.8764698e-05
-0.011979861 0.017122494 0.03884311 0.040762965 0.01604472 0.020741433 0.06426467 0.114866875
0.043123353 -0.052525017 -0.030389281 -0.01626831 -0.04578923 -0.009063028 -0.029584482 -0.037548006
-0.0021884919 0.020432444 -0.099329896 -0.023858232 -0.0734661 -0.05181769 0.100632444 -0.15348485
-0.11906158 -0.07529795 -0.04847612 0.086000964 -0.074395664 -0.07944888 -0.05188445 0.055116687
0.14999844 0.020066943 -0.010946225 -0.009886607 -0.045452848 -0.035382416 0.03772314 0.00223502
-0.01816163 -0.06418534 0.050238807 -0.09368683 -0.052912723 -0.07268242 -0.0461784 0.09511943
-0.12873827 -0.09017651 -0.0014882905 0.10206174 0.08433945 -0.11989119 -0.027256353 -0.012673882
0.31426278 0.021164633 0.064454034 -0.022577766 -0.051168457 -0.07424026 -0.12031252 0.055239778

conv2.bias f4 [32]
00000000: ded4 b53b 69bd 0abd eee0 473c 4952 b9bc
00000010: 0b8d 773c 5698 89bc 5750 b8bc 6ced 963c
00000020: 1965 4cbc efe7 9bbc 1165 cdbc 9b83 683c
00000030: 01c0 42bc f8fd 7bbc 6038 853c 4710 efbc
00000040: 82a3 d5bc 73c7 65bc 5516 d13a 3e88 6cbd
00000050: 47f5 4d3d 4daf 11bc 1934 30bc a30e 883b
00000060: 4f13 93bc 65d1 26bc 1af6 9abc 685c a53c
00000070: 6175 debc d16b 7c3b 44c5 a73c 424a d9bc
0.0055490574 -0.03387204 0.0121996235 -0.022622244 0.015109311 -0.016796272 -0.022499247 0.018423758
-0.012475275 -0.019031493 -0.025072606 0.014191533 -0.011886598 -0.015380375 0.016262233 -0.029182566
-0.026078943 -0.014024603 0.001595209 -0.05774712 0.050282743 -0.008891893 -0.010754609 0.0041521355
-0.017953543 -0.0101817595 -0.018916178 0.020185664 -0.02715558 0.0038516412 0.020479806 -0.026524667

conv3.weight f4 [1, 32, 5, 5]
00000000: f551 51bd eac1 9fbc e11c cfbc f289 0abd
00000010: fb42 013b 8e0f 863b 1a2e f2bc eec3 5abd
00000020: 3bc1 59bc 907c 773c fcd9 9b3c 5aa3 38bd
00000030: 6215 29bd 4d2e 13bb a800 133c e861 b3bb
00000040: 308c c8bc 4f58 f0bc e19c 80bc 50ff 8a3c
00000050: d7a9 943d f661 693d ecb5 4a3d b380 263d
00000060: de27 fb3d ac57 27bd a904 e3bc 999e 38bd
00000070: 1cb7 24bc c1c6 75bb 9ade 28bd 0cc4 5cbd
00000080: 217f c8bc d962 6dbc beea 04bd 5e87 07bd
00000090: 3890 70bc c572 28bd e9e7 d9bc a4a8 64bc
000000a0: 072c 26bd 8c11 373c 5834 20bd 19a9 50bc
000000b0: dfb1 b9bc 422e ecbb ac5c 6dbd 453c 93bc
000000c0: 455f e6bc ad82 0bbb c674 153d 22ce 73bc
000000d0: 8eed d33b 559d 073d 5ed7 0c3d 35f6 0cbc
000000e0: 5a78 8d3c 7c85 a5bc 9691 64bc 2536 d9bc
000000f0: 2b0d 553c 3dbb ecbc dbe3 84bc e19e 6dbc
00000100: b468 9a3b 49e4 ae3b 252b debb c432 dfbc
00000110: d7c8 a1bb cb03 8e3c 1dcf 4e3c f3a6 8cbc
00000120: 964c b5bb d63f 03bd 2cab 9b3c e57e 00bd
00000130: a059 b5bc 4131 5dbd 250b 4bbd dfa1 d1bc
00000140: a676 25bc 511a bb3c 3795 aa3c d387 48bc
00000150: 37bf eb3c 0524 88bb ea06 97bc 543c 843c
00000160: 9089 9fbb 1e0c 063d 80e0 3b3c a190 453c
00000170: 8dc0 aebc adc3 f4bb 1048 203d fe25 4b3d
00000180: b1ef d73c a7b4 ef3b 08ba 1d3d c5ee aa3d
00000190: a73f 9ebd a69f 1fbd 3613 c2bc a259 50bc
000001a0: d4aa 8cbd 24a9 69bb de3c 99bb bc86 1c3d
000001b0: 0c93 a1bc 764e 97bc aedf e3bc 2c4c 86bb
000001c0: 0548 8b3c 9fcf 06bb 7fa7 413c e8e3 c3bc
000001d0: cd4f 9e3c d305 13bc df56 56bc 3067 f43b
000001e0: f61d 6cbc 3b56 0e3d c62c f33c eda8 963b
000001f0: 2d9f 3a3c 2d15 e6bd b5d1 a6bd 61b4 36bd
00000200: 759d 6bbd d933 86bd 009a 0ebd fe00 03bd
00000210: c0ff 07bd b120 05bd dca4 05bd ab52 aabd
00000220: 0af9 abbc d2d4 71bd 129b 0c3b 3f82 8ebd
00000230: f558 66bd dd06 f8bb 0337 0dbd 1a90 0cbd
00000240: 5cfb 80bc e8e8 a2bd fa0e 5bbd b7dd 40bd
00000250: 31ff 62bc 7c61 1fbd 4e65 2a3d 730a f3bb
00000260: df96 cbbb 4967 173d 6723 f43c 9fe5 1ebc
00000270: 130f 3bbb 91a7 43bc 6634 d13a 17b4 063d
00000280: d13a ebbc c4da e43b 04de 4cbb 289c f8bb
00000290: 56bc 253c c339 e13c 1d47 94bc 70ed 09bc
000002a0: 4d2a 883b bb0a 2c3c 86db 823c 4851 ef3c
000002b0: fb25 6f3c 7a8e c83c 3e4c e93b 3ce4 9a3d
000002c0: 9d5a 8f3d 7740 b53c 7178 043c ec82 283d
000002d0: fa18 a63d 8764 a73c a356 bc3c ef1f 8c3c
000002e0: 3409 003d f02b 813d 35b5 19bc 41cf 163d
000002f0: e7e8 2cbc 9612 3fbb 18e8 033d 012b 013d
00000300: f6e8 063d a08a 663b 161c 4e3c 8e2e ce3c
00000310: b44f b93c 083f 9e3c 90d2 ab3b e40e 303d
00000320: 0be3 393d 77ce 2c3d 1492 453d be67 133d
00000330: 9aa4 973d 1732 4cba 661e 213d fd38 313b
00000340: c29a c83c fd55 6a3d 25eb 983c a5fc c73c
00000350: b8b3 2e3d a528 c03b 7587 a63c 178b b43c
00000360: 7750 393c d2e6 db3c ae60 a73c a610 093c
00000370: 1d28 ef3c da48 573c 151f f93c 2c89 6cbc
00000380: 59c4 cb3c 0dea 3b3d f49f fd3c 60ec de3c
00000390: bd5e 553d 8e4f 283d 17b1 393d 58b1 df3c
000003a0: 53a5 3b3c 7fd5 c73c 4f84 243d 8193 2a3b
000003b0: 3c00 053b 2678 9d3c de3c 173d f41a df3c
000003c0: 172b 1a3d 4efe 373d 5360 e23c b949 fa3b
000003d0: ca60 3d3d db76 603d 54ce 6b3d 023e 303d
000003e0: a2f3 283d 32ac 9a3d 9d50 e63c 3e8d 9dbb
000003f0: 2ed4 7c3c 49ce 73bb 515a 2c3d 6673 e53a
-0.05110355 -0.019501645 -0.025282325 -0.03382296 0.0019723761 0.0040912097 -0.029562999 -0.05340951
-0.013290699 0.015105382 0.019024841 -0.04507766 -0.041280158 -0.0022458017 0.008972324 -0.005474318
-0.02448091 -0.029338984 -0.015699806 0.016967446 0.07258957 0.05697819 0.0494899 0.04065008
0.122634634 -0.040855095 -0.027712183 -0.045073126 -0.010053422 -0.00375025 -0.041227914 -0.053897902
-0.024474682 -0.014488899 -0.03245043 -0.03308808 -0.014682822 -0.041125078 -0.026599841 -0.013956223
-0.04056933 0.011173617 -0.03911242 -0.0127356285 -0.022667823 -0.007207663 -0.057949707 -0.017973075
-0.0281216 -0.0021287606 0.036488317 -0.014880689 0.0064675277 0.033109028 0.034385078 -0.008603622
0.017269302 -0.020205252 -0.013950726 -0.026515076 0.013003628 -0.028897876 -0.016221931 -0.014503212
0.0047121886 0.0053372723 -0.0067800456 -0.027245887 -0.004937272 0.017335793 0.012622622 -0.017169451
-0.0055328114 -0.0320433 0.01900252 -0.031371016 -0.022137463 -0.05400205 -0.049571175 -0.025589881
-0.010099089 0.022839697 0.020823104 -0.012239414 0.028777702 -0.0041546845 -0.018435914 0.016142048
-0.0048686936 0.0327264 0.011467099 0.012058408 -0.02133205 -0.0074696154 0.039131224 0.04959678
0.026359411 0.0073152366 0.03850749 0.08346323 -0.077269845 -0.038970612 -0.023690801 -0.012716683
-0.068685204 -0.0035653794 -0.0046764454 0.03821443 -0.019723438 -0.01847003 -0.02781662 -0.004098436
0.017002115 -0.002057053 0.011819719 -0.023912385 0.019325161 -0.008973557 -0.013082235 0.00745859
-0.01441144 0.034750205 0.029684436 0.0045977742 0.0113904895 -0.11234508 -0.08145467 -0.044605616
-0.05752321 -0.06552858 -0.034814835 -0.031983368 -0.033202887 -0.03250188 -0.032627925 -0.08316549
-0.020992775 -0.059040852 0.0021454734 -0.06958436 -0.05623718 -0.0075691775 -0.03447629 -0.034317113
-0.015744857 -0.079545796 -0.05348108 -0.047086444 -0.013854788 -0.038911328 0.041600518 -0.007417017
-0.0062130536 0.036963735 0.029802037 -0.009698301 -0.002854292 -0.011941806 0.001596105 0.03288659
-0.02871457 0.0069840867 -0.0031260261 -0.0075869747 0.010115704 0.027493363 -0.018100316 -0.008418426
0.0041554333 0.010500605 0.015973818 0.029213563 0.014596458 0.024482 0.0071196845 0.075630635
0.06999705 0.022125466 0.008085356 0.04114048 0.08110233 0.020433677 0.02299053 0.01710507
0.031258777 0.063072085 -0.009381582 0.036818746 -0.010553575 -0.0029155365 0.032203764 0.031535152
0.032937013 0.0035177842 0.012579938 0.025168683 0.022621013 0.019317165 0.005243607 0.04298295
0.04538254 0.042189088 0.048235014 0.035987608 0.07404442 -0.00077894464 0.03933563 0.0027042024
0.024487857 0.05721091 0.018666813 0.024412462 0.042651862 0.00586422 0.020328263 0.02203898
0.011310688 0.026843462 0.020431843 0.008365786 0.029193932 0.013139928 0.030410329 -0.014437001
0.0248739 0.045877505 0.03096006 0.027212322 0.052092303 0.041091494 0.0453349 0.027306244
0.011452991 0.024393795 0.04016524 0.002602786 0.002029433 0.01922233 0.03692328 0.027234532
0.03763875 0.04492026 0.027633822 0.007638183 0.046234883 0.05480085 0.057569817 0.043027885
0.04124797 0.07552375 0.028114611 -0.004808097 0.015431447 -0.0037201813 0.04207832 0.0017505705

exp_avg f4 [64, 1, 9, 9]
00000000: 54f6 183a 57d4 0b3a 7c93 063a 7b1f 0c3a
00000010: 9778 1d3a 98f7 2d3a 9b91 393a e56d 3a3a
00000020: 504f 323a 99b7 1f3a 1468 123a e052 123a
00000030: fbc7 173a f03f 293a 65fb 383a 25cb 413a
00000040: 790d 3b3a b732 373a de6d 183a da00 183a
00000050: 7cda 1d3a 0991 2a3a 8dfd 373a 6376 443a
00000060: 0bb2 433a cff1 373a f93f 2f3a 2bf7 293a
00000070: aaf7 253a 7bd2 2e3a 856b 363a 9b90 493a
00000080: b5b1 4d3a 742d 493a cf42 3b3a e67d 273a
00000090: 6857 363a 70c7 313a ff41 3f3a df67 4f3a
000000a0: ceb4 5b3a 53b7 5e3a 933b 543a 8d83 3c3a
000000b0: 54a9 243a 9c99 473a 53b0 473a a32c 5a3a
000000c0: 39c0 693a 33c1 743a e8e0 6e3a 0f4d 653a
000000d0: 0e5d 493a 5cd6 313a 7b01 4c3a 5147 473a
000000e0: 1ec1 563a 051a 633a 19ba 6a3a d713 6b3a
000000f0: 194f 623a 470d 453a 8860 323a 104f 4b3a
00000100: 618f 463a 62e4 533a 81e9 5a3a 12b3 603a
00000110: fa8d 613a f2f2 593a d5a6 453a b1ad 383a
00000120: eab4 4c3a c34a 403a b417 333a 8106 2f3a
00000130: f983 3a3a be5a 3c3a 0958 463a c957 3e3a
00000140: 139d 343a 0c47 2b3a 8abd 3c3a 5d14 563a
00000150: 15b0 6a3a 3f30 753a 6339 633a 1056 473a
00000160: e6c2 483a 59e4 283a 64aa 3d3a bb00 4b3a
00000170: da99 733a c3ac 7a3a 9f60 853a 4391 803a
00000180: d426 623a bbd4 4b3a 5bcf 323a c795 3d3a
00000190: 266b 593a e2ba 723a e1d6 893a b8ff 8b3a
000001a0: 1a94 743a cf0f 5f3a c61f 3c3a c123 303a
000001b0: 2153 3a3a eae1 4b3a 0afc 643a ef17 823a
000001c0: 7ba8 863a 0cb9 6f3a 424a 473a 23f4 3b3a
000001d0: fd83 2a3a 01ff 2d3a 6bfd 3d3a 4016 493a
000001e0: c7fd 6f3a ecdf 743a 7edd 693a 862a 573a
000001f0: c275 3c3a 4b4d 213a fd8d 1f3a 2459 293a
00000200: 290b 3a3a ffb1 443a efbc 533a 5ff5 553a
00000210: 3bcd 473a f815 343a 1660 293a 902a 1e3a
00000220: 58a2 253a 6586 2c3a 6107 3c3a 6d32 3a3a
00000230: d0c5 443a 117c 2a3a b5a6 263a ee95 103a
00000240: 9b5b 0f3a aa0c 1a3a bee2 193a 4532 213a
00000250: a8a4 313a c4a9 253a 38ce 153a 362b 0d3a
00000260: ddc0 023a 8946 143a 760a 183a 871d 1c3a
00000270: be85 183a da08 173a b85f 093a 576b 023a
00000280: 4249 ee39 f4c4 e639 dc6d 123b 9005 103b
00000290: 06c3 0e3b 8af7 203b ff7e 333b 9ee2 4a3b
000002a0: 0edc 573b 6043 693b 148a 723b b8d9 0a3b
000002b0: f1ef 023b c8de 023b 73f8 163b 27e9 2d3b
000002c0: b34f 493b 1336 623b 33d7 733b 861e 7f3b
000002d0: 191c 043b 8b14 ec3a 9cc6 f83a 6caa 143b
000002e0: 8f48 303b f2c2 503b aef5 6a3b 5af5 7c3b
000002f0: 3db4 823b 2de8 033b 3075 f93a 821f fd3a
00000300: df51 1a3b 94f3 3d3b 4d79 5e3b b430 7c3b
00000310: 6c33 863b 0752 873b 020f 0b3b 111c 043b
00000320: 45f1 0e3b efe3 2d3b 1888 503b 246f 743b
00000330: d275 853b c377 8b3b eb10 8a3b aedd 133b
00000340: 465b 1c3b e65b 2d3b 5c91 493b 84fe 6f3b
00000350: 93b3 823b 5fa2 8b3b 9612 8b3b 38de 893b
00000360: 84ee 2c3b 702d 323b 2966 473b 19e0 6a3b
00000370: 451c 823b 7aa3 883b 5519 893b c4e5 883b
00000380: c433 853b a168 403b 2279 4f3b 2deb 603b
00000390: 3073 783b 467c 893b 8662 8a3b fc5c 883b
000003a0: dbb1 853b 43d4 843b d954 523b 79d1 603b
000003b0: c878 723b b4d5 823b 0223 873b cd10 873b
000003c0: 4289 853b f98e 823b f516 813b 129a 413a
000003d0: f576 7f3a 3a8e a33a f843 b93a 4874 ba3a
000003e0: d64b b53a f0c3 b13a 873e 8f3a 24e1 863a
000003f0: 4586 483a 4dcb 853a 8c48 be3a 07fb d53a
0.00058350456 0.00053340703 0.0005133671 0.0005345267 0.0006007044 0.00066363206 0.0007078887 0.00071117125
0.00068019796 0.0006092727 0.0005584967 0.00055818073 0.0005789992 0.0006456366 0.00070565037 0.00073926366
0.00071354915 0.0006988453 0.00058147113 0.0005798467 0.00060216314 0.0006506597 0.0007018678 0.00074944476
0.000746519 0.0007016928 0.0006685253 0.0006483669 0.00063311553 0.0006668937 0.00069587707 0.00076890894
0.000784661 0.00076743145 0.0007143439 0.0006389305 0.00069557736 0.00067817327 0.0007295906 0.00079119013
0.0008381129 0.00084959454 0.00080960355 0.00071912335 0.00062813354 0.0007614137 0.0007617522 0.00083226914
0.0008916888 0.000933665 0.0009112493 0.00087471394 0.0007681408 0.0006783956 0.0007782203 0.00076018745
0.0008192229 0.000866324 0.00089541223 0.0008967495 0.0008633002 0.0007516932 0.00068045454 0.00077556167
0.00075744657 0.0008083043 0.0008350835 0.00085716054 0.0008604225 0.0008314095 0.00075398135 0.0007044925
0.0007808941 0.0007335359 0.000683184 0.00066766894 0.00071150024 0.00071851525 0.0007566219 0.0007261006
0.0006889861 0.0006533719 0.00071998744 0.00081664865 0.000895263 0.00093531975 0.0008667914 0.0007604072
0.00076584367 0.0006442718 0.0007235168 0.00077439443 0.000929264 0.00095624867 0.001017589 0.0009808916
0.00086270017 0.0007775535 0.00068210595 0.00072320964 0.00082938594 0.0009259415 0.0010516309 0.0010681069
0.000932993 0.00085091306 0.00071763655 0.0006719195 0.0007107724 0.0007777499 0.00087350665 0.0009925346
0.00102736 0.00091447006 0.0007602313 0.0007169863 0.0006504653 0.0006637425 0.000724754 0.0007670857
0.0009154942 0.0009341228 0.00089212495 0.00082079356 0.0007189178 0.000615318 0.00060865266 0.00064601214
0.0007097 0.000750333 0.00080771645 0.00081618683 0.0007621829 0.00068697287 0.00064611563 0.0006033564
0.00063184416 0.00065813056 0.00071727304 0.0007102851 0.0007506283 0.00065034727 0.0006357239 0.00055155053
0.00054686674 0.0005876521 0.0005870274 0.00061491533 0.000677655 0.00063195475 0.0005714628 0.0005385162
0.00049878453 0.00056562625 0.00057998986 0.00059553277 0.0005818269 0.0005761512 0.00052403985 0.00049751013
0.0004544948 0.0004401576 0.0022343313 0.0021975972 0.0021783723 0.0024561607 0.0027388928 0.0030957828
0.003293756 0.0035593137 0.003700857 0.00211869 0.0019979442 0.0019969214 0.002303627 0.0026536675
0.003071767 0.0034517094 0.0037207126 0.0038928105 0.002015835 0.0018011493 0.0018980089 0.0022684587
0.0026898717 0.0031854478 0.0035852003 0.003859839 0.0039887712 0.0020127401 0.0019032117 0.0019311758
0.0023547334 0.0028984295 0.0033946813 0.0038481178 0.0040954854 0.0041296515 0.0021218662 0.002015833
0.0021811288 0.0026533564 0.00318194 0.003729769 0.004072883 0.00425622 0.0042134426 0.0022562551
0.0023858114 0.002645248 0.0030756807 0.003662021 0.003988692 0.0042612995 0.004244159 0.0042073987
0.0026387284 0.0027187727 0.0030425882 0.003583914 0.003970655 0.0041698785 0.004183928 0.004177781
0.004065009 0.0029359239 0.0031657894 0.0034319863 0.0037910454 0.0041957228 0.0042231707 0.004161475
0.00408004 0.004053624 0.003209403 0.0034304543 0.003699826 0.0039927606 0.0041240463 0.004121876
0.0040752003 0.003984329 0.0039395043 0.0007385324 0.0009745204 0.00124783 0.0014134636 0.0014225328
0.0013831805 0.0013562422 0.0010928669 0.0010290486 0.0007649402 0.0010207683 0.001451747 0.0016325422

exp_avg_sq f4 [64, 1, 9, 9]
00000000: 7a37 9537 ddd7 8e37 a51c 8837 b536 8037
00000010: c14e 8137 bc02 8337 04e5 8437 714f 8d37
00000020: 69d4 9237 f5ee 9b37 214e 9637 6508 9137
00000030: 2447 8a37 28ff 8637 4374 8837 a2be 8837
00000040: 0fcf 8837 26e4 8e37 dfc2 a637 fbbf a337
00000050: d351 a137 f40d 9d37 c22f 9737 abb0 9137
00000060: d3f3 8c37 829f 8a37 0b89 8c37 64cb b637
00000070: 3437 be37 6d9f b937 3214 b037 a9d5 a837
00000080: 1d1d 9c37 5a28 9437 904e 8b37 cbc5 8b37
00000090: 6bb1 cc37 63b6 d237 7da9 d737 e8e8 cc37
000000a0: c38d b937 f5f8 a637 5721 9637 8740 8c37
000000b0: 3200 8b37 af46 de37 1db9 e737 955b ed37
000000c0: 407f dc37 0114 cd37 93b9 b337 b45c 9f37
000000d0: ef81 9037 1a03 8c37 7d9d e537 5eca f337
000000e0: 71cb f237 af7f e437 dda3 d437 cd93 b737
000000f0: 68f8 a437 4d83 9737 b5f3 9137 6a28 df37
00000100: 935b e937 4eca e837 3928 e037 2380 cb37
00000110: 1d82 bc37 e77b a837 b60d a037 a99c 9837
00000120: eee9 d437 829f d437 4efa d537 4ae1 ce37
00000130: f856 c937 0f32 b937 a487 ae37 f514 a837
00000140: 1089 a037 a43c 5f37 27d2 7237 1bd0 8237
00000150: b45a 8f37 9f8b 9737 bc1c 8837 c964 7437
00000160: fb81 8037 68b9 6c37 ea69 6d37 b677 7f37
00000170: 6b0c 9737 3405 9637 33f5 a837 2505 9e37
00000180: d07c 8f37 a2a9 8137 3bd7 7e37 3e9f 7537
00000190: 7e9e 8737 fb33 9837 6642 b637 7357 b737
000001a0: 4f95 9a37 0de3 8e37 a9d3 7437 c17c 6f37
000001b0: 1160 7737 624c 8537 8ba1 8e37 0ddb b637
000001c0: 909c b337 dd65 9837 cac9 8637 6fc3 7c37
000001d0: 4c65 6637 34da 6a37 4f98 7d37 185e 8937
000001e0: acfd a737 a972 b637 fc30 9d37 7da5 8a37
000001f0: 720f 8937 7d3f 6437 a9ac 6b37 84c0 6f37
00000200: 4053 8c37 0202 8b37 38bd 8e37 8159 9737
00000210: e7d4 8337 41da 7137 975a 6d37 b8de 6537
00000220: 61f0 7f37 1397 8037 1fd7 8537 988a 8437
00000230: 0e31 8b37 53eb 8537 afe6 7f37 52c7 6837
00000240: c9cd 5a37 6140 7037 621d 6a37 77e7 6a37
00000250: 2eab 8237 f5ea 7c37 3140 7537 7ead 7737
00000260: 3439 6337 e2ef 6437 c180 6637 0ad4 7237
00000270: 2fc4 6e37 89ce 6337 2ab0 5c37 19df 6c37
00000280: 43bf 6837 1b66 6737 bc47 2839 2e89 2c39
00000290: c39c 2e39 6ccf 2a39 f35d 2339 daea 1d39
000002a0: 5383 1a39 8e32 1939 bd01 1a39 9dbb 2e39
000002b0: df2b 3539 8a18 3739 7afc 2f39 dbec 2539
000002c0: 9ba5 1e39 4be0 1d39 86fb 1e39 4c19 1f39
000002d0: e898 3339 cdb5 3b39 5966 3a39 99ed 3039
000002e0: 0933 2539 503d 1e39 1b45 2039 e101 2439
000002f0: babb 2439 3d86 3339 bd45 3939 d08d 3639
00000300: 3388 2a39 7bcc 1f39 0d81 1e39 b243 2739
00000310: 49b2 2d39 c6fd 2c39 4932 2e39 3fe2 3039
00000320: 026e 2a39 142b 1f39 a0dd 1939 bbc1 2039
00000330: 72ce 2e39 8ffe 3839 695a 3639 c915 2439
00000340: 1b80 2339 8003 1c39 c893 1439 259b 1739
00000350: 265e 2239 f59e 3639 2252 3b39 bbef 3839
00000360: bdf4 1839 0393 1639 9c62 1139 b4c4 1039
00000370: 230f 1839 c935 2939 4ce7 3439 5de4 3c39
00000380: 3760 3839 4f02 1139 056e 0f39 7759 0d39
00000390: 7b6e 0e39 01e5 1939 0d5a 2839 d86d 3339
000003a0: b14e 3639 4aef 3539 b81b 0e39 53a7 0d39
000003b0: 3dc8 0c39 7f45 1039 dee8 1739 00db 2039
000003c0: f8c0 2c39 22df 2e39 c1d8 2a39 8950 5439
000003d0: 7ec8 4639 41ad 5739 5bb8 5b39 1953 5739
000003e0: 2230 4c39 1ac7 4739 4b69 4939 03ae 4039
000003f0: d8b3 5039 1bef 4e39 852d 5439 e729 6039
1.7788017e-05 1.7028238e-05 1.6225802e-05 1.5284264e-05 1.5414671e-05 1.561769e-05 1.584227e-05 1.6845503e-05
1.7503467e-05 1.8588713e-05 1.7917775e-05 1.7289256e-05 1.648401e-05 1.6092861e-05 1.6266602e-05 1.6301234e-05
1.6308883e-05 1.7033959e-05 1.9879486e-05 1.9520512e-05 1.9230798e-05 1.8722356e-05 1.8022842e-05 1.7367614e-05
1.680284e-05 1.6525159e-05 1.6753116e-05 2.1790802e-05 2.2675471e-05 2.2127957e-05 2.099024e-05 2.0126654e-05
1.8610206e-05 1.7661765e-05 1.6606675e-05 1.6662196e-05 2.4401312e-05 2.5118881e-05 2.5708921e-05 2.442715e-05
2.2119732e-05 1.9904672e-05 1.7896919e-05 1.6719348e-05 1.6570182e-05 2.6497377e-05 2.7623546e-05 2.8295248e-05
2.62853e-05 2.444722e-05 2.1424878e-05 1.8997445e-05 1.7226643e-05 1.6690745e-05 2.7372264e-05 2.9062092e-05
2.8943383e-05 2.7239175e-05 2.5348674e-05 2.1884125e-05 1.9665997e-05 1.8061744e-05 1.7398832e-05 2.660249e-05
2.7818407e-05 2.775076e-05 2.6721611e-05 2.4259154e-05 2.2471935e-05 2.0084857e-05 1.9079871e-05 1.8192763e-05
2.5381301e-05 2.5346646e-05 2.5508136e-05 2.4662022e-05 2.4001565e-05 2.2077029e-05 2.0805579e-05 2.003692e-05
1.9137311e-05 1.3305955e-05 1.4473254e-05 1.5594114e-05 1.7089165e-05 1.8065619e-05 1.6225844e-05 1.4566999e-05
1.5319316e-05 1.4109864e-05 1.4150961e-05 1.5227057e-05 1.8006385e-05 1.7883816e-05 2.014134e-05 1.8837463e-05
1.7105049e-05 1.545699e-05 1.5189692e-05 1.4640214e-05 1.6167058e-05 1.8144017e-05 2.172701e-05 2.1856022e-05
1.8427758e-05 1.7033448e-05 1.4592814e-05 1.4274557e-05 1.47447145e-05 1.5890404e-05 1.7002943e-05 2.1798094e-05
2.1411368e-05 1.8167246e-05 1.606801e-05 1.5065873e-05 1.3732653e-05 1.3998291e-05 1.5115437e-05 1.6375488e-05
2.0026077e-05 2.1749483e-05 1.8738669e-05 1.6527943e-05 1.6338865e-05 1.3604641e-05 1.4047292e-05 1.4290334e-05
1.6728067e-05 1.6571026e-05 1.7015831e-05 1.8042281e-05 1.5715557e-05 1.4415536e-05 1.4147393e-05 1.3701319e-05
1.5255152e-05 1.5329138e-05 1.5955009e-05 1.5800164e-05 1.6592934e-05 1.5964417e-05 1.5252895e-05 1.38746855e-05
1.3041726e-05 1.4320104e-05 1.3954328e-05 1.4001379e-05 1.557692e-05 1.5075076e-05 1.4618084e-05 1.4762742e-05
1.3543573e-05 1.3645711e-05 1.3739046e-05 1.4473693e-05 1.4231583e-05 1.3578342e-05 1.3154038e-05 1.411864e-05
1.3872809e-05 1.3792446e-05 0.00016048452 0.00016454302 0.00016652331 0.00016289734 0.0001557989 0.00015060176
0.00014735507 0.0001461005 0.00014687232 0.00016663824 0.00017277848 0.00017461382 0.00016783355 0.00015823862
0.00015129747 0.00015056242 0.00015161754 0.00015172845 0.00017127732 0.00017901436 0.0001777647 0.0001687318
0.00015754638 0.00015090895 0.00015284533 0.00015640959 0.00015710192 0.00017120778 0.00017668954 0.00017409702
0.00016263202 0.00015239597 0.0001511613 0.0001595158 0.00016564982 0.00016497736 0.00016612666 0.00016868951
0.00016253444 0.0001517947 0.00014673779 0.0001533096 0.0001667084 0.00017642438 0.00017390553 0.00015648374
0.00015592614 0.00014878623 0.00014169433 0.00014458278 0.00015484597 0.00017416089 0.00017864307 0.00017636914
0.00014587022 0.00014359881 0.00013865012 0.00013806188 0.00014501488 0.00016137132 0.00017252302 0.00018014149
0.0001758345 0.00013829138 0.00013678528 0.00013480136 0.00013583332 0.00014676528 0.00016055275 0.0001711169
0.00017386187 0.00017350647 0.00013552501 0.00013509141 0.00013426035 0.000137588 0.00014487232 0.00015340373
0.00016475085 0.00016677057 0.0001629321 0.00020247897 0.0001895744 0.0002056854 0.00020954145 0.00020534954
0.00019472887 0.0001905229 0.00019208078 0.00018375371 0.00019903423 0.00019734765 0.00020234853 0.00021377915

exp_avg f4 [64]
00000000: ec0d 113b dbbe 1c3b 59d1 0b3c 6f34 8b3b
00000010: 3450 06bd a283 983b dfbf a13b 5bea 97bc
00000020: f91c c3bb d457 04ba 83d7 d7bb 8048 3fbc
00000030: 4258 2dbb 4aa3 4fbc 0786 d1bb cd6f 29bd
00000040: c91d 423b 6573 1dbd 0798 d9bb b611 05bd
00000050: 0400 0080 725c 63bc d4c6 ae3b cc58 8abb
00000060: 9fa2 54bc 6c95 39bb 6191 25ba 1662 fb3b
00000070: 02c3 aebc 0269 23bd c7f4 e1bb a0fc aebb
00000080: f859 64bc be42 413b bf21 7f3b 12a9 80bc
00000090: 1966 2ebd f024 d03a 9aa6 c3bb 13de 61bb
000000a0: ceee 82bc f488 5ebb 0660 283b 9a23 f0bb
000000b0: 59c6 943a c5b8 bebc 2509 f3bc 3632 ee3b
000000c0: a9f4 43bb 42e3 dd3a 09e8 63ba 3157 34bd
000000d0: c50f a53b 8ca0 77bb 7623 303a 06ac 1abc
000000e0: 521b f83a 9a62 363b 8cf8 edbb f701 a73a
000000f0: a4ed 8bbc 3ad4 303a 3944 983b 4abf 9dbc
0.0022133542 0.002391747 0.008533799 0.004248194 -0.03279133 0.0046543637 0.004936203 -0.018544367
-0.0059543815 -0.0005048488 -0.0065869703 -0.011675 -0.002645031 -0.0126732085 -0.006394151 -0.041366387
0.0029619804 -0.038440127 -0.0066404375 -0.032487594 -6e-45 -0.013877021 0.0053337608 -0.004222011
-0.012978225 -0.0028317822 -0.00063159136 0.007671605 -0.021333221 -0.039895065 -0.006895635 -0.005340174
-0.013937466 0.0029489244 0.0038930026 -0.015705619 -0.042577837 0.0015880149 -0.005970788 -0.0034464642
-0.015983012 -0.0033956142 0.0025692 -0.007328463 0.0011350616 -0.023281464 -0.029667446 0.007269169
-0.0029900467 0.001692869 -0.0008693939 -0.044028465 0.0050372803 -0.0037784902 0.0006719151 -0.009440428
0.001892904 0.0027829767 -0.007262295 0.0012741674 -0.01708109 0.00067454914 0.0046468046 -0.019256253

exp_avg_sq f4 [64]
00000000: 20b5 3539 e4aa 6639 a528 af3a 69ff 273b
00000010: 76a9 113c 06ce f63a e2d3 303b e0ef 893b
00000020: 98f4 b83a 0051 f036 cef0 363a 31fa c93a
00000030: 16a5 1339 4fb2 323b 4d6e 9839 fc88 853c
00000040: 919d 3c3b ea98 e13c ae07 4f3a 37e8 9e3c
00000050: ecb7 021f 9aa4 263b f622 bd3a 5849 233a
00000060: 49ca 453b 9571 8d39 f948 6c3a 53ab c23a
00000070: 58c7 583b ddf7 8a3c 1dcc 923a 27d1 a63a
00000080: d8bf 923b 2a68 083a 5e93 c039 8b2a 343b
00000090: 5d13 883c a988 5939 7e09 6b3a 2e26 c239
000000a0: ef89 8b3b e4f9 3b3b f093 da38 a7dc f23a
000000b0: 1d7a e438 eb1c 963b a6b0 353c a608 0c3a
000000c0: 099a 953a 2784 5038 0a46 803c 69f7 ae3c
000000d0: f39a b639 f81c 303a 278c d239 7d1d 803a
000000e0: a47b c339 5682 ee39 b406 9e3a c0a2 4f38
000000f0: 7472 2c3b 4448 9b37 343b 883a 501b 933b
0.0001732898 0.00021998171 0.0013363553 0.0025634414 0.0088905 0.001882971 0.002698176 0.0042095035
0.001411098 7.161987e-06 0.0006978632 0.0015409646 0.00014080512 0.0027266925 0.0002907388 0.01630067
0.002878044 0.027538735 0.00078975677 0.019397838 2.7680707e-20 0.00254277 0.0014429975 0.00062288856
0.0030180386 0.0002697824 0.00090135593 0.0014852084 0.0033077803 0.016963894 0.0011199747 0.0012727127
0.004478436 0.000520351 0.0003673089 0.0027491178 0.016610796 0.00020745643 0.0008965953 0.0003703101
0.0042583863 0.0028682882 0.000104226056 0.0018528894 0.000108946326 0.004581084 0.01108948 0.0005341865
0.0011413704 4.971414e-05 0.015658397 0.021358209 0.0003482919 0.0006718184 0.00040158743 0.0009774413
0.00037285418 0.00045492005 0.0012056441 4.950422e-05 0.0026313337 1.8511091e-05 0.001039362 0.00448934

exp_avg f4 [32, 64, 5, 5]
00000000: 08fa 82b9 0368 6fb9 642d 61b9 cfb4 34b9
00000010: 63c5 39b9 3a7e 6bb9 1184 58b9 c307 51b9
00000020: 00c1 2eb9 340d 33b9 fa1d 70b9 2ca6 7db9
00000030: eea6 62b9 4463 55b9 7cd2 50b9 e458 79b9
00000040: 34f3 65b9 aa89 5ab9 408f 46b9 c16d 45b9
00000050: 9b5b 61b9 051e 66b9 8c44 61b9 2300 5ab9
00000060: 0571 65b9 e4dc 12b6 ef73 a4b6 bda8 a3b6
00000070: 8c2c 83b6 777b eeb5 0e63 9fb5 f967 32b6
00000080: f7f1 aab6 d453 fab6 2c1c 7eb6 875f ffb5
00000090: d166 bcb6 291e f0b6 92ce ceb6 ae55 9cb6
000000a0: 36a5 23b6 99d0 79b6 7ee4 9ab6 2b63 0eb6
000000b0: d538 8f35 1902 deb5 a1eb 97b6 2834 edb5
000000c0: 2366 52b5 2394 32b5 e88c aab9 6f4e bab9
000000d0: 2f62 c5b9 ad76 d3b9 81c9 e3b9 3910 bbb9
000000e0: b7b0 cab9 fb3a d4b9 671f e3b9 25f9 e2b9
000000f0: 4623 c2b9 ef9d bdb9 079e d3b9 3b82 d3b9
00000100: be42 d2b9 0fbe beb9 2599 b7b9 c9d4 b5b9
00000110: b78b b3b9 7e6b b5b9 9175 b7b9 ca42 abb9
00000120: 2787 a2b9 a679 9eb9 e129 a0b9 d210 35b8
00000130: f809 68b8 3744 98b8 1185 acb8 95f4 c3b8
00000140: ce3e 4cb8 88cf 8bb8 6940 a1b8 4523 b2b8
00000150: 19fb aab8 3726 32b8 47f4 41b8 4768 7cb8
00000160: b621 83b8 be03 7fb8 d45a fcb7 c4fe 16b8
00000170: 67f7 29b8 a70a 43b8 7e35 43b8 4151 9cb7
00000180: d736 89b7 b71b 88b7 49af c9b7 0bd8 8ab7
00000190: b156 36b8 19c4 52b8 7dd2 24b8 3287 e2b7
000001a0: c03b 97b7 2223 27b8 84fd 2eb8 a9e7 38b8
000001b0: 2bf4 dbb7 b060 06b8 b7b2 1eb8 8c6f 2fb8
000001c0: d68e 4cb8 ed26 3bb8 2fb2 08b8 5623 00b8
000001d0: 598d 20b8 e97f f7b7 1d37 a4b7 eff4 c4b7
000001e0: bb12 94b7 58b3 f8b7 c1dc a9b7 7c37 abb7
000001f0: 98b6 88b7 5fdd a2b9 8cfc afb9 a129 b2b9
00000200: fb36 b8b9 5a87 bab9 4fdb b4b9 1be7 c0b9
00000210: f218 cbb9 cfca c7b9 8510 ccb9 b3ed b9b9
00000220: 5f08 bfb9 c76a c6b9 f353 c4b9 bd10 cab9
00000230: dcae b1b9 5432 b7b9 f048 bdb9 9db0 b9b9
00000240: f693 beb9 1625 aab9 5cc9 aeb9 e248 acb9
00000250: 35e9 a9b9 6884 afb9 d91a 2cb6 ea21 1bb7
00000260: 4209 53b7 0fb6 61b7 f0ba 32b7 b78a 0936
00000270: c2f5 8bb6 61f2 31b7 570f 4db7 199d 29b7
00000280: 44f9 1736 2609 2cb7 8084 30b7 e149 ccb6
00000290: f6e4 16b7 dbbf a235 114f bcb6 b3fa 01b7
000002a0: df18 01b7 83b1 aeb6 7a3c 0536 f6e7 64b6
000002b0: 1116 9eb6 232d f3b6 58df e0b6 b60e 21b8
000002c0: ac28 2cb8 087a 45b8 e7ea 2fb8 9ab8 33b8
000002d0: 2156 10b8 51cb 27b8 06d6 10b8 059d 1fb8
000002e0: 78a0 0fb8 04c6 f2b7 1fbd e5b7 bf6a d2b7
000002f0: 2dcb e8b7 bb06 bcb7 ce13 d9b7 f470 d7b7
00000300: 18bb aab7 37c5 bbb7 cddf a4b7 a235 97b7
00000310: fd62 97b7 10ba a4b7 059b 94b7 9599 65b7
00000320: 4e7f 67b7 1ea9 4ab7 1718 6ab7 e17a e5b7
00000330: e082 09b8 23b6 2cb7 759f 37b7 f206 33b7
00000340: 3666 8cb7 d06b 96b7 1ac5 00b7 7368 15b7
00000350: 5d52 02b7 9327 edb6 6e52 0eb7 5877 d7b6
00000360: e17a 38b7 bfa7 24b7 5fea c1b6 fcfe c3b5
00000370: 913c 0eb6 2705 a0b6 d14e 2eb6 04ba 72b6
00000380: 3ada 8534 2a95 3cb5 7af6 e8b4 d28d 04b5
00000390: bd75 a731 b864 0ab5 f8f9 64b4 ecd3 abb4
000003a0: e912 0cb4 0d97 e833 0dec 2b33 276f 7cb4
000003b0: 0047 96b4 79ca a0b3 8868 c0b3 a60c fdb2
000003c0: afda 2bb4 377d 2ab4 0160 83b4 d930 48b4
000003d0: 4de3 a1b3 252c 96b4 455b 05b5 a27d 91b4
000003e0: c830 11b4 ab8c adb2 a408 f4b7 f763 14b8
000003f0: a3a7 2fb8 3a7d 27b8 e6b8 20b8 6d80 d3b7
-0.0002498182 -0.00022831564 -0.00021474581 -0.00017233494 -0.00017716507 -0.0002245837 -0.00020648564 -0.00019934685
-0.00016665831 -0.00017075689 -0.00022899351 -0.00024189864 -0.00021615226 -0.00020350242 -0.00019914837 -0.00023779605
-0.00021929742 -0.00020841384 -0.00018936116 -0.0001882827 -0.00021491798 -0.00021945692 -0.00021483208 -0.00020790151
-0.00021881245 -2.188427e-06 -4.9010773e-06 -4.8774223e-06 -3.90929e-06 -1.7768315e-06 -1.1875252e-06 -2.6584587e-06
-5.094563e-06 -7.4603395e-06 -3.7865348e-06 -1.9026783e-06 -5.614806e-06 -7.1560685e-06 -6.1633264e-06 -4.6591367e-06
-2.4385058e-06 -3.7225311e-06 -4.6161576e-06 -2.1217372e-06 1.067087e-06 -1.6540899e-06 -4.5275815e-06 -1.7673055e-06
-7.8379725e-07 -6.6525735e-07 -0.0003252991 -0.00035535122 -0.0003764792 -0.00040333476 -0.00043446946 -0.00035679506
-0.00038660105 -0.00040479735 -0.0004332021 -0.00043291706 -0.00037028844 -0.0003616656 -0.00040362796 -0.00040342085
-0.00040104048 -0.0003638123 -0.00035018582 -0.00034681548 -0.00034245636 -0.00034603098 -0.00034992074 -0.00032665423
-0.00030999744 -0.00030226744 -0.0003054878 -4.3169428e-05 -5.5322394e-05 -7.260631e-05 -8.226385e-05 -9.3438815e-05
-4.869588e-05 -6.666692e-05 -7.6890756e-05 -8.494271e-05 -8.153002e-05 -4.2474097e-05 -4.6242287e-05 -6.0178598e-05
-6.252846e-05 -6.0800223e-05 -3.0083036e-05 -3.6000056e-05 -4.052315e-05 -4.6501544e-05 -4.654144e-05 -1.8634486e-05
-1.635721e-05 -1.622537e-05 -2.404269e-05 -1.6551485e-05 -4.347292e-05 -5.025053e-05 -3.929668e-05 -2.7004255e-05
-1.8028426e-05 -3.9848623e-05 -4.1720938e-05 -4.408477e-05 -2.6220534e-05 -3.2038137e-05 -3.7836577e-05 -4.1827137e-05
-4.8770416e-05 -4.4620527e-05 -3.2590873e-05 -3.0550487e-05 -3.8278613e-05 -2.9504257e-05 -1.9575988e-05 -2.3479077e-05
-1.7651697e-05 -2.9647417e-05 -2.0249166e-05 -2.0410625e-05 -1.629749e-05 -0.00031063982 -0.00033566763 -0.00033981822
-0.00035136178 -0.0003557753 -0.00034495673 -0.0003679328 -0.00038737763 -0.00038107342 -0.0003892222 -0.0003546305
-0.00036436596 -0.00037845058 -0.0003744658 -0.00038540913 -0.0003389035 -0.00034941977 -0.00036103232 -0.00035417537
-0.00036349864 -0.00032452558 -0.0003333789 -0.00032860698 -0.00032407945 -0.0003347725 -2.5645625e-06 -9.246616e-06
-1.2578736e-05 -1.3453434e-05 -1.0653152e-05 2.0495334e-06 -4.171133e-06 -1.0606455e-05 -1.2222524e-05 -1.0109762e-05
2.2645845e-06 -1.0254129e-05 -1.05212675e-05 -6.0882744e-06 -8.994006e-06 1.2125778e-06 -5.612041e-06 -7.74737e-06
-7.69479e-06 -5.206269e-06 1.9853746e-06 -3.4109667e-06 -4.711336e-06 -7.247219e-06 -6.701721e-06 -3.8399092e-05
-4.1045874e-05 -4.708211e-05 -4.194202e-05 -4.284885e-05 -3.441249e-05 -4.0005256e-05 -3.45316e-05 -3.805479e-05
-3.4243305e-05 -2.8940856e-05 -2.7386994e-05 -2.5083658e-05 -2.7751166e-05 -2.241448e-05 -2.5877638e-05 -2.5682595e-05
-2.0352702e-05 -2.2383972e-05 -1.9654539e-05 -1.8025577e-05 -1.8046698e-05 -1.9636966e-05 -1.7715161e-05 -1.3685222e-05
-1.3798313e-05 -1.2079514e-05 -1.3953096e-05 -2.7356147e-05 -3.2785232e-05 -1.0294406e-05 -1.09447765e-05 -1.06708485e-05
-1.6736896e-05 -1.7931598e-05 -7.675286e-06 -8.905411e-06 -7.7677805e-06 -7.0677575e-06 -8.483052e-06 -6.4213928e-06
-1.0995865e-05 -9.814218e-06 -5.7791326e-06 -1.4602842e-06 -2.1194903e-06 -4.7689714e-06 -2.5973898e-06 -3.6169085e-06
2.493196e-07 -7.025252e-07 -4.3392703e-07 -4.938021e-07 4.873725e-09 -5.155557e-07 -2.1325093e-07 -3.2005426e-07
-1.3045396e-07 1.0830818e-07 4.0028727e-08 -2.3509766e-07 -2.7991337e-07 -7.48741e-08 -8.959711e-08 -2.9458828e-08
-1.6005173e-07 -1.5878037e-07 -2.4470503e-07 -1.8644222e-07 -7.5384925e-08 -2.7971797e-07 -4.9679176e-07 -2.7099765e-07
-1.3521924e-07 -2.0203819e-08 -2.909109e-05 -3.537905e-05 -4.1879375e-05 -3.993253e-05 -3.8319173e-05 -2.5212963e-05
