logs/biosr_ccps_rcan_model-SRCNN_250305_lr0.0001_bs1_Ps256_Npatch128_N300/model_239.pth (torch, 695046 bytes, 15 tensors)

conv1.weight f4 [64, 1, 9, 9]
0	0x3da3cf5a	0.079985335
1	0xbcebe752	-0.028796826
2	0x3da9bcc1	0.08287955
3	0xbcbc5c7d	-0.02299332
4	0x3d3bb014	0.045822218
5	0xbd20504b	-0.039139073
6	0x3e096cef	0.13420461
7	0xbc368947	-0.011141128
8	0x3e523233	0.20526962
9	0xbce402e4	-0.02783341
10	0xbdbd9b89	-0.092581816
11	0x3d44de29	0.04806343
12	0xbd4dadae	-0.050214462
13	0x3cf9e933	0.030506706
14	0x3d2e0f74	0.042495206
15	0x3cf35e80	0.029708147
16	0x3d9d7cfb	0.07689854
17	0x3ddad4fa	0.10685153
18	0x3dae071a	0.08497448
19	0x3d1b1b85	0.03786804
20	0xbdc579e7	-0.09642392
21	0xbc9b3a60	-0.018948734
22	0xbd545a2f	-0.05184382
23	0xbdc15955	-0.09440867
24	0xbd8d648d	-0.06903944
25	0xbd94e7dd	-0.07270787
26	0x3d4cbef7	0.049986806
27	0xbdd2eb03	-0.10298731
28	0xbd0ce657	-0.034399357
29	0x3cbdd2c7	0.023171796
30	0xbd9e4db1	-0.07729662
31	0xbdce3cf8	-0.100702226
32	0x3ab3c2d5	0.0013714681
33	0xbd000a87	-0.03126004
34	0xbd2d8768	-0.04236546
35	0x3d984f24	0.0743697
36	0xbd957aba	-0.07298799
37	0xbd803780	-0.06260586
38	0xbb7cfaf8	-0.0038601737
39	0x3d32f626	0.043691777
40	0xbd022569	-0.03177396
41	0x3d92e53f	0.071726315
42	0x3d517a08	0.05114177
43	0x3d848dcc	0.06472358
44	0x3cc626ac	0.024188362
45	0xbd16a960	-0.036782622
46	0xbdc89303	-0.09793665
47	0xbaba0d1f	-0.0014194584
48	0xbdc0e76e	-0.09419142
49	0x3cd64de4	0.026160188
50	0x3cd6963c	0.026194684
51	0x3cb000d8	0.021484777
52	0x3d597a21	0.053094987
53	0x3dff7ced	0.124749996
54	0xbd6001ba	-0.054689147
55	0xbce5fec6	-0.028075587
56	0xbc0d098d	-0.008608234
57	0x3d0617c1	0.032737497
58	0x3d9fbec0	0.078000546
59	0x3d76d02f	0.060257133
60	0xbd3da23b	-0.046297293
61	0x3dd645f2	0.1046256
62	0x3bde6a23	0.006787555
63	0x3d18538b	0.037189048
64	0x3d1336d6	0.035940968
65	0x3afcf23e	0.0019298268
66	0xbd51343e	-0.051075213
67	0xbd5560f1	-0.052094404
68	0x3c24a042	0.010047974
69	0xbd87df10	-0.06634343
70	0xbcb5461f	-0.022128163
71	0xbd8932c1	-0.06699134
72	0x3d2dbdd3	0.04241736
73	0xbcc47be2	-0.023984853
74	0x3cafdf11	0.021468671
75	0x3d63728c	0.055529162
76	0xbd46ca14	-0.04853256
77	0xbc00d6e8	-0.007863738
78	0xbdaf3d99	-0.08556671
79	0xbbc59e4c	-0.0060308333
80	0xbd8e7776	-0.06956379
81	0xbd430628	-0.047613293
82	0xbb944b03	-0.0045255437
83	0xbcedbf88	-0.029021993
84	0x3bef2adc	0.0072988104
85	0x3d93a4f8	0.072092
86	0xbd022d58	-0.031781524
87	0xbdfc1810	-0.12309277
88	0x3d650c7a	0.0559201
89	0xbc8893b8	-0.016672
90	0x3c9d7faa	0.019225914
91	0xbc8fc903	-0.017551905
92	0x3d6c0504	0.05762197
93	0xbdcf20ef	-0.101137035
94	0x3d8d87ae	0.069106445
95	0x3d97209a	0.07379265
96	0x3d92a65f	0.07160639
97	0x3d0c966b	0.034323137
98	0x3db864fa	0.09003635
99	0x3d09af89	0.03361467
100	0x3c968f7a	0.018378962
101	0xbcb4e071	-0.022079678
102	0x3dae4883	0.08509924
103	0x3d97349b	0.073830806
104	0xbd49a4e6	-0.049229525
105	0x3c49f485	0.012326364
106	0xbdc139a5	-0.09434823
107	0xbcc9dee0	-0.024642408
108	0x3ce10bd2	0.027471457
109	0xbc5d28bf	-0.013498484
110	0xbdf4d3b6	-0.11954443
111	0x3dabc063	0.08386304
112	0x3cfad3ac	0.030618511
113	0xbdbb0587	-0.09131914
114	0xbdd61ca4	-0.104546815
115	0xbd439456	-0.047748886
116	0xbdc02e23	-0.093838
117	0xbd800685	-0.062512435
118	0xbd749619	-0.059713457
119	0xbdcf58ae	-0.10124336
120	0x3d449289	0.04799131
121	0x3df2ba9b	0.118519984
122	0x3addecb4	0.0016931505
123	0xbd2dd16c	-0.04243605
124	0x3daf3ec7	0.08556896
125	0xbdd713f5	-0.105018534
126	0xbd0d8517	-0.034550752
127	0xbdc09051	-0.09402526
128	0x3d07afe5	0.03312673
129	0xbdb1f8be	-0.08690022
130	0xbdbf2258	-0.093327224
131	0x3d353a58	0.044245094
132	0xbd8a8905	-0.06764416
133	0xbdbf2054	-0.09332338
134	0x3b528629	0.0032123423
135	0xbd4fb501	-0.05070973
136	0x3d8fe07c	0.07025239
137	0x3c0265fc	0.007958885
138	0x3bde2b02	0.0067800293
139	0xbd29d29f	-0.04146063
140	0x3d73ec31	0.05955142
141	0x3d926a67	0.07149201
142	0x3dac9731	0.08427275
143	0x3c62e376	0.013848176
144	0xbdedde18	-0.11614627
145	0x3c1965ba	0.009362632
146	0xbd9344e0	-0.07190871
147	0xbdbecda2	-0.09316565
148	0x3d93e896	0.072220966
149	0x3d2a88e6	0.041634463
150	0x3d0df014	0.034652784
151	0x3de23a67	0.110462956
152	0x3d039756	0.032126747
153	0xbc903095	-0.01760129
154	0xbcefd141	-0.029274585
155	0x3d437605	0.047719974
156	0x3c89eacd	0.016835595
157	0xbd836904	-0.064165145
158	0xbdc5b560	-0.09653735
159	0x3d8c7aa1	0.06859327
160	0x3d996472	0.074898615
161	0x3dfd1aa5	0.12358598
162	0x3d866723	0.065626405
163	0x3dfd4830	0.12367284
164	0xbd4def6d	-0.050277162
165	0x3d7bfb0c	0.061518714
166	0x3d15cace	0.036570363
167	0x3ce30f4a	0.027717251
168	0xbd9c4fba	-0.07632394
169	0xbd8757ad	-0.0660852
170	0x3d3d3e73	0.046202134
171	0x3de4acdb	0.11165782
172	0x3d94299e	0.072345
173	0xbcfcfc62	-0.030882064
174	0x3df2a037	0.11846965
175	0x3d682c64	0.05668296
176	0x3c9082e6	0.017640542
177	0x3ca8dec6	0.02061404
178	0x3db390f1	0.0876788
179	0x3d96c58c	0.07361898
180	0x3dabbb4d	0.08385334
181	0xbd54c056	-0.05194124
182	0x3dbe8c6f	0.09304129
183	0x3dc9b044	0.09848073
184	0xba0bd279	-0.0005333792
185	0x3d7524bf	0.059849497
186	0xbd935c93	-0.071953915
187	0xbddd8b3f	-0.10817575
188	0xbdad343f	-0.08457231
189	0x3df56366	0.11981849
190	0x3ddbd800	0.10734558
191	0x3cb068ba	0.021534313
192	0x3dc50a77	0.09621137
193	0x3daab578	0.08335394
194	0xbd2b70b3	-0.041855525
195	0x3cb9b68d	0.022670055
196	0xbd7db53e	-0.061940424
197	0xbe030582	-0.1279507
198	0x3de05e9d	0.10955546
199	0xbd24bb81	-0.04021788
200	0xbcff6cbe	-0.031179782
201	0x3ca92785	0.020648727
202	0x3d8aff8b	0.06787022
203	0x3da28991	0.07936395
204	0xbcf4c946	-0.02988113
205	0x3ba1b865	0.0049353116
206	0xbbb065b3	-0.0053832172
207	0xbd15b686	-0.03655102
208	0xbc52c5fa	-0.012864584
209	0x3cae7669	0.021296697
210	0xbda13de8	-0.07873136
211	0x3d4d526e	0.05012744
212	0xbdde5865	-0.10856704
213	0x3ccd285f	0.025043665
214	0xbde31173	-0.110873125
215	0xbe0bc56a	-0.13649526
216	0x3cf312d2	0.02967206
217	0x3cc1df9a	0.023666192
218	0xbd2f4a19	-0.042795274
219	0x3d8272d4	0.06369558
220	0x3db5d474	0.08878413
221	0x3c29fb58	0.010374866
222	0xbddbe5b2	-0.1073717
223	0xbdeb85a1	-0.11500097
224	0xbe247844	-0.16061503
225	0x3c1d71c5	0.009609644
226	0x3dd47919	0.1037466
227	0x3c4d6537	0.0125363385
228	0xbdc847bc	-0.09779307
229	0x3d8ed6a5	0.06974534
230	0x3ce92791	0.02846125
231	0xbda39107	-0.07986646
232	0xbe1b4d14	-0.15166122
233	0x3c9dcc54	0.01926247
234	0x3de7d077	0.113190584
235	0x3ca7427a	0.02041744
236	0xbd13adba	-0.03605435
237	0xbcd6221d	-0.026139313
238	0xbd37a5a8	-0.044835716
239	0xbdec91c4	-0.1155124
240	0x3bd71077	0.006563242
241	0xbdc27be0	-0.094962835
242	0xbe0569dc	-0.13028663
243	0x3dd95daf	0.10613572
244	0xbdaf094b	-0.08546694
245	0x3dc87b23	0.097891115
246	0x3df329f1	0.11873234
247	0x3d9945bc	0.07484004
248	0xbd0c4530	-0.03424567
249	0xbd39ea60	-0.045389533
250	0x3cc8e7a4	0.024524517
251	0xbd9b1c4c	-0.075737566
252	0x3d4ae1a1	0.049531583
253	0xbb96c779	-0.0046014157
254	0x3c0e4ff6	0.008686056
255	0x3dea7fa4	0.11450127

conv1.bias f4 [64]
0	0x3cddd20d	0.0270777
1	0x3d51cd40	0.051221132
2	0x3c8ca37c	0.0171678
3	0x3bb26bd3	0.0054449826
4	0xbdd1270f	-0.10212528
5	0x3d9c6451	0.07636321
6	0x3dbcddf2	0.0922202
7	0xbd974ede	-0.073880896
8	0xbd1df6ae	-0.03856533
9	0x3cf890e8	0.030342534
10	0xbd196f1d	-0.03745948
11	0xbc8b6d8b	-0.017020008
12	0xbdd431e6	-0.1036108
13	0xbc881572	-0.016611788
14	0xbda4ed74	-0.08053103
15	0xbd85cb44	-0.065329105
16	0x3dbc692f	0.0919975
17	0xbcc544c9	-0.02408065
18	0xbb364502	-0.0027812128
19	0xbca7a57f	-0.020464657
20	0xbd135b7c	-0.03597592
21	0xbdd3135d	-0.10306428
22	0xbdf1884d	-0.117935754
23	0xbc954b2d	-0.018224323
24	0xbc97589e	-0.018474873
25	0x3c95c1c3	0.01828087
26	0xbcd775bc	-0.026301257
27	0xbda514aa	-0.08060582
28	0xbd99981c	-0.07499716
29	0xbd7ccce0	-0.06171882
30	0xbd00c9fe	-0.031442635
31	0xbca2d372	-0.019876216
32	0xbda402f3	-0.08008375
33	0xbdae1e40	-0.085018635
34	0x3d8ad8bd	0.06779621
35	0xbae97552	-0.0017811453
36	0xbd943ddc	-0.07238361
37	0x3d45fe65	0.048338313
38	0xbccb9b1e	-0.02485424
39	0x3e2244fc	0.15846628
40	0x3d422251	0.047396008
41	0x3d788b9e	0.060680024
42	0xbcac1179	-0.021004425
43	0xbca6dd5c	-0.020369224
44	0x3d065e25	0.032804627
45	0xbdf9227d	-0.12164781
46	0xbc464da8	-0.012103476
47	0xbd0d6add	-0.03452574
48	0x3cb38471	0.021913739
49	0xbd04eb6a	-0.03245107
50	0x3ddb72dc	0.10715267
51	0xbd8061d9	-0.06268663
52	0x3baadaf9	0.005214092
53	0xbb3b7a3d	-0.0028606795
54	0x3d8b5ded	0.06805024
55	0xbd72b2c7	-0.059252527
56	0x3d13fcaa	0.03612963
57	0xbda679c7	-0.08128696
58	0x3c1bc12e	0.009506507
59	0x3c336388	0.010949023
60	0xbc7e5665	-0.015523528
61	0x39bfbfa6	0.00036573148
62	0x3d5df035	0.054184157
63	0xbdab85e5	-0.08375148

conv2.weight f4 [32, 64, 5, 5]
0	0xbcc159c0	-0.023602366
1	0xbd1cbcaa	-0.03826586
2	0x3c7ddacb	0.015494059
3	0xbc1f1b49	-0.009711095
4	0x3d00052b	0.03125493
5	0x3b98ac1f	0.0046591903
6	0xbc3ba447	-0.011452741
7	0x3cd1079a	0.02551632
8	0xbc097b64	-0.008391235
9	0x3c2249eb	0.009905319
10	0xbb74f3cb	-0.0037376757
11	0xbbc04803	-0.0058679595
12	0xbbbd0bb5	-0.005769218
13	0xbc9de6a6	-0.01927502
14	0x3afe0e22	0.0019382874
15	0xbd33ab2b	-0.04386441
16	0xbcac16f0	-0.021007031
17	0xbd0ce57a	-0.034398533
18	0xbd0e99b8	-0.034814566
19	0xb9ef2087	-0.00045609867
20	0xb946c252	-0.00018955141
21	0x3c838603	0.016055113
22	0x3c9c975a	0.019115139
23	0x3d173a2b	0.036920708
24	0x3d4fb928	0.050713688
25	0xbde9950f	-0.11405384
26	0xbc879e36	-0.016554933
27	0x3d5ebee0	0.05438125
28	0xb8b63598	-8.688419e-05
29	0xbce4fbb9	-0.027952062
30	0x3b005dc5	0.001958714
31	0xbd0edff5	-0.03488155
32	0x3d6c941e	0.057758443
33	0x3d17f533	0.037099075
34	0x39a911db	0.00032247495
35	0xbd909ca3	-0.07061126
36	0xbdafcfad	-0.08584533
37	0xbc0ec02c	-0.0087128095
38	0xbcca2a6e	-0.024678435
39	0xbc260aaa	-0.010134378
40	0xbdc0736e	-0.093970165
41	0xbdb0e43d	-0.08637283
42	0xbcd4a3a0	-0.025956929
43	0xbc55a667	-0.013040162
44	0xbc549795	-0.012975593
45	0xbd62b126	-0.055344723
46	0xbc937c53	-0.018003618
47	0x3b95cf5c	0.0045718383
48	0x3bac53b9	0.005259004
49	0xbcc94bdf	-0.024572311
50	0x3c8a09d1	0.016850384
51	0x3c0b0119	0.008484148
52	0x3cbb4b4f	0.022863058
53	0x3cf0f2a2	0.029412571
54	0x3c7655c3	0.015035096
55	0xbcedbfac	-0.02902206
56	0xbc598af7	-0.013277761
57	0xbc80b34b	-0.015710494
58	0xbc55c8b4	-0.01304834
59	0x3c3420ea	0.010994175
60	0xbd00c143	-0.03143431
61	0xba9b3cdf	-0.0011843703
62	0xbc047d52	-0.008086519
63	0x3c27666b	0.010217289
64	0x3c40c825	0.011766468
65	0xbd38a9be	-0.045083754
66	0xbbabbde0	-0.0052411407
67	0xbd0d756d	-0.034535814
68	0x3d051eea	0.032500185
69	0x3d7b8233	0.061403465
70	0xbba3e197	-0.0050012576
71	0x3c315658	0.010823809
72	0x3c9a1d37	0.018812759
73	0x3d51a868	0.051185995
74	0x3e271836	0.1631783
75	0x3cb08606	0.021548282
76	0xbce2e259	-0.027695822
77	0xbbc1f6c9	-0.0059193117
78	0xbbc83a80	-0.0061104894
79	0x3cf6ca8a	0.030125875
80	0x3c2a7304	0.010403398
81	0x3babc8d2	0.0052424455
82	0xbd1a274f	-0.037635144
83	0xbc1aa8e7	-0.0094396835
84	0x3c872d5c	0.016501121
85	0xbc4cd26c	-0.01250134
86	0x3bd27bb0	0.006423436
87	0x3b33ffe5	0.0027465757
88	0x3cc0e344	0.023545869
89	0x3c831165	0.015999505
90	0xbc08a633	-0.008340406
91	0xbd137cb4	-0.036007598
92	0xbc69a4db	-0.014260496
93	0xbbdee172	-0.0068017775
94	0xbcd63da5	-0.026152441
95	0xbd0779ed	-0.03307526
96	0xbd40b303	-0.04704572
97	0xbd48d123	-0.049027573
98	0xbdf14f3b	-0.1178269
99	0xbe296993	-0.1654418
100	0x3b91082a	0.004426022
101	0x3c36a847	0.011148519
102	0x3bfba8c7	0.007680032
103	0xbc9f3395	-0.019433776
104	0xbd4368c4	-0.047707334
105	0x3c93a23a	0.018021692
106	0x3b986233	0.004650378
107	0xbba184b6	-0.0049291505
108	0x3beea176	0.0072824312
109	0xbd4d76e1	-0.0501622
110	0x3d095dfc	0.033536896
111	0x3cc3cdc6	0.023901831
112	0x3b42aa4c	0.0029703556
113	0xbafe7c58	-0.001941572
114	0xbd081590	-0.03322369
115	0xba1cc5e8	-0.0005980418
116	0x3cb50185	0.022095451
117	0xbd40a31b	-0.04703055
118	0xbd0504e2	-0.03247536
119	0xbccaf80d	-0.024776483
120	0x3d8759b1	0.06608904
121	0x3c395ed6	0.011314115
122	0x3d242bab	0.040080708
123	0x3d3a07e1	0.04541767
124	0x3d6c311a	0.057664014
125	0x3babf3ba	0.0052475603
126	0x3c56509a	0.01308074
127	0x3ad6fe61	0.0016402715
128	0x3c9937cb	0.018703362
129	0xbc9774b9	-0.018488275
130	0x3af85a2b	0.0018947771
131	0x3c065442	0.0081988
132	0xbb7e9a45	-0.0038849276
133	0x3bf3ee66	0.007444191
134	0xbd013042	-0.031540163
135	0xbcee094e	-0.029057171
136	0xbcda309f	-0.026634512
137	0xbce4c742	-0.027927045
138	0xbd0c6028	-0.03427139
139	0xbcfbf3d7	-0.03075592
140	0x3b06fac6	0.002059625
141	0xbc14a833	-0.009073305
142	0x3af3d10c	0.001860173
143	0x3c755f7d	0.014976379
144	0xbac6f857	-0.0015180212
145	0x3c244f8c	0.010028731
146	0x3cf4647b	0.02983307
147	0x3c91d88b	0.017803451
148	0x3ce0d4e6	0.027445268
149	0x3c738938	0.0148642585
150	0x3b655597	0.0034993642
151	0x3d05ed52	0.03269703
152	0x3d5a5ba7	0.053310063
153	0xbcd7d916	-0.026348632
154	0xbd7c2e37	-0.06156751
155	0xbb95816f	-0.004562549
156	0xbbd89b98	-0.006610345
157	0xbcd48b20	-0.025945246
158	0xbd91a041	-0.07110644
159	0xbd35e1cd	-0.044404794
160	0x3c0c8c9d	0.008578447
161	0xbc1a8181	-0.00943029
162	0xbc27e7db	-0.01024815
163	0xbd7c1e8b	-0.061552566
164	0xbb8da15c	-0.004322214
165	0x3d579d77	0.052640405
166	0x3c960e5a	0.01831739
167	0xbd56c387	-0.052432563
168	0x3b96b117	0.0045987475
169	0x3bb48a7a	0.0055096718
170	0x3d2aa26a	0.041658796
171	0x3d2458ea	0.040123858
172	0xbd3348f6	-0.043770753
173	0x3c82236f	0.015886037
174	0x3d917aff	0.07103538
175	0xbcb93d10	-0.022612125
176	0xbd01b416	-0.031665884
177	0x3c669fae	0.014076157
178	0xbc95a495	-0.018266955
179	0xbcf82759	-0.0302922
180	0xbd061657	-0.03273615
181	0x3c80832e	0.015687551
182	0x3cc55b1e	0.0240913
183	0xbcace8ab	-0.021107038
184	0x3cd9e2ac	0.026597343
185	0x3b1d2fb7	0.002398474
186	0x3d1763bf	0.03696036
187	0x3c8e611e	0.017380293
188	0xbb8d9bb6	-0.0043215407
189	0xbc10a4ba	-0.008828336
190	0x3cba3fcc	0.022735499
191	0xb95931f0	-0.00020713336
192	0xbc4473e3	-0.01199052
193	0x3c899894	0.016796388
194	0x3d1e1fad	0.038604427
195	0x3d239d9e	0.039945237
196	0x3c7d76ea	0.015470246
197	0x3ca3d14e	0.019997265
198	0x3d81be22	0.06335093
199	0x3de9e595	0.114207424
200	0x3d2e5846	0.042564653
201	0xbd5845f9	-0.052801106
202	0xbcfc0743	-0.030765181
203	0xbc890fb5	-0.016731123
204	0xbd3c9233	-0.046037864
205	0xbc1b3614	-0.009473342
206	0xbcf41ff7	-0.029800398
207	0xbd1bda5c	-0.03805004
208	0xbb228374	-0.002479759
209	0x3ca52165	0.020157525
210	0xbdcb6e1c	-0.09933111
211	0xbccbdef6	-0.02488659
212	0xbd97275f	-0.07380556
213	0xbd547bd2	-0.051875897
214	0x3dcdb3eb	0.10044082
215	0xbe1cdcea	-0.15318647
216	0xbdf31ca6	-0.11870699
217	0xbd9bf004	-0.07614139
218	0xbd476e61	-0.04868925
219	0x3db0457c	0.08607003
220	0xbd96227b	-0.073307954
221	0xbda12a58	-0.078694046
222	0xbd552b23	-0.05204309
223	0x3d608a66	0.054819487
224	0x3e1986c1	0.14992811
225	0x3ca2f02b	0.019889912
226	0xbc2d5968	-0.010580398
227	0xbc19a4f8	-0.0093777105
228	0xbd36f1f1	-0.044664327
229	0xbd0e4c08	-0.034740478
230	0x3d1c9bd5	0.03823455
231	0x3b106b58	0.0022036638
232	0xbc9883be	-0.018617507
233	0xbd8393c7	-0.06424671
234	0x3d4a0230	0.049318492
235	0xbdbdb2a4	-0.092625886
236	0xbd586a46	-0.052835725
237	0xbd9513c2	-0.07279159
238	0xbd40ce53	-0.047071766
239	0x3dbe8be4	0.09304026
240	0xbe024c37	-0.12724386
241	0xbdb79bc2	-0.08965255
242	0xbb44ba12	-0.0030018133
243	0x3dc96332	0.09833373
244	0x3daa58b9	0.08317704
245	0xbdf1966b	-0.11796268
246	0xbce7f742	-0.028316144
247	0xbc5dba97	-0.013533256
248	0x3e9ed869	0.31024483
249	0x3cb571a1	0.022148909
250	0x3d846f78	0.064665735
251	0xbcba11c1	-0.022713544
252	0xbd527788	-0.051383525
253	0xbd981a54	-0.07426897
254	0xbdf6abfc	-0.12044522
255	0x3d63321b	0.055467706

conv2.bias f4 [32]
0	0x3bb3fa12	0.005492457
1	0xbd0aa6d9	-0.033850525
2	0x3c47e0ee	0.0121996235
3	0xbcb9230c	-0.02259972
4	0x3c773e08	0.015090473
5	0xbc89226e	-0.01674005
6	0xbcb86cbd	-0.022512788
7	0x3c96ed28	0.018423632
8	0xbc4c94a5	-0.0124866115
9	0xbc9bff04	-0.0190425
10	0xbccd5fb1	-0.025070043
11	0x3c68670a	0.014184723
12	0xbc42cb58	-0.011889301
13	0xbc7bfdf8	-0.015380375
14	0x3c851cf4	0.016249157
15	0xbcef0e8d	-0.029181743
16	0xbcd5885e	-0.026066002
17	0xbc65f9fb	-0.014036651
18	0x3ad0f720	0.001594279
19	0xbd6c8c3c	-0.057750925
20	0x3d4e04d1	0.050297562
21	0xbc123ae3	-0.0089251725
22	0xbc300a13	-0.010744589
23	0x3b880ea3	0.0041521355
24	0xbc9321d4	-0.017960466
25	0xbc2713dd	-0.010197607
26	0xbc9b3d8f	-0.018950252
27	0x3ca5457b	0.020174732
28	0xbcde2314	-0.027116336
29	0x3b7c6bd1	0.0038516412
30	0x3ca7851d	0.020449216
31	0xbcd99730	-0.02656135

conv3.weight f4 [1, 32, 5, 5]
0	0xbd5082bf	-0.05090594
1	0xbc9db886	-0.019253027
2	0xbccd3c93	-0.025053298
3	0xbd0997b3	-0.033591937
4	0x3b0bc63d	0.0021327876
5	0x3b8b813f	0.0042573507
6	0xbcf14155	-0.029450098
7	0xbd5a80c7	-0.053345468
8	0xbc56f287	-0.013119346
9	0x3c79a4a3	0.015237006
10	0x3c9c80a3	0.019104308
11	0xbd389f95	-0.045074064
12	0xbd292a50	-0.041300118
13	0xbb0d10d6	-0.0021524928
14	0x3c13709b	0.008999015
15	0xbbb27241	-0.005445749
16	0xbcc7e3d2	-0.024400625
17	0xbcefcb92	-0.029271875
18	0xbc7eb8db	-0.015547003
19	0x3c8b97e8	0.017040208
20	0x3d94442a	0.07239564
21	0x3d695320	0.05696404
22	0x3d4abe32	0.04949779
23	0x3d267e96	0.040648066
24	0x3dfae121	0.12249971
25	0xbd27725c	-0.040880546
26	0xbce2ca28	-0.027684286
27	0xbd3864e6	-0.0450181
28	0xbc237c58	-0.009978376
29	0xbb707511	-0.003669087
30	0xbd28e4aa	-0.041233696
31	0xbd5ca03c	-0.05386375
32	0xbcc8222f	-0.024430363
33	0xbc6cc0ef	-0.014450296
34	0xbd04cd96	-0.032422625
35	0xbd078113	-0.03308208
36	0xbc7014ef	-0.014653428
37	0xbd2861cf	-0.041108903
38	0xbcd9f679	-0.026606785
39	0xbc64e591	-0.0139707485
40	0xbd2630c2	-0.040573843
41	0x3c3741c3	0.011185112
42	0xbd2034ad	-0.039112736
43	0xbc51054b	-0.01275761
44	0xbcb9beb0	-0.022673935
45	0xbbeb55d0	-0.0071818605
46	0xbd6d5674	-0.057943776
47	0xbc931830	-0.01795587
48	0xbce65f04	-0.028121479
49	0xbb0691c3	-0.0020533658
50	0x3d1574c6	0.036488317
51	0xbc73ce22	-0.014880689
52	0x3bd3ed8e	0.0064675277
53	0x3d079d55	0.033109028
54	0x3d0cd75e	0.034385078
55	0xbc0cf635	-0.008603622
56	0x3c8d785a	0.017269302
57	0xbca5857c	-0.020205252
58	0xbc649196	-0.013950726
59	0xbcd93625	-0.026515076
60	0x3c550d2b	0.013003628
61	0xbcecbb3d	-0.028897876
62	0xbc84e3db	-0.016221931
63	0xbc6d9ee1	-0.014503212
64	0x3b9a68b4	0.0047121886
65	0x3baee449	0.0053372723
66	0xbbde2b25	-0.0067800456
67	0xbcdf32c4	-0.027245887
68	0xbba1c8d7	-0.004937272
69	0x3c8e03cb	0.017335793
70	0x3c4ecf1d	0.012622622
71	0xbc8ca6f3	-0.017169451
72	0xbbb54c96	-0.0055328114
73	0xbd033fd6	-0.0320433
74	0x3c9bab2c	0.01900252
75	0xbd008253	-0.031374287
76	0xbcb4fb50	-0.022092491
77	0xbd5d5d9f	-0.054044362
78	0xbd4b2bb7	-0.049602237
79	0xbcd1e087	-0.025619758
80	0xbc265e33	-0.010154295
81	0x3cbbe9fa	0.022938717
82	0x3caadaf3	0.020856356
83	0xbc49b5f7	-0.01231145
84	0x3ceb5ace	0.028729822
85	0xbb8a4828	-0.0042200275
86	0xbc96dcac	-0.018415771
87	0x3c846445	0.016161093
88	0xbba13f12	-0.0049208486
89	0x3d05fcab	0.032711666
90	0x3c3b3b78	0.011427753
91	0x3c465438	0.01210504
92	0xbcafc1be	-0.021454688
93	0xbbf6ea85	-0.007535281
94	0x3d202767	0.039100077
95	0x3d4adb61	0.049525622
96	0x3cd7cd43	0.026342994
97	0x3be936c5	0.0071171247
98	0x3d1d5174	0.038407758
99	0x3daa9106	0.08328442
100	0xbd9e0c6e	-0.077172145
101	0xbd1f9835	-0.038963515
102	0xbcc14ad7	-0.023595257
103	0xbc4f6da5	-0.012660419
104	0xbd8c6eaa	-0.06857045
105	0xbb635c3e	-0.0034692432
106	0xbb9939a4	-0.0046760608
107	0x3d1cce33	0.038282584
108	0xbca1d90b	-0.019756814
109	0xbc971cde	-0.018446382
110	0xbce2f9d8	-0.027707025
111	0xbb8512ab	-0.0040610633
112	0x3c8be676	0.017077666
113	0xbb01b539	-0.0019791855
114	0x3c446aef	0.011988386
115	0xbcc3044d	-0.023805762
116	0x3c9ee1a9	0.019394713
117	0xbc12a43c	-0.008950289
118	0xbc55df0c	-0.013053667
119	0x3bf81d62	0.007571862
120	0xbc6abfe0	-0.014327973
121	0x3d0ec5f7	0.034856763
122	0x3cf3aeb2	0.029746387
123	0x3b981f31	0.00464239
124	0x3c3bee38	0.01147037
125	0xbde5d531	-0.11222304
126	0xbda73a3e	-0.08165406
127	0xbd36da68	-0.044641882
128	0xbd6bdf94	-0.057586268
129	0xbd863478	-0.06552976
130	0xbd0ed84b	-0.03487424
131	0xbd043028	-0.032272488
132	0xbd086fb3	-0.03330965
133	0xbd058539	-0.032597754
134	0xbd05ac15	-0.032634813
135	0xbdaa2d4b	-0.0830942
136	0xbcac4411	-0.02102855
137	0xbd719e4f	-0.058988865
138	0x3b0ca269	0.0021459109
139	0xbd8e5232	-0.06949271
140	0xbd666e3e	-0.05625748
141	0xbbf96032	-0.0076103443
142	0xbd0d42f4	-0.03448768
143	0xbd0d31fd	-0.0344715
144	0xbc8076b8	-0.01568161
145	0xbda32a09	-0.07967002
146	0xbd5b4caf	-0.053539928
147	0xbd4037df	-0.046928283
148	0xbc62399c	-0.01380768
149	0xbd1e6fd1	-0.038680855
150	0x3d2a7d08	0.041623145
151	0xbbf24346	-0.0073932735
152	0xbbcaf09b	-0.006193233
153	0x3d1785be	0.03699278
154	0x3cf45730	0.02982673
155	0xbc1e7ef0	-0.009673819
156	0xbb390b4a	-0.0028235489
157	0xbc433968	-0.011915542
158	0x3ad5addc	0.0016302424
159	0x3d06df0a	0.03292755
160	0xbceb1d88	-0.028700605
161	0x3be59d40	0.007007271
162	0xbb4b967e	-0.0031065042
163	0xbbf7d6e6	-0.0075634597
164	0x3c263f24	0.01014689
165	0x3ce154c3	0.027506238
166	0xbc941d08	-0.01808025
167	0xbc09a5a0	-0.0084013045
168	0x3b88d6d7	0.0041760015
169	0x3c2c764f	0.010526254
170	0x3c82dbad	0.01597389
171	0x3cef7082	0.029228453
172	0x3c6f6df4	0.014613617
173	0x3cc8b34f	0.024499564
174	0x3be9e2ce	0.007137633
175	0x3d9aab37	0.07552188
176	0x3d8f3caf	0.06993996
177	0x3cb474e0	0.022028387
178	0x3c038085	0.008026247
179	0x3d28638a	0.041110553
180	0x3da5fb3a	0.08104558
181	0x3ca7361b	0.020411542
182	0x3cbbf64e	0.022944596
183	0x3c8c18c2	0.01710165
184	0x3d0009e4	0.031259432
185	0x3d80fe22	0.06298472
186	0xbc1a7f83	-0.009429815
187	0x3d16a151	0.036774937
188	0xbc2d6406	-0.0105829295
189	0xbb43a348	-0.0029851962
190	0x3d0390f6	0.032120667
191	0x3d01212e	0.031525783
192	0x3d06e904	0.032937065
193	0x3b66bcf0	0.003520783
194	0x3c4d9e8a	0.012550006
195	0x3ccd8659	0.025088476
196	0x3cb9174b	0.022594115
197	0x3c9dd309	0.019265668
198	0x3ba9ef1e	0.0051859757
199	0x3d2fc4c8	0.042912275
200	0x3d39813e	0.04528927
201	0x3d2c8bda	0.04212556
202	0x3d455c33	0.04818363
203	0x3d1354ac	0.03596942
204	0x3d97956f	0.07401549
205	0xba60aeb9	-0.00085709576
206	0x3d21041a	0.039310552
207	0x3b2ece91	0.0026673416
208	0x3cc881f0	0.024476022
209	0x3d6a3c3a	0.057186343
210	0x3c982b03	0.018575197
211	0x3cc7bf50	0.024383217
212	0x3d2e88ef	0.04261106
213	0x3bbe4d19	0.0058075306
214	0x3ca5dc1e	0.020246562
215	0x3cb4220a	0.021988887
216	0x3c399cd7	0.011328897
217	0x3cdc06d7	0.02685873
218	0x3ca73b9f	0.020414172
219	0x3c07cd5a	0.008288706
220	0x3cef2e71	0.02919695
221	0x3c57769f	0.01315084
222	0x3cf91c4c	0.030409
223	0xbc6dc545	-0.014512365
224	0x3cca5b48	0.02470173
225	0x3d39cfc2	0.04536415
226	0x3cfa6b2a	0.030568678
227	0x3cdbfad2	0.026852999
228	0x3d5416dc	0.051779613
229	0x3d268a20	0.04065907
230	0x3d383b74	0.044978574
231	0x3cdd8be0	0.027044237
232	0x3c37f779	0.011228436
233	0x3cc66555	0.02421824
234	0x3d2313f4	0.03981395
235	0x3b0ed109	0.0021792075
236	0x3ae0a3ec	0.0017138696
237	0x3c9b7744	0.018977769
238	0x3d167aec	0.03673832
239	0x3cdc39b3	0.026882982
240	0x3d18594a	0.037194528
241	0x3d36c71c	0.04462348
242	0x3ce022b2	0.027360294
243	0x3bf1c272	0.007377916
244	0x3d3c2286	0.04593136
245	0x3d5e648e	0.054295115
246	0x3d6a63fa	0.05722425
247	0x3d2eb9e1	0.042657737
248	0x3d2751b6	0.04084941
249	0x3d99eccc	0.075158685
250	0x3ce5bc8e	0.028044011
251	0xbb9fd191	-0.004877277
252	0x3c7badd1	0.015361265
253	0xbb72f818	-0.0037074145
254	0x3d2c1de9	0.042020712
255	0x3aea0622	0.0017854611

exp_avg f4 [64, 1, 9, 9]
0	0xb984ec74	-0.00025353173
1	0xb9838c52	-0.00025090814
2	0xb9801bab	-0.00024434677
3	0xb9363350	-0.00017375988
4	0xb91b75aa	-0.00014825785
5	0xb91d7969	-0.00015017916
6	0xb94f6882	-0.0001977999
7	0xb972a5e5	-0.00023140719
8	0xb963b714	-0.00021716609
9	0xb98aab5b	-0.0002644908
10	0xb9996759	-0.00029259434
11	0xb997222d	-0.00028826427
12	0xb96a7627	-0.00022359994
13	0xb9335dfc	-0.00017105782
14	0xb9112e7f	-0.00013845599
15	0xb9237ddf	-0.00015591782
16	0xb93097a4	-0.00016841159
17	0xb93b8f4c	-0.00017887092
18	0xb99c1a67	-0.0002977431
19	0xb9a1ee5f	-0.00030885913
20	0xb98dbf6d	-0.0002703624
21	0xb9684ccd	-0.00022153855
22	0xb91e7968	-0.00015113282
23	0xb86f7a6c	-5.7096055e-05
24	0xb87ca950	-6.0239166e-05
25	0xb8a41543	-7.82409e-05
26	0xb8cb3fb7	-9.691662e-05
27	0xb99459d3	-0.00028295684
28	0xb9a2f064	-0.00031078153
29	0xb98c87de	-0.0002680411
30	0xb96c8bdb	-0.00022558814
31	0xb8e1a3fb	-0.0001075938
32	0xb7beb64f	-2.2734659e-05
33	0xb7d9085f	-2.5872314e-05
34	0xb8987835	-7.270315e-05
35	0xb89b17e7	-7.395428e-05
36	0xb9874c6b	-0.00025806142
37	0xb99e0eb8	-0.00030147075
38	0xb993b59f	-0.00028173343
39	0xb96097a0	-0.0002141879
40	0xb8a20f60	-7.727626e-05
41	0x37e1c744	2.691488e-05
42	0x383cba6b	4.4996308e-05
43	0xb77e4f4a	-1.5158041e-05
44	0xb8d81382	-0.00010303316
45	0xb9793137	-0.00023764824
46	0xb99eb890	-0.00030273618
47	0xb9a580cb	-0.0003156721
48	0xb95f4ee9	-0.00021296334
49	0xb8ddbaff	-0.00010572932
50	0x3815eb7b	3.5743677e-05
51	0x38afd5cc	8.384473e-05
52	0x36ad3b38	5.1626957e-06
53	0xb8b29037	-8.5145635e-05
54	0xb9541c27	-0.00020228383
55	0xb9890a99	-0.00026138572
56	0xb991b849	-0.00027793858
57	0xb953713b	-0.0002016471
58	0xb897fd43	-7.247415e-05
59	0x387d978e	6.0461047e-05
60	0x3836aa57	4.3550823e-05
61	0x372e4892	1.0388105e-05
62	0xb8bc8598	-8.989422e-05
63	0xb933f632	-0.00017162485
64	0xb96a4191	-0.00022340404
65	0xb96fe2af	-0.00022877262
66	0xb954316a	-0.00020236304
67	0xb8ea27ec	-0.000111654255
68	0xb81da02b	-3.7580885e-05
69	0x37256670	9.858617e-06
70	0xb78a43d7	-1.6482472e-05
71	0xb8b82b77	-8.7819e-05
72	0xb8b55c57	-8.647952e-05
73	0xb92b25e0	-0.0001632194
74	0xb95db59d	-0.00021143859
75	0xb97a40bf	-0.00023865978
76	0xb95f5933	-0.00021300167
77	0xb90ce517	-0.00013436783
78	0xb9014f02	-0.00012331831
79	0xb89e36be	-7.5442236e-05
80	0xb8f7a299	-0.00011808164
81	0x39882162	0.00025964814
82	0x398bd7b3	0.00026672854
83	0x399a98e0	0.0002948707
84	0x398adf66	0.00026487856
85	0x399d1481	0.0002996065
86	0x398cfddd	0.00026892024
87	0x398e644b	0.00027159075
88	0x39623006	0.0002157093
89	0x3955b756	0.00020381561
90	0x397d3d9b	0.0002415091
91	0x398f418e	0.00027323927
92	0x398d280d	0.00026923456
93	0x398e716d	0.0002716886
94	0x399df6d2	0.0003012927
95	0x3994dd88	0.00028393813
96	0x399208bd	0.000278538
97	0x394772b5	0.0001902085
98	0x392aca5a	0.00016287845
99	0x3969e323	0.00022305227
100	0x39523182	0.00020045604
101	0x3956e4b8	0.00020493835
102	0x3980cfb7	0.00024568822
103	0x399eeaa5	0.00030310932
104	0x398bc5b6	0.00026659452
105	0x39854675	0.0002542023
106	0x39834fdd	0.0002504577
107	0x392b48a2	0.00016334889
108	0x392fb831	0.00016757917
109	0x39300191	0.00016785252
110	0x393bac6f	0.00017897946
111	0x39569048	0.0002046238
112	0x398ca5e5	0.00026826482
113	0x396d1da4	0.00022613123
114	0x397a94bd	0.00023897267
115	0x396cf569	0.00022598136
116	0x397337cf	0.00023195076
117	0x3919fb13	0.0001468475
118	0x391ad891	0.00014767262
119	0x39112265	0.0001384109
120	0x396bf6a2	0.00022503224
121	0x3972c934	0.00023153872
122	0x3985d2ea	0.0002552488
123	0x39829977	0.00024909872
124	0x3988206e	0.00025964103
125	0x396abf02	0.00022387135
126	0x38fcdf8f	0.000120579374
127	0x38fd6bbf	0.000120840494
128	0x38de8f82	0.00010612515
129	0x393846c1	0.00017573965
130	0x39891dc2	0.00026152848
131	0x3992d94d	0.00028009192
132	0x399689e7	0.00028712975
133	0x39835824	0.00025051937
134	0x3955ac46	0.0002037744
135	0x388c56e8	6.691908e-05
136	0x38bda4e4	9.0429356e-05
137	0x38fae689	0.000119638695
138	0x39145158	0.00014144683
139	0x39440614	0.00018694281
140	0x3973c3d2	0.00023247235
141	0x396492ad	0.00021798415
142	0x397881af	0.00023699434
143	0x39330546	0.00017072735
144	0x3887e350	6.479642e-05
145	0x38d4f590	0.00010154687
146	0x3928b487	0.0001608898
147	0x392cb8aa	0.00016471991
148	0x392eac3c	0.00016658095
149	0x394ea9a6	0.0001970889
150	0x39528ecf	0.00020080361
151	0x393d029a	0.00018025414
152	0x39148d63	0.0001416705
153	0x38aabf2e	8.141842e-05
154	0x38c06ad3	9.175171e-05
155	0x3928b4e2	0.00016089113
156	0x392ab577	0.00016280064
157	0x3937e2a3	0.00017536669
158	0x3901db8c	0.00012384186
159	0x391e5b85	0.00015102148
160	0x3914b2b8	0.00014180958
161	0x3901fdbe	0.00012396925
162	0xbb4b46bc	-0.0031017503
163	0xbb4bef08	-0.0031117816
164	0xbb4d6913	-0.0031343147
165	0xbb484e4c	-0.0030564247
166	0xbb415af6	-0.002950368
167	0xbb32870f	-0.0027241146
168	0xbb270073	-0.0025482445
169	0xbb2104a4	-0.0024569416
170	0xbb1be803	-0.0023789413
171	0xbb4fcca3	-0.0031707666
172	0xbb5463ea	-0.0032408186
173	0xbb5665b5	-0.003271443
174	0xbb4ef7c9	-0.0031580797
175	0xbb45dc6c	-0.0030191196
176	0xbb390193	-0.0028229698
177	0xbb2db8d6	-0.0026507876
178	0xbb214db2	-0.002461296
179	0xbb1d798e	-0.002402875
180	0xbb54faa1	-0.003249802
181	0xbb5e2c13	-0.0033900782
182	0xbb5b39dc	-0.0033451235
183	0xbb54548e	-0.0032399031
184	0xbb48a5e4	-0.0030616457
185	0xbb3c3c36	-0.0028722412
186	0xbb2ea7ac	-0.0026650233
187	0xbb28766a	-0.0025705346
188	0xbb20b645	-0.0024522704
189	0xbb5b1fec	-0.0033435775
190	0xbb591d4e	-0.003312904
191	0xbb5a4620	-0.0033305958
192	0xbb552352	-0.0032522273
193	0xbb44898a	-0.0029989206
194	0xbb3815a6	-0.0028089075
195	0xbb30ee36	-0.0026997454
196	0xbb27b981	-0.0025592747
197	0xbb21976e	-0.002465691
198	0xbb58c012	-0.0033073467
199	0xbb59b669	-0.0033220297
200	0xbb546a71	-0.0032412077
201	0xbb4bf1fc	-0.0031119576
202	0xbb3cf60b	-0.0028833176
203	0xbb336751	-0.0027374814
204	0xbb2e02ec	-0.0026552035
205	0xbb290664	-0.0025791163
206	0xbb218d06	-0.0024650707
207	0xbb5249e7	-0.0032087506
208	0xbb50c541	-0.0031855854
209	0xbb49962d	-0.0030759678
210	0xbb3f2660	-0.002916716
211	0xbb303247	-0.0026885436
212	0xbb2f2fc3	-0.002673135
213	0xbb28c670	-0.0025753044
214	0xbb268e23	-0.002541431
215	0xbb237b73	-0.0024945408
216	0xbb452df3	-0.0030087202
217	0xbb418ac5	-0.0029532176
218	0xbb3a7164	-0.0028448934
219	0xbb304909	-0.0026899
220	0xbb25f261	-0.002532147
221	0xbb23091d	-0.0024877258
222	0xbb21ef7d	-0.0024709397
223	0xbb270e4c	-0.00254907
224	0xbb1f6057	-0.0024318898
225	0xbb3945e2	-0.0028270413
226	0xbb314e51	-0.0027054737
227	0xbb29f122	-0.002593108
228	0xbb23adea	-0.0024975487
229	0xbb18963d	-0.0023282908
230	0xbb193940	-0.002338007
231	0xbb1bda57	-0.0023781264
232	0xbb1f23f1	-0.0024282897
233	0xbb1a2284	-0.0023519108
234	0xbb2e6727	-0.0026611777
235	0xbb283b86	-0.0025670244
236	0xbb1ffd4c	-0.0024412451
237	0xbb1864c8	-0.002325343
238	0xbb126031	-0.0022335167
239	0xbb13b72c	-0.00225396
240	0xbb174ba9	-0.0023085868
241	0xbb170999	-0.0023046492
242	0xbb125851	-0.0022330473
243	0x3baa67bb	0.005200354
244	0x3ba714d8	0.0050989203
245	0x3bb39cf4	0.0054813568
246	0x3bb9f090	0.0056744292
247	0x3bb927d4	0.0056505
248	0x3bb224dc	0.005436523
249	0x3bb03230	0.0053770766
250	0x3bb08198	0.0053865425
251	0x3baa9602	0.0052058706
252	0x3baa0b1e	0.0051893136
253	0x3bae9a4a	0.0053284513
254	0x3bb8a886	0.005635324
255	0x3bc2b7da	0.005942327

exp_avg_sq f4 [64, 1, 9, 9]
0	0x3781b63b	1.5462856e-05
1	0x3778588d	1.4802569e-05
2	0x376cbbb6	1.4110401e-05
3	0x375e3794	1.3245171e-05
4	0x375f2c5f	1.3302167e-05
5	0x37610e67	1.3414398e-05
6	0x37642973	1.359951e-05
7	0x377382ad	1.4514354e-05
8	0x377e7288	1.5166246e-05
9	0x3787ba08	1.6179882e-05
10	0x3783351f	1.5641153e-05
11	0x377d7e72	1.51094155e-05
12	0x3770381b	1.4318178e-05
13	0x3769b849	1.39307895e-05
14	0x376ae5ad	1.4000962e-05
15	0x376ade24	1.3999208e-05
16	0x376b758b	1.4034459e-05
17	0x377786d7	1.4753742e-05
18	0x37926b37	1.7454482e-05
19	0x379026a5	1.7184133e-05
20	0x378d4ba8	1.684374e-05
21	0x37893956	1.6358372e-05
22	0x37834178	1.5646903e-05
23	0x377b7938	1.4988989e-05
24	0x37727f90	1.44540245e-05
25	0x376e66ba	1.4209823e-05
26	0x37724440	1.4440215e-05
27	0x37a04f77	1.911049e-05
28	0x37a7fc85	2.002554e-05
29	0x37a43dc0	1.9579078e-05
30	0x379ab179	1.8440873e-05
31	0x37935f07	1.7568016e-05
32	0x378760c6	1.6138318e-05
33	0x377f7e84	1.5228641e-05
34	0x376f886e	1.4277275e-05
35	0x3770a8b1	1.4344391e-05
36	0x37b43c5a	2.1485776e-05
37	0x37ba6194	2.2218366e-05
38	0x37bf3265	2.2792441e-05
39	0x37b4c9ae	2.1551587e-05
40	0x37a26b4c	1.9361869e-05
41	0x379181a6	1.734572e-05
42	0x3781ac3f	1.5458207e-05
43	0x3771626f	1.4387638e-05
44	0x376e8ca9	1.4218655e-05
45	0x37c3ebbd	2.3355586e-05
46	0x37ccf0a4	2.4430752e-05
47	0x37d250ff	2.5071668e-05
48	0x37c21f22	2.31411e-05
49	0x37b386cc	2.1401233e-05
50	0x379c3e61	1.8625697e-05
51	0x37899638	1.6401624e-05
52	0x3778775e	1.4809744e-05
53	0x3770063a	1.43065645e-05
54	0x37cac3e9	2.4171504e-05
55	0x37d89bd6	2.5821773e-05
56	0x37d7c44b	2.5721403e-05
57	0x37c9f411	2.407472e-05
58	0x37ba64e2	2.2219905e-05
59	0x379fc4f4	1.904599e-05
60	0x378ed070	1.702478e-05
61	0x3782b9bd	1.5583699e-05
62	0x377b7c11	1.4989652e-05
63	0x37c49e66	2.343878e-05
64	0x37ce89a2	2.4621204e-05
65	0x37cebd75	2.4645336e-05
66	0x37c5b33e	2.3567696e-05
67	0x37b25556	2.1258991e-05
68	0x37a44337	1.9581623e-05
69	0x37920214	1.7405524e-05
70	0x378a3558	1.6475722e-05
71	0x3783e581	1.5723288e-05
72	0x37bae22a	2.2278244e-05
73	0x37bb6795	2.2340371e-05
74	0x37bd5ed9	2.2574723e-05
75	0x37b7501d	2.1852606e-05
76	0x37b176ee	2.1155425e-05
77	0x37a27772	1.9367526e-05
78	0x37984f6d	1.8156798e-05
79	0x37925e52	1.7448478e-05
80	0x378b3283	1.6593613e-05
81	0x3746e74a	1.1855571e-05
82	0x3759637f	1.2957374e-05
83	0x376ad7fe	1.39977765e-05
84	0x3780f084	1.5370788e-05
85	0x378828b6	1.623142e-05
86	0x3774be8b	1.4587898e-05
87	0x375a5be2	1.3015206e-05
88	0x3765213a	1.36572e-05
89	0x3752e9ce	1.2571412e-05
90	0x375406a7	1.2637734e-05
91	0x37653cc2	1.366361e-05
92	0x378806dd	1.621566e-05
93	0x3787cb64	1.6187965e-05
94	0x3798df8c	1.822391e-05
95	0x378ea16b	1.7002885e-05
96	0x3780e9c7	1.536765e-05
97	0x37687139	1.3854639e-05
98	0x37635dda	1.3552106e-05
99	0x375b401d	1.3068345e-05
100	0x37731c7d	1.4490562e-05
101	0x3789574f	1.6372329e-05
102	0x37a5dcc9	1.9772344e-05
103	0x37a6d441	1.988758e-05
104	0x378c7870	1.6745384e-05
105	0x3780e8be	1.5367168e-05
106	0x375bc03e	1.3098177e-05
107	0x3755ff3e	1.27552175e-05
108	0x375bf01a	1.310932e-05
109	0x376efe6a	1.4245141e-05
110	0x3780e113	1.5363597e-05
111	0x37a6e989	1.989749e-05
112	0x37a40117	1.9550831e-05
113	0x378ab4bc	1.6535043e-05
114	0x3774834b	1.4574102e-05
115	0x3763d44e	1.3579685e-05
116	0x374ef9f3	1.2336753e-05
117	0x3750aa3a	1.24374e-05
118	0x3762d67b	1.3520587e-05
119	0x3777e702	1.4776133e-05
120	0x3799459c	1.8271436e-05
121	0x37a6cefa	1.9885123e-05
122	0x378f568a	1.7087226e-05
123	0x377badf2	1.5001266e-05
124	0x3777e37c	1.4775313e-05
125	0x374d8bc3	1.2251493e-05
126	0x375221af	1.2524818e-05
127	0x37568fcb	1.2788873e-05
128	0x377c5b21	1.5041588e-05
129	0x377bc2e3	1.5006141e-05
130	0x37818fc5	1.5444946e-05
131	0x3789a1b6	1.6406975e-05
132	0x376f8380	1.4276127e-05
133	0x375a49da	1.30110075e-05
134	0x37563574	1.27678395e-05
135	0x374dd0c8	1.2267563e-05
136	0x37644650	1.360623e-05
137	0x3766d5f1	1.375888e-05
138	0x377164b1	1.4388163e-05
139	0x376fcb45	1.42928375e-05
140	0x377c28a4	1.5029833e-05
141	0x37732d94	1.4494541e-05
142	0x376752df	1.3787968e-05
143	0x3752c10d	1.25619235e-05
144	0x3742caea	1.1610546e-05
145	0x37566b1c	1.2780332e-05
146	0x3751bba9	1.2501064e-05
147	0x37531ea0	1.25837105e-05
148	0x376bcde3	1.4055028e-05
149	0x37642fac	1.36009585e-05
150	0x375e04b7	1.3233329e-05
151	0x376094ed	1.3386115e-05
152	0x374e9aee	1.2314629e-05
153	0x374c045e	1.2160364e-05
154	0x374e1527	1.2283482e-05
155	0x3759731c	1.2961009e-05
156	0x37560207	1.2755866e-05
157	0x374ca314	1.2197317e-05
158	0x37467cc1	1.1830766e-05
159	0x37559477	1.27303565e-05
160	0x37539412	1.2611055e-05
161	0x37536ada	1.2601458e-05
162	0x392e10e6	0.00016600228
163	0x3931b6c2	0.00016948118
164	0x393368e2	0.00017109842
165	0x392f92ea	0.0001674403
166	0x39287db2	0.00016068554
167	0x39240299	0.00015641226
168	0x3921aa84	0.00015417679
169	0x39213c62	0.00015376651
170	0x392246ea	0.00015475941
171	0x39342602	0.00017180297
172	0x3939f481	0.0001773406
173	0x393b8941	0.00017884841
174	0x39343223	0.00017184815
175	0x392b0f6e	0.00016313579
176	0x3924d9b5	0.00015721361
177	0x3925bc96	0.0001580588
178	0x39276f0b	0.00015967728
179	0x3927e31b	0.00016010964
180	0x3938e37b	0.0001763235
181	0x39401b12	0.00018320631
182	0x393e1467	0.00018127412
183	0x3934cd5d	0.00017242641
184	0x392a850e	0.0001626203
185	0x39250df6	0.00015740827
186	0x3928e939	0.0001610861
187	0x392d7e22	0.00016545554
188	0x392e23a3	0.00016607209
189	0x3938e0d8	0.00017631368
190	0x393d9c39	0.00018082642
191	0x393a5ebe	0.00017773637
192	0x392ed5d5	0.00016673592
193	0x3925a8e9	0.0001579855
194	0x39267960	0.0001587621
195	0x393094f9	0.00016840165
196	0x3937e5d4	0.00017537858
197	0x39370b50	0.00017456454
198	0x3933ddee	0.00017153446
199	0x3935c6af	0.0001733552
200	0x392edc3f	0.00016675981
201	0x39244e07	0.00015669326
202	0x39210c05	0.00015358634
203	0x392a2d14	0.00016229256
204	0x39395295	0.00017673739
205	0x394393e6	0.00018651746
206	0x3940b98e	0.00018379671
207	0x392a20e8	0.00016224722
208	0x39291055	0.0001612318
209	0x39217a62	0.00015399748
210	0x391aecb0	0.00014774757
211	0x391feee1	0.00015252411
212	0x392c736f	0.000164462
213	0x3941682f	0.00018444726
214	0x394657fa	0.00018915525
215	0x39433ecf	0.00018620047
216	0x391f7951	0.00015208616
217	0x391cead5	0.00014964801
218	0x391817e4	0.0001450475
219	0x39187ad6	0.0001454161
220	0x392169d9	0.00015393588
221	0x3933a62f	0.00017132678
222	0x393ff9a3	0.00018308176
223	0x3947e5f9	0.0001906379
224	0x39428b93	0.00018553277
225	0x39181c99	0.00014506503
226	0x39168502	0.00014354664
227	0x3914ce01	0.00014191122
228	0x3916d928	0.00014386012
229	0x39238086	0.0001559277
230	0x39328d4a	0.00017028037
231	0x393df07e	0.00018114035
232	0x3940dd47	0.00018392979
233	0x393fe426	0.00018300171
234	0x3915aaf9	0.0001427344
235	0x3915424b	0.00014234443
236	0x3914d446	0.00014193458
237	0x3918ebec	0.00014583737
238	0x39211d2f	0.00015365028
239	0x392a7856	0.00016257292
240	0x3936adb8	0.00017421588
241	0x3938f226	0.00017637815
242	0x39344a9a	0.00017193929
243	0x393e9f81	0.00018179232
244	0x3931d793	0.00016960343
245	0x39410331	0.00018407103
246	0x39451a5b	0.00018797202
247	0x3940e8d6	0.00018397285
248	0x39364f62	0.00017386445
249	0x393296ce	0.00017031582
250	0x39341697	0.00017174553
251	0x392c23a2	0.00016416472
252	0x393b94c0	0.00017889123
253	0x3939879a	0.0001769349
254	0x393e8e9e	0.00018172941
255	0x39497a3f	0.00019214394

exp_avg f4 [64]
0	0xba140f9a	-0.0005648077
1	0x3a465149	0.0007565213
2	0xbc0f7aab	-0.008757274
3	0x3cac82ab	0.021058401
4	0xbc423fa9	-0.011855998
5	0xbabffbbf	-0.001464717
6	0x3c2bfd00	0.010497332
7	0xbc1a7c5b	-0.009429063
8	0x3c2e5a12	0.010641592
9	0x3a3cf3d6	0.0007207965
10	0x3b062c54	0.00204732
11	0xba68af27	-0.00088761974
12	0x3b350416	0.0027620844
13	0x3bfd691f	0.0077334787
14	0x3a09e9a5	0.0005260951
15	0xbc3ae8cc	-0.011408042
16	0x3af1953b	0.0018431315
17	0xbc80e1b1	-0.015732618
18	0x3b61cdb2	0.003445488
19	0xb9e37bde	-0.00043389102
20	0x80000004	-6e-45
21	0x3a945436	0.0011316601
22	0xb9a071b7	-0.00030602302
23	0x3b465a31	0.003026616
24	0x3bd04cd9	0.006356817
25	0xbb5bd390	-0.003354285
26	0x3a4e6120	0.0007872749
27	0x3c200ed6	0.009769162
28	0xbbcf140d	-0.006319529
29	0xbc5d42d0	-0.013504699
30	0x3ad7bb6f	0.0016459058
31	0x39636edd	0.00021689707
32	0x3c5342ed	0.012894374
33	0x3bfa8578	0.0076453052
34	0x3b3d3ad9	0.0028874187
35	0xba851f79	-0.0010156474
36	0xbc6922d4	-0.014229495
37	0x3b933e0a	0.0044934796
38	0xbc0b206a	-0.008491615
39	0x3b9cec48	0.004788909
40	0xbc29db61	-0.010367245
41	0xbc1316d7	-0.008977613
42	0xba502303	-0.00079397875
43	0x3c3c6137	0.011497787
44	0x3b0de1cf	0.0021649485
45	0xbc37ee48	-0.011226244
46	0xbc2fbe00	-0.010726452
47	0x3b0780b6	0.0020676083
48	0xbc02f2e2	-0.007992478
49	0x3ae9456f	0.0017797182
50	0xbbc993f6	-0.0061516715
51	0xbc957821	-0.018245758
52	0x3ac8b165	0.0015311657
53	0x3bd562bd	0.0065120147
54	0x3b7e2ce5	0.0038784083
55	0xbb98ec00	-0.0046668053
56	0x3acab2bf	0.0015464647
57	0xbb53907c	-0.0032282164
58	0xba90b845	-0.0011041245
59	0x3a327497	0.00068075344
60	0xbac5bee4	-0.0015086797
61	0x39f86cf4	0.00047383422
62	0x3c461be6	0.012091612
63	0xbbde3fe2	-0.006782518

exp_avg_sq f4 [64]
0	0x3921f99c	0.00015447143
1	0x39528140	0.0002007531
2	0x3ab3d768	0.0013720812
3	0x3b15feda	0.00228875
4	0x3c08b6c7	0.008344359
5	0x3afae800	0.0019142628
6	0x3b301310	0.002686683
7	0x3b7bd0b7	0.0038423964
8	0x3aa3a77c	0.0012485827
9	0x3704d536	7.917455e-06
10	0x3a442a39	0.00074830983
11	0x3ac2016b	0.0014801448
12	0x390bc7a1	0.0001333044
13	0x3b2ccaae	0.0026365924
14	0x399b43b5	0.0002961435
15	0x3c80e7ed	0.01573559
16	0x3b3758a0	0.0027976409
17	0x3cd12b9d	0.025533492
18	0x3a44f63a	0.0007513497
19	0x3c963127	0.018333985
20	0x1766b046	7.4539497e-25
21	0x3b25de9a	0.0025309683
22	0x3a9f4360	0.0012150817
23	0x3a217d7a	0.000616036
24	0x3b4b74fe	0.0031045075
25	0x39908abd	0.00027569188
26	0x3a5ec987	0.0008498658
27	0x3abc55c7	0.0014368825
28	0x3b5761d6	0.0032864711
29	0x3c842c6e	0.016134467
30	0x3a89f437	0.0010525052
31	0x3aa1528a	0.0012307924
32	0x3b993d52	0.0046764994
33	0x3a1702a8	0.00057605887
34	0x39a2364a	0.00030939496
35	0x3b2f2ebd	0.002673074
36	0x3c8302ca	0.01599254
37	0x394a6092	0.00019300196
38	0x3a5e4f90	0.00084804837
39	0x39bc8bdd	0.0003596236
40	0x3b83531d	0.0040077106
41	0x3b2c1aa8	0.0026261006
42	0x38d984f9	0.000103721344
43	0x3af53620	0.0018708147
44	0x3901cb97	0.00012378242
45	0x3b90a601	0.0044143205
46	0x3c319935	0.01083975
47	0x3a081b78	0.00051920814
48	0x3a9886f5	0.00116369
49	0x385dda04	5.289355e-05
50	0x3c765427	0.015034712
51	0x3caeef4c	0.02135434
52	0x39beba0f	0.00036378248
53	0x3a281541	0.00064118585
54	0x39b8c601	0.0003524274
55	0x3a886882	0.0010407122
56	0x39c94c29	0.0003839445
57	0x39fa42bb	0.00047733434
58	0x3a97a0c7	0.0011568301
59	0x38560dbb	5.1034363e-05
60	0x3b27034a	0.0025484138
61	0x379fe17c	1.9059276e-05
62	0x3a7daaab	0.00096766156
63	0x3b8d5193	0.004312703

exp_avg f4 [32, 64, 5, 5]
0	0xb8db3cf8	-0.0001045409
1	0xb8a5221b	-7.874166e-05
2	0xb836eae5	-4.3610944e-05
3	0xb82385b5	-3.8986753e-05
4	0xb7d00547	-2.479799e-05
5	0xb8ddf32b	-0.00010583395
6	0xb895711e	-7.1259434e-05
7	0xb82a57eb	-4.061304e-05
8	0xb7f568f9	-2.9255158e-05
9	0xb7857519	-1.5909363e-05
10	0xb8e80456	-0.0001106343
11	0xb8ba26fc	-8.8764325e-05
12	0xb881e711	-6.194239e-05
13	0xb87b7f07	-5.9961367e-05
14	0xb85439ee	-5.059869e-05
15	0xb8e65043	-0.000109822045
16	0xb8ab68a1	-8.173404e-05
17	0xb8af1ed7	-8.350395e-05
18	0xb89baf2b	-7.4236035e-05
19	0xb8a9f3c7	-8.103955e-05
20	0xb8d394d9	-0.00010088989
21	0xb8cd4be9	-9.789301e-05
22	0xb8d0c592	-9.955013e-05
23	0xb8c74d40	-9.5034484e-05
24	0xb8b46622	-8.6020926e-05
25	0x35728a27	9.0353063e-07
26	0xb550e8a4	-7.7824575e-07
27	0xb62c146c	-2.5641884e-06
28	0xb511e00f	-5.434276e-07
29	0x3649d8c4	3.0077508e-06
30	0x35a2bac6	1.2124299e-06
31	0xb63df8c4	-2.8307995e-06
32	0x36321d4f	2.6541127e-06
33	0x35b11509	1.319365e-06
34	0x36acdfbe	5.1520465e-06
35	0x36567264	3.195507e-06
36	0xb5a786a9	-1.2481661e-06
37	0xb5f7ac44	-1.845307e-06
38	0x35a0ce5a	1.1980985e-06
39	0xb42101ad	-1.4994903e-07
40	0x36d5c101	6.3703633e-06
41	0x359b264d	1.1559547e-06
42	0xb65250ce	-3.1339473e-06
43	0xb6101acc	-2.147327e-06
44	0x36b1822a	5.290164e-06
45	0x36b4d387	5.389043e-06
46	0x36628e12	3.375932e-06
47	0x369c12ad	4.6513364e-06
48	0x36196e03	2.2862812e-06
49	0x3654be20	3.170113e-06
50	0xb8dddbf5	-0.000105790714
51	0xb9154eac	-0.00014239055
52	0xb94e5639	-0.00019677811
53	0xb94a5283	-0.00019294959
54	0xb96632a1	-0.0002195337
55	0xb90c480e	-0.00013378283
56	0xb9234b47	-0.00015572934
57	0xb946fb26	-0.00018976312
58	0xb95f2c22	-0.00021283378
59	0xb9724fa3	-0.00023108585
60	0xb91a847e	-0.00014735942
61	0xb9434441	-0.00018622076
62	0xb95c6930	-0.0002102002
63	0xb968eca0	-0.00022213394
64	0xb981f92b	-0.00024790442
65	0xb917a220	-0.00014460878
66	0xb9379d91	-0.00017510938
67	0xb953d89e	-0.00020203224
68	0xb955af29	-0.00020378515
69	0xb9656485	-0.00021876588
70	0xb910235e	-0.00013746085
71	0xb91bd8e7	-0.00014862754
72	0xb93b52eb	-0.00017864599
73	0xb9426954	-0.0001854052
74	0xb9469a5e	-0.00018940258
75	0xb75535f1	-1.2708349e-05
76	0xb79c74a2	-1.865096e-05
77	0xb8143fb7	-3.534529e-05
78	0xb83891cf	-4.4004813e-05
79	0xb83f3afb	-4.559288e-05
80	0xb78f15a3	-1.7057004e-05
81	0xb80811c9	-3.244149e-05
82	0xb855f4ed	-5.1011262e-05
83	0xb87f226a	-6.082879e-05
84	0xb890d2e7	-6.905739e-05
85	0xb7e55365	-2.7337761e-05
86	0xb836c07f	-4.3571457e-05
87	0xb87aca23	-5.97929e-05
88	0xb89128ef	-6.921763e-05
89	0xb8a311b1	-7.775741e-05
90	0xb802b853	-3.116608e-05
91	0xb83a8f61	-4.4479388e-05
92	0xb88be332	-6.670355e-05
93	0xb897529e	-7.21563e-05
94	0xb891aa88	-6.945903e-05
95	0xb7abb078	-2.0466963e-05
96	0xb81f26a8	-3.7944556e-05
97	0xb857eb1a	-5.147895e-05
98	0xb85c932f	-5.2589163e-05
99	0xb864d7dd	-5.4560474e-05
100	0xb815704f	-3.5628964e-05
101	0xb80a1853	-3.2924418e-05
102	0xb79aeadd	-1.8467597e-05
103	0xb7b83ec5	-2.1963739e-05
104	0xb78f6c7a	-1.7097442e-05
105	0xb8208471	-3.827032e-05
106	0xb81c6cc4	-3.7294594e-05
107	0xb7bc1b50	-2.2424065e-05
108	0xb792443c	-1.743633e-05
109	0xb7ba910b	-2.2240469e-05
110	0xb83cc57b	-4.500661e-05
111	0xb82ddd59	-4.145256e-05
112	0xb8099b56	-3.2808013e-05
113	0xb7d0751c	-2.4850066e-05
114	0xb7bd446d	-2.2562419e-05
115	0xb82e9ebc	-4.1632666e-05
116	0xb829855b	-4.0416937e-05
117	0xb7cee6f8	-2.4664667e-05
118	0xb7b59044	-2.164406e-05
119	0xb7aabb21	-2.0352718e-05
120	0xb7f2ef2e	-2.8960025e-05
121	0xb7eb9283	-2.8082408e-05
122	0xb7d12af0	-2.4934736e-05
123	0xb7e30c9b	-2.7066379e-05
124	0xb7b94e10	-2.209007e-05
125	0xb8a257e4	-7.741133e-05
126	0xb8bd904a	-9.039098e-05
127	0xb8be050b	-9.060845e-05
128	0xb8b3a9b9	-8.5669984e-05
129	0xb8be22f7	-9.066419e-05
130	0xb903965f	-0.00012549151
131	0xb8ffb502	-0.00012193063
132	0xb90a378b	-0.00013181397
133	0xb90551c7	-0.00012714333
134	0xb9279f2f	-0.00015985662
135	0xb931f10c	-0.00016969832
136	0xb92af87e	-0.00016305034
137	0xb935c6b8	-0.00017335534
138	0xb92ed125	-0.00016671846
139	0xb93dd2d4	-0.00018102984
140	0xb92659ed	-0.00015864494
141	0xb932e02a	-0.0001705891
142	0xb92dcc86	-0.00016574757
143	0xb9342a30	-0.00017181854
144	0xb92245f1	-0.00015475579
145	0xb915f30d	-0.00014300291
146	0xb911f9d5	-0.00013921347
147	0xb91e435b	-0.00015093146
148	0xb92928a6	-0.00016132239
149	0xb91aa6ae	-0.00014748677
150	0x3790399e	1.7192968e-05
151	0x379440dc	1.7673177e-05
152	0x379d9662	1.8785886e-05
153	0x3792c74b	1.749736e-05
154	0x374b116f	1.2103802e-05
155	0x379b0d59	1.8483655e-05
156	0x37a58478	1.9731218e-05
157	0x37e46750	2.7227827e-05
158	0x37b99888	2.2124746e-05
159	0x37ba62e7	2.2218983e-05
160	0x37b02c28	2.1001397e-05
161	0x37c84a31	2.3876406e-05
162	0x37c4d092	2.3462144e-05
163	0x37d379ac	2.5209818e-05
164	0x37dbccc9	2.6202195e-05
165	0x381836ac	3.629054e-05
166	0x37f0cfbe	2.8706967e-05
167	0x37c65a29	2.3645423e-05
168	0x37c04c49	2.2923707e-05
169	0x37d19757	2.4985215e-05
170	0x3805fe1a	3.194632e-05
171	0x3804a457	3.1624306e-05
172	0x37d06a84	2.4845132e-05
173	0x3803788a	3.1345095e-05
174	0x37b95111	2.2091468e-05
175	0xb80cd3b6	-3.3575772e-05
176	0xb81fd68a	-3.810836e-05
177	0xb82d0222	-4.12484e-05
178	0xb82110e6	-3.840113e-05
179	0xb82d668a	-4.134191e-05
180	0xb81f74b1	-3.801723e-05
181	0xb849dc94	-4.8127564e-05
182	0xb84074f8	-4.5885303e-05
183	0xb82b8252	-4.0890947e-05
184	0xb830f27c	-4.21875e-05
185	0xb823304b	-3.8907205e-05
186	0xb82b837b	-4.0892028e-05
187	0xb83531f8	-4.32003e-05
188	0xb81a4d0d	-3.678822e-05
189	0xb817322d	-3.6047935e-05
190	0xb80268a7	-3.109188e-05
191	0xb80ec3d6	-3.4037825e-05
192	0xb805cc58	-3.189998e-05
193	0xb8009a4a	-3.066127e-05
194	0xb7e87eb4	-2.7715556e-05
195	0xb7cf15a7	-2.4686406e-05
196	0xb79e20e4	-1.8850384e-05
197	0xb7a00e38	-1.9080107e-05
198	0xb7a6ae93	-1.9870035e-05
199	0xb78ea748	-1.7005616e-05
200	0xb79eb72c	-1.8920364e-05
201	0xb7819c7a	-1.5450863e-05
202	0xb78befdb	-1.6681783e-05
203	0xb7ac0fb5	-2.0511312e-05
204	0xb7baf17e	-2.2285381e-05
205	0xb718e231	-9.11257e-06
206	0xb6ecdadc	-7.0588267e-06
207	0xb6b6403d	-5.431501e-06
208	0xb770365c	-1.4317771e-05
209	0xb7ab91d0	-2.0452688e-05
210	0xb6b35e3e	-5.345587e-06
211	0xb6a329b9	-4.8626357e-06
212	0xb688ae47	-4.0734044e-06
213	0xb72ed7d7	-1.0421462e-05
214	0xb78eda0e	-1.7029259e-05
215	0xb5b7e27f	-1.3700482e-06
216	0xb633d1b3	-2.679514e-06
217	0xb5a7d423	-1.250421e-06
218	0xb72b3200	-1.0204036e-05
219	0xb78fc414	-1.7138234e-05
220	0xb65b1702	-3.2646935e-06
221	0xb6cd3c99	-6.1165306e-06
222	0xb7313819	-1.0563083e-05
223	0xb78a25de	-1.6468515e-05
224	0xb7988a8d	-1.818433e-05
225	0xb418d163	-1.4232278e-07
226	0xb58806fd	-1.0134823e-06
227	0xb541738f	-7.206626e-07
228	0xb530e687	-6.590057e-07
229	0xb54e1bc9	-7.6781413e-07
230	0xb4e005b8	-4.1727412e-07
231	0xb51891b2	-5.6836427e-07
232	0xb4c87b5e	-3.7342664e-07
233	0x3371c89f	5.629465e-08
234	0xb3d97944	-1.0126908e-07
235	0xb44ab807	-1.8879665e-07
236	0xb494b052	-2.7695438e-07
237	0x33406974	4.4799393e-08
238	0x342c0818	1.6021693e-07
239	0xb438a8dc	-1.7197766e-07
240	0x3471a5fa	2.2505256e-07
241	0x34994879	2.8551202e-07
242	0x33e7b225	1.078918e-07
243	0x33197ff6	3.573947e-08
244	0xb3851f1a	-6.1989525e-08
245	0x335f2c64	5.1961607e-08
246	0x3402210a	1.2119213e-07
247	0xb4ff8cda	-4.7599934e-07
248	0xb34de3f3	-4.79376e-08
249	0xb474fe54	-2.2816795e-07
250	0xb78cce52	-1.6785376e-05
251	0xb7a04b93	-1.9108678e-05
252	0xb7c18423	-2.3068924e-05
253	0xb7dcf3b0	-2.633952e-05
254	0xb80c7f1c	-3.349698e-05
255	0xb7acd6d5	-2.0604037e-05
