logs/biosr_ccps_rcan_model-SRCNN_250305_lr0.0001_bs1_Ps256_Npatch128_N300/model_159.pth (torch, 695046 bytes, 15 tensors)

conv1.weight f4 [64, 1, 9, 9]
0	0x3da58fad	0.080840446
1	0xbce78561	-0.028261842
2	0x3daaeba8	0.08345729
3	0xbcb63de6	-0.022246312
4	0x3d3e043d	0.04639076
5	0xbd20552a	-0.03914372
6	0x3e093441	0.1339884
7	0xbc4c5c2c	-0.012473147
8	0x3e4f36c7	0.2023574
9	0xbce22eb4	-0.02761016
10	0xbdbd7e39	-0.09252591
11	0x3d471c74	0.04861112
12	0xbd4a5315	-0.04939564
13	0x3d023c7c	0.031795964
14	0x3d3122cf	0.043246087
15	0x3cf89327	0.030343605
16	0x3d9e23ea	0.07721694
17	0x3dd869a6	0.10567026
18	0x3daf13bd	0.08548687
19	0x3d1d4baa	0.038402237
20	0xbdc51de3	-0.09624841
21	0xbc97ac6b	-0.018514832
22	0xbd51fe28	-0.051267773
23	0xbdc0bea5	-0.094113626
24	0xbd8c343d	-0.06845901
25	0xbd9404ef	-0.072275035
26	0x3d4ad6eb	0.049521368
27	0xbdd27911	-0.10276998
28	0xbd0d1362	-0.034442313
29	0x3cbf3928	0.023342684
30	0xbd9de21f	-0.07709145
31	0xbdcd8b88	-0.10036379
32	0x3af04db3	0.0018333703
33	0xbcfcc5eb	-0.030856093
34	0xbd2d0a3c	-0.04224609
35	0x3d9659c3	0.073413394
36	0xbd95655b	-0.07294723
37	0xbd8083b6	-0.06275122
38	0xbb8c8899	-0.0042887446
39	0x3d30dd01	0.043179516
40	0xbd035457	-0.032062855
41	0x3d9362b1	0.07196558
42	0x3d52f82d	0.05150621
43	0x3d84a405	0.06476597
44	0x3cbd3643	0.023097163
45	0xbd158847	-0.036506917
46	0xbdc89515	-0.0979406
47	0xbafd6be8	-0.0019334527
48	0xbdc2440a	-0.09485634
49	0x3cd0f379	0.025506722
50	0x3cd57c7a	0.026060332
51	0x3cb431b8	0.021996364
52	0x3d5a40e7	0.053284552
53	0x3dfdec14	0.12398544
54	0xbd5eaae8	-0.054362208
55	0xbce7ffa4	-0.028320141
56	0xbc17d810	-0.009267822
57	0x3d042e73	0.03227086
58	0x3d9eee0f	0.0776025
59	0x3d76c1d3	0.06024344
60	0xbd3dab1b	-0.046305757
61	0x3dd64f50	0.104643464
62	0x3bcff0e0	0.006345853
63	0x3d1b048c	0.037846133
64	0x3d128fa2	0.03578151
65	0x3ad39302	0.0016141834
66	0xbd525e6e	-0.051359586
67	0xbd557bb0	-0.05211991
68	0x3c21746a	0.009854415
69	0xbd87aa67	-0.066242985
70	0xbcb78a03	-0.022404676
71	0xbd8a338a	-0.067481115
72	0x3d306b8f	0.043071326
73	0xbcc4de89	-0.024031894
74	0x3caf7812	0.021419559
75	0x3d638b73	0.05555291
76	0xbd47b87b	-0.04875992
77	0xbc060324	-0.00817946
78	0xbdaee5ee	-0.08539949
79	0xbbbbaf1d	-0.0057276622
80	0xbd8e457b	-0.06946846
81	0xbd424b9b	-0.047435384
82	0xbb8346a4	-0.0040062238
83	0xbcee5917	-0.029095216
84	0x3be82032	0.007083916
85	0x3d93dd81	0.07219983
86	0xbd02e497	-0.03195628
87	0xbdfbe117	-0.12298792
88	0x3d67944d	0.056537915
89	0xbc898054	-0.016784824
90	0x3ca11491	0.019663127
91	0xbc8e4476	-0.01736663
92	0x3d6b46b7	0.057440486
93	0xbdcf84ee	-0.10132776
94	0x3d8e70ff	0.06955146
95	0x3d97c985	0.07411484
96	0x3d93dea3	0.07220199
97	0x3d0e5d77	0.034757104
98	0x3db93323	0.09042957
99	0x3d0b13c8	0.03395441
100	0x3c99941f	0.018747387
101	0xbcb3df75	-0.021957139
102	0x3dad98a2	0.08476378
103	0x3d97b38f	0.07407295
104	0xbd49b0f0	-0.049241006
105	0x3c4aacdb	0.0123703135
106	0xbdc0bc21	-0.09410883
107	0xbcc77ac5	-0.024350533
108	0x3ce12916	0.027485412
109	0xbc5cd80c	-0.013479244
110	0xbdf4e3f4	-0.11957541
111	0x3daa85b1	0.08326281
112	0x3cf9e1c1	0.030503156
113	0xbdba85e8	-0.09107572
114	0xbdd62ee3	-0.10458162
115	0xbd409fde	-0.04702746
116	0xbdbf367f	-0.09336566
117	0xbd7fe341	-0.062472586
118	0xbd740776	-0.059577428
119	0xbdcf79f6	-0.10130684
120	0x3d453316	0.048144422
121	0x3df21988	0.11821276
122	0x3b2dd976	0.0026527322
123	0xbd2a5971	-0.041589204
124	0x3db00f9e	0.08596729
125	0xbdd5e863	-0.10444715
126	0xbd0bdde8	-0.034147173
127	0xbdc0d69b	-0.09415933
128	0x3d086147	0.033295896
129	0xbdb14dc6	-0.08657412
130	0xbdbde37b	-0.09271904
131	0x3d395693	0.04524858
132	0xbd88d0bf	-0.0668044
133	0xbdbf6991	-0.09346307
134	0x3b60eb22	0.0034319838
135	0xbd502562	-0.0508169
136	0x3d8e341e	0.06943534
137	0x3bfcada5	0.0077111297
138	0x3bec6460	0.007214114
139	0xbd2852d1	-0.041094605
140	0x3d73da13	0.059534144
141	0x3d916096	0.070985004
142	0x3dabf494	0.08396259
143	0x3c549c7c	0.012976762
144	0xbdeffe5e	-0.117184386
145	0x3c1b5ca1	0.009482534
146	0xbd943af4	-0.07237807
147	0xbdc07824	-0.09397915
148	0x3d93e17b	0.07220741
149	0x3d28f449	0.041248593
150	0x3d09216b	0.033479135
151	0x3de08d73	0.10964479
152	0x3cfb23c0	0.030656695
153	0xbc918888	-0.017765298
154	0xbcf11d43	-0.029432898
155	0x3d43326e	0.047655515
156	0x3c877152	0.016533528
157	0xbd848994	-0.064715534
158	0xbdc89bec	-0.09795365
159	0x3d89c9a6	0.067279145
160	0x3d9602ea	0.073247746
161	0x3df9b29a	0.12192269
162	0x3d8388a4	0.064225465
163	0x3dfd0b2a	0.12355645
164	0xbd4f1612	-0.050558157
165	0x3d7c1fc3	0.061553728
166	0x3d1699d8	0.03676781
167	0x3ce42bcb	0.027852913
168	0xbd9c8ef2	-0.07644452
169	0xbd86eaf4	-0.065877825
170	0x3d3eeb5c	0.046611175
171	0x3de2f98e	0.11082755
172	0x3d946011	0.07244886
173	0xbcfd24bd	-0.030901307
174	0x3df34a37	0.1187939
175	0x3d6937b9	0.056937907
176	0x3c92afba	0.017906059
177	0x3ca9be3b	0.020720592
178	0x3db479f6	0.08812325
179	0x3d98225d	0.07428429
180	0x3daa9074	0.083283335
181	0xbd54e6d2	-0.05197794
182	0x3dbef89e	0.09324764
183	0x3dca1fed	0.098693706
184	0xb9d2adcf	-0.0004018382
185	0x3d7581e9	0.059938345
186	0xbd936412	-0.07196821
187	0xbddd8ffe	-0.1081848
188	0xbdaca276	-0.084294245
189	0x3df48b6c	0.11940655
190	0x3ddc9d10	0.10772145
191	0x3cb1761b	0.021662762
192	0x3dc5af63	0.09652593
193	0x3dab45f9	0.083629556
194	0xbd2c7895	-0.042107183
195	0x3cb7f02e	0.022453394
196	0xbd7d9639	-0.06191084
197	0xbe02abf5	-0.12760909
198	0x3ddfa384	0.1091986
199	0xbd2435ab	-0.040090244
200	0xbcfed77f	-0.031108616
201	0x3cab39be	0.020901557
202	0x3d8c0b16	0.06838052
203	0x3da272d7	0.0793206
204	0xbcf9b2a5	-0.030480692
205	0x3b94872b	0.004532715
206	0xbbaf3fe7	-0.005348194
207	0xbd17d26f	-0.03706592
208	0xbc501143	-0.012699428
209	0x3cb00d22	0.021490637
210	0xbda0b1a2	-0.07846381
211	0x3d4eea9f	0.05051672
212	0xbdded308	-0.10880095
213	0x3cc895d8	0.024485514
214	0xbde3e4ed	-0.111276485
215	0xbe0bbdc6	-0.13646612
216	0x3cef2bd2	0.0291957
217	0x3cc4d6c6	0.024028193
218	0xbd2e7bd2	-0.042598553
219	0x3d82f09d	0.063935496
220	0x3db68ce8	0.089135945
221	0x3c22ec8c	0.0099440925
222	0xbddcca78	-0.10780805
223	0xbdec5eb2	-0.11541499
224	0xbe243317	-0.16035114
225	0x3c154314	0.009110231
226	0x3dd5d47e	0.1044092
227	0x3c51a59f	0.012795835
228	0xbdc8689c	-0.09785578
229	0x3d8ec5ef	0.069713466
230	0x3ce6a700	0.028155804
231	0xbda46e9d	-0.0802891
232	0xbe1b4c3c	-0.151658
233	0x3ca00d06	0.01953746
234	0x3de6a467	0.11261826
235	0x3ca738b9	0.02041279
236	0xbd1428ac	-0.0361716
237	0xbcd6beb2	-0.026213977
238	0xbd380c63	-0.044933688
239	0xbdec9b13	-0.115530156
240	0x3bce66be	0.006298869
241	0xbdc27fc4	-0.094970256
242	0xbe04a0b1	-0.12951924
243	0x3dd9e254	0.10638872
244	0xbdafbded	-0.08581147
245	0x3dc7f92c	0.09764323
246	0x3df2c390	0.11853707
247	0x3d987d62	0.0744579
248	0xbd0c5406	-0.03425982
249	0xbd3a66d3	-0.045508217
250	0x3ccc00f1	0.024902793
251	0xbd9afffc	-0.075683564
252	0x3d4bd83c	0.049766764
253	0xbb9dbe68	-0.004813958
254	0x3c0ac864	0.008470628
255	0x3dea72dd	0.1144769

conv1.bias f4 [64]
0	0x3cd644a9	0.026155787
1	0x3d54570b	0.051840823
2	0x3c909ed7	0.017653866
3	0x3ba6dc7e	0.0050922027
4	0xbdd1a4c0	-0.10236502
5	0x3d9c8448	0.07642418
6	0x3dbb547a	0.09146972
7	0xbd97b659	-0.07407827
8	0xbd1a2e10	-0.037641585
9	0x3cee7f01	0.029113295
10	0xbd15284a	-0.036415376
11	0xbc8df4a1	-0.017328562
12	0xbdd1d1fc	-0.102451295
13	0xbc89ee5b	-0.01683729
14	0xbda3776b	-0.079817615
15	0xbd85d671	-0.06535042
16	0x3dbbdff3	0.09173574
17	0xbcc5a7fe	-0.024127956
18	0xbb49d17a	-0.0030795024
19	0xbca90bef	-0.020635573
20	0xbd1372bd	-0.035998095
21	0xbdd2f90f	-0.103014104
22	0xbdeedf95	-0.11663739
23	0xbc9bc3b0	-0.01901421
24	0xbc998c97	-0.018743796
25	0x3c94bb39	0.018155681
26	0xbcd63bfc	-0.02615165
27	0xbda2d2d5	-0.07950369
28	0xbd999f48	-0.075010836
29	0xbd7ceee7	-0.061751273
30	0xbd026251	-0.031832043
31	0xbca302e8	-0.019898847
32	0xbda3f9a7	-0.08006602
33	0xbda92e0a	-0.082607344
34	0x3d8a49be	0.067523465
35	0xbb084432	-0.00207926
36	0xbd94553c	-0.0724282
37	0x3d49aaf7	0.04923531
38	0xbcd0fe57	-0.025511904
39	0x3e2056ea	0.15658155
40	0x3d442bf3	0.047893476
41	0x3d79cadf	0.06098449
42	0xbca9407a	-0.020660628
43	0xbca92c9f	-0.02065116
44	0x3d0b85d7	0.034063186
45	0xbdf8affb	-0.121429406
46	0xbc44e9b1	-0.012018607
47	0xbd0ff1ca	-0.035142697
48	0x3cb6afcf	0.022300629
49	0xbcfff723	-0.031245774
50	0x3ddb1951	0.10698188
51	0xbd808177	-0.062746935
52	0x3bc5c420	0.006035343
53	0xbb4be595	-0.0031112183
54	0x3d8bedf1	0.06832493
55	0xbd72349b	-0.0591322
56	0x3d165954	0.036706284
57	0xbda5acf8	-0.08089632
58	0x3c201e02	0.009772779
59	0x3c3ce3dc	0.011528935
60	0xbc8041d7	-0.015656395
61	0x3a4b3ff9	0.0007753368
62	0x3d5fcbbd	0.05463766
63	0xbdaba1df	-0.08380484

conv2.weight f4 [32, 64, 5, 5]
0	0xbcbb7a47	-0.022885455
1	0xbd1c7335	-0.038195807
2	0x3c742365	0.014901017
3	0xbc2c90ef	-0.010532602
4	0x3cfb164c	0.03065028
5	0x3bad0ee5	0.0052813166
6	0xbc32d441	-0.010914863
7	0x3cd3e3cb	0.025865456
8	0xbbfe5656	-0.007761757
9	0x3c2c7e36	0.010528138
10	0xbb660d38	-0.0035103094
11	0xbbd1aa38	-0.0063984655
12	0xbbd8fee8	-0.006622184
13	0xbc9f48f9	-0.019443976
14	0x3b019900	0.0019775033
15	0xbd347c9d	-0.044064153
16	0xbcac62dd	-0.021043235
17	0xbd0d93bd	-0.034564722
18	0xbd099761	-0.03359163
19	0xb97dabce	-0.00024191962
20	0x3a867ee6	0.0010261207
21	0x3c8a8b44	0.01691211
22	0x3ca38c14	0.019964255
23	0x3d199c37	0.037502494
24	0x3d4e206e	0.050323896
25	0xbdf31f92	-0.11871256
26	0xbc98d5df	-0.01865667
27	0x3d5d89af	0.054086383
28	0x3aa8b774	0.0012872056
29	0xbcc83581	-0.024439575
30	0xbaa2a0bf	-0.0012407525
31	0xbd1c9535	-0.038228232
32	0x3d6f09a2	0.058358796
33	0x3d2217a9	0.039573345
34	0x3b0bbe71	0.0021323229
35	0xbd8936f2	-0.06699933
36	0xbdad48b5	-0.084611334
37	0xbb5b0752	-0.0033421111
38	0xbc9ff3dd	-0.019525463
39	0xbc01f3ef	-0.007931693
40	0xbdb8f01b	-0.090301715
41	0xbda5d7de	-0.08097814
42	0xbcab9abf	-0.020947812
43	0xbc471650	-0.012151316
44	0xbc372798	-0.0111788735
45	0xbd520964	-0.051278487
46	0xbc819355	-0.015817324
47	0x3bdba9ca	0.00670359
48	0x3b0941c2	0.0020943736
49	0xbcd09b06	-0.025464546
50	0x3c89cb38	0.016820535
51	0x3c0bbdaf	0.008529111
52	0x3cbaca77	0.02280162
53	0x3cf0098e	0.029301431
54	0x3c7593fc	0.0149888955
55	0xbcee1426	-0.029062342
56	0xbc5a8f77	-0.013339869
57	0xbc81e627	-0.015856816
58	0xbc5daccd	-0.013529968
59	0x3c33545d	0.010945407
60	0xbcfde961	-0.030995073
61	0xba6b4055	-0.0008974125
62	0xbc089632	-0.008336591
63	0x3c27e35a	0.010247076
64	0x3c425689	0.011861452
65	0xbd3559a4	-0.04427494
66	0xbb926f26	-0.0044688163
67	0xbd0a2b5e	-0.033732764
68	0x3d09964b	0.033590596
69	0x3d80c545	0.06287626
70	0xbb80b2c4	-0.0039275605
71	0x3c3d18b1	0.011541531
72	0x3ca23caa	0.019804318
73	0x3d541978	0.0517821
74	0x3e26997e	0.1626949
75	0x3caff2a5	0.021478007
76	0xbcdfd988	-0.027325407
77	0xbbab633e	-0.0052303365
78	0xbbc46103	-0.00599301
79	0x3cf57486	0.02996279
80	0x3c22d217	0.009937785
81	0x3b94b2e7	0.0045379284
82	0xbd1814f0	-0.037129343
83	0xbc16a93c	-0.009195622
84	0x3c800af3	0.015630221
85	0xbc3fa933	-0.011698055
86	0x3bf30efe	0.0074175587
87	0x3b5a2418	0.0033285674
88	0x3cc6ac40	0.024252057
89	0x3c816c08	0.015798584
90	0xbbdc16f8	-0.0067166053
91	0xbd11b65e	-0.03557431
92	0xbc58f143	-0.013241115
93	0xbbed4392	-0.007240721
94	0xbcdb3ab3	-0.026761388
95	0xbd04bdd8	-0.03240761
96	0xbd3e7cb7	-0.046505656
97	0xbd516e5e	-0.051130645
98	0xbdf738b6	-0.12071364
99	0xbe2c8fef	-0.16851781
100	0x3b60c07b	0.0034294415
101	0x3c3a8cdf	0.011386125
102	0x3c0321a7	0.008003629
103	0xbc919ac2	-0.01777399
104	0xbd3ba917	-0.045815554
105	0x3c96cd83	0.018408542
106	0x3bb41c2a	0.0054965215
107	0xbb9d246b	-0.004795601
108	0x3bf6d233	0.007532382
109	0xbd460df2	-0.048353143
110	0x3d088fc9	0.03334025
111	0x3cc49657	0.023997469
112	0x3b5c74ed	0.003363903
113	0xbae5bbe4	-0.0017527309
114	0xbd04ad59	-0.03239188
115	0xbb04094e	-0.0020147148
116	0x3ca2e7d6	0.019885939
117	0xbd4267ab	-0.047462147
118	0xbd05cb76	-0.03266474
119	0xbccafb84	-0.024778135
120	0x3d7e37b9	0.06206486
121	0x3c3c4d3c	0.0114930235
122	0x3d1b6e89	0.03794721
123	0x3d3abf78	0.045592755
124	0x3d77bd92	0.060483523
125	0x3baf04e0	0.0053411573
126	0x3c4fc3ca	0.012680957
127	0x3aa2f604	0.0012432938
128	0x3c980c77	0.018560631
129	0xbc975b0c	-0.018476032
130	0x3b1873ba	0.0023262338
131	0x3c079812	0.0082760025
132	0xbb80b437	-0.0039277333
133	0x3bfb1ea2	0.007663564
134	0xbd00be15	-0.031431276
135	0xbce9427c	-0.028474085
136	0xbcd523ff	-0.02601814
137	0xbce24bf0	-0.0276241
138	0xbd0a5209	-0.03376964
139	0xbcf7423a	-0.030182946
140	0x3b42a56a	0.0029700645
141	0xbc089374	-0.008335937
142	0x3b1ef515	0.0024254967
143	0x3c8010e2	0.01563305
144	0xba6f3b85	-0.00091259956
145	0x3c2a608f	0.010398998
146	0x3cf87efb	0.030333987
147	0x3c94eabd	0.018178338
148	0x3ce701b3	0.028199052
149	0x3c71dad1	0.014761643
150	0x3b6c0112	0.003601138
151	0x3d0ad286	0.033892177
152	0x3d5e915c	0.054337844
153	0xbccaeca2	-0.024771038
154	0xbd7689af	-0.0601899
155	0xbb9373d9	-0.004499894
156	0xbb9092d9	-0.004412037
157	0xbcc4419d	-0.023957068
158	0xbd8aeff6	-0.0678405
159	0xbd28ae29	-0.041181717
160	0x3c158d02	0.009127857
161	0xbc0979c4	-0.008390848
162	0xbc1e8774	-0.009675849
163	0xbd704728	-0.05866161
164	0xbb02697d	-0.0019899302
165	0x3d59fc50	0.05321914
166	0x3c9e3bda	0.019315649
167	0xbd572c52	-0.0525325
168	0x3bc51d60	0.0060154647
169	0x3c0c0a22	0.008547338
170	0x3d31aa9e	0.043375604
171	0x3d29201a	0.04129038
172	0xbd2d89cd	-0.042367745
173	0x3c91928d	0.017770076
174	0x3d998097	0.0749523
175	0xbcacb31f	-0.021081505
176	0xbcf697de	-0.030101713
177	0x3c48c09b	0.012252952
178	0xbc9bf59a	-0.01903801
179	0xbd023e91	-0.03179795
180	0xbd04aef8	-0.032393426
181	0x3c745773	0.014913428
182	0x3cb60b33	0.022222137
183	0xbcbcc990	-0.023045331
184	0x3cbebb30	0.023282617
185	0x3ae4aada	0.0017445937
186	0x3d154236	0.036440097
187	0x3c73f6da	0.014890397
188	0xbbf2698b	-0.0073978356
189	0xbc424ab9	-0.011858636
190	0x3cb5f0c7	0.022209538
191	0xbae7f760	-0.0017697625
192	0xbc4f4d65	-0.01265273
193	0x3c638e36	0.013888886
194	0x3d15174f	0.036399182
195	0x3d0612ed	0.032732893
196	0x3c30b428	0.01078514
197	0x3c59589f	0.013265758
198	0x3d6456b8	0.055746764
199	0x3ddc298c	0.10750112
200	0x3d1c7dcb	0.038205903
201	0xbd60e160	-0.054902434
202	0xbd0ad39f	-0.033893224
203	0xbca5ed74	-0.020254828
204	0xbd426715	-0.047461588
205	0xbc44e9ba	-0.012018615
206	0xbcfdb35e	-0.030969318
207	0xbd296ade	-0.041361682
208	0xbb887d52	-0.00416533
209	0x3c9a6f6b	0.018851956
210	0xbdc7a736	-0.0974869
211	0xbd022386	-0.03177216
212	0xbd9a1daf	-0.07525193
213	0xbd519921	-0.051171426
214	0x3dccccf1	0.10000027
215	0xbe195499	-0.14973678
216	0xbdeb36c8	-0.11485058
217	0xbda6ad71	-0.0813855
218	0xbd49cd9e	-0.049268357
219	0x3db3c647	0.08778053
220	0xbd8472c8	-0.06467205
221	0xbd956272	-0.072941676
222	0xbd5a9ddc	-0.053373203
223	0x3d590972	0.052987523
224	0x3e196547	0.1498004
225	0x3c965f0f	0.018355874
226	0xbbe96db3	-0.007123673
227	0xbbcef1fe	-0.006315469
228	0xbd216c92	-0.03941018
229	0xbcf02cd7	-0.029318256
230	0x3d30f0f9	0.04319856
231	0x3b1fb656	0.0024370155
232	0xbcaf033a	-0.021363843
233	0xbd814aa9	-0.063130684
234	0x3d3052e7	0.04304781
235	0xbda54f7c	-0.08071801
236	0xbd50ac24	-0.050945416
237	0xbd92a6d5	-0.07160727
238	0xbd5cb24a	-0.053880967
239	0x3d9f5115	0.07779137
240	0xbde941b5	-0.11389486
241	0xbdad1aa9	-0.08452351
242	0xbc7f8afa	-0.015597099
243	0x3d8b4bb3	0.06801548
244	0x3d944b86	0.072409675
245	0xbdd4b68f	-0.10386383
246	0xbd124e6b	-0.035719316
247	0xbcb4917d	-0.02204203
248	0x3e8e11a3	0.2774783
249	0x3d058112	0.032593794
250	0x3d874032	0.06604041
251	0xbcc3d344	-0.02390445
252	0xbd593415	-0.053028185
253	0xbd987676	-0.0744447
254	0xbdf8d4a6	-0.121499345
255	0x3d68df0b	0.056853335

conv2.bias f4 [32]
0	0x3bb773e4	0.005598532
1	0xbd099f07	-0.033598926
2	0x3c47e0ee	0.0121996235
3	0xbcb83012	-0.02248386
4	0x3c77271a	0.015085006
5	0xbc8b5606	-0.017008793
6	0xbcb895bc	-0.022532336
7	0x3c972c7b	0.018453827
8	0xbc4ccce3	-0.012500021
9	0xbc9bd300	-0.019021511
10	0xbccc091d	-0.02490669
11	0x3c68993e	0.014196692
12	0xbc402c11	-0.011729256
13	0xbc7bfdf8	-0.015380375
14	0x3c8463a4	0.016160794
15	0xbcedb04f	-0.029014735
16	0xbcd48980	-0.025944471
17	0xbc69d0eb	-0.014271001
18	0x3aeb4d0d	0.001795204
19	0xbd6d8f33	-0.057997894
20	0x3d4d9af1	0.05019659
21	0xbc0ead30	-0.008708283
22	0xbc30f36e	-0.010800226
23	0x3b880ea3	0.0041521355
24	0xbc92d44c	-0.017923497
25	0xbc25be1e	-0.010116128
26	0xbc9beea5	-0.019034693
27	0x3ca49731	0.020091625
28	0xbcdf0941	-0.027226092
29	0x3b7c6bd1	0.0038516412
30	0x3ca71658	0.020396397
31	0xbcda6f5f	-0.026664434

conv3.weight f4 [1, 32, 5, 5]
0	0xbd4b95d9	-0.049703453
1	0xbc8ff866	-0.0175745
2	0xbcc06623	-0.023486203
3	0xbd02ccbe	-0.03193354
4	0x3b5540f4	0.0032539936
5	0x3bac8b95	0.005265663
6	0xbcec015c	-0.028809242
7	0xbd5969da	-0.053079464
8	0xbc4388a2	-0.011934431
9	0x3c842f12	0.016135726
10	0x3c9edefc	0.019393437
11	0xbd39adb4	-0.04533167
12	0xbd2adb26	-0.041712902
13	0xbad1ddec	-0.0016011572
14	0x3c146049	0.009056159
15	0xbbb7481e	-0.005593314
16	0xbcc5062d	-0.024050796
17	0xbced5e16	-0.028975528
18	0xbc6d76e5	-0.014493679
19	0x3c8f392a	0.017483313
20	0x3d900742	0.07032634
21	0x3d6727aa	0.05643431
22	0x3d4988e7	0.049202826
23	0x3d2538ea	0.04033748
24	0x3df809f3	0.12111273
25	0xbd27449b	-0.04083691
26	0xbcdf1fae	-0.027236786
27	0xbd35b80c	-0.044364974
28	0xbc16fd49	-0.009215661
29	0xbb3d9f66	-0.002893412
30	0xbd27d9d4	-0.04097922
31	0xbd5a6ab2	-0.05332441
32	0xbcc34569	-0.023836808
33	0xbc64d24e	-0.013966156
34	0xbd034d0f	-0.03205591
35	0xbd05cd8f	-0.03266674
36	0xbc66e985	-0.014093761
37	0xbd26a699	-0.040686224
38	0xbcd897b3	-0.026439523
39	0xbc6405ba	-0.013917381
40	0xbd24aa89	-0.040201697
41	0x3c3eab49	0.011637517
42	0xbd1ed7da	-0.03878007
43	0xbc4fcaeb	-0.012682657
44	0xbcb8b460	-0.022546947
45	0xbbd79507	-0.0065790447
46	0xbd6bb7b3	-0.057548236
47	0xbc8f4ddf	-0.017493187
48	0xbce47523	-0.027887886
49	0xbaa9fc0a	-0.001296879
50	0x3d1574c6	0.036488317
51	0xbc73ce22	-0.014880689
52	0x3bd3ed8e	0.0064675277
53	0x3d079d55	0.033109028
54	0x3d0cd75e	0.034385078
55	0xbc0cf635	-0.008603622
56	0x3c8d785a	0.017269302
57	0xbca5857c	-0.020205252
58	0xbc649196	-0.013950726
59	0xbcd93625	-0.026515076
60	0x3c550d2b	0.013003628
61	0xbcecbb3d	-0.028897876
62	0xbc84e3db	-0.016221931
63	0xbc6d9ee1	-0.014503212
64	0x3b9a68b4	0.0047121886
65	0x3baee449	0.0053372723
66	0xbbde2b25	-0.0067800456
67	0xbcdf32c4	-0.027245887
68	0xbba1c8d7	-0.004937272
69	0x3c8e03cb	0.017335793
70	0x3c4ecf1d	0.012622622
71	0xbc8ca6f3	-0.017169451
72	0xbbb54c96	-0.0055328114
73	0xbd033fd6	-0.0320433
74	0x3c9bab2c	0.01900252
75	0xbd014524	-0.03156008
76	0xbcb1df70	-0.021712989
77	0xbd5e88be	-0.054329626
78	0xbd4b9b76	-0.049708806
79	0xbcd1bf62	-0.025603954
80	0xbc311175	-0.010807385
81	0x3cc275c8	0.023737803
82	0x3cad67ac	0.021167599
83	0xbc5113ca	-0.012761066
84	0x3cea4880	0.028599024
85	0xbba400cb	-0.0050049773
86	0xbc960731	-0.018313976
87	0x3c855c0c	0.016279243
88	0xbbac72f3	-0.0052627265
89	0x3d066f46	0.032820962
90	0x3c3254b2	0.010884451
91	0x3c4b6a75	0.012415518
92	0xbcb88b3d	-0.022527331
93	0xbc03d527	-0.008046425
94	0x3d1fdebe	0.039030783
95	0x3d470ee5	0.04859819
96	0x3cd50778	0.026004538
97	0x3bad2ce4	0.0052848924
98	0x3d199dae	0.03750389
99	0x3da7ba72	0.081898585
100	0xbd9cda8c	-0.07658872
101	0xbd2008ea	-0.039071
102	0xbcbc8486	-0.02301241
103	0xbc4b1dac	-0.012397211
104	0xbd8ae84a	-0.06782587
105	0xbb2ea245	-0.0026647013
106	0xbb981294	-0.0046408866
107	0x3d1ef92d	0.03881185
108	0xbca468ee	-0.020069566
109	0xbc95fbcd	-0.018308545
110	0xbcdb0e91	-0.026740344
111	0xbb71a7f5	-0.0036873792
112	0x3c90e0c8	0.017685309
113	0xbab95dab	-0.0014142295
114	0x3c5936e4	0.013257716
115	0xbcbb42a5	-0.022858927
116	0x3ca3fbe6	0.020017575
117	0xbc0fc778	-0.008775584
118	0xbc53a34f	-0.012917354
119	0x3c08bfd2	0.008346515
120	0xbc5fc974	-0.01365887
121	0x3d122a03	0.035684597
122	0x3cf70ffc	0.03015899
123	0x3b9f2c3b	0.0048575676
124	0x3c43990f	0.0119383475
125	0xbde0b7eb	-0.109725796
126	0xbda7bc07	-0.0819016
127	0xbd338b06	-0.043833755
128	0xbd6a3f12	-0.057189055
129	0xbd84b2d7	-0.064794235
130	0xbd0b2037	-0.03396627
131	0xbd08e99b	-0.03342591
132	0xbd085220	-0.033281446
133	0xbd05edd1	-0.032697503
134	0xbd03991c	-0.03212844
135	0xbda67922	-0.08128573
136	0xbca6198c	-0.020275854
137	0xbd6ca972	-0.057778783
138	0x3b32ff39	0.002731277
139	0xbd8bcaaf	-0.06825768
140	0xbd638ae2	-0.05555237
141	0xbbed4b95	-0.007241676
142	0xbd0b6ebf	-0.034041163
143	0xbd10dcfb	-0.035366993
144	0xbc73c602	-0.014878752
145	0xbda45dcc	-0.08025703
146	0xbd5beb49	-0.053691182
147	0xbd39eac4	-0.045389906
148	0xbc5a175a	-0.0133112315
149	0xbd163787	-0.03667405
150	0x3d2affd8	0.041747898
151	0xbbee37ac	-0.00726982
152	0xbbc86d54	-0.0061165486
153	0x3d17fe51	0.03710777
154	0x3cf49a4e	0.029858734
155	0xbc1bf3f2	-0.00951861
156	0xbb2c204a	-0.0026264363
157	0xbc40d55a	-0.011769617
158	0x3aec676f	0.0018036197
159	0x3d079cf1	0.033108655
160	0xbcea81f7	-0.028626425
161	0x3bea4545	0.007149371
162	0xbb450eb4	-0.0030068578
163	0xbbf49954	-0.007464567
164	0x3c282711	0.01026322
165	0x3ce1d305	0.027566442
166	0xbc932b66	-0.01796503
167	0xbc084e2f	-0.008319422
168	0x3b8b7ee0	0.004257068
169	0x3c2dd435	0.010609676
170	0x3c828793	0.015933787
171	0x3cf01281	0.029305698
172	0x3c70c883	0.014696243
173	0x3cc934e1	0.024561347
174	0x3beaced6	0.00716577
175	0x3d993de8	0.07482511
176	0x3d8e9080	0.06961155
177	0x3cae8e1f	0.021308003
178	0x3bf72563	0.0075422986
179	0x3d2720cb	0.04080276
180	0x3da57375	0.08078662
181	0x3ca6db71	0.02036831
182	0x3cb97cdc	0.022642545
183	0x3c8bed3a	0.017080892
184	0x3cfffa29	0.031247215
185	0x3d7ff779	0.062491868
186	0xbc1e8217	-0.0096745705
187	0x3d1580a0	0.03649962
188	0xbc310d57	-0.010806403
189	0xbb695f1f	-0.0035609675
190	0x3d0199e2	0.031640895
191	0x3d0156fa	0.031577088
192	0x3d072b4f	0.033000287
193	0x3b675269	0.0035296923
194	0x3c48b8d9	0.012251102
195	0x3cc9541a	0.024576236
196	0x3cb7f126	0.022453856
197	0x3c9a826d	0.01886102
198	0x3b98154d	0.004641211
199	0x3d2ce4a7	0.042210247
200	0x3d374fbf	0.044753786
201	0x3d2b2183	0.041780006
202	0x3d44227a	0.047884442
203	0x3d12fc3e	0.03588509
204	0x3d972947	0.0738092
205	0xbaaa62b1	-0.0012999383
206	0x3d20c54a	0.03925065
207	0x3b215042	0.0024614488
208	0x3cc7fd2e	0.024412718
209	0x3d6967c8	0.05698374
210	0x3c92e641	0.01793206
211	0x3cc66173	0.02421639
212	0x3d2d52f7	0.04231545
213	0x3baed847	0.005335841
214	0x3ca00eb4	0.019538261
215	0x3cb0d84b	0.021587512
216	0x3c3bebfc	0.011469837
217	0x3cdccdfc	0.02695369
218	0x3ca58341	0.020204188
219	0x3bf8390f	0.0075751613
220	0x3ceed338	0.029153451
221	0x3c57c685	0.013169889
222	0x3cf85b83	0.030317074
223	0xbc7982fb	-0.015228982
224	0x3cbdd34c	0.023172043
225	0x3d294f4f	0.0413354
226	0x3ce210e5	0.027595947
227	0x3cc5ccbf	0.024145482
228	0x3d4a4f94	0.049392298
229	0x3d189fbc	0.03726171
230	0x3d2cf5f7	0.042226758
231	0x3ccdc45d	0.025118047
232	0x3c1d1e0f	0.009589686
233	0x3cbbaa1e	0.022908267
234	0x3d17cd29	0.03706089
235	0xba98512b	-0.001162087
236	0xba3b19c0	-0.0007137321
237	0x3c8c2b2a	0.017110426
238	0x3d1091ba	0.035295226
239	0x3cc54f95	0.0240858
240	0x3d09b0c5	0.033615846
241	0x3d2d289a	0.04227505
242	0x3cce8fed	0.025215114
243	0x3badf9eb	0.0053093336
244	0x3d32330d	0.043505717
245	0x3d4d7e05	0.05016901
246	0x3d5ef3e5	0.054431815
247	0x3d22b734	0.039725497
248	0x3d1a5674	0.037680104
249	0x3d93f61c	0.07224676
250	0x3ce1b42a	0.02755173
251	0xbbb1a308	-0.005421046
252	0x3c726dab	0.014796655
253	0xbb6a8e0b	-0.003579023
254	0x3d2a7b76	0.041621648
255	0x3b0f1520	0.002183266

exp_avg f4 [64, 1, 9, 9]
0	0x3a1d55eb	0.00060018775
1	0x3a18e083	0.00058317947
2	0x3a1cce8d	0.0005981706
3	0x3a296c7d	0.00064630044
4	0x3a323c04	0.0006799104
5	0x3a330cb5	0.00068302016
6	0x3a3915e8	0.0007060454
7	0x3a39d7b5	0.0007089333
8	0x3a2d7d99	0.0006618142
9	0x3a1ef355	0.0006063481
10	0x3a1da2e4	0.00060133473
11	0x3a24a7c1	0.0006281101
12	0x3a334ea3	0.0006840026
13	0x3a3cb91d	0.0007199215
14	0x3a370ec5	0.0006983097
15	0x3a3fd1c4	0.00073173293
16	0x3a3e9a19	0.0007270887
17	0x3a3b9528	0.000715571
18	0x3a1ea802	0.0006052257
19	0x3a2465da	0.00062712806
20	0x3a2e217c	0.0006642563
21	0x3a367f32	0.00069617026
22	0x3a3ebee3	0.0007276369
23	0x3a41ab37	0.0007387879
24	0x3a439442	0.0007460752
25	0x3a3fca73	0.0007316239
26	0x3a429bf7	0.0007423753
27	0x3a32e811	0.0006824742
28	0x3a3b9e1a	0.0007157043
29	0x3a3bc735	0.0007163168
30	0x3a44dee2	0.0007510019
31	0x3a4ec78b	0.00078880106
32	0x3a4d200e	0.0007824906
33	0x3a4b44e5	0.00077541015
34	0x3a476068	0.0007605613
35	0x3a410e4a	0.0007364495
36	0x3a4a8c7a	0.0007726621
37	0x3a49c31f	0.0007696617
38	0x3a505bf5	0.0007948273
39	0x3a568d0d	0.00081844704
40	0x3a53eb45	0.0008084069
41	0x3a549b4d	0.00081103
42	0x3a51c037	0.00080013595
43	0x3a50a5aa	0.0007959256
44	0x3a4d7174	0.0007837035
45	0x3a58f30a	0.0008275962
46	0x3a617dd0	0.00086018164
47	0x3a5b93aa	0.00083761907
48	0x3a6257b6	0.0008634286
49	0x3a69fa90	0.00089255814
50	0x3a6a098c	0.0008927814
51	0x3a66a166	0.0008797854
52	0x3a663468	0.0008781613
53	0x3a5471d4	0.000810412
54	0x3a66c226	0.0008802734
55	0x3a5db611	0.0008457611
56	0x3a564d6d	0.00081749895
57	0x3a658bac	0.00087564695
58	0x3a7567ec	0.0009361494
59	0x3a73b78a	0.0009297064
60	0x3a79100d	0.0009500988
61	0x3a6b5de5	0.000897853
62	0x3a5d1421	0.00084334804
63	0x3a5c9fb6	0.0008416133
64	0x3a5051d4	0.00079467637
65	0x3a49f4c4	0.00077040144
66	0x3a593ed4	0.0008287255
67	0x3a7125c2	0.0009199047
68	0x3a7a0d3e	0.00095387164
69	0x3a7de667	0.00096855167
70	0x3a7771ce	0.00094392605
71	0x3a6d5183	0.0009052979
72	0x3a52ba3e	0.00080386165
73	0x3a457325	0.00075321115
74	0x3a3b6e02	0.00071498763
75	0x3a43332f	0.00074462866
76	0x3a5d32b1	0.00084380346
77	0x3a6c208e	0.00090075366
78	0x3a74099c	0.0009309293
79	0x3a73a524	0.0009294322
80	0x3a68c56a	0.00088795146
81	0xb93049ce	-0.00016812162
82	0xb92e4e7d	-0.00016623172
83	0xb90eb87e	-0.00013610904
84	0xb9042e59	-0.00012605767
85	0xb8f6d8bf	-0.00011770566
86	0xb8dde26d	-0.00010580276
87	0xb8e8c3de	-0.00011099105
88	0xb917ab18	-0.0001446422
89	0xb92a6dd2	-0.00016253375
90	0xb92a260e	-0.0001622664
91	0xb920e49e	-0.00015343956
92	0xb900cdb7	-0.00012283666
93	0xb8e20765	-0.00010777897
94	0xb8aae263	-8.1483995e-05
95	0xb86e8795	-5.6869892e-05
96	0xb8c6d303	-9.48068e-05
97	0xb8e0c149	-0.000107171545
98	0xb925898e	-0.0001578687
99	0xb941d1ce	-0.00018484073
100	0xb93bb3e8	-0.0001790073
101	0xb9070e63	-0.00012879963
102	0xb8ce3873	-9.83336e-05
103	0xb8ac85d6	-8.226528e-05
104	0xb8afdf0a	-8.3861945e-05
105	0xb8ff5085	-0.000121743455
106	0xb9162cef	-0.00014321854
107	0xb94153ce	-0.00018437134
108	0xb94db509	-0.00019617764
109	0xb9499632	-0.00019224806
110	0xb91c724d	-0.000149199
111	0xb900987b	-0.00012263835
112	0xb8c70f8f	-9.4919575e-05
113	0xb8c3652e	-9.317171e-05
114	0xb908e4e0	-0.00013055233
115	0xb92a13cc	-0.00016219838
116	0xb948f002	-0.00019162896
117	0xb949888f	-0.00019219726
118	0xb956086c	-0.00020411768
119	0xb931e561	-0.00016965486
120	0xb929daf5	-0.00016198664
121	0xb90d3ced	-0.00013469504
122	0xb8f09e56	-0.00011473584
123	0xb90c6a0f	-0.0001339095
124	0xb91cac65	-0.00014941541
125	0xb9360462	-0.00017358505
126	0xb9607b9c	-0.00021408353
127	0xb965f1b5	-0.00021929185
128	0xb92ad865	-0.00016293077
129	0xb9187261	-0.00014538459
130	0xb91098fb	-0.000137899
131	0xb8e92fcb	-0.00011119208
132	0xb9117563	-0.00013872008
133	0xb92dd0d5	-0.00016576362
134	0xb95aa230	-0.0002085052
135	0xb965c70a	-0.0002191329
136	0xb9765876	-0.00023493342
137	0xb96cd70b	-0.00022586824
138	0xb94a2115	-0.00019276545
139	0xb934d4b1	-0.00017245371
140	0xb9116d53	-0.00013869004
141	0xb9304f7a	-0.00016814275
142	0xb952b94d	-0.0002009619
143	0xb984f676	-0.0002536063
144	0xb9684acd	-0.0002215311
145	0xb95a85f9	-0.00020840009
146	0xb974369d	-0.00023289998
147	0xb95b762d	-0.00020929491
148	0xb958080e	-0.00020602366
149	0xb9525359	-0.0002005821
150	0xb96369ab	-0.00021687771
151	0xb968d2e6	-0.0002220381
152	0xb991dfdb	-0.0002782334
153	0xb96f3c3b	-0.00022815254
154	0xb96defea	-0.00022691456
155	0xb97e4199	-0.00024247765
156	0xb96d0b8a	-0.0002260638
157	0xb966ad5f	-0.00021999095
158	0xb963600e	-0.0002168419
159	0xb979024c	-0.00023747346
160	0xb98f2df9	-0.00027309338
161	0xb99e9911	-0.00030250152
162	0xba315527	-0.0006764703
163	0xba4d0c4d	-0.00078219624
164	0xba6488db	-0.0008717903
165	0xba52f7ad	-0.0008047771
166	0xba2e9f5c	-0.00066613196
167	0xb9f6f42d	-0.00047102702
168	0xb9776c4e	-0.00023596102
169	0xb84a3c29	-4.821658e-05
170	0x38c974f5	9.606212e-05
171	0xba65326c	-0.000874317
172	0xba8160a1	-0.0009870717
173	0xba880474	-0.0010377304
174	0xba6b187c	-0.0008968187
175	0xba3514c1	-0.00069076946
176	0xb9e5659c	-0.0004375399
177	0xb904d8cd	-0.00012669266
178	0x38ec1792	0.00011257747
179	0x39582cd1	0.0002061606
180	0xba852130	-0.0010156985
181	0xba937ca5	-0.0011252357
182	0xba945aa1	-0.0011318513
183	0xba79f426	-0.0009534977
184	0xba2cd03b	-0.0006592308
185	0xb98bb9e9	-0.0002665066
186	0x36cfdbb6	6.1946585e-06
187	0x39563460	0.00020428142
188	0x39a3c739	0.00031238215
189	0xba817b01	-0.0009878577
190	0xba8feca4	-0.0010980559
191	0xba8ed65c	-0.0010897624
192	0xba59c107	-0.00083066564
193	0xb9eb9afc	-0.00044938165
194	0xb83bc496	-4.476736e-05
195	0x39883022	0.00025975803
196	0x39c220d7	0.0003702703
197	0x39d4863e	0.0004053581
198	0xba704a7a	-0.00091663713
199	0xba812fdf	-0.0009856186
200	0xba63dfdd	-0.0008692721
201	0xba11da32	-0.00055638247
202	0xb9369356	-0.0001741176
203	0x39640e81	0.00021749178
204	0x39e95ef5	0.00044511972
205	0x3a09bb3a	0.0005254034
206	0x39fddbf1	0.0004841979
207	0xba50aecf	-0.0007960619
208	0xba3ac269	-0.0007124306
209	0xba0e2be4	-0.00054234103
210	0xb98d3d64	-0.00026939355
211	0x3929505c	0.00016147032
212	0x39c9e581	0.000385087
213	0x3a236dc1	0.0006234311
214	0x3a21261f	0.0006147343
215	0x3a12f654	0.0005606164
216	0xba0e360b	-0.0005424923
217	0xb9e9b06b	-0.00044572665
218	0xb94e23f3	-0.00019659083
219	0x38f59265	0.000117097785
220	0x39e26bad	0.00043186304
221	0x3a1ce39d	0.0005984845
222	0x3a358eee	0.00069259
223	0x3a291121	0.0006449391
224	0x3a0f1c57	0.000545924
225	0xb9b62910	-0.0003474434
226	0xb8de7d78	-0.00010609155
227	0x393230f1	0.00016993635
228	0x39b9fa65	0.00035472508
229	0x3a1dc038	0.00060177175
230	0x3a36e4c5	0.00069768383
231	0x3a364267	0.0006952644
232	0x3a18ce15	0.00058290485
233	0x3a0daab1	0.0005404158
234	0xb891f412	-6.9596004e-05
235	0x38e4d692	0.00010911854
236	0x39c0c809	0.00036770132
237	0x3a1aafa4	0.0005900806
238	0x3a304139	0.0006723586
239	0x3a21faa1	0.0006179009
240	0x3a2bb333	0.0006549835
241	0x3a13d3ac	0.00056391465
242	0x3a068355	0.00051312643
243	0xba58bbb5	-0.00082677166
244	0xba1dff0b	-0.0006027079
245	0xba2d45ea	-0.0006609844
246	0xb9da157a	-0.00041596201
247	0xb9d8abe4	-0.000413268
248	0xb9d37a56	-0.00040336204
249	0xba0d23d4	-0.0005384062
250	0xba1b4f93	-0.0005924638
251	0xba253474	-0.00063020666
252	0xba4fc27b	-0.0007925403
253	0xba0f1031	-0.000545743
254	0xb9ca07c5	-0.0003853423
255	0xb985facc	-0.00025554595

exp_avg_sq f4 [64, 1, 9, 9]
0	0x378f3cf6	1.7075316e-05
1	0x3789343b	1.6355994e-05
2	0x378342ff	1.5647614e-05
3	0x37744c9f	1.4561373e-05
4	0x3772972c	1.44595215e-05
5	0x37721b95	1.4430746e-05
6	0x3774f724	1.4601075e-05
7	0x37823e1c	1.552613e-05
8	0x378956e1	1.6372129e-05
9	0x37964dc0	1.7917599e-05
10	0x379176e2	1.7340706e-05
11	0x378c914c	1.675696e-05
12	0x3783c409	1.5707703e-05
13	0x377beff9	1.5016639e-05
14	0x377a338d	1.4913164e-05
15	0x37783602	1.4794527e-05
16	0x377a4f01	1.4919556e-05
17	0x37847d45	1.579396e-05
18	0x37a2beb7	1.9400713e-05
19	0x37a0e35b	1.9179357e-05
20	0x379c567f	1.8636927e-05
21	0x37961813	1.7892604e-05
22	0x378ca5ef	1.676657e-05
23	0x37840a8f	1.5740543e-05
24	0x377ce916	1.507464e-05
25	0x3779a86c	1.488077e-05
26	0x3780e2d6	1.5364418e-05
27	0x37b167ad	2.1148322e-05
28	0x37ba50b4	2.2210508e-05
29	0x37b62180	2.171169e-05
30	0x37a92724	2.0164596e-05
31	0x379d2d61	1.873699e-05
32	0x378e0e45	1.6934364e-05
33	0x37849157	1.5803305e-05
34	0x377ad61c	1.4951012e-05
35	0x3780230b	1.5275107e-05
36	0x37c5d225	2.3582086e-05
37	0x37cd728f	2.449125e-05
38	0x37d2537e	2.507283e-05
39	0x37c4e34f	2.347087e-05
40	0x37ad1908	2.0634863e-05
41	0x3797ea00	1.8109567e-05
42	0x37866f1a	1.602578e-05
43	0x377cf6bc	1.5077818e-05
44	0x377dd2ae	1.5129028e-05
45	0x37d5f0ca	2.5503705e-05
46	0x37e0a7d1	2.6781026e-05
47	0x37e65bed	2.7460943e-05
48	0x37d2ed79	2.5144533e-05
49	0x37bfad1a	2.2849581e-05
50	0x37a3c48c	1.9522638e-05
51	0x378f6b51	1.7096902e-05
52	0x3782e868	1.560543e-05
53	0x37809615	1.5328676e-05
54	0x37dbba6e	2.6193647e-05
55	0x37eb8e4f	2.808045e-05
56	0x37eaf8ae	2.8010774e-05
57	0x37db998e	2.6178339e-05
58	0x37c80fcb	2.3849212e-05
59	0x37a97ed3	2.0205427e-05
60	0x37964980	1.791562e-05
61	0x378ae313	1.6556622e-05
62	0x378685f5	1.6036423e-05
63	0x37d4f69b	2.5387204e-05
64	0x37e03788	2.672874e-05
65	0x37e00b0f	2.670803e-05
66	0x37d6047d	2.5512878e-05
67	0x37c0820b	2.294874e-05
68	0x37af540b	2.0900761e-05
69	0x379b60e8	1.8522565e-05
70	0x3793c3aa	1.7614879e-05
71	0x378dd16f	1.6906035e-05
72	0x37c9d13d	2.4058501e-05
73	0x37cb68e6	2.4248333e-05
74	0x37cda65b	2.451537e-05
75	0x37c72b60	2.3742847e-05
76	0x37bf98d1	2.2840135e-05
77	0x37af2b32	2.088174e-05
78	0x37a3b7d1	1.951671e-05
79	0x379dc7f6	1.8808973e-05
80	0x3796acce	1.7961862e-05
81	0x373acbf8	1.1133954e-05
82	0x37481869	1.1926612e-05
83	0x37539c13	1.2612919e-05
84	0x376373cd	1.3557216e-05
85	0x376d4519	1.4142389e-05
86	0x3758320d	1.2886257e-05
87	0x37457ada	1.1770719e-05
88	0x374d7720	1.2246688e-05
89	0x37416245	1.1526577e-05
90	0x37438629	1.1654142e-05
91	0x374ff6e2	1.2395643e-05
92	0x376eb2a6	1.42275e-05
93	0x376e31f8	1.419754e-05
94	0x37839b45	1.568872e-05
95	0x377786d4	1.4753739e-05
96	0x3761f8b1	1.3468948e-05
97	0x37507e87	1.2427226e-05
98	0x374ce64b	1.2212967e-05
99	0x3747dce3	1.19127535e-05
100	0x3758c6d0	1.2920893e-05
101	0x37705361	1.4324528e-05
102	0x378d4453	1.6840326e-05
103	0x378e4bae	1.696296e-05
104	0x37746402	1.4566818e-05
105	0x376287ae	1.350224e-05
106	0x37477d8a	1.1890554e-05
107	0x3743cad1	1.1670128e-05
108	0x37465b36	1.1822956e-05
109	0x375368d4	1.2600987e-05
110	0x376178ae	1.3439143e-05
111	0x378d825e	1.6869217e-05
112	0x378c4aa1	1.6724052e-05
113	0x37726798	1.4448444e-05
114	0x37596f9c	1.2960194e-05
115	0x374dcf56	1.2267226e-05
116	0x373ec90b	1.13716915e-05
117	0x373c5006	1.1224305e-05
118	0x3748b470	1.196294e-05
119	0x375852a0	1.2893841e-05
120	0x3782886f	1.556074e-05
121	0x378d8d50	1.6874314e-05
122	0x3779fd44	1.4900525e-05
123	0x37601130	1.3355442e-05
124	0x375d44d5	1.3188653e-05
125	0x373fa3b2	1.14226e-05
126	0x373bb17c	1.1187392e-05
127	0x373e3ce2	1.1339058e-05
128	0x37598711	1.29656555e-05
129	0x375b454a	1.306955e-05
130	0x376332dc	1.3542096e-05
131	0x3770d646	1.4355004e-05
132	0x375815a4	1.2879642e-05
133	0x3748bba8	1.1964621e-05
134	0x3746de82	1.1853526e-05
135	0x37379b02	1.0943741e-05
136	0x3747432d	1.1876965e-05
137	0x37493fba	1.1995371e-05
138	0x37523460	1.252917e-05
139	0x37542dbe	1.2646835e-05
140	0x375fb6ad	1.3334368e-05
141	0x375a8228	1.3024117e-05
142	0x37537f4e	1.26062205e-05
143	0x37461b5b	1.1808089e-05
144	0x37302165	1.0498193e-05
145	0x373dc765	1.1311703e-05
146	0x3739fb70	1.1085402e-05
147	0x373c57cd	1.1226116e-05
148	0x3750979a	1.2433064e-05
149	0x374ddfa8	1.2271026e-05
150	0x374ba61f	1.2138421e-05
151	0x374f3204	1.2349807e-05
152	0x3744b92c	1.1725624e-05
153	0x3736f6f0	1.090554e-05
154	0x37376f7a	1.0933605e-05
155	0x37401e2e	1.1451119e-05
156	0x373efbd4	1.1383516e-05
157	0x373a5b7a	1.11077625e-05
158	0x3738443c	1.0983142e-05
159	0x37463115	1.18131475e-05
160	0x3746ce5a	1.1849765e-05
161	0x3747f198	1.1917575e-05
162	0x392a458e	0.00016238375
163	0x392f2526	0.0001670314
164	0x3931a95b	0.00016943125
165	0x392bcb2f	0.00016383523
166	0x39221ecb	0.00015460995
167	0x3919d4a7	0.00014670436
168	0x39144325	0.00014139393
169	0x39115124	0.00013858505
170	0x391053cb	0.00013764125
171	0x3932096e	0.00016978916
172	0x393975dc	0.00017686881
173	0x393b59f7	0.00017867224
174	0x39316b7e	0.0001692008
175	0x392499e7	0.00015697592
176	0x3919d198	0.00014669297
177	0x3915efa3	0.00014299019
178	0x3914fc40	0.0001420835
179	0x39144176	0.00014138766
180	0x3938278a	0.00017562337
181	0x39415eec	0.00018441275
182	0x393e6ce3	0.00018160375
183	0x39321e8f	0.00016986787
184	0x39232f7d	0.00015562582
185	0x39184dd3	0.00014524841
186	0x39178987	0.00014451715
187	0x3919bdcc	0.00014661922
188	0x3919d25e	0.00014669585
189	0x39380f04	0.00017553201
190	0x393dcabf	0.00018099973
191	0x3939e1e9	0.00017727133
192	0x392a769f	0.00016256653
193	0x391bd01e	0.00014859482
194	0x39172e95	0.00014417835
195	0x391ca1dc	0.00014937617
196	0x39225679	0.00015481738
197	0x3921bf74	0.00015425478
198	0x3931db03	0.00016961624
199	0x3934adb6	0.0001723085
200	0x392bfea9	0.00016402699
201	0x391cef9c	0.00014966581
202	0x3913b58b	0.00014086642
203	0x39178227	0.00014448968
204	0x3923bcae	0.0001561518
205	0x392cb3f1	0.00016470232
206	0x392a602d	0.00016248292
207	0x39267f68	0.00015878456
208	0x39247332	0.00015683172
209	0x391a7448	0.00014729903
210	0x39101d9e	0.00013743943
211	0x390f2238	0.0001365029
212	0x3918aaf5	0.00014559536
213	0x392a4ec0	0.000162418
214	0x392fab94	0.00016753218
215	0x392d26b0	0.00016512978
216	0x39188e89	0.00014548948
217	0x39146df0	0.00014155335
218	0x390d4bc5	0.00013475034
219	0x39093e9c	0.00013088662
220	0x390e33a0	0.00013561407
221	0x391da972	0.0001503581
222	0x3929650a	0.00016154736
223	0x39312610	0.00016894215
224	0x392ce520	0.00016488554
225	0x390e4935	0.00013569447
226	0x390aa6df	0.0001322287
227	0x3906925c	0.00012833759
228	0x3905f650	0.00012775627
229	0x390eeda6	0.00013630706
230	0x391cac57	0.00014941521
231	0x39277bb5	0.00015972446
232	0x392b123f	0.00016314628
233	0x3929e586	0.000162026
234	0x39092aa8	0.00013081229
235	0x39075d8c	0.00012909452
236	0x3904fdf5	0.00012683107
237	0x3906a64b	0.00012841185
238	0x390d12fa	0.00013453877
239	0x3915e52f	0.00014295125
240	0x3920cdda	0.00015335475
241	0x39239204	0.00015599286
242	0x391fee71	0.00015252248
243	0x39536496	0.00020159999
244	0x39462255	0.00018895541
245	0x3956fbbb	0.00020502407
246	0x395b1a3a	0.00020895238
247	0x39574b83	0.00020532128
248	0x394ba523	0.00019421107
249	0x3947a911	0.00019041101
250	0x3949484c	0.00019195786
251	0x394029fe	0.0001832619
252	0x394fa4ff	0.00019802524
253	0x394e7fd4	0.0001969331
254	0x39542738	0.00020232506
255	0x39604a01	0.00021389873

exp_avg f4 [64]
0	0x3b1a06f3	0.0023502677
1	0xbaa8df4e	-0.0012883933
2	0xb9e23513	-0.00043145622
3	0xbb0c0576	-0.002136556
4	0xbcc6ca85	-0.02426649
5	0x3b564aa9	0.003269831
6	0x3b9f7ea7	0.004867393
7	0xbc595112	-0.013263958
8	0xbb7ee953	-0.0038896396
9	0x390cf7c8	0.00013443746
10	0xbb3606cd	-0.002777505
11	0xbbe64fb9	-0.0070285466
12	0xbad117f3	-0.0015952572
13	0xbc59afa0	-0.013286501
14	0xbb9d66f8	-0.0048035346
15	0xbd15e384	-0.03659393
16	0xba26c7b6	-0.0006362157
17	0xbd1a4bca	-0.037669934
18	0xbc075469	-0.008259871
19	0xbcfd24f6	-0.030901413
20	0x80000004	-6e-45
21	0xbc8afb7d	-0.016965622
22	0x3bab0b8e	0.0052198833
23	0xbb97cdf9	-0.004632708
24	0xbc795ca6	-0.015219843
25	0xbab11fad	-0.0013513468
26	0xbbd58c8a	-0.0065169977
27	0x3bad8027	0.005294818
28	0xbc9453c9	-0.018106358
29	0xbd148770	-0.036261976
30	0xbbee2122	-0.0072671333
31	0xbb9b4e18	-0.004739534
32	0xbc6df459	-0.014523589
33	0x3a2727e7	0.00063764903
34	0xbae9914a	-0.0017819789
35	0xbc52b58a	-0.012860665
36	0xbd0b7b92	-0.034053393
37	0x3941c583	0.00018479493
38	0xbb849baf	-0.0040468792
39	0xbafb92a3	-0.0019193481
40	0xbc547f44	-0.012969796
41	0xbb826de8	-0.003980387
42	0x3ab11f6c	0.0013513393
43	0xbc572c3e	-0.013133107
44	0x3a5014f6	0.0007937694
45	0xbcc3c7d9	-0.023899006
46	0xbccb5dd4	-0.024825014
47	0xba7609c1	-0.0009385609
48	0x3aa86d6c	0.0012849993
49	0x3a818ab7	0.0009883259
50	0xbb24f5ba	-0.0025170879
51	0xbd1ccddb	-0.038282257
52	0x3b5647f0	0.0032696687
53	0xbbb7fc17	-0.0056147682
54	0xbadba8f8	-0.0016758731
55	0xbbe2a784	-0.006916942
56	0x3a44c483	0.0007506089
57	0x3a987e29	0.0011634278
58	0xbc248144	-0.010040585
59	0x38589a84	5.1642317e-05
60	0xbc5f77f1	-0.013639436
61	0x398d2e8e	0.00026928302
62	0x3a766b8a	0.000940018
63	0xbc92c94e	-0.017918255

exp_avg_sq f4 [64]
0	0x392bdc55	0.00016389911
1	0x39670df7	0.00022035079
2	0x3aa591db	0.0012631969
3	0x3b258134	0.0025254013
4	0x3c0ab1a4	0.008465204
5	0x3aed3ef0	0.0018100422
6	0x3aefe3f8	0.0018302193
7	0x3b426929	0.002966473
8	0x3acbf29c	0.0015559974
9	0x36bcfeb3	5.6324875e-06
10	0x3a1e07fc	0.00060284114
11	0x3a8c85c8	0.0010721022
12	0x38e2c450	0.00010813086
13	0x3b52fa0b	0.0032192494
14	0x39c1a704	0.00036936265
15	0x3c8b1db9	0.016981946
16	0x3b37fe36	0.0028075106
17	0x3cdde149	0.027084963
18	0x3a3141a8	0.00067617977
19	0x3c8bcf36	0.01706658
20	0x193e7277	9.845886e-24
21	0x3b7becf0	0.0038440786
22	0x3ab1be42	0.001356073
23	0x3a1b3bf9	0.00059217174
24	0x3b556d4c	0.0032566367
25	0x399c8159	0.0002985101
26	0x3a718b04	0.00092141354
27	0x3aa7ec5e	0.0012811532
28	0x3b5ed11b	0.0033999148
29	0x3c8f05dd	0.01745885
30	0x3a8fb9ac	0.0010965369
31	0x3a8da698	0.0010807095
32	0x3bad3944	0.0052863676
33	0x3a01f591	0.0004957552
34	0x39a39a38	0.00031204685
35	0x3b28ec32	0.002577555
36	0x3c821a49	0.015881674
37	0x397e16cf	0.00024231825
38	0x3a31f97e	0.00067891914
39	0x39aef249	0.00033368383
40	0x3b512029	0.0031910038
41	0x3b439238	0.0029841792
42	0x38a3fec4	7.8198995e-05
43	0x3b03b111	0.0020094553
44	0x38eee9ee	0.00011392297
45	0x3bd01da9	0.006351192
46	0x3c2fe626	0.010736024
47	0x39f01b7d	0.00045796848
48	0x3a8bc3ef	0.0010663251
49	0x3810bfd5	3.4510933e-05
50	0x3c82f710	0.01598695
51	0x3cb96948	0.02263321
52	0x39684672	0.00022151487
53	0x3a2c6400	0.00065761805
54	0x39a0b997	0.00030655853
55	0x3a6a2979	0.00089325715
56	0x39b9c4ec	0.00035432668
57	0x39db1554	0.00041786826
58	0x3a89730d	0.0010486558
59	0x38402922	4.5814675e-05
60	0x3b0e6807	0.0021729486
61	0x37c220c3	2.3141858e-05
62	0x3a87b43f	0.00103534
63	0x3b8fa1f2	0.004383319

exp_avg f4 [32, 64, 5, 5]
0	0xb94caa62	-0.00019518429
1	0xb92cd4b6	-0.00016482439
2	0xb90d681f	-0.00013485596
3	0xb8fcaa59	-0.00012048026
4	0xb8d8f4af	-0.000103452585
5	0xb950112d	-0.00019842824
6	0xb9307ae4	-0.00016830448
7	0xb914f8e4	-0.00014207099
8	0xb90b2fe6	-0.00013273917
9	0xb90a1f06	-0.00013172263
10	0xb9403eac	-0.00018333894
11	0xb9376c87	-0.0001749267
12	0xb919de71	-0.00014674083
13	0xb91a9670	-0.00014742627
14	0xb912794d	-0.00013968833
15	0xb94bfcc8	-0.00019453757
16	0xb9440637	-0.00018694332
17	0xb93dac60	-0.00018088659
18	0xb93ab34e	-0.00017805138
19	0xb9387f8c	-0.00017595122
20	0xb93c364a	-0.00017949301
21	0xb931acb1	-0.00016944368
22	0xb94e981e	-0.00019702359
23	0xb9437b2d	-0.00018642536
24	0xb94ee4fe	-0.00019730997
25	0xb652f81d	-3.143686e-06
26	0xb6e9e522	-6.9706157e-06
27	0xb69880a9	-4.544931e-06
28	0xb6640e2b	-3.3982894e-06
29	0xb60f0a1d	-2.1314547e-06
30	0xb68bc075	-4.1649278e-06
31	0xb6640312	-3.3976435e-06
32	0xb4f9ba19	-4.6515268e-07
33	0xb5a16b0c	-1.202659e-06
34	0xb570fafd	-8.9772203e-07
35	0xb6957f94	-4.455398e-06
36	0xb5a2f3a5	-1.214085e-06
37	0x357632eb	9.1716237e-07
38	0x35d0309b	1.5511354e-06
39	0x33bab101	8.693497e-08
40	0xb6219fc3	-2.4083863e-06
41	0xb5334342	-6.678057e-07
42	0x364c21ca	3.0418037e-06
43	0x359bdcbb	1.1612641e-06
44	0xb27dadca	-1.4766053e-08
45	0x369542a1	4.4483027e-06
46	0x36a729a3	4.981835e-06
47	0x366f2205	3.5633577e-06
48	0x3628a5f1	2.5130541e-06
49	0xb4e5ebbe	-4.28261e-07
50	0xb98889a0	-0.0002604248
51	0xb9a03981	-0.00030560422
52	0xb9b3091c	-0.00034148328
53	0xb9c054e1	-0.00036684333
54	0xb9c57e45	-0.00037668846
55	0xb9942724	-0.00028257922
56	0xb9a40217	-0.00031282075
57	0xb9b3ee7a	-0.0003431922
58	0xb9c23e61	-0.0003704904
59	0xb9c8d690	-0.00038306834
60	0xb994bc66	-0.00028369128
61	0xb9a284ec	-0.00030998082
62	0xb9ae3b9d	-0.00033232282
63	0xb9b65426	-0.0003477644
64	0xb9b8f37c	-0.00035276625
65	0xb9864345	-0.0002560859
66	0xb9900293	-0.00027467738
67	0xb997ad8f	-0.00028930276
68	0xb9acd7de	-0.0003296723
69	0xb9abaf89	-0.00032746446
70	0xb98133df	-0.00024643444
71	0xb979b77b	-0.00023814842
72	0xb9848326	-0.00025274715
73	0xb98eb528	-0.00027219323
74	0xb99a7056	-0.00029456866
75	0xb83f9e2f	-4.568527e-05
76	0xb885cf63	-6.380563e-05
77	0xb8ac1884	-8.2061655e-05
78	0xb8bf0ddb	-9.1101705e-05
79	0xb8c21155	-9.253869e-05
80	0xb8439321	-4.6628647e-05
81	0xb889a16f	-6.5627384e-05
82	0xb8b175dc	-8.461971e-05
83	0xb8c89965	-9.565315e-05
84	0xb8d1149a	-9.969734e-05
85	0xb825aedf	-3.9501927e-05
86	0xb8691a3e	-5.557597e-05
87	0xb8983135	-7.25709e-05
88	0xb8b075a8	-8.414249e-05
89	0xb8b4224c	-8.589457e-05
90	0xb7d36fe7	-2.5205269e-05
91	0xb81d03e1	-3.743533e-05
92	0xb84fa5f7	-4.9507213e-05
93	0xb8771962	-5.891303e-05
94	0xb8806682	-6.122609e-05
95	0xb71e657b	-9.441162e-06
96	0xb7ac9750	-2.0574458e-05
97	0xb7e2c25f	-2.703181e-05
98	0xb7eba8b4	-2.8092742e-05
99	0xb80da80a	-3.377352e-05
100	0xb82049c4	-3.8215672e-05
101	0xb81fde70	-3.8115715e-05
102	0xb810c185	-3.4512504e-05
103	0xb7eab98b	-2.7981374e-05
104	0xb7e82a53	-2.7676264e-05
105	0xb8299cd9	-4.0438816e-05
106	0xb816c90b	-3.5950023e-05
107	0xb811c178	-3.4750876e-05
108	0xb7fa99df	-2.9873974e-05
109	0xb7c9aee4	-2.4042507e-05
110	0xb8164998	-3.5831326e-05
111	0xb80a3a03	-3.295579e-05
112	0xb80ef46d	-3.4083077e-05
113	0xb813039a	-3.5050885e-05
114	0xb7e442db	-2.721085e-05
115	0xb8060aa8	-3.1958014e-05
116	0xb7fd3be9	-3.0187848e-05
117	0xb7bab38f	-2.2256541e-05
118	0xb7ec89dc	-2.8197588e-05
119	0xb7c638fb	-2.3629973e-05
120	0xb7cb5ea9	-2.4243565e-05
121	0xb78a0bb4	-1.6456332e-05
122	0xb7a21568	-1.9321873e-05
123	0xb7b16383	-2.1146383e-05
124	0xb7da2087	-2.6002772e-05
125	0xb97dea6d	-0.0002421529
126	0xb987a0d7	-0.00025869042
127	0xb98ac6de	-0.0002646958
128	0xb9979bf7	-0.00028917167
129	0xb99c530f	-0.00029816522
130	0xb9945716	-0.00028293644
131	0xb9ab0637	-0.00032620292
132	0xb9b39c62	-0.00034258055
133	0xb9b5402c	-0.00034570822
134	0xb9b13536	-0.00033799716
135	0xb9a62b11	-0.00031694074
136	0xb9a7c1ab	-0.00031997016
137	0xb9b435df	-0.00034372412
138	0xb9b70987	-0.00034911578
139	0xb9b5a646	-0.00034646894
140	0xb997396d	-0.0002884375
141	0xb99d27ca	-0.0002997502
142	0xb9a31ab7	-0.00031109687
143	0xb9a5f2c9	-0.00031652141
144	0xb9aec03a	-0.00033331086
145	0xb981ca09	-0.00024755325
146	0xb9834ddb	-0.00025044274
147	0xb989c282	-0.00026275596
148	0xb98f32fd	-0.00027313075
149	0xb9900fde	-0.00027477642
150	0x36a76bbd	4.98953e-06
151	0x36a94bb0	5.0454037e-06
152	0x3611d018	2.172781e-06
153	0x365a4748	3.2526023e-06
154	0x3614c07a	2.2165755e-06
155	0x36f6bb94	7.3532083e-06
156	0x370f8097	8.553404e-06
157	0x35cb9aeb	1.5169766e-06
158	0x36767cba	3.6729457e-06
159	0xb5a8faa5	-1.2589923e-06
160	0x3767c7b4	1.381517e-05
161	0x37902ece	1.7187933e-05
162	0x371e8e02	9.450598e-06
163	0x369a9e23	4.607967e-06
164	0x358f3e80	1.067252e-06
165	0x374e8f9c	1.23119935e-05
166	0x378d6c82	1.6859038e-05
167	0x375ebbcf	1.3275959e-05
168	0x36e2d8f5	6.760582e-06
169	0x36a9c845	5.059907e-06
170	0x37bef543	2.2763974e-05
171	0x3799e9b2	1.8347844e-05
172	0x37b4554d	2.1497393e-05
173	0x3705baed	7.97094e-06
174	0x36d6a6e1	6.3971243e-06
175	0xb818b209	-3.6405432e-05
176	0xb83253bf	-4.25165e-05
177	0xb8410080	-4.601525e-05
178	0xb84fdc58	-4.9557857e-05
179	0xb836a57d	-4.3546304e-05
180	0xb80b4274	-3.320207e-05
181	0xb8239f9a	-3.901087e-05
182	0xb82da8e9	-4.1403724e-05
183	0xb82a3cbf	-4.0587733e-05
184	0xb823bf43	-3.9040355e-05
185	0xb7ed36c3	-2.8278102e-05
186	0xb7f2715d	-2.8901437e-05
187	0xb7f62bbc	-2.934585e-05
188	0xb7fb52f2	-2.9960156e-05
189	0xb814eb8b	-3.5505316e-05
190	0xb790692d	-1.7215114e-05
191	0xb7920f19	-1.7411587e-05
192	0xb7a462be	-1.9596304e-05
193	0xb7de95a3	-2.6534142e-05
194	0xb7cd6fdd	-2.4489995e-05
195	0xb71ff572	-9.534286e-06
196	0xb6da65ce	-6.508758e-06
197	0xb73d6977	-1.1289833e-05
198	0xb780d67d	-1.5358668e-05
199	0xb78dbefd	-1.6897446e-05
200	0x33b17fb1	8.265432e-08
201	0xb70043b8	-7.6451615e-06
202	0xb7b00724	-2.098416e-05
203	0xb80a9186	-3.3037293e-05
204	0xb836a5f0	-4.3546723e-05
205	0xb4b4c03d	-3.3667484e-07
206	0xb6498f1c	-3.0034635e-06
207	0xb71f9d94	-9.5138275e-06
208	0xb796d2cb	-1.7979552e-05
209	0xb7d0ebdd	-2.4905365e-05
210	0x359f7aec	1.1882198e-06
211	0xb61b31f3	-2.3125874e-06
212	0xb71282bf	-8.73272e-06
213	0xb7675136	-1.3787581e-05
214	0xb7a76344	-1.9954176e-05
215	0x33c7d7bd	9.305902e-08
216	0xb615d12d	-2.2324487e-06
217	0xb7060d21	-7.990079e-06
218	0xb7536ca3	-1.2601874e-05
219	0xb785c313	-1.5945674e-05
220	0xb682031c	-3.874664e-06
221	0xb6b2a4a0	-5.3239783e-06
222	0xb7292d71	-1.0083765e-05
223	0xb7855c5c	-1.5897844e-05
224	0xb77078c2	-1.4333231e-05
225	0xb3e9a8e7	-1.0880631e-07
226	0xb414f1e9	-1.387158e-07
227	0xb528f263	-6.2937596e-07
228	0xb4e579f7	-4.2743315e-07
229	0x33199fb4	3.5768338e-08
230	0x34880861	2.533807e-07
231	0x345f26ce	2.078261e-07
232	0x33ca720b	9.427102e-08
233	0xb47a0069	-2.3283214e-07
234	0xb3d3afe6	-9.857449e-08
235	0xb3a0aed4	-7.482382e-08
236	0xb3c641c1	-9.232054e-08
237	0xb3ec0951	-1.0991301e-07
238	0xb49990cf	-2.8603833e-07
239	0xb4aa903a	-3.1769906e-07
240	0xb3a2c429	-7.579394e-08
241	0xb430ed67	-1.6477644e-07
242	0xb48df9f1	-2.6445153e-07
243	0xb39afaf4	-7.216832e-08
244	0xb48c2a4f	-2.6107816e-07
245	0x33376c0b	4.2706272e-08
246	0xb4368e2c	-1.7001793e-07
247	0x33625db6	5.2704955e-08
248	0xb4a60ecf	-3.0930684e-07
249	0xb445892e	-1.839696e-07
250	0xb7d2ece5	-2.5144263e-05
251	0xb81ffd25	-3.8144313e-05
252	0xb8436e4e	-4.6594352e-05
253	0xb86535ed	-5.4648077e-05
254	0xb87c1520	-6.0101156e-05
255	0xb799d5ce	-1.8338582e-05
