logs/biosr_ccps_rcan_model-SRCNN_250305_lr0.0001_bs1_Ps256_Npatch128_N300/model_119.pth (torch, 695046 bytes, 15 tensors)

conv1.weight f4 [64, 1, 9, 9]
00000000: 2c77 a63d 110d e5bc 998e ab3d 66e0 b2bc
00000010: 953f 3f3d f366 20bd a406 093e 4b53 59bc
00000020: 9290 4d3e 8645 e1bc 8b79 bdbd b031 483d
00000030: 8ab5 48bd 4801 053d c5a8 323d 23f2 fa3c
00000040: 895d 9e3d 4d0c d73d 4b95 af3d ce55 1e3d
00000050: 55f0 c4bd 66f6 95bc 7ecb 50bd 3781 c0bd
00000060: 8bb5 8bbd 4f9b 93bd 5dc5 493d e83b d2bd
00000070: c349 0dbd e1c6 bf3c 67ba 9dbd a63d cdbd
00000080: cd43 073b bc0c fbbc 8fda 2cbd fb49 953d
00000090: ef6b 95bd 74cd 80bd 5cf1 95bb 768d 2f3d
000000a0: 6044 04bd 3196 933d 09bd 533d 12a4 843d
000000b0: 0d3e b83c 3503 15bd 57af c8bd b47d 14bb
000000c0: 8715 c3bd f89e cd3c 9bb0 d43c ab82 b63c
000000d0: b394 5a3d 8719 fd3d 46f5 5dbd de66 e9bc
000000e0: da7e 1ebc 20f6 023d d058 9e3d bb78 763d
000000f0: 4eca 3dbd c751 d63d 7b13 c83b f577 1c3d
00000100: f71f 123d a0db b53a de3d 53bd 5e05 56bd
00000110: ee4f 1e3c 8eb5 87bd e2f4 b8bc 7fca 8abd
00000120: 92e2 313d ca2f c5bc 5add ae3c 6f60 633d
00000130: 14a3 48bd e251 0abc 2de0 aebd 1e84 b8bb
00000140: e446 8ebd 62c2 41bd a30f 75bb f5f7 eebc
00000150: ca8e e13b 5df5 933d fa6d 03bd a1c7 fbbd
00000160: 6f1b 693d 81c5 89bc 77c0 a23c 0990 8dbc
00000170: 3dec 6a3d fbd3 cfbd 7be3 8e3d 1e29 983d
00000180: 8a92 943d c070 0f3d 62a2 b93d e5e9 0b3d
00000190: bf0f 9b3c f965 b3bc fc34 ad3d 41f0 973d
000001a0: 49ee 49bd d6b3 4a3c a876 c0bd f927 c6bc
000001b0: d09f e03c a5ba 5cbc 61e2 f4bd 98d7 a93d
000001c0: 5034 f93c e364 babd 9b33 d6bd 42f6 3ebd
000001d0: 28af bebd fda8 7fbd 35bc 73bd 4f9a cfbd
000001e0: 7967 453d adad f13d 5e88 4e3b b267 28bd
000001f0: c885 b03d ac3d d5bd 1618 0bbd 26fc c0bd
00000200: 7e91 083d 0305 b1bd 2059 bdbd 3660 3b3d
00000210: 0ae6 87bd d591 bfbd 964d 663b e522 50bd
00000220: 2d5f 8d3d e0d3 f83b c020 f33b 89c3 27bd
00000230: 3abb 733d 7bcf 903d 3e80 ab3d bb5c 4c3c
00000240: 79fb f0bd 1b3a 1c3c 56c1 94bd 0c69 c1bd
00000250: b1cf 933d 49f1 273d a253 063d b5a3 df3d
00000260: 7201 f53c d826 92bc 19fb f1bc 3604 433d
00000270: e60b 863c a125 85bd 2d26 cabd da49 883d
00000280: d129 943d 7dd3 f73d 97f6 813d 71d8 fc3d
00000290: 5fb7 4fbd 731f 7c3d 3304 173d 0eb8 e43c
000002a0: 46ac 9cbd eda8 86bd e5ea 3f3d 3902 e23d
000002b0: 156c 943d f14d fdbc aba0 f33d 7ac6 693d
000002c0: 31dd 933c 0139 aa3c c9fb b43d bae8 983d
000002d0: aee3 a93d 5a0f 55bd 0e2e bf3d 945d ca3d
000002e0: 7bd0 a4b9 09b9 753d 0a63 93bd 0f83 ddbd
000002f0: 7146 acbd 1d09 f43d 30f9 dc3d a8f9 b13c
00000300: 7408 c63d f398 ab3d f5f7 2cbd ac1f b73c
00000310: 5d76 7dbd bd79 02be 3f34 df3d e2f5 23bd
00000320: 207d febc d67f ac3c 4b9e 8c3d 866c a23d
00000330: 2325 fcbc ed0f 8e3b b342 aebb e4fa 18bd
00000340: b2cd 4ebc a5f1 b03c ad5d a0bd a2d1 4f3d
00000350: 7d0e dfbd 393f c63c d750 e4bd 99b5 0bbe
00000360: 6f24 ed3c 3876 c63c e201 2ebd 7744 833d
00000370: e0f8 b63d 013d 1f3c 7d41 ddbd ebce ecbd
00000380: 8709 24be cd54 113c ee92 d63d bb34 543c
00000390: ab70 c8bd 31c3 8e3d 585d e53c 9ae6 a4bd
000003a0: ec4b 1bbe 065d a13c 0a18 e63d f064 a73c
000003b0: ff4a 14bd 7eda d6bc 9f36 38bd 5ba3 ecbd
000003c0: 57d6 c93b 577d c2bd 452f 04be 0b41 da3d
000003d0: 0eff afbd 96cb c73d 449f f23d eb2d 983d
000003e0: 2136 0cbd 1d82 3abd 57f3 cd3c fdd9 9abd
000003f0: 4386 4c3d b11b a0bb 5537 093c ba7f ea3d
0.08128199 -0.027960332 0.08376808 -0.021835517 0.046691496 -0.03916068 0.1338144 -0.0132644875
0.2007468 -0.027498972 -0.09251698 0.04887551 -0.049001254 0.032471925 0.043617982 0.030633038
0.07732684 0.10500393 0.08573397 0.03865605 -0.09616152 -0.018305968 -0.050975315 -0.09399646
-0.06821736 -0.07207357 0.049260486 -0.102653325 -0.034494173 0.023410263 -0.07701569 -0.10021524
0.0020639778 -0.03064572 -0.04220062 0.07289501 -0.07295977 -0.06289187 -0.0045758914 0.042859517
-0.03229177 0.07206381 0.05169395 0.064766064 0.022490526 -0.03638001 -0.097990684 -0.0022657933
-0.095255904 0.025100216 0.025963118 0.022279104 0.053364467 0.123583846 -0.05418899 -0.028491434
-0.009673798 0.031973004 0.077317834 0.06017373 -0.04633551 0.104648165 0.006105838 0.038200337
0.035675015 0.0013874657 -0.051572673 -0.052251212 0.009662611 -0.06626426 -0.022577707 -0.06776904
0.043428965 -0.02407064 0.021345783 0.055511888 -0.04898365 -0.008442374 -0.08538852 -0.005630984
-0.06947115 -0.04730452 -0.0037393353 -0.02917097 0.006883477 0.07224534 -0.032087304 -0.122939356
0.05691093 -0.01681781 0.019867165 -0.017280595 0.0573542 -0.10147854 0.06976982 0.074297175
0.072545126 0.035019636 0.09064175 0.034158606 0.018928407 -0.02189921 0.084573716 0.07418872
-0.049299512 0.012371978 -0.09397632 -0.024188982 0.027419955 -0.013472234 -0.11957241 0.08293074
0.030420452 -0.09101274 -0.10459062 -0.04662157 -0.09310752 -0.06241702 -0.05950566 -0.10136854
0.048194382 0.11800704 0.0031514387 -0.041114517 0.08619267 -0.104121536 -0.033958517 -0.094230935
0.033341877 -0.08643534 -0.09245515 0.04574605 -0.06635673 -0.09353987 0.003514146 -0.050814528
0.06902919 0.007593617 0.0074196756 -0.04095796 0.059504725 0.07070824 0.0837407 0.012473281
-0.117667146 0.009535338 -0.072634384 -0.09443864 0.07217348 0.04100159 0.032794602 0.109198965
0.029907916 -0.017840788 -0.029538678 0.047611438 0.016363095 -0.06501318 -0.09870563 0.06654711
0.07234538 0.12100885 0.063458614 0.123459704 -0.050711986 0.06155343 0.03686924 0.027919795
-0.07650046 -0.06575189 0.046854872 0.1103558 0.072471775 -0.030920954 0.11895879 0.057074048
0.018049808 0.020779135 0.08837087 0.07466264 0.082953796 -0.052016594 0.09334956 0.0988113
-0.00031435848 0.059990916 -0.071966246 -0.10816013 -0.08411873 0.11915801 0.10789716 0.02172549
0.09669581 0.08378782 -0.042228658 0.02235397 -0.06188046 -0.12741752 0.10898637 -0.040029414
-0.031065524 0.02105705 0.068661295 0.079308555 -0.030779427 0.0043353946 -0.0053180098 -0.037348643
-0.012622284 0.0215996 -0.07830367 0.05073703 -0.10891435 0.024200069 -0.111482315 -0.13643493
0.028948037 0.024226293 -0.042482264 0.06409543 0.08934188 0.009719134 -0.108035065 -0.11562904
-0.1601926 0.008870316 0.10477243 0.012952025 -0.09787115 0.069708236 0.027998611 -0.08051796
-0.1516568 0.019697677 0.11235054 0.020433873 -0.036204334 -0.026227232 -0.044973966 -0.11554595
0.0061595845 -0.09496563 -0.12908657 0.10656937 -0.0859357 0.09755628 0.11846784 0.07430633
-0.03423131 -0.045534242 0.025140448 -0.07561109 0.04993273 -0.0048861136 0.008375009 0.11450143

conv1.bias f4 [64]
00000000: 5592 d13c 1e14 563d 6a50 933c cec0 a13b
00000010: e0c8 d1bd d3a2 9c3d 6f70 ba3d 41f5 97bd
00000020: df32 18bd 535c e83c 5081 12bd 3012 8fbc
00000030: 2d9f d0bd 3c17 8bbc f2b4 a2bd 25d5 85bd
00000040: 62b0 bb3d 06fb c5bc edba 55bb 3fcf a9bc
00000050: 7876 13bd f3ee d2bd 2752 edbd cee0 9ebc
00000060: a8c2 9abc 1ea2 933c ced8 d4bc 5f65 a1bd
00000070: 6791 99bd a7f9 7cbd c358 03bd 56bf a2bc
00000080: 44dd a3bd 9aa7 a6bd 464c 8a3d 2405 15bb
00000090: f25c 94bd 83ba 4b3d 0085 d4bc 5f2f 1f3e
000000a0: 4460 453d b067 7a3d 2406 a8bc f006 aabc
000000b0: 155d 0e3d 266f f8bd 0459 44bc 0b7b 11bd
000000c0: 38dd b83c f1df fbbc 73eb da3d b38b 80bd
000000d0: 5c9d d93b 93b7 4ebb 2379 8c3d 58e8 71bd
000000e0: 1ee2 173d 772e a5bd dc12 213c 3a8f 423c
000000f0: 1704 81bc 39c2 6a3a 4fbd 603d feb4 abbd
0.025582472 0.05226528 0.01798268 0.004936314 -0.10243392 0.07648244 0.09103476 -0.07419825
-0.03715789 0.028364336 -0.035767853 -0.017464727 -0.1018661 -0.016978852 -0.07944669 -0.06534795
0.09164502 -0.024167549 -0.0032612637 -0.020728705 -0.036001652 -0.10299482 -0.11587935 -0.019394305
-0.018891647 0.01802164 -0.025982287 -0.07880663 -0.074984364 -0.061761525 -0.03206707 -0.019866627
-0.080011874 -0.08137436 0.06752829 -0.002273866 -0.072442904 0.04973842 -0.025942326 0.15545414
0.04818751 0.06113404 -0.02051074 -0.020755261 0.03475674 -0.12130575 -0.011984114 -0.035517734
0.022566423 -0.030746432 0.106894396 -0.062766455 0.006641073 -0.0031542524 0.068590425 -0.05905947
0.037080877 -0.08065503 0.009831157 0.011874968 -0.01574902 0.0008955333 0.05486804 -0.08384131

conv2.weight f4 [32, 64, 5, 5]
00000000: 8748 b8bc 477e 1cbd d958 6e3c e409 35bc
00000010: 2ab6 f73c 64d9 b73b 740c 2fbc 9ecb d43c
00000020: 369f f9bb 3997 2f3c d3a9 5ebb 8d92 ddbb
00000030: 5ab5 e8bb 54bb a0bc 5b8a fd3a e125 35bd
00000040: 7810 adbc ad00 0ebd e16e 07bd ea15 05b9
00000050: 2fdf d83a 9db5 8d3c 0ea9 a63c 00ab 1a3d
00000060: 2d34 4d3d b25b f7bd a52d a1bc 027d 5e3d
00000070: 7cfd 2a3b d3ad b5bc 6a11 2dbb 2b30 23bd
00000080: b192 713d 19e4 273d 69ce 4b3b 2fba 84bd
00000090: 101e abbd adef 05ba ded6 8abc 6eee d9bb
000000a0: 42cc b4bd caee 9fbd a446 98bc 9a7e 42bc
000000b0: 6873 29bc 6371 49bd 379b 6fbc 9fba f23b
000000c0: fe89 c639 5b2c d6bc 2144 893c 3743 0b3c
000000d0: f4fb b93c 4a63 ef3c 9353 743c 424f eebc
000000e0: a76d 5bbc 86ac 82bc 0af2 61bc 6c25 323c
000000f0: 4f6a fcbc 4a3e 4aba 84a2 0abc 1058 283c
00000100: 2900 433c e6dd 33bd 3bca 85bb 9b60 08bd
00000110: e3d8 0b3d 582c 823d b78a 61bb 9f92 433c
00000120: 357f a63c ee4f 553d 3c59 263e d0a2 b03c
00000130: 4bd0 debc de21 a0bb 3aa3 c1bb 12e3 f43c
00000140: 6d04 213c fc5b 883b 6110 17bd a7d3 14bc
00000150: 8d95 783c 92f4 37bc de7e 013c 4594 693b
00000160: 7e5f c93c 3a6c 803c 91e6 bfbb 63a8 10bd
00000170: 7dc8 51bc 25a3 f5bb aa01 dfbc 7c06 03bd
00000180: 4916 3dbd cee6 55bd ec4b fabd 6858 2ebe
00000190: 37c0 413b b09f 3e3c 7791 083c feef 89bc
000001a0: 1e73 37bd bd1b 983c 2bf0 ca3b 7a30 93bb
000001b0: 227d ff3b 6889 42bd e413 083d ac48 c63c
000001c0: ad40 713b c5fb c1ba 5116 03bd d8e2 37bb
000001d0: e787 9b3c df53 43bd 1153 06bd 23d1 cbbc
000001e0: 6c1b 763d e6cf 3b3c e9d1 163d 189c 3a3d
000001f0: a6f0 7c3d 6ad0 af3b f779 4b3c a49a 7e3a
00000200: 00dd 963c c4bc 97bc e0c4 243b 219b 073c
00000210: 7757 83bb ed10 fd3b 79b1 00bd c239 e7bc
00000220: c0da d2bc c04d e1bc 2c70 09bd d6fe f4bc
00000230: 1d79 5d3b b821 03bc a305 2e3b 2395 823c
00000240: a112 2cba fdd4 2b3c 051a fa3c 19b9 953c
00000250: 8244 e93c 6f85 703c 2ab8 673b 76df 0c3d
00000260: 8b54 603d 81cd c4bc b9c1 73bd e441 9abb
00000270: d6ac 60bb ccd7 bcbc 38b1 87bd 68e9 21bd
00000280: 99d1 163c 325b 03bc 7a24 1cbc db96 6abd
00000290: c1bb 70ba 75c2 593d 8d05 a13c d5ed 57bd
000002a0: 3221 da3b 889c 213c baeb 333d 550f 2b3d
000002b0: cd0c 2bbd acbf 983c b3f1 9c3d 6a14 a6bc
000002c0: 2b48 f0bc 9a96 3a3c fd94 9fbc 10a6 05bd
000002d0: 1f13 04bd 6be7 6b3c 3b27 ad3c 76be c5bc
000002e0: 428b b03c f0fe a93a a70f 133d a2d1 5b3c
000002f0: f198 15bc c1fd 5abc 1478 b13c f3a0 3fbb
00000300: fb7b 5dbc 961e 443c c5eb 0e3d 4470 ec3c
00000310: fba6 003c 4cfa 143c 3401 523d a0f6 d33d
00000320: f0c8 143d a639 64bd d6bc 10bd 2772 b5bc
00000330: 5a4b 45bd 271e 52bc 890f 00bd 94d2 2fbd
00000340: e55f a8bb f674 953c c972 c3bd 8bc7 0cbd
00000350: 99f0 9abd 93f4 4ebd 9897 cc3d 12e1 15be
00000360: c6aa e5bd 278c aabd 6b07 4abd 7bd8 b53d
00000370: 0d56 73bd 1b4f 8ebd 83d0 5abd 2cbc 553d
00000380: 3f18 193e 98c2 903c 2f55 8fbb daf0 76bb
00000390: 4c5d 11bd 33a8 cebc 6080 3c3d ec86 763b
000003a0: b41e abbc a685 7abd 8995 243d 8512 94bd
000003b0: 06f5 44bd f626 8fbd 0a47 67bd 2533 8b3d
000003c0: d64f d7bd 7059 a7bd dc2e b1bc 2c51 533d
000003d0: 3a4b 843d 7752 c4bd d28d 1cbd c367 d1bc
000003e0: 2859 843e cfbd 1d3d b440 893d f3a5 c7bc
000003f0: 7ddd 5cbd 4cfc 98bd af0b fabd e1dd 6c3d
-0.022495521 -0.038206365 0.01454755 -0.011049721 0.03023823 0.005610632 -0.010684121 0.025975998
-0.0076178564 0.010717207 -0.0033975735 -0.006761855 -0.007101697 -0.019620575 0.0019343601 -0.044225577
-0.021126017 -0.034668613 -0.033064727 -0.00012692032 0.0016546006 0.017298514 0.020344283 0.037760735
0.050098587 -0.12078036 -0.019675085 0.054318435 0.002609103 -0.022177612 -0.0026408085 -0.03984086
0.058977786 0.040989015 0.0031098372 -0.06480824 -0.08355343 -0.0005109262 -0.01694816 -0.0066507375
-0.088280216 -0.07809217 -0.018588372 -0.0118710045 -0.010342456 -0.0491804 -0.014624408 0.007407501
0.00037868315 -0.026144197 0.01675612 0.008499912 0.022703148 0.02922215 0.014912504 -0.029090527
-0.013392842 -0.015951406 -0.013790617 0.01087318 -0.03081241 -0.000771497 -0.008461598 0.010274902
0.011901894 -0.04391279 -0.0040829456 -0.033295255 0.034142386 0.06356114 -0.0034414956 0.011936813
0.020324329 0.05207818 0.16244978 0.02156201 -0.027198931 -0.00488685 -0.0059093507 0.029893432
0.009827715 0.004161356 -0.036880855 -0.009083665 0.015172374 -0.011227744 0.007903783 0.0035641354
0.024581667 0.015676606 -0.005856343 -0.035316836 -0.012804148 -0.007496255 -0.027222473 -0.031988606
-0.04616383 -0.052222066 -0.12221512 -0.17025912 0.0029564032 0.011634752 0.008335463 -0.01683807
-0.04478752 0.018567914 0.006193181 -0.004491863 0.0077968994 -0.047494322 0.033222094 0.024204575
0.0036812231 -0.0014799765 -0.032003704 -0.0028058793 0.018985702 -0.047687408 -0.032794062 -0.024879998
0.060084745 0.011463141 0.03682128 0.04555902 0.061752938 0.005365421 0.012419215 0.00097123743
0.018415928 -0.018522628 0.002514176 0.008276732 -0.0040082294 0.007722965 -0.03141925 -0.028225783
-0.025739074 -0.027502894 -0.03355424 -0.029906671 0.0033794113 -0.008003645 0.0026553653 0.015940255
-0.0006564055 0.010487792 0.030529985 0.018276738 0.02847505 0.014680251 0.0035357573 0.034392796
0.054768126 -0.024023773 -0.05951092 -0.004707562 -0.0034282706 -0.023052119 -0.06625599 -0.039529234
0.009205245 -0.008017348 -0.009530181 -0.057272773 -0.0009183251 0.053163964 0.019655967 -0.05271705
0.006656789 0.00986398 0.04392598 0.04176267 -0.041760255 0.018646084 0.07663288 -0.020273406
-0.029331287 0.011388445 -0.019480223 -0.032629073 -0.032244798 0.014398436 0.02113687 -0.02413867
0.021550778 0.0012969654 0.0359036 0.01341668 -0.009130702 -0.013366164 0.021663703 -0.002924022
-0.013518329 0.011970183 0.034892816 0.028862126 0.007852311 0.009092879 0.05127068 0.10349774
0.03632444 -0.05571904 -0.035336338 -0.022149159 -0.048167564 -0.012824572 -0.031264815 -0.042925432
-0.0051383846 0.018244248 -0.09543378 -0.034369987 -0.075654216 -0.050526213 0.09989852 -0.14636639
-0.11214213 -0.08327513 -0.04932348 0.08879181 -0.059408236 -0.06948682 -0.05342151 0.052181408
0.14950655 0.017670915 -0.0043741683 -0.003768018 -0.035489365 -0.025226688 0.046020865 0.003761704
-0.020888664 -0.061162613 0.04018167 -0.07230095 -0.048085235 -0.06989853 -0.056464233 0.067968644
-0.10513274 -0.08171356 -0.02162879 0.051591083 0.06459661 -0.095860414 -0.038221188 -0.025562173
0.2584927 0.038511094 0.06701794 -0.024371123 -0.053922165 -0.07469997 -0.1220926 0.057828788

conv2.bias f4 [32]
00000000: 4d51 b73b cb35 09bd eee0 473c 8830 b7bc
00000010: 4e97 773c 62a9 8bbc fb4b b8bc 8c2f 973c
00000020: 9618 4dbc d0a8 9bbc b959 cbbc 7c9d 683c
00000030: 876b 3fbc f8fd 7bbc 87da 833c 211e edbc
00000040: 45f4 d3bc 17ba 6bbc 3474 f63a 13f6 6dbd
00000050: cc55 4d3d d180 0dbc 1dba 30bc a30e 883b
00000060: dac4 92bc 9325 25bc 4810 9cbc ec84 a43c
00000070: 4d37 dfbc d16b 7c3b 1fb5 a63c 8c0f dbbc
0.0055944086 -0.033498567 0.0121996235 -0.022362009 0.015111757 -0.017048541 -0.022497168 0.01845529
-0.012518069 -0.019001395 -0.024823057 0.014197703 -0.011683351 -0.015380375 0.016095413 -0.02894503
-0.025873313 -0.014387629 0.0018802942 -0.058096003 0.05013065 -0.008636669 -0.01078656 0.0041521355
-0.017916132 -0.010079759 -0.019050732 0.020082913 -0.02724805 0.0038516412 0.020350037 -0.026740812

conv3.weight f4 [1, 32, 5, 5]
00000000: c6d0 48bd c55d 88bc 3750 b9bc 5423 febc
00000010: 932b 7e3b b314 bf3b f0db e8bc e7a9 58bd
00000020: 8bf8 38bc 6432 883c 7757 a03c 0018 3abd
00000030: c896 2bbd 86cf aaba 2408 153c a5f0 b8bb
00000040: 575a c3bc 15dc ebbc c643 64bc ca1a 913c
00000050: 1fe5 8d3d a21f 663d 9503 493d 1aab 243d
00000060: a68d f63d 693a 27bd 1482 ddbc 4674 34bd
00000070: 28f5 10bc 6385 24bb 6c74 27bd 8a75 59bd
00000080: bef9 c0bc 23f6 60bc 5c86 02bd 601e 05bd
00000090: d3eb 62bc b2d0 25bd b0cd d7bc 2b3c 63bc
000000a0: ff0d 24bd 39d9 413c 9e23 1ebd b5ae 4ebc
000000b0: ece2 b7bc 8382 cebb 490b 6bbd cc61 8dbc
000000c0: eb50 e3bc 481a 69ba c674 153d 22ce 73bc
000000d0: 8eed d33b 559d 073d 5ed7 0c3d 35f6 0cbc
000000e0: 5a78 8d3c 7c85 a5bc 9691 64bc 2536 d9bc
000000f0: 2b0d 553c 3dbb ecbc dbe3 84bc e19e 6dbc
00000100: b468 9a3b 49e4 ae3b 252b debb c432 dfbc
00000110: d7c8 a1bb cb03 8e3c 1dcf 4e3c f3a6 8cbc
00000120: 964c b5bb d63f 03bd 2cab 9b3c 8ea1 01bd
00000130: df11 b0bc 3b02 5fbd 89ce 4bbd f4c9 d1bc
00000140: 1c82 36bc f6ff c53c 3ee8 ae3c caa4 54bc
00000150: bdb4 e93c 1129 b0bb 262f 95bc 842b 863c
00000160: 196f b0bb 2ad7 063d 8e8a 2e3c 50b5 4e3c
00000170: 2cc9 bcbc 4f69 07bc 69f2 1f3d 9984 453d
00000180: 1a13 d43c 4089 8f3b 05ee 173d 7f6d a63d
00000190: c608 9cbd dc22 20bd aa42 babc 3b14 49bc
000001a0: 021b 8abd 0183 11bb b4fc 96bb fb0b 203d
000001b0: c28b a5bc 7c0f 95bc 1392 d6bc 8882 60bb
000001c0: 09e8 933c 7a06 8bba 27e0 643c 7e95 b6bc
000001d0: 7e70 a73c fcba 0cbc d70a 51bc c16e 103c
000001e0: 3929 59bc d32b 143d 323f f93c c871 a43b
000001f0: bd36 483c e4ab debd 1f84 a8bd 2edd 32bd
00000200: 5a3b 6abd 7e3b 84bd f45e 0abd c365 0cbd
00000210: e530 09bd 26d2 06bd d3fe 02bd 5236 a5bd
00000220: b24c a5bc 38fd 6abd a1e2 3d3b 36ad 8abd
00000230: bc2a 63bd e9b5 efbb ce2a 0bbd 0a22 13bd
00000240: 85e8 6dbc 1950 a5bd 30e6 5cbd f107 37bd
00000250: c5e6 56bc 7624 12bd 418f 2b3d c8b9 e9bb
00000260: 0fa6 c4bb cf8b 183d 8c59 f53c 7b6e 19bc
00000270: ffa6 20bb 5c5b 3ebc ed12 013b eb4e 083d
00000280: 279f e9bc b3fd ee3b 62d7 3cbb c26f f0bb
00000290: c064 2a3c 129f e23c 671f 92bc 856c 06bc
000002a0: f85e 8f3b f9d3 2f3c 40e9 823c 7df6 f03c
000002b0: a8ac 723c 431d ca3c 3efb ed3b 0979 983d
000002c0: 482b 8e3d 2558 ab3c fcfe ed3b f861 263d
000002d0: be21 a53d 6b7e a63c 4f1c b83c 42bc 8b3c
000002e0: 72f0 ff3c 2cd7 7e3d bfca 20bc 47ec 143d
000002f0: 6ce2 32bc fa0a 7cbb 5477 003d b95b 013d
00000300: 6443 073d b180 663b 8db8 453c 11d0 c63c
00000310: 9f09 b73c 5b88 983c ff15 8d3b d319 2b3d
00000320: eb29 363d d660 2a3d 0083 433d e8d1 123d
00000330: 58f2 963d cb66 caba 5491 203d 1f3e 1a3b
00000340: 25be c73c 32fd 683d 90dd 8f3c 1364 c53c
00000350: afa7 2c3d 92fb a63b 1220 9d3c 82e3 ae3c
00000360: 3daf 3c3c 4530 dd3c 85b8 a43c 3d9e ec3b
00000370: 6279 ee3c 6fc3 573c 141a f83c c508 7fbc
00000380: 0690 b73c c96b 203d 6e18 d53c 881d ba3c
00000390: 720b 453d e245 113d b2c3 263d f41f c53c
000003a0: e16e 0e3c 0985 b53c bbc3 113d fa58 43bb
000003b0: 601d 06bb fcbb 833c 053d 0d3d f534 b93c
000003c0: 6dba 013d 96ce 273d 4008 c53c 32f8 893b
000003d0: 7603 2d3d 60b3 443d 37ef 583d 9999 1c3d
000003e0: b5d4 133d 2af7 903d fe92 df3c 7fd1 b9bb
000003f0: 2e5d 6e3c f1ee 62bb 97cb 293d ef30 1a3b
-0.049027227 -0.016646275 -0.022621257 -0.031022705 0.0038783296 0.005831325 -0.028425187 -0.052896407
-0.011289726 0.01662559 0.019572956 -0.045433044 -0.041891843 -0.0013031818 0.009096179 -0.0056439214
-0.023846788 -0.028791467 -0.013932174 0.01771297 0.06928467 0.05618251 0.04907568 0.040202238
0.12038736 -0.04082719 -0.027039565 -0.0440562 -0.008847512 -0.0025103919 -0.040882513 -0.05309061
-0.023556586 -0.013730559 -0.031866416 -0.03249967 -0.01385017 -0.04048223 -0.026343197 -0.013869326
-0.04005241 0.011831575 -0.038608186 -0.012614896 -0.022447072 -0.0063021793 -0.05738381 -0.017258547
-0.027748546 -0.0008892161 0.036488317 -0.014880689 0.0064675277 0.033109028 0.034385078 -0.008603622
0.017269302 -0.020205252 -0.013950726 -0.026515076 0.013003628 -0.028897876 -0.016221931 -0.014503212
0.0047121886 0.0053372723 -0.0067800456 -0.027245887 -0.004937272 0.017335793 0.012622622 -0.017169451
-0.0055328114 -0.0320433 0.01900252 -0.03164821 -0.021492897 -0.054445487 -0.049757514 -0.025608994
-0.011139419 0.024169903 0.021350976 -0.012978742 0.028528566 -0.0053759892 -0.018210959 0.016378172
-0.0053843376 0.03292004 0.010653151 0.01261647 -0.023045145 -0.008264854 0.03904954 0.048222158
0.025888015 0.004380375 0.037092227 0.081263535 -0.07618861 -0.039095744 -0.022736866 -0.01227289
-0.067434326 -0.0022203329 -0.0046077613 0.039073925 -0.020208243 -0.01819586 -0.0261927 -0.003425749
0.018054979 -0.0010606789 0.013969458 -0.02228808 0.020439383 -0.008589502 -0.012758932 0.008815468
-0.013254457 0.036174607 0.030425642 0.0050184466 0.012220082 -0.10872629 -0.08228325 -0.043667965
-0.05718551 -0.0645666 -0.03378196 -0.034276735 -0.033493895 -0.032915257 -0.0319813 -0.080670014
-0.020178173 -0.057370394 0.0028974193 -0.067713186 -0.055460677 -0.0073153866 -0.03397637 -0.035921134
-0.014520769 -0.08071918 -0.05393046 -0.044685308 -0.013116543 -0.035679303 0.041884664 -0.0071327426
-0.006001241 0.037242707 0.029949926 -0.0093647195 -0.00245136 -0.011618461 0.0019695119 0.033278387
-0.028518273 0.007293427 -0.0028814902 -0.0073375413 0.010399997 0.027663741 -0.01783724 -0.008204584
0.004375335 0.010731691 0.015980363 0.02941441 0.014811672 0.024672156 0.0072626164 0.074449606
0.06941849 0.020916054 0.0072630625 0.040620774 0.080630764 0.020323953 0.022474436 0.017057542
0.031242583 0.062216923 -0.009813963 0.036358144 -0.010918241 -0.003845869 0.0313638 0.031581614
0.033023253 0.003517192 0.012067926 0.024269136 0.022343455 0.018619707 0.0043056007 0.041772675
0.04447357 0.041596256 0.047732353 0.035844713 0.07370442 -0.0015442012 0.039201096 0.0023535562
0.02438266 0.05688209 0.017561704 0.02409557 0.042152103 0.0050959075 0.019180331 0.021348719
0.011516389 0.027000556 0.020107517 0.007221012 0.029110614 0.013169154 0.030285873 -0.015566056
0.022407543 0.039165292 0.026012626 0.02271916 0.04810662 0.035467036 0.040713973 0.024063088
0.008693428 0.022158163 0.035587054 -0.0029807673 -0.0020464286 0.016080849 0.03448202 0.02260826
0.03167193 0.0409685 0.024051785 0.0042104954 0.04223963 0.048022628 0.052962508 0.03823242
0.036091525 0.07078393 0.027291771 -0.005670726 0.014548583 -0.0034627283 0.041453924 0.0023527702

exp_avg f4 [64, 1, 9, 9]
00000000: b253 f3b9 3776 f9b9 0d17 e4b9 9983 bfb9
00000010: 06b7 aeb9 631f 96b9 1b9c 96b9 2cba a2b9
00000020: 7e8d b5b9 482e ffb9 2c21 05ba 830a e8b9
00000030: ecd2 c6b9 1b3e b8b9 6ae5 a2b9 40b4 a5b9
00000040: 9093 b4b9 ba92 bdb9 dd00 e8b9 c543 efb9
00000050: f266 d9b9 0fe6 d5b9 8ae3 bbb9 204f acb9
00000060: f6a2 aeb9 c54a c4b9 15d3 cfb9 0164 eeb9
00000070: 9378 fcb9 9dfd c8b9 d605 cab9 f1d6 b8b9
00000080: f614 a2b9 0d00 abb9 98aa d1b9 ba9c deb9
00000090: dec6 e8b9 a1a3 f4b9 31d8 d8b9 935e adb9
000000a0: 6155 8db9 112f 7ab9 df1e 8bb9 9029 b5b9
000000b0: 1a70 d1b9 0849 deb9 34ba d9b9 d567 c2b9
000000c0: a617 9db9 5ee1 65b9 c51d 45b9 0ab6 5ab9
000000d0: e423 99b9 86ba b1b9 edbf e3b9 f793 dcb9
000000e0: 240d c9b9 c9f1 9bb9 0799 66b9 a71d 4eb9
000000f0: 0695 75b9 a55d 98b9 c952 bcb9 73a0 bcb9
00000100: b3eb d6b9 6d92 c6b9 06f6 b1b9 c87a a5b9
00000110: 03b6 a6b9 674f acb9 5e74 bfb9 442a d8b9
00000120: 9908 cbb9 2a10 e5b9 0dd6 e1b9 a8ec d3b9
00000130: 95e6 d2b9 f80c d2b9 88d9 d9b9 c336 e7b9
00000140: f278 e9b9 0513 3c3a 9357 563a 9cb8 693a
00000150: 43e0 813a 8890 893a 8c49 783a b7e4 673a
00000160: 002d 683a 43df 483a 03e9 4c3a 4941 613a
00000170: 1c01 893a 764b 903a 3ed9 9a3a 22a5 943a
00000180: b94b 853a d85b 723a 6850 5b3a 3abd 523a
00000190: 4d86 773a 7d0a 8b3a d772 a33a 2d38 aa3a
000001a0: 2913 963a c6e8 883a 5e0b 633a 305e 543a
000001b0: 7664 583a eae7 713a a358 843a 3e27 a03a
000001c0: 7e97 a13a c60d 903a d372 7b3a 6994 6b3a
000001d0: ee60 493a 1f49 503a 9433 6b3a d50e 7b3a
000001e0: 4916 9a3a f5b4 a03a 0626 8f3a e1fc 7b3a
000001f0: 794f 6a3a 8122 383a f8a5 503a 1e7e 5d3a
00000200: dff0 813a ea6a 7c3a 5d92 853a c03c 863a
00000210: 8144 5d3a 567d 393a 550d 2c3a 1190 433a
00000220: 5477 693a 31fa 593a a7cf 6d3a 929e 663a
00000230: c6c9 673a 23f0 513a 7b3a 353a 2319 0f3a
00000240: 1a4b 393a 2186 503a 6d68 493a e932 453a
00000250: ba23 573a f8b7 3f3a bb11 293a 19d4 1c3a
00000260: 4f13 f639 3065 453a 246b 443a decd 4f3a
00000270: 6f57 423a ec00 363a f17b 1d3a b3c4 103a
00000280: ba25 ff39 fff3 e539 0815 5bbb 4867 5cbb
00000290: c5eb 63bb 8f6b 56bb 054f 4cbb a886 3bbb
000002a0: d7b3 27bb 686f 12bb a619 fbba 0661 67bb
000002b0: 6726 6bbb 187d 6ebb 637b 5bbb 68a7 4bbb
000002c0: b43c 35bb 75c4 1dbb f470 06bb 97a0 e8ba
000002d0: 7e8c 6fbb 76a4 78bb ce4d 70bb 28bb 5fbb
000002e0: abc2 49bb 8cb3 2cbb 5aa9 19bb 9189 09bb
000002f0: 577d ecba 4eab 72bb 2b03 74bb 1fab 6cbb
00000300: 1312 57bb 12e0 38bb 66b0 24bb 856a 08bb
00000310: 5b48 02bb 1342 edba aa79 69bb 5a42 6dbb
00000320: 2475 61bb 558e 42bb ef5c 24bb ba58 09bb
00000330: ab2f 00bb 377a e9ba bf7e dcba c45a 5fbb
00000340: c480 58bb 0374 47bb 3738 2ebb 91a7 0dbb
00000350: f999 03bb 71c7 e8ba 7994 f7ba 1cc5 eeba
00000360: 45b7 47bb 6cda 39bb 7022 2abb 3938 11bb
00000370: 19d4 f6ba 39f3 ecba b481 f1ba 98b9 f9ba
00000380: 85c1 f4ba 5d81 31bb a6ec 1dbb 8e4f 13bb
00000390: ec0d 05bb c989 e9ba 557f e5ba c3e0 f0ba
000003a0: 834c 01bb 4550 ebba a576 1ebb 314f 10bb
000003b0: 13e6 07bb 60ab fcba 3787 ecba e51b f1ba
000003c0: 048c f4ba 1f05 feba ada8 f3ba 0128 5e3b
000003d0: 5dd4 5d3b c5e1 763b 2b09 7d3b 511a 883b
000003e0: 7ca4 863b 7aba 853b 6d43 863b daff 803b
000003f0: 7775 623b 3125 6c3b 2954 7a3b 2407 8c3b
-0.0004641093 -0.00047581058 -0.00043504723 -0.00036528407 -0.0003332423 -0.00028633614 -0.00028726537 -0.00031037757
-0.0003462843 -0.00048671872 -0.00050784904 -0.0004425832 -0.00037922652 -0.00035141487 -0.00031069975 -0.0003160555
-0.00034442218 -0.0003615821 -0.00044251131 -0.00045636125 -0.00041466166 -0.00040797933 -0.0003583695 -0.0003286535
-0.00033309282 -0.0003743974 -0.00039639385 -0.00045469406 -0.0004815502 -0.0003833593 -0.0003853279 -0.0003525536
-0.00030914665 -0.000326157 -0.0003999069 -0.0004245991 -0.00044398656 -0.0004666122 -0.00041359806 -0.00033067595
-0.00026957228 -0.00023859392 -0.00026535147 -0.00034553977 -0.0003994711 -0.00042397552 -0.00041528197 -0.00037079924
-0.00029962993 -0.00021923098 -0.00018798474 -0.00020857915 -0.00029209175 -0.00033899042 -0.0004343981 -0.00042071912
-0.00038347498 -0.00029744048 -0.00021991516 -0.00019656737 -0.00023420536 -0.0002906147 -0.00035919834 -0.00035977698
-0.0004099287 -0.000378746 -0.00033943373 -0.00031562732 -0.00031797597 -0.00032865556 -0.0003651706 -0.0004123022
-0.00038725583 -0.00043690327 -0.00043074824 -0.0004042138 -0.00040226118 -0.00040063984 -0.0004155154 -0.00044100554
-0.00044531334 0.0007174465 0.0008176502 0.00089157536 0.0009908754 0.0010495344 0.00094714086 0.0008846032
0.0008856803 0.0007662663 0.0007816704 0.0008592797 0.0010452601 0.0011008817 0.0011814011 0.0011340717
0.0010169662 0.0009245253 0.00083661685 0.0008039061 0.00094423146 0.0010607984 0.0012470138 0.0012986712
0.0011449802 0.0010445348 0.00086610566 0.0008101193 0.0008254716 0.00092279783 0.0010097217 0.0012218726
0.0012328473 0.0010990433 0.0009592 0.00089866534 0.0007681985 0.0007945466 0.00089722243 0.00095771
0.0011755909 0.0012260961 0.0010921366 0.0009612572 0.0008938234 0.00070241845 0.00079593016 0.0008449274
0.0009913704 0.00096289685 0.0010190714 0.0010241494 0.0008440689 0.00070758665 0.0006563266 0.0007460127
0.0008906026 0.00083151745 0.0009071775 0.00087974325 0.0008842017 0.00080085004 0.00069133163 0.0005458763
0.0007068381 0.0007954557 0.0007683102 0.000752254 0.0008206923 0.0007313485 0.00064494804 0.0005982533
0.00046935162 0.0007530032 0.0007492772 0.00079271 0.00074135413 0.00069428864 0.00060075434 0.00055224745
0.000486655 0.00043860075 -0.0033429284 -0.0033630896 -0.003477798 -0.0032717919 -0.003117503 -0.0028614197
-0.002558937 -0.0022344235 -0.0019157424 -0.0035305633 -0.0035881044 -0.003639048 -0.0033490292 -0.0031075124
-0.002765459 -0.0024073396 -0.0020514103 -0.0017748055 -0.0036552246 -0.0037939823 -0.003666747 -0.0034138653
-0.0030786197 -0.0026352135 -0.0023446889 -0.0020986537 -0.0018042725 -0.0037028375 -0.0037233334 -0.0036112738
-0.003281717 -0.0028209728 -0.0025129556 -0.0020815444 -0.0019879553 -0.0018101357 -0.0035625496 -0.0036202879
-0.0034402097 -0.0029686887 -0.0025079807 -0.0020957426 -0.0019559662 -0.0017812912 -0.0016822441 -0.00340812
-0.0033035735 -0.0030434139 -0.00265838 -0.002161477 -0.0020080789 -0.0017759633 -0.0018888853 -0.0018216702
-0.0030474227 -0.002835895 -0.0025960468 -0.0022158755 -0.001883152 -0.0018077857 -0.0018425495 -0.0019052504
-0.0018673396 -0.0027085163 -0.0024097352 -0.0022477838 -0.0020302488 -0.0017817552 -0.0017509261 -0.0018377531
-0.0019729442 -0.0017952999 -0.0024179604 -0.0022019858 -0.00207365 -0.0019277148 -0.0018045668 -0.0018395154
-0.001865745 -0.0019380188 -0.0018589698 0.0033898356 0.0033848502 0.003767119 0.00386102 0.004153528
0.0041089635 0.0040810676 0.0040973932 0.00393675 0.0034554878 0.003603291 0.0038197136 0.004273312

exp_avg_sq f4 [64, 1, 9, 9]
00000000: 9f4a 5a37 83a8 5037 6dc1 4737 138c 3737
00000010: 4f30 3537 9d1e 3337 94ac 3637 3caf 4137
00000020: 2bdf 4d37 105a 6537 f3dc 5d37 cb55 5637
00000030: 1e97 4537 204a 3b37 2dc4 3837 2f86 3637
00000040: 0279 3837 3843 4437 2d3d 7937 5272 7637
00000050: 0c60 6d37 bb03 6237 8888 5037 1dac 4137
00000060: b83c 3937 2307 3737 182d 3e37 790e 8737
00000070: 0a99 8e37 4119 8b37 91ba 7e37 8315 6937
00000080: 0cab 5037 7001 4237 5bc5 3737 dcf2 3c37
00000090: 6bfa 9637 0b7f 9d37 e2ea a037 06b0 9437
000000a0: e033 8137 1562 6137 2612 4637 e14c 3a37
000000b0: c2e6 3a37 921b a337 664b ab37 1666 b037
000000c0: 17a3 9f37 f5e1 8f37 fe72 7437 68cb 5437
000000d0: 2cde 4137 972c 3f37 3bec a637 08d9 b337
000000e0: 8a10 b437 bbdc a737 8924 9737 8429 7e37
000000f0: 96e9 5f37 6d03 4f37 dd5e 4837 dda3 a137
00000100: dff8 aa37 d89a ab37 047f a337 d8c5 9137
00000110: 4f9d 8337 3fd3 6637 04e8 5b37 ca9d 5337
00000120: 2cae 9837 2016 9a37 7b90 9c37 3a85 9837
00000130: 919b 9137 3969 8437 c905 7437 6fcd 6a37
00000140: 6fc5 5f37 260d 0b37 4a2a 1437 ae26 1c37
00000150: 4133 2737 1f5e 2d37 6939 1e37 6277 1037
00000160: 8be2 1637 3595 0e37 11d6 1037 4f41 1937
00000170: 404c 3037 6bc4 2f37 4db7 4137 4a6d 3537
00000180: e4d0 2537 0915 1937 8f30 1737 9e33 1337
00000190: b82a 2037 a2f0 3137 eed8 5237 d849 5437
000001a0: 2061 3537 e008 2837 2e81 1337 51ac 1037
000001b0: 21ed 1137 bba6 1b37 480a 2837 34d5 5437
000001c0: 04d2 5337 7b4f 3637 8023 2237 dedd 1837
000001d0: 5be6 0d37 bf95 0a37 7a9e 1437 fa15 2137
000001e0: 215d 4437 c733 5637 7fab 3c37 523d 2837
000001f0: a84a 2537 5329 0f37 4227 0a37 81d5 0c37
00000200: 7466 2137 963c 2437 3fc9 2a37 93cd 3537
00000210: 4031 2237 9d49 1737 e7c7 1537 8d83 0737
00000220: c913 1337 6bd2 1437 63ad 1c37 58bd 1e37
00000230: d2ce 2737 1eb1 2437 a114 2037 8887 1737
00000240: 7ff5 0137 988c 0b37 72a9 0937 ce06 0c37
00000250: e78d 1b37 4756 1a37 4d2b 1a37 7d7d 1e37
00000260: 911b 1837 094d 0737 52c1 0737 42e1 0d37
00000270: 2d90 0d37 d332 0b37 4c48 0b37 3ee4 1637
00000280: 953c 1937 65df 1b37 4828 1839 568a 1c39
00000290: 13d8 1e39 9db4 1939 5360 1139 b6f8 0939
000002a0: debb 0439 50d2 0139 c83c 0139 9ccf 1f39
000002b0: 258b 2639 8847 2839 2b76 1f39 69b8 1339
000002c0: 5a09 0a39 2195 0639 58ed 0539 f427 0539
000002d0: 5fea 2539 b119 2e39 8cde 2b39 bf5c 2039
000002e0: ce5c 1239 96b9 0839 8412 0839 e313 0a39
000002f0: 2c3c 0a39 7854 2639 a4ae 2b39 8297 2739
00000300: da05 1939 efa1 0b39 b675 0739 d411 0d39
00000310: 084d 1239 d190 1139 a8bd 2039 4af6 2239
00000320: 1d7e 1a39 ab22 0c39 2ef7 0339 2641 0839
00000330: 566d 1339 6227 1c39 d908 1a39 3919 1639
00000340: 2fb9 1339 b4fc 0939 5623 0039 14e2 ff38
00000350: f0d8 0839 89f8 1939 64a9 1e39 4854 1c39
00000360: 97d1 0839 ecc3 0439 bd0e fb38 0af7 f338
00000370: a4a3 fe38 9dc3 0d39 4ba7 1839 9918 2039
00000380: c623 1c39 6e0b fe38 0dbb f638 54d6 ee38
00000390: 2d0d ee38 7c2c 0039 632d 0d39 9526 1739
000003a0: 1293 1a39 49ce 1939 e003 f438 0b27 f038
000003b0: af13 ec38 221a f038 27c5 fc38 df7d 0639
000003c0: e52e 1139 8cab 1339 c83e 1039 059d 2b39
000003d0: 2d19 2039 e5d7 2c39 db70 2f39 91dd 2b39
000003e0: 5a90 2239 bd85 1f39 ea22 2139 4e42 1a39
000003f0: e9cf 2839 8f74 2639 40de 2939 cdd1 3239
1.3011187e-05 1.2437001e-05 1.190636e-05 1.0940264e-05 1.0799688e-05 1.0676359e-05 1.0888227e-05 1.1544496e-05
1.22709125e-05 1.3670433e-05 1.322407e-05 1.2775369e-05 1.17773e-05 1.1163327e-05 1.101293e-05 1.0879287e-05
1.0995429e-05 1.1698161e-05 1.48558e-05 1.468936e-05 1.41486635e-05 1.3471518e-05 1.2429555e-05 1.154377e-05
1.10409965e-05 1.0909312e-05 1.1335382e-05 1.6099993e-05 1.6998983e-05 1.6581851e-05 1.5183018e-05 1.3892891e-05
1.2437591e-05 1.1563636e-05 1.09536e-05 1.1262218e-05 1.7998003e-05 1.8775017e-05 1.9182862e-05 1.7724942e-05
1.5402155e-05 1.3433882e-05 1.1805945e-05 1.1104364e-05 1.1140191e-05 1.9443953e-05 2.0419899e-05 2.1028372e-05
1.9030222e-05 1.7152148e-05 1.4570307e-05 1.2683544e-05 1.1555425e-05 1.1394869e-05 1.9898745e-05 2.1439526e-05
2.1465374e-05 2.0010737e-05 1.8017616e-05 1.5149246e-05 1.3346222e-05 1.2338959e-05 1.1943016e-05 1.9269e-05
2.0381469e-05 2.0456893e-05 1.949026e-05 1.7377475e-05 1.568967e-05 1.3758253e-05 1.3107438e-05 1.2613318e-05
1.8200917e-05 1.8368533e-05 1.8663928e-05 1.818185e-05 1.7357788e-05 1.5784624e-05 1.454488e-05 1.3995318e-05
1.3337804e-05 8.288107e-06 8.831334e-06 9.30733e-06 9.965909e-06 1.0333518e-05 9.430901e-06 8.610865e-06
8.993443e-06 8.4985995e-06 8.63291e-06 9.1347165e-06 1.0508171e-05 1.0476545e-05 1.15463745e-05 1.0813887e-05
9.8834025e-06 9.124408e-06 9.011607e-06 8.773901e-06 9.546689e-06 1.0606049e-05 1.2567483e-05 1.2653378e-05
1.0811054e-05 1.0015647e-05 8.79196e-06 8.623189e-06 8.697884e-06 9.27754e-06 1.0015974e-05 1.2685825e-05
1.2625478e-05 1.0866551e-05 9.664218e-06 9.1115635e-06 8.457889e-06 8.2603065e-06 8.858386e-06 9.601465e-06
1.1704194e-05 1.2767449e-05 1.1245603e-05 1.0027858e-05 9.852149e-06 8.533086e-06 8.234581e-06 8.3943605e-06
9.620202e-06 9.789268e-06 1.0179646e-05 1.0836305e-05 9.667419e-06 9.017441e-06 8.9276355e-06 8.077256e-06
8.766489e-06 8.870479e-06 9.338694e-06 9.461619e-06 1.000213e-05 9.8164e-06 9.541546e-06 9.031857e-06
7.746158e-06 8.31778e-06 8.205288e-06 8.346235e-06 9.271759e-06 9.199203e-06 9.189197e-06 9.446751e-06
9.066324e-06 8.064563e-06 8.091638e-06 8.456702e-06 8.437823e-06 8.296879e-06 8.301879e-06 8.9938385e-06
9.133616e-06 9.290733e-06 0.00014510856 0.00014928853 0.00015148548 0.00014658501 0.00013864161 0.0001315799
0.00012658487 0.00012380746 0.00012325041 0.00015240762 0.00015882829 0.00016048376 0.00015207443 0.0001408771
0.0001316419 0.0001283479 0.00012772286 0.00012698752 0.00015822936 0.00016603504 0.00016390736 0.0001529334
0.00013958217 0.00013039107 0.00012976868 0.00013168114 0.00013183121 0.0001586246 0.0001637289 0.00015982802
0.00014593397 0.00013316398 0.00012918454 0.0001345345 0.00013952341 0.00013882226 0.00015329442 0.00015541274
0.00014733565 0.00013364355 0.00012585215 0.0001299424 0.00014059743 0.0001489199 0.0001468988 0.00014314511
0.00014087999 0.00013159477 0.00012220195 0.00012201458 0.00013050786 0.00014683804 0.00015131157 0.00014908717
0.00013048049 0.00012661488 0.00011971358 0.000116331576 0.00012142144 0.0001351968 0.00014558171 0.00015267952
0.00014890646 0.00012113793 0.00011765035 0.00011388646 0.000113511785 0.00012223603 0.00013463716 0.00014414855
0.00014741372 0.00014668064 0.000116355484 0.00011451364 0.00011257023 0.000114489594 0.00012053019 0.00012826126
0.00013845747 0.00014082919 0.00013756298 0.00016366325 0.00015268168 0.00016483625 0.00016731342 0.00016390371
0.00015503299 0.00015213243 0.00015367163 0.00014711285 0.00016099181 0.00015874415 0.0001619989 0.0001705356

exp_avg f4 [64]
00000000: d821 c3ba 29c4 0b3b f229 0cbc 246e 283c
00000010: b4b8 1bba 2632 7a3b 6323 cd3b 5c51 c6ba
00000020: 31ae 0f3c 2f36 4bba 76ce 6a3a 50ba 9a3a
00000030: 8034 d33a ca2d d73b 287f 7d3b b771 d43b
00000040: d143 dc3b ccf4 6cbb 8479 8b3b 8578 163c
00000050: 0400 0080 d5a6 b23b 9db5 40bc 5f08 983b
00000060: 2c53 9b3c 94b7 e13a 5104 91bb 43cf 943b
00000070: 7026 293b 03af ea3b be08 833b e13f a6ba
00000080: ff32 973c 25f9 e13b 7142 883a 1baa 703b
00000090: 6a00 503b 22ce b43a 841d ec3a d7bf ba3b
000000a0: 5826 01bc 93e8 11bb ebdb 703b c073 9a3c
000000b0: 6676 bf3a 65c5 05bc 9427 87bb 5930 063c
000000c0: 7fd4 96bb 1a7f 803a 9bcb 1bbb 30b9 073c
000000d0: 19ba 97ba a9be b03b 256c 4fbb 380e fcba
000000e0: 0495 b43b f659 f9bb 8982 b13b d80c 573a
000000f0: 8545 8a3b 089c 1b3b 40f2 853a f8ab 003b
-0.0014887406 0.0021326637 -0.008554922 0.010280166 -0.00059403037 0.0038176863 0.006260322 -0.0015130448
0.008769558 -0.00077519094 0.00089571567 0.0011804793 0.0016113669 0.006566738 0.0038680527 0.0064832824
0.0067219515 -0.0036156652 0.004256429 0.0091840075 -6e-45 0.005452017 -0.01176205 0.00463967
0.018960558 0.0017220848 -0.0044255634 0.004541309 0.0025810264 0.0071619763 0.003998845 -0.0012683832
0.018456934 0.0068961554 0.0010395778 0.0036722485 0.0031738528 0.0013794343 0.0018014167 0.0056991386
-0.007882677 -0.002226387 0.0036752175 0.018854022 0.0014607429 -0.008164738 -0.004124591 0.008190238
-0.004602968 0.0009803504 -0.0023772481 0.008283898 -0.0011575847 0.005393822 -0.0031650153 -0.0019230312
0.005510928 -0.007609601 0.0054171723 0.0008203513 0.004219713 0.0023744125 0.0010219291 0.0019633751

exp_avg_sq f4 [64]
00000000: 7e31 0439 8a9d 2e39 ac32 953a 13c6 063b
00000010: d235 ee3b 1658 d43a 7fb4 ae3a 1e99 043b
00000020: 2feb a83a df25 9b36 912f 103a 2a6e 723a
00000030: 21d0 c738 fc1e 3d3b 7489 ab39 d0a3 633c
00000040: da7d 283b c83c ba3c 2707 013a c57c 603c
00000050: 89c6 6119 e709 6d3b 3fec a33a 287a fe39
00000060: 123b 3f3b 6e47 b039 60bd 583a 1ed3 943a
00000070: 0bfd 403b 7dca 753c 5547 6a3a e2a1 713a
00000080: db7f 8a3b b5ac eb39 5104 8539 ddbf 133b
00000090: a3af 4c3c 22ce 4739 d1a9 1e3a 9a93 af39
000000a0: 1515 1f3b 70c3 333b e4a7 a338 e81c db3a
000000b0: 46f7 f938 1b97 d53b 22e1 153c d170 d139
000000c0: f3dc 703a cb73 0638 73d5 723c f3fd 9d3c
000000d0: f08c 2d39 2f92 0d3a 1e43 6939 2fe3 443a
000000e0: a2af ae39 8c01 b939 2a59 4e3a e436 4738
000000f0: d61a e23a 16c5 d637 ac9a 573a a4d8 6a3b
0.00012606938 0.00016652621 0.0011382899 0.0020564839 0.0072695995 0.0016200568 0.0013328939 0.0020232867
0.0012887473 4.6237687e-06 0.0005500252 0.0009247983 9.5278265e-05 0.002885758 0.00032718072 0.013894036
0.002570978 0.02273406 0.0004922025 0.013701622 1.1672321e-23 0.0036169232 0.001250632 0.0004853767
0.0029179496 0.00033622555 0.0008267965 0.0011354422 0.00294477 0.01500189 0.0008937021 0.0009217543
0.0042266673 0.0004495137 0.00025370953 0.002254478 0.012493047 0.0001905491 0.00060525263 0.00033488573
0.002427404 0.0027429722 7.803718e-05 0.0016716989 0.000119193035 0.0065182573 0.009147914 0.0003994764
0.00091881974 3.205593e-05 0.014821398 0.019286131 0.00016551069 0.0005400506 0.00022245615 0.00075106596
0.00033318723 0.00035287102 0.0007871563 4.7496418e-05 0.0017250429 2.5602563e-05 0.0008224647 0.0035834694

exp_avg f4 [32, 64, 5, 5]
00000000: 2ca1 92b8 bcd7 7db8 3f15 05b8 df36 6bb7
00000010: e706 efb6 14c0 a9b8 0663 a6b8 ae20 4bb8
00000020: e1d3 0ab8 7f90 85b7 fe72 8cb8 b588 92b8
00000030: 3862 6cb8 ac86 3cb8 a342 3cb8 fe9b 81b8
00000040: 0b5b 67b8 87c9 39b8 c2c9 6fb8 c777 93b8
00000050: 3524 12b8 110e 3eb8 5f88 45b8 714b 9fb8
00000060: 5865 97b8 d912 e035 09ab 8c34 718a 88b6
00000070: 103e a1b6 63f4 ddb6 78a5 adb6 764b 5eb7
00000080: e6b9 6eb7 7b1c 54b7 256a 27b7 662c 2eb7
00000090: 7c51 6fb7 1f7d 7fb7 d400 7db7 673f 4cb7
000000a0: baba 96b7 d4d4 9cb7 8353 96b7 5444 7eb7
000000b0: 4331 7ab7 0c1f 80b7 9f87 79b7 7ede 78b7
000000c0: 4706 84b7 56d3 4cb7 046b 2ab9 f87a 53b9
000000d0: 4ed3 89b9 2079 88b9 9272 87b9 fbb1 71b9
000000e0: e81f 87b9 0e6e 92b9 15b9 94b9 9b5f 84b9
000000f0: f1bb 80b9 3839 85b9 9f6f 8fb9 c8b4 83b9
00000100: 87eb 77b9 70ae 57b9 ee9b 52b9 71df 61b9
00000110: d418 3fb9 944d 29b9 74bf 47b9 33bb 28b9
00000120: 28ee 1ab9 e48e 18b9 4387 fcb8 ea82 5fb8
00000130: 3f20 8cb8 77dc 9db8 ef31 c0b8 15c4 ddb8
00000140: 5d17 75b8 4310 9db8 8b7b b6b8 0efe d5b8
00000150: c847 edb8 0770 86b8 bfe3 93b8 c384 b8b8
00000160: 941a d0b8 f863 d2b8 c908 82b8 bffd 94b8
00000170: d6a6 a1b8 3b54 a3b8 6b84 8bb8 124c 71b8
00000180: 6e65 6cb8 8b12 83b8 d905 70b8 4987 13b8
00000190: 58c0 b6b7 2cad b5b7 2cad acb7 f3a1 e1b7
000001a0: dec3 9db7 e93f a9b7 dcb9 a0b7 b9fa bcb7
000001b0: 9610 84b7 e47d 92b7 4b4c 62b7 4508 4eb7
000001c0: 3fab f2b6 f08e 59b7 799b c3b6 57fc bcb6
000001d0: 6c87 3eb6 fce2 9135 ebe4 e334 dede 7035
000001e0: f0ab 4c36 69d1 9636 2e79 a836 18e1 8d35
000001f0: ec3c 1536 07b5 35b9 8cf3 56b9 e36f 75b9
00000200: 00a2 82b9 1c13 86b9 b897 71b9 f4a2 92b9
00000210: 822d acb9 752e a4b9 ec15 a7b9 0e5c 83b9
00000220: 3c8e 98b9 3e34 adb9 97db adb9 300d acb9
00000230: 9a96 7cb9 f4e5 92b9 3e5b 99b9 8d62 98b9
00000240: 49de 8db9 1f3a 56b9 934e 6ab9 012c 76b9
00000250: c307 6cb9 a85b 6db9 7586 76b8 bd27 90b8
00000260: 7596 97b8 eaf0 a2b8 f33d a3b8 1b38 77b8
00000270: 0d90 80b8 2e74 85b8 0a3f 76b8 ebe9 81b8
00000280: aac4 57b8 68cb 5bb8 fd73 59b8 71be 50b8
00000290: 578f 7fb8 956c 31b8 0128 2cb8 12e9 43b8
000002a0: 5fa3 50b8 f416 84b8 2db8 1eb8 0f9a 25b8
000002b0: bc68 52b8 4bd4 4bb8 b84f 69b8 4afa dcb7
000002c0: 1092 c4b7 f011 fab7 38f5 fcb7 b641 efb7
000002d0: 150c b4b7 44b4 bab7 0e2f a8b7 c82c e2b7
000002e0: 5bf8 c3b7 79fb 39b7 ec11 41b7 fc1c 37b7
000002f0: 2a12 87b7 90ad 50b7 0a08 edb6 6f39 97b6
00000300: d81d 77b6 c648 f7b6 3d1b 97b6 6608 15b6
00000310: 0db2 0636 54ea 1936 3dc5 2335 81bc 43b6
00000320: f250 5fb7 cd93 31b7 d29c 52b7 1a1e b4b7
00000330: a6f6 cdb7 fd80 16b7 2972 14b7 01ec 6ab7
00000340: aa51 7eb7 2e45 bbb7 cc9d abb5 8325 d834
00000350: 7fe8 0bb7 1c80 22b7 c3b1 4ab7 ffc3 30b6
00000360: 864d e0b5 d608 05b7 679b 0bb7 afcf 2cb7
00000370: 296c a9b6 48ab 94b6 4af9 e1b6 a42e d2b6
00000380: 5ed0 65b7 e3f9 2eb6 f370 3eb6 97e9 23b6
00000390: 06bb a7b5 76c9 52b5 a3cb 53b5 459d 1ab5
000003a0: 4289 16b5 c1b1 aeb4 e2dd 75b4 78b3 82b3
000003b0: 64f4 f0b3 b5cf 01b3 5cb2 1634 6b9f aab1
000003c0: 2581 2134 9f20 ff33 ce98 efb3 b49d 6933
000003d0: 03b3 e6b2 d9b6 5234 458c 60b3 e7ec 12b4
000003e0: bfd5 94b4 8d32 d732 0bed 0bb8 1059 2ab8
000003f0: 8388 49b8 2d52 72b8 a2fb 8bb8 8504 f0b7
-6.991843e-05 -6.052082e-05 -3.1729458e-05 -1.4019867e-05 -7.1235586e-06 -8.094325e-05 -7.9339414e-05 -4.8429407e-05
-3.309909e-05 -1.5922122e-05 -6.697139e-05 -6.987286e-05 -5.6358258e-05 -4.4948116e-05 -4.4884753e-05 -6.180255e-05
-5.5159482e-05 -4.4295124e-05 -5.7169942e-05 -7.0318165e-05 -3.4842833e-05 -4.531263e-05 -4.7095466e-05 -7.595763e-05
-7.219118e-05 1.6694786e-06 2.6201477e-07 -4.0692325e-06 -4.805399e-06 -6.6147636e-06 -5.175065e-06 -1.3249801e-05
-1.4229188e-05 -1.2642816e-05 -9.978689e-06 -1.03815455e-05 -1.4264482e-05 -1.5228316e-05 -1.5080168e-05 -1.21741095e-05
-1.7968345e-05 -1.8695755e-05 -1.7920282e-05 -1.5155489e-05 -1.4912631e-05 -1.5273246e-05 -1.4873133e-05 -1.4833755e-05
-1.573855e-05 -1.2208553e-05 -0.0001625233 -0.00020168338 -0.0002628811 -0.00026030187 -0.00025834568 -0.00023049854
-0.0002577298 -0.00027929287 -0.00028366657 -0.00025248234 -0.0002455409 -0.00025410368 -0.0002735825 -0.0002512096
-0.00023643496 -0.00020568981 -0.00020085249 -0.0002154091 -0.00018224429 -0.00016145996 -0.00019049441 -0.00016091466
-0.00014775305 -0.0001454908 -0.00012041491 -5.3289266e-05 -6.6817265e-05 -7.527408e-05 -9.164574e-05 -0.00010574624
-5.843431e-05 -7.4893724e-05 -8.701448e-05 -0.00010203953 -0.00011314411 -6.410485e-05 -7.051927e-05 -8.7985325e-05
-9.9231635e-05 -0.00010032201 -6.2005194e-05 -7.104454e-05 -7.708154e-05 -7.788135e-05 -6.652701e-05 -5.7529724e-05
-5.636125e-05 -6.250021e-05 -5.7225905e-05 -3.5173525e-05 -2.1785658e-05 -2.165752e-05 -2.0584637e-05 -2.6897504e-05
-1.8807066e-05 -2.017613e-05 -1.9160034e-05 -2.2528098e-05 -1.574335e-05 -1.7463179e-05 -1.3488413e-05 -1.2280482e-05
-7.2320977e-06 -1.2967488e-05 -5.8295523e-06 -5.632213e-06 -2.8391032e-06 1.0869403e-06 4.2448605e-07 8.973128e-07
3.049845e-06 4.494727e-06 5.0208973e-06 1.057083e-06 2.2238191e-06 -0.00017328943 -0.00020499359 -0.00023406702
-0.00024916232 -0.0002557271 -0.0002304007 -0.000279687 -0.00032840302 -0.0003131513 -0.00031869055 -0.00025054853
-0.00029097672 -0.00033036055 -0.00033160739 -0.00032816222 -0.00024088696 -0.00028018618 -0.00029250415 -0.00029065125
-0.0002705923 -0.00020430282 -0.0002234525 -0.00023476781 -0.00022509605 -0.00022636226 -5.8776193e-05 -6.873857e-05
-7.228266e-05 -7.769636e-05 -7.7839846e-05 -5.894164e-05 -6.130347e-05 -6.363574e-05 -5.870968e-05 -6.19477e-05
-5.1443152e-05 -5.2403106e-05 -5.1844854e-05 -4.9768427e-05 -6.0930233e-05 -4.2301213e-05 -4.1045252e-05 -4.6708687e-05
-4.9743216e-05 -6.298526e-05 -3.7841663e-05 -3.9482544e-05 -5.0165443e-05 -4.8596685e-05 -5.5625773e-05 -2.6342594e-05
-2.3433036e-05 -2.9810675e-05 -3.015493e-05 -2.852162e-05 -2.1463298e-05 -2.225687e-05 -2.0049072e-05 -2.6962152e-05
-2.3361461e-05 -1.108541e-05 -1.1507869e-05 -1.0914398e-05 -1.6101712e-05 -1.2438177e-05 -7.0640863e-06 -4.506837e-06
-3.682324e-06 -7.3696456e-06 -4.5033216e-06 -2.2207619e-06 2.0071195e-06 2.2935174e-06 6.100925e-07 -2.9166988e-06
-1.3310682e-05 -1.0584435e-05 -1.2553488e-05 -2.147169e-05 -2.4552759e-05 -8.970729e-06 -8.848067e-06 -1.4002436e-05
-1.5158594e-05 -2.2324351e-05 -1.2786418e-06 4.026043e-07 -8.339178e-06 -9.68578e-06 -1.2081527e-05 -2.6340128e-06
-1.6711863e-06 -7.929475e-06 -8.321228e-06 -1.0300354e-05 -5.049184e-06 -4.4306835e-06 -6.7345436e-06 -6.2639174e-06
-1.3697978e-05 -2.6073474e-06 -2.8377951e-06 -2.442486e-06 -1.2496901e-06 -7.852426e-07 -7.8899956e-07 -5.759833e-07
-5.607909e-07 -3.253936e-07 -2.2898124e-07 -6.086242e-08 -1.1220325e-07 -3.022406e-08 1.4034725e-07 -4.965775e-09
1.5041276e-07 1.18802966e-07 -1.11571e-07 5.439297e-08 -2.685693e-08 1.9624294e-07 -5.228164e-08 -1.3683494e-07
-2.772267e-07 2.5052282e-08 -3.3360946e-05 -4.0614104e-05 -4.804927e-05 -5.777383e-05 -6.674907e-05 -2.8612334e-05
