logs/biosr_ccps_rcan_model-SRCNN_250305_lr0.0001_bs1_Ps256_Npatch128_N300/model_114.pth (torch, 695046 bytes, 15 tensors)

conv1.weight f4 [64, 1, 9, 9]
00000000: 07a6 a63d ed7a e4bc 86b5 ab3d 5433 b2bc
00000010: 6988 3f3d e646 20bd b207 093e 828a 5abc
00000020: b05e 4d3e 7fe9 e0bc bc6a bdbd 736f 483d
00000030: 2f64 48bd 2b7e 053d 4aff 323d a18c fb3c
00000040: 9b78 9e3d afee d63d c7b5 af3d 5e98 1e3d
00000050: 75d9 c4bd e07e 95bc 1f7a 50bd 8567 c0bd
00000060: f78f 8bbd 2076 93bd 6aca 493d f423 d2bd
00000070: 1432 0dbd 9b1b c03c 71a3 9dbd ef1f cdbd
00000080: 4cd9 0b3b d378 fabc 04a7 2cbd f63a 953d
00000090: 2c5e 95bd 09c8 80bd 2e25 96bb 1781 2f3d
000000a0: fc39 04bd 31b2 933d 6307 543d ecbc 843d
000000b0: 9df2 b73c 18d6 14bd 38a5 c8bd 5368 15bb
000000c0: 7122 c3bd d470 cd3c 08dc d43c ae19 b73c
000000d0: cecb 5a3d 2e14 fd3d d6c1 5dbd 8262 e9bc
000000e0: a0eb 1ebc 54ea 023d dc52 9e3d e888 763d
000000f0: 31ad 3dbd 9264 d63d bb3e c83b 2cc7 1c3d
00000100: ef30 123d 65ce b53a ac40 53bd 6303 56bd
00000110: 783f 1e3c f9ab 87bd 50ed b8bc 26cf 8abd
00000120: 1634 323d fcf8 c4bc 8cfe ae3c 226f 633d
00000130: deb2 48bd 68a8 0abc 23d9 aebd b484 b7bb
00000140: 3c3c 8ebd f1c7 41bd d334 74bb a93c efbc
00000150: 66d1 df3b 02ef 933d 4f8d 03bd 47ca fbbd
00000160: 9a3e 693d 87f9 89bc 7ed3 a23c f798 8dbc
00000170: 35d0 6a3d fde9 cfbd 96e9 8e3d d52e 983d
00000180: 2ba0 943d 5482 0f3d 78a6 b93d b3f3 0b3d
00000190: f717 9b3c 2e7a b3bc 7d1f ad3d ceed 973d
000001a0: 8806 4abd 7980 4a3c 6977 c0bd 7022 c6bc
000001b0: 1257 e03c 431b 5dbc 0ceb f4bd 66b6 a93d
000001c0: 7ef9 f83c 1b6b babd 083d d6bd 49d2 3ebd
000001d0: 03a6 bebd c6b1 7fbd 51c7 73bd 44a8 cfbd
000001e0: 8a56 453d 8b95 f13d 1343 513b 0e3c 28bd
000001f0: 5e8d b03d ca2f d5bd b30f 0bbd 500c c1bd
00000200: b585 083d 7907 b1bd c655 bdbd c98a 3b3d
00000210: f9d2 87bd 5f9f bfbd 27e5 653b 512c 50bd
00000220: 753a 8d3d 1cbd f73b a84e f33b bbcd 27bd
00000230: f79e 733d 05b4 903d 596a ab3d 0217 4b3c
00000240: cb22 f1bd 760e 1c3c 7fde 94bd b395 c1bd
00000250: 20c0 933d 51b6 273d ede7 053d ce7d df3d
00000260: c91d f43c cf5a 92bc c83f f2bc 43e5 423d
00000270: 54aa 853c 1147 85bd 8463 cabd 4f0e 883d
00000280: e3e6 933d c88f f73d e1be 813d 0bcd fc3d
00000290: afd5 4fbd d417 7c3d 2708 173d edba e43c
000002a0: a6b3 9cbd 8aa5 86bd f005 403d c5dd e13d
000002b0: e367 943d 0f6a fdbc dda6 f33d 50d0 693d
000002c0: c5f9 933c c041 aa3c c70a b53d 1301 993d
000002d0: 69c8 a93d 5f20 55bd 732f bf3d d861 ca3d
000002e0: be9c a1b9 6dbf 753d 7062 93bd d280 ddbd
000002f0: c33a acbd 56f2 f33d 80fe dc3d 35f4 b13c
00000300: 2d10 c63d f9a2 ab3d 5706 2dbd aa0c b73c
00000310: e66e 7dbd b872 02be 081e df3d c8fe 23bd
00000320: 4489 febc bda1 ac3c 62b1 8c3d fe6e a23d
00000330: cb61 fcbc 0777 8d3b acf9 adbb 7734 19bd
00000340: 52ec 4ebc 8cf7 b03c 6e53 a0bd 36f2 4f3d
00000350: af13 dfbd 4401 c63c 205c e4bd 1fb3 0bbe
00000360: c2b7 ec3c a787 c63c b1fc 2dbd 104e 833d
00000370: 2009 b73d bae4 1e3c 8d4c ddbd 9ad9 ecbd
00000380: b003 24be f889 103c 73a4 d63d 356f 543c
00000390: f371 c8bd 20c6 8e3d f63f e53c 7af2 a4bd
000003a0: 214b 1bbe 758a a13c ccfd e53d 995d a73c
000003b0: dc52 14bd 39d8 d6bc 2436 38bd 00a2 ecbd
000003c0: 587a c93b 307b c2bd bc20 04be 5437 da3d
000003d0: 6f1c b0bd a3b0 c73d 1688 f23d 9511 983d
000003e0: 1758 0cbd dda7 3abd b4e8 cd3c ade6 9abd
000003f0: 2c6e 4c3d cfd9 a1bb d756 083c 226e ea3d
0.08137136 -0.027890647 0.08384232 -0.02175299 0.04676095 -0.039130114 0.13381842 -0.013338687
0.20055652 -0.02745509 -0.092488736 0.04893441 -0.048923668 0.032591026 0.043700494 0.030706706
0.077378474 0.10494744 0.08579593 0.038719527 -0.09611789 -0.018248975 -0.050897714 -0.09394745
-0.068145685 -0.07200265 0.049265303 -0.10260764 -0.034471586 0.023450663 -0.076971896 -0.100158565
0.0021339236 -0.030575192 -0.042151466 0.072866365 -0.072933525 -0.06288154 -0.004582069 0.04284772
-0.03228186 0.07211722 0.051764857 0.064813465 0.022454554 -0.03633699 -0.09797138 -0.0022797778
-0.095280536 0.025078215 0.025983825 0.022351112 0.05341702 0.123573646 -0.054139934 -0.028489355
-0.009699732 0.031961754 0.07730648 0.060189158 -0.046307746 0.10468401 0.0061109937 0.038275883
0.035691198 0.0013870714 -0.051575348 -0.052249324 0.009658687 -0.06624598 -0.022574097 -0.06777792
0.043506704 -0.024044506 0.021361612 0.055525906 -0.048998706 -0.008463003 -0.08537509 -0.0056005362
-0.069450825 -0.04730982 -0.003726293 -0.02920373 0.006830382 0.072233215 -0.032117184 -0.12294441
0.056944467 -0.016842617 0.019876238 -0.017284853 0.057327468 -0.101520516 0.06978147 0.074308075
0.07257112 0.0350364 0.090649545 0.034167957 0.018932326 -0.021908846 0.084532715 0.074184045
-0.049322635 0.012359732 -0.09397776 -0.024186343 0.027385268 -0.013495269 -0.11958894 0.08286743
0.030392405 -0.0910246 -0.104608595 -0.046587262 -0.09309008 -0.062425397 -0.059516255 -0.10139516
0.048178233 0.11796101 0.0031930848 -0.041072898 0.08620714 -0.10409506 -0.03395052 -0.094261765
0.033330638 -0.086440034 -0.092448756 0.045786653 -0.06632037 -0.093565695 0.0035079212 -0.050823513
0.068959154 0.0075603854 0.007425148 -0.040967684 0.059477773 0.07065586 0.083698936 0.012395622
-0.11774214 0.009524932 -0.07269 -0.09452381 0.07214379 0.040945355 0.032691885 0.10912667
0.029799359 -0.017865567 -0.029571429 0.047581922 0.01631657 -0.065076955 -0.09882262 0.06643354
0.072217725 0.12087971 0.063352354 0.12343796 -0.050740894 0.06154616 0.03687301 0.027921164
-0.07651453 -0.06574543 0.046880662 0.11028627 0.07246377 -0.030934362 0.11897061 0.057083428
0.018063435 0.020783305 0.08839946 0.07470908 0.08290178 -0.052032825 0.09335222 0.098819435
-0.00030825095 0.05999701 -0.0719651 -0.10815586 -0.084096454 0.11911456 0.107907295 0.021722892
0.09671054 0.08380694 -0.042242374 0.022344906 -0.06187334 -0.12739074 0.108944 -0.0400379
-0.031071313 0.021073217 0.068697706 0.07931326 -0.03080835 0.0043171677 -0.005309304 -0.03740355
-0.012629585 0.021602415 -0.07828413 0.0507681 -0.10892426 0.024170525 -0.11150384 -0.13642548
0.028896216 0.024234606 -0.042477313 0.064113736 0.08937287 0.009698087 -0.108056165 -0.11564942
-0.16017032 0.008821957 0.10480585 0.012965967 -0.09787359 0.06971383 0.0279846 -0.08054061
-0.15165378 0.019719342 0.112300485 0.020430373 -0.036211833 -0.02622615 -0.044973508 -0.115543365
0.0061486177 -0.094961524 -0.12903112 0.10655084 -0.08599173 0.09750488 0.118423626 0.074252285
-0.034263697 -0.045570243 0.025135376 -0.07563529 0.049909756 -0.004939295 0.0083214855 0.114467874

conv1.bias f4 [64]
00000000: 7d30 d13c e324 563d 6bc2 933c 14ce 9f3b
00000010: f0c9 d1bd a3a9 9c3d 3b57 ba3d d4ff 97bd
00000020: 9c03 18bd 8f55 e73c 4846 12bd 3c82 8fbc
00000030: d06a d0bd f5a8 8bbc 5ea0 a2bd 84d7 85bd
00000040: b3a3 bb3d b734 c6bc 0408 57bb bd09 aabc
00000050: 6576 13bd 25fa d2bd ba33 edbd c47b 9fbc
00000060: c30e 9bbc dc8a 933c 47f0 d4bc a025 a1bd
00000070: c498 99bd 3c01 7dbd 3585 03bd f806 a3bc
00000080: 35cf a3bd e551 a6bd b231 8a3d 135a 19bb
00000090: af5f 94bd ebf4 4b3d 220b d5bc c9fd 1e3e
000000a0: f065 453d 3878 7a3d a143 a8bc af78 aabc
000000b0: 58af 0e3d 9d71 f8bd 4a8f 44bc b8bd 11bd
000000c0: 9359 b93c fe0d fbbc 8de8 da3d c092 80bd
000000d0: 3ac7 dd3b e96c 50bb 067a 8c3d e0f9 71bd
000000e0: 1514 183d 5f2b a5bd 9be3 203c 459c 423c
000000f0: 7045 81bc 02a0 703a e0c8 603d d7b8 abbd
0.025535816 0.05228127 0.018037042 0.0048768613 -0.10243595 0.07649543 0.09098669 -0.07421842
-0.037112817 0.02823904 -0.035711557 -0.017518155 -0.10176623 -0.017048338 -0.07940744 -0.06535247
0.091620825 -0.024195058 -0.0032811174 -0.020756597 -0.03600158 -0.103016175 -0.11582132 -0.019468196
-0.018927937 0.01801055 -0.02599348 -0.078685045 -0.07499841 -0.061768755 -0.032109458 -0.019900784
-0.07998506 -0.08121089 0.0674776 -0.0023399636 -0.07244813 0.04979412 -0.026006285 0.15526499
0.04819292 0.061149806 -0.02054006 -0.0208095 0.03483519 -0.12131045 -0.011997053 -0.03558132
0.02262572 -0.03064632 0.10688887 -0.0627799 0.0067681344 -0.0031803197 0.068592116 -0.05907619
0.037128527 -0.08064913 0.00981989 0.011878078 -0.01578018 0.00091791165 0.05487907 -0.08384865

conv2.weight f4 [32, 64, 5, 5]
00000000: 9013 b8bc 33a8 1cbd 2f05 6d3c e7fa 36bc
00000010: 97bb f63c b9ef b73b df56 2fbc 6a80 d43c
00000020: fc57 fbbb fcab 2e3c d65a 5fbb 07be dfbb
00000030: 959a ebbb ea21 a1bc eab5 f83a f443 35bd
00000040: a148 adbc 3b1d 0ebd ae3d 07bd a855 05b9
00000050: 518d e13a 2a01 8e3c daed a63c b5b5 1a3d
00000060: 6d0c 4d3d 65bd f7bd f9e6 a1bc 9eea 5e3d
00000070: 7b8c 393b e667 b3bc e225 35bb 57e9 23bd
00000080: 85df 713d df95 283d aff9 503b 281b 84bd
00000090: fdce aabd 9230 41b9 fdab 88bc d15e d6bb
000000a0: 9b3f b4bd be2b 9fbd 74d6 95bc 3551 42bc
000000b0: c676 28bc 0041 48bd 4768 6dbc 5422 f53b
000000c0: 7f28 1539 4f4c d7bc 7c1c 893c 7b2a 0b3c
000000d0: fad4 b93c c54d ef3c 261b 743c 0467 eebc
000000e0: fd9e 5bbc 9bd6 82bc 8e90 62bc 95e3 313c
000000f0: 8d55 fcbc 8d51 48ba bcf9 0abc c661 283c
00000100: 4811 433c 0ab6 33bd 4d5a 84bb 482b 08bd
00000110: e520 0c3d bc57 823d 6638 5ebb 9736 443c
00000120: 1ef8 a63c 7578 553d b551 263e e694 b03c
00000130: 8bb9 debc 14d4 9ebb b093 c1bb 70e1 f43c
00000140: 2493 203c 0c8b 863b 05f7 16bd e5b8 14bc
00000150: b46e 773c 514c 37bc 553d 023c f8eb 6a3b
00000160: 8aab c93c ae35 803c bea8 bcbb 5c8e 10bd
00000170: 8008 51bc 8d04 f7bb b498 dfbc acc8 02bd
00000180: a4e0 3cbd a86a 56bd 89ac fabd 1c91 2ebe
00000190: 7eb7 3b3b 39a9 3e3c 6260 083c 3373 89bc
000001a0: c621 37bd f650 983c 09ae cc3b 1ed8 93bb
000001b0: 2dea fe3b d648 42bd 10f6 073d e034 c63c
000001c0: 5fc1 703b a5d2 bfba e30a 03bd 0374 3dbb
000001d0: f145 9a3c de8e 43bd 7b75 06bd 6220 ccbc
000001e0: 83ee 743d 64f2 3a3c 7d41 163d 26c8 3a3d
000001f0: ba81 7d3d 2f3d af3b 65a5 4a3c 2a59 713a
00000200: 5a92 963c 2eed 97bc 6740 253b 985f 073c
00000210: 232f 84bb f1b2 fc3b 7ac6 00bd a111 e7bc
00000220: 06b2 d2bc 1344 e1bc 1560 09bd 5cd1 f4bc
00000230: 319a 603b 3696 02bc 3238 2f3b dfca 823c
00000240: 43be 27ba acd7 2b3c 7436 fa3c f8b6 953c
00000250: 2b75 e93c 002e 703c 9b65 693b 7d3a 0d3d
00000260: 05a8 603d 8fc8 c3bc 4436 73bd fab1 9abb
00000270: 842a 56bb d491 bbbc 9532 87bd 5ed8 20bd
00000280: d20b 173c 1f23 02bc 4713 1bbc 4ec2 69bd
00000290: d151 47ba 3fbd 593d 274e a13c 70f6 57bd
000002a0: 8456 dd3b b08b 243c e149 343d 0c6d 2b3d
000002b0: 3eb2 2abd 96d5 993c 9968 9d3d 747c a5bc
000002c0: 2bcf efbc ba2b 383c f655 a0bc 3e32 06bd
000002d0: 5609 04bd fb5f 6a3c 19bd ab3c cd21 c7bc
000002e0: 8e80 ae3c d680 a23a 22bb 123d e9bb 583c
000002f0: e331 19bc 7879 5ebc fdf2 b03c 9942 49bb
00000300: c684 5fbc 5432 403c cf0c 0e3d 780d e93c
00000310: 45e0 f53b cf5d 0d3c 94e6 4f3d 3a06 d33d
00000320: ac7d 143d ad3e 64bd 4349 11bd 421f b7bc
00000330: d495 45bd cc96 51bc dcdb ffbc 30a0 30bd
00000340: 1cc7 adbb 8997 943c a3d3 c2bd 32f1 0dbd
00000350: c314 9bbd 6eb1 4ebd 3284 cc3d ba67 15be
00000360: 0811 e5bd 3403 abbd 3517 4abd 6409 b63d
00000370: a898 70bd 1f7a 8dbd 740d 5bbd 5c53 553d
00000380: e20d 193e 0d64 903c 1d5c 85bb 2a0d 64bb
00000390: cb87 0fbd 1920 c9bc 4335 3e3d 5c18 813b
000003a0: 2b79 aabc f243 79bd e6df 223d 9e83 91bd
000003b0: 95b8 42bd a7aa 8ebd 8a04 69bd 0556 883d
000003c0: 8ab3 d4bd 006e a6bd e624 b7bc 0fe5 4a3d
000003d0: 41e0 813d b7a5 c1bd 67d5 1cbd 5337 d4bc
000003e0: 4b28 833e 2c72 213d bd71 893d 6768 c8bc
000003f0: 3564 5dbd 1219 99bd fb40 fabd 1f3b 6d3d
-0.022470266 -0.038246345 0.014466568 -0.011168218 0.030118747 0.005613294 -0.010701864 0.025940139
-0.0076704007 0.010661121 -0.0034081242 -0.006828073 -0.0071900585 -0.019669492 0.0018975113 -0.04425426
-0.021152796 -0.034695845 -0.033017807 -0.00012715778 0.0017208253 0.01733454 0.020377088 0.037770946
0.05006068 -0.12096671 -0.019763457 0.054422967 0.0028312493 -0.021900129 -0.0027640988 -0.040017452
0.059051055 0.041158553 0.0031887104 -0.06450492 -0.08340261 -0.00018424008 -0.016683573 -0.0065420647
-0.08801194 -0.07772015 -0.018290736 -0.011860182 -0.010282224 -0.048890114 -0.014490194 0.007480899
0.00014224833 -0.026281504 0.016737215 0.008494015 0.022684563 0.029211888 0.014899051 -0.029101856
-0.013404605 -0.015971472 -0.01382841 0.010857482 -0.030802513 -0.00076415465 -0.008482393 0.010277217
0.011905976 -0.043874778 -0.004039085 -0.0332444 0.03421106 0.0636439 -0.0033908128 0.011975906
0.020381983 0.05211683 0.16242106 0.021555375 -0.027188083 -0.004847059 -0.0059074983 0.029892653
0.009800706 0.004105931 -0.03685667 -0.009077285 0.015102077 -0.011187629 0.007949193 0.0035846215
0.024617929 0.015650596 -0.0057574203 -0.035292014 -0.012758374 -0.0075383843 -0.027294494 -0.031929657
-0.04611267 -0.05234781 -0.1223994 -0.17047542 0.0028643305 0.0116370255 0.008323761 -0.016778564
-0.044709943 0.018593293 0.0062463325 -0.004511847 0.007779381 -0.047432743 0.033193648 0.024195135
0.0036736352 -0.001463492 -0.031992804 -0.002890826 0.018832179 -0.04774367 -0.03282688 -0.024917785
0.059797775 0.0114103295 0.03668355 0.045601033 0.061891295 0.00534787 0.012368535 0.0009206707
0.018380333 -0.018545713 0.0025215389 0.008262537 -0.0040339394 0.007711761 -0.031439282 -0.028206648
-0.025719654 -0.02749828 -0.033538897 -0.029884987 0.0034271593 -0.007970383 0.0026736376 0.015965877
-0.00063988956 0.010488432 0.030543543 0.018275723 0.028498253 0.014659405 0.003561354 0.034479607
0.054847736 -0.023899345 -0.059377924 -0.0047209235 -0.003267915 -0.022896685 -0.06601445 -0.039268844
0.009219127 -0.007942944 -0.009465045 -0.05707007 -0.0007603439 0.053158995 0.019690586 -0.052725255
0.006754698 0.01004307 0.04401577 0.041852042 -0.04167389 0.018778604 0.07685966 -0.020200945
-0.02927359 0.011240894 -0.01957224 -0.03276276 -0.032235466 0.01430511 0.020964192 -0.02430811
0.021301534 0.0012398015 0.035822995 0.013228395 -0.009350273 -0.013578765 0.02160024 -0.0030709861
-0.0136424955 0.011730749 0.034680184 0.028448805 0.0075035417 0.008628323 0.050757006 0.10303922
0.036252663 -0.055723835 -0.03547026 -0.022353772 -0.04823859 -0.0127923 -0.031232767 -0.043121517
-0.0053032767 0.018138664 -0.09513023 -0.03465385 -0.07572319 -0.05046218 0.09986152 -0.1459035
-0.11184889 -0.0835022 -0.04933854 0.0888851 -0.058739334 -0.069080584 -0.053479627 0.05208145
0.14946702 0.017625833 -0.0040698186 -0.0034797885 -0.03504161 -0.024551438 0.046437513 0.0039396714
-0.02080973 -0.060855813 0.039764307 -0.07105182 -0.047539312 -0.06966143 -0.056889094 0.06657032
-0.10385807 -0.081264496 -0.022356462 0.049534854 0.06341601 -0.09455436 -0.038289454 -0.025905287
0.2561668 0.039415523 0.06711147 -0.024463845 -0.054050643 -0.07475485 -0.12219425 0.05791771

conv2.bias f4 [32]
00000000: 540e b73b 531d 09bd eee0 473c 6f10 b7bc
00000010: 3c4a 773c bca2 8bbc 3082 b8bc 8813 973c
00000020: e364 4dbc a3ba 9bbc f56e cbbc 8e46 683c
00000030: 669d 3fbc f8fd 7bbc c8f7 833c 6a2a edbc
00000040: 32ed d3bc 789b 6bbc 36a0 f53a 58f5 6dbd
00000050: 176d 4d3d 2e4d 0ebc 16ae 30bc a30e 883b
00000060: f8f4 92bc b9a6 25bc c53a 9cbc 1b65 a43c
00000070: 7721 dfbc d16b 7c3b 9e66 a63c 203e dbbc
0.005586425 -0.03347523 0.0121996235 -0.022346703 0.015093382 -0.017045371 -0.022523016 0.01844193
-0.01253626 -0.019009894 -0.024833182 0.014176978 -0.011695242 -0.015380375 0.016109362 -0.028950889
-0.02586994 -0.014380328 0.0018739763 -0.058095306 0.050152864 -0.008685393 -0.010783693 0.0041521355
-0.017939076 -0.010110551 -0.019070992 0.020067742 -0.027237637 0.0038516412 0.020312604 -0.026763022

conv3.weight f4 [1, 32, 5, 5]
00000000: 5985 48bd e382 87bc e07d b8bc 003b fdbc
00000010: 4cbc 813b de0c c13b ca8b e8bc 2f99 58bd
00000020: 80b3 37bc fdb4 883c a06a a03c b531 3abd
00000030: 1db8 2bbd 9ebe a6ba 7c0f 153c 3e81 b9bb
00000040: a536 c3bc 37b7 ebbc ce28 63bc a055 913c
00000050: 6b98 8d3d ccf1 653d 90e8 483d f890 243d
00000060: 395a f63d e35d 27bd 6490 ddbc 926a 34bd
00000070: 51b5 10bc adb1 23bb b090 27bd 947a 59bd
00000080: 95f1 c0bc bf01 61bc 8394 02bd 0b33 05bd
00000090: cbfb 62bc 67d5 25bd 58f4 d7bc cfba 63bc
000000a0: b423 24bd 17b9 413c 3229 1ebd e6fd 4ebc
000000b0: c70d b8bc 36a7 cebb a416 6bbd 595b 8dbc
000000c0: f763 e3bc 61cf 63ba c674 153d 22ce 73bc
000000d0: 8eed d33b 559d 073d 5ed7 0c3d 35f6 0cbc
000000e0: 5a78 8d3c 7c85 a5bc 9691 64bc 2536 d9bc
000000f0: 2b0d 553c 3dbb ecbc dbe3 84bc e19e 6dbc
00000100: b468 9a3b 49e4 ae3b 252b debb c432 dfbc
00000110: d7c8 a1bb cb03 8e3c 1dcf 4e3c f3a6 8cbc
00000120: 964c b5bb d63f 03bd 2cab 9b3c d3cd 01bd
00000130: fe13 b0bc 342e 5fbd 99f0 4bbd 3dfd d1bc
00000140: bfac 37bc 7b35 c63c f3dd ae3c b586 55bc
00000150: f86f e93c e7c9 b2bb 0e56 95bc 2b05 863c
00000160: 5bd2 b1bb 53cc 063d ac89 2d3c 899a 4e3c
00000170: 1d93 bdbc bc4d 08bc 8edd 1f3d b543 453d
00000180: cfc9 d33c 8504 8b3b f8a0 173d 353a a63d
00000190: 3afe 9bbd 494c 20bd 344d babc 0074 49bc
000001a0: e510 8abd 5c1e 10bb c708 98bb a507 203d
000001b0: 7bf7 a5bc a128 95bc ed40 d6bc 7248 60bb
000001c0: 400a 943c f6fc 88ba c4f4 653c 9e2f b6bc
000001d0: 7cac a73c 8ac9 0cbc 912c 51bc 3efc 103c
000001e0: 78b4 58bc 064f 143d 523f f93c 88f1 a33b
000001f0: 173f 483c fe69 debd c69a a8bd b4ba 32bd
00000200: 9731 6abd 6329 84bd 9b50 0abd 09db 0cbd
00000210: 8048 09bd 36ec 06bd 95ec 02bd 6a1b a5bd
00000220: cc63 a5bc bbd4 6abd 2c69 3e3b 8092 8abd
00000230: 584b 63bd 066f f1bb b543 0bbd d888 13bd
00000240: 7398 6dbc a48b a5bd 3744 5dbd 89dc 36bd
00000250: 612c 57bc 3cc0 11bd a78e 2b3d 78c5 e9bb
00000260: 24cc c4bb f689 183d a449 f53c 9c66 19bc
00000270: cb66 20bb 8459 3ebc 233d 013b ec51 083d
00000280: 40a6 e9bc 4903 ef3b 49f7 3cbb 697a f0bb
00000290: 8365 2a3c 1496 e23c de20 92bc bc76 06bc
000002a0: 1f54 8f3b cfd1 2f3c a8d4 823c 7df2 f03c
000002b0: 77a8 723c d81b ca3c e6e8 ed3b 2053 983d
000002c0: 0014 8e3d ecca aa3c 9b35 ec3b 8832 263d
000002d0: e109 a53d 9946 a63c 8bc7 b73c 1a89 8b3c
000002e0: 4dba ff3c cb97 7e3d b86d 21bc bfc4 143d
000002f0: 3a7c 33bc 641a 80bb 9536 003d 6345 013d
00000300: f330 073d 69db 643b 6de1 443c f540 c63c
00000310: ddb9 b63c 821c 983c aef6 8a3b 60c7 2a3d
00000320: 45ee 353d b832 2a3d 975c 433d 0ebe 123d
00000330: e1e4 963d 4f70 d1ba 6873 203d ad2c 183b
00000340: cd98 c73c 60e2 683d 2e4d 8f3c 7215 c53c
00000350: e27e 2c3d 668a a53b 31a8 9c3c d47a ae3c
00000360: 0e6c 3c3c 0b15 dd3c c480 a43c f9c3 ea3b
00000370: 4a4b ee3c 9168 573c 83e8 f73c 9ef8 7fbc
00000380: dcaf b63c f63f 1f3d 855a d33c 048b b83c
00000390: 7c52 443d 9048 103d 44e9 253d bbe1 c33c
000003a0: 014b 0c3c 2e94 b43c 56e9 103d 719e 53bb
000003b0: 397a 12bb de81 823c c0bb 0c3d d17d b73c
000003c0: 10a5 003d 060a 273d ada6 c33c 80bc 843b
000003d0: ad43 2c3d cd84 433d 0714 583d 50bb 1b3d
000003e0: 17ec 123d 098a 903d 8b29 df3c 9cac bbbb
000003f0: 9759 6d3c 9112 64bb 7b99 293d 43f6 193b
-0.048955295 -0.016541904 -0.02252096 -0.030911922 0.0039592143 0.0058914265 -0.02838697 -0.052880462
-0.01121223 0.016687864 0.019582093 -0.04545756 -0.04192363 -0.0012721603 0.00909793 -0.005661159
-0.023829767 -0.028773887 -0.013864709 0.017741024 0.06913837 0.0561388 0.049049914 0.040177315
0.12028927 -0.04086102 -0.02704639 -0.044046946 -0.008832292 -0.002497773 -0.04090947 -0.053095415
-0.023552695 -0.013733326 -0.031879913 -0.03251938 -0.013853977 -0.04048672 -0.02636163 -0.013899519
-0.04007311 0.011823914 -0.038613506 -0.012633776 -0.022467507 -0.006306554 -0.05739464 -0.017255472
-0.027757628 -0.00086902647 0.036488317 -0.014880689 0.0064675277 0.033109028 0.034385078 -0.008603622
0.017269302 -0.020205252 -0.013950726 -0.026515076 0.013003628 -0.028897876 -0.016221931 -0.014503212
0.0047121886 0.0053372723 -0.0067800456 -0.027245887 -0.004937272 0.017335793 0.012622622 -0.017169451
-0.0055328114 -0.0320433 0.01900252 -0.03169043 -0.021493908 -0.054487422 -0.04979 -0.025633449
-0.0112106195 0.024195423 0.021346068 -0.013032605 0.028495774 -0.0054561975 -0.01822951 0.016359886
-0.0054266877 0.032909703 0.010591906 0.012610086 -0.023141438 -0.008319315 0.03902965 0.048160274
0.025853066 0.004242482 0.037018746 0.08116571 -0.07616849 -0.03913525 -0.022741891 -0.012295723
-0.067415036 -0.0021990752 -0.004639718 0.03906979 -0.02025961 -0.01820785 -0.026154006 -0.0034222868
0.018071294 -0.0010451365 0.014035407 -0.022239503 0.02046799 -0.0085929725 -0.012766973 0.008849202
-0.013226621 0.036208175 0.030425701 0.005003158 0.012222073 -0.1086006 -0.08232646 -0.043635085
-0.0571762 -0.064532064 -0.033768278 -0.034388576 -0.033516407 -0.032940112 -0.031963903 -0.080618694
-0.020189188 -0.05733178 0.0029054387 -0.06766224 -0.055491775 -0.0073679714 -0.034000117 -0.036019176
-0.014501679 -0.08083275 -0.054020133 -0.044643912 -0.013133139 -0.03558372 0.04188409 -0.007134136
-0.006005781 0.037240945 0.029942341 -0.009362843 -0.0024475332 -0.011618022 0.0019720278 0.03328125
-0.028521657 0.007294093 -0.0028833917 -0.007338811 0.010400179 0.027659453 -0.017837938 -0.008207019
0.0043740417 0.010731175 0.015970543 0.029412502 0.014810673 0.02467148 0.0072604297 0.0743773
0.069374084 0.020848714 0.0072085387 0.040575534 0.08058525 0.020297335 0.022434017 0.017033149
0.031216765 0.06215648 -0.009852819 0.036320444 -0.010954911 -0.003909396 0.031302053 0.031560313
0.033005666 0.0034920818 0.012016636 0.024200896 0.022305423 0.018568281 0.0042408323 0.041694045
0.044416685 0.041552275 0.047695722 0.03582578 0.07367874 -0.0015978905 0.03917256 0.0023219988
0.024364853 0.056856513 0.017492857 0.024058077 0.042113192 0.005051899 0.019123169 0.021298803
0.011500372 0.026987573 0.020080931 0.007164475 0.029088635 0.013147489 0.030262237 -0.01562324
0.022300653 0.038879357 0.025799999 0.022527225 0.047930226 0.03522545 0.040505663 0.023911348
0.008562804 0.022043314 0.035378776 -0.0032290483 -0.0022350682 0.015931066 0.03435874 0.022398861
0.031407416 0.040781043 0.023883188 0.0040507913 0.04205673 0.04773407 0.052753475 0.038020432
0.035869684 0.07057578 0.027241489 -0.0057273638 0.014486692 -0.0034801106 0.041406136 0.002349273

exp_avg f4 [64, 1, 9, 9]
00000000: aa26 db39 df84 eb39 bb17 f339 8735 023a
00000010: 93e6 0a3a acfe 073a e64c 033a e872 083a
00000020: b6ab f239 81ba d639 a0fd df39 73d0 f039
00000030: 0452 023a 6742 0b3a d550 093a dbeb 003a
00000040: 9d94 043a 93f4 f939 8948 d139 6c1f e539
00000050: 36a7 f539 ef53 073a f395 103a bc9a 0c3a
00000060: 65c3 063a f6f7 053a 9410 fe39 f0cf dd39
00000070: 70a6 dc39 d3d5 e939 2e73 fd39 32bd 0c3a
00000080: 5483 0c3a 63cd 043a 78e0 ed39 1186 ed39
00000090: c3c7 e339 d633 cd39 0270 e339 af9e f939
000000a0: 075e 0a3a e044 0f3a fb79 073a ddd4 023a
000000b0: 32c5 f039 ee38 ee39 1b2d db39 f5bc d539
000000c0: 87c6 f139 fd72 023a 0cbe 103a 6671 143a
000000d0: d2f6 0d3a 5bc8 093a 74d3 033a cd11 d739
000000e0: d9ab d039 a223 db39 bf05 f439 0500 093a
000000f0: 4bbf 123a df9e 163a ad14 0d3a 63b3 053a
00000100: 269a de39 0eec d639 3901 cf39 5537 fb39
00000110: 3b38 033a af56 103a 5056 173a d39a 0d3a
00000120: 161e 0d3a 480b eb39 82c0 db39 cfd5 d439
00000130: dcba f839 8cf3 fe39 c961 063a 1a50 0c3a
00000140: 803e 0f3a 6220 9a3a e31c a23a 6fa6 a43a
00000150: ebca ab3a e7bc af3a 76dc a73a d14c a33a
00000160: dd62 a93a e02e 9f3a bace a33a f428 aa3a
00000170: 88c4 b53a cb7e b23a d164 bd3a 8839 b83a
00000180: 7cfb b03a 187e a63a cc1d aa3a 1388 a53a
00000190: 9d5b ad3a d4a6 b63a 0908 c53a cc68 c63a
000001a0: 541a b63a a612 b13a 8b14 a53a 790a a13a
000001b0: a689 a73a 3e85 ab3a 453e b33a b7f8 c53a
000001c0: 6dab c73a e5bc bd3a 02c3 ac3a 297d ab3a
000001d0: 8672 a03a c463 a13a df1f a93a 6a0d ae3a
000001e0: 2b60 be3a a784 cb3a 5175 bf3a 5fa8 b43a
000001f0: 45de b33a 7648 a13a 79be a13a 50fd 9e3a
00000200: 6032 b23a 3e85 b03a f8ea b43a 5335 be3a
00000210: 8dbe b03a a5f2 a73a f4d3 a53a 1b50 9d3a
00000220: df64 a73a 9d9c a63a 4e14 ac3a 2488 ad3a
00000230: 301e b13a b7d6 af3a 15c5 a93a 6f9b a23a
00000240: 926c 993a 5a40 a13a 0be0 9d3a 3e4d 9e3a
00000250: 59ef a83a 7747 a43a dde1 a13a 33db a43a
00000260: 6a71 9f3a bd6e 9e3a 2e75 9d3a e123 a13a
00000270: 496c 9f3a e95d 993a c4da 943a 9939 9b3a
00000280: 3ee7 9c3a 2559 983a ac8d 6dbb 938d 6dbb
00000290: f49f 6fbb cb5e 61bb 0447 52bb ed71 40bb
000002a0: 2d66 36bb 1130 32bb 7778 32bb 1dc8 73bb
000002b0: e12f 76bb 1047 72bb ef9e 64bb 4b76 50bb
000002c0: 8cac 3cbb 804e 2cbb 609d 28bb 7f97 2bbb
000002d0: 5f15 79bb 36e7 77bb bb4e 74bb 6782 64bb
000002e0: 1d7f 4cbb 56de 34bb b419 28bb a644 25bb
000002f0: c0b0 27bb f35b 77bb 8e1a 75bb 3d34 70bb
00000300: fdf1 5fbb 59f5 45bb 86ce 2fbb 1dfb 21bb
00000310: f059 20bb 508a 27bb f610 71bb bd32 6dbb
00000320: ecbd 66bb e634 54bb df52 37bb a98e 24bb
00000330: 358c 1ebb fd94 1dbb 354c 26bb b522 64bb
00000340: 6809 5fbb 19dd 56bb 1cc1 44bb 247f 2bbb
00000350: 37de 1ebb 0be9 19bb 4b89 20bb 6719 26bb
00000360: e72b 57bb 951d 52bb 262a 47bb c4c8 31bb
00000370: 3257 1ebb 6e6d 17bb 341e 1cbb ad47 21bb
00000380: 1f53 29bb 1e49 4abb 908a 42bb bee2 37bb
00000390: 0fbe 28bb f10c 1bbb 6dd6 17bb 230a 1ebb
000003a0: 2c4b 26bb 4db4 2bbb 5da7 41bb 92b7 38bb
000003b0: e768 31bb b559 24bb 6f7e 1bbb 17d4 1cbb
000003c0: 9cf7 1fbb ab7f 26bb 1d13 29bb 6cf7 463a
000003d0: 3be6 773a b32e 893a c6d6 b03a e629 ac3a
000003e0: ccc7 a53a e88b 9e3a 32c5 8b3a 614c 863a
000003f0: f514 3b3a 5adc 5c3a 75b3 953a df34 b33a
0.00041799742 0.0004492169 0.00046366252 0.00049670826 0.00052986405 0.00051877904 0.0005008712 0.00052051106
0.00046285772 0.00040956217 0.0004272284 0.00045931674 0.0004971328 0.0005312324 0.000523818 0.00049179577
0.00050575455 0.00047675203 0.0003991763 0.00043701695 0.00046854623 0.00051623484 0.0005515508 0.00053636334
0.00051408104 0.00051104964 0.00048459007 0.0004230733 0.00042085676 0.00044600535 0.00048341736 0.00053687685
0.00053601456 0.00050660054 0.00045371405 0.0004530405 0.00043445648 0.00039139268 0.00043380266 0.0004761121
0.00052782934 0.000546528 0.0005168018 0.00049908255 0.0004592329 0.00045437313 0.0004180454 0.0004076731
0.00046115016 0.0004976241 0.0005521483 0.00056626496 0.0005415502 0.00052559905 0.00050287624 0.00041021258
0.00039800888 0.00041797484 0.00046543588 0.0005226138 0.0005597963 0.00057457195 0.0005381804 0.0005100278
0.0004245799 0.00040993135 0.00039483028 0.00047915676 0.00050056324 0.0005506081 0.00057730544 0.0005401794
0.00053832063 0.00044831098 0.00041914365 0.0004059509 0.00047441467 0.00048628112 0.00051262655 0.0005352512
0.00054643303 0.0011758918 0.0012368228 0.0012561808 0.0013106739 0.0013407738 0.0012806791 0.0012458806
0.001292314 0.0012144707 0.0012497522 0.0012982176 0.0013867775 0.001361811 0.0014449601 0.0014055232
0.0013502683 0.0012702374 0.0012978851 0.0012629054 0.0013226155 0.0013935217 0.0015032302 0.0015137433
0.0013893344 0.0013509586 0.0012594623 0.0012286446 0.0012782111 0.0013085974 0.0013675174 0.001510403
0.0015233584 0.0014475851 0.0013180675 0.0013083565 0.0012241162 0.0012313058 0.0012903175 0.0013279144
0.001452451 0.0015527204 0.0014607107 0.0013783089 0.0013722858 0.001230492 0.001234009 0.0012129936
0.0013595335 0.0013467444 0.0013802936 0.0014511741 0.0013484523 0.0012813403 0.0012651668 0.0012002023
0.0012771151 0.0012711469 0.001312861 0.0013239426 0.0013513025 0.001341543 0.0012952412 0.0012405942
0.001170533 0.0012302503 0.001204492 0.0012077463 0.0012888714 0.0012533505 0.0012350638 0.0012577533
0.0012164537 0.0012087446 0.0012013072 0.0012294018 0.0012163009 0.0011700961 0.0011356701 0.0011842727
0.0011970771 0.0011623247 -0.0036247773 -0.0036247715 -0.0036563845 -0.0034388776 -0.0032085786 -0.002936478
-0.0027831898 -0.0027189294 -0.0027232447 -0.0037198134 -0.003756516 -0.0036968626 -0.003488477 -0.003180879
-0.002878937 -0.0026291907 -0.0025728568 -0.0026182828 -0.0038007123 -0.0037827021 -0.0037278372 -0.0034867765
-0.0031203695 -0.0027598343 -0.0025650086 -0.002521792 -0.002558753 -0.0037744015 -0.003739986 -0.003665223
-0.0034171336 -0.0030206053 -0.0026825978 -0.0024716326 -0.002446767 -0.0025564618 -0.003678379 -0.0036193572
-0.0035208417 -0.0032380163 -0.002797298 -0.0025109446 -0.0024192457 -0.0024045103 -0.0025375013 -0.0034810726
-0.0034032706 -0.0032785593 -0.0030022329 -0.002616831 -0.0024241337 -0.0023484852 -0.0024495895 -0.002534473
-0.0032832564 -0.003206109 -0.0030390113 -0.0027127722 -0.002416086 -0.0023105997 -0.0023821713 -0.0024609372
-0.0025836898 -0.0030866335 -0.002968464 -0.0028058733 -0.002574805 -0.0023658837 -0.002316858 -0.0024114929
-0.0025374396 -0.0026199997 -0.002954922 -0.0028185588 -0.0027070583 -0.0025077884 -0.0023726483 -0.0023930126
-0.0024409061 -0.0025405686 -0.0025798746 0.00075899693 0.0009456609 0.0010466188 0.0013491742 0.0013135045
0.0012648045 0.0012096139 0.0010663627 0.0010246151 0.0007136607 0.0008425169 0.001142128 0.0013672373

exp_avg_sq f4 [64, 1, 9, 9]
00000000: dc56 4537 6640 3d37 45c7 3537 8aa7 2637
00000010: ba12 2337 a588 2037 5d60 2337 1802 2d37
00000020: a38e 3837 c12f 4f37 b02d 4937 8f9f 4237
00000030: 38d8 3237 4343 2837 887b 2437 11bc 2237
00000040: a41c 2537 cd5b 3037 41a7 6137 e906 6037
00000050: 9919 5737 674f 4b37 2b76 3a37 27f0 2b37
00000060: b5b4 2437 3f79 2337 51c1 2937 961d 7437
00000070: 3c15 8137 98b2 7b37 eb1b 6537 478f 5037
00000080: 643d 3a37 e745 2d37 6034 2437 4e2c 2937
00000090: c33a 8837 298f 8e37 f797 9137 e9ad 8537
000000a0: 8f28 6737 fb5a 4937 2b08 3137 6d41 2637
000000b0: 2938 2737 e082 9337 1166 9b37 79c8 9f37
000000c0: 0e15 9037 eb53 8137 05f3 5a37 3fed 3e37
000000d0: e3ab 2d37 663a 2b37 7198 9737 eb9e a337
000000e0: ebcd a337 4fe1 9737 a542 8837 812e 6437
000000f0: 8c4e 4937 1dcc 3937 d582 3437 07e8 9237
00000100: 1d9d 9b37 2448 9c37 147a 9437 8526 8437
00000110: c032 6d37 0d1b 5037 c595 4537 26bf 3e37
00000120: e760 8a37 1d4b 8c37 5ddb 8e37 490d 8b37
00000130: cf33 8437 f35d 6f37 6d1f 5c37 0f57 5337
00000140: 5c0a 4a37 5361 2037 a987 2937 b036 3137
00000150: 5d9f 3c37 2064 4337 5765 3337 9f79 2537
00000160: b9b7 2c37 47e6 2337 b246 2637 d960 2e37
00000170: 1213 4637 1664 4437 097f 5737 0bac 4b37
00000180: e78f 3c37 be32 2f37 08cd 2d37 d8b6 2837
00000190: c33b 3537 0faa 4637 5fb5 6837 e6ac 6a37
000001a0: 2140 4b37 8f24 3e37 3122 2937 a5e2 2637
000001b0: 38c4 2637 872c 3037 538e 3b37 7ac6 6937
000001c0: 04ed 6937 7843 4c37 fb48 3837 7938 2f37
000001d0: 73fe 2337 37b6 1e37 220f 2837 ceba 3437
000001e0: 17db 5837 7cdb 6c37 901f 5337 8ff5 3e37
000001f0: 05c5 3c37 86a0 2537 ed32 1e37 ab4a 2037
00000200: aa7e 3537 1919 3837 94b7 4037 512f 4c37
00000210: a429 3937 ba3d 2e37 6396 2d37 b46d 1b37
00000220: a1dc 2637 2f3d 2937 140e 3137 fd2b 3437
00000230: e7aa 3e37 74a5 3c37 c1b3 3837 e363 2f37
00000240: 1acd 1537 14f4 1f37 50e4 1d37 5a71 2037
00000250: 56fb 3037 34fc 3037 73eb 3137 3373 3737
00000260: 50b9 3037 4551 1b37 191a 1c37 d197 2237
00000270: c103 2337 4d20 2037 d2cf 2037 603a 2e37
00000280: 596f 3137 16c6 3337 874e 2239 79c5 2639
00000290: 5ac7 2839 0b88 2239 3e92 1839 66d1 0f39
000002a0: 10ca 0939 f043 0639 56f5 0439 3286 2a39
000002b0: 13c4 3139 170a 3339 f2a7 2839 1862 1b39
000002c0: 1cf9 0f39 cd0c 0b39 3227 0939 ae1b 0839
000002d0: 75de 3039 9da1 3939 5a86 3639 a19e 2939
000002e0: 6ef1 1939 9e15 0e39 a12b 0c39 2128 0d39
000002f0: 5eae 0c39 aa29 3139 6c82 3639 161c 3239
00000300: 5dec 2139 d55b 1239 4e74 0c39 312d 1039
00000310: 944f 1439 9d87 1339 92af 2a39 2b2b 2d39
00000320: faea 2339 7e2d 1439 a0cb 0939 b2d5 0b39
00000330: c5aa 1539 083a 1d39 4c3a 1b39 2e14 1f39
00000340: 2c5c 1c39 38da 1139 18ed 0639 346a 0439
00000350: 3e28 0c39 2c74 1b39 40ec 1f39 a3ee 1d39
00000360: ff89 1039 51ef 0b39 663a 0439 b631 fe38
00000370: 0009 0339 e355 1039 81b7 1a39 95a6 2139
00000380: 6731 1e39 d490 0539 be5e 0139 0fc8 f938
00000390: bf54 f738 2e58 0339 3f59 0f39 7b2b 1939
000003a0: 109b 1c39 6ac8 1b39 6b33 ff38 508e fa38
000003b0: a5a6 f538 3eee f738 f27e 0139 4962 0939
000003c0: cf9a 1339 1d08 1639 8aca 1239 fadd 2e39
000003d0: eef0 2239 fcf8 3039 80c5 3439 4e12 3139
000003e0: bf5a 2739 28e6 2339 9860 2539 21d1 1d39
000003f0: 3049 2b39 acc2 2939 f7a1 2e39 dee4 3839
1.17623385e-05 1.1280272e-05 1.0834837e-05 9.933379e-06 9.719917e-06 9.568558e-06 9.737993e-06 1.0312091e-05
1.1000465e-05 1.234928e-05 1.1991171e-05 1.1600451e-05 1.0659969e-05 1.0029241e-05 9.803924e-06 9.69974e-06
9.841435e-06 1.05117915e-05 1.3449987e-05 1.3353049e-05 1.2820959e-05 1.211823e-05 1.1113977e-05 1.0248309e-05
9.817236e-06 9.743787e-06 1.0118195e-05 1.4550422e-05 1.5387886e-05 1.5002348e-05 1.3655964e-05 1.24311255e-05
1.1100758e-05 1.0327879e-05 9.787356e-06 1.00835005e-05 1.6239826e-05 1.6994383e-05 1.7356111e-05 1.5935819e-05
1.3778116e-05 1.2001717e-05 1.0551924e-05 9.909604e-06 9.9670515e-06 1.7584709e-05 1.8524968e-05 1.904763e-05
1.7175942e-05 1.5417076e-05 1.3050395e-05 1.1380121e-05 1.0351624e-05 1.0205991e-05 1.8071589e-05 1.9505116e-05
1.9527002e-05 1.810552e-05 1.6243497e-05 1.36006865e-05 1.1998822e-05 1.1074383e-05 1.0759298e-05 1.7512602e-05
1.8550601e-05 1.8630242e-05 1.7699822e-05 1.5753563e-05 1.4138117e-05 1.2404064e-05 1.1776986e-05 1.1369388e-05
1.6496006e-05 1.6724278e-05 1.7029868e-05 1.6576278e-05 1.5759751e-05 1.4267384e-05 1.3120339e-05 1.259685e-05
1.204255e-05 9.559403e-06 1.0104771e-05 1.0562755e-05 1.1242778e-05 1.1646218e-05 1.0692826e-05 9.8630835e-06
1.0294775e-05 9.769173e-06 9.910831e-06 1.0393757e-05 1.180616e-05 1.1705813e-05 1.2844576e-05 1.21398e-05
1.1239178e-05 1.0442627e-05 1.0359341e-05 1.0056152e-05 1.0802355e-05 1.18413145e-05 1.3870506e-05 1.3987743e-05
1.2114674e-05 1.13333945e-05 1.0081146e-05 9.947141e-06 9.940057e-06 1.0500785e-05 1.1179206e-05 1.3934094e-05
1.3943067e-05 1.2175056e-05 1.0984247e-05 1.0443961e-05 9.774801e-06 9.459959e-06 1.0017104e-05 1.077233e-05
1.2925614e-05 1.4117799e-05 1.2583929e-05 1.1382056e-05 1.1251545e-05 9.872141e-06 9.429391e-06 9.554128e-06
1.0817932e-05 1.0973098e-05 1.1486834e-05 1.2170364e-05 1.10365545e-05 1.038558e-05 1.0346618e-05 9.264262e-06
9.94574e-06 1.008743e-05 1.05533e-05 1.0739078e-05 1.1364674e-05 1.1244196e-05 1.1009107e-05 1.04540695e-05
8.928846e-06 9.533967e-06 9.411087e-06 9.563135e-06 1.0548936e-05 1.0549138e-05 1.0604842e-05 1.0934472e-05
1.0533564e-05 9.257642e-06 9.304401e-06 9.6913e-06 9.716431e-06 9.544264e-06 9.58513e-06 1.03848e-05
1.0575947e-05 1.0715352e-05 0.00015478778 0.00015904558 0.00016095993 0.00015500204 0.00014550329 0.0001371555
0.00013140612 0.00012804545 0.00012679896 0.00016262455 0.00016953079 0.00017074529 0.00016084293 0.00014818495
0.00013730343 0.00013260842 0.0001307994 0.00012980282 0.0001686754 0.0001770318 0.00017406922 0.0001617619
0.00014681157 0.00013550228 0.00013367693 0.00013461757 0.00013416397 0.00016895556 0.00017405458 0.00016985866
0.00015442209 0.00013957855 0.00013394767 0.00013749745 0.00014144025 0.00014069532 0.00016277868 0.00016514647
0.00015632427 0.00014131327 0.00013141194 0.0001333568 0.00014273364 0.00014994305 0.00014803669 0.00015170939
0.00014911656 0.0001390957 0.0001286756 0.00012628065 0.00013366432 0.0001482523 0.00015251432 0.00015061586
0.00013784318 0.00013345225 0.00012610256 0.00012120923 0.00012496486 0.00013764905 0.00014754945 0.00015416213
0.00015086458 0.00012737821 0.00012337693 0.00011910509 0.00011793663 0.00012525983 0.0001367079 0.00014607415
0.00014935085 0.00014856612 0.00012168925 0.00011947437 0.0001171355 0.00011822254 0.0001234969 0.00013101952
0.00014076683 0.00014308137 0.00013999097 0.00016676626 0.00015539277 0.00016877422 0.00017239712 0.00016886854
0.00015960167 0.00015630631 0.0001577161 0.00015050593 0.00016335095 0.00016189617 0.0001665427 0.00017632867

exp_avg f4 [64]
00000000: d81b d83a b71e a73b 1266 39bc 9b18 423b
00000010: fd9a e3bb 4228 d73a 978c 46bb cbb4 6dbb
00000020: 3be6 573a 06f9 1aba d516 47bb 6159 b23a
00000030: fd67 f2b8 60dc 0c3a 9771 4e3a 530d 88bb
00000040: 4ca4 c9bb 22bd 03bc 25b5 e53a d971 53bb
00000050: 0400 0080 04d4 9abb 07cb a1ba 2c93 843b
00000060: 71a1 273b 255e 863b 15bb fbbb 2675 d53a
00000070: 12cd d1bb 0b34 c8bb 73ce 073b 420d c1bb
00000080: bb12 0d3b d3a8 b33b 4ab9 773b 1b26 a8bb
00000090: 88ff d3bb 695c 86ba 2f7e 823b 8b2b 3f38
000000a0: 8c80 cbbb 24fd fc3a 6643 213b 1c73 a83b
000000b0: e13b 333b 1562 0cbc fa17 a7bb 147f 383b
000000c0: 1194 a53b e3b6 a83a d05f 91bb f773 fabb
000000d0: c43b 323b 1d2d 19ba faa4 9e3a 2d6c 30bb
000000e0: c8f0 823b fa49 58bb ac83 f43a c932 ea3a
000000f0: 4af6 263a 558f b63a 34c6 44b9 8a1a 81bb
0.001648779 0.005100097 -0.011315839 0.0029616717 -0.0069459663 0.0016415196 -0.00302962 -0.003627109
0.0008235906 -0.0005911741 -0.00303786 0.0013606959 -0.000115588286 0.00053734146 0.00078752026 -0.004151979
-0.006153619 -0.008040698 0.0017525299 -0.0032263903 -6e-45 -0.0047249813 -0.0012343832 0.0040458646
0.0025578404 0.0041005784 -0.007682214 0.0016285523 -0.00640262 -0.0061097196 0.0020722419 -0.005891473
0.0021526057 0.005482772 0.003779965 -0.0051314957 -0.0064696707 -0.0010250929 0.0039823274 4.55785e-05
-0.0062103923 0.0019301516 0.0024606823 0.005140675 0.0027348923 -0.008568306 -0.005099294 0.0028151916
0.0050530513 0.0012871887 -0.0044364706 -0.0076432186 0.0027196268 -0.0005843209 0.001210361 -0.0026919947
0.0039959885 -0.0033003078 0.0018654964 0.0017867918 0.00063690974 0.0013928214 -0.00018765853 -0.0039399313

exp_avg_sq f4 [64]
00000000: df21 f438 bb36 5039 f688 9d3a ec80 083b
00000010: 6d22 f63b 7717 df3a 683c b03a 40a8 0f3b
00000020: da5c a23a 74f7 6436 c932 113a 5f0a 673a
00000030: f09e c838 e161 263b 2023 a839 ffac 6e3c
00000040: 956a 2d3b 31bc ba3c 2167 023a 1ee0 613c
00000050: c178 df19 7680 693b 77c6 933a 4428 e239
00000060: 4c7d 463b c113 b339 a8f5 743a 6327 a53a
00000070: 13be 423b ae21 7f3c 2c63 603a 8106 643a
00000080: 6962 8c3b 7922 ea39 3be9 a539 dbb8 163b
00000090: a5b4 563c d98a 6239 c424 233a 5b04 a239
000000a0: c45b 143b 729b 233b d9a7 9938 1dba e33a
000000b0: 8387 0939 bb20 e33b 1776 193c 2d6b d139
000000c0: be13 743a d154 1138 b17b 673c f2df a43c
000000d0: 5dca 4a39 8d27 103a eb54 8539 6ff0 3b3a
000000e0: d20a b539 3d51 b239 ccbf 633a 2c56 4738
000000f0: a8fb d83a 4cf2 d537 e7a4 723a 4995 753b
0.00011641136 0.00019856814 0.0012018967 0.0020828797 0.007511428 0.0017020543 0.0013445737 0.0021920353
0.0012387291 3.4118684e-06 0.00055388786 0.0008813496 9.5663476e-05 0.002538793 0.00032069627 0.014567613
0.0026461233 0.022794815 0.0004974474 0.013786344 2.3106432e-23 0.0035629547 0.0011274357 0.0004313608
0.0030287085 0.00034156258 0.0009344467 0.0012600239 0.0029715344 0.015571995 0.00085596996 0.0008698479
0.0042841923 0.00044657642 0.00031645023 0.0022998366 0.013104592 0.00021604764 0.0006223435 0.00030902293
0.0022637704 0.0024964479 7.3268726e-05 0.0017374192 0.0001311582 0.006931392 0.009366534 0.0003994344
0.0009310803 3.4649685e-05 0.014128611 0.020126317 0.00019339607 0.00054990576 0.00025431006 0.0007169311
0.00034531072 0.00034011333 0.0008687943 4.752555e-05 0.0016554492 2.5504407e-05 0.000925614 0.0037473014

exp_avg f4 [32, 64, 5, 5]
00000000: dd7e 8238 daea 9838 6474 9138 2c74 7538
00000010: dae0 3c38 c67a 7238 f1bb 8038 a617 2638
00000020: 8c86 d937 f96f c637 5e2c 4f38 be65 3d38
00000030: 0047 d337 003f 7b36 8a62 d435 1ebc 9638
00000040: 9401 6238 3496 9137 b42e ba36 a153 65b7
00000050: 70a2 b238 bcf9 5738 7a57 c237 6466 8e35
00000060: 815b 35b7 7141 d536 538f 6836 de3c 9436
00000070: fab5 1c35 31e4 a8b5 374a 0d37 f886 8836
00000080: 0d16 0136 35cf cfb5 ac2a 9cb6 71e3 8f36
00000090: e0da 2236 e035 cb35 b765 06b6 c223 d5b5
000000a0: c0db 2036 8688 6536 01b8 4eb6 5e19 bbb5
000000b0: bd38 82b5 7f15 c2b5 2539 b335 07bc 3eb5
000000c0: e98e cfb6 e11c a0b6 f3f2 c6b8 f3b3 bfb8
000000d0: 4b12 72b8 b487 f9b7 6f03 ca36 76a4 f3b8
000000e0: 5cdd e9b8 2414 a3b8 1c10 0bb8 f7e6 1437
000000f0: 4ef3 d2b8 4333 84b8 a170 02b8 fb15 1136
00000100: 4094 a837 90da 40b8 f5d8 dfb7 ed1d a537
00000110: 4503 8538 4cb0 be38 51f8 0bb8 5d34 35b6
00000120: 3e6a 2b38 a72f a238 fc81 e838 3437 d6b7
00000130: 6e03 05b8 58d7 eab7 97e9 f4b7 1672 f1b7
00000140: 69d7 f2b7 db57 01b8 507e 09b8 7fa9 bbb7
00000150: e697 94b7 de6e fab7 1f92 05b8 3874 f7b7
00000160: 9001 87b7 f7d8 2bb7 9264 04b8 11f3 a3b7
00000170: c2c2 1fb7 3b4a 8f36 00cf b736 94e2 f2b7
00000180: 84ce f2b6 a9e8 0c37 6b05 9e37 e7d4 c637
00000190: 79ce 00b7 b744 f5b6 8466 3eb6 733b 3db6
000001a0: 37ac 60b4 b507 01b5 86e4 df35 3e35 70b6
000001b0: 014b 9fb6 66ab a2b6 f620 5e35 82ee cd33
000001c0: e7c2 4336 249c c035 deb2 b2b6 b320 0336
000001d0: c0db 9736 4603 0537 96ef 6336 f290 bc36
000001e0: 8098 a136 6de3 cb35 c876 7636 207d bf35
000001f0: 06f0 0c36 b492 1fb8 7b34 68b8 0665 9ab8
00000200: 4f5c a6b8 cfee 88b8 4642 7fb8 695d bbb8
00000210: 22ac cdb8 2472 dfb8 0ba3 c3b8 09cc 34b8
00000220: f2a8 85b8 aec9 aeb8 c412 b2b8 6778 8ab8
00000230: 9413 b3b7 1db6 c2b7 5894 1eb8 eee4 17b8
00000240: 43fc 94b7 bfee b937 8ff4 a137 66cd e037
00000250: 0fcb 1438 f8ba 5738 67b2 d2b7 acca d8b7
00000260: f8d4 e0b7 386e 61b7 e194 c835 c547 3db7
00000270: c6b0 69b7 eb58 24b7 9863 7bb6 ddc1 4b37
00000280: d515 a236 bd73 4937 a4b8 2837 0a35 3b37
00000290: 42be 9237 a1ba 5a37 a141 7837 3954 5037
000002a0: 82cc 3837 4ae9 9737 4d19 5037 1afb 1837
000002b0: 3f92 7f36 da72 1537 6716 6537 ac4a 12b7
000002c0: 33c3 28b7 5a80 5db7 7499 5fb7 8ece 2ab7
000002d0: 0465 0db7 432c 13b7 72da 46b7 f950 ecb6
000002e0: b61d a7b6 05ef 10b6 0ec1 25b5 ad5d a533
000002f0: 27b3 b434 a33f 4a35 8af5 02b5 97cd 1536
00000300: c093 8436 d360 7536 37dd 1636 1603 8036
00000310: ebcc c236 b5af c936 1112 9536 4c3e 8f36
00000320: dfbf 1cb6 b93c c536 7e71 2b37 3a86 8837
00000330: 166e 3e37 ab13 04b5 4147 0337 fc93 3537
00000340: e1c0 8137 8254 2c37 7a28 d1b5 8f86 8836
00000350: 1832 f836 de3e 6137 02eb df36 f7f0 ad33
00000360: 9907 9435 4197 bb36 0c65 1c37 c70c 3e37
00000370: bfca 8db6 96cd 58b6 ff47 9935 14ac d736
00000380: 8cee 4c37 c7b0 9b31 43bc b2b4 16d0 9534
00000390: d84d 09b4 8b20 e2b4 f979 cb33 0f84 8733
000003a0: 6296 3934 538b e432 a2fd 52b4 36e5 9a34
000003b0: 5b90 e433 6fab c331 fd3d 9bb3 4647 13b4
000003c0: af74 8933 b09d 5ab3 6797 65b3 aa49 d0b3
000003d0: 2952 83b4 7922 f8b3 cf26 6eb4 ca0a 53b4
000003e0: 640a 24b4 8aae 3ab4 ef17 cdb7 920c b8b7
000003f0: 449c 87b7 dfd2 32b7 ff52 fbb6 7c8e acb7
6.222513e-05 7.291669e-05 6.935818e-05 5.8520745e-05 4.5032102e-05 5.7811638e-05 6.1385224e-05 3.959951e-05
2.593107e-05 2.365558e-05 4.9393966e-05 4.5155866e-05 2.5186222e-05 3.7438585e-06 1.582391e-06 7.187597e-05
5.388407e-05 1.735529e-05 5.548669e-06 -1.3668935e-05 8.517958e-05 5.1492578e-05 2.3167337e-05 1.0609624e-06
-1.0809746e-05 6.355513e-06 3.465412e-06 4.4178296e-06 5.837934e-07 -1.2583388e-06 8.421534e-06 4.0688283e-06
1.9235333e-06 -1.5483007e-06 -4.65413e-06 4.2882098e-06 2.4267283e-06 1.5140358e-06 -2.0026762e-06 -1.5880144e-06
2.396977e-06 3.4203126e-06 -3.0803496e-06 -1.3939969e-06 -9.702268e-07 -1.4460383e-06 1.335317e-06 -7.105413e-07
-6.1857177e-06 -4.7717335e-06 -9.4866286e-05 -9.141108e-05 -5.7714333e-05 -2.9746305e-05 6.020469e-06 -0.00011617776
-0.00011151537 -7.776197e-05 -3.3155186e-05 8.875263e-06 -0.00010058899 -6.303799e-05 -3.109931e-05 2.1619478e-06
2.0096195e-05 -4.597992e-05 -2.66847e-05 1.9683468e-05 6.342543e-05 9.092744e-05 -3.3371445e-05 -2.7001581e-06
4.0868523e-05 7.733638e-05 0.000110868335 -2.5536494e-05 -3.1712865e-05 -2.7995251e-05 -2.919584e-05 -2.8782564e-05
-2.8948956e-05 -3.083782e-05 -3.2780983e-05 -2.2371065e-05 -1.7713708e-05 -2.9853949e-05 -3.1845757e-05 -2.9498813e-05
-1.6093982e-05 -1.024291e-05 -3.1564916e-05 -1.95443e-05 -9.522484e-06 4.2703737e-06 5.477923e-06 -2.8954157e-05
-7.2362036e-06 8.398821e-06 1.883759e-05 2.370258e-05 -7.677468e-06 -7.3095684e-06 -2.8371878e-06 -2.8197799e-06
-2.0924277e-07 -4.806746e-07 1.6681304e-06 -3.5793778e-06 -4.747301e-06 -4.8479296e-06 8.274941e-07 9.589441e-08
2.9170712e-06 1.4350558e-06 -5.3256363e-06 1.9539555e-06 4.525733e-06 7.92818e-06 3.3965093e-06 5.6197105e-06
4.8159272e-06 1.5190868e-06 3.6725996e-06 1.4267025e-06 2.1001338e-06 -3.8045182e-05 -5.5361987e-05 -7.362109e-05
-7.932691e-05 -6.529467e-05 -6.085846e-05 -8.934254e-05 -9.807224e-05 -0.00010654729 -9.328694e-05 -4.3105367e-05
-6.373403e-05 -8.334532e-05 -8.491197e-05 -6.6027795e-05 -2.134758e-05 -2.3211405e-05 -3.780829e-05 -3.6214413e-05
-1.7760443e-05 2.2164893e-05 1.9306577e-05 2.6798527e-05 3.5475063e-05 5.1434123e-05 -2.5117026e-05 -2.5843583e-05
-2.6802052e-05 -1.3436707e-05 1.4944491e-06 -1.1281988e-05 -1.39290405e-05 -9.795865e-06 -3.7459886e-06 1.214488e-05
4.830518e-06 1.2007481e-05 1.005657e-05 1.1158418e-05 1.7493152e-05 1.30372655e-05 1.4797232e-05 1.2417376e-05
1.101487e-05 1.8109236e-05 1.2403657e-05 9.11837e-06 3.8083087e-06 8.907833e-06 1.365468e-05 -8.719664e-06
-1.0059029e-05 -1.3202511e-05 -1.3327564e-05 -1.0180882e-05 -8.427774e-06 -8.772188e-06 -1.185258e-05 -7.0427745e-06
-4.9804466e-06 -2.15968e-06 -6.174822e-07 7.700451e-08 3.3657963e-07 7.534347e-07 -4.878608e-07 2.23224e-06
3.951107e-06 3.6564204e-06 2.2480506e-06 3.8150565e-06 5.805506e-06 6.010722e-06 4.4426492e-06 4.2689844e-06
-2.3357495e-06 5.8781266e-06 1.0218819e-05 1.6274967e-05 1.1350514e-05 -4.920245e-07 7.824799e-06 1.0822896e-05
1.5467815e-05 1.0271675e-05 -1.5583494e-06 4.0687805e-06 7.3968076e-06 1.34256825e-05 6.6732764e-06 8.0997715e-08
1.102907e-06 5.5906426e-06 9.321851e-06 1.13278575e-05 -4.22573e-06 -3.2306175e-06 1.1420342e-06 6.427532e-06
1.2214889e-05 4.531191e-09 -3.3292062e-07 2.7904815e-07 -1.2787439e-07 -4.2119458e-07 9.475111e-08 6.310449e-08
1.7284177e-07 2.660605e-08 -1.9650045e-07 2.8851508e-07 1.06433355e-07 5.6947367e-09 -7.2290256e-08 -1.3716371e-07
6.400784e-08 -5.0900496e-08 -5.3455917e-08 -9.699154e-08 -2.446043e-07 -1.15546705e-07 -2.2179596e-07 -1.9654831e-07
-1.527747e-07 -1.7386097e-07 -2.444905e-05 -2.1940363e-05 -1.6166021e-05 -1.0658724e-05 -7.490045e-06 -2.0570347e-05
