logs/biosr_ccps_rcan_model-SRCNN_250305_lr0.0001_bs1_Ps256_Npatch128_N300/model_154.pth (torch, 695046 bytes, 15 tensors)

conv1.weight f4 [64, 1, 9, 9]
0.080835976 -0.028282883 0.0834384 -0.022253819 0.04637188 -0.039191347 0.13392575 -0.012610199
0.20211571 -0.027651813 -0.09258156 0.048587915 -0.04940011 0.031827126 0.04324575 0.030337285
0.077191986 0.105542876 0.08546244 0.038380165 -0.09629348 -0.018540207 -0.051279813 -0.09413853
-0.06846283 -0.07228911 0.04944819 -0.10280683 -0.034501716 0.023295093 -0.07713129 -0.10039128
0.0018197956 -0.030864386 -0.042266198 0.07331711 -0.073000304 -0.062816605 -0.004377293 0.04308836
-0.032138657 0.071936816 0.05149666 0.06473609 0.022987656 -0.036541894 -0.09799791 -0.0020281312
-0.09495551 0.025410416 0.026009353 0.021997526 0.05326199 0.12389391 -0.05439188 -0.028392449
-0.009371999 0.032180928 0.077518724 0.06019404 -0.046348482 0.10460617 0.0062755086 0.037837178
0.03571351 0.0015311297 -0.051439077 -0.052180607 0.009789858 -0.066286504 -0.022468206 -0.06756059
0.043061182 -0.024092473 0.021352982 0.05549165 -0.048835315 -0.008256155 -0.085441895 -0.0057616592
-0.06951837 -0.04743734 -0.003991611 -0.029121978 0.007037702 0.072183795 -0.032000687 -0.12300088
0.05656084 -0.016807783 0.019672977 -0.017380774 0.057402477 -0.10137228 0.069550775 0.07411455
0.07221473 0.03477199 0.09043563 0.03395985 0.01874905 -0.02197569 0.084715374 0.0740625
-0.04927429 0.012344898 -0.094113484 -0.024353694 0.02746647 -0.013488415 -0.11959596 0.083196044
0.030466488 -0.091092184 -0.10460841 -0.0469954 -0.0933478 -0.062480096 -0.0595816 -0.101330966
0.04812872 0.11816399 0.002687686 -0.04155287 0.08597474 -0.104427144 -0.034140937 -0.094187856
0.033282265 -0.086576015 -0.09270894 0.045284893 -0.06677142 -0.09349447 0.0034293924 -0.050833076
0.06936574 0.0076814555 0.007222794 -0.041098308 0.059506323 0.07093119 0.08391698 0.012900138
-0.11725699 0.009474792 -0.07242787 -0.09405154 0.07217931 0.04119404 0.03336972 0.109572455
0.030548042 -0.017787928 -0.029459774 0.04763871 0.016495464 -0.0647737 -0.098064646 0.06716774
0.07311774 0.12179942 0.06410497 0.123516634 -0.050606918 0.061521087 0.03674792 0.027826544
-0.076485105 -0.06589887 0.046606634 0.1107454 0.07242686 -0.03093107 0.118783936 0.056923177
0.017890021 0.020693485 0.0881192 0.07429829 0.083218426 -0.05200787 0.09323258 0.09867868
-0.00042209798 0.059913248 -0.07200057 -0.1082158 -0.08430521 0.119350694 0.107715756 0.021644318
0.096518114 0.08361962 -0.042151473 0.02240801 -0.061937798 -0.1276169 0.109146416 -0.04010907
-0.031130506 0.020892663 0.0683863 0.07928648 -0.03054872 0.004475986 -0.005375638 -0.03712805
-0.012718303 0.021476932 -0.078469545 0.05051212 -0.10884394 0.02442048 -0.1113335 -0.13649447
0.029134354 0.024022983 -0.04261172 0.06392702 0.08912999 0.009887024 -0.107866995 -0.11547322
-0.16036212 0.009049878 0.10442472 0.012789343 -0.09788408 0.06968348 0.028104713 -0.080349
-0.15168716 0.019528855 0.11255693 0.02039007 -0.03620186 -0.02624299 -0.04497033 -0.11556384
0.0062498585 -0.095001675 -0.12949614 0.106444955 -0.08579408 0.0976685 0.11856644 0.07447529
-0.03421544 -0.045473926 0.024969181 -0.07563772 0.049820755 -0.0047859587 0.008497409 0.114518255
00000000: 558d a53d 81b1 e7bc c0e1 aa3d a44d b6bc
00000010: 71f0 3d3d 1b87 20bd d523 093e 029b 4ebc
00000020: 6cf7 4e3e 0e86 e2bc 679b bdbd 1f04 473d
00000030: c557 4abd 295d 023d 7522 313d e685 f83c
00000040: d516 9e3d dd26 d83d ef06 af3d 8534 1d3d
00000050: 8435 c5bd a2e1 97bc c80a 52bd b4cb c0bd
00000060: 3d36 8cbd 500c 94bd 2f8a 4a3d 638c d2bd
00000070: ac51 0dbd 5ad5 be3c 03f7 9dbd f299 cdbd
00000080: 3586 ee3a 4fd7 fcbc 521f 2dbd 4827 963d
00000090: 2f81 95bd fea5 80bd 656f 8fbb 6c7d 303d
000000a0: d3a3 03bd 9c53 933d 29ee 523d 5b94 843d
000000b0: 9c50 bc3c f4ac 15bd 21b3 c8bd 65ea 04bb
000000c0: 0978 c2bd 8129 d03c 9111 d53c 2834 b43c
000000d0: 3f29 5a3d 17bc fd3d 05ca 5ebd 4897 e8bc
000000e0: 038d 19bc 26d0 033d 23c2 9e3d 078e 763d
000000f0: e8d7 3dbd c23b d63d c8a2 cd3b 28fb 1a3d
00000100: 5448 123d 30b0 c83a c8b1 52bd 55bb 55bd
00000110: a465 203c 38c1 87bd 3e0f b8bc 355d 8abd
00000120: ec60 303d 945d c5bc 73ec ae3c 364b 633d
00000130: 8a07 48bd d344 07bc 29fc aebd 4dcc bcbb
00000140: a65f 8ebd a84d 42bd 0fcc 82bb 3791 eebc
00000150: 869c e63b 19d5 933d 2713 03bd e3e7 fbbd
00000160: 57ac 673d 7ab0 89bc 3929 a13c 2062 8ebc
00000170: dc1e 6b3d 459c cfbd a370 8e3d 5fc9 973d
00000180: 51e5 933d 136d 0e3d 5136 b93d 7c19 0b3d
00000190: 9c97 993c 5d06 b4bc 417f ad3d 14ae 973d
000001a0: d7d3 49bd 4142 4a3c 92be c0bd 6681 c7bc
000001b0: 5d01 e13c 83fe 5cbc baee f4bd b062 aa3d
000001c0: db94 f93c 8a8e babd ef3c d6bd 407e 40bd
000001d0: 222d bfbd 21eb 7fbd d60b 74bd 9c86 cfbd
000001e0: 9f22 453d f6ff f13d e323 303b 5833 2abd
000001f0: 8613 b03d e6dd d5bd 5ed7 0bbd 90e5 c0bd
00000200: fc52 083d c44e b1bd 2fde bdbd a77c 393d
00000210: 74bf 88bd 077a bfbd a8bf 603b 5836 50bd
00000220: a00f 8e3d b8b4 fb3b 30ad ec3b b356 28bd
00000230: e7bc 733d 5f44 913d aadc ab3d 1a5b 533c
00000240: 6f24 f0bd 283c 1b3c 1055 94bd 189e c0bd
00000250: bfd2 933d 15bb 283d b0ae 083d 8667 e03d
00000260: e33f fa3c fdb7 91bc a055 f1bc cf20 433d
00000270: 7f21 873c 13a8 84bd 1ed6 c8bd 3d8f 893d
00000280: c1be 953d f971 f93d 7749 833d 4af6 fc3d
00000290: 3349 4fbd 89fd 7b3d fd84 163d 7ef4 e33c
000002a0: 39a4 9cbd fdf5 86bd 99e6 3e3d 7cce e23d
000002b0: 8954 943d 2863 fdbc fe44 f33d 4728 693d
000002c0: 188e 923c 6285 a93c d777 b43d b429 983d
000002d0: 6c6e aa3d 3406 55bd b9f0 be3d 0c18 ca3d
000002e0: 084d ddb9 9867 753d 0975 93bd 3fa0 ddbd
000002f0: 36a8 acbd 236e f43d 149a dc3d 6d4f b13c
00000300: 4aab c53d c340 ab3d 06a7 2cbd 0191 b73c
00000310: 7db2 7dbd 01ae 02be 2888 df3d 6849 24bd
00000320: 6705 ffbc 1727 ab3c 1e0e 8c3d f360 a23d
00000330: 4f41 fabc 4bab 923b 1f26 b0bb 9513 18bd
00000340: 6e60 50bc 64f0 af3c a4b4 a0bd cce5 4e3d
00000350: 92e9 debd 750d c83c d102 e4bd 35c5 0bbe
00000360: 2bab ee3c d9cb c43c a089 2ebd 2bec 823d
00000370: c989 b63d 2ffd 213c 5fe9 dcbd 397d ecbd
00000380: f835 24be f145 143c a1dc d53d 648a 513c
00000390: 7377 c8bd 36b6 8e3d db3b e63c 048e a4bd
000003a0: e153 1bbe fafa 9f3c 3f84 e63d 1309 a73c
000003b0: 6748 14bd 8afb d6bc cf32 38bd bcac ecbd
000003c0: 9dcb cc3b 3d90 c2bd a39a 04be d0ff d93d
000003d0: ceb4 afbd 6c06 c83d f6d2 f23d 8086 983d
000003e0: 7d25 0cbd de42 3abd 2b8c cc3c f3e7 9abd
000003f0: d910 4c3d 88d3 9cbb b738 0b3c 8c88 ea3d

conv1.bias f4 [64]
0.026032988 0.05187832 0.017674312 0.005097651 -0.102334574 0.07640289 0.09141077 -0.07409701
-0.03753361 0.029007562 -0.036371894 -0.017305026 -0.102350384 -0.016848966 -0.079731725 -0.06532966
0.091714114 -0.024124878 -0.0030588827 -0.020632466 -0.036000006 -0.10299802 -0.11653424 -0.019027146
-0.01872532 0.018112749 -0.026095286 -0.07938877 -0.07498342 -0.061725497 -0.03184422 -0.01986634
-0.07999433 -0.08246661 0.06750461 -0.002086971 -0.07240819 0.049265746 -0.025587687 0.15643239
0.047917534 0.061011817 -0.020682203 -0.020628236 0.03410429 -0.121398516 -0.012007965 -0.03517781
0.022305828 -0.031184357 0.10696792 -0.06273177 0.006092384 -0.0030888089 0.06831105 -0.059104484
0.036741197 -0.0808761 0.009775058 0.011562224 -0.015657516 0.0007339801 0.05463935 -0.08378802
00000000: 2243 d53c 5c7e 543d b8c9 903c 320a a73b
00000010: ca94 d1bd 1e79 9c3d 9235 bb3d 2cc0 97bd
00000020: d8bc 19bd 44a1 ed3c b2fa 14bd 45c3 8dbc
00000030: 149d d1bd d806 8abc 634a a3bd 8fcb 85bd
00000040: 9cd4 bb3d 89a1 c5bc 8977 48bb 6b05 a9bc
00000050: be74 13bd a0f0 d2bd 81a9 eebd d1de 9bbc
00000060: d865 99bc 3061 943c c8c5 d5bc 9496 a2bd
00000070: e890 99bd e0d3 7cbd 166f 02bd bcbe a2bc
00000080: 11d4 a3bd 41e4 a8bd db3f 8a3d 90c5 08bb
00000090: bf4a 94bd e1ca 493d 459d d1bc d02f 203e
000000a0: 2d45 443d 87e7 793d b96d a9bc 8cfc a8bc
000000b0: f1b0 0b3d c99f f8bd 0ebd 44bc 9b16 10bd
000000c0: b6ba b63c 5676 ffbc ff11 db3d 8479 80bd
000000d0: 9fa2 c73b 9d6d 4abb aae6 8b3d 8b17 72bd
000000e0: f07d 163d 5ea2 a5bd 9127 203c 7b6f 3d3c
000000f0: 3144 80bc 9268 403a 83cd 5f3d 0e99 abbd

conv2.weight f4 [32, 64, 5, 5]
-0.022887528 -0.038251624 0.014799926 -0.010654217 0.03055195 0.0052859774 -0.010924354 0.025842119
-0.0077812006 0.010523979 -0.003538148 -0.00648481 -0.006731555 -0.019505464 0.0019443028 -0.044148505
-0.021105558 -0.03463249 -0.03357197 -0.00027104423 0.0010439862 0.01689786 0.01996001 0.037485488
0.05025445 -0.11895929 -0.01875216 0.054176345 0.0014828234 -0.024163349 -0.0013705461 -0.038373377
0.058470067 0.03974295 0.0022735381 -0.0667232 -0.084533826 -0.0030072771 -0.01923994 -0.0078067924
-0.09006893 -0.08067982 -0.020697903 -0.012171581 -0.011129384 -0.05106488 -0.015713764 0.00673586
0.0017745834 -0.025611384 0.016791413 0.008497454 0.022756105 0.02924862 0.014934153 -0.029081967
-0.013369259 -0.015899355 -0.013594987 0.0108985985 -0.030993478 -0.0009077522 -0.008383624 0.010211345
0.0118287485 -0.044255324 -0.0044436664 -0.03370683 0.033621594 0.06292371 -0.0038924655 0.0115627395
0.019836832 0.05178628 0.162623 0.021460712 -0.027360061 -0.005258929 -0.006066772 0.029864881
0.009900118 0.004450468 -0.037155762 -0.009249924 0.015494404 -0.01165958 0.0074484567 0.0033205103
0.024234883 0.015719045 -0.0066315914 -0.035567533 -0.0132263545 -0.007318437 -0.026873041 -0.032398764
-0.046499968 -0.05132007 -0.12096406 -0.16880624 0.0033547657 0.011407639 0.008031623 -0.017646123
-0.04570182 0.018398495 0.005560908 -0.0047657685 0.0075839483 -0.048232872 0.033331845 0.024045596
0.003412091 -0.0017071222 -0.03234125 -0.0020904283 0.01982701 -0.047472883 -0.032670293 -0.024790887
0.06184174 0.011505565 0.037807565 0.045582548 0.060657743 0.0052951816 0.012601174 0.0011569114
0.018498005 -0.018526541 0.0023110856 0.008236283 -0.003982279 0.0076285116 -0.031466633 -0.028483232
-0.02602255 -0.027650699 -0.033781704 -0.030184906 0.0029826614 -0.008334592 0.0024154591 0.015631916
-0.0009168387 0.01036144 0.03030605 0.0181431 0.028191699 0.014712021 0.003570728 0.033938564
0.054370735 -0.024713797 -0.060155865 -0.004540147 -0.00433116 -0.023892958 -0.06768144 -0.041024905
0.009129026 -0.008377742 -0.009701722 -0.05853605 -0.0019150446 0.05320198 0.019338261 -0.052605063
0.0060553607 0.008669837 0.043426044 0.041318923 -0.042344548 0.01783265 0.07511934 -0.021018602
-0.030038137 0.012114581 -0.019113082 -0.031919353 -0.032398112 0.014829558 0.022084085 -0.023190957
0.023052849 0.0016691033 0.03636684 0.014703641 -0.0076074405 -0.012081663 0.022078393 -0.0019540705
-0.012785549 0.013635416 0.036172464 0.032149274 0.010371093 0.012713843 0.05513522 0.10692721
0.038006634 -0.05500137 -0.034100477 -0.02057201 -0.047671527 -0.012083374 -0.030995958 -0.041554626
-0.0043441304 0.018701583 -0.09723112 -0.032122392 -0.07530429 -0.051155906 0.09993131 -0.14933184
-0.11447792 -0.081616506 -0.049316674 0.087832734 -0.06404967 -0.07250891 -0.05340813 0.052823886
0.14967608 0.018325623 -0.0067985873 -0.005965632 -0.038872488 -0.02891527 0.043636832 0.0026244426
-0.021174245 -0.06295236 0.042757217 -0.07971509 -0.05060873 -0.07134982 -0.054187745 0.07682954
-0.112928696 -0.08418873 -0.016457144 0.065997414 0.071533866 -0.1030898 -0.036127646 -0.022743555
0.27505103 0.033076905 0.06611082 -0.024046307 -0.053248335 -0.07458978 -0.12169298 0.056948185
00000000: a07e bbbc bcad 1cbd 647b 723c 068f 2ebc
00000010: 1548 fa3c fe35 ad3b 10fc 32bc dab2 d33c
00000020: 71f9 febb c46c 2c3c 46e0 67bb 877e d4bb
00000030: 6094 dcbb ecc9 9fbc fad7 fe3a 10d5 34bd
00000040: 90e5 acbc ccda 0dbd c382 09bd f11a 8eb9
00000050: 5dd6 883a 626d 8a3c 2d83 a33c 628a 193d
00000060: 9cd7 4d3d eea0 f3bd 219e 99bc 04e8 5d3d
00000070: 4c5b c23a 37f2 c5bc e5a3 b3ba 672d 1dbd
00000080: 4f7e 6f3d 81c9 223d a4ff 143b 2ca6 88bd
00000090: 1220 adbd bd15 45bb 149d 9dbc 1fd0 ffbb
000000a0: 0f76 b8bd 763b a5bd a68e a9bc 506b 47bc
000000b0: 0558 36bc 6829 51bd 27ba 80bc 7db8 dc3b
000000c0: 2399 e83a f7ce d1bc 258e 893c e838 0b3c
000000d0: 036b ba3c cd9a ef3c 61ae 743c 4e3d eebc
000000e0: bd0a 5bbc 5d3f 82bc 82bd 5ebc 0990 323c
000000f0: 09e6 fdbc 38f6 6dba 785b 09bc 7c4d 273c
00000100: 5ecd 413c 1245 35bd 2d9c 91bb 2c10 0abd
00000110: ccb6 093d 25de 803d bc18 7fbb a571 3d3c
00000120: da80 a23c da1d 543d a586 263e 60ce af3c
00000130: 3522 e0bc 1853 acbb c6cb c6bb 32a7 f43c
00000140: 1b34 223c 3bd5 913b a430 18bd fe8c 17bc
00000150: 3edc 7d3c d307 3fbc 2f12 f43b eb9c 593b
00000160: 3c88 c63c 3ac5 803c d24d d9bb 43af 11bd
00000170: 5ab3 58bc 80cf efbb da24 dcbc 91b4 04bd
00000180: c076 3ebd fe34 52bd 01bc f7bd 8bdb 2cbe
00000190: a1db 5b3b 1be7 3a3c 1297 033c 9a8e 90bc
000001a0: d531 3bbd 71b8 963c 4738 b63b 2a2a 9cbb
000001b0: c582 f83b d58f 45bd f986 083d 45fb c43c
000001c0: 639d 5f3b 84c1 dfba 4278 04bd 91ff 08bb
000001d0: 416c a23c ed72 42bd 49d1 05bd 4216 cbbc
000001e0: c44d 7d3d d681 3c3c 1bdc 1a3d c4b4 3a3d
000001f0: 4174 783d 3483 ad3b 2875 4e3c 81a3 973a
00000200: 2189 973c f9c4 97bc 9575 173b 7af1 063c
00000210: c77d 82bb 98f8 f93b 28e3 00bd ab55 e9bc
00000220: 3e2d d5bc b883 e2bc af5e 0abd 5646 f7bc
00000230: c178 433b d08d 08bc ae4c 1e3b 810e 803c
00000240: 0158 70ba 07c3 293c 6544 f83c d7a0 943c
00000250: 47f2 e63c b00a 713c e002 6a3b 2a03 0b3d
00000260: d9b3 5e3d 9774 cabc ff65 76bd 83c5 94bb
00000270: 67ec 8dbb 2abb c3bc 919c 8abd bb09 28bd
00000280: e991 153c cc42 09bc f9f3 1ebc 7fc3 6fbd
00000290: 3c02 fbba 52ea 593d 466b 9e3c 6878 57bd
000002a0: 0c6c c63b ef0b 0e3c 82df 313d 083e 293d
000002b0: 7a71 2dbd c715 923c 2bd8 993d 342f acbc
000002c0: 8a12 f6bc 3c7c 463c 0a93 9cbc debd 02bd
000002d0: e2b3 04bd adf7 723c afe9 b43c f6fa bdbc
000002e0: 54d9 bc3c d0c5 da3a 65f5 143d 8ae7 703c
000002f0: d647 f9bb 2bf2 45bc bfdd b43c dd0f 00bb
00000300: 7b7a 51bc 1467 5f3c 9429 143d f5ae 033d
00000310: 84eb 293c b94d 503c 78d5 613d a7fc da3d
00000320: d8ac 1b3d 1e49 61bd f1ac 0bbd a286 a8bc
00000330: 3843 43bd 58f9 45bc 3ceb fdbc 2f35 2abd
00000340: 3559 8ebb 1034 993c 1c21 c7bd c592 03bd
00000350: 2339 9abd db88 51bd c9a8 cc3d 72ea 18be
00000360: 6673 eabd 8e26 a7bd 4800 4abd a6e1 b33d
00000370: 792c 83bd 8d7f 94bd 7cc2 5abd dc5d 583d
00000380: b044 193e 9e1f 963c afc6 debb 597b c3bb
00000390: c238 1fbd b7df ecbc 89bc 323d d7fe 2b3b
000003a0: 9c75 adbc 2bed 80bd 3122 2f3d aa41 a3bd
000003b0: 1a4b 4fbd db1f 92bd f8f3 5dbd ce58 9d3d
000003c0: 2947 e7bd 246b acbd 22d1 86bc a729 873d
000003d0: 5980 923d bf20 d3bd 95fa 13bd b150 babc
000003e0: 7dd3 8c3e a67b 073d 1c65 873d c3fc c4bc
000003f0: ed1a 5abd 87c2 98bd 2b3a f9bd 8042 693d

conv2.bias f4 [32]
0.005557867 -0.033562534 0.0121996235 -0.022433022 0.015091414 -0.016947456 -0.022505956 0.018441783
-0.012510935 -0.019022454 -0.024904834 0.014196378 -0.011697865 -0.015380375 0.01615895 -0.029010087
-0.02593451 -0.014251246 0.0017927139 -0.0579775 0.050160002 -0.008732081 -0.010776904 0.0041521355
-0.017927932 -0.010120798 -0.019019315 0.020127458 -0.027192747 0.0038516412 0.020390127 -0.026662668
00000000: c51e b63b de78 09bd eee0 473c 75c5 b7bc
00000010: fa41 773c 64d5 8abc 695e b8bc 3913 973c
00000020: aafa 4cbc fad4 9bbc 3905 ccbc ed97 683c
00000030: 67a8 3fbc f8fd 7bbc c65f 843c 90a6 edbc
00000040: 9c74 d4bc 0f7e 69bc 7ff9 ea3a d179 6dbd
00000050: 9374 4d3d 0111 0fbc 9d91 30bc a30e 883b
00000060: 99dd 92bc b4d1 25bc 65ce 9bbc 57e2 a43c
00000070: 53c3 debc d16b 7c3b 3209 a73c ab6b dabc

conv3.weight f4 [1, 32, 5, 5]
-0.049594983 -0.017432401 -0.023352474 -0.031795375 0.003353565 0.005363122 -0.028731992 -0.053026974
-0.011825993 0.016221887 0.019442089 -0.045316033 -0.04170668 -0.0015376695 0.009084045 -0.0055758404
-0.024000982 -0.028928483 -0.014402243 0.01752988 0.070221595 0.056428123 0.04921197 0.04034328
0.121043704 -0.040852014 -0.02722968 -0.04434619 -0.00918707 -0.0028548995 -0.040986337 -0.053313944
-0.023822298 -0.013955785 -0.032045715 -0.032668687 -0.014083909 -0.040682014 -0.026447574 -0.013927967
-0.040208858 0.0116396835 -0.038780738 -0.012695799 -0.02255497 -0.006571475 -0.05755053 -0.017486319
-0.02789285 -0.001268777 0.036488317 -0.014880689 0.0064675277 0.033109028 0.034385078 -0.008603622
0.017269302 -0.020205252 -0.013950726 -0.026515076 0.013003628 -0.028897876 -0.016221931 -0.014503212
0.0047121886 0.0053372723 -0.0067800456 -0.027245887 -0.004937272 0.017335793 0.012622622 -0.017169451
-0.0055328114 -0.0320433 0.01900252 -0.03154043 -0.02166191 -0.05431969 -0.04969375 -0.025589053
-0.010822126 0.023812871 0.021213952 -0.012768071 0.028607203 -0.0050354474 -0.018286003 0.01631218
-0.0052581574 0.032852393 0.010860555 0.012449876 -0.022571754 -0.008051771 0.039056633 0.048543673
0.025989635 0.0051843827 0.03746757 0.081838764 -0.07652631 -0.039060794 -0.02296519 -0.012371957
-0.06776921 -0.0025849573 -0.004611719 0.038868554 -0.020066416 -0.018276816 -0.026647579 -0.0036294104
0.017757036 -0.0013471356 0.01336643 -0.02276986 0.020090088 -0.008730896 -0.012877592 0.008421496
-0.013595181 0.03576237 0.0302112 0.004896046 0.011988071 -0.10968396 -0.08203909 -0.043919362
-0.057311516 -0.064888395 -0.03401292 -0.033605386 -0.03339485 -0.032824174 -0.032209855 -0.0812698
-0.02032451 -0.057799418 0.0026713514 -0.06826983 -0.055595815 -0.0073035304 -0.03409599 -0.03550704
-0.0149067305 -0.08036489 -0.053768676 -0.04536022 -0.0133514535 -0.036616206 0.041797467 -0.007219447
-0.006068539 0.037158623 0.029904252 -0.009467282 -0.0025715542 -0.011717242 0.0018582998 0.033164423
-0.028580848 0.007200294 -0.0029576782 -0.007414531 0.010315151 0.02761096 -0.017915895 -0.0082714595
0.0043062945 0.010660052 0.015972272 0.029352887 0.0147448145 0.02461002 0.007213365 0.07476517
0.06957193 0.021242296 0.007490275 0.04076331 0.08075629 0.020351281 0.022608638 0.017063688
0.031231001 0.062448233 -0.009700307 0.03647277 -0.010830978 -0.0036091325 0.031598374 0.031572077
0.032997865 0.003521862 0.01221976 0.02453033 0.022436215 0.018828629 0.0045976243 0.042152546
0.044696424 0.041737814 0.0478474 0.035860855 0.07377365 -0.0013520152 0.039227016 0.0024328604
0.024394287 0.056954566 0.0178645 0.024185577 0.042283364 0.005296046 0.0194829 0.021537865
0.011462882 0.026952202 0.02018792 0.0075269523 0.029132163 0.013161601 0.030311693 -0.015267838
0.023081932 0.041051883 0.027377415 0.023937637 0.049195267 0.03699868 0.042021777 0.02496486
0.009451135 0.022782914 0.036841635 -0.0014080671 -0.0009000894 0.01696017 0.03516974 0.0238737
0.033351403 0.042092215 0.025050905 0.0051517356 0.04332351 0.049876444 0.054227043 0.039519843
0.037461966 0.07204073 0.027529353 -0.005452438 0.014759893 -0.0035720174 0.04158754 0.0022136366
00000000: 1c24 4bbd 65ce 8ebc b04d bfbc de3b 02bd
00000010: 7cc7 5b3b 21bd af3b 5b5f ebbc d032 59bd
00000020: cfc1 41bc c3e3 843c 0445 9f3c 4e9d 39bd
00000030: a0d4 2abd a08b c9ba 3fd5 143c 8ab5 b6bb
00000040: b59d c4bc 6dfb ecbc 63f7 6bbc d39a 8f3c
00000050: 57d0 8f3d 2d21 673d 7e92 493d ff3e 253d
00000060: c3e5 f73d 7154 27bd c710 dfbc 5aa4 35bd
00000070: 5d85 16bc 4419 3bbb 4ae1 27bd b95f 5abd
00000080: fb26 c3bc cea6 64bc 5e42 03bd 9acf 05bd
00000090: 32c0 66bc 2fa2 26bd 95a8 d8bc 2132 64bc
000000a0: 0bb2 24bd 5fb4 3e3c 8dd8 1ebd 0a02 50bc
000000b0: 33c5 b8bc 8755 d7bb 1bba 6bbd 783f 8fbc
000000c0: 8c7f e4bc 174d a6ba c674 153d 22ce 73bc
000000d0: 8eed d33b 559d 073d 5ed7 0c3d 35f6 0cbc
000000e0: 5a78 8d3c 7c85 a5bc 9691 64bc 2536 d9bc
000000f0: 2b0d 553c 3dbb ecbc dbe3 84bc e19e 6dbc
00000100: b468 9a3b 49e4 ae3b 252b debb c432 dfbc
00000110: d7c8 a1bb cb03 8e3c 1dcf 4e3c f3a6 8cbc
00000120: 964c b5bb d63f 03bd 2cab 9b3c 8a30 01bd
00000130: 5174 b1bc 537e 5ebd ac8b 4bbd 22a0 d1bc
00000140: 494f 31bc 3613 c33c e2c8 ad3c 2c31 51bc
00000150: a759 ea3c 6500 a5bb 87cc 95bc 1fa1 853c
00000160: 9f4c acbb 3b90 063d 78f0 313c 91fa 4b3c
00000170: 66e8 b8bc 93eb 03bc d9f9 1f3d bbd5 463d
00000180: 37e8 d43c c1e1 a93b 9877 193d 159b a73d
00000190: d3b9 9cbd 36fe 1fbd 7e21 bcbc c0b3 4abc
000001a0: 95ca 8abd 6368 29bb e71d 97bb a234 1f3d
000001b0: 5362 a4bc 43b9 95bc 064c dabc 67db 6dbb
000001c0: 3477 913c 5f92 b0ba dffe 5a3c dc87 babc
000001d0: f893 a43c 080c 0fbc 89fc 52bc 50fa 093c
000001e0: 52be 5ebc 907b 123d 7a7d f73c 036f a03b
000001f0: 9d69 443c fca1 e0bd 1c04 a8bd cae4 33bd
00000200: 7bbf 6abd 35e4 84bd 2251 0bbd cda5 09bd
00000210: 0ac9 08bd a472 06bd 7bee 03bd c870 a6bd
00000220: 967f a6bc 15bf 6cbd d711 2f3b 0dd1 8bbd
00000230: 70b8 63bd 7452 efbb 3da8 0bbd d46f 11bd
00000240: 5c3b 74bc 5996 a4bd 8b3c 5cbd a3cb 39bd
00000250: 0ec0 5abc e0fa 15bd d233 2b3d 1c91 ecbb
00000260: 98da c6bb a433 183d c3f9 f43c a91c 1bbc
00000270: 8587 28bb adf9 3fbc 3292 f33a 6bd7 073d
00000280: 6222 eabc 72f0 eb3b 9bd5 41bb 98f5 f2bb
00000290: e100 293c 6130 e23c 5bc4 92bc 0485 07bc
000002a0: d11b 8d3b 80a7 2e3c 48d8 823c 7775 f03c
000002b0: 3c94 713c f49a c93c 175e ec3b 7b1e 993d
000002c0: ba7b 8e3d 5304 ae3c fb70 f53b 6ef7 263d
000002d0: 8e63 a53d bbb7 a63c c035 b93c 26c9 8b3c
000002e0: 28d8 ff3c b8c9 7f3d 09ee 1ebc 7964 153d
000002f0: 6a74 31bc 3287 6cbb 4c6d 013d b951 013d
00000300: c528 073d 0acf 663b 6335 483c d5f3 c83c
00000310: 27cc b73c 7f3e 9a3c aba7 963b 26a8 2c3d
00000320: 9913 373d 45f5 2a3d a3fb 433d d5e2 123d
00000330: a416 973d 1a36 b1ba 82ac 203d a070 1f3b
00000340: 87d6 c73c 3149 693d 9258 923c d520 c63c
00000350: 5231 2d3d 748a ad3b 9a9a 9f3c 2d70 b03c
00000360: d0ce 3b3c ddca dc3c 2361 a53c a7a4 f63b
00000370: 93a6 ee3c c1a3 573c 3a50 f83c f425 7abc
00000380: 5216 bd3c 0526 283d 9a46 e03c dd18 c43c
00000390: fa80 493d ee8b 173d 071f 2c3d 1b83 cc3c
000003a0: efd8 1a3c 3ca3 ba3c 41e7 163d e48e b8ba
000003b0: faf3 6bba 0ef0 8a3c 250e 103d c792 c33c
000003c0: 7b9b 083d e368 2c3d 8e37 cd3c e4cf a83b
000003d0: fe73 313d 3e4b 4c3d 2d1d 5e3d 8fdf 213d
000003e0: b871 193d 178a 933d 3d85 e13c 5daa b2bb
000003f0: 7ad3 713c 8218 6abb b257 2a3d a912 113b

exp_avg f4 [64, 1, 9, 9]
0.00032508798 0.00027738354 0.00024300498 0.00018369441 0.00012952667 8.843828e-05 9.8583936e-05 0.00014611345
0.00019113962 0.00030533166 0.00026067308 0.00025521536 0.00019714342 0.00014355239 0.0001100236 0.00013296747
0.00015876725 0.00020378095 0.0003262939 0.0002900337 0.00026035964 0.00021866015 0.00016764062 0.00012910394
0.00010755165 0.00014276129 0.00017951087 0.0003745111 0.00035041937 0.00033374084 0.00026676324 0.00021059308
0.00012852087 5.035405e-05 6.608565e-05 0.00010654272 0.00038070494 0.00038581865 0.000402353 0.0003376096
0.00021199665 8.8325105e-05 -2.4390223e-05 -2.7909638e-05 2.967963e-05 0.00035960396 0.00040160766 0.00040222862
0.00033800342 0.00023441052 6.964999e-05 -4.7188947e-05 -5.290748e-05 -2.0557847e-05 0.00037816062 0.00040887867
0.00040040188 0.00036092388 0.00027099156 0.00011258184 -1.2992027e-05 -2.405568e-05 -9.468512e-06 0.0004061292
0.00043482805 0.0004105159 0.00035309463 0.00027947413 0.00014092574 5.2494393e-05 1.0579534e-05 2.1158527e-05
0.0004094943 0.00042220557 0.00039298588 0.0003683048 0.0002613011 0.00017756574 0.00013195467 0.00012021864
0.00011995047 0.0006280692 0.0006457786 0.0006279167 0.00062682515 0.0006511824 0.0006085026 0.00062911113
0.0006669797 0.0006639063 0.00063066615 0.00063484145 0.0006690899 0.0006219407 0.0006495382 0.0006595738
0.000646284 0.0006742333 0.00069819536 0.0006323872 0.0006409786 0.00062932854 0.0006452785 0.0006686065
0.0006272848 0.00066994055 0.0006656806 0.0006893874 0.0006409842 0.00063387066 0.00065850787 0.0006873538
0.0006706705 0.0006764557 0.00066079566 0.00068923784 0.0006915686 0.0006206983 0.00065224594 0.000660083
0.00066974066 0.00069487304 0.0006958713 0.0007373581 0.00074901077 0.00071857485 0.0006097152 0.00062393973
0.000641888 0.0006467179 0.0006500049 0.00071679766 0.0007274968 0.00073214696 0.0007466498 0.00062602124
0.000622259 0.00062386313 0.00062957726 0.0006625134 0.0006896355 0.00073570583 0.00075799786 0.00075120555
0.00061156624 0.0006231655 0.00063491584 0.00061944453 0.00067848834 0.00065687473 0.0007094702 0.0007588637
0.0007715577 0.0006177286 0.000619023 0.0006429143 0.0006432055 0.0006458974 0.0006423809 0.00070265576
0.00071770983 0.0007566859 -0.0013608389 -0.0013669056 -0.0012827552 -0.0012031994 -0.0011090211 -0.001019616
-0.0009755888 -0.0009684591 -0.0010246558 -0.0014117787 -0.0014263194 -0.0014167535 -0.0013360983 -0.0011988417
-0.0010335397 -0.00095392525 -0.00088077306 -0.00091342564 -0.001459172 -0.0014781937 -0.001424956 -0.0013634365
-0.0012184096 -0.0010220374 -0.0008593705 -0.00079574704 -0.00077517127 -0.001373501 -0.0014158203 -0.0014289769
-0.0013660551 -0.0011952295 -0.0010242065 -0.00072944036 -0.00063582754 -0.0006458531 -0.0013002885 -0.0013891673
-0.0014013674 -0.0013153014 -0.0011457591 -0.0009259084 -0.00061671145 -0.0005583934 -0.00058328983 -0.0012369076
-0.0012321118 -0.001341761 -0.0012717755 -0.0010912921 -0.00086009305 -0.0005776914 -0.0004933849 -0.00054083177
-0.0011228883 -0.0011525656 -0.0011819473 -0.0011704068 -0.0009944013 -0.0007577959 -0.00056618743 -0.00055870006
-0.00057628425 -0.0011388405 -0.001088093 -0.0011810191 -0.0010714732 -0.0009652331 -0.0007986137 -0.0006230656
-0.00057637104 -0.0006540955 -0.0010516109 -0.0010797399 -0.0011329887 -0.0010899878 -0.00096775097 -0.00085612806
-0.0007018917 -0.0007328442 -0.00079925614 0.0027333503 0.002698136 0.0027701475 0.0027672525 0.0025634035
0.00253646 0.0025574248 0.0026694576 0.0025105795 0.0027045459 0.0026281448 0.0027258098 0.0027586143
00000000: 9270 aa39 ca6d 9139 27cf 7e39 189e 4039
00000010: 8dd1 0739 f177 b938 d9be ce38 0836 1939
00000020: a76c 4839 ec14 a039 f3aa 8839 6dce 8539
00000030: 49b8 4e39 8d86 1639 78bc e638 2f6d 0b39
00000040: c27a 2639 08ae 5539 6d12 ab39 aa0f 9839
00000050: e180 8839 2348 6539 b0c8 2f39 1360 0739
00000060: 5a8d e138 31b2 1539 153b 3c39 075a c439
00000070: 7eb8 b739 f0f9 ae39 5bdc 8b39 a6d2 5c39
00000080: 8fc3 0639 4033 5338 7797 8a38 b06f df38
00000090: 5a99 c739 b447 ca39 e8f2 d239 3201 b139
000000a0: 6b4b 5e39 2e3b b938 9b99 ccb7 7e1f eab7
000000b0: 85f8 f837 3a89 bc39 de8e d239 36e2 d239
000000c0: 0d36 b139 18cc 7539 0e11 9238 bfec 45b8
000000d0: f9e8 5db8 a473 acb7 dc43 c639 c45e d639
000000e0: 08ed d139 623a bd39 df13 8e39 ea19 ec38
000000f0: 55f8 59b7 2ecb c9b7 f3da 1eb7 bded d439
00000100: a2f9 e339 833a d739 8f1f b939 6286 9239
00000110: 77c5 1339 6d2d 5c38 c17e 3137 977d b137
00000120: 65b1 d639 795b dd39 ac09 ce39 0919 c139
00000130: 3dff 8839 f130 3a39 505d 0a39 e41d fc38
00000140: eb8d fb38 03a5 243a 7849 293a c79a 243a
00000150: 8651 243a 1cb4 2a3a eb83 1f3a efea 243a
00000160: 40d8 2e3a ff09 2e3a 4a53 253a 7d6b 263a
00000170: dd65 2f3a bc09 233a c545 2a3a 40e7 2c3a
00000180: 636b 293a 08bf 303a 1907 373a c9c6 253a
00000190: 5807 283a 86f9 243a e827 293a 6c45 2f3a
000001a0: 5f70 243a f39e 2f3a 1281 2e3a 01b8 343a
000001b0: b907 283a 572a 263a b79f 2c3a 882f 343a
000001c0: efcf 2f3a 2c54 313a 3f39 2d3a f8ad 343a
000001d0: 624a 353a 5cb6 223a 7cfb 2a3a 6c09 2d3a
000001e0: 8991 2f3a 2428 363a 226b 363a 444b 413a
000001f0: 4359 443a be5e 3c3a 4bd5 1f3a e38f 233a
00000200: 6044 283a 8188 293a 1765 2a3a 7ae7 3b3a
00000210: 7cb5 3e3a 8ded 3f3a d2ba 433a 931b 243a
00000220: 181f 233a bf8a 233a 370a 253a 86ac 2d3a
00000230: a8c8 343a 62dc 403a 60b4 463a 8dec 443a
00000240: 8451 203a ee5b 233a 7b70 263a 3862 223a
00000250: 95dc 313a 1e32 2c3a bdfb 393a 7bee 463a
00000260: 5c42 4a3a 11ef 213a ee45 223a 4089 283a
00000270: ca9c 283a 7151 293a 7465 283a 6e32 383a
00000280: b124 3c3a 555c 463a 2d5e b2ba be29 b3ba
00000290: 1f22 a8ba acb4 9dba 935c 91ba a3a4 85ba
000002a0: a8be 7fba 31e0 7dba be4d 86ba 6f0b b9ba
000002b0: 56f3 baba 5cb2 b9ba 0520 afba 7422 9dba
000002c0: d677 87ba d710 7aba aee3 66ba f572 6fba
000002d0: b041 bfba f3bf c1ba 97c5 baba 56b5 b2ba
000002e0: 0bb3 9fba e2f5 85ba 6147 61ba ae99 50ba
000002f0: dd34 4bba 0c07 b4ba 0c93 b9ba 824c bbba
00000300: 340d b3ba 3fa9 9cba ab3e 86ba ea37 3fba
00000310: aaad 26ba 784e 29ba 716e aaba b814 b6ba
00000320: 16ae b7ba 3166 acba 4c2d 96ba a9b8 72ba
00000330: ceaa 21ba 2661 12ba ebe7 18ba bb1f a2ba
00000340: d07e a1ba 07de afba b4b1 a6ba b009 8fba
00000350: de77 61ba 3770 17ba 8056 01ba 9bc6 0dba
00000360: e12d 93ba af11 97ba 92eb 9aba 5668 99ba
00000370: 9256 82ba d2a6 46ba 326c 14ba ba75 12ba
00000380: c811 17ba 2545 95ba 589e 8eba 6dcc 9aba
00000390: ad70 8cba b207 7dba 0f5a 51ba 3a55 23ba
000003a0: 9b17 17ba 9b77 2bba 35d6 89ba 0f86 8dba
000003b0: cb80 94ba ecdd 8eba abb0 7dba c86d 60ba
000003c0: 28ff 37ba 571c 40ba 2c85 51ba 0222 333b
000003d0: 36d3 303b 5d8b 353b cb5a 353b c6fe 273b
000003e0: bd3a 263b 789a 273b 11f2 2e3b 8988 243b
000003f0: c03e 313b f43c 2c3b 80a3 323b dec9 343b

exp_avg_sq f4 [64, 1, 9, 9]
1.4039302e-05 1.3481868e-05 1.2934735e-05 1.2043592e-05 1.1976758e-05 1.19795495e-05 1.2173659e-05 1.2838091e-05
1.3507321e-05 1.4691377e-05 1.426918e-05 1.3844533e-05 1.29199525e-05 1.2408699e-05 1.2346864e-05 1.2294846e-05
1.2366202e-05 1.3033187e-05 1.5879496e-05 1.5747035e-05 1.529712e-05 1.4702249e-05 1.3800421e-05 1.300153e-05
1.2510747e-05 1.2335819e-05 1.26845425e-05 1.7206972e-05 1.8099961e-05 1.775721e-05 1.6484155e-05 1.5377118e-05
1.4000395e-05 1.3138499e-05 1.2449817e-05 1.2638093e-05 1.9151315e-05 1.9891191e-05 2.040451e-05 1.908545e-05
1.6896804e-05 1.5059491e-05 1.343255e-05 1.25928145e-05 1.2502396e-05 2.073349e-05 2.168525e-05 2.2293507e-05
2.0391066e-05 1.8690364e-05 1.6234013e-05 1.4330156e-05 1.3067e-05 1.27764915e-05 2.1248772e-05 2.2685846e-05
2.2702254e-05 2.1282305e-05 1.950541e-05 1.6724685e-05 1.4975659e-05 1.3853155e-05 1.3370297e-05 2.0627838e-05
2.165954e-05 2.167523e-05 2.0750318e-05 1.8769104e-05 1.720147e-05 1.5307594e-05 1.4601405e-05 1.4020405e-05
1.961845e-05 1.9704677e-05 1.9921372e-05 1.9356905e-05 1.8635543e-05 1.7094348e-05 1.594512e-05 1.5451935e-05
1.4774019e-05 8.519571e-06 9.193427e-06 9.795621e-06 1.0618109e-05 1.1104838e-05 1.0005569e-05 8.99819e-06
9.408806e-06 8.808975e-06 8.943766e-06 9.594953e-06 1.12588295e-05 1.1259555e-05 1.2500761e-05 1.1604281e-05
1.05018435e-05 9.576704e-06 9.421721e-06 9.163127e-06 1.0076763e-05 1.1342841e-05 1.365973e-05 1.3769756e-05
1.157374e-05 1.0637849e-05 9.168738e-06 8.957284e-06 9.109881e-06 9.811161e-06 1.0635726e-05 1.3735918e-05
1.3628372e-05 1.1556646e-05 1.0195079e-05 9.548571e-06 8.745112e-06 8.617023e-06 9.307731e-06 1.01669875e-05
1.25763545e-05 1.3782573e-05 1.1987578e-05 1.0562534e-05 1.03426055e-05 8.778439e-06 8.627086e-06 8.819939e-06
1.0244279e-05 1.0351922e-05 1.0819204e-05 1.1521801e-05 1.0114727e-05 9.299899e-06 9.149838e-06 8.456637e-06
9.262925e-06 9.387165e-06 9.868291e-06 9.943742e-06 1.0512508e-05 1.0242333e-05 9.831654e-06 9.128631e-06
8.06056e-06 8.774395e-06 8.613022e-06 8.697137e-06 9.735707e-06 9.559493e-06 9.442002e-06 9.620697e-06
9.089097e-06 8.413996e-06 8.4735075e-06 8.921032e-06 8.826784e-06 8.561107e-06 8.4785615e-06 9.144626e-06
9.189113e-06 9.270473e-06 0.00016198066 0.00016603386 0.00016787011 0.00016351858 0.00015597719 0.0001502782
0.00014650666 0.00014507683 0.00014556215 0.00016879218 0.00017482394 0.00017637099 0.00016873848 0.00015840062
0.0001507241 0.00014928977 0.00015010856 0.00015023195 0.00017396014 0.00018133069 0.00017970164 0.00016946037
0.00015753019 0.0001501876 0.00015166985 0.00015484101 0.00015554896 0.00017407566 0.00017911982 0.00017569937
0.00016306374 0.00015204203 0.00015037386 0.00015772566 0.00016377273 0.00016332953 0.00016907253 0.00017083208
0.0001637509 0.00015178758 0.00014605492 0.00015229266 0.0001648269 0.0001740571 0.00017209798 0.00015900325
0.00015745267 0.00014922822 0.00014124066 0.00014339332 0.00015375725 0.0001719166 0.00017659599 0.00017442659
0.00014740981 0.00014415689 0.00013827605 0.00013676632 0.00014376565 0.00015957929 0.00017080469 0.00017817073
0.00017422675 0.00013906845 0.00013641993 0.00013368376 0.00013449772 0.00014516614 0.00015889476 0.00016915196
0.00017245578 0.00017219246 0.00013548888 0.0001343096 0.00013318933 0.00013597295 0.00014316097 0.00015196664
0.0001632503 0.00016555884 0.00016195321 0.00017232443 0.00016113225 0.00017458049 0.00017814459 0.00017478276
0.00016548988 0.00016194914 0.00016293442 0.00015570663 0.00016912389 0.00016764634 0.00017236483 0.00018236731
00000000: 588a 6b37 2f30 6237 4402 5937 d50e 4a37
00000010: c9ef 4837 c6fb 4837 783d 4c37 2e63 5737
00000020: 809d 6237 fc7a 7637 a965 6f37 d145 6837
00000030: c6c2 5837 f52e 5037 6125 4f37 f645 4e37
00000040: 6f78 4f37 1da9 5a37 f534 8537 8018 8437
00000050: 5152 8037 aea9 7637 5b88 6737 2521 5a37
00000060: 40e5 5137 f0f5 4e37 b2cf 5437 b157 9037
00000070: 5fd5 9737 51f5 9437 7447 8a37 1cfe 8037
00000080: 3de3 6a37 6c6d 5c37 8fdf 5037 3208 5437
00000090: 23a7 a037 02dc a637 5a2a ab37 b119 a037
000000a0: 9cbd 8d37 05a8 7c37 5d5c 6137 ba45 5337
000000b0: 62c1 5137 d5ec ad37 b8e8 b537 f102 bb37
000000c0: 7b0d ab37 40c9 9c37 472e 8837 8d6b 7037
000000d0: 563a 5b37 9d5a 5637 643f b237 7c4d be37
000000e0: b870 be37 6787 b237 8d9f a337 fd4b 8c37
000000f0: f73f 7b37 d96a 6837 fd50 6037 f209 ad37
00000100: 82b1 b537 34d3 b537 f810 ae37 5872 9d37
00000110: e04b 9037 cf68 8037 8ff8 7437 2e39 6b37
00000120: 4d92 a437 794b a537 d21c a737 a360 a237
00000130: 8653 9c37 d565 8f37 e2c1 8537 c79e 8137
00000140: eedd 7737 47ef 0e37 783d 1a37 df57 2437
00000150: 6e24 3237 eb4e 3a37 97dd 2737 eff6 1637
00000160: 84da 1d37 42ca 1337 2f0d 1637 02fa 2037
00000170: 4ee4 3c37 6ce7 3c37 5cba 5137 02b0 4237
00000180: 1331 3037 a1ab 2037 fc11 1e37 55bb 1937
00000190: 5e0f 2937 224d 3e37 182c 6537 a704 6737
000001a0: d62c 4237 3779 3237 6ed3 1937 3e47 1637
000001b0: a4d6 1837 9e9a 2437 1870 3237 5273 6637
000001c0: 69a5 6437 6be3 4137 880b 2b37 cd32 2037
000001d0: f8b7 1237 d591 1037 6628 1c37 e192 2a37
000001e0: 08ff 5237 b33b 6737 411e 4937 bd35 3137
000001f0: 2785 2d37 1c47 1337 0dbd 1037 59f9 1337
00000200: d8de 2b37 2bad 2d37 2184 3537 c24d 4137
00000210: 6cb2 2937 c306 1c37 4182 1937 fbe0 0d37
00000220: f667 1b37 917d 1d37 fd8f 2537 0cd4 2637
00000230: e15e 3037 7cd6 2b37 a2f2 2437 2c27 1937
00000240: d73b 0737 bd35 1337 a680 1037 ebe9 1137
00000250: 8b56 2337 b661 2037 1769 1e37 9468 2137
00000260: 607d 1837 d629 0d37 7029 0e37 8aab 1537
00000270: c016 1437 ada1 0f37 253f 0e37 df6b 1937
00000280: f12a 1a37 6188 1b37 5ad9 2939 6019 2e39
00000290: 4a06 3039 2f76 2b39 cf8d 2339 ff93 1d39
000002a0: 959f 1939 c41f 1839 0ba2 1839 cefd 3039
000002b0: f250 3739 3af0 3839 64ef 3039 5818 2639
000002c0: b10b 1e39 ab8a 1c39 7666 1d39 9587 1d39
000002d0: 1269 3639 9623 3e39 4b6e 3c39 2cb1 3139
000002e0: b02e 2539 ad7b 1d39 9109 1f39 d15c 2239
000002f0: db1a 2339 1488 3639 1cd2 3b39 f13b 3839
00000300: 17fc 2a39 796d 1f39 adad 1d39 2963 2539
00000310: 68ba 2b39 7043 2b39 1049 3139 6321 3339
00000320: 8cb4 2b39 2b29 1f39 5226 1939 c0b0 1f39
00000330: 62d5 2c39 1983 3639 3375 3439 1cba 2639
00000340: e119 2539 257a 1c39 001a 1439 da5b 1639
00000350: e639 2139 8344 3439 a02c 3939 48e6 3639
00000360: 0592 1a39 d228 1739 32fe 1039 ee68 0f39
00000370: ccbf 1639 bd54 2739 091a 3339 57d3 3a39
00000380: a3b0 3639 e7d2 1139 f20b 0f39 762d 0c39
00000390: f507 0d39 bd37 1839 fd9c 2639 625e 3139
000003a0: 3fd5 3439 908e 3439 0512 0e39 75d5 0c39
000003b0: bda8 0b39 f693 0e39 7b1d 1639 3c59 1f39
000003c0: 2b2e 2b39 dd99 2d39 fcd1 2939 fdb1 3439
000003d0: 9cf5 2839 980f 3739 53cc 3a39 e445 3739
000003e0: 5a87 2d39 e4d0 2939 60d9 2a39 2e45 2339
000003f0: d956 3139 39ca 2f39 d5bc 3439 da39 3f39

exp_avg f4 [64]
0.00075413584 0.0027282692 -0.0036724224 0.008380091 -0.00628607 0.005724581 0.0011855412 -0.0039227013
0.0028982894 -0.00017456192 0.003279344 0.002260524 0.0010639988 -0.007738845 -0.0019310489 -0.0068662832
0.009894233 -0.01617587 -9.008631e-05 -0.00843915 -6e-45 -0.008862296 0.0023700367 -0.00027341107
0.0005682142 0.0061490936 0.0011471473 0.0008290814 -0.0041281525 -0.0073439344 -0.00063169684 -0.00898427
-0.008984671 0.0018938325 0.0020174908 -0.0034488763 -0.010433823 0.0016568493 -0.0060181604 -0.00280605
-0.00643885 0.016646374 -0.0012681426 0.0008847434 0.0013108263 -0.004215763 -0.004224132 -4.0042847e-05
0.002299832 0.00023240925 0.036052015 -0.009738178 0.0024587512 -0.00012017605 0.0011462219 -0.0022260726
0.0027047475 0.00258436 -0.0013823046 0.0011975439 0.005519422 -0.00065443304 0.0012200641 -0.0052085537
00000000: 33b1 453a c3cc 323b 06ad 70bb a64c 093c
00000010: 61fb cdbb 4495 bb3b 2964 9b3a 018a 80bb
00000020: 3af1 3d3b 9c0a 37b9 43ea 563b 4d25 143b
00000030: e075 8b3a 2396 fdbb 401b fdba 8ffe e0bb
00000040: 6c1b 223c 4283 84bc b8ec bcb8 5c44 0abc
00000050: 0400 0080 2a33 11bc 9e52 1b3b 9d58 8fb9
00000060: 36f4 143a 567e c93b e05b 963a b656 593a
00000070: 7445 87bb 63a5 f0bb 7598 25ba c232 13bc
00000080: 7134 13bc 793a f83a e137 043b 8b06 62bb
00000090: a0f2 2abc a32a d93a fd33 c5bb b5e5 37bb
000000a0: fdfc d2bb fa5d 883c ce37 a6ba 20ee 673a
000000b0: 08d0 ab3a 6224 8abb 966a 8abb aef3 27b8
000000c0: c7b8 163b e2b2 7339 47ab 133d e18c 1fbc
000000d0: 0023 213b 0707 fcb8 d33c 963a 4de3 11bb
000000e0: 2242 313b 5e5e 293b 722e b5ba e8f6 9c3a
000000f0: 44dc b43b 428e 2bba 8fea 9f3a 84ac aabb

exp_avg_sq f4 [64]
0.00013484486 0.00015851387 0.0013061236 0.0021277561 0.007361719 0.0017149507 0.0015799287 0.0024787667
0.0013611221 5.519544e-06 0.00058826705 0.0010576372 0.00010616543 0.002603526 0.00028481288 0.014242755
0.0025746718 0.023484433 0.00053993467 0.014507101 7e-43 0.0030131158 0.0012379064 0.0004842158
0.002984388 0.00032747348 0.000858854 0.001270651 0.0029694713 0.01552282 0.0009619243 0.0009318003
0.004017826 0.00047947952 0.00022783471 0.0023244156 0.013669177 0.00018086872 0.00064286485 0.00032263456
0.002719186 0.0024255344 7.620327e-05 0.0016070596 0.000103936094 0.0060767485 0.009686366 0.00041005932
0.0010138979 3.748568e-05 0.013749621 0.019584058 0.00024998738 0.0005228218 0.0002027173 0.0008322473
0.00034538918 0.00036089853 0.0009091344 4.5090474e-05 0.0020404633 2.2199965e-05 0.00076983054 0.0037686736
00000000: 2465 0d39 be36 2639 3c32 ab3a d371 0b3b
00000010: 933a f13b 32c8 e03a 9c15 cf3a ce72 223b
00000020: ae67 b23a 8634 b936 ef35 1a3a 6aa0 8a3a
00000030: 22a5 de38 eb9f 2a3b f052 9539 725a 693c
00000040: d3bb 283b 6d62 c03c 678a 0d3a 31af 6d3c
00000050: f401 0000 b277 453b 3f41 a23a 58de fd39
00000060: b995 433b bfb0 ab39 b724 613a f98b a63a
00000070: 769b 423b 6d53 7e3c a629 7c3a 0f44 743a
00000080: f8a7 833b a762 fb39 eae6 6e39 3955 183b
00000090: aff4 5f3c 94a7 3d39 ee85 283a 4727 a939
000000a0: 5f34 323b b7f5 1e3b 52cf 9f38 f9a3 d23a
000000b0: 44f8 d938 761f c73b 90b3 1e3c 3bfd d639
000000c0: c5e4 843a f139 1d38 1746 613c bf6e a03c
000000d0: bd10 8339 fa0d 093a 8390 5439 2c2b 5a3a
000000e0: 5a15 b539 fb36 bd39 fa52 6e3a 871f 3d38
000000f0: 4bb9 053b 103a ba37 74ce 493a dafb 763b

exp_avg f4 [32, 64, 5, 5]
0.0001576669 0.00014578595 0.00013116063 0.00014921595 0.0001356435 0.00018302097 0.00016850374 0.00017930854
0.0001714892 0.00014428442 0.00019370881 0.00019748088 0.00018963483 0.00017368687 0.00013982618 0.00018429634
0.00018215242 0.00016815266 0.000154261 0.000110143934 0.00018544239 0.00016667267 0.00013719333 0.0001240799
8.883251e-05 7.387602e-06 7.8699695e-06 7.7395225e-06 5.6107683e-06 4.234506e-06 1.3751239e-05 1.0131934e-05
1.0816568e-05 1.0191593e-05 6.473627e-06 1.0508084e-05 8.299216e-06 5.757775e-06 5.408037e-06 5.853463e-06
4.741738e-06 1.8272378e-06 2.24881e-06 6.4233416e-07 2.0207285e-06 2.795726e-06 2.4271733e-06 -1.8686571e-06
-1.731381e-06 -4.0206262e-07 7.294586e-05 8.915415e-05 0.00010784925 0.00015151432 0.00021021608 5.7946756e-05
9.268403e-05 0.000118918615 0.00015117627 0.00022466999 5.991426e-05 0.00010866353 0.000134647 0.00017270724
0.00023121444 8.471629e-05 0.0001451083 0.00018319902 0.00022069187 0.00028669796 0.00013396108 0.00018916806
0.00022758874 0.00028187167 0.00032740735 3.7520595e-06 1.8671324e-05 3.2322063e-05 3.9641323e-05 4.2586275e-05
-7.8895187e-07 1.35176415e-05 1.7077542e-05 2.2679302e-05 2.9266273e-05 4.35616e-06 5.8871583e-06 1.7442899e-06
8.480845e-06 1.7985485e-05 3.1079276e-06 1.77415e-06 3.347394e-06 7.6166693e-06 1.7673661e-05 -7.9720525e-07
1.2777485e-06 4.087542e-06 1.6641457e-05 3.750038e-05 9.024821e-06 1.02323265e-05 1.9952926e-05 1.4924638e-05
1.597427e-05 1.8457265e-05 1.6382495e-05 2.2678152e-05 1.892576e-05 1.827993e-05 1.835873e-05 2.0980391e-05
1.6135935e-05 2.2651499e-05 1.5532318e-05 7.1970953e-06 1.4033303e-05 1.4633336e-05 1.5874004e-05 8.319154e-06
1.6907577e-05 2.7676846e-05 2.6417272e-05 2.3773246e-05 1.5264912e-05 0.00012524494 0.00012377587 0.00010061957
9.7867756e-05 0.00010087203 0.000110278066 9.6994314e-05 7.717328e-05 7.539047e-05 7.218486e-05 7.494159e-05
5.396123e-05 6.069416e-05 6.7673864e-05 8.0675585e-05 0.00010204062 9.96152e-05 9.067423e-05 0.00010268685
0.00012056841 0.000118180375 0.00012831962 0.0001654363 0.00016265153 0.00018769146 8.383149e-06 1.08724935e-05
8.625922e-06 2.0793714e-05 2.7239354e-05 9.899668e-06 9.621612e-06 1.5010995e-05 2.4678893e-05 3.0244277e-05
9.9642375e-06 1.2047971e-05 1.4638305e-05 2.1553906e-05 3.0742012e-05 2.074882e-05 2.4113595e-05 2.8410303e-05
3.1396434e-05 3.9876326e-05 2.436692e-05 3.1670683e-05 3.2965407e-05 3.89399e-05 3.9753817e-05 3.864906e-06
4.8382467e-06 6.480671e-07 -3.0027059e-06 -1.056529e-06 1.6686498e-06 -1.343005e-06 -3.5600583e-06 -5.0058366e-06
-3.6466017e-06 -1.2988518e-06 -3.7409804e-06 -3.6139477e-06 -5.0508615e-06 -1.1683902e-06 2.7514925e-06 6.2049384e-07
1.8702933e-06 -4.7492128e-07 9.08152e-06 7.4641084e-06 8.590734e-06 1.1886563e-05 9.956171e-06 1.2533798e-05
8.4632375e-06 1.664161e-05 2.138264e-05 2.2902237e-05 3.785969e-05 9.7243965e-06 1.987754e-05 2.6613734e-05
3.449192e-05 3.821283e-05 8.187002e-06 1.40540615e-05 2.2115863e-05 3.1080835e-05 3.4935932e-05 6.077859e-06
1.0591702e-05 1.1672441e-05 1.5043738e-05 2.1462038e-05 5.8713777e-06 3.6404283e-06 3.8267913e-06 9.318176e-06
9.252709e-06 -1.9823703e-07 2.6307154e-07 1.5833783e-07 2.4904895e-07 4.1170605e-07 -3.8489625e-07 -3.958116e-08
-3.4616437e-07 -2.8626727e-07 9.309116e-08 -1.3506966e-07 2.6119304e-07 -3.3970917e-08 1.7058099e-08 -1.7463175e-07
-9.8565934e-08 -8.031042e-08 -2.903675e-07 -8.1933244e-08 -1.7420619e-07 1.689118e-07 3.625445e-07 1.4033407e-07
-1.864748e-07 -7.107364e-08 -5.015386e-06 -3.880983e-07 7.957685e-06 1.7656794e-05 2.1356598e-05 -3.1555423e-06
00000000: 6353 2539 1ede 1839 2a88 0939 da76 1c39
00000010: 863b 0e39 51e9 3f39 61b0 3039 c504 3c39
00000020: c8d1 3339 0e4b 1739 501e 4b39 df12 4f39
00000030: b6d8 4639 b71f 3639 4e9e 1239 ac3f 4139
00000040: 2b00 3f39 2352 3039 1fc1 2139 13fd e638
00000050: 5073 4239 dbc4 2e39 8edb 0f39 721b 0239
00000060: 974b ba38 05e3 f736 4309 0437 ffd8 0137
00000070: 2244 bc36 2116 8e36 1fb5 6637 53fc 2937
00000080: ce78 3537 8ffc 2a37 0838 d936 e14b 3037
00000090: dc3c 0b37 e932 c136 af76 b536 dd68 c436
000000a0: 381b 9f36 6a3f f535 43ea 1636 de6c 2c35
000000b0: da9b 0736 359e 3b36 85e2 2236 92ce fab5
000000c0: cc61 e8b5 11db d7b4 83fa 9838 45f8 ba38
000000d0: 202d e238 d1df 1e39 736d 5c39 db0b 7338
000000e0: 5c5f c238 f263 f938 1285 1e39 6495 6b39
000000f0: 724c 7b38 4ae2 e338 0730 0d39 bf18 3539
00000100: 2772 7239 b6a9 b138 3628 1839 1d19 4039
00000110: 8669 6739 f34f 9639 e777 0c39 6a5b 4639
00000120: e3a4 6e39 2dc8 9339 dfa7 ab39 e4cb 7b36
00000130: 5da0 9c37 8d91 0738 8c44 2638 aa9e 3238
00000140: 5cc8 53b5 d4c9 6237 be41 8f37 6e3f be37
00000150: d880 f537 212b 9236 4e8a c536 581d ea35
00000160: f448 0e37 89df 9637 ca91 5036 541f ee35
00000170: cba3 6036 b192 ff36 e641 9437 87ff 55b5
00000180: 1b7f ab35 b827 8936 4299 8b37 ba49 1d38
00000190: 5069 1737 82ab 2b37 9560 a737 d564 7a37
000001a0: 7c00 8637 add4 9a37 246d 8937 f63c be37
000001b0: c3c2 9e37 da57 9937 1301 9a37 0cff af37
000001c0: a85b 8737 b903 be37 664b 8237 947e f136
000001d0: 9470 6b37 b381 7537 2a29 8537 7f92 0b37
000001e0: bfd4 8d37 932b e837 a99a dd37 a86c c737
000001f0: 260d 8037 2f54 0339 d5c9 0139 b803 d338
00000200: 5a3e cd38 428b d338 1645 e738 6d69 cb38
00000210: 17d8 a138 f31a 9e38 f461 9738 f629 9d38
00000220: 6e54 6238 dc91 7e38 21ec 8d38 6030 a938
00000230: a4fe d538 81e8 d038 5b28 be38 9559 d738
00000240: acd9 fc38 9bd7 f738 898d 0639 f878 2d39
00000250: 708d 2a39 0bcf 4439 5aa5 0c37 0169 3637
00000260: 0eb8 1037 296e ae37 1180 e437 c016 2637
00000270: 826c 2137 bcd7 7b37 8505 cf37 17b5 fd37
00000280: 132c 2737 a421 4a37 0b97 7537 a9ce b437
00000290: fcf0 0038 c00d ae37 8d47 ca37 a952 ee37
000002a0: aaaf 0338 e140 2738 9067 cc37 23d6 0438
000002b0: 5644 0a38 6653 2338 56bd 2638 4aaf 8136
000002c0: 3958 a236 d5f6 2d35 1882 49b6 0fce 8db5
000002d0: 5ff6 df35 4d41 b4b5 56e9 6eb6 cff7 a7b6
000002e0: 24b8 74b6 3554 aeb5 8e0d 7bb6 2687 72b6
000002f0: 927a a9b6 95d1 9cb5 48a6 3836 0390 2635
00000300: ca06 fb35 aff8 feb4 d55c 1837 3474 fa36
00000310: ec20 1037 666c 4737 6e09 2737 4148 5237
00000320: 54fd 0d37 9699 8b37 df5e b337 2e1e c037
00000330: 88cb 1e38 f725 2337 b1be a637 8f40 df37
00000340: 6bab 1038 b746 2038 e85a 0937 bcc9 6b37
00000350: 7485 b937 cb5c 0238 2c88 1238 69f0 cb36
00000360: 04b3 3137 c1d4 4337 5d64 7c37 6009 b437
00000370: c002 c536 154e 7436 e367 8036 4355 1c37
00000380: 153c 1b37 fbda 54b4 473c 8d34 9203 2a34
00000390: 07b5 8534 7308 dd34 bda3 ceb4 f2ff 29b3
000003a0: 78d8 b9b4 46b0 99b4 68e9 c733 aa07 11b4
000003b0: 193a 8c34 6be7 11b3 2887 9232 6982 3bb4
000003c0: 32ab d3b3 1f77 acb3 cee3 9bb4 47f3 afb3
000003d0: 6f0d 3bb4 1f5e 3534 bda3 c234 bcae 1634
000003e0: cd39 48b4 26a1 98b3 d649 a8b6 d35b d0b4
000003f0: ff81 0537 ad1d 9437 f226 b337 cec3 53b6
