logs/biosr_ccps_rcan_model-SRCNN_250305_lr0.0001_bs1_Ps256_Npatch128_N300/model_214.pth (torch, 695046 bytes, 15 tensors)

conv1.weight f4 [64, 1, 9, 9]
0.080241926 -0.028644897 0.0830522 -0.022766376 0.04598927 -0.03913297 0.13415228 -0.011531455
0.20438641 -0.027768191 -0.0925731 0.04822014 -0.049961504 0.030901551 0.042742595 0.029930595
0.07701636 0.106495366 0.08512965 0.038022686 -0.09638775 -0.018817373 -0.05166503 -0.09430301
-0.06883244 -0.072572164 0.049848765 -0.10293036 -0.034408405 0.02322149 -0.07722994 -0.10058857
0.0015303849 -0.031123528 -0.042325914 0.0740779 -0.07296615 -0.06263884 -0.0039820494 0.043551784
-0.031846464 0.0718167 0.05126681 0.06474428 0.023867961 -0.0366799 -0.09791327 -0.0015559632
-0.09437769 0.02598164 0.026163107 0.021657793 0.053169154 0.12451362 -0.054580245 -0.028132033
-0.008796338 0.032612257 0.07789962 0.06026792 -0.04628454 0.10463906 0.0066437554 0.03739265
0.03589989 0.0018479568 -0.051160194 -0.052076053 0.009997329 -0.06629343 -0.02220272 -0.06713087
0.04261968 -0.023990154 0.021461062 0.05553771 -0.048587706 -0.007949328 -0.08550525 -0.005926308
-0.06952246 -0.047542535 -0.004353606 -0.029020725 0.007257466 0.07215639 -0.03179986 -0.12303423
0.056135464 -0.016680144 0.019401025 -0.017476335 0.05758248 -0.10117279 0.06926646 0.073918596
0.07180532 0.03448035 0.09018159 0.033741742 0.018518085 -0.022020042 0.085023284 0.07392586
-0.049210273 0.0123643875 -0.094256625 -0.02452606 0.027524196 -0.013460688 -0.11953339 0.0836815
0.030602524 -0.091223896 -0.10453682 -0.047521282 -0.09367113 -0.06245875 -0.059648685 -0.10123177
0.0480585 0.11844453 0.0020074733 -0.0421587 0.085713245 -0.104827404 -0.034377813 -0.09403061
0.033214618 -0.08677952 -0.0931183 0.04458798 -0.06734943 -0.09334561 0.0033077989 -0.050711144
0.07004278 0.007910975 0.00693929 -0.041309804 0.05957845 0.07136974 0.08420965 0.013608745
-0.11643786 0.009440507 -0.0720188 -0.09337882 0.07226428 0.041561738 0.034335755 0.11022807
0.031687964 -0.017614007 -0.029281667 0.047739666 0.01677644 -0.06429446 -0.096935734 0.0682218
0.07441686 0.1230949 0.06522407 0.12366075 -0.050347038 0.061537918 0.036637194 0.02776524
-0.0763611 -0.06602139 0.046328526 0.11143302 0.07239928 -0.03087452 0.11857799 0.056765765
0.017725207 0.020650785 0.08782074 0.07382792 0.08370332 -0.051934708 0.093120806 0.09855202
-0.00048803183 0.059885915 -0.07195796 -0.108176805 -0.084484056 0.119714454 0.10747894 0.021586813
0.09631497 0.083446145 -0.04192041 0.022605414 -0.061927207 -0.12784249 0.10946109 -0.040164553
-0.031145232 0.020737467 0.06803996 0.07936777 -0.030062748 0.004818801 -0.0053664003 -0.03669618
-0.012804167 0.021372607 -0.0786345 0.050264522 -0.1086243 0.024885328 -0.11098027 -0.13648137
0.029533971 0.023789901 -0.04272178 0.06378959 0.088914104 0.010264428 -0.107490145 -0.115110904
-0.16052492 0.009464284 0.103964016 0.012633936 -0.09779627 0.06976009 0.02839257 -0.07998167
-0.15164012 0.019360203 0.11302515 0.020429345 -0.036078442 -0.026145156 -0.044848055 -0.11549502
0.0064963563 -0.0949521 -0.13003981 0.10617389 -0.085608765 0.097779855 0.1186411 0.07468989
-0.034274317 -0.045456503 0.024621144 -0.075750545 0.049565352 -0.0047074067 0.008578868 0.114462405
00000000: e155 a43d b4a8 eabc 4617 aa3d 8d80 babc
00000010: 3f5f 3c3d e549 20bd 375f 093e 6eee 3cbc
00000020: ac4a 513e 1e7a e3bc f796 bdbd 7b82 453d
00000030: 6fa4 4cbd 4025 fd3c dc12 2f3d 0231 f53c
00000040: c1ba 9d3d 3e1a da3d 7458 ae3d adbd 1b3d
00000050: f166 c5bd e426 9abc b69e 53bd f021 c1bd
00000060: 06f8 8cbd b7a0 94bd 382e 4c3d 27cd d2bd
00000070: d4ef 0cbd ff3a be3c bb2a 9ebd 6101 cebd
00000080: 3297 c83a c5f6 febc f05d 2dbd 27b6 973d
00000090: 476f 95bd cb48 80bd da7b 82bb 5b63 323d
000000a0: 7071 02bd a214 933d 26fd 513d a698 843d
000000b0: be86 c33c aa3d 16bd c186 c8bd 76f1 cbba
000000c0: 1749 c1bd 73d7 d43c 0354 d63c af6b b13c
000000d0: e6c7 593d ff00 ff3d 898f 5fbd 2675 e6bc
000000e0: 841e 10bc 6e94 053d d689 9f3d 7fdb 763d
000000f0: dc94 3dbd 014d d63d dcb3 d93b 0929 193d
00000100: c30b 133d 2437 f23a 5a8d 51bd b34d 55bd
00000110: d6cb 233c dac4 87bd 7be2 b5bc e97b 89bd
00000120: f991 2e3d 0087 c4bc 1ccf af3c 837b 633d
00000130: e703 47bd e63d 02bc 601d afbd 7a31 c2bb
00000140: cb61 8ebd f6bb 42bd b2a8 8ebb dfbc edbc
00000150: 0ad0 ed3b bbc6 933d 9240 02bd 5ff9 fbbd
00000160: 4dee 653d cca4 88bc e6ee 9e3c 882a 8fbc
00000170: 9bdb 6b3d ae33 cfbd 93db 8d3d a262 973d
00000180: ab0e 933d 443b 0d3d 20b1 b83d c834 0a3d
00000190: 3db3 973c 6063 b4bc b020 ae3d 7166 973d
000001a0: b690 49bd 0094 4a3c 9e09 c1bd e0ea c8bc
000001b0: 6c7a e13c 388a 5cbc eccd f4bd 3561 ab3d
000001c0: 25b2 fa3c 98d3 babd 6617 d6bd ada5 42bd
000001d0: a6d6 bfbd bfd4 7fbd 2e52 74bd 9a52 cfbd
000001e0: fdd8 443d 0c93 f23d d08f 033b 9aae 2cbd
000001f0: 6d8a af3d c0af d6bd c0cf 0cbd 1f93 c0bd
00000200: 0d0c 083d 76b9 b1bd cfb4 bebd e3a1 363d
00000210: 7fee 89bd fc2b bfbd a8c7 583b 7db6 4fbd
00000220: 9772 8f3d 099d 013c fc62 e33b 7834 29bd
00000230: 8808 743d 4c2a 923d 1c76 ac3d 37f7 5e3c
00000240: f976 eebd 5bac 1a3c 987e 93bd 653d bfbd
00000250: 4bff 933d a43c 2a3d a6a3 0c3d 41bf e13d
00000260: 3dcb 013d 404b 90bc 1be0 efbc ab8a 433d
00000270: bf6e 893c d0ac 83bd 3e86 c6bd dfb7 8b3d
00000280: de67 983d 2e19 fc3d 3294 853d d941 fd3d
00000290: b238 4ebd 2f0f 7c3d e210 163d ee73 e33c
000002a0: 3563 9cbd 3936 87bd fbc2 3d3d ff36 e43d
000002b0: 1346 943d 90ec fcbc 04d9 f23d 3883 683d
000002c0: 7434 913c d62b a93c 5cdb b33d 1833 973d
000002d0: a56c ab3d 7db9 54bd 1fb6 be3d a4d5 c93d
000002e0: 86de ffb9 ef4a 753d b25e 93bd cd8b ddbd
000002f0: fa05 adbd da2c f53d eb1d dc3d d4d6 b03c
00000300: c840 c53d d0e5 aa3d bcb4 2bbd fd2e b93c
00000310: 62a7 7dbd 24e9 02be 232d e03d 9683 24bd
00000320: 4924 ffbc 9fe1 a93c 8958 8b3d 928b a23d
00000330: 2746 f6bc 08e7 9d3b a1d8 afbb bc4e 16bd
00000340: 92c8 51bc 9b15 af3c 200b a1bd 2ce2 4d3d
00000350: 6b76 debd 51dc cb3c a049 e3bd c6c1 0bbe
00000360: 3af1 f13c 0ae3 c23c 08fd 2ebd 1ea4 823d
00000370: 9918 b63d 222c 283c cb23 dcbd 44bf ebbd
00000380: a560 24be 1610 1b3c 16eb d43d 91fe 4e3c
00000390: 6949 c8bd 61de 8e3d 8997 e83c 6ecd a3bd
000003a0: 8c47 1bbe 4a99 9e3c bb79 e73d 715b a73c
000003b0: fdc6 13bd 5e2e d6bc 98b2 37bd a788 ecbd
000003c0: 63df d43b 3f76 c2bd 2829 05be b271 d93d
000003d0: a653 afbd ce40 c83d 1bfa f23d 03f7 983d
000003e0: 3a63 0cbd 9930 3abd 48b2 c93c 1a23 9bbd
000003f0: 0a05 4b3d 9740 9abb 618e 0c3c 446b ea3d

conv1.bias f4 [64]
0.026844224 0.05144657 0.017307477 0.0053312327 -0.10216239 0.076371364 0.092034526 -0.07391656
-0.0383295 0.02993716 -0.037103448 -0.01712621 -0.103220515 -0.016717626 -0.08033846 -0.065326445
0.0919348 -0.024097035 -0.0028792957 -0.020518022 -0.035986006 -0.10305388 -0.11761913 -0.018490732
-0.018566672 0.018219516 -0.026250226 -0.08027015 -0.07499642 -0.06171778 -0.03157633 -0.019923704
-0.08007451 -0.08431705 0.0678204 -0.0018800545 -0.07238513 0.048680916 -0.025023475 0.15790054
0.047505148 0.060791526 -0.020896321 -0.020507885 0.033218794 -0.1215892 -0.012090347 -0.034720182
0.022041928 -0.032078385 0.10711007 -0.062699564 0.0054492317 -0.0029903196 0.06820725 -0.059222627
0.03630703 -0.0811842 0.009622952 0.01107098 -0.015583901 0.00049769157 0.05443598 -0.083743684
00000000: 6be8 db3c a3b9 523d 69c8 8d3c 9fb1 ae3b
00000010: 843a d1bd 9768 9c3d 997c bc3d 9161 97bd
00000020: 65ff 1cbd c63e f53c c9f9 17bd 444c 8cbc
00000030: 4765 d3bd 67f3 88bc 7e88 a4bd dfc9 85bd
00000040: 5048 bc3d 2567 c5bc 91b2 3cbb 6915 a8bc
00000050: 1066 13bd ea0d d3bd 4ce2 f0bd e079 97bc
00000060: 2219 98bc 1841 953c b70a d7bc ad64 a4bd
00000070: b997 99bd c8cb 7cbd 2f56 01bd 0937 a3bc
00000080: 1bfe a3bd 6bae acbd 6ce5 8a3d 296c f6ba
00000090: a83e 94bd a465 473d 08fe ccbc aeb0 213e
000000a0: c294 423d 8900 793d c32e abbc 2700 a8bc
000000b0: 6e10 083d c203 f9bd 9716 46bc c036 0ebd
000000c0: 4691 b43c a064 03bd 865c db3d a168 80bd
000000d0: 788f b23b 3df9 43bb 3eb0 8b3d 6d93 72bd
000000e0: aeb6 143d e743 a6bd 96a9 1d3c 0e63 353c
000000f0: 9e53 7fbc 8477 023a 43f8 5e3d cf81 abbd

conv2.weight f4 [32, 64, 5, 5]
-0.023374824 -0.038219344 0.01529784 -0.009991279 0.031064134 0.004857512 -0.011280971 0.02562999
-0.008188085 0.010138514 -0.003652464 -0.006002558 -0.0060223867 -0.019336374 0.0019817615 -0.043925315
-0.020997742 -0.034451313 -0.034425713 -0.00037523377 0.00018583433 0.01633429 0.019402305 0.0371097
0.050615806 -0.11568688 -0.017452851 0.054137554 0.00025054306 -0.027082758 0.0007841333 -0.036175597
0.057838943 0.037754986 0.0009082995 -0.06966828 -0.08577564 -0.007099686 -0.023012972 -0.009417201
-0.09294548 -0.084779926 -0.02438868 -0.0126582505 -0.012313562 -0.054070387 -0.017410906 0.005283807
0.004294442 -0.024749119 0.016847175 0.00848904 0.022857605 0.029377522 0.015017909 -0.029034715
-0.013304402 -0.01576016 -0.01320721 0.010961743 -0.031278975 -0.0010951387 -0.008177685 0.010196528
0.011771276 -0.044820856 -0.005001405 -0.03431064 0.032807514 0.061819762 -0.004622645 0.01105418
0.019103136 0.051332507 0.16299164 0.021559706 -0.02750852 -0.005664295 -0.0060448665 0.03008515
0.010254104 0.005049154 -0.03745884 -0.009355421 0.016226636 -0.012243555 0.006733103 0.0029299979
0.02375672 0.015906142 -0.007876869 -0.035880964 -0.013946663 -0.006936623 -0.026316488 -0.032897696
-0.04691833 -0.049711373 -0.11876553 -0.16643345 0.0041778944 0.011301418 0.00781813 -0.018946175
-0.04716419 0.018179165 0.004915892 -0.0048942845 0.0073550115 -0.049632296 0.033512037 0.023924839
0.0030751766 -0.0019778123 -0.033090588 -0.001038429 0.021335576 -0.047198687 -0.032650385 -0.02482328
0.06485672 0.011418103 0.039427646 0.04542368 0.05855037 0.0052838284 0.012959214 0.0015161481
0.01866038 -0.018480273 0.0020197253 0.0082235895 -0.0038890445 0.0075045796 -0.031510152 -0.028867226
-0.026452357 -0.027841305 -0.034127448 -0.030585615 0.0023469024 -0.008834404 0.0020475257 0.01517802
-0.001328413 0.010167422 0.030010283 0.017957153 0.02770435 0.014829139 0.0034606066 0.033029385
0.053568695 -0.025946729 -0.061264288 -0.0045717484 -0.0059899134 -0.02537357 -0.070165545 -0.043504342
0.008727915 -0.0091536725 -0.010092924 -0.060716826 -0.003700287 0.052820466 0.018577335 -0.052511994
0.004963458 0.0063767065 0.04214542 0.04042488 -0.043391526 0.016384043 0.07220358 -0.022063218
-0.031100161 0.013525515 -0.01847594 -0.030735712 -0.032556284 0.015535748 0.023566099 -0.021658028
0.025572967 0.002287396 0.03693085 0.016734468 -0.0051885033 -0.009741916 0.022734182 -0.00046019972
-0.011970833 0.016083546 0.038065597 0.037912972 0.014342265 0.018309688 0.061242387 0.11248983
0.041193914 -0.053419318 -0.031662803 -0.017737577 -0.04645785 -0.010263013 -0.030136617 -0.038922206
-0.0028677674 0.01979459 -0.09890479 -0.027035693 -0.0741571 -0.0515824 0.100359544 -0.15235716
-0.11765384 -0.077892065 -0.04885241 0.08667544 -0.07083022 -0.07706822 -0.052659534 0.0542216
0.14992838 0.019174952 -0.009821327 -0.008442687 -0.043119796 -0.03341523 0.03937359 0.0017813295
-0.01995665 -0.06428644 0.047265876 -0.08968451 -0.052930992 -0.07304404 -0.04975399 0.088723056
-0.12399863 -0.08881334 -0.007334137 0.088745356 0.080331825 -0.11385344 -0.031012123 -0.016483773
0.30028933 0.025183013 0.06507751 -0.023072165 -0.05187669 -0.07430087 -0.12080773 0.05584197
00000000: 8f7c bfbc e38b 1cbd cba3 7a3c 76b2 23bc
00000010: 367a fe3c c42b 9f3b d2d3 38bc fcf5 d13c
00000020: 5127 06bc 031c 263c 2d5e 6fbb 1bb1 c4bb
00000030: 7157 c5bb 5167 9ebc 71e0 013b 08eb 33bd
00000040: 7503 acbc d21c 0dbd fa01 0dbd 06bb c4b9
00000050: 86dc 4239 7dcf 853c 95f1 9e3c 5700 183d
00000060: 8552 4f3d 3eed ecbd 48f9 8ebc 57bf 5d3d
00000070: 525b 8339 a9dc ddbc 4c8e 4d3a dd2c 14bd
00000080: 87e8 6c3d f9a4 1a3d f31a 6e3a 3eae 8ebd
00000090: 24ab afbd 7ca4 e8bb b385 bcbc 9b4a 1abc
000000a0: 335a bebd 19a1 adbd c5ca c7bc 8d64 4fbc
000000b0: d3be 49bc e978 5dbd 51a1 8ebc c923 ad3b
000000c0: 64b8 8c3b aabe cabc 1603 8a3c 9d15 0b3c
000000d0: df3f bb3c 21a9 f03c ad0d 763c 36da edbc
000000e0: b5fa 59bc 731b 81bc 0e63 58bc e298 333c
000000f0: 621e 00bd c28a 8fba b2fb 05bc 570f 273c
00000100: 4fdc 403c 1396 37bd d3e2 a3bb 5089 0cbd
00000110: 2c61 063d b836 7d3d 8f79 97bb 971c 353c
00000120: 2e7e 9c3c 0942 523d 48e7 263e fb9d b03c
00000130: 8c59 e1bc 8d9b b9bb 0414 c6bb 2275 f63c
00000140: d400 283c 6073 a53b 716e 19bd 7b47 19bc
00000150: b9ed 843c 3199 48bc 5da1 dc3b 3505 403b
00000160: 749d c23c 994d 823c fc0d 01bc ebf7 12bd
00000170: 8b80 64bc 9c4c e3bb ad95 d7bc bcbf 06bd
00000180: 6f2d 40bd 279e 4bbd 583b f3bd 886d 2abe
00000190: b8e6 883b 9529 393c 9d17 003c 0235 9bbc
000001a0: 3d2f 41bd 79ec 943c 7e15 a13b 3c60 a0bb
000001b0: 4f02 f13b 3c4b 4bbd eb43 093d 06fe c33c
000001c0: e788 493b 2f9e 01bb ff89 07bd e51b 88ba
000001d0: f2c7 ae3c 6953 41bd 69bc 05bd 315a cbbc
000001e0: 9ad3 843d ff12 3b3c e27e 213d 2e0e 3a3d
000001f0: 83d2 6f3d f723 ad3b e252 543c 7db9 c63a
00000200: a7dd 983c f163 97bc 5e5d 043b 3cbc 063c
00000210: 57df 7ebb fae8 f53b ca10 01bd f67a ecbc
00000220: 9db2 d8bc 7313 e4bc 39c9 0bbd af8e fabc
00000230: 7dce 193b 2dbe 10bc c82f 063b 3bad 783c
00000240: 251e aeba 4295 263c 20d8 f53c e11a 933c
00000250: 3cf4 e23c ebf5 723c 58cb 623b d249 073d
00000260: d96a 5b3d 3c8e d4bc 43f0 7abd 9bce 95bb
00000270: 0947 c4bb 3cdc cfbc f4b2 8fbd 9c31 32bd
00000280: 87ff 0e3c 49f9 15bc cb5c 25bc 35b2 78bd
00000290: 8480 72bb 465a 583d 7f2f 983c d116 57bd
000002a0: 81a4 a23b b1f3 d03b ada0 2c3d 8f94 253d
000002b0: 50bb 31bd d437 863c 78df 933d ecbd b4bc
000002c0: c4c5 febc 1f9a 5d3c db5a 97bc 76c9 fbbc
000002d0: bd59 05bd a689 7e3c b10d c13c 2d6c b1bc
000002e0: 667e d13c 23e8 153b ce44 173d b916 893c
000002f0: 5204 aabb 8f9c 1fbc 093d ba3c f646 f1b9
00000300: 5021 44bc a4c1 833c acea 1b3d a24a 1b3d
00000310: d2fb 6a3c 33fe 953c 4cd9 7a3d 1161 e63d
00000320: f3ba 283d 37ce 5abd dbb0 01bd 654e 91bc
00000330: 964a 3ebd 3226 28bc 11e1 f6bc e46c 1fbd
00000340: 27f1 3bbb 4428 a23c 988e cabd f579 ddbc
00000350: addf 97bd 1148 53bd 4e89 cd3d 8403 1cbe
00000360: 7ff4 f0bd e085 9fbd 7719 48bd e582 b13d
00000370: 6f0f 91bd f1d5 9dbd 86b1 57bd 7817 5e3d
00000380: d386 193e ca14 9d3c a2e9 20bc 3253 0abc
00000390: 629e 30bd 69de 08bd 3446 213d 807b e93a
000003a0: 217c a3bc 9ca8 83bd dd99 413d 83ac b7bd
000003b0: 2bce 58bd 1d98 95bd d7ca 4bbd 6fb4 b53d
000003c0: fef2 fdbd c5e3 b5bd 3353 f0bb 20c0 b53d
000003d0: 0385 a43d fe2b e9bd 230d febc fa08 87bc
000003e0: 86bf 993e 9b4c ce3c 5c47 853d d601 bdbc
000003f0: a77c 54bd 0e2b 98bd 0b6a f7bd 8dba 643d

conv2.bias f4 [32]
0.005525903 -0.03377758 0.0121996235 -0.022581566 0.015090533 -0.01684388 -0.022534603 0.01842952
-0.012483231 -0.019038599 -0.025012486 0.014180101 -0.011858649 -0.015380375 0.016251598 -0.029109675
-0.026032323 -0.014128197 0.0016580506 -0.057832032 0.05027005 -0.0089099575 -0.010747758 0.0041521355
-0.017943671 -0.010174864 -0.018968033 0.020149097 -0.02717044 0.0038516412 0.020436574 -0.026582872
00000000: a212 b53b 5c5a 0abd eee0 473c fafc b8bc
00000010: 483e 773c 2dfc 89bc 7d9a b8bc 81f9 963c
00000020: 7786 4cbc d6f6 9bbc fce6 ccbc a853 683c
00000030: c74a 42bc f8fd 7bbc 1222 853c 6a77 eebc
00000040: bd41 d5bc f479 67bc f252 d93a 48e1 6cbd
00000050: f8e7 4d3d 12fb 11bc 5d17 30bc a30e 883b
00000060: 9bfe 92bc 79b4 26bc d962 9bbc b80f a53c
00000070: 8b94 debc d16b 7c3b 9a6a a73c 53c4 d9bc

conv3.weight f4 [1, 32, 5, 5]
-0.050561115 -0.01875634 -0.024579221 -0.033092164 0.0024579782 0.0045458223 -0.029272242 -0.053271614
-0.012760822 0.015499719 0.019177603 -0.045166858 -0.04143284 -0.0019833203 0.009007863 -0.005506418
-0.024302904 -0.02918592 -0.015224095 0.017174128 0.07174501 0.05679566 0.049409866 0.04055799
0.12208611 -0.040851746 -0.027521133 -0.044786 -0.009701779 -0.0033794395 -0.04113336 -0.053669292
-0.024214992 -0.014260144 -0.032258574 -0.032927513 -0.014449557 -0.040948167 -0.026519442 -0.013905431
-0.040423166 0.011363247 -0.038977385 -0.012700104 -0.02258598 -0.0069472026 -0.057771888 -0.017772425
-0.028008623 -0.0017625759 0.036488317 -0.014880689 0.0064675277 0.033109028 0.034385078 -0.008603622
0.017269302 -0.020205252 -0.013950726 -0.026515076 0.013003628 -0.028897876 -0.016221931 -0.014503212
0.0047121886 0.0053372723 -0.0067800456 -0.027245887 -0.004937272 0.017335793 0.012622622 -0.017169451
-0.0055328114 -0.0320433 0.01900252 -0.031420384 -0.021972312 -0.05411529 -0.0496039 -0.025578992
-0.010360799 0.023175111 0.020960726 -0.01242833 0.02871902 -0.0044742487 -0.018401377 0.016203647
-0.0050102957 0.032770365 0.0112413615 0.01218231 -0.021785785 -0.0076826694 0.03909557 0.049230553
0.02623236 0.0065555554 0.038140416 0.08287328 -0.077034935 -0.039020117 -0.02341729 -0.012582147
-0.068343714 -0.0032106186 -0.0046468424 0.038477123 -0.019831525 -0.018382946 -0.027401818 -0.00393493
0.017287541 -0.0017817692 0.012409851 -0.023504268 0.019600134 -0.008875264 -0.01298546 0.007848099
-0.014107228 0.0351307 0.029898888 0.004736202 0.011649468 -0.11141342 -0.08171185 -0.04436535
-0.05742245 -0.065254115 -0.03454144 -0.032584522 -0.033247575 -0.03255475 -0.032388024 -0.082476795
-0.020737618 -0.0585555 0.0024081836 -0.06900564 -0.055981636 -0.0074333698 -0.034297768 -0.034679033
-0.015335865 -0.079800814 -0.053530592 -0.04641124 -0.013591855 -0.037965164 0.04165164 -0.0073650484
-0.006178824 0.037020087 0.029830221 -0.009636424 -0.0027728449 -0.011879764 0.0016752934 0.032976728
-0.028687218 0.00704126 -0.0030849408 -0.007541849 0.010174958 0.027516536 -0.018053804 -0.008384549
0.004192286 0.010543785 0.015953943 0.029243724 0.014631098 0.024509486 0.0071379715 0.075314716
0.069852605 0.021821788 0.007896766 0.041033044 0.080974005 0.020414233 0.02287009 0.01711756
0.03127439 0.062843025 -0.009489742 0.036707003 -0.0106326295 -0.0031457287 0.03198584 0.031559765
0.032974053 0.0035445553 0.012480809 0.024948264 0.02257131 0.019159332 0.005042869 0.042725183
0.04514612 0.042034417 0.048104253 0.035959072 0.07396906 -0.00097565487 0.039307028 0.0026170197
0.024474652 0.057145588 0.018393094 0.024347028 0.042535648 0.0056825196 0.020051459 0.02187583
0.011386021 0.026905052 0.020372234 0.008094239 0.029190352 0.013167217 0.030394029 -0.014715022
0.024252407 0.044137787 0.029649734 0.026012816 0.051052738 0.039625496 0.044145357 0.026448619
0.010720521 0.023825854 0.038981497 0.0011669372 0.000972447 0.018409003 0.0363066 0.026037144
0.036119368 0.0439248 0.026717696 0.0067557935 0.045206044 0.05305072 0.056391716 0.041767772
0.039876632 0.07427672 0.0279219 -0.005023335 0.0152051365 -0.0036546253 0.0419084 0.0019572154
00000000: 2c19 4fbd e5a6 99bc 5d5a c9bc a68b 07bd
00000010: 0816 213b 1ff5 943b 57cc efbc 5633 5abd
00000020: c412 51bc 89f2 7d3c 591a 9d3c e200 39bd
00000030: 7bb5 29bd 98fa 01bb b795 133c 2f6f b4bb
00000040: e216 c7bc 4f17 efbc 7c6e 79bc c2b0 8c3c
00000050: 0cef 923d 91a2 683d 0062 4a3d 2320 263d
00000060: 4808 fa3d 2954 27bd 0074 e1bc 8671 37bd
00000070: 36f4 1ebc 9679 5dbb 747b 28bd 55d4 5bbd
00000080: 855e c6bc 61a3 69bc 9121 04bd 00df 06bd
00000090: d6bd 6cbc 44b9 27bd 4d3f d9bc 9bd3 63bc
000000a0: c392 25bd ea2c 3a3c c0a6 1fbd 1914 50bc
000000b0: 3c06 b9bc 5ca5 e3bb 37a2 6cbd 7a97 91bc
000000c0: 5772 e5bc 3c06 e7ba c674 153d 22ce 73bc
000000d0: 8eed d33b 559d 073d 5ed7 0c3d 35f6 0cbc
000000e0: 5a78 8d3c 7c85 a5bc 9691 64bc 2536 d9bc
000000f0: 2b0d 553c 3dbb ecbc dbe3 84bc e19e 6dbc
00000100: b468 9a3b 49e4 ae3b 252b debb c432 dfbc
00000110: d7c8 a1bb cb03 8e3c 1dcf 4e3c f3a6 8cbc
00000120: 964c b5bb d63f 03bd 2cab 9b3c a9b2 00bd
00000130: 47ff b3bc ffa7 5dbd 762d 4bbd 098b d1bc
00000140: 57c0 29bc bbd9 bd3c d4b5 ab3c 32a0 4bbc
00000150: 2644 eb3c b89c 92bb 7cbe 96bc 83bd 843c
00000160: 682d a4bb 383a 063d b02d 383c 5098 473c
00000170: 1a78 b2bc e7be fbbb ad22 203d faa5 493d
00000180: 3fe5 d63c fccf d63b 2039 1c3d 77b9 a93d
00000190: 7ec4 9dbd 8fd3 1fbd 9ed5 bfbc 5925 4ebc
000001a0: caf7 8bbd 3e69 52bb 8a44 98bb 309a 1d3d
000001b0: b975 a2bc d597 96bc c779 e0bc 96f0 80bb
000001c0: 9a9e 8d3c 418a e9ba b052 4b3c 068c c0bc
000001d0: 7690 a03c 8e69 11bc f8c0 54bc 5095 003c
000001e0: 0122 67bc 35e5 0f3d 83ee f43c 2432 9b3b
000001f0: 69dd 3e3c b82c e4bd 8b58 a7bd 71b8 35bd
00000200: ce33 6bbd f3a3 85bd 537b 0dbd 5977 05bd
00000210: 9c2e 08bd 2158 05bd 4ea9 04bd 98e9 a8bd
00000220: f0e1 a9bc e4d7 6fbd 9ed2 1d3b d452 8dbd
00000230: 004d 65bd a093 f3bb d17b 0cbd 9a0b 0ebd
00000240: 4843 7bbc 9c6e a3bd e542 5bbd b619 3ebd
00000250: 5fb0 5ebc 5c81 1bbd e99a 2a3d 8156 f1bb
00000260: bc77 cabb 60a2 173d 825e f43c 17e2 1dbc
00000270: 9eb8 35bb 57a3 42bc 8595 db3a 9b12 073d
00000280: 7501 ebbc 5fba e63b b82c 4abb 9d21 f7bb
00000290: deb4 263c 5c6a e13c 92e5 93bc 595f 09bc
000002a0: 725f 893b d7bf 2c3c d8b1 823c 8990 ef3c
000002b0: 46b7 6f3c 1ec8 c83c a5e5 e93b 9a3e 9a3d
000002c0: e20e 8f3d 9bc3 b23c 7061 013c 4412 283d
000002d0: b3d5 a53d c03b a73c 0e5a bb3c 203a 8c3c
000002e0: 9319 003d d8b3 803d dd7a 1bbc 155a 163d
000002f0: 7b34 2ebc 9228 4ebb 9603 033d d044 013d
00000300: cd0f 073d c54b 683b 4f7c 4c3c 4d60 cc3c
00000310: 78e7 b83c 08f4 9c3c a73e a53b 9a00 2f3d
00000320: 23eb 383d 482c 2c3d f708 453d d249 133d
00000330: 177d 973d 17c3 7fba 6800 213d 4e82 2b3b
00000340: 117f c83c 7e11 6a3d 1dad 963c 6b73 c73c
00000350: dc39 2e3d 6e34 ba3b f542 a43c f134 b33c
00000360: 6f8c 3a3c fc67 dc3c ace3 a63c b39d 043c
00000370: 9b20 ef3c 50bb 573c e6fc f83c 4717 71bc
00000380: fcac c63c d3c9 343d 00e4 f23c d418 d53c
00000390: ad1c 513d 584e 223d c3d1 343d c6aa d83c
000003a0: 20a5 2f3c 702e c33c 10ab 1f3d eaf3 983a
000003b0: d0eb 7e3a 7ace 963c 3bb6 143d d94b d53c
000003c0: e7f1 133d 7eea 333d 12df da3c b45f dd3b
000003d0: f929 393d b64b 593d 00fb 663d af14 2b3d
000003e0: ae55 233d 651e 983d 78bc e43c ca9a a4bb
000003f0: f71e 793c 7082 6fbb 24a8 2b3d a044 003b

exp_avg f4 [64, 1, 9, 9]
-0.001115055 -0.0011093976 -0.0010948092 -0.0010515365 -0.0010421365 -0.0010299669 -0.0010552614 -0.0011096838
-0.0012080176 -0.001151563 -0.0011470128 -0.0011305803 -0.0010974436 -0.001045057 -0.0010025403 -0.0009834297
-0.0010137598 -0.0010968724 -0.0012191837 -0.0012500751 -0.0012160467 -0.0011973153 -0.0011078042 -0.0010167345
-0.0009957855 -0.0009634001 -0.0010260857 -0.0013126931 -0.0013104074 -0.0013285725 -0.0012658567 -0.0011627964
-0.0010604796 -0.0009932419 -0.0009188789 -0.0009897489 -0.0013566115 -0.0013864923 -0.0013800707 -0.0013772505
-0.0012644602 -0.001141064 -0.0010134423 -0.00093073066 -0.0009849353 -0.0013936404 -0.0014205411 -0.0014814669
-0.0014201334 -0.0014144457 -0.0012651997 -0.0010853411 -0.0009845631 -0.0009872343 -0.0014082787 -0.0014801599
-0.0015391695 -0.0015714196 -0.0015032617 -0.0013083079 -0.0011415851 -0.0010784565 -0.0010676696 -0.0013793571
-0.0014445179 -0.0014946912 -0.0015222543 -0.001432743 -0.0013129454 -0.0011654202 -0.0011145301 -0.001110351
-0.0013070918 -0.0013635308 -0.0014308558 -0.0014432311 -0.0013762091 -0.0012977422 -0.0011791534 -0.0011567562
-0.0011605646 -0.00060197286 -0.0006408626 -0.0006995847 -0.0007447145 -0.0007760305 -0.00072998594 -0.00061514217
-0.0006462066 -0.00062237686 -0.0006434147 -0.0006796524 -0.0007581605 -0.00074988225 -0.0008211745 -0.00081604003
-0.00069981196 -0.0006420356 -0.0006395539 -0.0006600198 -0.00068469206 -0.00075737754 -0.0008584298 -0.0008583854
-0.0007724868 -0.00070785213 -0.000640341 -0.00056810596 -0.00065471 -0.00068631175 -0.00069777056 -0.0008064927
-0.00077993405 -0.00071002985 -0.000643823 -0.0005990037 -0.00058396027 -0.0005942701 -0.00065382983 -0.0006457348
-0.0007408368 -0.00075202255 -0.0006603767 -0.00063212606 -0.0006444725 -0.0005710979 -0.000581714 -0.00062147214
-0.0006614849 -0.00064295897 -0.00064329174 -0.00063131884 -0.0005752629 -0.00056877476 -0.00056943623 -0.0005906889
-0.0006325115 -0.00062877673 -0.00062059966 -0.0005810323 -0.00059891964 -0.0005725947 -0.0005675196 -0.0005285743
-0.0005871779 -0.00061251194 -0.00058657763 -0.00060283404 -0.0005885608 -0.00054178707 -0.0005166089 -0.0005443952
-0.0004942541 -0.0005917649 -0.00060294394 -0.0005989733 -0.0005791775 -0.0005543049 -0.0004793262 -0.00047768065
-0.00045709807 -0.0004310637 0.003960959 0.0039920737 0.00402239 0.003922719 0.0038383838 0.0035671815
0.0034176968 0.003282546 0.0031453376 0.0040403814 0.004144357 0.004171106 0.0040797396 0.00390693
0.0036262257 0.0033587439 0.0031637824 0.0030743207 0.004130437 0.004288551 0.0042218594 0.0041864184
0.004004312 0.0036424575 0.003378097 0.0032057583 0.0030495771 0.004134282 0.0041929255 0.0042710756
0.0041757226 0.00397182 0.0035800822 0.0032203752 0.003042019 0.002986665 0.0041105244 0.0041879336
0.0042119715 0.0040552025 0.0038262303 0.00337394 0.003084136 0.0028577284 0.002848842 0.0040704156
0.0040649055 0.004018737 0.0038889404 0.0035519549 0.0032885764 0.0030162642 0.0029368242 0.002837123
0.0038891535 0.0038734379 0.0038088947 0.0036502392 0.0033773563 0.0030959768 0.003043662 0.0028541358
0.0028953634 0.0037350743 0.0036758 0.0036056326 0.0034894256 0.0032096053 0.003000931 0.002977455
0.0029103602 0.0027993426 0.0035100367 0.0035148545 0.0034642012 0.0033592975 0.0032061469 0.0030814693
0.0029346042 0.0028702428 0.002922197 0.00038968032 0.00032694693 0.00029087454 0.00019213694 0.00019623166
0.00026580054 0.00018344825 0.0002912041 0.0001766257 0.0003706618 0.00024209512 0.00024153196 7.685908e-05
00000000: 0a27 92ba 3569 91ba b37f 8fba b6d3 89ba
00000010: 4c98 88ba f4ff 86ba b250 8aba cf72 91ba
00000020: 5856 9eba 0bf0 96ba 5d57 96ba fb2f 94ba
00000030: 19d8 8fba 4bfa 88ba ac67 83ba 6de6 80ba
00000040: 22e0 84ba eec4 8fba 04cd 9fba 8fd9 a3ba
00000050: c263 9fba 3cef 9cba be33 91ba f343 85ba
00000060: 0485 82ba b08c 7cba b97d 86ba ac0e acba
00000070: fac1 abba 7f23 aeba 1aeb a5ba f968 98ba
00000080: caff 8aba ab2f 82ba ebe0 70ba 76ba 81ba
00000090: 54d0 b1ba f6ba b5ba 7de3 b4ba dc84 b4ba
000000a0: 3ebc a5ba c18f 95ba 7bd5 84ba 47fc 73ba
000000b0: f218 81ba d0aa b6ba 7331 baba c82d c2ba
000000c0: c523 baba ec64 b9ba 0fd5 a5ba 0142 8eba
000000d0: 750c 81ba 1666 81ba fe95 b8ba ed01 c2ba
000000e0: f5bd c9ba 18f8 cdba 1809 c5ba 877b abba
000000f0: 3da1 95ba ff5a 8dba 0cf1 8bba 8bcb b4ba
00000100: fa55 bdba 84e9 c3ba 6186 c7ba e1ca bbba
00000110: 2317 acba 03c1 98ba 6d15 92ba 3289 91ba
00000120: b952 abba 80b8 b2ba 8e8b bbba cd2a bdba
00000130: ea61 b4ba 0119 aaba d38d 9aba 4c9e 97ba
00000140: 161e 98ba b7cd 1dba 90ff 27ba 5664 37ba
00000150: f238 43ba 866e 4bba 875c 3fba 7e41 21ba
00000160: 3166 29ba 0127 23ba d4aa 28ba b32a 32ba
00000170: 4abf 46ba bf93 44ba 1644 57ba 85eb 55ba
00000180: 9673 37ba 484e 28ba bca7 27ba 2e05 2dba
00000190: e87c 33ba bf8a 46ba 4008 61ba 4505 61ba
000001a0: b680 4aba 278f 39ba 8fdc 27ba f2ec 14ba
000001b0: d8a0 2bba 9ae9 33ba 97ea 36ba cf6a 53ba
000001c0: 7d74 4cba 4c21 3aba 3bc6 28ba 7506 1dba
000001d0: e914 19ba cbc8 1bba c765 2bba 8746 29ba
000001e0: b734 42ba 6123 45ba 211d 2dba 43b5 25ba
000001f0: d1f1 28ba bbb5 15ba 2a7e 18ba 4aea 22ba
00000200: 8067 2dba 3f8c 28ba 94a2 28ba 177f 25ba
00000210: 3dcd 16ba d419 15ba 3846 15ba 76d8 1aba
00000220: 21cf 25ba 7ed4 24ba bdaf 22ba 6b50 18ba
00000230: d100 1dba 2e1a 16ba 98c5 14ba 0590 0aba
00000240: d8ec 19ba fb90 20ba 8fc4 19ba 8207 1eba
00000250: a649 1aba b706 0eba 096d 07ba beb5 0eba
00000260: d590 01ba ac20 1bba e20e 1eba 6b04 1dba
00000270: f2d3 17ba c64e 11ba 134e fbb9 3671 fab9
00000280: aaa6 efb9 6400 e2b9 efca 813b f1cf 823b
00000290: 41ce 833b 278a 803b 658d 7b3b 60c7 693b
000002a0: 70fb 5f3b fc1f 573b 0222 4e3b 2d65 843b
000002b0: 63cd 873b c6ad 883b 56af 853b b405 803b
000002c0: f9a5 6d3b 5f1e 5c3b 7657 4f3b 8b7a 493b
000002d0: 9e58 873b f986 8c3b 8657 8a3b 392e 893b
000002e0: 9b36 833b 4cb6 6e3b 1063 5d3b b317 523b
000002f0: 6adb 473b df78 873b cf64 893b 61f4 8b3b
00000300: 80d4 883b 0b26 823b d09f 6a3b ee0c 533b
00000310: 9c5c 473b ecbb 433b 94b1 863b ef3a 893b
00000320: 9404 8a3b 81e1 843b 7ec1 7a3b 521d 5d3b
00000330: 371f 4a3b ba48 3b3b a3b3 3a3b 1f61 853b
00000340: e632 853b 9caf 833b 98dd 7e3b eac7 683b
00000350: 2885 573b 84ac 453b bc77 403b 06ef 393b
00000360: 2be1 7e3b 81d9 7d3b a69e 793b da38 6f3b
00000370: a356 5d3b dfe5 4a3b 2d78 473b 740c 3b3b
00000380: 23c0 3d3b 26c8 743b b1e5 703b 7a4c 6c3b
00000390: d9ae 643b 3e58 523b 45ab 443b 6821 433b
000003a0: bebb 3e3b 2d75 373b a508 663b 7959 663b
000003b0: a707 633b a927 5c3b 381e 523b 7af2 493b
000003c0: 7d52 403b af1a 3c3b 5582 3f3b 024e cc39
000003d0: 136a ab39 8580 9839 5e78 4939 89c3 4d39
000003e0: 255b 8b39 045c 4039 c1ac 9839 9a34 3939
000003f0: 6255 c239 eada 7d39 be43 7d39 682f a138

exp_avg_sq f4 [64, 1, 9, 9]
1.593556e-05 1.5254186e-05 1.4543405e-05 1.3657984e-05 1.3731686e-05 1.386222e-05 1.4050735e-05 1.4955029e-05
1.5650496e-05 1.6660308e-05 1.609263e-05 1.5550995e-05 1.4717336e-05 1.4338104e-05 1.4405736e-05 1.4389629e-05
1.4470164e-05 1.5209053e-05 1.791031e-05 1.768795e-05 1.7377233e-05 1.6884416e-05 1.6121592e-05 1.5405112e-05
1.4847983e-05 1.4606513e-05 1.4896859e-05 1.9661395e-05 2.0544361e-05 2.0144407e-05 1.89973e-05 1.809518e-05
1.6628757e-05 1.5678856e-05 1.471976e-05 1.4813199e-05 2.2063998e-05 2.2743365e-05 2.337523e-05 2.2165366e-05
1.9989771e-05 1.7983066e-05 1.6021088e-05 1.4896152e-05 1.4685345e-05 2.4067253e-05 2.5088928e-05 2.582455e-05
2.38728e-05 2.2169106e-05 1.9374864e-05 1.7088134e-05 1.5423711e-05 1.4902087e-05 2.4899386e-05 2.6473033e-05
2.6393742e-05 2.4804143e-05 2.3003147e-05 1.9839432e-05 1.7746264e-05 1.625157e-05 1.5592199e-05 2.4230467e-05
2.5329806e-05 2.5270927e-05 2.4269935e-05 2.20081e-05 2.0296227e-05 1.8053719e-05 1.7142187e-05 1.6391064e-05
2.3090754e-05 2.3094355e-05 2.322228e-05 2.2506316e-05 2.1799597e-05 1.9990901e-05 1.8706176e-05 1.804512e-05
1.723181e-05 1.2925825e-05 1.40777975e-05 1.5042478e-05 1.6361482e-05 1.7242044e-05 1.5595415e-05 1.405639e-05
1.4772414e-05 1.3709417e-05 1.3781397e-05 1.4748136e-05 1.7337788e-05 1.7196013e-05 1.9286816e-05 1.808027e-05
1.647412e-05 1.4991846e-05 1.47264245e-05 1.4230769e-05 1.5677428e-05 1.7501308e-05 2.0928588e-05 2.105762e-05
1.7816483e-05 1.6570835e-05 1.4250479e-05 1.39159865e-05 1.4321356e-05 1.545389e-05 1.655554e-05 2.1177748e-05
2.0771624e-05 1.7699305e-05 1.5684032e-05 1.4766293e-05 1.3500163e-05 1.3620904e-05 1.4782786e-05 1.6016545e-05
1.9562327e-05 2.1177226e-05 1.82961e-05 1.6213377e-05 1.6016218e-05 1.3400268e-05 1.3743422e-05 1.4006611e-05
1.6386311e-05 1.6225473e-05 1.6638696e-05 1.7673114e-05 1.5435548e-05 1.4216151e-05 1.3941282e-05 1.3413558e-05
1.4941715e-05 1.5041072e-05 1.5578229e-05 1.5494714e-05 1.6229304e-05 1.573957e-05 1.4981232e-05 1.3691531e-05
1.2759101e-05 1.4021915e-05 1.371032e-05 1.3709885e-05 1.5294967e-05 1.4781092e-05 1.4349494e-05 1.4509769e-05
1.3380503e-05 1.3321655e-05 1.3419749e-05 1.4144474e-05 1.39371505e-05 1.328448e-05 1.2912421e-05 1.3816717e-05
1.36677145e-05 1.3642742e-05 0.00016442977 0.00016853354 0.00017047062 0.00016679976 0.00015951021 0.00015440317
0.00015119898 0.00015024956 0.00015114379 0.00017081956 0.00017709464 0.00017881166 0.00017173271 0.00016211004
0.00015496768 0.00015487843 0.00015611752 0.0001564097 0.00017616744 0.00018351704 0.00018202222 0.00017248442
0.0001612639 0.00015483217 0.00015766124 0.00016129873 0.00016192568 0.00017631263 0.00018139517 0.00017804783
0.00016598329 0.00015591255 0.00015540046 0.00016454424 0.0001711752 0.00017040022 0.00017143518 0.00017320448
0.00016599469 0.0001547113 0.00015020264 0.0001580741 0.00017232797 0.00018255187 0.00017996988 0.00016149433
0.00016015864 0.00015200856 0.00014440271 0.00014820375 0.00015964897 0.00018030997 0.00018499845 0.00018243183
0.000150579 0.00014744347 0.00014159268 0.00014114418 0.00014916857 0.00016661838 0.00017866366 0.00018674233
0.00018225513 0.00014266907 0.00014057617 0.00013779639 0.00013922373 0.00015116595 0.00016595803 0.00017720887
0.00018055804 0.00018028768 0.00013970793 0.00013886768 0.00013769431 0.00014133427 0.00014904208 0.00015841766
0.0001709027 0.00017304097 0.00016907977 0.00018055111 0.00016865919 0.00018305541 0.00018678114 0.00018362628
0.00017375092 0.00016981234 0.0001713658 0.00016352723 0.00017726149 0.00017578596 0.0001810082 0.00019148193
00000000: 5bad 8537 3bec 7f37 73ff 7337 9824 6537
00000010: 2461 6637 c891 6837 73bb 6b37 5ce7 7a37
00000020: 2f49 8337 bdc1 8b37 a9fe 8637 8273 8237
00000030: 7aea 7637 b08d 7037 2ab0 7137 fc6a 7137
00000040: e2c4 7237 632a 7f37 193e 9637 9560 9437
00000050: 53c5 9137 02a3 8d37 db3c 8737 3a3a 8137
00000060: 9a1b 7937 7f0e 7537 86ed 7937 86ee a437
00000070: ae56 ac37 c9fb a837 645c 9f37 1acb 9737
00000080: fc7d 8b37 1686 8337 e3f4 7637 3586 7837
00000090: 1316 b937 01c9 be37 ed15 c437 c3ef b937
000000a0: b5af a737 57da 9637 0665 8637 7cea 7937
000000b0: 1461 7637 08e4 c937 1076 d237 cda1 d837
000000c0: 7342 c837 cbf7 b937 3487 a237 7d58 8f37
000000d0: 2b62 8137 fa03 7a37 06df d037 6812 de37
000000e0: 2168 dd37 7e12 d037 e2f6 c037 db6c a637
000000f0: d0dd 9437 fb53 8837 fecb 8237 8842 cb37
00000100: 587b d437 e7fc d337 4a97 cb37 099e b837
00000110: d141 aa37 1172 9737 91cc 8f37 8b7f 8937
00000120: 04b3 c137 c0ba c137 77cd c237 f2cb bc37
00000130: 47de b637 22b2 a737 35eb 9c37 9a5f 9737
00000140: 088d 9037 ffdb 5837 ae2f 6c37 f35e 7c37
00000150: 0440 8937 02a3 9037 e6d2 8237 bcd3 6b37
00000160: 09d7 7737 7f01 6637 a636 6737 c36e 7737
00000170: 9e70 9137 2840 9037 1fca a137 16ab 9737
00000180: e731 8a37 7d85 7b37 8311 7737 b0c0 6e37
00000190: 0583 8337 c6cf 9237 cd8f af37 e5a4 b037
000001a0: 9b74 9537 9901 8b37 5715 6f37 b578 6937
000001b0: c145 7037 faa2 8137 c0e0 8a37 dea6 b137
000001c0: b93e ae37 f878 9437 3491 8337 bfbc 7737
000001d0: c27e 6237 5685 6437 9503 7837 455b 8637
000001e0: c719 a437 bfa5 b137 937a 9937 f601 8837
000001f0: 915a 8637 b6d1 6037 8c93 6637 f0fd 6a37
00000200: 5675 8937 f01b 8837 5493 8b37 b940 9437
00000210: 967b 8137 e781 6e37 5ae5 6937 cb0a 6137
00000220: 2dae 7a37 ea58 7c37 fead 8237 a5fa 8137
00000230: 2a24 8837 7808 8437 e757 7b37 aeb4 6537
00000240: ec0f 5637 ab3f 6b37 6005 6637 8203 6637
00000250: b14d 8037 4ffc 7737 9cbe 7037 fc6e 7337
00000260: d37c 6037 1380 5f37 6225 6137 0e4e 6d37
00000270: 9bd3 6937 68e0 5e37 6da2 5837 59ce 6737
00000280: 634e 6537 21e3 6437 c86a 2c39 61b8 3039
00000290: 5cc0 3239 f8e6 2e39 3242 2739 49e7 2139
000002a0: 2b8b 1e39 4f8c 1d39 5a7c 1e39 071e 3339
000002b0: 7bb2 3939 647f 3b39 2613 3439 15fc 2939
000002c0: d27e 2239 dd66 2239 7ab3 2339 e901 2439
000002d0: 96b9 3839 7b6e 4039 38dd 3e39 efdc 3439
000002e0: f318 2939 725a 2239 de51 2539 4c22 2939
000002f0: 98ca 2939 90e0 3839 e534 3e39 5ab2 3a39
00000300: cd0b 2e39 757c 2339 fef2 2239 8289 2c39
00000310: 7e7d 3339 76ad 3239 48c3 3339 399e 3539
00000320: dc0e 2e39 003a 2239 b77f 1d39 b1c0 2539
00000330: f0b2 3439 656b 3f39 4cb6 3c39 ce56 2939
00000340: 42f0 2739 7d64 1f39 cf6a 1739 2467 1b39
00000350: 7267 2739 9711 3d39 25fc 4139 2c4b 3f39
00000360: bee4 1d39 0e9b 1a39 7f78 1439 1a00 1439
00000370: 226a 1c39 48b6 2e39 a957 3b39 43d0 4339
00000380: bd1b 3f39 7099 1539 a167 1339 707d 1039
00000390: 96fc 1139 4d82 1e39 0505 2e39 25d1 3939
000003a0: 2e54 3d39 9b0b 3d39 907e 1239 029d 1139
000003b0: 0962 1039 2133 1439 2e48 1c39 eb1c 2639
000003c0: 5834 3339 5572 3539 014b 3139 5252 3d39
000003d0: 1bda 3039 90f2 3f39 aeda 4339 ce8b 4039
000003e0: e830 3639 a70f 3239 a8b0 3339 8278 2b39
000003f0: 45df 3939 2f53 3839 05cd 3d39 8ac8 4839

exp_avg f4 [64]
-0.0038170207 -0.0017796607 0.008737647 0.001098061 -0.0055936654 0.0026623039 -0.014793306 -0.0017446846
0.0044937553 -1.1502852e-05 -0.0040281843 0.0022909485 -0.0012198475 0.0025772061 -0.0021791726 -0.0005399934
-0.0055366387 0.016649708 0.0059619 0.01654962 -6e-45 0.01063153 0.013553996 0.0019803029
0.0027916797 0.0030772788 0.004242288 -0.0007081276 -0.000100161786 0.0032584707 0.004575136 0.004244083
0.0033541187 -0.0038046427 -0.0015280087 0.0015491522 -0.0033467403 -0.0030684697 0.00040798582 0.0009975831
0.013611219 -0.0127938315 -0.00021618247 0.0033897927 -0.0024159073 0.008700215 0.009806979 0.0024907
0.0005755917 -0.00044828173 -0.024886897 -0.0019301324 0.0009295654 0.0065605077 0.0024069 0.0011179068
0.00038369608 0.0039920853 -0.0014937993 0.0003521953 0.003812362 -0.0012181482 -0.0052517233 -0.003914358
00000000: fb26 7abb 8143 e9ba 5928 0f3c d0ec 8f3a
00000010: 114b b7bb 0c7a 2e3b 9f5f 72bc e7ad e4ba
00000020: 5a40 933b 60fc 40b7 dcfe 83bb bd23 163b
00000030: 4ae3 9fba 58e6 283b 73d0 0ebb 588e 0dba
00000040: b16c b5bb f864 883c 0b5c c33b 1293 873c
00000050: 0400 0080 de2f 2e3c 9411 5e3c f8c7 013b
00000060: 9df4 363b 2cac 493b e402 8b3b a4a1 39ba
00000070: f30d d2b8 118c 553b 06eb 953b f311 8b3b
00000080: c6d0 5b3b 5057 79bb 7747 c8ba ec0c cb3a
00000090: fc54 5bbb 6118 49bb eee6 d539 56c1 823a
000000a0: 9701 5f3c 389d 51bc 0aaf 62b9 4927 5e3b
000000b0: 3354 1ebb 598b 0e3c 74ad 203c 033b 233b
000000c0: 4ee3 163a 5b07 ebb9 9bdf cbbc 7ffc fcba
000000d0: 14ae 733a 87f9 d63b 15bd 1d3b ba86 923a
000000e0: d12a c939 0ad0 823b 96cb c3ba daa6 b839
000000f0: d2d8 793b 45aa 9fba a616 acbb 0444 80bb

exp_avg_sq f4 [64]
0.00015910213 0.00022460464 0.001373349 0.0022411798 0.008646757 0.0018793971 0.0024225472 0.0036814865
0.001223435 7.838632e-06 0.00071079563 0.0013468991 0.0001275722 0.0024077278 0.00029693983 0.016233271
0.0027892643 0.02596916 0.00068293686 0.017976383 1.878094e-39 0.0027708788 0.0013036467 0.00058182457
0.002941179 0.00028557115 0.00084032427 0.0014421805 0.0033264617 0.016794909 0.0010379847 0.0010884949
0.004636285 0.00047079465 0.0003602783 0.0024816676 0.01595422 0.00020460243 0.00073724263 0.00036672995
0.0036671753 0.0025548902 9.0248504e-05 0.0016583473 0.000115288356 0.005169439 0.010620167 0.00044720562
0.0011606297 4.9627117e-05 0.014840837 0.021607742 0.00032930126 0.0005807325 0.00034086572 0.0010516403
0.00036819623 0.0004396767 0.0011034313 4.312008e-05 0.0023559115 1.5759128e-05 0.0010420826 0.0044248155
00000000: a7d4 2639 d983 6b39 f201 b43a c2e0 123b
00000010: 21ab 0d3c 1a56 f63a 99c3 1e3b 1845 713b
00000020: ab5b a03a ab82 0337 b054 3a3a 6f8a b03a
00000030: e7c4 0539 f8ca 1d3b 97ae 9b39 a3fb 843c
00000040: 17cc 363b 47bd d43c 1e07 333a 3543 933c
00000050: 5d73 1400 a297 353b 20df aa3a 9685 183a
00000060: ccc0 403b b6b8 9539 3549 5c3a 8c07 bd3a
00000070: c400 5a3b 7a95 893c fd0c 883a d4ab 8e3a
00000080: faeb 973b fdd4 f639 bce3 bc39 79a3 223b
00000090: 6db2 823c 8c8a 5639 8443 413a a945 c039
000000a0: fe54 703b f26f 273b cc43 bd38 e75c d93a
000000b0: f7c6 f138 6664 a93b 3500 2e3c ec76 ea39
000000c0: 4520 983a b626 5038 fb26 733c b802 b13c
000000d0: 11a6 ac39 4c3c 183a 39b6 b239 31d7 893a
000000e0: 760a c139 6884 e639 03a1 903a d5db 3438
000000f0: a365 1a3b 7832 8437 7d96 883a 0bfe 903b

exp_avg f4 [32, 64, 5, 5]
-2.3460942e-05 -6.351407e-07 -5.855572e-06 -1.8611625e-05 -3.0793344e-05 2.2095091e-05 3.4776185e-05 1.8476836e-05
3.653321e-06 -1.8365237e-05 9.983778e-06 1.9727371e-05 -3.2346172e-06 -2.570833e-05 -3.7572623e-05 -3.551067e-05
-3.6939946e-05 -4.0566072e-05 -5.7594643e-05 -7.343979e-05 -5.8186753e-05 -5.3942036e-05 -5.3052358e-05 -6.648753e-05
-6.774862e-05 -8.672176e-07 -2.0880611e-06 -1.5600154e-06 3.153048e-07 2.6089508e-06 1.1853168e-06 -6.21673e-07
2.4456126e-06 2.6360306e-06 2.0358964e-06 -8.3196153e-07 -1.0200964e-06 2.3244127e-06 5.4185793e-06 1.8806192e-06
-1.2177534e-06 5.8528644e-07 2.8451643e-07 3.9776583e-06 2.1794267e-06 1.8553038e-06 -2.2258799e-07 1.2399857e-06
-1.996962e-06 -1.0720122e-06 -9.284882e-05 -0.00010135666 -8.5578125e-05 -5.0506555e-05 -2.7065562e-05 -8.638946e-05
-5.999584e-05 -6.542146e-05 -3.8108767e-05 -7.935475e-06 -9.404508e-05 -6.70909e-05 -6.980673e-05 -6.492598e-05
-2.8426215e-05 -7.3910705e-05 -6.345349e-05 -8.738098e-05 -7.074744e-05 -3.471534e-05 -7.5813936e-05 -6.886407e-05
-6.4804146e-05 -5.4232067e-05 -3.1939155e-05 -2.457763e-06 -6.195118e-06 -1.0492261e-05 4.225094e-06 1.0595568e-05
-1.1803017e-05 -2.0660493e-05 -1.5878008e-05 -1.3412011e-06 6.774291e-06 -1.6759179e-05 -1.9035711e-05 -1.389936e-05
5.7204793e-06 8.340846e-06 -1.2606654e-05 -9.658866e-06 -6.299422e-06 7.623369e-06 1.6120548e-05 -9.07989e-06
-7.4381433e-06 -5.91737e-07 -3.4144823e-06 6.0757293e-06 -2.6555726e-05 -1.8429904e-05 -1.3270958e-05 -8.1103735e-06
-3.746802e-06 -3.0002375e-05 -1.2069321e-05 -1.3865643e-05 -1.3803612e-05 -1.2277787e-05 -4.4129272e-05 -3.0208246e-05
-2.7247503e-05 -2.7693613e-05 -3.0793704e-05 -4.659531e-05 -3.9130093e-05 -2.168576e-05 -2.5619665e-05 -3.3383632e-05
-2.7160328e-05 -2.1176873e-05 -2.699017e-05 -2.0779367e-05 -2.4136096e-05 8.977821e-06 1.4389363e-05 -4.0768114e-06
-2.2509694e-06 6.767996e-06 -2.2972795e-06 1.3846827e-05 1.0458081e-05 6.805583e-06 3.339864e-05 -2.160922e-05
-1.2234743e-05 -2.0267773e-06 1.4686269e-05 3.734044e-05 -3.838402e-05 -1.8836017e-05 -1.5982521e-05 -2.451207e-06
1.7205013e-05 -3.528201e-05 -4.263038e-05 -2.4046147e-05 -1.6375221e-05 -1.1552737e-05 1.0483525e-05 2.3382197e-05
3.119544e-05 3.2141736e-05 3.0625823e-05 1.4279545e-05 2.3465978e-05 3.1647738e-05 2.4741017e-05 2.2533099e-05
1.2793218e-05 1.7421493e-05 1.8060491e-05 1.7121407e-05 1.3436096e-05 7.943592e-06 1.2358247e-05 7.337451e-06
4.33935e-06 1.3121377e-05 1.3512797e-05 1.1255344e-05 2.539101e-06 -1.6762493e-06 3.9365486e-06 -1.8491131e-05
-1.9804467e-05 -1.7347578e-05 -1.1730931e-05 -1.1514938e-05 -2.0606998e-05 -2.3364446e-05 -1.8769277e-05 -1.522914e-05
-1.6260654e-05 -2.9645787e-05 -2.33293e-05 -2.2421353e-05 -2.0170133e-05 -1.6230719e-05 -2.5744459e-05 -2.3411336e-05
-2.4738827e-05 -1.9252735e-05 -1.547525e-05 -2.3824485e-05 -1.7004595e-05 -2.0713667e-05 -1.641238e-05 -1.18613625e-05
-9.583036e-06 -8.240421e-06 -1.0497947e-05 -1.2532429e-05 -1.735736e-05 -6.2718323e-06 -1.0283795e-05 -1.0949144e-05
-1.3140853e-05 -1.34644315e-05 -3.1297875e-06 -1.1658541e-05 -1.260918e-05 -1.4949305e-05 -1.5472016e-05 -3.0742228e-06
-8.115215e-06 -1.0380053e-05 -1.2162595e-05 -1.1878539e-05 -2.7099475e-06 -3.7740776e-06 -6.17435e-06 -9.882002e-06
-1.174721e-05 1.0774573e-06 1.751688e-06 9.3525296e-07 4.2308093e-07 1.327906e-07 5.7467685e-07 4.5136133e-07
7.091337e-08 8.4306656e-08 -2.2974666e-08 3.9338752e-07 4.699064e-07 1.3658392e-07 5.6194736e-08 -2.715984e-08
1.2690684e-07 2.053545e-07 -7.660374e-08 -7.7821696e-08 -4.3710603e-08 2.8942748e-07 5.6889252e-08 1.2246701e-07
1.3535885e-07 -7.169924e-08 -2.9731566e-06 -9.761648e-06 -7.675765e-06 -5.073558e-06 4.37781e-06 -8.8200195e-06
00000000: fdcd c4b7 897e 2ab5 fb7a c4b6 2920 9cb7
00000010: 1a28 01b8 d958 b937 a5dc 1138 b4fe 9a37
00000020: 942b 7536 0c0f 9ab7 0080 2737 357c a537
00000030: 4d12 59b6 38a8 d7b7 4c97 1db8 4bf1 14b8
00000040: f7ef 1ab8 7d25 2ab8 c791 71b8 b003 9ab8
00000050: 8d0d 74b8 d23f 62b8 8984 5eb8 396f 8bb8
00000060: 4314 8eb8 bdca 68b5 9e20 0cb6 b961 d1b5
00000070: 2947 a934 6f15 2f36 2d17 9f35 0be1 26b5
00000080: 4e1f 2436 a9e6 3036 6fa0 0836 f653 5fb5
00000090: 3fea 88b5 1bfd 1b36 3ed1 b536 9569 fc35
000000a0: b071 a3b5 941c 1d35 a4bf 9834 d377 8536
000000b0: 4442 1236 c103 f935 8500 6fb4 966d a635
000000c0: 8c03 06b6 0fe2 8fb5 d5b7 c2b8 718f d4b8
000000d0: 6878 b3b8 00d7 53b8 da0a e3b7 fd2b b5b8
000000e0: 0ba4 7bb8 e132 89b8 fad6 1fb8 9b22 05b7
000000f0: 113a c5b8 27b3 8cb8 3465 92b8 df28 88b8
00000100: d574 eeb7 8200 9bb8 5512 85b8 4e40 b7b8
00000110: 3e5e 94b8 509b 11b8 4cfe 9eb8 1e6b 90b8
00000120: 76e7 87b8 3d77 63b8 68f6 05b8 0cf0 24b6
00000130: a9df cfb6 eb07 30b7 48c5 8d36 9ec3 3137
00000140: 9205 46b7 1250 adb7 c331 85b7 5203 b4b5
00000150: b74e e336 1096 8cb7 e1ae 9fb7 4c31 69b7
00000160: 8bf2 bf36 a9ef 0b37 2b81 53b7 830c 22b7
00000170: 9f5f d3b6 3ecc ff36 9d3a 8737 d555 18b7
00000180: 2a95 f9b6 dbd7 1eb5 5c24 65b6 1ede cb36
00000190: fdc3 deb7 eb99 9ab7 55a6 5eb7 ca11 08b7
000001a0: 9171 7bb6 9cad fbb7 577d 4ab7 7ca0 68b7
000001b0: 1096 67b7 b2fc 4db7 7217 39b8 b767 fdb7
000001c0: 9191 e4b7 954f e8b7 7d28 01b8 556f 43b8
000001d0: 9e1f 24b8 d1e9 b5b7 d0e9 d6b7 6705 0cb8
000001e0: 5cd6 e3b7 fda4 b1b7 f368 e2b7 5a4f aeb7
000001f0: df77 cab7 739f 1637 d869 7137 8bcb 88b6
00000200: 5c0f 17b6 a518 e336 f62a 1ab6 ab4f 6837
00000210: 1e75 2f37 835b e436 8415 0c38 7245 b5b7
00000220: d243 4db7 c503 08b6 0c65 7637 fe9d 1c38
00000230: 87fe 20b8 0a02 9eb7 3412 86b7 6a7f 24b6
00000240: 7c53 9037 c5fb 13b8 06ce 32b8 b5b6 c9b7
00000250: 855d 89b7 a1d2 41b7 66e2 2f37 e324 c437
00000260: d9d7 0238 edcf 0638 3a74 0038 2e92 6f37
00000270: ced8 c437 80bd 0438 ee8a cf37 7605 bd37
00000280: 74a2 5637 5f24 9237 9c80 9737 f19f 8f37
00000290: 986b 6137 7845 0537 4456 4f37 3934 f636
000002a0: bc9a 9136 e323 5c37 05b5 6237 56d5 3c37
000002b0: 6c65 2a36 7dfb e0b5 b216 8436 671d 9bb7
000002c0: c521 a6b7 a485 91b7 f7cf 44b7 4830 41b7
000002d0: 31dd acb7 c4fe c3b7 b772 9db7 a980 7fb7
000002e0: 7d67 88b7 d8af f8b7 4ab3 c3b7 7d15 bcb7
000002f0: 0833 a9b7 3427 88b7 cef5 d7b7 7663 c4b7
00000300: 3a86 cfb7 ef80 a1b7 d9d0 81b7 b1da c7b7
00000310: 17a5 8eb7 43c2 adb7 51ad 89b7 2a00 47b7
00000320: d4c6 20b7 5740 0ab7 5720 30b7 5f42 52b7
00000330: a69a 91b7 a172 d2b6 9088 2cb7 37b2 37b7
00000340: 8977 5cb7 4be5 61b7 5709 52b6 0d99 43b7
00000350: 048c 53b7 c7ce 7ab7 e7c9 81b7 bf4e 4eb6
00000360: 9526 08b7 fd25 2eb7 f30d 4cb7 f049 47b7
00000370: 8bdc 35b6 2946 7db6 432d cfb6 e0ca 25b7
00000380: e215 45b7 279d 9035 8b1b eb35 180e 7b35
00000390: cd23 e334 3495 0e34 7e43 1a35 a152 f234
000003a0: 0a49 9833 130c b533 d359 c5b2 c532 d334
000003b0: 7247 fc34 e7a7 1234 c45a 7133 1f4d e9b2
000003c0: e343 0834 6a7f 5c34 5a81 a4b3 ee1e a7b3
000003d0: 51bc 3bb3 9c62 9b34 6556 7433 7a7f 0334
000003e0: 2857 1134 13f9 99b3 7186 47b6 f5c5 23b7
000003f0: 29c7 00b7 883d aab6 1ae5 9236 b2f9 13b7
