logs/biosr_ccps_rcan_model-SRCNN_250305_lr0.0001_bs1_Ps256_Npatch128_N300/model_129.pth (torch, 695046 bytes, 15 tensors)

conv1.weight f4 [64, 1, 9, 9]
0	0x3da64095	0.08117787
1	0xbce59739	-0.02802621
2	0x3dab6ae2	0.08369996
3	0xbcb3a114	-0.021927394
4	0x3d3ef9eb	0.04662506
5	0xbd205ee3	-0.03915299
6	0x3e0914a6	0.13386783
7	0xbc55f845	-0.01305968
8	0x3e4dfaae	0.20115158
9	0xbce16f77	-0.02751897
10	0xbdbd752a	-0.09250863
11	0x3d47fc46	0.04882457
12	0xbd490a38	-0.04908201
13	0x3d045d0f	0.03231531
14	0x3d3254c9	0.04353789
15	0x3cfa70dc	0.030571394
16	0x3d9e53e3	0.07730844
17	0x3dd76768	0.1051777
18	0x3daf7a9b	0.08568307
19	0x3d1e22e6	0.0386075
20	0xbdc4f4a2	-0.096169725
21	0xbc963c89	-0.018339412
22	0xbd510abc	-0.051035628
23	0xbdc08650	-0.09400618
24	0xbd8bc9d2	-0.068256035
25	0xbd93ab62	-0.07210423
26	0x3d4a196c	0.04934065
27	0xbdd24898	-0.102677524
28	0xbd0d3248	-0.03447178
29	0x3cbfbf6f	0.023406712
30	0xbd9dbb39	-0.077017255
31	0xbdcd499d	-0.10023806
32	0x3b045ac3	0.00201957
33	0xbcfb6442	-0.030687455
34	0xbd2cd0df	-0.042191382
35	0x3d95988a	0.07304485
36	0xbd956893	-0.072953366
37	0xbd80b654	-0.06284776
38	0xbb9337f7	-0.0044927555
39	0x3d2febd2	0.042949505
40	0xbd03fd91	-0.03222424
41	0x3d938b57	0.07204311
42	0x3d5394c0	0.05165553
43	0x3d84aa79	0.064778276
44	0x3cb99902	0.022655968
45	0xbd1526e7	-0.036414053
46	0xbdc8a793	-0.09797587
47	0xbb0eb81a	-0.0021777214
48	0xbdc2df6a	-0.09515269
49	0x3cce78ea	0.02520414
50	0x3cd4e44d	0.025987769
51	0x3cb5f518	0.022211596
52	0x3d5a85da	0.053350307
53	0x3dfd54b6	0.12369673
54	0xbd5e2578	-0.05423495
55	0xbce90093	-0.028442657
56	0xbc1cb78b	-0.009565244
57	0x3d034658	0.032049507
58	0x3d9e7f99	0.07739181
59	0x3d76907c	0.060196385
60	0xbd3dc0e5	-0.046326537
61	0x3dd65689	0.10465724
62	0x3bca6edb	0.006177766
63	0x3d1c185a	0.03810916
64	0x3d123e0e	0.03570371
65	0x3abd6424	0.00144494
66	0xbd5305b8	-0.051519126
67	0xbd55e2b5	-0.052218158
68	0x3c1f2c9a	0.009715224
69	0xbd87aec2	-0.06625129
70	0xbcb88f99	-0.02252941
71	0xbd8aa187	-0.0676909
72	0x3d3188ac	0.04334323
73	0xbcc51fba	-0.02406298
74	0x3caefe3a	0.021361459
75	0x3d63617f	0.0555129
76	0xbd486f27	-0.048934128
77	0xbc094ac4	-0.008379642
78	0xbdaede1e	-0.08538459
79	0xbbb8eebb	-0.0056436933
80	0xbd8e44eb	-0.06946739
81	0xbd41ca26	-0.047311924
82	0xbb784f80	-0.0037889183
83	0xbceeb10d	-0.029137159
84	0x3be384ea	0.006943335
85	0x3d93f6fd	0.07224844
86	0xbd033ffd	-0.032043446
87	0xbdfbc559	-0.122935005
88	0x3d68c5f4	0.056829408
89	0xbc899ce9	-0.016798453
90	0x3ca28835	0.01984034
91	0xbc8d972e	-0.017284002
92	0x3d6b0cdd	0.057385314
93	0xbdcfc001	-0.10144044
94	0x3d8ec7e7	0.06971722
95	0x3d981247	0.07425361
96	0x3d946a6b	0.0724686
97	0x3d0f3484	0.034962192
98	0x3db98bd9	0.09059877
99	0x3d0bc78a	0.034125842
100	0x3c9ad86e	0.01890203
101	0xbcb3722a	-0.021905024
102	0x3dad4c21	0.08461786
103	0x3d97df54	0.07415643
104	0xbd49da05	-0.049280185
105	0x3c4adb71	0.0123814205
106	0xbdc08410	-0.09400189
107	0xbcc65d2f	-0.024214355
108	0x3ce0ec0c	0.027456306
109	0xbc5c7eaf	-0.013457938
110	0xbdf4de80	-0.11956501
111	0x3da9ff58	0.08300656
112	0x3cf96089	0.03044154
113	0xbdba6dfe	-0.091030106
114	0xbdd62d33	-0.1045784
115	0xbd3f4fdf	-0.04670703
116	0xbdbec572	-0.093150035
117	0xbd7fa20a	-0.062410392
118	0xbd73c037	-0.059509482
119	0xbdcf8d8f	-0.10134422
120	0x3d45674e	0.048194222
121	0x3df1cb69	0.118063755
122	0x3b46afcc	0.0030317185
123	0xbd28d557	-0.04121908
124	0x3db071fd	0.086154915
125	0xbdd55f1b	-0.104185306
126	0xbd0b329d	-0.033983815
127	0xbdc0e8b5	-0.09419385
128	0x3d089066	0.033340834
129	0xbdb10f89	-0.08645541
130	0xbdbd74a5	-0.09250764
131	0x3d3af2f5	0.045641858
132	0xbd88177f	-0.066451065
133	0xbdbf7b28	-0.09349662
134	0x3b66aa8f	0.0035196876
135	0xbd500f0c	-0.0507956
136	0x3d8da232	0.06915702
137	0x3bfa95f3	0.00764727
138	0x3bf20b91	0.0073866327
139	0xbd27d45f	-0.040974017
140	0x3d73d8b7	0.059532847
141	0x3d90ff96	0.07079999
142	0x3daba7e7	0.08381634
143	0x3c4ec2f7	0.012619725
144	0xbdf0b18f	-0.117526166
145	0x3c1c61d9	0.009544813
146	0xbd949325	-0.07254628
147	0xbdc1226e	-0.09430395
148	0x3d93e150	0.07220709
149	0x3d284dd7	0.04108986
150	0x3d0725be	0.032994978
151	0x3ddfe936	0.10933153
152	0x3cf6b633	0.030116176
153	0xbc91cd26	-0.017798018
154	0xbcf18eb2	-0.029486988
155	0x3d4329c0	0.047647238
156	0x3c8691c7	0.016426934
157	0xbd84eee4	-0.06490877
158	0xbdc9baac	-0.09850058
159	0x3d88b3db	0.0667493
160	0x3d94aad0	0.072591424
161	0x3df85719	0.121259876
162	0x3d825851	0.06364501
163	0x3dfce1c5	0.123477496
164	0xbd4f9628	-0.05068031
165	0x3d7c1528	0.061543614
166	0x3d16e39e	0.036838166
167	0x3ce48336	0.027894598
168	0xbd9ca9c7	-0.0764957
169	0xbd86c02b	-0.06579622
170	0x3d3fa541	0.046788458
171	0x3de23d62	0.11046864
172	0x3d94663b	0.072460614
173	0xbcfd534d	-0.03092351
174	0x3df386bf	0.11890935
175	0x3d699da3	0.0570351
176	0x3c938118	0.018005893
177	0x3caa0cd5	0.020758072
178	0x3db4d89e	0.08830379
179	0x3d98b4b2	0.0745634
180	0x3daa0c70	0.083031535
181	0xbd550b82	-0.052012928
182	0x3dbf1d09	0.0933171
183	0x3dca49c9	0.09877355
184	0xb9b2bf6c	-0.00034093426
185	0x3d75a935	0.05997582
186	0xbd93653c	-0.07197043
187	0xbddd87b3	-0.10816898
188	0xbdac5f9c	-0.084166735
189	0x3df42721	0.11921526
190	0x3ddcdddb	0.10784503
191	0x3cb1ca86	0.021703016
192	0x3dc5ee4e	0.09664594
193	0x3dab81a8	0.08374339
194	0xbd2cdd63	-0.04220332
195	0x3cb7540b	0.022378942
196	0xbd7d7f0c	-0.06188874
197	0xbe028701	-0.12746812
198	0x3ddf4f14	0.10903755
199	0xbd240dc4	-0.04005219
200	0xbcfea161	-0.03108281
201	0x3cac169c	0.021006875
202	0x3d8c7636	0.068584844
203	0x3da26d65	0.079310216
204	0xbcfb856b	-0.030703267
205	0x3b8fb745	0.004385861
206	0xbbae88a8	-0.0053263493
207	0xbd18b451	-0.037281338
208	0xbc4f39c4	-0.01264805
209	0x3cb0a9fd	0.021565432
210	0xbda075da	-0.078349784
211	0x3d4f922f	0.05067652
212	0xbddf0033	-0.1088871
213	0x3cc6de0d	0.024275804
214	0xbde43655	-0.111431755
215	0xbe0bb90c	-0.13644809
216	0x3ced9c41	0.029005172
217	0x3cc5fb9c	0.024167828
218	0xbd2e29b3	-0.042520236
219	0x3d832bea	0.0640486
220	0x3db6db70	0.08928573
221	0x3c20242f	0.009774252
222	0xbddd241b	-0.10797902
223	0xbdecb37a	-0.1155767
224	0xbe241566	-0.16023788
225	0x3c12375d	0.008924332
226	0x3dd65dde	0.104671225
227	0x3c53752c	0.012906354
228	0xbdc8734c	-0.09787616
229	0x3d8ec2ae	0.06970726
230	0x3ce5ab77	0.028035862
231	0xbda4c98c	-0.080462545
232	0xbe1b4dfd	-0.15166469
233	0x3ca0f9e6	0.01965041
234	0x3de637bb	0.112410985
235	0x3ca74852	0.020420227
236	0xbd1448ea	-0.03620235
237	0xbcd6dd61	-0.026228609
238	0xbd3830ce	-0.04496842
239	0xbdeca44b	-0.11554774
240	0x3bcae280	0.0061915517
241	0xbdc280ae	-0.094972
242	0xbe044dc6	-0.12920293
243	0x3dda2738	0.10652012
244	0xbdaff061	-0.085907705
245	0x3dc7d52d	0.09757457
246	0x3df2a517	0.11847895
247	0x3d983e4b	0.074337564
248	0xbd0c4326	-0.034243725
249	0xbd3a81e2	-0.045534022
250	0x3ccd6e3c	0.025076978
251	0xbd9ae5a8	-0.07563335
252	0x3d4c58c4	0.04988934
253	0xbb9f8500	-0.0048681498
254	0x3c09af1b	0.008403565
255	0x3dea7dbd	0.11449764

conv1.bias f4 [64]
0	0x3cd2fcd3	0.025755322
1	0x3d55b73b	0.052176695
2	0x3c92bbff	0.01791191
3	0x3ba40b7a	0.005006251
4	0xbdd1bbb0	-0.10240877
5	0x3d9c9a79	0.07646651
6	0x3dbab1b8	0.091159284
7	0xbd97e6c4	-0.07417062
8	0xbd18c788	-0.037299663
9	0x3cea258d	0.028582359
10	0xbd134c09	-0.035961185
11	0xbc8f06cf	-0.017459301
12	0xbdd0e246	-0.10199408
13	0xbc8b0415	-0.01696972
14	0xbda2feea	-0.07958777
15	0xbd85db5e	-0.065359816
16	0x3dbbb7d9	0.091659255
17	0xbcc5f41b	-0.02416425
18	0xbb52cc1e	-0.003216512
19	0xbca9c5e1	-0.020724239
20	0xbd1374be	-0.036000006
21	0xbdd2fb67	-0.103018574
22	0xbdedbb4b	-0.11607989
23	0xbc9e6b77	-0.019338353
24	0xbc9a9b73	-0.018872952
25	0x3c940ea3	0.018073386
26	0xbcd508dc	-0.026005201
27	0xbda1b918	-0.07896632
28	0xbd999a94	-0.075001866
29	0xbd7d04e5	-0.061772246
30	0xbd0324d0	-0.03201753
31	0xbca2ea32	-0.019887064
32	0xbda3ea88	-0.08003718
33	0xbda74a7c	-0.08168504
34	0x3d8a3c47	0.06749778
35	0xbb12f86f	-0.002242591
36	0xbd945a7a	-0.072438195
37	0x3d4b6efb	0.049666386
38	0xbcd3a3cd	-0.025834942
39	0x3e1f8b63	0.15580516
40	0x3d44fbd4	0.048091725
41	0x3d7a2ad1	0.06107599
42	0xbca8568f	-0.020549087
43	0xbca9f857	-0.0207483
44	0x3d0d41ac	0.034486458
45	0xbdf884fa	-0.12134738
46	0xbc44bb7b	-0.012007589
47	0xbd110097	-0.035400953
48	0x3cb83c0e	0.022489574
49	0xbcfcf2d0	-0.0308775
50	0x3ddaf980	0.106921196
51	0xbd808e86	-0.06277184
52	0x3bd4f984	0.006499471
53	0xbb4c9791	-0.003121827
54	0x3d8c666c	0.06855473
55	0xbd720df0	-0.059095323
56	0x3d178292	0.036989756
57	0xbda553fb	-0.08072659
58	0x3c2081d0	0.009796575
59	0x3c4178c8	0.011808582
60	0xbc8103f5	-0.015748957
61	0x3a58404d	0.00082493277
62	0x3d60a24d	0.054842282
63	0xbdabb4a9	-0.083840676

conv2.weight f4 [32, 64, 5, 5]
0	0xbcb8e961	-0.022572221
1	0xbd1c6a30	-0.038187206
2	0x3c6fcf30	0.0146368
3	0xbc32bfb9	-0.010909968
4	0x3cf8ae0b	0.030356428
5	0x3bb576c5	0.00553784
6	0xbc2ff52c	-0.010739606
7	0x3cd47e6e	0.025939193
8	0xbbfaea4b	-0.0076573244
9	0x3c2ea3c1	0.010659159
10	0xbb6076db	-0.003425053
11	0xbbda5cbd	-0.0066638873
12	0xbbe5c0e2	-0.007011519
13	0xbca089a4	-0.019596882
14	0x3afc5857	0.0019252402
15	0xbd34f341	-0.044177298
16	0xbcaceb06	-0.021108162
17	0xbd0de76e	-0.034644537
18	0xbd07f85d	-0.033195842
19	0xb92b551f	-0.00016339541
20	0x3ac1a12b	0.0014772763
21	0x3c8cc51e	0.017183837
22	0x3ca5c7c7	0.020236863
23	0x3d1a55b5	0.037679393
24	0x3d4d6bde	0.0501517
25	0xbdf596f6	-0.11991684
26	0xbc9ca2ac	-0.019120537
27	0x3d5f2398	0.054477304
28	0x3b1f32c8	0.0024291743
29	0xbcb9be36	-0.022673707
30	0xbb05edb8	-0.002043588
31	0xbd20969f	-0.039206143
32	0x3d71b51e	0.059010617
33	0x3d26f82b	0.040764015
34	0x3b42c6ac	0.0029720468
35	0xbd8598e0	-0.06523299
36	0xbdab51b8	-0.08365196
37	0xba9125f6	-0.0011073935
38	0xbc8f21a9	-0.017472105
39	0xbbe02537	-0.006840374
40	0xbdb5ba8f	-0.08873474
41	0xbda14966	-0.07875328
42	0xbc9caf5a	-0.019126583
43	0xbc431c4c	-0.011908602
44	0xbc2ae4fa	-0.010430569
45	0xbd4b6739	-0.049658988
46	0xbc738dee	-0.014865382
47	0x3bee82fa	0.007278797
48	0x3a5a91d7	0.0008337772
49	0xbcd4068f	-0.025882034
50	0x3c8963ee	0.016771283
51	0x3c0b8100	0.008514643
52	0x3cba3cdf	0.022734104
53	0x3cef8d4f	0.029242186
54	0x3c74c795	0.014940162
55	0xbcee6466	-0.029100608
56	0xbc5b5ec8	-0.013389297
57	0xbc828c99	-0.015936183
58	0xbc610d71	-0.013736115
59	0x3c324c4f	0.010882451
60	0xbcfcee70	-0.030875415
61	0xba5645f0	-0.00081738736
62	0xbc0a43e7	-0.008439041
63	0x3c2803ef	0.010254844
64	0x3c42876d	0.011873108
65	0xbd34455f	-0.04401147
66	0xbb890e43	-0.0041826083
67	0xbd08d36d	-0.033404756
68	0x3d0b3ed9	0.033995483
69	0x3d81d13f	0.06338739
70	0xbb6a14f2	-0.003571805
71	0x3c41da18	0.011831783
72	0x3ca565c9	0.020190137
73	0x3d54f400	0.05199051
74	0x3e2664f0	0.16249442
75	0x3caffd67	0.021483136
76	0xbcdf1136	-0.027229887
77	0xbba308f7	-0.004975434
78	0xbbc2dadc	-0.0059465
79	0x3cf4dfd1	0.02989188
80	0x3c211c1b	0.009833361
81	0x3b8b7af3	0.0042566
82	0xbd1755ed	-0.03694718
83	0xbc154c8b	-0.009112488
84	0x3c7a04cd	0.015259934
85	0xbc39ae25	-0.011333023
86	0x3bff2d95	0.007787416
87	0x3b65f02e	0.0035085785
88	0x3cc8a605	0.024493227
89	0x3c806aea	0.01567598
90	0xbbc7350c	-0.0060793217
91	0xbd10e8ac	-0.035378143
92	0xbc538ccb	-0.012911986
93	0xbbf3a771	-0.007435732
94	0xbcde45ca	-0.027132887
95	0xbd0377b3	-0.032096576
96	0xbd3d6b92	-0.046245165
97	0xbd54ba5e	-0.051935546
98	0xbdf983cb	-0.12183341
99	0xbe2debca	-0.16984478
100	0x3b4a56b5	0.0030874435
101	0x3c3e2514	0.01160552
102	0x3c07c4d8	0.008286677
103	0xbc8b81da	-0.017029691
104	0xbd380c1a	-0.044933416
105	0x3c97903f	0.0185014
106	0x3bc4fb96	0.0060114367
107	0xbb961b29	-0.0045808745
108	0x3bfd93df	0.007738575
109	0xbd4362dd	-0.047701705
110	0x3d0837a8	0.033256203
111	0x3cc5a169	0.024124818
112	0x3b6aee68	0.0035847668
113	0xbad0ef6d	-0.0015940495
114	0xbd038bb1	-0.032115642
115	0xbb2bcd38	-0.002621485
116	0x3c9d1493	0.01917485
117	0xbd434f78	-0.04768321
118	0xbd066b89	-0.032817397
119	0xbccbf739	-0.024898158
120	0x3d77f2b7	0.060534205
121	0x3c3bc74c	0.01146109
122	0x3d17a33c	0.037020907
123	0x3d3a3867	0.045463946
124	0x3d7b4508	0.06134513
125	0x3bafceef	0.0053652446
126	0x3c4cc2ec	0.012497645
127	0x3a88c8a2	0.001043577
128	0x3c973bbd	0.018461103
129	0xbc9792d4	-0.01850263
130	0x3b210e75	0.0024575267
131	0x3c0785fd	0.008271691
132	0xbb8300df	-0.0039979066
133	0x3bfc4438	0.007698562
134	0xbd00b905	-0.03142645
135	0xbce7d161	-0.028298082
136	0xbcd3856b	-0.025820455
137	0xbce1a51c	-0.02754455
138	0xbd09b7ac	-0.03362243
139	0xbcf5a2c5	-0.029984841
140	0x3b561239	0.003266467
141	0xbc049f86	-0.008094674
142	0x3b29a90d	0.0025888116
143	0x3c81e0bf	0.015854238
144	0xba3d30e3	-0.00072170625
145	0x3c2b4b3e	0.010454951
146	0x3cf9a892	0.030475888
147	0x3c957b38	0.018247232
148	0x3ce8b2f3	0.028405642
149	0x3c70f1d1	0.014706091
150	0x3b6ee390	0.0036451556
151	0x3d0cab66	0.034343146
152	0x3d6025d0	0.05472356
153	0xbcc5e61b	-0.024157574
154	0xbd743278	-0.059618443
155	0xbb95057e	-0.004547774
156	0xbb6c1772	-0.0036024717
157	0xbcbe2b61	-0.023214044
158	0xbd886030	-0.06658971
159	0xbd235801	-0.03987885
160	0x3c18898b	0.009310137
161	0xbc036efc	-0.008022066
162	0xbc1b711b	-0.009487416
163	0xbd6bb9ce	-0.057550244
164	0xba91a6ad	-0.0011112295
165	0x3d5a62c8	0.05331686
166	0x3ca1651d	0.019701535
167	0xbd577411	-0.052600924
168	0x3bd70f95	0.006563137
169	0x3c1d8186	0.0096134
170	0x3d33f726	0.04393687
171	0x3d2b15a9	0.041768704
172	0xbd2b4968	-0.041818053
173	0x3c97a2d1	0.018510254
174	0x3d9c4f39	0.07632298
175	0xbca82807	-0.020526899
176	0xbcf237c2	-0.029567603
177	0x3c3d582c	0.011556666
178	0xbc9ee919	-0.019398259
179	0xbd04d8d1	-0.032433335
180	0xbd046ba1	-0.032329205
181	0x3c6cfc61	0.014464469
182	0x3caeecf3	0.02135322
183	0xbcc3f300	-0.023919582
184	0x3cb3d6b6	0.021952968
185	0x3ab2bbc8	0.0013636285
186	0x3d137b32	0.03600616
187	0x3c60e1a9	0.013725677
188	0xbc0ee992	-0.00872268
189	0xbc553aa5	-0.01301447
190	0x3cb24134	0.021759607
191	0xbb307b9a	-0.002692914
192	0xbc5a4625	-0.013322388
193	0x3c4bfba9	0.012450137
194	0x3d107c39	0.035274718
195	0x3cf406f8	0.02978848
196	0x3c0bcfba	0.008533413
197	0x3c25ade3	0.010112259
198	0x3d567966	0.05236187
199	0x3dd5d88a	0.10441692
200	0x3d163c93	0.03667886
201	0xbd63ca29	-0.055612717
202	0xbd0f6689	-0.035009895
203	0xbcb1a709	-0.021686094
204	0xbd44bbd5	-0.048030693
205	0xbc515c9a	-0.012778426
206	0xbd0000b9	-0.03125069
207	0xbd2e2f23	-0.04252542
208	0xbba0b662	-0.004904554
209	0x3c966b82	0.01836181
210	0xbdc4c2a9	-0.09607441
211	0xbd0a82d6	-0.03381618
212	0xbd9aa4bc	-0.07550952
213	0xbd4fa06d	-0.050690103
214	0x3dcca3b1	0.09992159
215	0xbe16fe4d	-0.14745446
216	0xbde719d1	-0.11284221
217	0xbda99863	-0.082810186
218	0xbd49c8ed	-0.049263883
219	0x3db54801	0.08851624
220	0xbd7970c2	-0.06089855
221	0xbd901e10	-0.07036984
222	0xbd5aa349	-0.053378377
223	0x3d568501	0.052372936
224	0x3e1929ab	0.14957301
225	0x3c938605	0.018008241
226	0xbba3ddf3	-0.0050008236
227	0xbb8eb162	-0.004354642
228	0xbd1571e8	-0.036485583
229	0xbcd807d5	-0.026370922
230	0x3d3a4e70	0.04548496
231	0x3b65e37f	0.0035078225
232	0xbcabca63	-0.020970529
233	0xbd7ce978	-0.06174609
234	0x3d274905	0.04084112
235	0xbd97e8ee	-0.07417475
236	0xbd473eac	-0.048643753
237	0xbd8fb30d	-0.07016573
238	0xbd640916	-0.055672728
239	0x3d90a88a	0.07063396
240	0xbddbb50a	-0.1072789
241	0xbda8ad50	-0.08236182
242	0xbca44179	-0.020050751
243	0x3d63f9c0	0.055658102
244	0x3d882f44	0.0664964
245	0xbdc876f8	-0.097883165
246	0xbd196821	-0.03745282
247	0xbcc9f2c1	-0.024651887
248	0x3e86c78d	0.2632412
249	0x3d153542	0.036427744
250	0x3d88b515	0.06675164
251	0xbcc6e630	-0.024279684
252	0xbd5c1f73	-0.05374093
253	0xbd98f146	-0.07467894
254	0xbdf9d639	-0.12199063
255	0x3d6be59f	0.05759203

conv2.bias f4 [32]
0	0x3bb73ccc	0.0055919643
1	0xbd094966	-0.033517264
2	0x3c47e0ee	0.0121996235
3	0xbcb75ef1	-0.022384139
4	0x3c777fc2	0.015106143
5	0xbc8b9f39	-0.017043697
6	0xbcb86152	-0.022507343
7	0x3c9736e5	0.018458793
8	0xbc4cec85	-0.0125075625
9	0xbc9baea8	-0.019004181
10	0xbccb8563	-0.024843877
11	0x3c6869cf	0.014185383
12	0xbc3fe57c	-0.011712428
13	0xbc7bfdf8	-0.015380375
14	0x3c841369	0.016122537
15	0xbced3069	-0.028953748
16	0xbcd40c65	-0.025884816
17	0xbc6b87a0	-0.014375597
18	0x3af2a124	0.0018511158
19	0xbd6dcbdb	-0.05805574
20	0x3d4d7158	0.05015692
21	0xbc0dc396	-0.008652588
22	0xbc30eb3b	-0.010798271
23	0x3b880ea3	0.0041521355
24	0xbc92c58b	-0.017916461
25	0xbc255da7	-0.010093129
26	0xbc9bec4a	-0.01903357
27	0x3ca4775d	0.020076448
28	0xbcdf32e3	-0.027245944
29	0x3b7c6bd1	0.0038516412
30	0x3ca6d3f1	0.020364733
31	0xbcdae9ff	-0.026722906

conv3.weight f4 [1, 32, 5, 5]
0	0xbd498e15	-0.049207766
1	0xbc8a5426	-0.016885828
2	0xbcbb2125	-0.022842953
3	0xbd000665	-0.0312561
4	0x3b7343bf	0.0037119237
5	0x3bba3203	0.0056822314
6	0xbce9af2b	-0.02852591
7	0xbd58dc64	-0.052944556
8	0xbc3ba7a0	-0.011453539
9	0x3c8723a8	0.016496494
10	0x3c9ff517	0.019526048
11	0xbd39fe57	-0.045408573
12	0xbd2b6843	-0.04184748
13	0xbab4971f	-0.0013777948
14	0x3c14d1d0	0.009083226
15	0xbbb889ce	-0.005631662
16	0xbcc3c88e	-0.023899343
17	0xbcec4102	-0.028839592
18	0xbc669c29	-0.014075317
19	0x3c909b54	0.017652191
20	0x3d8e6d14	0.06954399
21	0x3d665f62	0.056243308
22	0x3d492259	0.049105022
23	0x3d24cd02	0.040234573
24	0x3df6ed1d	0.120569445
25	0xbd274e13	-0.04084594
26	0xbcde09b4	-0.027104236
27	0xbd34dfc0	-0.044158697
28	0xbc1304be	-0.008973299
29	0xbb2d1a96	-0.0026413552
30	0xbd27a1fa	-0.040925957
31	0xbd59c1de	-0.0531634
32	0xbcc1b91b	-0.023647835
33	0xbc626368	-0.013817646
34	0xbd02d812	-0.031944342
35	0xbd05622b	-0.032564323
36	0xbc642782	-0.013925435
37	0xbd26195d	-0.040551532
38	0xbcd830c1	-0.026390435
39	0xbc63da30	-0.013907
40	0xbd244fad	-0.040115047
41	0x3c40cec7	0.01176805
42	0xbd1e6244	-0.038667932
43	0xbc4f49a1	-0.012651832
44	0xbcb84646	-0.022494446
45	0xbbd1b3ce	-0.006399608
46	0xbd6b4812	-0.05744178
47	0xbc8dfed6	-0.01733343
48	0xbce3bd38	-0.027800187
49	0xba84517c	-0.0010095085
50	0x3d1574c6	0.036488317
51	0xbc73ce22	-0.014880689
52	0x3bd3ed8e	0.0064675277
53	0x3d079d55	0.033109028
54	0x3d0cd75e	0.034385078
55	0xbc0cf635	-0.008603622
56	0x3c8d785a	0.017269302
57	0xbca5857c	-0.020205252
58	0xbc649196	-0.013950726
59	0xbcd93625	-0.026515076
60	0x3c550d2b	0.013003628
61	0xbcecbb3d	-0.028897876
62	0xbc84e3db	-0.016221931
63	0xbc6d9ee1	-0.014503212
64	0x3b9a68b4	0.0047121886
65	0x3baee449	0.0053372723
66	0xbbde2b25	-0.0067800456
67	0xbcdf32c4	-0.027245887
68	0xbba1c8d7	-0.004937272
69	0x3c8e03cb	0.017335793
70	0x3c4ecf1d	0.012622622
71	0xbc8ca6f3	-0.017169451
72	0xbbb54c96	-0.0055328114
73	0xbd033fd6	-0.0320433
74	0x3c9bab2c	0.01900252
75	0xbd016f63	-0.031600367
76	0xbcb06121	-0.02153069
77	0xbd5ed219	-0.054399583
78	0xbd4bac14	-0.049724653
79	0xbcd1996c	-0.025585853
80	0xbc34c03d	-0.011032161
81	0x3cc53c1a	0.02407651
82	0x3caea52f	0.021319
83	0xbc537d7d	-0.012908337
84	0x3ce9fdcd	0.028563404
85	0xbbac8a49	-0.0052655083
86	0xbc954c04	-0.018224724
87	0x3c8610d7	0.016365452
88	0xbbaf1366	-0.0053428886
89	0x3d06c8d7	0.03290638
90	0x3c2fcbc8	0.010729738
91	0x3c4e265e	0.01258239
92	0xbcbb94de	-0.022898134
93	0xbc06474a	-0.008195708
94	0x3d1ff8ca	0.039055623
95	0x3d45f372	0.04832787
96	0x3cd472bb	0.025933614
97	0x3b979bf7	0.0046267468
98	0x3d1867d9	0.03720841
99	0x3da6c3d1	0.08142818
100	0xbd9c4206	-0.076297805
101	0xbd2029b9	-0.03910229
102	0xbcbaf249	-0.022820609
103	0xbc49dcb6	-0.012320688
104	0xbd8a5797	-0.06754988
105	0xbb1a4281	-0.0023538175
106	0xbb9804be	-0.004639237
107	0x3d1fb0a0	0.038986802
108	0xbca568d6	-0.020191591
109	0xbc9568da	-0.018238474
110	0xbcd7e58e	-0.026354577
111	0xbb6677bd	-0.0035166584
112	0x3c92fa3a	0.017941583
113	0xba9875c5	-0.0011631778
114	0x3c61d0b1	0.013782666
115	0xbcb7e3df	-0.022447525
116	0x3ca66d5c	0.020315818
117	0xbc0db295	-0.008648534
118	0xbc51c622	-0.012803586
119	0x3c0e7dce	0.008696986
120	0xbc5ae34a	-0.013359854
121	0x3d13a322	0.036044247
122	0x3cf8abbe	0.03035533
123	0x3ba33312	0.0049804533
124	0x3c471bc9	0.012152621
125	0xbddf2e54	-0.10897508
126	0xbda85190	-0.08218682
127	0xbd33130a	-0.04371933
128	0xbd6a4921	-0.057198647
129	0xbd84567a	-0.064618066
130	0xbd0a8284	-0.033815876
131	0xbd0b7414	-0.034046248
132	0xbd08f02d	-0.033432174
133	0xbd069294	-0.03285463
134	0xbd031199	-0.031999204
135	0xbda57cc9	-0.080804415
136	0xbca545f0	-0.02017495
137	0xbd6b51ac	-0.057450935
138	0x3b3c789b	0.002875841
139	0xbd8ae20c	-0.06781396
140	0xbd633395	-0.055469114
141	0xbbee6013	-0.0072746365
142	0xbd0b2d05	-0.03397848
143	0xbd1285d6	-0.035772167
144	0xbc6ef0d4	-0.014583785
145	0xbda513f2	-0.08060445
146	0xbd5c9c5d	-0.053860057
147	0xbd37bbca	-0.044856824
148	0xbc578eec	-0.013156634
149	0xbd130326	-0.035891674
150	0x3d2b5de0	0.041837573
151	0xbbeb4d35	-0.0071808347
152	0xbbc60f69	-0.0060443175
153	0x3d1859ae	0.0371949
154	0x3cf50d0f	0.029913453
155	0xbc1a4972	-0.009416925
156	0xbb2477fa	-0.0025095926
157	0xbc3f38a5	-0.01167122
158	0x3afacddb	0.0019134836
159	0x3d08141e	0.03322231
160	0xbce9f328	-0.028558329
161	0x3bed5a32	0.007243418
162	0xbb3fda87	-0.002927454
163	0xbbf1f061	-0.0073833917
164	0x3c299e02	0.010352613
165	0x3ce2523a	0.0276271
166	0xbc927ed1	-0.017882736
167	0xbc072095	-0.008247514
168	0x3b8df26b	0.004331877
169	0x3c2f1d69	0.010688164
170	0x3c82b80c	0.015956901
171	0x3cf0a16e	0.02937385
172	0x3c71f823	0.014768633
173	0x3cc9c5b1	0.0246304
174	0x3becc31b	0.007225407
175	0x3d98a543	0.07453396
176	0x3d8e3e76	0.06945507
177	0x3cac016e	0.020996775
178	0x3bef912d	0.0073110075
179	0x3d2678d9	0.040642593
180	0x3da53474	0.08066645
181	0x3ca68c6b	0.020330628
182	0x3cb860a8	0.022507027
183	0x3c8ba67d	0.017047161
184	0x3cffc62c	0.031222425
185	0x3d7f1ec6	0.062285207
186	0xbc203454	-0.009778101
187	0x3d150e1f	0.03639042
188	0xbc3297d0	-0.010900453
189	0xbb787b74	-0.003791538
190	0x3d00c16a	0.031434454
191	0x3d015f18	0.03158483
192	0x3d073e6f	0.033018526
193	0x3b666afe	0.0035158987
194	0x3c464c18	0.012103103
195	0x3cc77381	0.024347069
196	0x3cb74e0d	0.022376085
197	0x3c991015	0.018684426
198	0x3b8fe64b	0.0043914667
199	0x3d2b89cc	0.04187946
200	0x3d366e34	0.04453869
201	0x3d2a937d	0.041644562
202	0x3d43b3fe	0.047779076
203	0x3d12e741	0.035865072
204	0x3d97044a	0.07373865
205	0xbac34334	-0.0014897347
206	0x3d20a007	0.039215114
207	0x3b1c979d	0.002389408
208	0x3cc7e8ef	0.024403064
209	0x3d692571	0.056920473
210	0x3c9090f8	0.017647251
211	0x3cc5a43a	0.02412616
212	0x3d2cdb6d	0.04220145
213	0x3ba966a4	0.0051697064
214	0x3c9dfcc0	0.01928556
215	0x3caf4f91	0.021400245
216	0x3c3c7445	0.01150233
217	0x3cdd2233	0.026993847
218	0x3ca501b0	0.020142406
219	0x3beff7eb	0.0073232553
220	0x3cee8995	0.029118339
221	0x3c57c037	0.013168386
222	0x3cf832d2	0.03029767
223	0xbc7d7ffe	-0.01547241
224	0x3cb93f5c	0.02261322
225	0x3d22b8f7	0.039727177
226	0x3cd871fd	0.026421541
227	0x3cbd149d	0.023081118
228	0x3d465be3	0.048427474
229	0x3d131bf7	0.03591534
230	0x3d2859c0	0.041101217
231	0x3cc756e2	0.024333421
232	0x3c122875	0.0089207785
233	0x3cb70f0b	0.02234604
234	0x3d13477d	0.03595685
235	0xbb25a674	-0.0025276216
236	0xbae09edf	-0.0017137191
237	0x3c85d819	0.016338395
238	0x3d0e123d	0.034685362
239	0x3cbc40c9	0.02298011
240	0x3d03afe0	0.03215015
241	0x3d291f2c	0.041289493
242	0x3cc76120	0.024338305
243	0x3b92e39e	0.0044827005
244	0x3d2e5153	0.042558026
245	0x3d46db2f	0.048548874
246	0x3d5a663a	0.053320147
247	0x3d1e17c1	0.038596872
248	0x3d156ecb	0.036482614
249	0x3d91b747	0.071150355
250	0x3ce00184	0.027344473
251	0xbbb8b891	-0.0056372364
252	0x3c6effcc	0.014587354
253	0xbb658582	-0.0035022204
254	0x3d29f372	0.041491933
255	0x3b170362	0.0023042788

exp_avg f4 [64, 1, 9, 9]
0	0xb9907b41	-0.00027557652
1	0xb9af22d8	-0.00033404562
2	0xb9c6cf13	-0.00037919785
3	0xb9defe7b	-0.00042532742
4	0xb9fdaeff	-0.00048386303
5	0xba01bea7	-0.0004949369
6	0xb9f741e6	-0.0004716061
7	0xb9f4d256	-0.0004669602
8	0xb9f40997	-0.00046546452
9	0xb99c0f83	-0.00029766196
10	0xb9bffa0d	-0.0003661666
11	0xb9d77d6b	-0.0004110144
12	0xb9f66209	-0.00046993818
13	0xba095eab	-0.0005240242
14	0xba0bc902	-0.00053323817
15	0xba03cf70	-0.0005028164
16	0xb9fbd2c2	-0.00048031477
17	0xb9e8c2f4	-0.0004439574
18	0xb9a80650	-0.0003204816
19	0xb9cddc0a	-0.0003926459
20	0xb9f6bab2	-0.00047059875
21	0xba0b68a6	-0.0005318023
22	0xba155dbc	-0.00056978664
23	0xba195317	-0.0005848868
24	0xba0fd80b	-0.000548721
25	0xb9f9a299	-0.00047614126
26	0xb9e8afe9	-0.00044381552
27	0xb9c27cc7	-0.0003709553
28	0xb9d82f85	-0.00041234135
29	0xb9effae2	-0.00045772555
30	0xba0d1b09	-0.00053827517
31	0xba1b83ae	-0.00059324026
32	0xba201cf3	-0.00061078294
33	0xba14eb5e	-0.00056808244
34	0xb9f51777	-0.00046747524
35	0xb9e1986e	-0.00043028913
36	0xb9d67b5c	-0.0004090917
37	0xb9e6b971	-0.00044007183
38	0xba005da6	-0.0004896767
39	0xba184776	-0.00058089884
40	0xba2ff5dd	-0.00067123567
41	0xba2d8935	-0.0006619872
42	0xba1d4bff	-0.0006000399
43	0xba08668b	-0.00052032684
44	0xb9f9b8bf	-0.00047630628
45	0xb9f8af7a	-0.00047432986
46	0xba016bce	-0.00049370236
47	0xba0e4a7a	-0.0005427968
48	0xba228749	-0.00061999686
49	0xba40a422	-0.00073486764
50	0xba4077de	-0.00073420804
51	0xba3291c6	-0.0006811883
52	0xba145ddf	-0.000565974
53	0xba044b30	-0.0005046604
54	0xba0a856b	-0.0005284163
55	0xba0df89b	-0.0005415768
56	0xba116917	-0.00055469706
57	0xba25f37f	-0.0006330534
58	0xba3e5f56	-0.0007262131
59	0xba437de2	-0.00074574177
60	0xba347c26	-0.00068849546
61	0xba1f7220	-0.00060823746
62	0xba0d8ffc	-0.00054001785
63	0xba146633	-0.0005660981
64	0xba0e0dac	-0.00054189074
65	0xba138d1d	-0.00056286325
66	0xba0f3eb5	-0.0005464361
67	0xba1dac8f	-0.0006014788
68	0xba281d23	-0.0006413033
69	0xba2089e3	-0.00061240623
70	0xba160847	-0.00057232793
71	0xba0b396e	-0.0005310987
72	0xba1350ab	-0.00056196254
73	0xba0d3ede	-0.0005388091
74	0xba0bed2e	-0.0005337772
75	0xb9fecb70	-0.00048598228
76	0xb9fd3923	-0.0004829849
77	0xba05f76b	-0.00051104155
78	0xb9fb84b6	-0.00047973328
79	0xba0377d7	-0.0005015111
80	0xba04373a	-0.000504363
81	0xba378e6a	-0.00070021173
82	0xba4e8cbc	-0.00078792474
83	0xba677556	-0.0008829435
84	0xba82cf98	-0.0009980081
85	0xba8d2a3e	-0.0010770035
86	0xba846606	-0.0010101206
87	0xba6e7a72	-0.0009097225
88	0xba687df7	-0.0008868868
89	0xba5ab7c9	-0.0008343426
90	0xba47eceb	-0.0007626551
91	0xba605b76	-0.00085585506
92	0xba869cc1	-0.0010270105
93	0xba91fe96	-0.0011138495
94	0xba9e1b9a	-0.0012062669
95	0xba944d29	-0.00113145
96	0xba85a849	-0.0010197248
97	0xba712340	-0.0009198673
98	0xba64407e	-0.000870712
99	0xba50da74	-0.00079671224
100	0xba77f9d0	-0.0009459527
101	0xba8fae06	-0.0010961897
102	0xbaaf81c9	-0.001339012
103	0xbaaee636	-0.0013343755
104	0xba995a97	-0.0011699972
105	0xba8b3297	-0.0010619935
106	0xba6bd899	-0.0008996814
107	0xba59fa26	-0.0008315168
108	0xba62c440	-0.00086504593
109	0xba81d7d9	-0.0009906247
110	0xba904bc2	-0.0011008906
111	0xbaac9dac	-0.0013169548
112	0xbab44957	-0.0013754767
113	0xba9d3e44	-0.0011996706
114	0xba8a663a	-0.001055903
115	0xba6a665b	-0.0008941644
116	0xba4f8ecc	-0.0007917702
117	0xba5ef33b	-0.0008504872
118	0xba6f87dd	-0.00091373717
119	0xba88d6e9	-0.0010440025
120	0xbaa119e1	-0.0012291038
121	0xbaadae7f	-0.0013250856
122	0xba966ebf	-0.0011477097
123	0xba868cc1	-0.0010265337
124	0xba78cbfc	-0.0009490845
125	0xba486ca5	-0.0007645584
126	0xba5e7d9a	-0.0008487344
127	0xba676194	-0.0008826491
128	0xba84bd41	-0.0010127203
129	0xba88361e	-0.0010392105
130	0xba8e0cb2	-0.0010837524
131	0xba8d4780	-0.0010778755
132	0xba78ed6b	-0.0009495827
133	0xba5da2ac	-0.0008454721
134	0xba3d6d9f	-0.00072261126
135	0xba5bed12	-0.0008389513
136	0xba696e7c	-0.0008904708
137	0xba6fef37	-0.0009152772
138	0xba7c8217	-0.0009632422
139	0xba7d1d25	-0.0009655527
140	0xba747c14	-0.00093263504
141	0xba68de9f	-0.0008883271
142	0xba4f5c0f	-0.0007910141
143	0xba2b11a6	-0.0006525762
144	0xba55066f	-0.0008126264
145	0xba6064cf	-0.00085599435
146	0xba5e9a5e	-0.00084916304
147	0xba5efe74	-0.00085065444
148	0xba6aa52b	-0.00089510035
149	0xba5a2813	-0.00083220116
150	0xba45fe56	-0.00075528526
151	0xba36e8f9	-0.00069774647
152	0xba148352	-0.000566532
153	0xba56a310	-0.00081877504
154	0xba58413c	-0.0008249467
155	0xba5bf734	-0.0008391023
156	0xba578cd6	-0.00082225853
157	0xba48f2e4	-0.0007665588
158	0xba40f8f6	-0.0007361317
159	0xba300314	-0.0006714326
160	0xba2067b3	-0.0006118968
161	0xba1200a7	-0.0005569555
162	0x3ada912f	0.0016675348
163	0x3afe87b3	0.0019419104
164	0x3b0a5b91	0.0021111707
165	0x3b00e599	0.00196681
166	0x3ae6fb9e	0.0017622595
167	0x3ab8ff1a	0.0014114112
168	0x3a952887	0.0011379876
169	0x3a6cbc60	0.00090307556
170	0x3a447ff6	0.00074958743
171	0x3af875f1	0.0018956048
172	0x3b11dfa1	0.0022258537
173	0x3b18c7c4	0.002331243
174	0x3b0a63f6	0.002111671
175	0x3ae9e31b	0.0017844172
176	0x3ab1e063	0.0013570901
177	0x3a7be61d	0.00096091797
178	0x3a3df72d	0.000724661
179	0x3a27f157	0.0006406507
180	0x3b0a64b5	0.0021117155
181	0x3b20ca38	0.0024534594
182	0x3b1e762b	0.002417932
183	0x3b0c0318	0.0021364149
184	0x3ae0ba6b	0.0017145401
185	0x3a9c9d0b	0.0011948658
186	0x3a59f0c6	0.0008313771
187	0x3a249a7a	0.00062791223
188	0x3a15adba	0.0005709786
189	0x3b10f679	0.0022119565
190	0x3b223437	0.002475036
191	0x3b1b605a	0.0023708553
192	0x3b03a6c6	0.0020088418
193	0x3abcd352	0.001440624
194	0x3a6f49dd	0.0009128133
195	0x3a12dda7	0.0005602487
196	0x39efdc3b	0.00045749717
197	0x39ebbefd	0.0004496499
198	0x3b0ca5b0	0.0021461062
199	0x3b188e59	0.0023278205
200	0x3b0cd05a	0.0021486492
201	0x3ad958e3	0.0016582276
202	0x3a8c4775	0.0010702448
203	0x3a11c328	0.00055603916
204	0x39aa9e98	0.00032543088
205	0x396a0c8c	0.00022320653
206	0x399b0639	0.0002956854
207	0x3b0146d4	0.0019726055
208	0x3b00a6da	0.0019630701
209	0x3adf5b43	0.0017040748
210	0x3a9ee32f	0.0012122149
211	0x3a210044	0.0006141702
212	0x398fdd6b	0.00027440055
213	0x36215f8e	2.404649e-06
214	0x390d7732	0.00013491212
215	0x397894a8	0.00023706502
216	0x3ad9d4e1	0.0016619229
217	0x3acc222e	0.0015574151
218	0x3a9c416c	0.0011921353
219	0x3a3303c6	0.00068288704
220	0x395b3afc	0.00020907441
221	0xb8c1df37	-9.244534e-05
222	0xb894b765	-7.09135e-05
223	0x3850244d	4.9624872e-05
224	0x393849dc	0.00017575122
225	0x3aaa6ec8	0.0013002986
226	0x3a9148d0	0.0011084322
227	0x3a49c3ce	0.00076967187
228	0x39ca7b37	0.00038620245
229	0xb874d68a	-5.837394e-05
230	0xb96360bd	-0.00021684445
231	0xb9290797	-0.00016119923
232	0x38673d30	5.5131677e-05
233	0x3947aa16	0.00019041481
234	0x3a79b93b	0.00095261977
235	0x3a464405	0.0007563236
236	0x39f6d93e	0.00047082634
237	0x3908efcd	0.00013059303
238	0xb8ac8b40	-8.2275365e-05
239	0xb907f4a2	-0.00012965736
240	0xb8896c09	-6.552792e-05
241	0x391bdff7	0.00014865385
242	0x39a88bd1	0.00032147628
243	0x3b0fbbf6	0.0021932102
244	0x3b02b867	0.0019946338
245	0x3ae77615	0.0017659093
246	0x3ac17992	0.0014760962
247	0x3a960c05	0.0011447674
248	0x3a891649	0.0010458912
249	0x3a88b7ad	0.0010430716
250	0x3a95f87b	0.0011441851
251	0x3a8e2e36	0.0010847512
252	0x3b0656a3	0.0020498417
253	0x3aebee78	0.0018000146
254	0x3abe68a2	0.0014527033
255	0x3a90bb6e	0.0011042187

exp_avg_sq f4 [64, 1, 9, 9]
0	0x3762f812	1.3528408e-05
1	0x375a4eb5	1.3012138e-05
2	0x37515b1e	1.2478586e-05
3	0x37410aeb	1.15062385e-05
4	0x373e542a	1.13444785e-05
5	0x373c3f93	1.1220475e-05
6	0x373ee7f7	1.1378891e-05
7	0x3749d60d	1.2030371e-05
8	0x3755b370	1.2737568e-05
9	0x376e8571	1.4216975e-05
10	0x3767b5af	1.3810974e-05
11	0x37608e57	1.33845815e-05
12	0x374f8961	1.23701475e-05
13	0x3744a0b4	1.1719927e-05
14	0x37418da8	1.1536678e-05
15	0x373f6df4	1.1410088e-05
16	0x3740b693	1.1486601e-05
17	0x374c8358	1.2189928e-05
18	0x378179fb	1.54348e-05
19	0x37809e93	1.5332631e-05
20	0x3778dd26	1.4833442e-05
21	0x376d2b69	1.4136408e-05
22	0x375ab520	1.3035984e-05
23	0x374afd5f	1.2099131e-05
24	0x3741c860	1.155035e-05
25	0x373f2fae	1.1395588e-05
26	0x37459f38	1.1779186e-05
27	0x378c7fc3	1.6748794e-05
28	0x379468d3	1.7691787e-05
29	0x3790c8a4	1.7259568e-05
30	0x3784e5ce	1.5842637e-05
31	0x37741ed5	1.4550712e-05
32	0x375a1316	1.2998256e-05
33	0x374a853b	1.2071158e-05
34	0x373f3f01	1.1399156e-05
35	0x37444517	1.1698597e-05
36	0x379cd6d5	1.8696688e-05
37	0x37a3519e	1.946912e-05
38	0x37a7214f	1.9923462e-05
39	0x379ab043	1.8440309e-05
40	0x378687b6	1.603724e-05
41	0x376a1917	1.3953329e-05
42	0x374deb74	1.2273773e-05
43	0x37409df6	1.148087e-05
44	0x374167bd	1.152785e-05
45	0x37a96e44	2.0197716e-05
46	0x37b22358	2.1235712e-05
47	0x37b70613	2.1818129e-05
48	0x37a6087a	1.979269e-05
49	0x3795687b	1.7810837e-05
50	0x377d0bb1	1.5082697e-05
51	0x375c3a59	1.3126607e-05
52	0x374894b0	1.1955548e-05
53	0x3745e8ef	1.1796349e-05
54	0x37ad9904	2.069446e-05
55	0x37bb81cc	2.2352579e-05
56	0x37bb5f84	2.2336615e-05
57	0x37ae2b1b	2.0762489e-05
58	0x379d03ab	1.8717566e-05
59	0x3783b558	1.5700862e-05
60	0x376808e5	1.38303485e-05
61	0x375653c8	1.2774901e-05
62	0x3750542d	1.2417365e-05
63	0x37a86c51	2.00776e-05
64	0x37b240a9	2.1249363e-05
65	0x37b2f407	2.1332888e-05
66	0x37aa36b3	2.029105e-05
67	0x3797b951	1.8086897e-05
68	0x3788a590	1.628956e-05
69	0x37705244	1.4324269e-05
70	0x376511e8	1.3653633e-05
71	0x375cfd68	1.3172023e-05
72	0x379f6859	1.9002868e-05
73	0x37a173ae	1.9246563e-05
74	0x37a3e551	1.9537898e-05
75	0x379f1942	1.8966039e-05
76	0x3797e9e8	1.8109524e-05
77	0x3789f788	1.6446938e-05
78	0x377eda38	1.5190388e-05
79	0x3775cc4a	1.4650703e-05
80	0x376b3450	1.40192715e-05
81	0x37327f63	1.0639286e-05
82	0x373be3e2	1.1199127e-05
83	0x37436f12	1.1648766e-05
84	0x374f51af	1.235718e-05
85	0x37575482	1.2834675e-05
86	0x3746c5a3	1.1847736e-05
87	0x3737d80a	1.09579505e-05
88	0x374235fd	1.1575871e-05
89	0x373815d5	1.0972338e-05
90	0x37387d3f	1.0996416e-05
91	0x374118c6	1.15094645e-05
92	0x3758d1ca	1.2923449e-05
93	0x37556717	1.2719792e-05
94	0x376b37af	1.4020056e-05
95	0x37605a89	1.337252e-05
96	0x37512bc7	1.24675635e-05
97	0x37441a19	1.1688587e-05
98	0x37440593	1.1683808e-05
99	0x373c5ef4	1.1227781e-05
100	0x3748ea57	1.197549e-05
101	0x37594125	1.2949376e-05
102	0x377c6b9a	1.5045423e-05
103	0x377e744a	1.5166655e-05
104	0x375dbbef	1.3216383e-05
105	0x375240fb	1.2532105e-05
106	0x373c61d6	1.1228452e-05
107	0x373af64f	1.1143812e-05
108	0x373bdbd9	1.1197256e-05
109	0x37452960	1.1751748e-05
110	0x374ed783	1.2328735e-05
111	0x377fa6b0	1.5237994e-05
112	0x377d0081	1.5080092e-05
113	0x375e308d	1.3243535e-05
114	0x374b124f	1.2104006e-05
115	0x37436a42	1.1647646e-05
116	0x37379611	1.094259e-05
117	0x3732f9c9	1.0667784e-05
118	0x373c6772	1.12297585e-05
119	0x3748fec8	1.198025e-05
120	0x376f2ddb	1.4256187e-05
121	0x378211b4	1.5505451e-05
122	0x3767edb5	1.3824018e-05
123	0x3752ce67	1.2565032e-05
124	0x3753c013	1.2621301e-05
125	0x3738f4a7	1.1024217e-05
126	0x3733accf	1.0709467e-05
127	0x3735127d	1.0792745e-05
128	0x374d5695	1.2239111e-05
129	0x374d741d	1.2245987e-05
130	0x3754978b	1.26714685e-05
131	0x37634f09	1.3548656e-05
132	0x374d6170	1.2241639e-05
133	0x374236a1	1.157602e-05
134	0x37427396	1.1590213e-05
135	0x373041b7	1.0505718e-05
136	0x373de9e3	1.1319734e-05
137	0x373fb7aa	1.142725e-05
138	0x37483a2a	1.1934471e-05
139	0x3749fc2e	1.2039249e-05
140	0x3755bb7a	1.273944e-05
141	0x37532a87	1.2586482e-05
142	0x374f082a	1.2340062e-05
143	0x374427dc	1.1691791e-05
144	0x3728c9d0	1.00605685e-05
145	0x37368c34	1.0880689e-05
146	0x373352a3	1.0688472e-05
147	0x37350f1d	1.07919595e-05
148	0x3748d3ee	1.1970273e-05
149	0x3747ba23	1.1904663e-05
150	0x3747798d	1.1889625e-05
151	0x374d64eb	1.2242449e-05
152	0x3744f107	1.1738629e-05
153	0x373010ee	1.0494359e-05
154	0x37316163	1.0572697e-05
155	0x37395d0f	1.1048526e-05
156	0x373925ce	1.1035661e-05
157	0x373561ae	1.08111835e-05
158	0x37352602	1.079729e-05
159	0x37444e82	1.1700789e-05
160	0x37461ccb	1.1808424e-05
161	0x374905df	1.1981901e-05
162	0x3927ead9	0.00016013849
163	0x392c345f	0.00016422708
164	0x392e8025	0.0001664167
165	0x392966c3	0.00016155378
166	0x3920fa9d	0.0001535215
167	0x391a2974	0.00014702027
168	0x39159e27	0.00014268664
169	0x391394af	0.00014074401
170	0x3913178b	0.00014027783
171	0x392f08e1	0.00016692608
172	0x3935ce74	0.00017338415
173	0x393792d2	0.00017506935
174	0x392eabf3	0.00016657989
175	0x39238002	0.00015592578
176	0x391a5a4f	0.00014720227
177	0x3917f94e	0.00014493355
178	0x3917d79f	0.00014480807
179	0x39177193	0.00014442792
180	0x3934bca6	0.00017236415
181	0x393d0dba	0.00018029558
182	0x393a9855	0.0001779509
183	0x392f54a9	0.00016720839
184	0x39223f01	0.00015472995
185	0x391957e7	0.00014623963
186	0x391a0739	0.00014689275
187	0x391cb730	0.00014945562
188	0x391ceb87	0.0001496506
189	0x3934e5fa	0.0001725181
190	0x393a2559	0.00017752255
191	0x3936751b	0.00017400498
192	0x3928190b	0.00016031058
193	0x391bad8d	0.00014846605
194	0x39190ede	0.00014596755
195	0x391f9185	0.00015217632
196	0x39259822	0.000157923
197	0x3924fbda	0.00015734081
198	0x392f938f	0.0001674427
199	0x3931d827	0.00016960558
200	0x39298fe9	0.00016170707
201	0x391bc2be	0.00014854499
202	0x3914acb7	0.00014178721
203	0x3919f046	0.00014680726
204	0x392695c7	0.0001588679
205	0x392fe26a	0.00016773646
206	0x392daa7c	0.00016562076
207	0x39255677	0.00015767837
208	0x39233497	0.00015564483
209	0x3919ad84	0.00014655857
210	0x391058ea	0.00013766033
211	0x39110cc2	0.0001383303
212	0x391b7830	0.00014826725
213	0x392d7486	0.00016541974
214	0x3932d72f	0.00017055565
215	0x39307023	0.00016826442
216	0x3918b864	0.0001456454
217	0x3914a047	0.00014174088
218	0x390dd338	0.00013525493
219	0x390ac2f4	0.00013233331
220	0x39112fab	0.00013846035
221	0x392111e1	0.00015360817
222	0x392c9967	0.00016460345
223	0x39343f92	0.0001718982
224	0x39302353	0.00016797827
225	0x390f8698	0.00013687683
226	0x390be25a	0.00013340396
227	0x39082179	0.0001298244
228	0x390886e0	0.00013020216
229	0x39128e15	0.00013976575
230	0x39206ca3	0.0001529926
231	0x392ae2a5	0.00016296895
232	0x392e3974	0.00016615336
233	0x392d40cf	0.00016522709
234	0x390b12ed	0.00013263123
235	0x390940f5	0.00013089537
236	0x39073ff9	0.00012898435
237	0x3909729b	0.00013108032
238	0x39108c05	0.00013785071
239	0x391949ad	0.00014618663
240	0x392472c2	0.0001568301
241	0x3926d37c	0.00015909778
242	0x3922ee85	0.0001553838
243	0x393f3635	0.00018235373
244	0x39329a2d	0.00017032838
245	0x39419dd4	0.0001846471
246	0x3944dd2c	0.0001877441
247	0x3940f9f6	0.00018403665
248	0x3936a4a0	0.000174182
249	0x3932beff	0.00017046554
250	0x3934b49a	0.00017233417
251	0x392c7796	0.00016447747
252	0x393bbe35	0.00017904567
253	0x393a305a	0.00017756355
254	0x393eaab1	0.000181834
255	0x3949300b	0.00019186751

exp_avg f4 [64]
0	0xbad970b6	-0.0016589377
1	0xbb7d54f2	-0.0038655368
2	0x3b6b236f	0.0035879274
3	0x3b8645cc	0.004097676
4	0x3c06485a	0.008195961
5	0xbaab98d7	-0.0013091814
6	0xbc139921	-0.009008677
7	0x3b344364	0.0027505988
8	0x3bed72f4	0.0072463695
9	0x3a706f84	0.00091718906
10	0x3bba9ee6	0.0056952117
11	0x3b97f640	0.0046375096
12	0x39f3f081	0.0004652776
13	0x3b86dd89	0.0041157645
14	0x3b3c6b1d	0.0028750368
15	0x3c72e69c	0.014825489
16	0xbb817673	-0.003950888
17	0x3ca8d924	0.020611353
18	0xb9a3595c	-0.0003115636
19	0x3c5d712d	0.013515753
20	0x80000004	-6e-45
21	0x3bfc5722	0.0077008167
22	0x3c21aceb	0.009867887
23	0x382869db	4.0152907e-05
24	0xb93a8803	-0.0001778901
25	0xba2b53a7	-0.00065355975
26	0x3b24ffe2	0.0025176932
27	0x3afca2ab	0.0019274553
28	0x3c078746	0.008271998
29	0x3c37403f	0.011184751
30	0x3a9876d8	0.0011632098
31	0x3b5b9055	0.0033502777
32	0x3a325a04	0.00068035745
33	0xbb11f326	-0.0022270172
34	0xbb9d97a3	-0.0048093363
35	0x3b280738	0.0025639068
36	0x3c498613	0.012300032
37	0xba0caa60	-0.0005365964
38	0xbae83108	-0.0017714808
39	0xbabdde3d	-0.0014485788
40	0x3c6728a2	0.014108809
41	0x3a59b6af	0.0008305115
42	0xbad56678	-0.0016281148
43	0x3b1dd645	0.0024084013
44	0xbb0ae1fb	-0.0021191824
45	0x3c375aa9	0.011191049
46	0x3c73857e	0.01486337
47	0xbbabda0f	-0.0052445005
48	0x3b584370	0.003299918
49	0xbb186caf	-0.002325814
50	0xbb05fa1d	-0.0020443269
51	0x3c5c76b4	0.013456035
52	0x39da3738	0.0004162134
53	0xb880888f	-6.128952e-05
54	0xb9d2d22b	-0.0004021091
55	0x3b87dd9c	0.004146291
56	0xbb5c0ff0	-0.0033578835
57	0xbac545e8	-0.0015050741
58	0xba05c68d	-0.0005103134
59	0xba4b2810	-0.0007749805
60	0x3bbc8dca	0.0057542073
61	0xba1b7b6c	-0.0005931172
62	0xbaebb33f	-0.0017982497
63	0x3bb6ab18	0.005574595

exp_avg_sq f4 [64]
0	0x3909111b	0.0001307171
1	0x395e3f81	0.00021195227
2	0x3aa55ea3	0.0012616705
3	0x3b177763	0.0023111932
4	0x3c03e1ad	0.008049411
5	0x3ae896ea	0.0017745171
6	0x3ac7226c	0.0015192754
7	0x3b1b63c0	0.0023710579
8	0x3ab14842	0.0013525563
9	0x36a2ed1a	4.8555785e-06
10	0x3a13282f	0.0005613593
11	0x3a794638	0.00095090596
12	0x38d03694	9.928379e-05
13	0x3b344839	0.0027508868
14	0x3992e8ed	0.00028020833
15	0x3c7c21cf	0.01538892
16	0x3b34e281	0.0027600827
17	0x3cc9744c	0.024591587
18	0x3a14dfb9	0.0005679089
19	0x3c7101fe	0.014709948
20	0x18c279e4	5.0270903e-24
21	0x3b6cc001	0.0036125185
22	0x3aa8141c	0.0012823376
23	0x3a09fbad	0.0005263638
24	0x3b49573a	0.0030722157
25	0x39b48e48	0.00034438283
26	0x3a6a6bad	0.00089424365
27	0x3a9fc0b3	0.0012188166
28	0x3b4d86e1	0.0031360912
29	0x3c833bda	0.01601975
30	0x3a7d3d74	0.00096603413
31	0x3a757196	0.0009362934
32	0x3b97ccf6	0.0046325875
33	0x39e7f890	0.00044244947
34	0x399bc56b	0.00029710992
35	0x3b1e52ab	0.002415816
36	0x3c688977	0.01419293
37	0x396d94d9	0.00022657531
38	0x3a2afeec	0.00065229717
39	0x39a827ea	0.00032073195
40	0x3b29e9f9	0.0025926812
41	0x3b25d5ce	0.002530444
42	0x389ec047	7.5698415e-05
43	0x3af41827	0.0018622921
44	0x3907da59	0.00012955944
45	0x3bd7d474	0.0065866057
46	0x3c1fd3c9	0.009755083
47	0x39e2510e	0.0004316647
48	0x3a7e2f63	0.0009696392
49	0x380af514	3.313001e-05
50	0x3c70b42f	0.014691397
51	0x3ca89907	0.020580782
52	0x39560cbc	0.00020413374
53	0x3a18476f	0.0005808984
54	0x3994a999	0.0002835512
55	0x3a4c3828	0.00077903504
56	0x39c1f8ee	0.00036997296
57	0x39c09b51	0.00036736813
58	0x3a72013b	0.0009231751
59	0x385e9d28	5.3075288e-05
60	0x3af574ef	0.0018726866
61	0x37bcad52	2.2492055e-05
62	0x3a838c17	0.0010036257
63	0x3b7d0c5e	0.0038612108

exp_avg f4 [32, 64, 5, 5]
0	0x3922038b	0.00015450844
1	0x3905e7d6	0.00012770234
2	0x38e09cea	0.0001071038
3	0x38af4cc6	8.3589504e-05
4	0x38a33863	7.7829485e-05
5	0x3924840b	0.00015689449
6	0x390ce7a8	0.00013437739
7	0x38d0b2cf	9.9515186e-05
8	0x38d5db9a	0.000101975354
9	0x38bdf181	9.057206e-05
10	0x392d6610	0.00016536587
11	0x39192c64	0.00014607754
12	0x3905cbad	0.00012759744
13	0x3904ec4d	0.0001267653
14	0x38eec852	0.00011386037
15	0x392dc3e3	0.00016571539
16	0x39268fcf	0.00015884567
17	0x3912e33e	0.000140083
18	0x3917030b	0.00014401616
19	0x3915564f	0.000142419
20	0x3920a8d7	0.00015321687
21	0x3915d224	0.00014288031
22	0x3913eab6	0.00014106449
23	0x390b488a	0.00013283096
24	0x391aa905	0.00014749549
25	0x36dbadf3	6.546959e-06
26	0x36b493a2	5.3816048e-06
27	0x370fa265	8.561275e-06
28	0x3663ba00	3.3933902e-06
29	0x36f70d41	7.3627166e-06
30	0x3710a34e	8.621091e-06
31	0x370d3599	8.416734e-06
32	0x372e63d2	1.0394449e-05
33	0x377ae0eb	1.4953529e-05
34	0x374c0137	1.215963e-05
35	0x37345c33	1.0750303e-05
36	0x372fb8fc	1.0473883e-05
37	0x374494e2	1.1717175e-05
38	0x373b9ef9	1.1183082e-05
39	0x37122790	8.7114895e-06
40	0x373e6d98	1.1350399e-05
41	0x3744f3eb	1.1739302e-05
42	0x3751aa89	1.2497077e-05
43	0x373fb1d9	1.14258955e-05
44	0x372f80f0	1.0460833e-05
45	0x374ca27b	1.2197178e-05
46	0x3701c66a	7.735196e-06
47	0x37368afe	1.0880407e-05
48	0x37055943	7.948201e-06
49	0x372d05e2	1.0312973e-05
50	0x396bc3b6	0.00022484254
51	0x39898fcb	0.0002623781
52	0x39a9adc6	0.00032363663
53	0x39b295e2	0.00034062477
54	0x39b68ffd	0.00034821025
55	0x398607a0	0.00025564153
56	0x3995f734	0.00028603675
57	0x39b61378	0.0003472825
58	0x39c037cf	0.00036662674
59	0x39bca00a	0.00035977393
60	0x399895fb	0.00029103443
61	0x39a3922e	0.00031198695
62	0x39b53497	0.00034562193
63	0x39bb95ad	0.00035778937
64	0x39b50559	0.00034526995
65	0x398dfaa4	0.00027080358
66	0x3996cd92	0.0002876339
67	0x39a8be2c	0.00032185146
68	0x39a9d48a	0.00032392546
69	0x39a2c60a	0.00031046598
70	0x398ced7e	0.00026879826
71	0x398a1db3	0.0002634354
72	0x3993d5a1	0.0002819719
73	0x3997e726	0.00028973183
74	0x39882f61	0.0002597524
75	0x38704703	5.7286594e-05
76	0x387deec9	6.0542287e-05
77	0x389d2f7b	7.495187e-05
78	0x38d255d9	0.00010029571
79	0x38f48f97	0.00011661572
80	0x389908af	7.297226e-05
81	0x38948b0a	7.083088e-05
82	0x38bcc828	9.0018206e-05
83	0x38e81570	0.00011066615
84	0x38f04466	0.00011456832
85	0x38888702	6.5101325e-05
86	0x388c8fa1	6.702473e-05
87	0x38a532ee	7.8772995e-05
88	0x38d2d219	0.00010052714
89	0x38d5f224	0.00010201734
90	0x387d6018	6.0409395e-05
91	0x38830e31	6.24921e-05
92	0x3890fc65	6.913467e-05
93	0x389d6ee6	7.507e-05
94	0x38a09f4d	7.6590666e-05
95	0x3883845a	6.271219e-05
96	0x3882fb76	6.245721e-05
97	0x3846cdc4	4.7398513e-05
98	0x386af5b2	5.601877e-05
99	0x38673e32	5.5132616e-05
100	0x371ea336	9.455534e-06
101	0x3729d0a4	1.0121763e-05
102	0x36e04ff8	6.68503e-06
103	0x36d7c1da	6.4300666e-06
104	0xb3ff403c	-1.1886047e-07
105	0x377fe476	1.5252377e-05
106	0x377e12e8	1.5143982e-05
107	0x372a97c0	1.0168122e-05
108	0x370bd825	8.335371e-06
109	0x36de1c8e	6.61944e-06
110	0x370bebb9	8.339929e-06
111	0x36b19feb	5.293628e-06
112	0x36c61f11	5.9044764e-06
113	0x369572bb	4.4539024e-06
114	0x36ba5420	5.5530254e-06
115	0x369c7563	4.662828e-06
116	0x35f53849	1.8270304e-06
117	0xb1b99974	-5.4016542e-09
118	0x367ca774	3.7648397e-06
119	0x35d7fc19	1.6092118e-06
120	0xb65dfe63	-3.3079639e-06
121	0xb612abcd	-2.1855697e-06
122	0xb693c414	-4.403768e-06
123	0xb6a5fd39	-4.946862e-06
124	0xb61cba83	-2.3354376e-06
125	0x3980f372	0.00024595443
126	0x39872f6e	0.00025784544
127	0x399149f9	0.0002771167
128	0x39a358c5	0.0003115592
129	0x39a4095c	0.0003128749
130	0x3997378f	0.0002884236
131	0x39a7ae7a	0.00031982717
132	0x39b39c30	0.0003425791
133	0x39bbb302	0.0003580079
134	0x39c00ed2	0.00036632136
135	0x39aabca2	0.0003256547
136	0x39b4e166	0.0003450021
137	0x39c3615b	0.00037265834
138	0x39cb85db	0.00038818907
139	0x39c8f2fb	0.00038328007
140	0x39a814df	0.00032059007
141	0x39ae0efa	0.00033199025
142	0x39be202d	0.00036263597
143	0x39c0523f	0.00036682372
144	0x39ba3651	0.00035517153
145	0x399b2af4	0.00029595906
146	0x39a327f8	0.00031119562
147	0x39ac7708	0.00032895082
148	0x39ad4f0a	0.0003305602
149	0x39a5940c	0.00031581556
150	0x38758e83	5.8545276e-05
151	0x3885e15f	6.383913e-05
152	0x38a6b28f	7.948756e-05
153	0x38b00ec1	8.395082e-05
154	0x389a9b6f	7.372244e-05
155	0x3852d9c2	5.0270704e-05
156	0x386c6c65	5.6367735e-05
157	0x389a7762	7.365529e-05
158	0x389cbacf	7.4734555e-05
159	0x389cac68	7.470773e-05
160	0x3828f4fd	4.0282484e-05
161	0x383bb7ee	4.4755572e-05
162	0x3883b901	6.2810264e-05
163	0x3886790a	6.412163e-05
164	0x388ebcb9	6.80624e-05
165	0x38052dc3	3.175229e-05
166	0x3827a5e9	3.997042e-05
167	0x384a90bf	4.829536e-05
168	0x388c7190	6.696873e-05
169	0x3882d429	6.238401e-05
170	0x38139f2f	3.5195782e-05
171	0x3844d7be	4.6930967e-05
172	0x3874b8d3	5.8346264e-05
173	0x3880b79d	6.137716e-05
174	0x387f93d1	6.0934402e-05
175	0x37995cd5	1.828225e-05
176	0x379e3a7b	1.88623e-05
177	0x37ae89ea	2.0806638e-05
178	0x37a60a9d	1.9793684e-05
179	0x37a4366a	1.9575662e-05
180	0x3783af12	1.569794e-05
181	0x379ad0f1	1.8455527e-05
182	0x37b1f2dd	2.1213136e-05
183	0x3793bf97	1.7612982e-05
184	0x379bf1dc	1.8590064e-05
185	0x3767c87b	1.3815351e-05
186	0x3773e29d	1.4536691e-05
187	0x3788569f	1.62528e-05
188	0x3742fb9e	1.1621885e-05
189	0x374abc5f	1.2083997e-05
190	0x3732b828	1.0652504e-05
191	0x3749c814	1.2027118e-05
192	0x3757a63f	1.2853706e-05
193	0x37305905	1.0511144e-05
194	0x370e0877	8.46583e-06
195	0x36bd4b5e	5.641413e-06
196	0x36c29b28	5.799713e-06
197	0x36cf702b	6.182139e-06
198	0x369cc2c9	4.6718383e-06
199	0x35e2bc55	1.6893124e-06
200	0x37107509	8.610318e-06
201	0x37512576	1.2466093e-05
202	0x373afa21	1.1144702e-05
203	0x37b115f3	2.1110265e-05
204	0x37d59970	2.5463029e-05
205	0x373832eb	1.097911e-05
206	0x37670dd7	1.3771895e-05
207	0x3736e244	1.0900727e-05
208	0x379063e2	1.721265e-05
209	0x37d598fe	2.5462821e-05
210	0x373ed103	1.1373547e-05
211	0x37562f4c	1.2766406e-05
212	0x375e3328	1.3244142e-05
213	0x3781975e	1.5448484e-05
214	0x37a874a5	2.0081477e-05
215	0x373e6a5f	1.1349649e-05
216	0x3742dbe9	1.1614503e-05
217	0x37226493	9.679369e-06
218	0x3751b40b	1.249929e-05
219	0x3786b6fa	1.605925e-05
220	0x3753d0de	1.2625211e-05
221	0x37753785	1.4616065e-05
222	0x37433a17	1.1636431e-05
223	0x372c32bf	1.0263814e-05
224	0x372df1f6	1.03679395e-05
225	0x360a36f7	2.0595596e-06
226	0x365e8d9c	3.3163005e-06
227	0x363eb9f6	2.842045e-06
228	0x35a1968b	1.2039249e-06
229	0x354920ea	7.492623e-07
230	0x35251b3c	6.150692e-07
231	0x3570c799	8.969742e-07
232	0x35700094	8.940781e-07
233	0x352cc8ae	6.436702e-07
234	0x34e3f89e	4.2462938e-07
235	0xb4d5a04c	-3.9790973e-07
236	0x32f6875b	2.8699722e-08
237	0x3428ddac	1.5726863e-07
238	0x338152d5	6.022098e-08
239	0xb274dc0c	-1.4252702e-08
240	0xb3f326b7	-1.13226115e-07
241	0x34a53071	3.076889e-07
242	0x341a0262	1.4343235e-07
243	0xb31205b0	-3.3998447e-08
244	0x343f9c35	1.7845089e-07
245	0x34301bdd	1.6401414e-07
246	0xb22556b0	-9.6239745e-09
247	0x33873587	6.296164e-08
248	0xb510d0f1	-5.394823e-07
249	0x34cc76e9	3.808448e-07
250	0x3841241b	4.604841e-05
251	0x384098a5	4.591853e-05
252	0x3855ac84	5.0943825e-05
253	0x388a74a2	6.602077e-05
254	0x389625b1	7.159578e-05
255	0x3840c924	4.5963694e-05
