logs/biosr_ccps_rcan_model-SRCNN_250305_lr0.0001_bs1_Ps256_Npatch128_N300/model_099.pth (torch, 695046 bytes, 15 tensors)

conv1.weight f4 [64, 1, 9, 9]
000000 3e e3 a6 3d 82 04 e4 bc 11 d5 ab 3d 48 70 b1 bc
       0.08148812 -0.02783418 0.083902486 -0.021659985
000010 20 cd 3f 3d 4c 83 20 bd ba e6 08 3e 5e b8 60 bc
       0.04682648 -0.039187714 0.13369265 -0.013715832
000020 c8 a3 4c 3e 29 f9 e0 bc d9 89 bd bd 08 a9 48 3d
       0.19984353 -0.027462559 -0.09254808 0.048989326
000030 5f 0a 48 bd d9 4c 06 3d cd 5f 33 3d 0c 02 fc 3c
       -0.048838016 0.03278813 0.043792535 0.030762695
000040 d9 71 9e 3d d5 3a d6 3d ae d2 af 3d 33 d2 1e 3d
       0.077365585 0.1046044 0.08585106 0.03877468
000050 ca e1 c4 bd 68 4c 95 bc 30 37 50 bd 5f 6f c0 bd
       -0.09613378 -0.01822491 -0.05083388 -0.09396242
000060 60 7c 8b bd f2 67 93 bd 9a 1a 49 3d 1e 21 d2 bd
       -0.06810832 -0.0719756 0.049097635 -0.10260223
000070 a0 78 0d bd 9f fd bf 3c ef ad 9d bd e2 20 cd bd
       -0.034538865 0.023436366 -0.07699191 -0.100160375
000080 16 87 0e 3b 34 2e fa bc 25 c8 2c bd be b4 94 3d
       0.0021747998 -0.03053961 -0.04218306 0.07261036
000090 b1 79 95 bd 88 fe 80 bd 2f 38 9b bb 48 d0 2e 3d
       -0.072986014 -0.06298548 -0.004736922 0.0426791
0000a0 c7 ce 04 bd 49 a9 93 3d 4f 2d 54 3d 07 a9 84 3d
       -0.03242376 0.07210023 0.051801022 0.06477552
0000b0 20 99 b5 3c 70 c9 14 bd 4b c4 c8 bd 5c 39 20 bb
       0.022167742 -0.03632492 -0.09803065 -0.0024448251
0000c0 af 86 c3 bd 5f b4 cb 3c 10 14 d4 3c d8 90 b7 3c
       -0.09547173 0.024866281 0.025888473 0.022407934
0000d0 9a c4 5a 3d b5 a9 fc 3d f8 97 5d bd a0 4c ea bc
       0.05341015 0.123370565 -0.054100007 -0.02860099
0000e0 d7 36 22 bc 13 42 02 3d e7 f5 9d 3d 8f 1a 76 3d
       -0.00990077 0.031801295 0.07712918 0.060083922
0000f0 28 f7 3d bd fe 51 d6 3d ff cf c3 3b e6 3b 1d 3d
       -0.046378285 0.104648575 0.005975723 0.0383872
000100 5b e0 11 3d f1 1e a5 3a 77 cf 53 bd aa 7f 56 bd
       0.035614353 0.0012597722 -0.051711526 -0.052367844
000110 86 c9 1b 3c 8e d5 87 bd 46 d6 b9 bc ab 1e 8b bd
       0.009508496 -0.06632529 -0.022685181 -0.06792959
000120 8f a2 32 3d c1 6c c5 bc 07 73 ae 3c 87 2d 63 3d
       0.04361206 -0.02409971 0.021295084 0.05546334
000130 47 4a 49 bd 76 75 0d bc 42 fb ae bd b6 12 b8 bb
       -0.049143102 -0.008633962 -0.085440174 -0.005617465
000140 3f 54 8e bd ca 98 41 bd d6 00 6e bb 01 b7 ef bc
       -0.069496624 -0.04726485 -0.0036316416 -0.029262068
000150 23 f1 dc 3b ec f6 93 3d d0 ba 03 bd 5a c7 fb bd
       0.006742613 0.07224831 -0.03216058 -0.12293883
000160 ef e7 69 3d 1e 2e 8a bc c5 55 a3 3c 40 8c 8d bc
       0.057105955 -0.016867694 0.019938359 -0.01727879
000170 17 ab 6a 3d 9f 11 d0 bd 5c 16 8f 3d 25 51 98 3d
       0.05729207 -0.10159611 0.069866866 0.07437352
000180 0f e2 94 3d fd e3 0f 3d cc ce b9 3d 13 4e 0c 3d
       0.0726968 0.035129536 0.090726465 0.034254145
000190 09 99 9b 3c 67 67 b3 bc 50 f3 ac 3d f9 03 98 3d
       0.018993871 -0.021899892 0.08444846 0.07422633
0001a0 9a 2e 4a bd 6a 46 4a 3c 76 62 c0 bd 82 ab c5 bc
       -0.04936085 0.01234589 -0.0939378 -0.024129633
0001b0 55 dc df 3c 84 97 5d bc 06 ea f4 bd 02 67 a9 3d
       0.027326742 -0.013524894 -0.11958699 0.082716
0001c0 4a 87 f8 3c 7b 73 ba bd 6b 48 d6 bd 1f 41 3e bd
       0.030337948 -0.091040574 -0.104630314 -0.046448823
0001d0 1c 7d be bd 96 b0 7f bd ef c6 73 bd c3 bc cf bd
       -0.093012065 -0.062424265 -0.05951589 -0.10143425
0001e0 1a 44 45 3d 3b 53 f1 3d e7 a9 5a 3b a2 a3 27 bd
       0.04816065 0.11783453 0.003336543 -0.040927537
0001f0 59 a9 b0 3d 9b f1 d4 bd 24 e2 0a bd 01 25 c1 bd
       0.086260505 -0.10397645 -0.03390707 -0.09430886
000200 a5 83 08 3d 13 02 b1 bd a5 3a bd bd 4c 18 3c 3d
       0.03332867 -0.08642974 -0.09239701 0.04592161
000210 51 92 87 bd 6b bc bf bd 37 0f 67 3b 3f 2b 50 bd
       -0.066197045 -0.0936211 0.0035256871 -0.050822493
000220 1a da 8c 3d 33 d1 f5 3b 50 f2 f4 3b f2 c8 27 bd
       0.06877537 0.007501745 0.007475175 -0.04096312
000230 97 63 73 3d 71 64 90 3d 96 30 ab 3d 50 94 47 3c
       0.05942115 0.07050408 0.083588764 0.012181357
000240 19 80 f1 bd 0a 37 1c 3c 67 1d 95 bd 5f 05 c2 bd
       -0.11792011 0.009534607 -0.07280999 -0.09473681
000250 80 aa 93 3d 56 2c 27 3d 12 a0 04 3d 10 0e df 3d
       0.07210255 0.040813766 0.032379217 0.10891354
000260 74 9d f1 3c f8 a6 92 bc 3f bf f2 bc d8 c2 42 3d
       0.029494025 -0.017901883 -0.029632209 0.0475491
000270 dc 06 85 3c c0 8b 85 bd 6d 04 cb bd ed 62 87 3d
       0.016238622 -0.06520796 -0.099129535 0.066106655
000280 88 27 93 3d a1 cb f6 3d 3a 19 81 3d 92 ab fc 3d
       0.07185274 0.12050558 0.0630364 0.12337412
000290 2f 2c 50 bd af 00 7c 3d 3f 1b 17 3d 98 bc e4 3c
       -0.050823387 0.06152409 0.03689122 0.02792196
0002a0 27 ca 9c bd a3 97 86 bd 6e 53 40 3d 61 74 e1 3d
       -0.07655745 -0.06571891 0.046954565 0.11008526
0002b0 05 5f 94 3d 11 a6 fd bc 30 be f3 3d 34 f6 69 3d
       0.07244686 -0.030962976 0.1190151 0.057119563
0002c0 eb 37 94 3c 3e 43 aa 3c 74 31 b5 3d de 41 99 3d
       0.01809307 0.020784017 0.08847323 0.07483266
0002d0 ec 7b a9 3d cf 46 55 bd 4a 39 bf 3d 96 71 ca 3d
       0.08275589 -0.05206948 0.09337099 0.09884946
0002e0 ad 06 97 b9 a9 c1 75 3d f6 70 93 bd af 88 dd bd
       -0.00028805938 0.05999914 -0.0719928 -0.10817086
0002f0 84 21 ac bd 6c b7 f3 3d 4f 16 dd 3d 3d fd b1 3c
       -0.0840483 0.11900219 0.10795271 0.021727199
000300 f1 28 c6 3d c6 ba ab 3d 60 4f 2d bd e3 91 b6 3c
       0.09675778 0.083852336 -0.042312026 0.022286361
000310 5b 7b 7d bd 70 64 02 be d8 e6 de 3d dd 06 24 bd
       -0.06188522 -0.12733626 0.10883874 -0.040045608
000320 65 9d fe bc c0 f3 ac 3c 4d de 8c 3d 0a 61 a2 3d
       -0.031080911 0.021112323 0.06878338 0.07928665
000330 5b 7a fd bc 6a 61 8a 3b 06 2e ae bb 21 c6 19 bd
       -0.030942133 0.0042230384 -0.005315545 -0.037542466
000340 29 ef 4e bc 66 11 b1 3c 99 3f a0 bd 8c 30 50 3d
       -0.012630262 0.021614742 -0.0782463 0.050827548
000350 b9 37 df bd 40 e5 c4 3c d7 92 e4 bd 7d b4 0b be
       -0.108993 0.024035096 -0.1116082 -0.1364307
000360 61 b5 eb 3c f2 da c6 3c 4c f1 2d bd 6f 5f 83 3d
       0.028773012 0.024274323 -0.042466447 0.06414687
000370 fd 26 b7 3d 53 fd 1c 3c ca 87 dd bd f9 11 ed bd
       0.08942983 0.009581882 -0.10816915 -0.11575694
000380 3e f9 23 be 15 a4 0e 3c 45 dc d6 3d 68 e8 54 3c
       -0.16013047 0.008706112 0.10491232 0.012994863
000390 50 81 c8 bd 71 b5 8e 3d be 88 e4 3c d3 2a a5 bd
       -0.097902894 0.06968201 0.027897235 -0.08064809
0003a0 a7 50 1b be 87 e3 a1 3c 47 bb e5 3d dd 39 a7 3c
       -0.15167485 0.019761814 0.11217361 0.020413334
0003b0 71 7a 14 bd 82 13 d7 bc bc 5e 38 bd 8f b2 ec bd
       -0.03624958 -0.02625442 -0.04501222 -0.11557495
0003c0 bd 51 c7 3b 7c 7f c2 bd e9 f9 03 be 70 6e da 3d
       0.006082742 -0.09496972 -0.12888302 0.106655955
0003d0 28 20 b0 bd b3 ae c7 3d 3f 89 f2 3d 9b 01 98 3d
       -0.08599883 0.09750118 0.11842584 0.07422181
0003e0 b9 25 0c bd e4 8c 3a bd 10 dc ce 3c 3f ca 9a bd
       -0.034215663 -0.04554452 0.025251418 -0.07558107
0003f0 5f d3 4c 3d f9 ae a1 bb bf 48 08 3c dd 81 ea 3d
       0.050006267 -0.0049341884 0.008318125 0.11450551

conv1.bias f4 [64]
000000 1a 09 cf 3c b3 c1 56 3d 05 eb 94 3c 44 ae 9e 3b
       0.025272895 0.05243082 0.018178472 0.0048425514
000010 0b d6 d1 bd 9e b9 9c 3d 1b 07 ba 3d 35 1a 98 bd
       -0.102459036 0.07652591 0.090833865 -0.074268736
000020 01 3e 17 bd e8 81 e5 3c 69 46 11 bd 14 0c 90 bc
       -0.036924366 0.028016046 -0.03546754 -0.017583884
000030 e7 06 d0 bd 70 2b 8c bc 79 5d a2 bd 9c d7 85 bd
       -0.101575665 -0.017110556 -0.07927985 -0.06535265
000040 97 80 bb 3d 41 59 c6 bc 63 cf 5b bb bb 71 aa bc
       0.09155386 -0.024212481 -0.003354036 -0.020806184
000050 aa 79 13 bd d5 f9 d2 bd 15 9e ec bd e9 ab a0 bc
       -0.0360047 -0.10301558 -0.11553589 -0.019613223
000060 41 a0 9b bc de 68 93 3c 50 81 d4 bc f1 9b a0 bd
       -0.018997313 0.01799434 -0.025940567 -0.078422435
000070 15 94 99 bd 30 11 7d bd 67 ed 03 bd 36 ab a2 bc
       -0.074989475 -0.06178397 -0.032208826 -0.01985703
000080 87 d2 a3 bd a7 65 a5 bd ed 02 8a 3d 73 1d 1f bb
       -0.07999139 -0.08076029 0.06738839 -0.0024279028
000090 04 58 94 bd d3 ab 4c 3d fd 8b d6 bc 5c 9d 1e 3e
       -0.0724335 0.04996855 -0.026189798 0.15489715
0000a0 83 de 45 3d 87 9b 7a 3d ba 93 a7 bc 73 ec aa bc
       0.048307907 0.06118348 -0.020456184 -0.0208647
0000b0 04 1f 0f 3d a8 5e f8 bd ce 47 44 bc c9 6b 12 bd
       0.03494169 -0.12127429 -0.01198001 -0.035747323
0000c0 8f 36 ba 3c 01 fa f9 bc f9 cf da 3d 18 97 80 bd
       0.022731094 -0.030514719 0.10684199 -0.06278819
0000d0 05 af e6 3b 99 72 50 bb 17 9f 8c 3d 2d e1 71 bd
       0.007039907 -0.0031806587 0.068662815 -0.059052635
0000e0 7e a5 18 3d c6 08 a5 bd e1 4e 21 3c 63 2d 44 3c
       0.0372672 -0.08058314 0.009845466 0.011973712
0000f0 d2 8b 81 bc 2c 6b 6e 3a 92 f5 60 3d 1b bf ab bd
       -0.015813742 0.00090949493 0.054921694 -0.0838606

conv2.weight f4 [32, 64, 5, 5]
000000 09 5f b6 bc e1 76 1c bd bf 0d 6c 3c 28 3d 39 bc
       -0.022262113 -0.03819931 0.014407574 -0.011306085
000010 fe b8 f5 3c e9 af bd 3b 74 78 2d bc 1f 3d d5 3c
       0.029995438 0.0057887924 -0.0105878 0.026030121
000020 8e 4d f9 bb 10 7a 2f 3c 48 ae 5b bb 4c 14 e4 bb
       -0.007608122 0.010710254 -0.0033520628 -0.0069604274
000030 93 44 f0 bb 34 7e a1 bc 6d 42 f8 3a f2 6a 35 bd
       -0.0073323934 -0.019713499 0.0018940695 -0.044291444
000040 40 89 ad bc 21 2b 0e bd 7c 51 06 bd 4f a0 64 b8
       -0.02118361 -0.0347091 -0.032792553 -5.4508735e-05
000050 cd 4f 02 3b 3d 5b 8f 3c 4a 2c a8 3c 8f 1f 1b 3d
       0.001988399 0.01749956 0.020528931 0.037871893
000060 ee b4 4c 3d 05 a7 f8 bd cf d6 a1 bc a8 2a 60 3d
       0.049977235 -0.121412314 -0.019755749 0.05472818
000070 5e db 6f 3b 96 77 ab bc 4b e0 4f bb 3e 41 25 bd
       0.003659926 -0.020931046 -0.0031719382 -0.040345423
000080 15 0e 73 3d 5e c9 2a 3d 4c 8e 64 3b 62 6d 82 bd
       0.0593396 0.041695945 0.0034874855 -0.06368519
000090 26 e3 a9 bd 05 69 57 3a 45 4b 81 bc a4 b1 ca bb
       -0.08295278 0.0008217248 -0.015782962 -0.006185727
0000a0 75 fc b2 bd 53 33 9d bd 7c f7 8e bc 0a 5d 40 bc
       -0.087395586 -0.07675805 -0.017451994 -0.011740932
0000b0 f1 e9 24 bc 5f 73 45 bd 3d fe 66 bc 5d 4a fb 3b
       -0.010065542 -0.04820573 -0.014098701 0.007668777
0000c0 46 6e 11 ba e8 ba da bc ae 17 89 3c ed 70 0b 3c
       -0.0005547743 -0.026700452 0.016734924 0.00851081
0000d0 78 ae b9 3c b7 21 ef 3c e3 c2 73 3c 11 6e ee bc
       0.022666201 0.029190881 0.014878008 -0.029105218
0000e0 e4 aa 5b bc 31 0f 83 bc 30 39 64 bc 6d 61 31 3c
       -0.013407443 -0.015998455 -0.01392965 0.010826451
0000f0 06 c6 fb bc f5 82 37 ba a0 8f 0b bc 76 bc 28 3c
       -0.030734073 -0.000700041 -0.00851813 0.010298839
000100 44 52 43 3c 59 20 33 bd 08 4b 7e bb 8a 71 07 bd
       0.011921469 -0.04373202 -0.0038802046 -0.033067264
000110 3d 02 0d 3d 0f e3 82 3d 83 d5 52 bb 13 85 46 3c
       0.034425963 0.06390964 -0.003217072 0.012116688
000120 a3 86 a8 3c 72 ed 55 3d 4e 38 26 3e 53 89 b1 3c
       0.020572012 0.0522284 0.16232416 0.021671927
000130 cc 37 de bc 69 78 9a bb 39 e0 bf bb df 1e f5 3c
       -0.027126215 -0.004714061 -0.005855587 0.029921947
000140 f3 29 20 3c 02 b9 81 3b d7 a7 16 bd f0 03 14 bc
       0.0097756265 0.003958822 -0.03678116 -0.009034142
000150 f6 22 75 3c 5f 7c 34 bc 0c ed 04 3c f7 77 70 3b
       0.014961949 -0.0110159805 0.008113157 0.0036692598
000160 d9 ba ca 3c 1f 3c 80 3c 15 84 b2 bb ae 4f 10 bd
       0.024747299 0.015653668 -0.0054478743 -0.03523224
000170 ae 65 4e bc a0 4f fa bb 00 f3 e0 bc ee 2a 02 bd
       -0.0125974845 -0.0076388866 -0.027459621 -0.031779222
000180 47 67 3c bd 2e 1f 58 bd a6 cd fb bd a2 3c 2f be
       -0.04599693 -0.05276411 -0.12295084 -0.17112973
000190 f9 a8 2b 3b 95 af 3e 3c 7f 5a 09 3c 4b 37 87 bc
       0.0026193245 0.011638542 0.008383392 -0.016505858
0001a0 6e ed 35 bd a9 cc 98 3c b9 57 d4 3b 86 fb 90 bb
       -0.044415884 0.018652277 0.006480184 -0.004424515
0001b0 47 70 00 3c 9e 3c 41 bd 13 79 07 3d d2 3f c6 3c
       0.007839269 -0.04717695 0.03307445 0.024200354
0001c0 14 d9 72 3b 21 49 b7 ba da e3 02 bd 36 22 53 bb
       0.0037055658 -0.0013983586 -0.031955577 -0.0032216436
0001d0 3e 0c 97 3c 18 2c 44 bd 50 fb 06 bd 97 c4 cc bc
       0.018438455 -0.047893614 -0.032954514 -0.024996085
0001e0 0e 7e 71 3d 21 fc 38 3c dd 4a 14 3d 67 88 3a 3d
       0.058958106 0.011290581 0.036204208 0.04554024
0001f0 1e 12 7f 3d 07 78 b1 3b 0a e0 49 3c b8 a1 62 3a
       0.062273137 0.0054159197 0.0123214815 0.0008645314
000200 91 60 96 3c b6 db 97 bc c0 31 2c 3b 1a cf 07 3c
       0.018356593 -0.018537384 0.002627477 0.008289123
000210 5c b1 84 bb 2e 03 fe 3b 2c b4 00 bd b9 16 e6 bc
       -0.004049463 0.007751844 -0.031421825 -0.028087007
000220 95 94 d1 bc 87 a2 e0 bc b8 f0 08 bd 08 dc f3 bc
       -0.025583545 -0.02742125 -0.033432692 -0.029768005
000230 e6 96 6c 3b ee 2f 00 bc 5b 15 36 3b 4d e6 83 3c
       0.0036100685 -0.007823927 0.0027783725 0.016101027
000240 eb f1 0d ba a1 01 2d 3c 9a e7 fa 3c 20 12 96 3c
       -0.0005414772 0.01055947 0.030628014 0.01831919
000250 c7 4c ea 3c 98 b6 6f 3c b7 ea 67 3b 7d ef 0d 3d
       0.028601063 0.014630936 0.0035387704 0.034652222
000260 7a 5e 61 3d a4 3d c1 bc 7a ef 71 bd 48 37 9c bb
       0.05502174 -0.023588963 -0.059066273 -0.004767332
000270 e4 ef 3b bb 9a 25 b8 bc 73 ed 85 bd 33 28 1e bd
       -0.0028676922 -0.022478867 -0.065394305 -0.038612556
000280 53 49 19 3c 1d cd fc bb 61 79 18 bc 81 91 67 bd
       0.009355861 -0.007714881 -0.009306283 -0.056535248
000290 47 0d a6 b9 3d b9 59 3d 14 83 a2 3c 8c f9 57 bd
       -0.0003167188 0.053155173 0.019837894 -0.05272822
0002a0 60 11 e6 3b 99 d6 2c 3c 25 fe 34 3d 1e 4a 2c 3d
       0.007021114 0.010549211 0.044187684 0.04206287
0002b0 79 9a 29 bd 3b a5 9c 3c c2 a4 9e 3d 7b bf a2 bc
       -0.041407082 0.019121757 0.07746269 -0.019866696
0002c0 1d 2c ed bc eb 3c 33 3c 70 7d a1 bc 80 5c 07 bd
       -0.028951699 0.010939817 -0.019713134 -0.0330472
0002d0 37 a3 03 bd 0d 0e 67 3c 36 62 a8 3c 5b 9e ca bc
       -0.032138076 0.014102471 0.020554643 -0.024733713
0002e0 76 12 a9 3c 57 f0 8f 3a f4 b4 11 3d 6c 4f 4f 3c
       0.020638686 0.0010981661 0.03557296 0.012653213
0002f0 4d 57 24 bc b3 41 68 bc 4e e3 ae 3c 9a 76 6c bb
       -0.01003058 -0.01417582 0.021348622 -0.0036081434
000300 50 25 68 bc 65 cd 30 3c cf ed 0a 3d ab 98 dc 3c
       -0.014169052 0.010791157 0.0339182 0.026928267
000310 0f f7 cb 3b fb 87 df 3b 9e e5 47 3d 8b 60 cf 3d
       0.00622452 0.00682163 0.048802964 0.10125836
000320 8a dd 12 3d 16 9f 64 bd cd 1a 13 bd 44 ea bc bc
       0.035855807 -0.05581578 -0.03591423 -0.023060925
000330 63 69 46 bd 1c 74 54 bc 52 55 00 bd 03 22 33 bd
       -0.04844035 -0.012967136 -0.031331368 -0.043733608
000340 9e 3f ba bb b0 13 93 3c e6 13 c1 bd a5 e2 11 bd
       -0.0056838533 0.017953724 -0.094276235 -0.035616536
000350 32 a3 9b bd 5f e9 4d bd 9e 7c cc 3d d8 07 14 be
       -0.075994864 -0.05027139 0.09984706 -0.14456117
000360 40 51 e3 bd 17 5d ac bd 4f fb 49 bd 85 00 b7 3d
       -0.110994816 -0.08416193 -0.049311932 0.08935646
000370 62 87 68 bd 5b cf 8a bd 5c ee 5a bd 79 67 54 3d
       -0.056769736 -0.06777831 -0.053449973 0.05185649
000380 47 1f 19 3e 53 b2 8e 3c b7 48 42 bb f7 a4 1f bb
       0.14953338 0.017419016 -0.0029645392 -0.0024359801
000390 b8 69 09 bd 41 ba b8 bc 82 65 42 3d b9 39 9a 3b
       -0.033548087 -0.02254975 0.047460087 0.004706588
0003a0 69 e2 a7 bc 1a 45 75 bd f2 e3 1d 3d 1d d9 8a bd
       -0.020493703 -0.059880354 0.038547464 -0.06779692
0003b0 68 dc 3c bd a1 36 8d bd 42 3f 6e bd e6 fa 7e 3d
       -0.046108633 -0.06895185 -0.058165796 0.062250994
0003c0 57 59 cd bd 4d ad a3 bd cd 9a c8 bc c8 97 31 3d
       -0.10026806 -0.07992039 -0.024487877 0.04335764
0003d0 4d 8f 75 3d 95 c5 ba bd d5 6e 1e bd bd f5 db bc
       0.059951115 -0.09119717 -0.038679916 -0.026850576
0003e0 aa 0e 7f 3e 4c 48 2f 3d c4 87 8a 3d 07 11 c9 bc
       0.24907938 0.042793557 0.067641765 -0.024544252
0003f0 74 99 5e bd 88 47 99 bd 6d 9e fa bd 33 fc 6e 3d
       -0.054345563 -0.07484347 -0.122372486 0.058345985

conv2.bias f4 [32]
000000 1d bf b7 3b 07 0c 09 bd ee e0 47 3c d9 7f b6 bc
       0.0056074993 -0.033458736 0.0121996235 -0.02227776
000010 20 01 77 3c c5 e0 8b bc f7 3a b8 bc c8 46 97 3c
       0.015075952 -0.017074952 -0.022489054 0.018466368
000020 7c 4d 4d bc 0f 99 9b bc 77 01 cb bc 85 81 68 3c
       -0.012530681 -0.018993882 -0.024780972 0.014191036
000030 cc df 3e bc f8 fd 7b bc 20 99 83 3c 96 c4 ec bc
       -0.011650037 -0.015380375 0.016064227 -0.028902333
000040 6c 88 d3 bc 4a 87 6c bc 99 9a fb 3a 8b 2f 6e bd
       -0.025821887 -0.014436552 0.0019195854 -0.05815081
000050 da 47 4d 3d 39 23 0d bc 39 b2 30 bc a3 0e 88 3b
       0.05011735 -0.008614355 -0.010784679 0.0041521355
000060 b7 c8 92 bc 68 da 24 bc 73 3a 9c bc d0 29 a4 3c
       -0.017917974 -0.010061838 -0.01907084 0.020039469
000070 d8 59 df bc d1 6b 7c 3b 67 4d a6 3c aa 75 db bc
       -0.02726452 0.0038516412 0.02030058 -0.026789505

conv3.weight f4 [1, 32, 5, 5]
000000 52 79 47 bd 9e bd 84 bc c4 09 b6 bc dd aa fa bc
       -0.048699684 -0.016203698 -0.022221453 -0.030599052
000010 5e 3e 88 3b b9 3d c7 3b a8 a6 e7 bc e3 82 58 bd
       0.0041578254 0.006080356 -0.02827771 -0.0528592
000020 f0 85 34 bc 69 d0 89 3c 93 aa a0 3c 73 88 3a bd
       -0.011018261 0.01682301 0.019612586 -0.045540284
000030 d1 36 2c bd 77 10 9f ba 6e 69 14 3c 1f 66 bb bb
       -0.042044464 -0.0012135644 0.0090583395 -0.005718961
000040 47 ee c2 bc 94 87 eb bc 24 73 60 bc 6b a0 91 3c
       -0.02379526 -0.028751172 -0.013699327 0.017776689
000050 7d b1 8c 3d e1 59 65 3d ad 7e 48 3d 4c 21 24 3d
       0.06869791 0.05599392 0.048948932 0.040070817
000060 57 a7 f5 3d 08 55 27 bd 65 f0 dc bc 7c ef 33 bd
       0.11994808 -0.040852576 -0.026970098 -0.043929562
000070 bf 90 0e bc 01 64 1b bb e4 6c 27 bd 2d 23 59 bd
       -0.008701502 -0.002371073 -0.04087533 -0.053012062
000080 16 1e c0 bc b2 bc 5f bc db 5e 02 bd 09 fa 04 bd
       -0.023451846 -0.013655828 -0.031828742 -0.032465015
000090 52 a4 61 bc 3b 8a 25 bd 86 b9 d7 bc f9 b0 63 bc
       -0.013772087 -0.04041503 -0.026333582 -0.013897174
0000a0 42 f4 23 bd 12 c2 42 3c 21 e6 1d bd 66 8e 4e bc
       -0.040027864 0.01188709 -0.038549546 -0.012607193
0000b0 ec c4 b7 bc d6 76 cb bb d4 da 6a bd 66 8c 8c bc
       -0.022432767 -0.0062092347 -0.057337597 -0.017156791
0000c0 5a d3 e2 bc e9 53 36 ba c6 74 15 3d 22 ce 73 bc
       -0.02768867 -0.00069552526 0.036488317 -0.014880689
0000d0 8e ed d3 3b 55 9d 07 3d 5e d7 0c 3d 35 f6 0c bc
       0.0064675277 0.033109028 0.034385078 -0.008603622
0000e0 5a 78 8d 3c 7c 85 a5 bc 96 91 64 bc 25 36 d9 bc
       0.017269302 -0.020205252 -0.013950726 -0.026515076
0000f0 2b 0d 55 3c 3d bb ec bc db e3 84 bc e1 9e 6d bc
       0.013003628 -0.028897876 -0.016221931 -0.014503212
000100 b4 68 9a 3b 49 e4 ae 3b 25 2b de bb c4 32 df bc
       0.0047121886 0.0053372723 -0.0067800456 -0.027245887
000110 d7 c8 a1 bb cb 03 8e 3c 1d cf 4e 3c f3 a6 8c bc
       -0.004937272 0.017335793 0.012622622 -0.017169451
000120 96 4c b5 bb d6 3f 03 bd 2c ab 9b 3c 8b fb 01 bd
       -0.0055328114 -0.0320433 0.01900252 -0.03173403
000130 86 58 af bc ff 59 5f bd 2b fd 4b bd e3 e1 d1 bc
       -0.021404516 -0.054529186 -0.049801987 -0.025620406
000140 b0 d0 39 bc 37 a7 c7 3c 06 7f af 3c b6 ad 56 bc
       -0.011341259 0.024371726 0.021422874 -0.013102939
000150 37 65 e9 3c 26 f1 b7 bb c7 f8 94 bc 84 55 86 3c
       0.028490646 -0.005613464 -0.018185033 0.016398199
000160 f9 f3 b2 bb 4c 0c 07 3d 39 cb 2b 3c e2 e2 4f 3c
       -0.0054612127 0.03297071 0.010485464 0.01268837
000170 21 32 bf bc de 7b 09 bc 62 fd 1f 3d 91 af 44 3d
       -0.023339333 -0.008391349 0.039060004 0.048018996
000180 a6 89 d3 3c 4b fe 7f 3b b5 0b 17 3d f5 c6 a5 3d
       0.025822472 0.0039061483 0.0368764 0.08094589
000190 e6 a5 9b bd f4 4f 20 bd 82 66 b9 bc d6 7f 48 bc
       -0.07600002 -0.03913875 -0.022631887 -0.01223751
0001a0 09 b9 89 bd 80 ca 05 bb bd e9 97 bb a7 6c 20 3d
       -0.06724746 -0.002041489 -0.004636018 0.03916612
0001b0 3e 51 a6 bc 5b a6 94 bc 5f c1 d4 bc 88 dd 5a bb
       -0.020302411 -0.01814573 -0.025971113 -0.0033396203
0001c0 5e 1a 95 3c 39 76 6f ba 9d 75 6a 3c 81 85 b4 bc
       0.01820105 -0.0009134743 0.014310268 -0.022036316
0001d0 6f e6 a8 3c a6 ba 0b bc 74 2f 50 bc 0a 0b 14 3c
       0.020617692 -0.008528387 -0.012706626 0.009035835
0001e0 08 80 56 bc 18 fb 14 3d ca e8 f9 3c e0 98 a5 3b
       -0.0130920485 0.036372274 0.03050651 0.0050536245
0001f0 64 0c 4a 3c 99 98 dd bd 2c e0 a8 bd a5 81 32 bd
       0.012332056 -0.10820121 -0.082458824 -0.04358067
000200 fb 50 6a bd 34 24 84 bd 3f 11 0a bd f1 4b 0e bd
       -0.057206135 -0.06452218 -0.033707853 -0.034740392
000210 a5 cb 09 bd 3f 87 07 bd 66 22 03 bd 2f bc a4 bd
       -0.033641476 -0.033087965 -0.032015227 -0.08043706
000220 6e b0 a5 bc 07 84 6a bd e7 91 3c 3b d7 66 8a bd
       -0.02022573 -0.057254817 0.0028773488 -0.067578964
000230 6a 7f 63 bd a6 05 f6 bb f6 95 0b bd 29 cf 14 bd
       -0.055541433 -0.0075079976 -0.03407856 -0.036330376
000240 5c 26 6d bc 29 06 a6 bd 41 02 5e bd 5b 0f 36 bd
       -0.014474478 -0.08106644 -0.05420137 -0.044448238
000250 e9 c3 56 bc 7b 50 10 bd d4 d3 2b 3d 56 b7 e7 bb
       -0.013108232 -0.035233002 0.041950062 -0.007071416
000260 45 1b c3 bb eb c3 18 3d 70 91 f5 3c 8e 38 18 bc
       -0.0059541785 0.037296217 0.029976577 -0.009290827
000270 c6 5b 1b bb 08 46 3d bc 14 b9 05 3b 44 96 08 3d
       -0.0023705824 -0.011552341 0.0020404505 0.03334643
000280 c8 35 e9 bc 01 23 f1 3b b4 48 39 bb 54 ac ee bb
       -0.028468028 0.007358909 -0.0028272094 -0.0072837267
000290 76 4e 2b 3c fa fb e2 3c b1 a4 91 bc 9f 96 05 bc
       0.010455718 0.027708042 -0.017778726 -0.008153587
0002a0 79 14 91 3b 5e af 30 3c eb 12 83 3c 06 61 f1 3c
       0.0044274894 0.010783998 0.016000232 0.02946521
0002b0 31 8e 73 3c e2 89 ca 3c 53 63 ef 3b 17 15 98 3d
       0.014865444 0.02472395 0.0073055415 0.074258976
0002c0 aa f8 8d 3d 49 b1 a9 3c af e5 e8 3b 8f e5 25 3d
       0.069321945 0.020714419 0.0071074585 0.040502127
0002d0 70 f5 a4 3d 4b 44 a6 3c 4b 54 b7 3c 93 78 8b 3c
       0.08054626 0.020296237 0.022379061 0.017025268
0002e0 f6 a8 ff 3c 26 38 7e 3d 08 1f 22 bc 12 93 14 3d
       0.031208497 0.062065266 -0.009895094 0.03627307
0002f0 17 30 34 bc 0e f2 83 bb 7c a5 ff 3c 43 51 01 3d
       -0.010997794 -0.004026658 0.031206839 0.031571638
000300 9c 42 07 3d 25 ab 64 3b 9d 9a 43 3c a6 64 c5 3c
       0.033022508 0.003489205 0.011938718 0.024095844
000310 5a 80 b6 3c 5d 7f 97 3c 08 38 87 3b 75 1f 2a 3d
       0.022278 0.018493349 0.0041265525 0.041533906
000320 57 89 35 3d 7e f6 29 3d 78 34 43 3d b4 c4 12 3d
       0.04432043 0.04149484 0.04765746 0.035832122
000330 8b d8 96 3d 4a b1 dc ba dc 66 20 3d 47 59 16 3b
       0.07365521 -0.0016837504 0.039160594 0.0022941397
000340 78 a0 c7 3c f1 c3 68 3d d5 32 8e 3c 10 b9 c4 3c
       0.02436851 0.05682749 0.017358223 0.024014026
000350 1f 45 2c 3d 3a d7 a2 3b e4 93 9b 3c aa d8 ad 3c
       0.042058107 0.0049695047 0.018991418 0.021221478
000360 1f c3 3c 3c 0c 41 dd 3c f2 3e a4 3c 97 7c e6 3b
       0.01152113 0.027008556 0.020049546 0.0070338952
000370 a7 56 ee 3c 9a 82 57 3c 3d d7 f7 3c 59 f8 80 bc
       0.029094053 0.013153696 0.030254 -0.015743421
000380 1a 62 b4 3c bd c6 1b 3d 5a 38 ce 3c 7b cf b3 3c
       0.022019435 0.03803133 0.025173355 0.02194952
000390 ae 1f 42 3d 88 44 0d 3d 78 6e 23 3d b7 4c c0 3c
       0.047393493 0.034489185 0.039900273 0.02347408
0003a0 44 e5 05 3c e0 b4 b1 3c 16 51 0e 3d 0d f8 81 bb
       0.008172337 0.021692693 0.0347453 -0.0039663375
0003b0 e2 69 37 bb 80 74 7d 3c 24 22 0b 3d 10 2f b2 3c
       -0.0027986695 0.01546967 0.033968106 0.021750957
0003c0 41 c2 fa 3c 23 b4 24 3d 0e 5e bf 3c 34 82 68 3b
       0.030610206 0.040210854 0.023360278 0.0035477998
0003d0 8e ec 29 3d fe f8 3f 3d 76 82 55 3d 54 20 19 3d
       0.04148536 0.046868317 0.05212637 0.037384346
0003e0 62 2d 10 3d e3 42 8f 3d 9f 55 de 3c 52 f4 be bb
       0.03519953 0.069951795 0.027140437 -0.005827465
0003f0 67 b9 6b 3c 1d 93 61 bb bb 4c 29 3d f9 fd 1c 3b
       0.014387465 -0.0034419962 0.04133294 0.002395509

exp_avg f4 [64, 1, 9, 9]
000000 fe af 55 3a 46 e2 4f 3a 78 83 4d 3a 44 8a 3a 3a
       0.000815153 0.0007930141 0.000783972 0.000711594
000010 cb 6e 2f 3a 16 80 22 3a 78 9e 2c 3a ab b3 28 3a
       0.00066922297 0.0006198896 0.0006584893 0.0006435464
000020 eb 8c 36 3a 03 cc 5b 3a 04 83 5d 3a 72 fb 53 3a
       0.00069637474 0.0008384587 0.0008450004 0.00080864795
000030 41 38 33 3a 80 68 30 3a a5 84 2a 3a bb 5a 25 3a
       0.00068366906 0.0006729439 0.0006504751 0.00063077704
000040 89 f2 23 3a 88 df 28 3a ce 78 69 3a eb 88 71 3a
       0.0006254097 0.0006442 0.0008906246 0.0009213823
000050 ca c1 63 3a 51 87 4a 3a de 64 33 3a b7 47 21 3a
       0.00086882396 0.0007725852 0.00068433385 0.0006152349
000060 1e 37 1b 3a c1 a3 1b 3a f3 15 24 3a e9 e7 5e 3a
       0.0005920994 0.0005937182 0.0006259374 0.0008503185
000070 0c d0 74 3a f3 10 74 3a 1a 66 4b 3a 54 1b 33 3a
       0.0009338863 0.0009310387 0.000775905 0.00068323803
000080 4a 38 20 3a b7 b9 12 3a cc 18 15 3a 4e d1 16 3a
       0.00061119033 0.00055971317 0.0005687594 0.0005753235
000090 7c 2e 57 3a 45 3e 66 3a 27 5f 69 3a fb 53 4f 3a
       0.0008208526 0.00087830826 0.00089024234 0.00079089374
0000a0 fd 22 2a 3a 41 0b 15 3a db 8e 04 3a 60 08 0e 3a
       0.0006490199 0.0005685576 0.00050566875 0.0005418118
0000b0 8f 05 14 3a 3b 47 46 3a 26 26 57 3a 0c 9c 64 3a
       0.000564658 0.0007563715 0.00082072837 0.00087207626
0000c0 eb 13 47 3a 01 3e 2c 3a da 06 0d 3a ba 0b 02 3a
       0.00075942156 0.00065705186 0.0005379744 0.0004960854
0000d0 3c d8 09 3a 03 a8 15 3a 9a f1 2e 3a 22 e0 43 3a
       0.00052583567 0.00057089346 0.00066735747 0.0007472058
0000e0 3c ab 54 3a 59 bc 49 3a 25 cb 2e 3a df f4 15 3a
       0.0008112674 0.00076956075 0.0006667844 0.00057203876
0000f0 73 3c 03 3a bb c4 0e 3a a4 e3 17 3a 44 35 1c 3a
       0.0005006261 0.0005446185 0.0005794114 0.0005958865
000100 de 41 31 3a 97 80 4c 3a fb 62 4a 3a 8b d5 34 3a
       0.0006761829 0.0007801144 0.0007720438 0.00068982755
000110 70 7d 27 3a 9d 20 12 3a cd ba 15 3a 08 86 11 3a
       0.0006389236 0.0005574318 0.00057117344 0.0005551283
000120 f1 5d ff 39 06 a2 15 3a ff c7 35 3a d0 ca 46 3a
       0.00048707382 0.00057080423 0.0006934404 0.0007583322
000130 83 be 3e 3a b3 6f 34 3a 28 88 2c 3a 58 59 27 3a
       0.0007276313 0.00068830996 0.0006581568 0.00063838577
000140 2e 79 1f 3a 13 b4 a0 ba 50 e3 a7 ba fa 84 a9 ba
       0.0006083426 -0.0012260698 -0.0012808833 -0.0012933307
000150 0f 22 b1 ba 52 42 b2 ba 02 90 a9 ba 24 ad a7 ba
       -0.0013514179 -0.0013600087 -0.0012936594 -0.0012792689
000160 66 55 af ba a5 d8 ab ba b8 61 a2 ba b3 88 a5 ba
       -0.0013376891 -0.001311083 -0.0012388742 -0.001262924
000170 16 f5 b0 ba 3a f2 b2 ba 53 c9 b7 ba f0 c5 b5 ba
       -0.0013500776 -0.0013652511 -0.0014021791 -0.0013868194
000180 d9 d2 b4 ba 8a 96 ad ba 52 75 ad ba d7 79 a8 ba
       -0.0013795748 -0.0013243717 -0.0013233817 -0.0012853694
000190 e0 63 ac ba 25 e8 ad ba 85 3d c3 ba 13 dc c4 ba
       -0.0013152324 -0.0013268037 -0.0014895654 -0.00150192
0001a0 08 5a bc ba fb f5 b9 ba 93 f7 ab ba ec 34 ac ba
       -0.0014370093 -0.0014187688 -0.0013120048 -0.001313833
0001b0 75 59 a6 ba 84 17 aa ba 8c b6 b1 ba 60 9b c5 ba
       -0.0012691455 -0.0012976979 -0.0013558432 -0.0015076213
0001c0 2b 24 c7 ba 3d 16 bb ba 33 5e b3 ba 3a 99 af ba
       -0.0015193274 -0.0014273595 -0.001368469 -0.0013397106
0001d0 c4 10 ac ba 30 64 a6 ba 8d 47 a8 ba d1 aa ad ba
       -0.0013127555 -0.0012694653 -0.0012838707 -0.001324976
0001e0 a0 96 c1 ba 4f ee c9 ba 2c 85 bf ba dc cb b4 ba
       -0.0014769621 -0.0015406105 -0.0014611832 -0.0013793665
0001f0 97 4b b9 ba a1 4e aa ba ca 59 a4 ba 1b a3 a7 ba
       -0.0014136907 -0.0012993404 -0.0012538966 -0.0012789698
000200 eb 67 b2 ba 42 06 b2 ba 6c 93 b6 ba 96 51 bf ba
       -0.0013611292 -0.0013582187 -0.0013929433 -0.0014596458
000210 93 22 b5 ba 7f 02 b1 ba 4c 5b b0 ba e4 d4 a1 ba
       -0.0013819508 -0.0013504772 -0.0013454943 -0.0012346772
000220 f0 e8 aa ba 89 eb ac ba 3b df ac ba e8 20 b4 ba
       -0.0013039391 -0.0013192754 -0.0013189086 -0.0013742717
000230 d4 db bc ba 81 8b bd ba 30 84 b8 ba 47 f8 b2 ba
       -0.0014408776 -0.0014461131 -0.0014077481 -0.0013654315
000240 c6 b9 a3 ba ca bd a9 ba f8 ad a9 ba 48 2f aa ba
       -0.0012491278 -0.0012950238 -0.0012945523 -0.0012984062
000250 da d6 b5 ba 7d 1e b5 ba da 73 b5 ba ba 5e bc ba
       -0.0013873235 -0.001381829 -0.001384373 -0.0014371492
000260 80 47 b4 ba 8d a6 a7 ba 18 b3 a9 ba 4d 03 ac ba
       -0.0013754219 -0.0012790725 -0.0012947051 -0.0013123542
000270 26 6c aa ba 9d ea ab ba ce 35 ab ba 75 0b b5 ba
       -0.0013002201 -0.0013116185 -0.00130623 -0.0013812619
000280 d7 50 b4 ba 70 4e bd ba a1 70 b3 3b 91 6c b8 3b
       -0.0013757002 -0.0014442932 0.005476073 0.0056281765
000290 7c 50 b7 3b 98 e3 b4 3b e7 9d b2 3b 9c 2f aa 3b
       0.0055943113 0.0055202954 0.0054509523 0.0051936638
0002a0 37 98 a2 3b b5 e1 9e 3b cd 40 99 3b 4a e5 b6 3b
       0.004961993 0.0048486837 0.0046769143 0.0055815326
0002b0 19 78 bb 3b fb f0 ba 3b fc 21 b6 3b 08 d4 af 3b
       0.005721104 0.0057049966 0.0055582505 0.0053658523
0002c0 8c 35 a7 3b 09 9e 9e 3b 85 7a 9a 3b 48 f8 95 3b
       0.005102819 0.0048406166 0.0047143125 0.0045767166
0002d0 33 b1 bb 3b 2c 64 bc 3b bf 53 ba 3b 3c 8a b5 3b
       0.005727911 0.005749246 0.005686253 0.0055401605
0002e0 db ae af 3b 47 76 a3 3b b2 b9 9c 3b bf 9e 97 3b
       0.0053614206 0.004988465 0.004782879 0.0046270783
0002f0 24 78 95 3b 4c 3a ba 3b c5 b9 bc 3b eb 69 b9 3b
       0.004561441 0.005683219 0.00575945 0.0056583784
000300 9a 46 b0 3b c1 f1 a7 3b 61 db 9e 3b e0 47 96 3b
       0.00537951 0.005125255 0.0048479293 0.004586205
000310 cb e6 96 3b 89 43 93 3b a8 bd b9 3b f9 63 b9 3b
       0.0046051494 0.004494135 0.0056683607 0.0056576696
000320 78 3f b4 3b 0f be aa 3b 1a d6 a0 3b fc c1 97 3b
       0.00550073 0.005210645 0.0049083354 0.004631279
000330 a7 db 93 3b ee c4 92 3b fd e9 8f 3b f7 5b b3 3b
       0.0045122686 0.0044790423 0.0043919072 0.0054736095
000340 00 30 b3 3b 3f 8a aa 3b 10 0f a3 3b 04 5f 98 3b
       0.0054683685 0.0052044685 0.004976161 0.0046499986
000350 40 c2 92 3b 8a b4 8e 3b 69 cf 90 3b 12 c1 8f 3b
       0.004478723 0.004355018 0.0044192565 0.0043870294
000360 0b d8 aa 3b ee fe a7 3b aa a8 a1 3b 2e fe 98 3b
       0.0052137426 0.0051268255 0.0049334364 0.0046689725
000370 47 eb 90 3b 91 a7 8d 3b 43 4e 8e 3b 3c e5 8e 3b
       0.0044225785 0.004322954 0.0043428256 0.004360823
000380 d4 a8 8f 3b 8a 38 a5 3b e7 68 a1 3b 03 c3 99 3b
       0.0043841396 0.0050421404 0.0049258354 0.0046924367
000390 89 8e 94 3b 72 41 8c 3b 6a 05 89 3b c3 1b 8b 3b
       0.004533593 0.0042802626 0.0041815536 0.004245253
0003a0 31 82 8e 3b 34 39 8e 3b e2 e8 9d 3b 91 7f 9b 3b
       0.004349016 0.0043403152 0.0048190216 0.0047454317
0003b0 3b 78 95 3b eb fb 8d 3b a0 43 89 3b c4 5a 8a 3b
       0.0045614517 0.0043330095 0.0041889697 0.004222246
0003c0 fc f2 88 3b 32 33 8c 3b 54 ad 8f 3b 4a 4a b7 bb
       0.0041793566 0.004278564 0.004384676 -0.0055935727
0003d0 ae 7b b2 bb 5d 8a bd bb 9e f2 c5 bb e8 cc c8 bb
       -0.0054468727 -0.0057843165 -0.006040885 -0.0061279424
0003e0 48 f3 c1 bb 31 ee c1 bb d3 db c4 bb c6 2b be bb
       -0.005918894 -0.005918287 -0.0060076504 -0.005803558
0003f0 79 94 b4 bb 63 bd b8 bb 2f 41 bf bb 30 db c8 bb
       -0.0055108634 -0.005637811 -0.005836628 -0.006129645

exp_avg_sq f4 [64, 1, 9, 9]
000000 3b 2f 3b 37 b1 15 33 37 7d b7 2b 37 3e d7 1d 37
       1.1157065e-05 1.0674282e-05 1.0235116e-05 9.408044e-06
000010 ee 3d 1b 37 f6 36 1a 37 28 68 1d 37 a2 c7 26 37
       9.253139e-06 9.191912e-06 9.38218e-06 9.940852e-06
000020 61 68 32 37 4b 19 44 37 6f 2c 3e 37 1d 28 38 37
       1.0633929e-05 1.1688399e-05 1.1335228e-05 1.0976594e-05
000030 0c 61 29 37 40 3a 20 37 c6 65 1e 37 a2 1d 1d 37
       1.009578e-05 9.550306e-06 9.44123e-06 9.364829e-06
000040 76 a2 1f 37 23 2c 2a 37 9d 16 56 37 a4 31 54 37
       9.514964e-06 1.0143066e-05 1.2760659e-05 1.2647743e-05
000050 d5 15 4c 37 b8 a8 41 37 6c 22 32 37 3c f3 25 37
       1.2164431e-05 1.1542979e-05 1.0617641e-05 9.891399e-06
000060 86 5a 1f 37 b7 d6 1d 37 a1 30 24 37 7e 0a 69 37
       9.498215e-06 9.407921e-06 9.786484e-06 1.3890325e-05
000070 2b c9 76 37 1a 13 71 37 43 b9 5b 37 45 f9 48 37
       1.4709581e-05 1.4369167e-05 1.3096552e-05 1.19789665e-05
000080 3f 9b 34 37 0d 51 28 37 4c 0c 1f 37 94 3d 23 37
       1.0764982e-05 1.0032451e-05 9.480002e-06 9.729894e-06
000090 58 c8 82 37 d9 a9 88 37 41 f1 8b 37 5e f7 80 37
       1.55905e-05 1.6291555e-05 1.6682434e-05 1.5373978e-05
0000a0 59 39 60 37 63 99 44 37 92 63 2d 37 c7 10 22 37
       1.3364793e-05 1.17182235e-05 1.0334787e-05 9.659859e-06
0000b0 25 a4 21 37 1a 43 8e 37 d9 a0 95 37 e6 34 9a 37
       9.634566e-06 1.6958966e-05 1.7837085e-05 1.8382863e-05
0000c0 91 f3 8a 37 a2 e2 7a 37 d8 fb 55 37 f2 ba 3a 37
       1.6564301e-05 1.4953928e-05 1.2754426e-05 1.11299905e-05
0000d0 26 a3 29 37 a5 1f 26 37 2e 0d 92 37 f7 74 9d 37
       1.0111171e-05 9.901739e-06 1.7410694e-05 1.8770324e-05
0000e0 1d 41 9d 37 ce 35 92 37 13 8b 83 37 94 dc 5d 37
       1.874618e-05 1.7429611e-05 1.5681178e-05 1.3223984e-05
0000f0 17 9b 43 37 62 87 34 37 bb 4b 2e 37 16 ec 8d 37
       1.1659015e-05 1.0760357e-05 1.0388841e-05 1.6918446e-05
000100 5c 32 96 37 fb e9 95 37 f4 23 8e 37 91 31 7d 37
       1.7904844e-05 1.787114e-05 1.6944461e-05 1.5091516e-05
000110 ff 55 63 37 d8 a0 47 37 f1 41 3e 37 0c 61 37 37
       1.3550277e-05 1.1898774e-05 1.1340236e-05 1.09302455e-05
000120 3b 00 86 37 8d 60 87 37 c0 1a 89 37 8c d5 84 37
       1.5974152e-05 1.6138214e-05 1.634413e-05 1.5835067e-05
000130 f3 df 7b 37 81 eb 63 37 f8 bf 51 37 22 c2 4a 37
       1.5012908e-05 1.3585087e-05 1.2502067e-05 1.2085338e-05
000140 4d 19 42 37 3a cf 15 37 60 a9 1c 37 2e 37 22 37
       1.1569192e-05 8.929341e-06 9.33776e-06 9.6688e-06
000150 0c c4 2a 37 88 61 30 37 5f 85 23 37 51 64 18 37
       1.0178435e-05 1.0513126e-05 9.74661e-06 9.083263e-06
000160 95 0f 20 37 da 78 19 37 f4 ae 1a 37 00 b9 1f 37
       9.540371e-06 9.147649e-06 9.21985e-06 9.520212e-06
000170 8a f9 31 37 2d 2d 30 37 7d 0e 40 37 22 31 37 37
       1.06081225e-05 1.0500936e-05 1.1447465e-05 1.091909e-05
000180 37 84 2b 37 38 ce 21 37 60 5e 21 37 bb e9 1b 37
       1.0223178e-05 9.644362e-06 9.618321e-06 9.29314e-06
000190 6c df 24 37 ca eb 31 37 63 bd 4d 37 1b 66 4f 37
       9.827181e-06 1.0604921e-05 1.2263047e-05 1.2361935e-05
0001a0 80 13 36 37 6a 38 2c 37 d2 07 1c 37 db 65 1b 37
       1.0852586e-05 1.0265134e-05 9.300145e-06 9.262435e-06
0001b0 e5 45 1a 37 5a b0 20 37 c3 d1 28 37 c7 32 4e 37
       9.195389e-06 9.577803e-06 1.0062419e-05 1.2290379e-05
0001c0 5d d9 4d 37 bb 32 36 37 53 b2 26 37 50 fd 20 37
       1.2269561e-05 1.0859857e-05 9.93589e-06 9.595722e-06
0001d0 11 a8 18 37 3e 20 13 37 73 29 1a 37 29 55 23 37
       9.099037e-06 8.76939e-06 9.188766e-06 9.735385e-06
0001e0 0d bd 40 37 fc 0e 51 37 96 5e 3c 37 ea 11 2c 37
       1.1488109e-05 1.246086e-05 1.1227696e-05 1.025617e-05
0001f0 b4 55 2c 37 d1 14 1a 37 fa f8 12 37 35 fb 13 37
       1.0271953e-05 9.183962e-06 8.7602475e-06 8.8203715e-06
000200 e3 a0 24 37 42 53 26 37 4a ce 2c 37 b2 82 37 37
       9.812621e-06 9.913756e-06 1.0300029e-05 1.093808e-05
000210 3b d6 27 37 bb 6a 20 37 75 85 21 37 a7 a4 10 37
       1.0003855e-05 9.561593e-06 9.627421e-06 8.621405e-06
000220 09 dc 19 37 d7 de 1a 37 18 7c 21 37 af c9 23 37
       9.170742e-06 9.230999e-06 9.625241e-06 9.762515e-06
000230 db 25 2d 37 84 3e 2c 37 0d 40 2a 37 7a f8 23 37
       1.03204175e-05 1.0266554e-05 1.0147703e-05 9.77341e-06
000240 bd ae 0b 37 0a 6d 14 37 95 20 12 37 c4 1e 14 37
       8.32573e-06 8.846875e-06 8.709864e-06 8.828651e-06
000250 80 09 23 37 af 6f 23 37 2b c5 24 37 d5 f4 2a 37
       9.717769e-06 9.7415605e-06 9.8210685e-06 1.0189794e-05
000260 0a 81 26 37 41 4d 11 37 5f db 11 37 da 4e 17 37
       9.924415e-06 8.660661e-06 8.69375e-06 9.01866e-06
000270 b6 85 17 37 05 e0 15 37 f1 ef 16 37 47 4f 23 37
       9.031433e-06 8.933251e-06 8.996562e-06 9.734015e-06
000280 a9 4c 27 37 5d 11 2b 37 3e a2 33 39 ea 87 37 39
       9.9718245e-06 1.0196437e-05 0.0001713121 0.00017502872
000290 70 4c 39 39 d8 36 34 39 a8 a1 2b 39 f1 b9 24 39
       0.0001767145 0.00017186569 0.00016368052 0.00015709527
0002a0 b8 70 20 39 cc 8b 1e 39 2a 4e 1e 39 b1 f4 3a 39
       0.0001530078 0.00015120133 0.00015097173 0.00017829497
0002b0 46 37 41 39 6c 63 42 39 15 60 39 39 c9 01 2e 39
       0.00018426505 0.0001853832 0.00017678768 0.00016594598
0002c0 84 04 25 39 65 43 23 39 06 78 23 39 6f 46 23 39
       0.00015737308 0.00015569998 0.00015589604 0.0001557113
0002d0 0d c9 40 39 96 36 48 39 55 8b 45 39 12 d4 39 39
       0.00018385444 0.00019093821 0.00018839289 0.00017721977
0002e0 a6 85 2c 39 29 50 24 39 9f df 25 39 68 18 29 39
       0.00016452986 0.00015670121 0.00015818932 0.00016126188
0002f0 2a 71 29 39 eb 00 41 39 93 9f 45 39 de 1a 41 39
       0.00016159253 0.00018406256 0.0001884683 0.00018415923
000300 32 6a 32 39 e7 31 26 39 fa 66 24 39 fa a9 2c 39
       0.00017014964 0.00015849584 0.0001567862 0.0001646652
000310 ca 45 33 39 ae 9b 32 39 93 35 3b 39 fe 9a 3c 39
       0.00017096769 0.00017033398 0.00017853668 0.00017986816
000320 a3 e1 33 39 6a fa 25 39 23 b7 1f 39 f9 cd 26 39
       0.00017154826 0.00015828913 0.00015231645 0.00015907724
000330 6d 24 35 39 b6 33 3f 39 73 9f 3c 39 1c 37 30 39
       0.00017275075 0.00018234443 0.00017988477 0.00016805198
000340 19 a7 2d 39 9c 13 24 39 47 97 1a 39 5c dd 1c 39
       0.00016560814 0.00015647564 0.0001474294 0.00014959782
000350 9a d0 28 39 5f f5 3c 39 b9 e4 42 39 b9 22 40 39
       0.00016099439 0.00018020485 0.00018586488 0.00018323482
000360 26 31 23 39 ca e1 1e 39 80 d4 17 39 91 a6 15 39
       0.000155632 0.00015152167 0.00014479645 0.00014271798
000370 2e 50 1d 39 49 26 2f 39 7c 5a 3c 39 92 c2 44 39
       0.00015002556 0.00016703563 0.00017962785 0.000187645
000380 53 c5 3f 39 a9 ae 19 39 7c 1d 16 39 ac 89 12 39
       0.00018288688 0.00014656283 0.00014316099 0.00013974932
000390 4c 36 13 39 c8 f5 1e 39 b9 93 2e 39 47 aa 3a 39
       0.0001403924 0.00015159615 0.00016648964 0.00017801776
0003a0 65 4d 3e 39 92 bf 3c 39 46 39 15 39 a6 5d 13 39
       0.00018148644 0.00018000443 0.00014231083 0.00014053899
0003b0 10 a5 11 39 37 a2 14 39 ae f6 1c 39 de 05 27 39
       0.00013889768 0.0001417481 0.00014969215 0.00015928547
0003c0 45 8d 33 39 7e 02 36 39 6b 3c 31 39 1d 5e 27 39
       0.00017123397 0.00017357801 0.00016902543 0.00015961421
0003d0 e8 cc 1b 39 05 19 29 39 50 1c 2c 39 1a ca 28 39
       0.00014858285 0.00016126416 0.00016413745 0.00016097017
0003e0 90 b4 1f 39 3b 7d 1c 39 cf 5d 1e 39 44 52 17 39
       0.00015230686 0.00014923971 0.00015103 0.00014431129
0003f0 09 e7 23 39 db 31 22 39 d5 88 26 39 eb 18 30 39
       0.00015630959 0.00015468097 0.00015881968 0.0001679395

exp_avg f4 [64]
000000 98 d2 0f 3b 8a 66 8f bb 87 e8 80 3c ae 86 93 bc
       0.0021945592 -0.0043762373 0.015735878 -0.018008556
000010 48 13 4e 3c 87 2e 1b ba 33 b8 69 bb 06 1a 45 3c
       0.012577839 -0.0005919714 -0.003566277 0.01203013
000020 dd ee 96 bc d8 03 d5 39 e1 49 87 bb 25 f6 41 ba
       -0.018424446 0.0004062939 -0.00412868 -0.0007399044
000030 57 ef 54 bb 3e f4 6d 3a 6c 97 47 bb 59 e0 4c 3c
       -0.003249129 0.00090772274 -0.0030455245 0.0125046605
000040 56 a9 6f bb 25 0c d6 3c 50 15 80 ba 0b cc a5 3b
       -0.0036569438 0.026128838 -0.0009771977 0.005059724
000050 04 00 00 00 b5 50 e9 3a 74 4d 4a bc d5 11 82 bb
       6e-45 0.0017800542 -0.012347568 -0.003969411
000060 2f 32 45 ba 19 d3 d5 ba 83 b3 59 3b 71 49 88 bc
       -0.00075224316 -0.0016313522 0.003321857 -0.016636582
000070 25 aa 88 3b ee 41 81 3c 65 47 d1 3a 56 70 b4 3a
       0.0041706734 0.015778508 0.0015966712 0.0013766389
000080 43 eb 6a bc 5d 4f 45 bc 71 c3 36 bb 27 dc 5d 3c
       -0.014338317 -0.012042847 -0.0027887488 0.013541258
000090 e6 df 8d 3c 40 c4 90 bb 1d a9 0d 3c 8c dc 08 bb
       0.017318677 -0.004417926 0.008646277 -0.002088341
0000a0 73 ad 14 3c 7a 2c 36 b9 61 03 66 3a c1 d4 1e bc
       0.009074557 -0.00017373441 0.0008774307 -0.009694279
0000b0 53 df 34 bb 1d c8 51 3c 4e b6 95 3c f4 8e 10 bb
       -0.0027598932 0.012804058 0.018275406 -0.0022057863
0000c0 40 0b 9e 3b 37 fa df ba 0a 7e 3c 3a 7e 52 ba 3c
       0.0048231184 -0.001708812 0.0007190412 0.022744413
0000d0 35 05 71 ba eb 5a 81 bb b7 d5 c5 b8 98 73 be 3b
       -0.00091941963 -0.003947606 -9.4334995e-05 0.0058121197
0000e0 e2 d0 16 bb 8f de 01 3b 3b 90 0a 3c a7 a8 17 ba
       -0.0023012687 0.0019816493 0.008457239 -0.0005785324
0000f0 b9 31 1a bb 68 a7 43 ba d5 21 01 bc 9e 4d 1e 3c
       -0.0023528172 -0.0007463605 -0.007881601 0.00966206

exp_avg_sq f4 [64]
000000 c5 0c e2 38 92 6c 4e 39 71 3e af 3a d9 45 03 3b
       0.00010778898 0.00019686137 0.001337005 0.0020030646
000010 09 88 06 3c 0c 66 e4 3a c9 db a4 3a b8 f5 03 3b
       0.008211144 0.0017425432 0.0012577708 0.0020135473
000020 75 78 9d 3a 74 e2 6d 36 f7 0a 0a 3a 58 38 5e 3a
       0.0012014048 3.5447565e-06 0.0005265916 0.0008477024
000030 21 f9 bc 38 9e c6 24 3b 71 26 a1 39 6d 7d 6f 3c
       9.0109424e-05 0.00251428 0.00030736954 0.014617306
000040 ec d4 37 3b 5a 71 b3 3c dc 7e d9 39 4f 4e 4e 3c
       0.0028050495 0.021904636 0.00041483983 0.012591912
000050 7c b0 04 1e 53 bb 74 3b 14 e4 92 3a 68 dd ea 39
       7.024518e-21 0.00373431 0.0011206889 0.00044796919
000060 64 8b 31 3b 58 db ba 39 e8 76 5c 3a b7 2e 95 3a
       0.002709114 0.00035640108 0.00084100524 0.001138172
000070 9e a1 3d 3b db 2b 7e 3c 66 16 65 3a 34 cb 58 3a
       0.0028935443 0.015513386 0.00087389944 0.0008270026
000080 e7 64 81 3b a8 31 e9 39 23 6e ae 39 b1 66 0a 3b
       0.003948796 0.0004447822 0.00033269924 0.0021118338
000090 82 d4 63 3c ff 3a 52 39 a2 b7 0d 3a 17 25 8b 39
       0.013905646 0.00020049138 0.00054060866 0.0002653978
0000a0 e4 cd f5 3a 32 2e 21 3b 2f 56 9d 38 53 b4 c9 3a
       0.0018753377 0.0024594185 7.502396e-05 0.0015388824
0000b0 49 07 cd 38 66 7d f9 3b b5 5a 15 3c 0f 68 ba 39
       9.776519e-05 0.0076138256 0.0091158645 0.00035554214
0000c0 73 17 6b 3a a9 e5 02 38 c6 91 6e 3c 5f 73 a6 3c
       0.0008968033 3.1208303e-05 0.014561122 0.020318685
0000d0 6b 1b 17 39 dd 0b f6 39 36 7f 7a 39 6a c8 30 3a
       0.00014410696 0.00046929615 0.00023889248 0.0006743731
0000e0 a8 a2 bc 39 d2 9d b3 39 08 ef 40 3a 1a f2 15 38
       0.00035979343 0.00034259126 0.0007359837 3.5749843e-05
0000f0 0b 76 d6 3a 03 71 bd 37 2e 1a 64 3a 85 73 7d 3b
       0.0016362084 2.258318e-05 0.0008701411 0.0038673591

exp_avg f4 [32, 64, 5, 5]
000000 7a e8 5d 39 36 9e 26 39 d7 0f ee 38 0b f9 92 38
       0.00021162807 0.00015889932 0.00011351675 7.0082104e-05
000010 ae 7e 87 38 a7 29 35 39 a2 88 00 39 c7 f7 cf 38
       6.4608976e-05 0.00017277022 0.00012257931 9.916681e-05
000020 4f cf 93 38 27 72 a8 38 f2 de 32 39 1b 30 0c 39
       7.0481205e-05 8.032127e-05 0.00017058456 0.00013369361
000030 8e 80 ff 38 b7 ca ea 38 8b 13 ec 38 77 9c 32 39
       0.00012183293 0.00011195748 0.00011256997 0.0001703369
000040 ec 6a 1c 39 1e 1f 1c 39 fa e0 2e 39 4d 07 3e 39
       0.00014917151 0.00014888911 0.00016677743 0.00018122532
000050 a7 5a 1f 39 fd 9e 30 39 c4 55 3a 39 4b 27 54 39
       0.00015197192 0.00016843896 0.00017770292 0.00020232533
000060 21 eb 69 39 42 61 44 b5 0f ab 71 b6 d2 38 27 b6
       0.00022308204 -7.315722e-07 -3.6011368e-06 -2.4918013e-06
000070 06 af ed 35 eb 3c c9 35 9f 86 da 34 cf 69 81 35
       1.7708815e-06 1.4993396e-06 4.0703614e-07 9.642043e-07
000080 0a c8 d7 35 bb 7c 9d 36 e5 e3 fe 36 83 ce 20 37
       1.6076967e-06 4.693485e-06 7.5963203e-06 9.584825e-06
000090 8f 72 32 37 90 9a 79 37 5f e9 26 37 4f 31 26 37
       1.06362995e-05 1.4877543e-05 9.948707e-06 9.905852e-06
0000a0 05 df 44 37 af c8 2f 37 ae 4f 44 37 34 96 4b 37
       1.1734436e-05 1.0477538e-05 1.1701062e-05 1.2134715e-05
0000b0 cf 1d 02 37 c0 b6 30 37 18 96 4b 37 89 1d 3d 37
       7.755544e-06 1.0532967e-05 1.2134689e-05 1.1272155e-05
0000c0 2f 59 fe 36 3c 8c d8 36 2f ad c4 39 db a2 f5 39
       7.580172e-06 6.453627e-06 0.00037513065 0.00046851378
0000d0 29 03 0f 3a 3d b7 12 3a 99 5d 0d 3a 50 08 e7 39
       0.0005455488 0.00055967626 0.000539267 0.00044065947
0000e0 88 8b 08 3a 1a 5b 15 3a cb d5 13 3a ac d7 0a 3a
       0.000520878 0.0005697474 0.00056394626 0.000529642
0000f0 c1 f3 00 3a c7 d5 0c 3a a1 8e 11 3a 63 79 0b 3a
       0.00049191347 0.00053724315 0.00055525644 0.0005320517
000100 5d 82 fe 39 a0 b3 00 3a 9c 34 06 3a 59 83 0a 3a
       0.00048543783 0.0004909579 0.0005119534 0.00052838546
000110 89 8f 00 3a 85 b0 de 39 96 79 ef 39 6e e3 e8 39
       0.0004904201 0.00042474657 0.0004567622 0.00044419937
000120 41 1f df 39 d0 0d c2 39 53 33 a1 39 17 8d 77 38
       0.0004255716 0.00037012855 0.00030746553 5.902079e-05
000130 5e 81 b6 38 a6 06 e0 38 06 7b fe 38 f8 d4 f5 38
       8.702533e-05 0.00010682391 0.00012134579 0.00011722179
000140 51 32 93 38 95 1d cf 38 ca 7c 02 39 e2 2e 13 39
       7.0188784e-05 9.876039e-05 0.00012444254 0.00014036478
000150 dc ea 09 39 e0 e9 9d 38 7a 1c de 38 6d 93 07 39
       0.0001315283 7.529906e-05 0.00010591089 0.00012929524
000160 3d 84 09 39 a1 fc 01 39 77 1d a1 38 a4 61 b7 38
       0.00013114601 0.0001239651 7.6825665e-05 8.744307e-05
000170 13 ab e3 38 4d 4a dc 38 b8 93 c9 38 4c 12 99 38
       0.000108560685 0.00010504257 9.611942e-05 7.2990166e-05
000180 2c df ab 38 83 b7 9f 38 f9 e4 9a 38 12 78 7f 38
       8.1954844e-05 7.6158925e-05 7.385942e-05 6.0908562e-05
000190 0e a4 91 38 61 e6 73 38 be 91 3a 38 7e 34 0d 38
       6.944696e-05 5.815027e-05 4.448159e-05 3.3665907e-05
0001a0 07 e0 02 38 44 7e 98 38 d4 20 75 38 67 37 54 38
       3.1203057e-05 7.2714436e-05 5.8443125e-05 5.0596336e-05
0001b0 29 ae 27 38 ec 26 1f 38 3c d0 7f 38 0b a8 4c 38
       3.9978102e-05 3.7944803e-05 6.099067e-05 4.8793892e-05
0001c0 d9 d4 4a 38 74 6f 27 38 96 ae 3a 38 a7 a1 3c 38
       4.8358783e-05 3.99197e-05 4.450845e-05 4.4973243e-05
0001d0 2c ed 26 38 43 5c 14 38 cb 07 33 38 9f a0 4c 38
       3.9798368e-05 3.5371875e-05 4.2684183e-05 4.878698e-05
0001e0 d7 a9 d7 37 19 f0 e7 37 02 56 e2 37 a3 38 01 38
       2.5709085e-05 2.764915e-05 2.698135e-05 3.0808744e-05
0001f0 01 00 34 38 2c 12 96 39 08 05 ab 39 bf 35 bf 39
       4.2915348e-05 0.0002862377 0.0003261941 0.00036470403
000200 e5 c6 c8 39 3b e9 cf 39 85 9c b6 39 cf 04 d6 39
       0.0003829516 0.00039655887 0.0003483036 0.00040820843
000210 5a 80 ee 39 bc c2 fb 39 5d ed fe 39 95 db e0 39
       0.00045490527 0.0004801954 0.00048623505 0.0004288821
000220 89 eb f5 39 01 3c 05 3a 1f 62 09 3a 06 f4 08 3a
       0.0004690553 0.00050824886 0.00052407564 0.00052243506
000230 3f 73 d4 39 2b ac ec 39 bb 17 00 3a 36 fe 04 3a
       0.00040521656 0.00045141703 0.00048863486 0.0005073281
000240 03 13 fd 39 10 93 c2 39 6d f0 d3 39 9a 1a d6 39
       0.00048270085 0.00037112134 0.00040424187 0.0004083708
000250 b5 41 d9 39 a5 00 d1 39 e2 1d c8 37 14 04 01 38
       0.0004143842 0.00039864067 2.3855773e-05 3.0759795e-05
000260 26 eb eb 37 73 21 19 38 e2 85 05 38 91 1b 91 37
       2.8123683e-05 3.6509195e-05 3.183436e-05 1.7298184e-05
000270 0f a5 f4 37 d2 bc 00 38 54 0a 05 38 b8 72 ee 37
       2.9163928e-05 3.069343e-05 3.171929e-05 2.8425231e-05
000280 ee a2 3a 37 1f 7d a6 37 a8 c4 d3 37 d1 4a a9 37
       1.1124399e-05 1.9847006e-05 2.5244735e-05 2.0181209e-05
000290 7c 45 84 37 52 42 18 36 e0 fc 6e 37 63 37 91 37
       1.5767982e-05 2.2688369e-06 1.42447825e-05 1.7311138e-05
0002a0 62 7a 84 37 84 0f 45 37 6e b9 08 37 27 82 46 37
       1.5792615e-05 1.17457275e-05 8.149405e-06 1.1832023e-05
0002b0 74 f8 85 37 14 0f 6d 37 3e 6f 7d 37 1d df 78 38
       1.597053e-05 1.41298115e-05 1.5105876e-05 5.9335598e-05
0002c0 d3 17 86 38 a7 a8 88 38 73 f4 86 38 85 b8 80 38
       6.3940555e-05 6.516399e-05 6.43515e-05 6.137885e-05
0002d0 ce 5d 7d 38 3e cd 87 38 88 43 89 38 b7 94 81 38
       6.0407263e-05 6.475531e-05 6.545248e-05 6.1789e-05
0002e0 97 ea 73 38 27 4f 46 38 52 d2 57 38 27 9a 63 38
       5.8154194e-05 4.7280595e-05 5.145587e-05 5.4264583e-05
0002f0 d7 a3 4e 38 e5 15 47 38 0a 09 17 38 a3 e2 22 38
       4.9266815e-05 4.7465688e-05 3.6009624e-05 3.883488e-05
000300 0e a5 1c 38 01 f7 12 38 72 de 0b 38 ea 4b e0 37
       3.7347017e-05 3.5039153e-05 3.334735e-05 2.6738231e-05
000310 44 83 d1 37 ca 51 cc 37 5f e5 b8 37 12 26 a4 37
       2.4975867e-05 2.4356781e-05 2.2041319e-05 1.9568051e-05
000320 5e 2e 23 37 8d 94 6c 37 c7 ef ce 37 a3 30 0f 38
       9.726353e-06 1.4101283e-05 2.4668769e-05 3.4139153e-05
000330 e0 e7 35 38 65 40 20 b6 3e a4 d8 33 a0 01 46 37
       4.3369713e-05 -2.387934e-06 1.0088159e-07 1.1802098e-05
000340 dd fb b5 37 28 b3 02 38 3a 7a 84 b6 d3 94 15 b5
       2.1694164e-05 3.1161268e-05 -3.9481356e-06 -5.5723393e-07
000350 4f b3 1d 37 7f 77 93 37 e4 29 e1 37 3d d2 53 36
       9.399678e-06 1.757941e-05 2.6841597e-05 3.1563825e-06
000360 26 dd d2 36 49 56 08 37 74 2d 72 37 2b 34 ab 37
       6.2842328e-06 8.1263215e-06 1.4434907e-05 2.0409081e-05
000370 33 7c 6f 37 e2 e6 5b 37 0c 3a 50 37 82 64 4a 37
       1.42744275e-05 1.3107174e-05 1.2411281e-05 1.20635395e-05
000380 c7 d5 50 37 cd b4 42 35 07 1c 97 35 dc 71 89 35
       1.244754e-05 7.253373e-07 1.1258534e-06 1.0240433e-06
000390 c6 96 3a 35 de 89 ad 34 d2 d0 1e 35 86 81 c9 34
       6.9509804e-07 3.2324073e-07 5.916346e-07 3.7533408e-07
0003a0 fc 11 fc 34 d8 32 4f 34 07 40 b5 33 19 b2 eb 33
       4.6951743e-07 1.9296874e-07 8.440116e-08 1.0975436e-07
0003b0 82 11 81 34 f2 d1 d6 33 00 23 84 b3 83 ab b0 33
       2.404086e-07 1.00033404e-07 -6.1530955e-08 8.2268365e-08
0003c0 49 99 98 33 36 42 5c b2 cc 11 26 34 75 aa 21 b4
       7.105934e-08 -1.282074e-08 1.5466429e-07 -1.5056305e-07
0003d0 61 17 93 33 fb 58 d8 b3 06 e3 9f b3 0b 44 87 34
       6.8494735e-08 -1.0074469e-07 -7.44531e-08 2.5195217e-07
0003e0 f3 3d 0f b4 56 a2 03 b2 f2 e1 f9 37 48 81 2a 38
       -1.334045e-07 -7.6621145e-09 2.9788327e-05 4.065156e-05
0003f0 c8 ec 47 38 0d d1 3f 38 f5 f9 30 38 ee 81 e7 37
       4.7665817e-05 4.5732642e-05 4.219446e-05 2.759785e-05
