logs/biosr_ccps_rcan_model-SRCNN_250305_lr0.0001_bs1_Ps256_Npatch128_N300/model_184.pth (torch, 695046 bytes, 15 tensors)

conv1.weight f4 [64, 1, 9, 9]
0.0805586 -0.028448876 0.08326671 -0.02248021 0.04621834 -0.03912882 0.1340789 -0.012014983
0.20331681 -0.027683513 -0.092541985 0.048438054 -0.04963438 0.03140146 0.043034304 0.030170482
0.077150516 0.10606956 0.0853271 0.038232002 -0.096301645 -0.018639123 -0.05143477 -0.094178
-0.06861385 -0.07239885 0.04968272 -0.102842286 -0.034421206 0.023297418 -0.077131435 -0.10045041
0.0017101027 -0.030976059 -0.042279735 0.07372218 -0.07294981 -0.06268975 -0.0041306345 0.043370835
-0.031940326 0.07191176 0.05140392 0.064764574 0.02346424 -0.036585543 -0.097923726 -0.0017482592
-0.09462402 0.025747973 0.026118249 0.021850487 0.053239997 0.12423689 -0.05446579 -0.02823006
-0.009046676 0.032444455 0.07776131 0.06027647 -0.04627906 0.10464577 0.0064894794 0.037631813
0.035833225 0.0017331732 -0.05125391 -0.052067146 0.009943358 -0.066251285 -0.022306865 -0.06731876
0.04284957 -0.024020024 0.021443008 0.055551175 -0.048661668 -0.008056102 -0.08543993 -0.005813506
-0.06949387 -0.04744696 -0.0041204267 -0.029023604 0.007208528 0.072209865 -0.03184485 -0.12297771
0.056380212 -0.01670825 0.019595323 -0.017378487 0.057537958 -0.10122408 0.06944611 0.074052475
0.07204581 0.03465585 0.09035101 0.033903453 0.018686388 -0.02195104 0.08491027 0.07402597
-0.049193837 0.012402774 -0.094157174 -0.024401965 0.027580751 -0.013421971 -0.119528286 0.083491184
0.030585088 -0.091101296 -0.10452984 -0.047231156 -0.09347386 -0.06241301 -0.059562005 -0.10121913
0.048140574 0.11837515 0.002387278 -0.04182846 0.08589229 -0.10458813 -0.034195043 -0.09404188
0.033315316 -0.08662867 -0.09285656 0.044991206 -0.067023195 -0.09336777 0.003426386 -0.05072436
0.06977599 0.007854156 0.007147232 -0.041136447 0.059605993 0.07120827 0.08413341 0.013321719
-0.11678786 0.009526627 -0.07215856 -0.09364042 0.07228756 0.041456718 0.033947676 0.109953664
0.03117682 -0.017636381 -0.029294379 0.04775215 0.016706835 -0.064463995 -0.0974269 0.06776722
0.07384322 0.122521035 0.06466908 0.12359225 -0.05047062 0.06153644 0.036696967 0.027801106
-0.07641503 -0.06595541 0.04647013 0.11109186 0.07241517 -0.030901661 0.11868122 0.056842588
0.017810129 0.020679733 0.087973215 0.07406009 0.083466135 -0.05196913 0.09317516 0.09861396
-0.00045687944 0.059905224 -0.071972564 -0.108193055 -0.0843937 0.11954088 0.107599884 0.02161492
0.09641779 0.08353435 -0.042032685 0.02251009 -0.061935294 -0.12773453 0.109314114 -0.04013098
-0.031138789 0.020808773 0.06821043 0.079327464 -0.030298995 0.004647092 -0.0053715035 -0.036902603
-0.012751585 0.021425525 -0.07855321 0.050387334 -0.10873178 0.02465844 -0.11115324 -0.13649055
0.029348625 0.023913227 -0.04265908 0.06385522 0.08902498 0.010080558 -0.107676096 -0.115292326
-0.16044849 0.009271424 0.10420392 0.012716224 -0.09783701 0.06972493 0.028254183 -0.08015995
-0.15166746 0.019442106 0.112803586 0.020414483 -0.036134653 -0.026195494 -0.044905473 -0.115527265
0.0063792598 -0.09497546 -0.12977304 0.106326275 -0.08567893 0.09774172 0.118617155 0.074588135
-0.034238014 -0.045461114 0.024797032 -0.07568548 0.049713705 -0.0047225375 0.008557196 0.11450681
00000000: e8fb a43d 9e0d e9bc bd87 aa3d 6b28 b8bc
00000010: 714f 3d3d 8b45 20bd fb4b 093e 7eda 44bc
00000020: 4832 503e 89c8 e2bc a786 bdbd fb66 463d
00000030: 6b4d 4bbd d19e 003d bd44 303d 1628 f73c
00000040: 1701 9e3d ff3a d93d f9bf ae3d 2999 1c3d
00000050: cc39 c5bd 13b1 98bc 44ad 52bd 65e0 c0bd
00000060: 6b85 8cbd d945 94bd 1c80 4b3d fa9e d2bd
00000070: 40fd 0cbd 3ada be3c 16f7 9dbd f2b8 cdbd
00000080: 8625 e03a 81c1 fdbc 842d 2dbd a8fb 963d
00000090: b666 95bd 7c63 80bd 465a 87bb 9ea5 313d
000000a0: dcd3 02bd 7946 933d eb8c 523d 4aa3 843d
000000b0: 1438 c03c b9da 15bd 3c8c c8bd d825 e5ba
000000c0: 3dca c1bd 6aed d23c f0f5 d53c cbff b23c
000000d0: 2f12 5a3d e96f fe3d 8517 5fbd ba42 e7bc
000000e0: 8238 14bc 7ae4 043d 5241 9f3d 76e4 763d
000000f0: 1d8f 3dbd 8550 d63d b3a5 d43b d123 1a3d
00000100: dcc5 123d a42b e33a 9fef 51bd 5c44 55bd
00000110: 77e9 223c c1ae 87bd e3bc b6bc 6bde 89bd
00000120: 0883 2f3d a4c5 c4bc 3fa9 af3c a189 633d
00000130: 7551 47bd befd 03bc 21fb aebd 397f bebb
00000140: cd52 8ebd be57 42bd a504 87bb e9c2 edbc
00000150: 8435 ec3b c4e2 933d bf6f 02bd bddb fbbd
00000160: f0ee 663d bddf 88bc 5f86 a03c 545d 8ebc
00000170: ecac 6b3d 924e cfbd c339 8e3d d3a8 973d
00000180: c18c 933d 4bf3 0d3d f309 b93d 59de 0a3d
00000190: 3214 993c abd2 b3bc 70e5 ad3d ee9a 973d
000001a0: 7a7f 49bd 0135 4b3c 7ad5 c0bd a1e6 c7bc
000001b0: 07f1 e13c d4e7 5bbc 3fcb f4bd 6dfd aa3d
000001c0: 948d fa3c 5193 babd be13 d6bd 7575 41bd
000001d0: 396f bfbd c9a4 7fbd 4af7 73bd fa4b cfbd
000001e0: 0d2f 453d ac6e f23d e173 1c3b 5254 2bbd
000001f0: 4ce8 af3d 4d32 d6bd 1a10 0cbd 0799 c0bd
00000200: a475 083d 5f6a b1bd 952b bebd b348 383d
00000210: 7543 89bd 9a37 bfbd 388d 603b 59c4 4fbd
00000220: b7e6 8e3d b8ae 003c 5433 ea3b b17e 28bd
00000230: 6a25 743d a4d5 913d 234e ac3d 5743 5a3c
00000240: 792e efbd 9215 1c3c dec7 93bd 8cc6 bfbd
00000250: 800b 943d 85ce 293d b80c 0b3d 632f e13d
00000260: 8866 ff3c 2c7a 90bc c4fa efbc c297 433d
00000270: c6dc 883c b305 84bd c187 c7bd 8ac9 8a3d
00000280: 1d3b 973d 4fec fa3d 3971 843d ef1d fd3d
00000290: 48ba 4ebd a20d 7c3d 8f4f 163d 25bf e33c
000002a0: 7c7f 9cbd a113 87bd 7757 3e3d 2184 e33d
000002b0: 684e 943d 7b25 fdbc 240f f33d c6d3 683d
000002c0: 8ce6 913c 8b68 a93c 4d2b b43d d1ac 973d
000002d0: 4bf0 aa3d 95dd 54bd 9ed2 be3d 1ef6 c93d
000002e0: 5289 efb9 2e5f 753d 5a66 93bd 5294 ddbd
000002f0: 9bd6 acbd d9d1 f43d 545d dc3d c611 b13c
00000300: b176 c53d 0f14 ab3d 772a 2cbd 1567 b83c
00000310: ddaf 7dbd d7cc 02be 14e0 df3d 6260 24bd
00000320: c616 ffbc 2977 aa3c e9b1 8b3d 7076 a23d
00000330: 9935 f8bc a246 983b 7003 b0bb 2f27 17bd
00000340: 06ec 50bc 9584 af3c 81e0 a0bd f362 4e3d
00000350: c4ae debd 7f00 ca3c 4fa4 e3bd 2ec4 0bbe
00000360: 876c f03c ace5 c33c 4abb 2ebd 87c6 823d
00000370: bb52 b63d ed28 253c 4985 dcbd 621e ecbd
00000380: 9c4c 24be 2ce7 173c dd68 d53d b657 503c
00000390: c55e c8bd f2cb 8e3d 5175 e73c e62a a4bd
000003a0: b74e 1bbe 0d45 9f3c 9105 e73d 463c a73c
000003b0: ee01 14bd ef97 d6bc cdee 37bd 8f99 ecbd
000003c0: 1c09 d13b 7e82 c2bd 39e3 04be 97c1 d93d
000003d0: 6f78 afbd d02c c83d 8ded f23d aac1 983d
000003e0: 293d 0cbd 6f35 3abd 2523 cb3c fd00 9bbd
000003f0: 99a0 4b3d 84bf 9abb 7b33 0c3c 8c82 ea3d

conv1.bias f4 [64]
0.026461745 0.051667377 0.017491788 0.005219966 -0.10223978 0.07638421 0.09176334 -0.07399733
-0.037938558 0.029533679 -0.03674549 -0.017219445 -0.10276485 -0.016782576 -0.08004687 -0.06532829
0.09182617 -0.024117695 -0.0029885725 -0.020576872 -0.03599755 -0.10303088 -0.117114484 -0.018747551
-0.018676745 0.018200552 -0.026220914 -0.07982028 -0.07499619 -0.06173129 -0.031714745 -0.019903772
-0.08005268 -0.08339543 0.06769138 -0.001982438 -0.07240261 0.04899508 -0.025325168 0.15722026
0.047686458 0.0609137 -0.020832155 -0.020584326 0.03363529 -0.12149505 -0.012051232 -0.034965843
0.02214611 -0.031612795 0.107052766 -0.06272093 0.005736236 -0.0030738954 0.0682765 -0.059177563
0.036485158 -0.081076875 0.009685948 0.011289282 -0.015639497 0.00057350495 0.054579128 -0.08375542
00000000: 4dc6 d83c 2ca1 533d f04a 8f3c 400c ab3b
00000010: 1763 d1bd 536f 9c3d 6bee bb3d ea8b 97bd
00000020: 7665 1bbd 9df0 f13c 7082 16bd cb0f 8dbc
00000030: 6176 d2bd 9d7b 89bc 9def a3bd d7ca 85bd
00000040: 5c0f bc3d 7992 c5bc eddb 43bb d490 a8bc
00000050: 2b72 13bd db01 d3bd b8d9 efbd 7794 99bc
00000060: f9ff 98bc 5319 953c 3ecd d6bc d178 a3bd
00000070: 9a97 99bd f3d9 7cbd 52e7 01bd 3c0d a3bc
00000080: a9f2 a3bd 39cb aabd c7a1 8a3d caeb 01bb
00000090: d247 94bd 11af 483d ba76 cfbc 59fe 203e
000000a0: e052 433d a580 793d 32a8 aabc 76a0 a8bc
000000b0: 28c5 093d 66d2 f8bd 8872 45bc 5838 0fbd
000000c0: c26b b53c 6b7c 01bd 7b3e db3d d573 80bd
000000d0: 09f7 bb3b 6873 49bb 8dd4 8b3d 2c64 72bd
000000e0: 7671 153d a20b a6bd cfb1 1e3c aef6 383c
000000f0: 671e 80bc 4457 163a 5d8e 5f3d f687 abbd

conv2.weight f4 [32, 64, 5, 5]
-0.023152297 -0.038214162 0.015009974 -0.010357788 0.030760184 0.005034809 -0.011100588 0.025697283
-0.007973182 0.010322837 -0.0036101886 -0.006232887 -0.0064079817 -0.019453352 0.0019080053 -0.044033673
-0.021035977 -0.034573663 -0.0339997 -0.00035489976 0.0005817161 0.016612131 0.019659866 0.037282314
0.050430406 -0.11726361 -0.018263932 0.05399967 0.0008178826 -0.025780555 -0.00037463187 -0.03737099
0.058059763 0.038763776 0.0015758036 -0.06820881 -0.08519638 -0.0051718084 -0.02114016 -0.008617942
-0.09145897 -0.08270462 -0.022528153 -0.012333344 -0.011660665 -0.052509844 -0.016530713 0.006095138
0.0031515788 -0.0250885 0.01678803 0.008462588 0.02279478 0.029304428 0.014968945 -0.029105587
-0.013375195 -0.015852787 -0.0134125035 0.010920942 -0.031163473 -0.0010343223 -0.0083122235 0.01017366
0.011777143 -0.044550702 -0.004747975 -0.03403067 0.033199463 0.062365342 -0.004259781 0.01127927
0.01944358 0.051539823 0.16278331 0.021426057 -0.02747877 -0.0055278605 -0.00610072 0.029964471
0.0099858865 0.004688246 -0.037345693 -0.009324442 0.015850969 -0.012022565 0.007046882 0.0030934114
0.02396433 0.015814532 -0.007292861 -0.03574979 -0.0136048645 -0.007143258 -0.026601538 -0.03267931
-0.046730008 -0.050494693 -0.119874686 -0.16760944 0.0038280257 0.011348526 0.007900771 -0.01837979
-0.04652169 0.018351534 0.005242534 -0.004861569 0.0074460506 -0.04899532 0.033411674 0.023962291
0.0032308677 -0.0019585541 -0.032752372 -0.0016072491 0.020449033 -0.04746408 -0.03270474 -0.024858598
0.06326658 0.011364457 0.03848197 0.045455188 0.059537854 0.0052452027 0.01275117 0.0013165277
0.018552497 -0.018525114 0.002115026 0.008195025 -0.0039577577 0.0075546787 -0.031501096 -0.028711371
-0.026273388 -0.027779525 -0.03397629 -0.030406771 0.0026309318 -0.0086061405 0.0022183629 0.015388611
-0.0011308183 0.010237908 0.030133191 0.018039715 0.0279494 0.014756597 0.0034463007 0.03343045
0.05393019 -0.025333712 -0.060748454 -0.004599353 -0.005175746 -0.024639871 -0.068896845 -0.042280223
0.008874268 -0.008779003 -0.009891527 -0.059603967 -0.0028508469 0.053024463 0.018953323 -0.05254984
0.005469014 0.0075006178 0.042837635 0.040874697 -0.04287968 0.017083738 0.073684044 -0.021621164
-0.030620756 0.012772888 -0.01883315 -0.031358756 -0.03255138 0.015158423 0.022816842 -0.022426732
0.02427481 0.0019200312 0.03663197 0.015699895 -0.006423155 -0.011017761 0.02238702 -0.001206422
-0.012304611 0.014885858 0.037070844 0.035037864 0.012408913 0.015551599 0.05820073 0.109769836
0.03935177 -0.054395106 -0.032992035 -0.01925131 -0.047171745 -0.011471187 -0.030796353 -0.04039523
-0.0037222868 0.01914357 -0.09829691 -0.029758735 -0.07480527 -0.051306974 0.1001014 -0.15109155
-0.11604464 -0.07969427 -0.048938535 0.08726701 -0.06754509 -0.07470879 -0.052978303 0.053696018
0.14989671 0.01876998 -0.008354825 -0.0071093366 -0.041048408 -0.031497996 0.041462027 0.0021631354
-0.02060784 -0.06351612 0.045122527 -0.08492512 -0.05175811 -0.07212618 -0.051798575 0.08297062
-0.118456334 -0.08628848 -0.011671626 0.077685356 0.076443166 -0.10825381 -0.03359473 -0.019813929
0.28806677 0.028912455 0.06546607 -0.023648614 -0.05261569 -0.0744655 -0.1212772 0.056299385
00000000: e3a9 bdbc 7486 1cbd 65ec 753c b6b3 29bc
00000010: c8fc fb3c 0afb a43b 3edf 35bc 1c83 d23c
00000020: f3a1 02bc 1e21 293c ea98 6cbb 3f3d ccbb
00000030: 0cfa d1bb a35c 9fbc 0916 fa3a a75c 34bd
00000040: a453 acbc 1d9d 0dbd 4543 0bbd d711 bab9
00000050: 4f7e 183a 2a16 883c ba0d a13c 57b5 183d
00000060: 1d90 4e3d e727 f0bd 3e9e 95bc c22e 5d3d
00000070: 2c67 563a be31 d3bc 3d6a c4b9 5312 19bd
00000080: 13d0 6d3d c4c6 1e3d 328b ce3a 10b1 8bbd
00000090: 717b aebd 4678 a9bb 212e adbc 4532 0dbc
000000a0: d74e bbbd 0a61 a9bd f68c b8bc cb11 4abc
000000b0: 600c 3fbc 9014 57bd 6b6b 87bc b9b9 c73b
000000c0: b88a 4e3b 6686 cdbc 0d87 893c aba6 0a3c
000000d0: 1ebc ba3c d70f f03c 4e40 753c d76e eebc
000000e0: a223 5bbc b4dd 81bc 1ec0 5bbc c0ed 323c
000000f0: 8a4a ffbc 1992 87ba fe2f 08bc 6caf 263c
00000100: ebf4 403c cc7a 36bd e794 9bbb be63 0bbd
00000110: 29fc 073d cd72 7f3d a295 8bbb b0cc 383c
00000120: 2548 9f3c 6c1b 533d abb0 263e b385 af3c
00000130: 281b e1bc 0e23 b5bb 8ce8 c7bb 0d78 f53c
00000140: d89b 233c dc9f 993b ccf7 18bd 8bc5 18bc
00000150: e4d9 813c 4bfa 44bc 88e9 e63b d5ba 4a3b
00000160: d850 c43c 7a8d 813c f4f8 eebb 5f6e 12bd
00000170: f0e6 5ebc fe11 eabb 78eb d9bc bdda 05bd
00000180: f767 3fbd 86d3 4ebd dc80 f5bd cfa1 2bbe
00000190: 9ddf 7a3b 2bef 393c 3c72 013c 3791 96bc
000001a0: 878d 3ebd f555 963c 90c9 ab3b cc4d 9fbb
000001b0: 00fe f33b 51af 48bd aeda 083d 914c c43c
000001c0: f7bc 533b 165b 00bb 5a27 06bd 55aa d2ba
000001d0: bb84 a73c b269 42bd 68f5 05bd 42a4 cbbc
000001e0: e991 813d fd31 3a3c 459f 1d3d 382f 3a3d
000001f0: f7dd 733d f3df ab3b 49ea 503c 578f ac3a
00000200: 68fb 973c fbc1 97bc 409c 0a3b 6d44 063c
00000210: 14b0 81bb 3d8d f73b 4b07 01bd 1c34 ebbc
00000220: 4a3b d7bc e391 e3bc b92a 0bbd 9f17 f9bc
00000230: b66b 2c3b c500 0dbc f461 113b 8320 7c3c
00000240: f737 94ba e6bc 273c e2d9 f63c 06c8 933c
00000250: 24f6 e43c a7c5 713c 55db 613b 5eee 083d
00000260: e7e5 5c3d a588 cfbc 5fd3 78bd 2bb6 96bb
00000270: 4e99 a9bb 8ed9 c9bc ca19 8dbd 072e 2dbd
00000280: 6165 113c cfd5 0fbc 1210 22bc 4a23 74bd
00000290: 46d5 3abb 2e30 593d 0044 9b3c 803e 57bd
000002a0: 6a35 b33b bec7 f53b 8476 2f3d 3a6c 273d
000002b0: 9aa2 2fbd 32f3 8b3c a9e7 963d de1e b1bc
000002c0: 61d8 fabc 6045 513c fa47 9abc 0a72 00bd
000002d0: 9954 05bd 095b 783c 63ea ba3c 44b8 b7bc
000002e0: f7db c63c 8ea9 fb3a 680b 163d 119d 803c
000002f0: 5479 d2bb d783 34bc fc64 b73c ce20 9eba
00000300: 4799 49bc d0e3 733c 99d7 173d dd83 0f3d
00000310: c14e 4b3c 22cc 7e3c e363 6e3d 02cf e03d
00000320: 522f 213d 67cd 5ebd a822 07bd ecb4 9dbc
00000330: 2937 41bd a5f1 3bbc a248 fcbc 7875 25bd
00000340: 9cf1 73bb fad2 9c3c e44f c9bd 97c8 f3bc
00000350: 8133 99bd 4327 52bd f601 cd3d beb7 1abe
00000360: d0a8 edbd c036 a3bd c673 48bd 0cb9 b23d
00000370: 1555 8abd ec00 99bd c7ff 58bd 5bf0 5b3d
00000380: 867e 193e 80c3 993c ade2 08bc 70f5 e8bb
00000390: 6022 28bd 0b04 01bd 16d4 293d 64c3 0d3b
000003a0: c6d1 a8bc bd14 82bd 66d2 383d 39ed adbd
000003b0: 5000 54bd e4b6 93bd be2a 54bd 80ec a93d
000003c0: 3c99 f2bd 04b8 b0bd 593a 3fbc 8019 9f3d
000003d0: 3c8e 9c3d 2cb4 ddbd a19a 09bd d250 a2bc
000003e0: 7d7d 933e d0d9 ec3c 1313 863d bdba c1bc
000003f0: 8d83 57bd 5e81 98bd 2e60 f8bd 2f9a 663d

conv2.bias f4 [32]
0.0055182725 -0.033669937 0.0121996235 -0.022505134 0.015019253 -0.016890718 -0.022547437 0.01844145
-0.012493197 -0.019023772 -0.024966061 0.014184723 -0.011810937 -0.015380375 0.016220815 -0.02909368
-0.025972236 -0.014167889 0.0017123591 -0.057894252 0.050249256 -0.008875274 -0.010764526 0.0041521355
-0.017941406 -0.010175471 -0.019009378 0.020146599 -0.027175374 0.0038516412 0.02038045 -0.026620029
00000000: a0d2 b43b 7de9 09bd eee0 473c b05c b8bc
00000010: 5013 763c 675e 8abc 67b5 b8bc 8612 973c
00000020: 44b0 4cbc bed7 9bbc a085 ccbc 0a67 683c
00000030: a982 41bc f8fd 7bbc 84e1 843c df55 eebc
00000040: bac3 d4bc 6f20 68bc 3d71 e03a 8622 6dbd
00000050: 2ad2 4d3d 9969 11bc b25d 30bc a30e 883b
00000060: dbf9 92bc 05b7 26bc 8eb9 9bbc 7b0a a53c
00000070: e49e debc d16b 7c3b e7f4 a63c 3f12 dabc

conv3.weight f4 [1, 32, 5, 5]
-0.050113287 -0.018135801 -0.024018573 -0.032511406 0.002828404 0.0049272035 -0.029032841 -0.053187545
-0.012344609 0.015799183 0.019293912 -0.045257274 -0.041593365 -0.0017945446 0.009003293 -0.00555312
-0.024164546 -0.029074471 -0.01483968 0.017322006 0.070982166 0.0566072 0.049304463 0.04043824
0.12155397 -0.04084792 -0.02737139 -0.04456304 -0.009437283 -0.0031036285 -0.04105786 -0.053491097
-0.024021178 -0.014107354 -0.0321447 -0.032794364 -0.014264475 -0.04081782 -0.02648512 -0.013909108
-0.04031064 0.011504898 -0.038882922 -0.01270159 -0.022562642 -0.006753139 -0.057655197 -0.017631931
-0.027951501 -0.0015044921 0.036488317 -0.014880689 0.0064675277 0.033109028 0.034385078 -0.008603622
0.017269302 -0.020205252 -0.013950726 -0.026515076 0.013003628 -0.028897876 -0.016221931 -0.014503212
0.0047121886 0.0053372723 -0.0067800456 -0.027245887 -0.004937272 0.017335793 0.012622622 -0.017169451
-0.0055328114 -0.0320433 0.01900252 -0.031487107 -0.02182735 -0.05423265 -0.049664244 -0.025604088
-0.010603387 0.0234799 0.021067992 -0.012615274 0.028640922 -0.004774694 -0.018362118 0.016236773
-0.0051589073 0.03277925 0.01102265 0.012296741 -0.02219991 -0.00789085 0.03903945 0.048850704
0.02609151 0.0058523747 0.03778438 0.08232129 -0.07681031 -0.03907148 -0.023219435 -0.012502604
-0.068081506 -0.0029192732 -0.0046551395 0.038647432 -0.019975808 -0.018356262 -0.027029501 -0.0037898694
0.017515052 -0.0015708316 0.012884146 -0.023124194 0.019860238 -0.008786763 -0.012914103 0.008154664
-0.013817374 0.03548479 0.030094499 0.004853429 0.011853911 -0.11056367 -0.081883036 -0.044145327
-0.057368036 -0.06505784 -0.034292772 -0.033097316 -0.03331857 -0.03268581 -0.03227918 -0.0818661
-0.020508394 -0.058157526 0.0025569291 -0.06860544 -0.055765178 -0.00732192 -0.03415259 -0.03504644
-0.0150604835 -0.080051884 -0.053591497 -0.045819435 -0.013383962 -0.037176054 0.041721616 -0.0072964677
-0.006129723 0.03708439 0.029864928 -0.009558045 -0.002679408 -0.011807429 0.0017593253 0.033065334
-0.028641932 0.007111988 -0.0030317765 -0.007487054 0.010238285 0.027555313 -0.01799435 -0.0083392495
0.004239293 0.010593833 0.015955383 0.029288793 0.014676697 0.024549266 0.007166729 0.07503795
0.06971327 0.02153847 0.0077078813 0.0409145 0.08086372 0.02038139 0.022742331 0.017099561
0.031261437 0.06264524 -0.009595898 0.036591228 -0.010726671 -0.0033722203 0.03179389 0.031565953
0.032987036 0.0035394055 0.012357438 0.024743093 0.02250674 0.018999454 0.004831609 0.04244921
0.04492611 0.041890316 0.047978215 0.03591397 0.073882714 -0.001160623 0.039273195 0.0025306337
0.024443155 0.057065293 0.018131558 0.024272446 0.042416308 0.005499388 0.019784538 0.02170147
0.011422599 0.026927741 0.020283686 0.007824347 0.029147118 0.013154326 0.03034341 -0.014994989
0.023679098 0.042605482 0.028510109 0.024962738 0.050119027 0.03832513 0.043085445 0.025698712
0.010071983 0.023298908 0.037924852 -0.00011635592 3.7295747e-05 0.017681368 0.03573884 0.024974855
0.034750875 0.04302596 0.025895443 0.005966037 0.044295195 0.051488213 0.055339552 0.0406667
0.038692553 0.07320185 0.027703745 -0.0052423347 0.014979261 -0.0036224532 0.041739035 0.0020817565
00000000: 9743 4dbd 8891 94bc 99c2 c4bc ae2a 05bd
00000010: bf5c 393b 6174 a13b 48d6 edbc 2fdb 59bd
00000020: 0b41 4abc 4a6d 813c 440e 9e3c b15f 39bd
00000030: ce5d 2abd ed36 ebba 8c82 133c f2f6 b5bb
00000040: baf4 c5bc 962d eebc 2122 73bc e1e6 8d3c
00000050: 195f 913d f4dc 673d 7af3 493d 91a2 253d
00000060: 4af1 f83d 2650 27bd f739 e0bc bc87 36bd
00000070: d59e 1abc 3f66 4bbb 492c 28bd 7b19 5bbd
00000080: 10c8 c4bc 8822 67bc 29aa 03bd 6253 06bd
00000090: 8bb5 69bc 9630 27bd 53f7 d8bc 07e3 63bc
000000a0: c51c 25bd 0a7f 3c3c b343 1fbd 541a 50bc
000000b0: 4ad5 b8bc 7049 ddbb db27 6cbd d770 90bc
000000c0: 8cfa e4bc 6132 c5ba c674 153d 22ce 73bc
000000d0: 8eed d33b 559d 073d 5ed7 0c3d 35f6 0cbc
000000e0: 5a78 8d3c 7c85 a5bc 9691 64bc 2536 d9bc
000000f0: 2b0d 553c 3dbb ecbc dbe3 84bc e19e 6dbc
00000100: b468 9a3b 49e4 ae3b 252b debb c432 dfbc
00000110: d7c8 a1bb cb03 8e3c 1dcf 4e3c f3a6 8cbc
00000120: 964c b5bb d63f 03bd 2cab 9b3c a0f8 00bd
00000130: 45cf b2bc 0e23 5ebd bc6c 4bbd aabf d1bc
00000140: d4b9 2dbc eb58 c03c c896 ac3c 4bb0 4ebc
00000150: 5ea0 ea3c 0975 9cbb 276c 96bc fb02 853c
00000160: 0d0c a9bb 8943 063d 5898 343c 4578 493c
00000170: 96dc b5bc a048 01bc d5e7 1f3d ad17 483d
00000180: ddbd d53c 47c5 bf3b cbc3 1a3d 1198 a83d
00000190: b94e 9dbd 6b09 20bd af36 bebc b9d7 4cbc
000001a0: 516e 8bbd 4751 3fbb 248a 98bb c54c 1e3d
000001b0: 4ea4 a3bc df5f 96bc f96c ddbc 755f 78bb
000001c0: ba7b 8f3c 5de4 cdba 0618 533c f36e bdbc
000001d0: f0b1 a23c 5bf6 0fbc ad95 53bc 249b 053c
000001e0: 4462 62bc 8058 113d bd88 f63c 8309 9f3b
000001f0: e836 423c 356f e2bd 4bb2 a7bd bbd1 34bd
00000200: bffa 6abd 0b3d 85bd 9476 0cbd 0d91 07bd
00000210: 0e79 08bd 8ee1 05bd 2c37 04bd 6aa9 a7bd
00000220: 3801 a8bc 9636 6ebd 2792 273b 0281 8cbd
00000230: 076a 64bd b7ec efbb 96e3 0bbd db8c 0fbd
00000240: 3fc0 76bc 3ef2 a3bd c282 5bbd 29ad 3bbd
00000250: 6848 5bbc eb45 18bd 49e4 2a3d 3517 efbb
00000260: d8db c8bb cde5 173d 4ba7 f43c 5999 1cbc
00000270: 0299 2fbb f273 41bc 2999 e63a 846f 073d
00000280: 7ca2 eabc ae0b e93b c5b0 46bb f655 f5bb
00000290: 7bbe 273c aebb e13c e368 93bc 59a1 08bc
000002a0: c4e9 8a3b c291 2d3c ddb4 823c 0def ef3c
000002b0: 8776 703c 8b1b c93c e1d6 ea3b 7fad 993d
000002c0: d5c5 8e3d 7271 b03c 6592 fc3b f695 273d
000002d0: e19b a53d dff6 a63c 204e ba3c 6114 8c3c
000002e0: fe0b 003d 264c 803d 1d38 1dbc afe0 153d
000002f0: ebbe 2fbc 7800 5dbb 4f3a 023d 4d4b 013d
00000300: 6a1d 073d 5ff5 673b da76 4a3c 07b2 ca3c
00000310: 0e60 b83c bea4 9b3c 7952 9e3b 39df 2d3d
00000320: 7104 383d 2e95 2b3d ce84 443d 871a 133d
00000330: d24f 973d 0c20 98ba eedc 203d fdd8 253b
00000340: 033d c83c 4cbd 693d a288 943c 02d7 c63c
00000350: b9bc 2d3d 3634 b43b 2f13 a23c 48c7 b13c
00000360: da25 3b3c 9197 dc3c f929 a63c b131 003c
00000370: f0c5 ee3c 3e85 573c be92 f83c 8bad 75bc
00000380: abfa c13c 1683 2e3d 088e e93c a87e cc3c
00000390: 9c49 4d3d d0fa 1c3d 5d7a 303d 1b86 d23c
000003a0: f504 253c 5add be3c 1757 1b3d 1c04 f4b8
000003b0: 016e 1c38 84d8 903c e462 123d 1198 cc3c
000003c0: ef56 0e3d fd3b 303d ae22 d43c bf7e c33b
000003d0: e16e 353d 4ee5 523d baab 623d 2092 263d
000003e0: 157c 1e3d daea 953d f7f2 e23c e4c7 abbb
000003f0: 936b 753c ae66 6dbb 8df6 2a3d 146e 083b

exp_avg f4 [64, 1, 9, 9]
0.0014002242 0.0013676346 0.001362959 0.0012692243 0.0012047943 0.001159183 0.0011448392 0.0011414305
0.0012635643 0.0014579353 0.0014930101 0.0014443893 0.0013396305 0.0012196888 0.0011634808 0.0011182175
0.0010972379 0.0012060414 0.0015638856 0.0015977937 0.0015039378 0.0014172193 0.0012443459 0.001114508
0.0010257768 0.0010234575 0.0011498726 0.0016396825 0.0017133189 0.0016616038 0.0015226413 0.001285343
0.0010718324 0.00096898293 0.0009753543 0.0011089712 0.0017533336 0.0018121011 0.0017562342 0.0016362449
0.0012987503 0.001047998 0.0008726734 0.00090789417 0.0010648497 0.0018735979 0.0019598955 0.001895503
0.0016986369 0.0013946601 0.0010626849 0.00082803617 0.00089862064 0.0010370363 0.0018712669 0.0019755864
0.0019363199 0.001772974 0.0015221074 0.0011688885 0.0009925807 0.0010345874 0.0011031247 0.0018005957
0.0018733629 0.0019248358 0.0018192235 0.0015874133 0.0013668375 0.0011568536 0.0011587845 0.001177247
0.0016856104 0.0017087979 0.0017477486 0.0017292136 0.0016409013 0.0015035158 0.0013588755 0.0012951631
0.0012788477 -0.0008415717 -0.00086382934 -0.0009082762 -0.0010152394 -0.0010371312 -0.0010049609 -0.00093826425
-0.0009182201 -0.00087849004 -0.00082717283 -0.00091066374 -0.0010155388 -0.0010528278 -0.0011122733 -0.0010916983
-0.0009888317 -0.00090687914 -0.0008969001 -0.00087019434 -0.00091614685 -0.0010109448 -0.0011662241 -0.0012018842
-0.0010769636 -0.0009937359 -0.0009019054 -0.0008738949 -0.00086341705 -0.0009312035 -0.001013179 -0.0011851325
-0.0011505897 -0.0010874752 -0.0009723996 -0.00091366435 -0.0008409106 -0.00084327057 -0.0008887636 -0.00097067584
-0.0010418126 -0.0011206544 -0.0010739032 -0.00097046373 -0.0008991597 -0.00079994753 -0.0008672281 -0.0008685498
-0.000929957 -0.00094193633 -0.0009721326 -0.0009955635 -0.0008962716 -0.0008362038 -0.0008263351 -0.0008173208
-0.00086616026 -0.0008710186 -0.0009386804 -0.0009277598 -0.0009663815 -0.0009286792 -0.0008462812 -0.0007887041
-0.0008112272 -0.0008386834 -0.0008555911 -0.00083262025 -0.00086229644 -0.0008784122 -0.00084864994 -0.0008354568
-0.00079347286 -0.00079983525 -0.00081721944 -0.00082846184 -0.0008410603 -0.00079459354 -0.0008051862 -0.00083191367
-0.0008293562 -0.00079206337 0.0064802 0.006450886 0.0063856854 0.006521759 0.006659401 0.0068622413
0.006963245 0.0070459256 0.0070701805 0.006421815 0.0064541777 0.006404525 0.0065733404 0.0066743544
0.0069756354 0.0071966466 0.0072915168 0.0072168484 0.0063799154 0.0063885334 0.00644596 0.0065184752
0.0067713857 0.006973002 0.0072699813 0.007445459 0.007309734 0.006411254 0.006408312 0.006398226
0.0065058563 0.0067873113 0.0070214123 0.007399486 0.0075241528 0.007429194 0.0063283173 0.0062736236
0.006304841 0.0064280056 0.006786182 0.007121097 0.0075221835 0.007681177 0.0075367386 0.00623613
0.0062689264 0.0063240365 0.0063886805 0.0067311954 0.007109903 0.007667257 0.007756461 0.0075853216
0.0062019085 0.0062529356 0.0062424866 0.0064264615 0.00674302 0.0071730996 0.0075203455 0.007747785
0.0076225726 0.0062266123 0.0063033244 0.006352779 0.0063441675 0.0067167766 0.0071093934 0.007502387
0.0077357935 0.0075212806 0.006273733 0.006353878 0.006366559 0.0064350995 0.00668653 0.0070441915
0.007381694 0.007520442 0.007415027 -0.0032430396 -0.0030595085 -0.0033097195 -0.0033462378 -0.003485041
-0.0034650685 -0.0034515457 -0.003380359 -0.003480001 -0.0031922867 -0.0032988668 -0.003379817 -0.0035183548
00000000: ba87 b73a 3442 b33a 51a5 b23a 1a5c a63a
00000010: 30ea 9d3a baef 973a 6e0e 963a 0d9c 953a
00000020: 2f9e a53a 3118 bf3a 1bb1 c33a aa51 bd3a
00000030: 8a96 af3a f7dd 9f3a f07f 983a 2791 923a
00000040: 32d1 8f3a 0914 9e3a 4bfb cc3a 0f6d d13a
00000050: c71f c53a fdc1 b93a 5219 a33a af14 923a
00000060: 5c73 863a 8925 863a 52b7 963a 9dea d63a
00000070: 7191 e03a 2cca d93a 5d93 c73a f478 a83a
00000080: ba7c 8c3a 5803 7e3a ebae 7f3a e65a 913a
00000090: 1dd0 e53a 0684 ed3a 7131 e63a 4577 d63a
000000a0: d43a aa3a fa5c 893a 1fc4 643a bfff 6d3a
000000b0: 6d92 8b3a 8393 f53a 9771 003b 8772 f83a
000000c0: cca4 de3a 07cd b63a ca49 8b3a 9110 593a
000000d0: 6991 6b3a 2aed 873a 4c45 f53a d778 013b
000000e0: 1dcc fd3a 2363 e83a 7381 c73a 6435 993a
000000f0: 7b19 823a fe9a 873a b996 903a f701 ec3a
00000100: a18b f53a c64a fc3a 0373 ee3a c010 d03a
00000110: 7527 b33a 91a1 973a 5be2 973a db4d 9a3a
00000120: b3ef dc3a bef9 df3a b614 e53a c8a6 e23a
00000130: 8313 d73a 9e11 c53a 4c1c b23a 76c2 a93a
00000140: 029f a73a ec9c 5cba 9b72 62ba 6219 6eba
00000150: c811 85ba 59f0 87ba e4b8 83ba d9f5 75ba
00000160: b5b4 70ba 784a 66ba a1d6 58ba 9cb9 6eba
00000170: d41b 85ba 0aff 89ba b3c9 91ba 5117 8fba
00000180: b09b 81ba a1bb 6dba f21d 6bba c11d 64ba
00000190: 9329 70ba ae81 84ba fddb 98ba 8b88 9dba
000001a0: e728 8dba 3e40 82ba d96d 6cba 1816 65ba
000001b0: f056 62ba 021c 74ba a5cc 84ba 7356 9bba
000001c0: 62cf 96ba 9d89 8eba a2e8 7eba fa82 6fba
000001d0: 8e70 5cba ee0e 5dba eafb 68ba f474 7eba
000001e0: 6e8d 88ba ece2 92ba 36c2 8cba b866 7eba
000001f0: 96b5 6bba 92b3 51ba b156 63ba 64af 63ba
00000200: 5cc8 73ba 47ec 76ba b7d6 7eba 917d 82ba
00000210: c5f3 6aba b034 5bba 699e 58ba 7841 56ba
00000220: 080f 63ba 1255 64ba c611 76ba e834 73ba
00000230: c454 7dba 9b72 73ba f8d8 5dba 09c1 4eba
00000240: 89a8 54ba 17db 5bba bf49 60ba 3344 5aba
00000250: bc0b 62ba 3f45 66ba ef77 5eba 8f02 5bba
00000260: 1001 50ba 09ac 51ba ab3a 56ba 222d 59ba
00000270: 9a7a 5cba 454c 50ba 2213 53ba c814 5aba
00000280: 2769 59ba 79a2 4fba dc57 d43b f461 d33b
00000290: 033f d13b 7bb4 d53b 1b37 da3b a7dc e03b
000002a0: ef2b e43b 82e1 e63b f9ac e73b 176e d23b
000002b0: 917d d33b 0ddd d13b 2d65 d73b 8bb4 da3b
000002c0: df93 e43b d9d1 eb3b aded ee3b 507b ec3b
000002d0: 9c0e d13b e756 d13b a238 d33b ef98 d53b
000002e0: 80e2 dd3b c87d e43b 0639 ee3b 09f9 f33b
000002f0: 7e86 ef3b 7f15 d23b d1fc d13b 36a8 d13b
00000300: 142f d53b 1868 de3b e013 e63b 6377 f23b
00000310: 2b8d f63b 9970 f33b c65d cf3b f892 cd3b
00000320: d798 ce3b 05a2 d23b 9f5e de3b 1758 e93b
00000330: a67c f63b 62b2 fb3b bff6 f63b 7358 cc3b
00000340: 916b cd3b dd39 cf3b 2358 d13b 5c91 dc3b
00000350: 30fa e83b 9d3d fb3b e929 fe3b 4a8e f83b
00000360: 6139 cb3b 6de5 cc3b c68d cc3b 1195 d23b
00000370: 8df4 dc3b 520c eb3b 3b6d f63b 22e1 fd3b
00000380: c6c6 f93b 9c08 cc3b 1e8c ce3b f92a d03b
00000390: bce2 cf3b 6818 dc3b eaf5 e83b 95d6 f53b
000003a0: 8a7c fd3b 1375 f63b e393 cd3b 3134 d03b
000003b0: 919e d03b 87dd d23b ae1a db3b f6d2 e63b
000003c0: 23e2 f13b 0a6e f63b c1f9 f23b 2d89 54bb
000003d0: 0982 48bb e1e7 58bb 8e4c 5bbb 4965 64bb
000003e0: 3416 63bb 5433 62bb 0389 5dbb ba10 64bb
000003f0: af35 51bb cd31 58bb eb7f 5dbb 3394 66bb

exp_avg_sq f4 [64, 1, 9, 9]
1.5254809e-05 1.46119055e-05 1.3953897e-05 1.3013915e-05 1.2972772e-05 1.30238905e-05 1.3202833e-05 1.4123736e-05
1.4882645e-05 1.6020012e-05 1.5508302e-05 1.4967217e-05 1.4050359e-05 1.3491031e-05 1.3466048e-05 1.3389983e-05
1.3507885e-05 1.4319383e-05 1.7407461e-05 1.7168404e-05 1.6784254e-05 1.6124666e-05 1.516397e-05 1.43230845e-05
1.3746217e-05 1.3573979e-05 1.3945151e-05 1.9136667e-05 2.0097174e-05 1.964771e-05 1.8260316e-05 1.705778e-05
1.5434201e-05 1.4428804e-05 1.3586524e-05 1.3812854e-05 2.1535758e-05 2.2337925e-05 2.2916534e-05 2.144793e-05
1.893295e-05 1.6643111e-05 1.46620805e-05 1.3709879e-05 1.3691124e-05 2.3389604e-05 2.4552297e-05 2.5252239e-05
2.3101456e-05 2.1057158e-05 1.80042e-05 1.5695789e-05 1.42111985e-05 1.3909424e-05 2.409033e-05 2.586566e-05
2.577266e-05 2.4061364e-05 2.1985168e-05 1.860453e-05 1.6491553e-05 1.5164469e-05 1.46906405e-05 2.3373132e-05
2.4579262e-05 2.4537845e-05 2.343736e-05 2.1070333e-05 1.92146e-05 1.6990818e-05 1.6160137e-05 1.5510754e-05
2.2187967e-05 2.2203913e-05 2.2389044e-05 2.1591119e-05 2.0818778e-05 1.9035102e-05 1.779119e-05 1.7142924e-05
1.6379023e-05 1.1171826e-05 1.2096489e-05 1.2913845e-05 1.4034429e-05 1.4708141e-05 1.3306325e-05 1.1979719e-05
1.2605308e-05 1.1709718e-05 1.1828626e-05 1.2688087e-05 1.482504e-05 1.4758122e-05 1.6485754e-05 1.546939e-05
1.40349575e-05 1.2768956e-05 1.2574913e-05 1.2206528e-05 1.34313605e-05 1.5011286e-05 1.791399e-05 1.8038189e-05
1.5200909e-05 1.40928205e-05 1.2145916e-05 1.1884975e-05 1.2229536e-05 1.3170094e-05 1.4149708e-05 1.801522e-05
1.7803635e-05 1.5144561e-05 1.3425407e-05 1.2598958e-05 1.1506206e-05 1.1602991e-05 1.25611805e-05 1.3644127e-05
1.666362e-05 1.813814e-05 1.5682572e-05 1.3857432e-05 1.3701927e-05 1.1486809e-05 1.1656285e-05 1.1875189e-05
1.3817993e-05 1.37953575e-05 1.4244307e-05 1.5130834e-05 1.3251905e-05 1.2161813e-05 1.1972122e-05 1.1394349e-05
1.2587119e-05 1.2694223e-05 1.3304619e-05 1.32398e-05 1.3930685e-05 1.3472064e-05 1.28885695e-05 1.1801866e-05
1.0857063e-05 1.1867373e-05 1.1598373e-05 1.1707084e-05 1.3033933e-05 1.2647364e-05 1.2383987e-05 1.2510543e-05
1.163773e-05 1.134994e-05 1.1398027e-05 1.2034111e-05 1.1873859e-05 1.1412002e-05 1.1115976e-05 1.1936011e-05
1.1836216e-05 1.1855856e-05 0.00017604828 0.0001790891 0.00018026303 0.00017781512 0.00017239091 0.00017006711
0.00016918199 0.00017046332 0.00017301783 0.0001811599 0.00018573237 0.00018688336 0.00018141611 0.00017419968
0.0001706075 0.000174303 0.00017830431 0.00017973746 0.00018517258 0.00019051316 0.00018919627 0.00018148916
0.00017356517 0.00017158483 0.00017831901 0.0001849376 0.00018688042 0.00018487585 0.00018858052 0.00018544591
0.00017604115 0.00017011947 0.00017423573 0.00018840726 0.00019730022 0.00019708466 0.00018081783 0.00018132653
0.00017535813 0.0001671949 0.00016747767 0.00018056073 0.00019899194 0.00021129941 0.00020851477 0.00017210098
0.00017102865 0.00016479337 0.00016011906 0.00016906759 0.00018474634 0.00020917667 0.00021467338 0.00021117908
0.00016330581 0.00016119887 0.00015757259 0.00016074708 0.00017306088 0.00019433138 0.00020816017 0.0002169458
0.00021072126 0.0001575049 0.00015694146 0.00015658763 0.00016031199 0.00017635831 0.0001941224 0.00020643717
0.0002092614 0.00020773745 0.00015665106 0.00015715105 0.00015803838 0.00016371768 0.00017410026 0.00018483988
0.00019834985 0.00020018705 0.00019442293 0.0001832099 0.00017122379 0.00018539396 0.00018856951 0.00018521296
0.00017546429 0.00017179459 0.00017362417 0.00016590189 0.00017994185 0.00017833538 0.00018291824 0.00019322702
00000000: e8ee 7f37 a825 7537 881b 6a37 5756 5a37
00000010: a2a5 5937 2f81 5a37 bc81 5d37 fcf4 6c37
00000020: 79b0 7937 b762 8637 d317 8237 b51b 7b37
00000030: d5b9 6b37 8957 6237 3cec 6137 8aa5 6037
00000040: ed9f 6237 483d 7037 3d06 9237 de04 9037
00000050: e9cb 8c37 7543 8737 c168 7e37 2e4d 7037
00000060: 8d9f 6637 ccbb 6337 f8f5 6937 ae87 a037
00000070: 5a96 a837 23d1 a437 bb2d 9937 4e17 8f37
00000080: b278 8137 3e13 7237 adf1 6337 c2bd 6737
00000090: b0a7 b437 5462 bb37 e23c c037 14eb b337
000000a0: 33d2 9e37 cf9c 8b37 28fd 7537 7b03 6637
000000b0: eeb2 6537 cb34 c437 a8f5 cd37 c5d4 d337
000000c0: 00ca c137 e7a3 b037 ba07 9737 73aa 8337
000000d0: a26c 6e37 855c 6937 9715 ca37 15fa d837
000000e0: 5e32 d837 63d7 c937 ca6c b837 ed10 9c37
000000f0: 5757 8a37 e66a 7e37 d277 7637 6b11 c437
00000100: 902f ce37 9fd6 cd37 599b c437 32c0 b037
00000110: 0a2f a137 8187 8e37 a18f 8737 171d 8237
00000120: 4c20 ba37 8a42 ba37 1bd0 bb37 931e b537
00000130: fca3 ae37 92ad 9f37 4a3e 9537 26ce 8f37
00000140: af65 8937 a16e 3b37 06f2 4a37 8ba8 5837
00000150: 6a75 6b37 fcc2 7637 3b3e 5f37 80fc 4837
00000160: 637b 5337 db74 4437 9073 4637 ebde 5437
00000170: 10b9 7837 a799 7737 e34a 8a37 43c4 8137
00000180: af77 6b37 403a 5637 d7f8 5237 a3ca 4c37
00000190: 4157 6137 fcd8 7b37 0046 9637 b750 9737
000001a0: 6807 7f37 3470 6c37 50c6 4b37 9465 4737
000001b0: 752d 4d37 1ff5 5c37 8864 6d37 641f 9737
000001c0: 0459 9537 6515 7e37 af3d 6137 1d60 5337
000001d0: c70a 4137 78aa 4237 dcbd 5237 14e9 6437
000001e0: dac8 8b37 5c27 9837 118e 8337 387d 6837
000001f0: 54e1 6537 78b7 4037 5d8f 4337 8c3b 4737
00000200: d4d3 6737 9c72 6737 d5fa 6e37 70da 7d37
00000210: 8054 5e37 970a 4c37 dfdb 4837 5b2a 3f37
00000220: 442d 5337 46f9 5437 e736 5f37 8220 5e37
00000230: d6b7 6937 1306 6237 fc3b 5837 a100 4637
00000240: bb26 3637 fb19 4737 a296 4237 8b69 4437
00000250: 51ac 5a37 0430 5437 d2c4 4f37 5fe4 5137
00000260: ab3f 4337 9f6b 3e37 273a 3f37 1de6 4937
00000270: d635 4737 2d76 3f37 c17e 3a37 c740 4837
00000280: 2994 4637 84e8 4637 9a99 3839 ddc9 3b39
00000290: fd04 3d39 e273 3a39 d5c3 3439 0b54 3239
000002a0: 7266 3139 66be 3239 1f6c 3539 bef5 3d39
000002b0: 27c1 4239 1ff6 4339 843a 3e39 5fa9 3639
000002c0: 1ae5 3239 1bc5 3639 33f7 3a39 e877 3c39
000002d0: e32a 4239 7dc4 4739 fd62 4639 204e 3e39
000002e0: 0cff 3539 74eb 3339 25fb 3a39 cfeb 4139
000002f0: 55f5 4339 3cdb 4139 b3bd 4539 4274 4239
00000300: b097 3839 1962 3239 0cb3 3639 308f 4539
00000310: 60e2 4e39 83a8 4e39 eb99 3d39 7822 3e39
00000320: 57e0 3739 0a51 2f39 f29c 2f39 e754 3d39
00000330: 7ea8 5039 4190 5d39 c2a4 5a39 0176 3439
00000340: 2756 3339 62cc 2c39 a2e5 2739 bc47 3139
00000350: 78b8 4139 6f56 5b39 f219 6139 f46f 5d39
00000360: 123d 2b39 7e07 2939 123a 2539 378e 2839
00000370: ad77 3539 6fc5 4b39 9245 5a39 f27b 6339
00000380: 0ff5 5c39 e627 2539 a790 2439 ac31 2439
00000390: 6c19 2839 d3ec 3839 568d 4b39 0e77 5839
000003a0: 2e6d 5b39 19d4 5939 b342 2439 eac8 2439
000003b0: 1bb7 2539 a1ab 2b39 af8e 3639 94d1 4139
000003c0: 22fc 4f39 4de9 5139 02de 4b39 081c 4039
000003d0: 898a 3339 5066 4239 beba 4539 ba35 4239
000003e0: d6fc 3739 c223 3439 e20e 3639 f3f5 2d39
000003f0: c6ae 3c39 8aff 3a39 becd 3f39 fc9c 4a39

exp_avg f4 [64]
0.004333085 -0.0034337498 0.020437641 -0.008862225 -0.026238436 0.0134677645 0.015768578 -0.00733109
-0.015340385 0.0006345464 0.0051384647 -0.013093878 -0.0044736527 -0.018413594 -0.005342791 -0.04116743
0.017912487 -0.042140756 -0.010981364 -0.047913495 -6e-45 -0.019944983 -0.003517082 -0.011257791
-0.021726407 -0.0048326463 -0.006070407 -1.5824668e-05 -0.016508441 -0.036987767 -0.010572058 -0.008869446
-0.038537715 -0.0033282782 -0.0024166307 -0.017368399 -0.031052973 -0.00063681765 -0.0032094156 -0.0011409902
-0.010400747 0.018558055 0.0020866233 -0.02352235 -0.0011339496 -0.019418757 -0.021126043 -0.0009477239
0.016006963 -0.00066224363 0.049239974 -0.03538944 0.010341321 -0.00814043 0.0001354175 -0.006322177
0.00407678 0.005653853 -0.010202866 -0.0018811601 -0.016929049 -0.0003455051 0.002179503 -0.014762397
00000000: 8dfc 8d3b c308 61bb d76c a73c de32 11bc
00000010: fdf1 d6bc e6a7 5c3c 1b2d 813c a439 f0bb
00000020: 3d56 7bbc b057 263a 9160 a83b b487 56bc
00000030: b897 92bb 1bd8 96bc 9412 afbb 2e9f 28bd
00000040: 35bd 923c c99b 2cbd 2eeb 33bc f140 44bd
00000050: 0400 0080 a963 a3bc d87e 66bb 9972 38bc
00000060: 94fb b1bc 2d5b 9ebb 44ea c6bb 37bf 84b7
00000070: b63c 87bc 7c80 17bd 6d36 2dbc 2751 11bc
00000080: b9d9 1dbd 3e1f 5abb 5660 1ebb 2c48 8ebc
00000090: ce62 febc 1cf0 26ba 0f55 52bb 478d 95ba
000000a0: e567 2abc 1007 983c bbbf 083b f1b1 c0bc
000000b0: 09a1 94ba 1614 9fbc 8610 adbc ad70 78ba
000000c0: 0921 833c 6b9a 2dba dbaf 493d 84f4 10bd
000000d0: a56e 293c 705f 05bc dcfe 0d39 442a cfbb
000000e0: 8296 853b f543 b93b ec29 27bc 4291 f6ba
000000f0: caae 8abc e924 b5b9 fed5 0e3b fbdd 71bc

exp_avg_sq f4 [64]
0.00014931898 0.00019355697 0.0015017125 0.0022596195 0.009324189 0.0020103185 0.0024223172 0.0033854584
0.0013265164 6.8853897e-06 0.0005762036 0.0014326203 0.000107945045 0.0031306564 0.00031323105 0.018010672
0.0031506598 0.029022183 0.0006772116 0.019744268 1.228e-42 0.0033493305 0.0012986722 0.0006340216
0.0029538218 0.00032705025 0.0008684149 0.001326149 0.0033604708 0.018326363 0.0011548481 0.0012466745
0.004980904 0.00046354515 0.00032431784 0.0028149753 0.016782055 0.00019516442 0.0007760241 0.00030136592
0.0034037048 0.0028440536 8.982483e-05 0.0018331463 0.00010834781 0.0058763293 0.01186344 0.0004578071
0.0010493444 3.7237067e-05 0.016917102 0.023689797 0.00029632804 0.00058124843 0.00027240982 0.0010010257
0.00039004767 0.0004029855 0.0011287226 4.402484e-05 0.0024722158 1.6839898e-05 0.0009894181 0.004907764
00000000: 8292 1c39 8ef5 4a39 1cd5 c43a 2016 143b
00000010: 7cc4 183c 8cbf 033b bdbf 1e3b 91de 5d3b
00000020: 81de ad3a 0c09 e736 5e0c 173a c3c6 bb3a
00000030: 8e60 e238 b32b 4d3b 2939 a439 1e8b 933c
00000040: 4d7b 4e3b eebf ed3c e786 313a bbbe a13c
00000050: 6c03 0000 7180 5b3b 3538 aa3a 7834 263a
00000060: e894 413b f177 ab39 56a6 633a 2dd2 ad3a
00000070: 583b 5c3b 2b21 963c 465e 973a 7467 a33a
00000080: da36 a33b fa07 f339 3409 aa39 737b 383b
00000090: 857a 893c 0da5 4c39 196e 4b3a a600 9e39
000000a0: b110 5f3b 4d63 3a3b 5760 bc38 2f46 f03a
000000b0: ca38 e338 398e c03b e05e 423c d405 f039
000000c0: 288a 893a ff2e 1c38 bc95 8a3c 1b11 c23c
000000d0: 7a5c 9b39 ec5e 183a 3ad2 8e39 d934 833a
000000e0: 507f cc39 cc47 d339 a5f1 933a 50a7 3838
000000f0: e604 223b 6843 8d37 5daf 813a 4fd1 a03b

exp_avg f4 [32, 64, 5, 5]
0.00010116782 0.000117306794 0.000114836264 0.00011868096 9.013389e-05 9.512456e-05 0.00011751297 0.00013036859
0.00010917105 0.000107788735 0.00011742194 0.00012872228 0.000104920684 9.525329e-05 5.1910618e-05 0.00013185342
0.00013745637 9.3982555e-05 8.473217e-05 5.3145734e-05 0.00015745203 0.00016351238 9.535494e-05 9.728812e-05
6.63685e-05 1.1427689e-05 1.132642e-05 6.7017545e-06 5.17116e-06 4.8532097e-06 8.062316e-06 9.7018365e-06
1.47729825e-05 9.814894e-06 1.1925133e-05 1.3701183e-05 1.16295405e-05 1.2843698e-05 1.2493805e-05 9.797427e-06
1.4440886e-05 1.7582162e-05 2.1600388e-05 1.96563e-05 1.2221064e-05 1.0585316e-05 8.928767e-06 1.1517577e-05
1.1231105e-05 6.1066526e-06 6.920583e-05 0.00010001426 0.00011963176 0.00015083059 0.00019906755 4.0050552e-05
5.41539e-05 0.00013619177 0.00018743916 0.00022491215 1.9261654e-05 3.877451e-05 9.307177e-05 0.00016381682
0.00021299608 3.612273e-05 6.553451e-05 0.00014531263 0.00017426757 0.00021841146 1.9033589e-05 6.401623e-05
0.00012811356 0.00020581318 0.00024345182 3.7301183e-05 4.580128e-05 4.8381557e-05 5.4478274e-05 6.898402e-05
3.9934304e-05 4.2988482e-05 5.6785026e-05 6.7658504e-05 7.039271e-05 3.6493682e-05 4.163119e-05 6.5712156e-05
8.445087e-05 9.158313e-05 3.3312248e-05 3.9346316e-05 5.9634345e-05 6.338272e-05 7.2677656e-05 2.8049082e-05
2.0859787e-05 3.3436896e-05 4.269156e-05 5.0607436e-05 1.876653e-05 2.7659986e-05 3.1486878e-05 2.9769415e-05
2.6976837e-05 3.2256674e-05 2.6881884e-05 3.360006e-05 3.708179e-05 2.3822742e-05 3.803155e-05 2.9180508e-05
2.8862685e-05 2.542192e-05 2.4770934e-05 2.8542026e-05 3.159275e-05 2.9245568e-05 2.7027962e-05 2.6632186e-05
2.4185678e-05 2.1662683e-05 2.19877e-05 2.1677823e-05 1.8268001e-05 0.00015880234 0.00014244136 0.00015947157
0.00013575912 0.00015134814 0.00013355749 0.0001214836 0.00012303004 0.00014303093 0.00013679394 0.00014280969
0.00011674737 0.00010179665 0.000120288016 0.0001258655 0.00012376145 9.587933e-05 9.0488946e-05 8.3776045e-05
0.000102088205 9.121663e-05 5.0401293e-05 7.889631e-05 8.24486e-05 0.00011232618 3.1193544e-05 3.8395418e-05
3.4088345e-05 4.5893434e-05 4.3840973e-05 3.3667162e-05 4.6614117e-05 4.316515e-05 5.1801362e-05 5.541374e-05
2.8132728e-05 2.6797608e-05 3.957267e-05 3.4433022e-05 4.0664854e-05 2.6525386e-05 3.3560333e-05 4.9137376e-05
5.408679e-05 5.6609235e-05 2.5667814e-05 4.2582313e-05 5.117104e-05 6.496843e-05 5.6430148e-05 3.4547884e-05
3.5077297e-05 3.4900615e-05 3.7117446e-05 3.3767694e-05 2.2744081e-05 2.3119377e-05 2.2770393e-05 2.5409581e-05
2.0491805e-05 2.0098385e-05 1.6655866e-05 1.4411723e-05 1.3792554e-05 1.642306e-05 1.7649889e-05 1.3609316e-05
1.09399025e-05 1.3846985e-05 8.3510195e-06 6.048741e-06 1.2672011e-05 7.2658277e-06 1.2643502e-05 1.4117894e-05
1.2168347e-05 2.1568974e-05 2.5766762e-05 2.1852304e-05 1.7567609e-05 6.401099e-06 1.3010439e-05 1.4329565e-05
1.7138056e-05 1.8460518e-05 1.0123142e-05 1.0275654e-05 1.2290844e-05 1.9753092e-05 2.137978e-05 1.7231251e-06
5.359988e-06 1.3281644e-05 1.5965697e-05 2.3676243e-05 2.9196754e-06 6.688634e-06 1.01111145e-05 1.4587344e-05
1.7232349e-05 3.5153807e-06 3.631879e-06 3.3010072e-06 1.3808667e-06 7.350361e-07 1.2978803e-06 1.3279416e-06
9.300631e-07 3.0413133e-07 -2.6055588e-07 4.2877605e-07 -2.9986317e-08 3.6620384e-07 -2.2941718e-07 -3.5614838e-07
5.859974e-08 -2.485677e-07 -2.2748048e-07 -5.395122e-07 -3.2197113e-07 6.5679934e-08 -6.100419e-08 -8.926245e-09
-6.621482e-07 2.0976884e-07 2.8200002e-05 3.2654236e-05 4.027574e-05 5.0530856e-05 5.667708e-05 2.8460114e-05
00000000: 0f2a d438 9b02 f638 40d4 f038 5be4 f838
00000010: 4406 bd38 9c7d c738 4c71 f638 8db3 0839
00000020: c3f2 e438 a30c e238 6d40 f638 a0f9 0639
00000030: dd08 dc38 b8c2 c738 9aba 5938 2242 0a39
00000040: 2a22 1039 8018 c538 3db2 b138 cce8 5e38
00000050: b519 2539 8574 2b39 4bf9 c738 2907 cc38
00000060: 512f 8b38 8db9 3f37 9a06 3e37 a2df e036
00000070: ed83 ad36 c1d8 a236 6243 0737 12c5 2237
00000080: 7ad9 7737 a6aa 2437 0e12 4837 22de 6537
00000090: 7f1c 4337 437b 5737 7c9c 5137 a15f 2437
000000a0: 2247 7237 687d 9337 7b32 b537 95e3 a437
000000b0: 1209 4d37 9697 3137 c3cc 1537 9e3b 4137
000000c0: 3b6d 3c37 bfe7 cc36 9922 9138 bfbe d138
000000d0: d0e2 fa38 4728 1e39 cabc 5039 f4fb 2738
000000e0: 4f23 6338 b3ce 0e39 518b 4439 65d6 6b39
000000f0: 1694 a137 d0a1 2238 872f c338 3ec6 2b39
00000100: b357 5f39 7c82 1738 926f 8938 105f 1839
00000110: 98bb 3639 6105 6539 52aa 9f37 7440 8638
00000120: 3956 0639 8ecf 5739 1a47 7f39 d773 1c38
00000130: c01a 4038 4ded 4a38 9a7f 6438 84ab 9038
00000140: 227f 2738 884e 3438 752c 6e38 e2e3 8d38
00000150: cc9f 9338 cb10 1938 269d 2e38 f2ce 8938
00000160: 371b b138 5210 c038 c1b8 0b38 c907 2538
00000170: e41f 7a38 57ec 8438 856a 9838 f24a eb37
00000180: 0dfc ae37 983e 0c38 b70f 3338 5243 5438
00000190: d16c 9d37 5e07 e837 c710 0438 55b9 f937
000001a0: 514c e237 574b 0738 6880 e137 caed 0c38
000001b0: 4588 1b38 f3d6 c737 1184 1f38 aac8 f437
000001c0: 251e f237 2841 d537 2dcb cf37 896d ef37
000001d0: 7582 0438 6154 f537 1bba e237 2f68 df37
000001e0: 59e2 ca37 42b8 b537 3a72 b837 c5d8 b537
000001f0: 3c3e 9937 2e84 2639 505c 1539 d337 2739
00000200: 905a 0e39 35b3 1e39 910b 0c39 03c5 fe38
00000210: a001 0139 93fa 1539 5870 0f39 2fbf 1539
00000220: 44d6 f438 a97b d538 2343 fc38 c3fa 0339
00000230: f6c5 0139 d312 c938 e2c4 bd38 ecb0 af38
00000240: 3018 d638 8e4b bf38 fa65 5338 2275 a538
00000250: 41e8 ac38 a990 eb38 d0d5 0238 c40a 2138
00000260: 15fa 0e38 b37d 4038 e3e1 3738 d735 0d38
00000270: 8783 4338 3a0c 3538 4a45 5938 0d6c 6838
00000280: 93fe eb37 6dcb e037 d5fa 2538 2d6c 1038
00000290: 8e8f 2a38 d582 de37 22c3 0c38 db18 4e38
000002a0: 40db 6238 b46f 6d38 3651 d737 699a 3238
000002b0: 7ca0 5638 a93f 8838 69af 6c38 82e7 1038
000002c0: f61f 1338 4062 1238 8eae 1b38 c9a1 0d38
000002d0: 8bca be37 7cf0 c137 0c03 bf37 a926 d537
000002e0: d1e5 ab37 f498 a837 33b8 8b37 e1c9 7137
000002f0: 9166 6737 41c4 8937 d90e 9437 9153 6437
00000300: 868a 3737 5950 6837 5b1b 0c37 4af6 ca36
00000310: df99 5437 fccc f336 6d1f 5437 e5db 6c37
00000320: a726 4c37 05ef b437 b325 d837 774f b737
00000330: 275e 9337 06c9 d636 6947 5a37 0369 7037
00000340: b2c3 8f37 a9db 9a37 90d6 2937 9965 2c37
00000350: c634 4e37 71b3 a537 ba58 b337 2146 e735
00000360: f2d9 b336 3ad4 5e37 13ee 8537 589c c637
00000370: a4ef 4336 ee6e e036 e8a2 2937 2abc 7437
00000380: 308e 9037 c8e9 6b36 35bb 7336 df86 5d36
00000390: 3856 b935 4c4f 4535 d432 ae35 ba3b b235
000003a0: 73a9 7935 7e47 a334 87e2 8bb4 8832 e634
000003b0: 4eca 00b3 ac9a c434 b755 76b4 a934 bfb4
000003c0: 18af 7b33 e272 85b4 5c41 74b4 ffd2 10b5
000003d0: 60db acb4 ed0b 8d33 6801 83b3 0a5a 19b2
000003e0: 7abe 31b5 d23c 6134 0b8f ec37 38f6 0838
000003f0: bfed 2838 18f1 5338 8db8 6d38 a1bd ee37
