logs/biosr_ccps_rcan_model-SRCNN_250310_lr0.0001_bs1_Ps256_Npatch128_N100/bestloss.pth (torch, 695018 bytes, 15 tensors)

conv1.weight f4 [64, 1, 9, 9]
000000 b8 56 8c 3d b4 d0 c9 3d e8 43 2b 3d 13 c2 88 3c
       0.06852478 0.0985426 0.041812807 0.016694104
000010 8e fe 48 3d 61 54 e7 3d 5c 64 b8 39 73 13 e1 3d
       0.049070887 0.11295391 0.00035169988 0.10990038
000020 49 92 60 bd d0 62 c7 bd d0 9c d5 3c 35 2c 41 3c
       -0.05482701 -0.09735644 0.02607575 0.011790325
000030 fd 7d c1 3d 0a 32 4b 39 c6 2b 5e 3d f0 56 b6 bd
       0.094478585 0.0001937823 0.054240964 -0.08903301
000040 29 98 0d 3d 34 96 d1 bd 16 38 df bc 29 e6 82 bd
       0.03456894 -0.10233727 -0.027248424 -0.06391556
000050 e4 14 ce 3d 45 9b a7 bd d0 9c cb bc df 2a 46 bd
       0.10062578 -0.08183912 -0.024855047 -0.04838073
000060 78 19 8e 3d 4d f0 cf bd ec 98 aa 3d 4d e9 9e bc
       0.069384515 -0.101532556 0.08329949 -0.019398356
000070 38 51 76 3d 4d 9f d1 3d 6e 9d 3c bd 19 f4 98 3d
       0.06013605 0.10235462 -0.046048574 0.07468433
000080 94 07 8d 3d 64 40 57 3d 73 5e 9d 3d 2a c0 6b 3d
       0.06886211 0.052551642 0.076840304 0.05755631
000090 52 8d de bc ef b0 c3 bc 5b 8f 65 3d e8 b2 c5 bc
       -0.027166996 -0.02388808 0.056044918 -0.02413316
0000a0 20 8d 2b 3d 36 b2 8e bd 5f d2 e4 3c 33 14 d5 bb
       0.041882634 -0.06967585 0.027932344 -0.006502652
0000b0 2b 1e e3 bd 6f 27 c4 bd a0 ee 7f 3c 73 48 97 3d
       -0.110897385 -0.09577834 0.0156208575 0.073868655
0000c0 69 26 0b 3d 25 b2 eb bd ed c9 c2 bd fb 54 34 3d
       0.033972178 -0.11508588 -0.095111705 0.044026356
0000d0 42 e9 9a 3d d4 fd b0 bd 30 f3 aa 3c c8 6d 83 bd
       0.07564022 -0.08642164 0.020867914 -0.064174235
0000e0 0e 3c 86 bd 96 ac 14 bd 13 83 0c bb 9e 4a ca bd
       -0.06554423 -0.036297403 -0.002144043 -0.09877513
0000f0 52 13 74 3c f5 c9 8a 3d a5 9d b5 3d e5 6b fd bd
       0.014897184 0.067768015 0.08867959 -0.12374095
000100 2a 77 8b bd 1b 35 85 3b e9 50 96 3d ce 03 a6 bd
       -0.06809838 0.0040651686 0.07339651 -0.081061944
000110 08 11 94 3d 92 c4 1f 3d 1f 0c 74 bd b4 e3 6e 3d
       0.07229811 0.039005823 -0.059581872 0.058322623
000120 df e6 b0 3d 7b 78 d6 bd 5f a0 e6 bd 76 5b 41 bd
       0.08637785 -0.104721986 -0.11261057 -0.047206365
000130 b4 b8 50 3d 00 08 86 3c f8 25 9f 3d 4b ad c5 bd
       0.050957397 0.016361237 0.07770914 -0.09652194
000140 70 e9 e8 bd 2c a7 b7 3d 18 6e e9 bb cf e3 82 bd
       -0.1137265 0.089674324 -0.00712372 -0.06391107
000150 1b f2 b2 3d 2c 9c 96 bd 81 08 eb bd f0 d5 b9 bd
       0.08737584 -0.07354006 -0.11476231 -0.090740085
000160 7f 60 dd bc 0d c2 f7 bd 4b 96 a0 bb b2 80 bd 3c
       -0.027023552 -0.12097559 -0.004900729 0.023132656
000170 84 c4 1f bd 4b 0d 75 3b 42 71 27 3d 8b a4 d5 bd
       -0.03900577 0.0037391956 0.040879495 -0.10431775
000180 3c 8d 8f bd 14 d6 b3 3c d4 c0 a3 bd 51 99 9a bd
       -0.0700936 0.021952666 -0.079957634 -0.07548774
000190 f0 71 83 3d 76 5c 82 3d 38 df ae 3d 48 cf 71 3d
       0.06418216 0.06365292 0.08538669 0.05903557
0001a0 05 78 40 3d e2 08 6d bd 45 86 5b 3d b1 fd a5 3b
       0.04698946 -0.0578698 0.053594846 0.0050656428
0001b0 7e f3 6d bc 9f 2e a2 3d 57 81 90 3d 25 32 52 bd
       -0.014523385 0.079190485 0.070559196 -0.051317353
0001c0 35 25 fd 3b 47 47 a3 3d 8a 30 78 bd a5 ca c3 bd
       0.0077253827 0.079725794 -0.060593165 -0.09560136
0001d0 6b 1f dc bd ba de 09 3d bc a9 39 bd 64 6d 3d 3d
       -0.1074818 0.033659674 -0.045327887 0.0462469
0001e0 c0 fc 9f 3d a8 9f 5f 3d ec c9 d7 3c 5a 27 06 3d
       0.0781188 0.05459562 0.026341401 0.032752372
0001f0 2a 4d e4 3c 36 6c ec bd a2 d5 fc bd c3 a0 28 bc
       0.027868826 -0.11544077 -0.12345435 -0.010292235
000200 ec 27 d6 3c e6 3a c2 bd b7 9a 6d bd 76 28 db bc
       0.026142083 -0.0948389 -0.058008876 -0.026752692
000210 a1 bf 70 bd 85 c0 86 3d e3 41 eb bd 11 f4 98 bd
       -0.0587765 0.06579689 -0.11487176 -0.07468427
000220 66 bd de bd d8 4b 86 3d f4 13 ac 3d cf 0b bc 3d
       -0.10875969 0.06557435 0.08402243 0.0918194
000230 79 c8 32 3d 2a 11 0e bd 6d c0 6d 3d f5 08 0e 3d
       0.043648217 -0.034684338 0.05804484 0.03467651
000240 a8 0b 1a b9 d6 3b e6 bd 22 3d a0 3d b7 b2 a5 3d
       -0.00014690927 -0.112418815 0.0782416 0.08090728
000250 b1 66 91 3d 70 b2 66 bd d0 b7 b7 3d 22 b6 a9 3d
       0.07099665 -0.056322515 0.08970606 0.08286692
000260 d6 4f 37 bd 88 2e a8 3d 74 07 4c 3c 4f 54 a5 bd
       -0.04475387 0.08212 0.012452949 -0.08072721
000270 7c e9 0a bc e1 38 18 3d ef cb 0e 3d 3a 46 34 3c
       -0.008478519 0.03716362 0.034862455 0.011003071
000280 85 a5 13 3d 91 6d ed bd 74 77 82 3d bc 02 3a bc
       0.036046524 -0.11593164 0.0637044 -0.011353191
000290 42 e7 9e 3d 28 3a cc bd 8e 1b 99 3d 0c 93 8f 3d
       0.07758953 -0.0997203 0.07475959 0.07010469
0002a0 8a 01 cd 3d 3d ca 1a bd ca c3 b1 bd 48 19 97 bb
       0.10010059 -0.037790526 -0.08679922 -0.004611168
0002b0 0b dd e1 bd e2 da 55 3c a3 ce a1 3d da 44 a9 bd
       -0.11028489 0.013052674 0.07900741 -0.082650855
0002c0 fe be e7 bd 56 4c c7 bd e5 bb b0 3c 6a 11 d8 3d
       -0.11315726 -0.09731357 0.02157397 0.105501965
0002d0 47 7a 03 bc a4 1d f1 bd 0a 2e a2 bd ff 8f fc 3c
       -0.008024759 -0.117732316 -0.079189375 0.030830381
0002e0 b3 2f 01 3c 11 7f 18 bd 26 9d 4d 3d 91 fa 15 3b
       0.007884908 -0.037230555 0.050198697 0.0022884945
0002f0 69 29 87 3d dc a9 98 3d d3 db 53 3a d7 f4 76 3c
       0.06599695 0.07454273 0.00080817676 0.015073023
000300 73 3b c6 3d aa 5c e6 bd 07 e8 af 39 43 cb 81 bc
       0.09679308 -0.11248143 0.00033551475 -0.015843993
000310 1c d4 c8 3d cc 5b 0e bd cb b8 1f bd 82 32 ab bc
       0.09806082 -0.034755513 -0.03899459 -0.020898107
000320 79 fc b0 3c cd 16 6d 3c 99 19 a1 bd 0b 26 b8 ba
       0.021604763 0.014470768 -0.078662105 -0.0014049424
000330 0b 0e 1a bd 88 1f bf bd 9f c8 42 3d df 77 ca bd
       -0.03761105 -0.09332186 0.04755461 -0.09886145
000340 93 4f dd ba 48 0f 47 bd 49 1c 17 3d 3f 8b 41 3d
       -0.0016884677 -0.048598558 0.03689221 0.047251936
000350 99 ee 80 3d 79 19 c6 bd 5f 79 38 bd 57 20 b5 bc
       0.06295509 -0.09672827 -0.045037623 -0.022110147
000360 4b 71 ce bd 82 c4 ae bc b8 c7 a4 3d a8 98 b3 bd
       -0.10080203 -0.021333937 0.08045906 -0.08769351
000370 e9 15 c0 3d 66 d3 97 bd 9a e5 82 bd d0 2d 85 bc
       0.09379179 -0.07413368 -0.06391449 -0.016257197
000380 63 23 42 3d d2 fd 88 3d 78 ac 45 3d af c7 e2 3d
       0.04739703 0.066890374 0.048260182 0.11073243
000390 79 91 7b bd 4d de f9 bb 23 1a a1 3d 6b 7e 2c bc
       -0.06141803 -0.0076253773 0.07866313 -0.010528187
0003a0 c5 dc ec 3a 1a 16 ec 3d 7c 38 87 3d 7d 3e 0d bd
       0.0018071166 0.11527653 0.066025704 -0.03448342
0003b0 31 f9 04 bd 96 e6 af 3d ea 3d 95 bb 97 7b cd bc
       -0.03246421 0.08588903 -0.0045545 -0.025083346
0003c0 df 0e cc 3d 3a c2 5d 3d 0f ce 80 3d 39 67 b9 bd
       0.09963774 0.054140307 0.062893026 -0.09052891
0003d0 a0 ed d2 3d 76 be 43 bd 1e ee 45 3d 41 8e b8 bb
       0.102992296 -0.04778906 0.04832279 -0.0056321924
0003e0 bb 60 ce 3d 26 9a d2 bd 88 be c9 bd 43 b7 af bc
       0.100770436 -0.10283308 -0.09850794 -0.02144969
0003f0 91 0b 9d bd de 53 77 3d 34 5c 83 3d 94 9f b9 bd
       -0.07668222 0.060382716 0.06414071 -0.0906364

conv1.bias f4 [64]
000000 ee f3 84 3c 20 4f af 3d ef 67 c8 bc 79 03 75 bd
       0.016229596 0.08560014 -0.024463622 -0.059817765
000010 d8 48 27 3d 6d 71 36 bd 83 ac 8e bd bb ef b0 bc
       0.040840954 -0.044541765 -0.06966498 -0.021598687
000020 b4 ee 8c 3d b9 7f ad 3d f7 8c cf 3d bf 47 5d bd
       0.068814665 0.08471627 0.10134309 -0.0540235
000030 86 f4 a6 3c f2 f2 6a 3d c7 6a 15 3d 50 b7 82 bd
       0.02038027 0.057360597 0.036478784 -0.0638262
000040 3a 6e ba bd 52 21 a5 3c bf 97 50 3d 21 95 e4 bb
       -0.09103055 0.02015749 0.050925966 -0.0069757854
000050 fe 58 0b bc 50 39 49 bd eb 59 06 3d cb ed 97 3d
       -0.008505104 -0.049126923 0.032800596 0.07418402
000060 5c cd a1 bc a8 1f 8a bc 31 bd 16 bd 9e c4 c1 bd
       -0.019751243 -0.016860798 -0.03680152 -0.0946133
000070 32 cc 04 bd bd e2 ab bd f3 ba 09 bd ef 0a 97 3c
       -0.0324213 -0.08392856 -0.033625554 0.01843783
000080 31 a6 6a bd 51 54 33 bd a8 ca 11 3d 51 a1 97 bd
       -0.0572874 -0.043781582 0.03559366 -0.074038155
000090 f4 6f 2c bd 51 77 fd bc ff db cb bd bb a7 72 3d
       -0.042098954 -0.030940684 -0.0995407 0.05924199
0000a0 6f 48 1f 3d 9e 93 c0 3b 43 d6 72 3d 7b ef 9d bc
       0.038887437 0.0058769723 0.059286367 -0.019279232
0000b0 5f 7e 13 bd 60 be a7 3d 39 e1 b5 3d d6 12 9c bd
       -0.03600919 0.08190608 0.088808484 -0.0762078
0000c0 42 15 aa bc 13 55 b6 bd c2 8c 49 bd df 29 cf bd
       -0.02076209 -0.08902945 -0.049206503 -0.10115408
0000d0 fb ce 74 3d 03 7f b2 3d 82 81 4d bd 28 82 5e bc
       0.059767704 0.08715632 -0.050172336 -0.013580836
0000e0 f8 19 ac 3d fc 6e bc 3d 8f 84 c8 3d c1 61 12 bd
       0.08403391 0.09200856 0.097909085 -0.035737757
0000f0 34 cc d1 bd 18 d6 73 3c 5f bf d4 bb 44 7a 91 bd
       -0.10244027 0.014882587 -0.00649254 -0.071033984

conv2.weight f4 [32, 64, 5, 5]
000000 b3 3b 0d 3c a2 7b 0b ba 0d 6f 59 3c 78 43 a7 3c
       0.00862019 -0.0005320852 0.0132711055 0.020417914
000010 2c ca 4c 3c 7a f2 5d bb e0 d3 18 3c ff c5 98 3c
       0.012499373 -0.003386645 0.009327859 0.0186491
000020 d9 5d df bb f7 12 cd bc 11 36 f5 3c 1f 08 5f bb
       -0.0068166074 -0.025033457 0.029933007 -0.003403194
000030 64 30 e8 3a 6d 96 20 3c 74 60 1b bc 16 81 10 3b
       0.0017714617 0.009801489 -0.009483445 0.0022049597
000040 7e 75 d5 3c 26 79 42 3c f3 ec d8 3a 14 ff 0a bc
       0.026057001 0.011869704 0.0016550109 -0.008483667
000050 d7 8e 61 3d 8c c9 69 3d fd 9a 46 3d 98 52 3a bc
       0.055067863 0.057076976 0.048487652 -0.011372231
000060 71 36 0e 3c 2b db 21 3b 0a c0 7f bc 02 e1 da bc
       0.008679972 0.0024697285 -0.0156097505 -0.02671862
000070 16 10 d7 bb 6f 84 8c 3c d9 76 8d 3b ff 81 ec bb
       -0.006563197 0.017152993 0.0043171463 -0.007217645
000080 4c 02 0a bc a7 b6 69 3a c7 76 82 3c f3 88 46 3c
       -0.008423399 0.0008915462 0.015925778 0.012117612
000090 bf 49 31 bc 36 0d 82 3b fb e4 3b 3c 6c a9 cd b9
       -0.010820805 0.00396886 0.011468167 -0.00039226876
0000a0 87 89 35 3c 3f 9b 0b 3c 3f 26 83 bc 11 ce 15 bc
       0.011080152 0.0085209 -0.016009448 -0.009143368
0000b0 c7 a2 89 bc 2d 12 b1 3c 14 6c d4 bb 90 48 29 3b
       -0.016801251 0.021615112 -0.0064826105 0.0025830604
0000c0 10 da 42 bb d4 44 be 3b e4 58 e4 3c ba c1 8b 3c
       -0.0029732026 0.005806545 0.027874418 0.01706015
0000d0 2c 4f c7 3c 68 0e 7a 3c 40 b7 b6 3b 4e b4 4c bb
       0.024329744 0.015262224 0.0055760443 -0.00312354
0000e0 74 2d ea 3c d6 71 b4 3c d7 b0 2d bb 5f a6 4d ba
       0.028586127 0.022026937 -0.002650311 -0.00078449206
0000f0 c5 b4 56 3c 73 e9 e3 bc 2c 9c ba 3b 70 1f b6 3b
       0.013104622 -0.027821278 0.0056948867 0.005557947
000100 52 c5 5a bb 13 11 39 bd de 77 17 bd d1 fe 0c 3b
       -0.0033381772 -0.0451823 -0.03697955 0.0021514187
000110 65 1d d0 bc d5 46 a5 bc cf a3 2a bd cb c1 85 bd
       -0.025404641 -0.020175377 -0.041660126 -0.06531104
000120 79 c6 87 bd 2d c6 82 bd 0c 34 a6 bd 1c 93 84 3c
       -0.066296525 -0.06385455 -0.08115396 0.016183428
000130 61 96 50 3b 89 26 d9 3c 33 1b 2d bd ac c5 7d bd
       0.0031827914 0.026507633 -0.042262267 -0.061956093
000140 0e 64 66 3c 07 08 9b 3c e9 76 6a bd 24 0a d2 bd
       0.014061941 0.018924726 -0.057242308 -0.102558404
000150 02 51 e3 bd 6c c8 1f 3d f0 ff 66 bb f9 dd 02 bd
       -0.110994354 0.039009497 -0.0035247765 -0.03194997
000160 a2 85 94 bd a9 fc 96 bd f2 83 8c 3d 64 dd 6c 3c
       -0.07252051 -0.0737241 0.06861104 0.0144570805
000170 9f 73 30 bc d7 e8 49 bc a8 1a 1a bd cb fb 31 3d
       -0.010769754 -0.01232358 -0.037623078 0.04345302
000180 19 1a b9 3c cb cb a0 3c 78 60 02 3d 84 f0 71 bc
       0.022595452 0.019628426 0.03183028 -0.014766816
000190 0f eb 30 bc 81 8b a5 3c e9 00 de 3c bb 66 8a 3c
       -0.01079823 0.020208122 0.027100043 0.016894689
0001a0 b1 7a 05 3d 12 da 91 3b f6 8e a5 3c f0 87 f5 3b
       0.03258771 0.004451045 0.02020977 0.0074930117
0001b0 18 cd f5 3b b7 18 2e bc 84 cc 93 3a 5c 3a c7 3a
       0.0075012557 -0.01062601 0.001127616 0.0015199888
0001c0 79 ea 23 3c 05 0a b3 3c 1c 11 4a bc 7e 2a 96 3c
       0.010004633 0.021855364 -0.012333181 0.018330809
0001d0 53 85 c9 ba e5 d3 89 bc dc a8 5c 3c 98 df 06 bb
       -0.0015374817 -0.016824672 0.013467994 -0.002058005
0001e0 e6 52 98 3c ea 9f 4b 3c ac 97 9f 3a a0 13 82 bb
       0.018594217 0.012428263 0.0012175939 -0.0039696246
0001f0 6c 0a e2 3c 66 cb d7 bb aa f4 14 bc c9 7a 1f bc
       0.02759286 -0.0065855263 -0.009091536 -0.009733864
000200 ed f2 d9 3c 5e 4f 1f 3c 16 66 00 3d 23 c9 f3 3b
       0.026605094 0.009723512 0.031347357 0.007439749
000210 20 8a c7 3b 0a 49 4f 3c 89 83 c6 3c 13 b3 02 3d
       0.006089464 0.012651691 0.024232643 0.03190906
000220 3d 01 16 3b e2 42 1c 3c 69 c8 58 3c bd f0 3e bc
       0.0022888922 0.0095374305 0.013231375 -0.011654076
000230 ed f4 a1 bb 5e a4 c0 3b cb ea 08 3d fd ed f4 39
       -0.0049425275 0.005878969 0.03342704 0.00046716622
000240 1c 36 80 3c 33 5f 02 3c c5 83 0b 3d f1 57 af 3c
       0.015650801 0.007957268 0.034061212 0.021404238
000250 3c 7f 96 3c 4f 21 08 3c 3c 75 90 3b 18 43 91 bc
       0.018371217 0.008308723 0.0044085067 -0.017732188
000260 79 9b 07 bb 0f 01 e6 bc e8 77 9a ba 43 6e e0 bb
       -0.0020692034 -0.028076677 -0.0011785002 -0.0068490817
000270 f4 c1 e9 3b 28 1e 09 bc 9c 74 d1 bc 74 7f 4f 3c
       0.0071337167 -0.008369006 -0.025568299 0.012664665
000280 89 a7 00 3d 53 4e 9e bb 1f 25 3d 3a 89 09 7a 3c
       0.031409774 -0.0048311143 0.00072153093 0.015261062
000290 6c 5d cb bb a3 36 62 3d 9c 1a d2 3c f7 84 f1 bb
       -0.006206205 0.055227887 0.025647454 -0.007370587
0002a0 60 de e2 bc c4 96 1c bc 2f fc 23 bd a3 42 25 bd
       -0.027693927 -0.00955743 -0.040035423 -0.040346753
0002b0 e7 aa 14 bd 20 b8 47 bd e7 c1 48 bd a4 06 03 3d
       -0.036295798 -0.04875958 -0.049013045 0.031988755
0002c0 40 6f 3a bb 06 97 9a bb d8 f5 d7 bc d2 e0 43 bc
       -0.0028447658 -0.0047177104 -0.026362345 -0.011955457
0002d0 d7 97 0a 3d 02 cc 0f 3c 73 25 02 3c a4 15 98 bb
       0.033836212 0.008776667 0.007943499 -0.0046412516
0002e0 d5 b9 30 bd ee bd 0b 3c 69 4e 2f bc c9 b1 93 bc
       -0.043145973 0.0085291695 -0.010699847 -0.01802911
0002f0 18 d4 cf 38 70 fa bb bc e0 62 73 bb c9 68 06 3c
       9.910035e-05 -0.022946566 -0.0037137792 0.008203694
000300 dc 01 d3 3b e3 42 90 3a aa f6 b4 bc 4d 74 3e 3d
       0.0064394306 0.0011006262 -0.022090275 0.04649763
000310 5c 5c 0c 3c 32 8c 6c bc f4 5c ea 3c 66 62 19 3d
       0.008566942 -0.014437722 0.028608777 0.037447356
000320 9a 29 7a 3c 99 12 f6 bb bd a4 88 3b dd 20 d4 bc
       0.015268708 -0.007509541 0.004170029 -0.025894577
000330 70 30 d0 bb 2d ae 47 b9 ed 74 80 3b ef c4 43 3c
       -0.0063534304 -0.00019043004 0.0039201886 0.011948808
000340 2c 7d c0 bc fd 68 00 3a 3e 26 8b 3b ea bf 2e bb
       -0.023497187 0.0004898457 0.004246502 -0.0026664683
000350 0e 4e c7 bc 89 22 c4 bc 02 1d bc bb 42 33 8c bc
       -0.024329212 -0.023942249 -0.0057407627 -0.017114285
000360 98 d2 af bb 6a 5e a2 3c 0b ba ab 3b d1 31 ab bb
       -0.005365681 0.01982041 0.005240684 -0.0052244444
000370 00 80 a7 3c 23 41 20 3a 8a 84 45 bc 87 ad bb 3c
       0.020446777 0.0006113222 -0.012055526 0.022909893
000380 66 d1 86 3c 79 64 b4 bc 46 af 60 3c 86 d4 13 bc
       0.01645727 -0.022020565 0.013713663 -0.0090228375
000390 43 dc 93 bc 78 5f 95 3c 55 cc 04 bb fd 89 27 bc
       -0.018049365 0.018234 -0.0020263393 -0.01022577
0003a0 85 e8 c6 bb 0e 29 1e bc f9 c1 7c bc 36 c6 b6 3b
       -0.006070199 -0.009653343 -0.015427106 0.005577828
0003b0 27 7a 86 bc 6d 14 e4 3c 51 0b 2f 3b 56 7e fd b9
       -0.016415669 0.027841771 0.0026709626 -0.00048350048
0003c0 b5 47 64 bb fc 50 3d 3c e6 01 98 3c 00 58 d5 3b
       -0.003483278 0.011554953 0.018555593 0.0065107346
0003d0 cc 39 b5 bc e8 56 6d bc c3 86 50 ba 66 27 ab 3b
       -0.022122286 -0.014486052 -0.00079546514 0.0052232025
0003e0 d4 76 07 3c 47 cd 01 3c 1c b3 d4 3b 69 ac db bc
       0.008268077 0.007922477 0.006491078 -0.02681561
0003f0 d3 1e 5b bc 34 b9 17 bd 8f b1 16 bb 6f 18 59 3b
       -0.013374048 -0.037041858 -0.0022994017 0.0033126136

conv2.bias f4 [32]
000000 1f cc 22 3b 35 2e 2d 3a 6e c3 24 bc a3 5d 0d bc
       0.0024840904 0.00066063117 -0.01005636 -0.008628282
000010 48 2f d7 bb 05 ec 6d 3c c9 87 de bc c7 4e 17 bc
       -0.0065669157 0.0145216035 -0.027164357 -0.009235091
000020 87 db ca bc 95 db 96 b8 71 16 91 bc 23 c7 5b 3a
       -0.024762882 -7.193458e-05 -0.017710896 0.00083838607
000030 b2 fa c8 bc f5 2b 20 3c 3c 4d 9b 3c 73 ac 63 bc
       -0.024533603 0.009776105 0.018957727 -0.013896096
000040 f5 a2 6f bc 4f d2 d0 bc 82 f6 6e bc f2 a3 a8 bc
       -0.014626254 -0.025490908 -0.014585139 -0.020585988
000050 da 53 df 3c 99 ed 8e bb 7e 01 06 3b 57 bc 7f bc
       0.027261663 -0.00436182 0.0020447667 -0.015608869
000060 6d 4b a8 3c 3a 53 b9 3c 78 9f b3 bc c8 8c 40 3c
       0.020543778 0.022622693 -0.021926627 0.011752315
000070 a9 92 7e 3b 36 e3 f5 b9 fb 10 98 bc 3a 72 d7 3b
       0.003884474 -0.00046899327 -0.018562784 0.006574896

conv3.weight f4 [1, 32, 5, 5]
000000 a9 06 0f bd 79 49 10 3b 5e 59 ff 39 54 95 2c bd
       -0.03491846 0.002201645 0.00048703974 -0.042134598
000010 99 ff 5b bb 9e eb 47 ba ea 23 de bc 90 2a 0d bd
       -0.0033569096 -0.0007626357 -0.027116735 -0.03446442
000020 f1 e2 23 bd c4 40 95 bc 05 22 fd 3c cd 9b 39 3b
       -0.04001135 -0.01821936 0.03090001 0.0028321624
000030 97 2a d4 3c 1e 9c e3 bc 2c 2d 08 bc 95 ff a0 3c
       0.025899215 -0.027784403 -0.008311551 0.019653121
000040 ba 9d 65 3c 2c 44 b7 bc 98 f2 92 3c 5a 06 0d 3d
       0.014014656 -0.022371374 0.017937943 0.034429885
000050 d5 fd e1 3c c6 4b 37 3d b8 45 4a bc bc 63 a5 3c
       0.027586857 0.044749998 -0.012345724 0.020189159
000060 04 87 07 3d e0 53 1b 3d 44 c6 18 3d 06 2a 04 3d
       0.033087745 0.037921786 0.037298456 0.03226664
000070 aa fb 03 3d 56 4d 13 bc 03 6f 42 3d cd 74 8c bc
       0.032222427 -0.008990606 0.04746915 -0.017145539
000080 d1 62 ab 3c 1e 1f aa 3b 55 8c 3c 3c 9d 0d 76 bc
       0.020921143 0.0051916977 0.011508067 -0.015017894
000090 88 fc 4f 3b 75 43 bc 3c 0f 75 33 3c 6f 34 41 3b
       0.0031736214 0.022981385 0.010953202 0.0029480716
0000a0 80 52 48 3d 0e 2d 9c 3b 81 e2 32 3c aa 26 25 3d
       0.048906803 0.004766113 0.010918261 0.040320076
0000b0 b9 7f ee bb b2 7e cf 3c ac d0 25 3c ef 63 ff 3b
       -0.0072784093 0.025328968 0.010120552 0.0077938954
0000c0 cd b9 01 3d 4d 70 4d 3d 1b d9 be bb 62 03 3c 3b
       0.031671334 0.050155926 -0.005824221 0.002868854
0000d0 78 8c a6 3c 55 50 b4 3c af 53 b3 3c cb 6a a1 bc
       0.020330653 0.022010962 0.02189049 -0.019704243
0000e0 29 7d d5 3c cf 12 ea 3c 8b 66 d6 3c 4d aa 5d bc
       0.026060658 0.028573422 0.026171943 -0.013529372
0000f0 c8 6e 15 bd 24 d2 86 bc 38 3c a7 3c 1e f1 b3 3c
       -0.036482602 -0.016457625 0.020414457 0.02196556
000100 57 29 61 3c 19 90 ee bc 67 cf 31 3c 28 a5 c3 bb
       0.013742766 -0.029121445 0.010852671 -0.005970616
000110 47 fd 06 3d 02 9a 80 3c 6e b1 42 3c c1 3b aa 3c
       0.032956388 0.015698437 0.011883123 0.020780446
000120 f9 2d 81 bb ac 0b 11 3d a6 60 25 bc 4d 62 7f bc
       -0.003942248 0.03541152 -0.010093844 -0.015587402
000130 54 fc 65 3c 0b 23 ec 3c 0f 65 d0 bb b6 15 f0 3b
       0.0140372105 0.028825304 -0.0063597034 0.007326807
000140 94 b3 fe bc 68 90 52 bb d2 29 81 3b 41 a9 dd bc
       -0.031091489 -0.003212953 0.003941753 -0.027058246
000150 d6 67 9b bc 63 68 9b bc eb 43 ce bc c1 70 78 3c
       -0.018970411 -0.018970674 -0.02517887 0.015163601
000160 62 9e 8d bb f5 9b da bc da bc 47 bc 22 23 cb 3b
       -0.004321859 -0.026685694 -0.012191022 0.0061992565
000170 06 13 f0 bc 33 e4 cc bc 92 6d 49 bd 69 46 8c 39
       -0.029305946 -0.025011158 -0.04917676 0.0002675534
000180 74 d0 5e bd 42 f8 01 bd 70 90 64 bd 0b 7c 04 bc
       -0.054398015 -0.031730898 -0.05580181 -0.008086215
000190 4b e0 bb bb e4 ad 62 3c db 08 0a bd ab 1b 47 bc
       -0.005733525 0.013835404 -0.03369985 -0.012152593
0001a0 2a 67 e7 bc 5e 92 00 3d 7f cd e6 bc ff 8f c7 bc
       -0.028247435 0.031389587 -0.02817416 -0.024360655
0001b0 f0 32 68 3c f1 5e ef 3b 09 6e 97 bc 5a 97 ad bc
       0.014172301 0.007305019 -0.018485086 -0.021190334
0001c0 e9 e1 1e bc 20 80 0f 3d f7 25 a8 3c 22 6e a6 bb
       -0.009697416 0.0350343 0.020525916 -0.005079047
0001d0 a2 e5 88 3c b5 63 04 3d d2 14 f5 bc 4b 23 19 3b
       0.01671106 0.03232165 -0.029917154 0.0023366984
0001e0 a3 29 14 3c b2 77 f7 3c 33 74 db bc 15 55 e2 3c
       0.00904313 0.030208442 -0.026788807 0.02762846
0001f0 2e a4 ce bc bb 66 da bc 95 d0 e5 3c 76 59 0a bc
       -0.025224771 -0.026660314 0.028053561 -0.008444181
000200 71 ec f7 ba 6f 87 cd bc f9 b4 71 3c f2 68 bd bc
       -0.001891507 -0.025088994 0.01475262 -0.02312133
000210 64 38 f5 bc 2f eb fb 3c 68 8f a6 3c b4 3d ed bc
       -0.029934116 0.030751793 0.020332053 -0.028960086
000220 2d 9e 41 bc 81 6b fe 3a e0 9f c8 bc f6 b4 e6 bc
       -0.011817497 0.0019410701 -0.024490297 -0.02816246
000230 c5 21 09 3d 78 e6 a3 bc 91 ce a7 3b 79 24 a3 bc
       0.03347947 -0.020007357 0.00512106 -0.019914852
000240 81 76 2b bc 72 b3 84 3c 9a 77 2f bc 9b e9 01 bd
       -0.010465265 0.016198847 -0.010709668 -0.031716924
000250 75 e8 f3 3c cf 16 37 bb c1 38 00 3d b4 a4 5c 3c
       0.02977393 -0.002793718 0.031304125 0.013467003
000260 f3 af 64 bc 51 1f 05 3a 50 78 8a bc d4 1e 15 3c
       -0.013957965 0.0005078214 -0.016903073 0.009101588
000270 7f f1 02 3d 2b 0b a2 bc 55 cb c9 bc cd f5 81 bc
       0.03196859 -0.019780716 -0.02463309 -0.015864277
000280 47 1a 18 bd af 27 0c 3c 0e 54 e3 bb 9e 6d 82 bb
       -0.037134435 0.008554383 -0.0069375103 -0.0039803525
000290 a7 00 cf 3c b3 0a ba 3c 67 4c 0a bc 8e 21 ef bc
       0.025268866 0.02271018 -0.008441067 -0.029190805
0002a0 2a 6c 62 3c 34 1a 0a bc 55 06 af 3a 7f fc 22 bd
       0.013819734 -0.008429099 0.0013353328 -0.03979158
0002b0 31 43 aa 3b 63 48 37 ba c0 67 8a 3c 32 e9 04 3d
       0.005195998 -0.00069916825 0.016895175 0.032448955
0002c0 b4 17 ba 3c 82 67 e5 3c f5 23 02 bc 77 d0 03 3d
       0.02271638 0.028003458 -0.007943143 0.03218123
0002d0 a0 7d 48 3b b1 1d d6 3b 10 5f 32 3c dc e0 06 3d
       0.0030592456 0.006534301 0.0108869225 0.032929286
0002e0 ea 1f 15 bc 9d 29 61 3c b1 cf 06 bd 71 92 0c 3c
       -0.009101847 0.013742832 -0.032912914 0.008579836
0002f0 35 44 df 3c 6a 07 8f 3c 0d 46 a0 3c b5 ac a9 3a
       0.027254203 0.01745959 0.019564653 0.0012945147
000300 cb dd ca bc b6 73 36 3c 14 fb c1 3c b6 51 ff 3c
       -0.024763962 0.011135986 0.023679294 0.031166892
000310 da 0b f4 ba 9a 03 3d bc 5b f1 32 3c e2 95 5e ba
       -0.0018619255 -0.011536503 0.010921801 -0.0008490962
000320 cc 58 c8 bc 47 c7 68 bc 39 39 2c bc e7 e9 6a 3c
       -0.024456404 -0.014207668 -0.01051169 0.014337993
000330 ea 22 06 bd 86 8b 8d bc c7 de e5 bc 2b cb b8 bc
       -0.03274814 -0.017278444 -0.02806033 -0.022557816
000340 d9 8b e0 3c 41 1a 1f bd 13 55 dc 39 00 e8 bd bc
       0.027410435 -0.038843397 0.00042025055 -0.023181915
000350 4c 8e 0b 3d 5e 67 0d bd c9 f4 43 3c b2 7e 00 3d
       0.03407125 -0.034522407 0.011960217 0.031370826
000360 df 9f a9 3c ba 84 96 39 59 0d 96 bb a7 d3 89 bc
       0.020706115 0.00028709118 -0.004579228 -0.016824557
000370 49 bc 9c 3b 79 1a 63 3c ea 77 1b 3d 27 1a 01 bd
       0.0047831875 0.013861292 0.037956156 -0.03151908
000380 7d a6 f5 bc 06 3b ad bc d2 07 08 bd b3 25 34 bc
       -0.029986614 -0.021146309 -0.033210583 -0.010995316
000390 39 c7 d8 bc 42 a8 e0 39 b9 7f 5c 3b dc f0 33 ba
       -0.026462184 0.0004284997 0.0033645465 -0.0006864199
0003a0 b4 46 b6 bb 0e f9 10 3d 49 3c 31 bc cc 7f 69 bc
       -0.0055626277 0.035393767 -0.010817596 -0.014251661
0003b0 cf 9d 8e bb c8 3c 94 3c 61 ce 00 3d 1b 7e 9e bc
       -0.0043523083 0.018095389 0.03144682 -0.019347241
0003c0 35 bf c8 bc bb 7d 7b bc fe 57 ad 39 72 07 c6 3c
       -0.024505237 -0.015349801 0.0003306269 0.024173472
0003d0 bc c0 ea bb 3c aa 04 bd 82 98 11 bd 6d bd b9 3c
       -0.007164089 -0.03238891 -0.035545833 0.022673333
0003e0 59 e0 15 3c 97 4c fc 3c 8d 50 5b bc 67 81 03 bb
       0.009147727 0.03079824 -0.013385904 -0.0020066143
0003f0 ba 72 61 bc 23 c6 2a bd 0d be eb bc d7 c2 91 3b
       -0.013760263 -0.041692864 -0.028777147 0.0044482755

exp_avg f4 [64, 1, 9, 9]
000000 ce 1f e3 ba b5 d5 ed ba c7 56 fe ba 81 d9 03 bb
       -0.0017328204 -0.0018145355 -0.0019404524 -0.0020118656
000010 23 8a 08 bb 5d 6c 07 bb 1c 12 08 bb 3a a8 05 bb
       -0.002083429 -0.0020663955 -0.0020762747 -0.002039446
000020 73 e7 04 bb 92 7f db ba 71 c9 e1 ba 07 2c ef ba
       -0.0020279556 -0.0016746393 -0.0017226172 -0.0018247374
000030 f5 26 fa ba 66 61 02 bb f2 e5 04 bb ff 73 07 bb
       -0.0019085096 -0.001989448 -0.002027866 -0.0020668504
000040 e3 52 05 bb a5 8e 03 bb 4b c5 cd ba 0c 97 d3 ba
       -0.0020343594 -0.0020074036 -0.0015699057 -0.0016143038
000050 65 f4 d7 ba 49 e2 e9 ba 52 0c f3 ba ca 04 fe ba
       -0.0016476033 -0.0017843927 -0.00185431 -0.0019380089
000060 10 34 fa ba 20 b8 00 bb 05 d4 fc ba 44 c2 bc ba
       -0.0019089002 -0.0019640997 -0.0019289261 -0.0014401157
000070 b8 e9 bc ba dc a6 bf ba 35 84 cc ba 8b 51 d4 ba
       -0.0014412915 -0.0014621872 -0.0015603366 -0.0016198618
000080 1d db dc ba 0e 25 e7 ba 5f e6 ec ba 0b 83 f1 ba
       -0.0016849969 -0.0017634945 -0.0018074027 -0.0018425895
000090 06 66 b3 ba 5a 84 b1 ba e3 86 ae ba a4 ad b6 ba
       -0.0013687022 -0.0013543472 -0.0013315346 -0.0013937247
0000a0 11 44 bd ba b7 2d c8 ba 46 f1 d3 ba 91 f2 e2 ba
       -0.0014439841 -0.0015272413 -0.0016169928 -0.0017314722
0000b0 65 0e ec ba a7 48 a7 ba 72 ae a3 ba 4c 4b 9a ba
       -0.0018009661 -0.0012762741 -0.0012487902 -0.0011771708
0000c0 41 b4 a1 ba 5b 0c aa ba 09 8f b3 ba 86 86 bf ba
       -0.0012337045 -0.0012973653 -0.0013699244 -0.0014612235
0000d0 93 b5 cc ba b5 7d dd ba 46 76 9a ba f4 f0 98 ba
       -0.0015618078 -0.0016898426 -0.0011784516 -0.0011668489
0000e0 11 44 97 ba f0 c1 90 ba 87 e5 97 ba 9d ee a3 ba
       -0.0011540671 -0.0011044126 -0.001158879 -0.0012507025
0000f0 85 76 ab ba 44 49 b9 ba 42 b5 c7 ba 90 99 a1 ba
       -0.0013081586 -0.0014136215 -0.0015236514 -0.001232909
000100 7c 8f 98 ba e4 e1 8f ba d0 1b 89 ba 39 e2 8e ba
       -0.0011639441 -0.0010977355 -0.0010460559 -0.001090116
000110 cf 73 92 ba aa fa 9a ba 65 97 b0 ba ad 46 b7 ba
       -0.001117343 -0.0011823971 -0.0013472853 -0.0013982855
000120 ea 21 95 ba c0 6b 9d ba 79 9f 99 ba 92 43 93 ba
       -0.0011377905 -0.0012010261 -0.00117205 -0.0011235347
000130 74 72 8a ba 22 db 8f ba 53 c4 95 ba 4d b0 a4 ba
       -0.0010562674 -0.0010975341 -0.0011426307 -0.0012564749
000140 dd 53 b4 ba 4e 38 bc 39 52 a0 cd 39 94 51 d5 39
       -0.0013757903 0.00035900105 0.00039220095 0.00040687306
000150 77 8a e0 39 c0 03 e1 39 06 6b dc 39 35 c7 d4 39
       0.00042827774 0.00042918138 0.0004204141 0.00040584212
000160 dc 70 cd 39 e4 fb c4 39 a5 41 c6 39 4c 66 cf 39
       0.00039184734 0.00037571706 0.00037814412 0.00039558334
000170 1d 6c e2 39 43 bc ed 39 55 bf ef 39 8d 8b ed 39
       0.0004318663 0.00045344429 0.00045728186 0.00045308136
000180 9c e8 d9 39 f2 23 d3 39 fa df c5 39 ee ef c8 39
       0.00041562773 0.00040271837 0.00037741644 0.00038325734
000190 d0 5e de 39 ae 52 f5 39 8c ed 03 3a 58 07 03 3a
       0.0004241378 0.00046791643 0.00050326507 0.0004998348
0001a0 e5 6a fc 39 db ab ee 39 1e 1b df 39 28 5d da 39
       0.00048144828 0.0004552294 0.00042554078 0.00041649607
0001b0 ae 9a cd 39 d4 94 e5 39 d2 5a fe 39 da 6a 03 3a
       0.00039215892 0.0004378917 0.00048514322 0.00050131755
0001c0 b0 48 08 3a 08 45 08 3a 09 78 f1 39 13 14 e4 39
       0.00051988196 0.0005198275 0.00046056535 0.00043502505
0001d0 74 7c e0 39 ee d3 c9 39 3c be e0 39 6e 70 00 3a
       0.00042817334 0.00038495607 0.00042866345 0.0004899566
0001e0 83 94 0c 3a 25 07 0f 3a da e0 0d 3a 97 1e 03 3a
       0.0005362706 0.00054560817 0.00054122286 0.00050018117
0001f0 d4 58 f4 39 c0 c8 ed 39 42 59 cb 39 f9 b2 da 39
       0.0004660549 0.00045353733 0.0003878568 0.00041713545
000200 f0 a8 fc 39 d3 f9 05 3a 4a af 0b 3a d9 c6 0e 3a
       0.00048191054 0.0005110774 0.00053285493 0.0005446501
000210 76 75 0a 3a 6f df 02 3a 7a 01 f7 39 27 5c cc 39
       0.0005281785 0.00049924006 0.0004711261 0.0003897857
000220 7c 42 db 39 87 60 f6 39 2d 85 06 3a 68 0c 0f 3a
       0.0004182047 0.00046992695 0.0005131539 0.0005456866
000230 3a e9 0c 3a 6e 99 06 3a cf df 08 3a b0 5b 00 3a
       0.00053753296 0.0005134557 0.00052213384 0.0004896475
000240 86 c7 c6 39 45 c7 d6 39 db 3e f0 39 67 d4 00 3a
       0.0003791416 0.00040965728 0.00045823198 0.0004914463
000250 42 38 0a 3a bd 16 09 3a 43 0b 06 3a b7 17 04 3a
       0.00052726653 0.00052295235 0.00051133725 0.0005038934
000260 11 a1 f3 39 12 56 c6 39 dc 9a cd 39 70 82 e6 39
       0.00046468576 0.0003782963 0.00039216026 0.00043966202
000270 16 b6 f3 39 44 55 04 3a 43 ea 06 3a da b7 00 3a
       0.00046484236 0.0005048106 0.0005146602 0.00049102085
000280 12 a6 f1 39 00 4e ed 39 94 b8 85 b7 79 46 28 b8
       0.00046090834 0.00045262277 -1.5940786e-05 -4.0119954e-05
000290 ee c7 84 b8 d9 9e ae b8 0b b9 ed b8 c5 de 15 b9
       -6.33149e-05 -8.326554e-05 -0.000113355076 -0.00014292735
0002a0 aa b2 30 b9 27 2a 74 b9 af e1 98 b9 b0 37 04 b8
       -0.00016851226 -0.00023285356 -0.00029159847 -3.1523115e-05
0002b0 29 9c 8c b8 13 48 b2 b8 40 21 13 b9 96 fd 65 b9
       -6.704807e-05 -8.501126e-05 -0.00014031399 -0.0002193361
0002c0 51 03 68 b9 69 0c 83 b9 be 17 ac b9 60 30 b7 b9
       -0.0002212648 -0.00024995513 -0.00032824086 -0.00034940522
0002d0 b5 36 a1 b8 a9 8f de b8 56 4a 2a b9 b7 d4 79 b9
       -7.687268e-05 -0.00010612544 -0.00016240156 -0.00023825733
0002e0 cf a1 9e b9 cc 85 b0 b9 7f 16 b7 b9 5c 8d d1 b9
       -0.00030256665 -0.00033669022 -0.0003492124 -0.00039968907
0002f0 27 cc e7 b9 65 48 f7 b8 82 b1 43 b9 59 f9 8c b9
       -0.0004421186 -0.00011791362 -0.00018662776 -0.0002688866
000300 04 4e a8 b9 77 a0 d6 b9 e2 8e ea b9 9d 2f 05 ba
       -0.00032101583 -0.00040936816 -0.00044738414 -0.00050806423
000310 9a fb 08 ba 7d 06 11 ba 58 4a 26 b9 7a 10 6f b9
       -0.000522548 -0.0005532278 -0.00015858689 -0.00022798954
000320 0e 71 ae b9 2c 43 da b9 2f 24 0c ba c2 d9 1a ba
       -0.00033272099 -0.00041630247 -0.0005345968 -0.0005907082
000330 d0 94 2a ba f8 98 2d ba f6 85 31 ba 82 72 67 b9
       -0.000650716 -0.00066222204 -0.0006771976 -0.00022072534
000340 7b a2 a0 b9 aa 87 db b9 4c 6c 0d ba 44 85 27 ba
       -0.00030638636 -0.00041872013 -0.00053948606 -0.00063904026
000350 41 2e 39 ba d1 4f 47 ba a8 a8 47 ba b9 02 45 ba
       -0.00070640823 -0.0007603141 -0.00076163793 -0.00075153593
000360 fb f9 7a b9 31 03 b2 b9 c3 fc f7 b9 a7 53 1e ba
       -0.00023934983 -0.00033953183 -0.00047299833 -0.0006039687
000370 e8 b2 37 ba 78 ee 49 ba 4e 5f 55 ba d7 52 56 ba
       -0.0007007555 -0.0007703076 -0.00081395067 -0.0008175796
000380 0e 1a 51 ba 1d 08 84 b9 71 44 b5 b9 12 bd fd b9
       -0.00079766 -0.00025183047 -0.00034574003 -0.0004839679
000390 1d 0f 27 ba 6a 0b 40 ba e5 12 58 ba 2f a1 59 ba
       -0.00063727965 -0.00073259196 -0.00082425616 -0.00083019113
0003a0 5b e5 58 ba 0e 00 59 ba 77 07 99 b9 a5 27 cf b9
       -0.0008273923 -0.0008277901 -0.00029187996 -0.00039511654
0003b0 51 c7 ff b9 f2 81 1e ba 0c 72 36 ba ed e5 49 ba
       -0.00048785892 -0.0006046585 -0.00069597433 -0.0007701803
0003c0 59 67 4f ba a9 86 59 ba ae fe 4b ba 67 a4 56 ba
       -0.00079118233 -0.0008297959 -0.00077817857 -0.000818795
0003d0 f5 6e 5c ba bd 30 4e ba 23 f0 5a ba d4 a0 65 ba
       -0.0008408868 -0.0007865539 -0.0008351823 -0.0008759622
0003e0 66 ae 6e ba 1a 36 69 ba 91 f5 6c ba ae ea 7a ba
       -0.0009104967 -0.00088963064 -0.0009039278 -0.0009571713
0003f0 4f 09 59 ba 04 77 4d ba e6 61 46 ba 4a 37 40 ba
       -0.000827928 -0.0007837864 -0.00075676886 -0.00073324575

exp_avg_sq f4 [64, 1, 9, 9]
000000 aa 94 75 38 40 44 82 38 6f 76 8a 38 7f e1 90 38
       5.8551006e-05 6.2115956e-05 6.602413e-05 6.908457e-05
000010 a2 21 95 38 b8 41 95 38 9f e3 92 38 c4 49 8d 38
       7.111138e-05 7.117115e-05 7.00422e-05 6.737144e-05
000020 06 0b 87 38 6e 22 71 38 ee 4d 7e 38 19 98 86 38
       6.439355e-05 5.7490943e-05 6.0630897e-05 6.417948e-05
000030 b7 35 8d 38 69 a7 92 38 c9 04 94 38 c9 11 93 38
       6.733409e-05 6.993005e-05 7.058081e-05 7.012819e-05
000040 d7 7d 8d 38 10 83 87 38 b7 3b 64 38 16 0c 6f 38
       6.7468434e-05 6.461714e-05 5.441505e-05 5.6993296e-05
000050 a9 bb 78 38 88 ca 83 38 54 7c 88 38 98 bf 8b 38
       5.930258e-05 6.284291e-05 6.508143e-05 6.6637236e-05
000060 2e 7d 8b 38 25 99 89 38 62 b9 83 38 bf e2 54 38
       6.651353e-05 6.5611945e-05 6.281097e-05 5.0755913e-05
000070 2a 3b 59 38 89 1d 5f 38 5a 45 69 38 c7 aa 70 38
       5.1791932e-05 5.319485e-05 5.5616118e-05 5.7379508e-05
000080 32 d2 78 38 41 bf 7e 38 9d fc 7e 38 4e 39 7a 38
       5.9323567e-05 6.0736438e-05 6.0793584e-05 5.9658014e-05
000090 da a7 46 38 d7 72 47 38 49 48 48 38 24 71 4d 38
       4.7363203e-05 4.755225e-05 4.7751037e-05 4.898118e-05
0000a0 cb cd 52 38 f7 b9 5b 38 36 36 62 38 16 d1 67 38
       5.025956e-05 5.2386862e-05 5.3933087e-05 5.526942e-05
0000b0 b8 be 69 38 90 fb 3c 38 9c a0 39 38 17 e0 37 38
       5.572915e-05 4.505698e-05 4.4257016e-05 4.38393e-05
0000c0 8b 34 39 38 e6 6f 3d 38 4d c1 42 38 98 eb 48 38
       4.415637e-05 4.5165325e-05 4.643323e-05 4.790313e-05
0000d0 28 2a 50 38 c8 97 56 38 39 87 35 38 47 12 33 38
       4.9630326e-05 5.1162933e-05 4.32797e-05 4.2693948e-05
0000e0 1a 68 30 38 de 99 2e 38 09 e4 2e 38 56 3e 32 38
       4.2058622e-05 4.1628133e-05 4.1697207e-05 4.2496562e-05
0000f0 53 30 37 38 54 6f 3e 38 e3 98 45 38 69 91 34 38
       4.3675605e-05 4.5403212e-05 4.7110847e-05 4.3050768e-05
000100 8d 78 30 38 95 bb 2b 38 9b 4b 28 38 c5 1f 28 38
       4.207394e-05 4.0944276e-05 4.0124734e-05 4.008391e-05
000110 08 dc 27 38 4d b8 2c 38 ce 3c 35 38 26 75 3b 38
       4.0020823e-05 4.117964e-05 4.321039e-05 4.4693377e-05
000120 d0 ce 31 38 ad 70 30 38 8a 70 2c 38 32 98 27 38
       4.2392698e-05 4.2066607e-05 4.1112806e-05 3.9957646e-05
000130 3f 7e 24 38 bd 62 25 38 57 92 28 38 d9 b4 30 38
       3.9218223e-05 3.9431023e-05 4.019061e-05 4.2130097e-05
000140 cb 4e 38 38 47 79 43 37 4a 7d 42 37 12 0b 41 37
       4.39424e-05 1.1651143e-05 1.1592472e-05 1.1506274e-05
000150 04 a5 3f 37 b2 9e 3a 37 19 5c 36 37 fc 2a 33 37
       1.1422908e-05 1.1123413e-05 1.08694885e-05 1.06792395e-05
000160 fb ed 30 37 28 a2 30 37 25 90 47 37 6c 1e 49 37
       1.0545827e-05 1.0528172e-05 1.1894886e-05 1.1987617e-05
000170 51 f8 47 37 c9 5a 46 37 df 9b 41 37 35 bb 3b 37
       1.191914e-05 1.1822857e-05 1.1539988e-05 1.1189656e-05
000180 80 2d 37 37 8c a0 33 37 d4 68 32 37 e0 16 4c 37
       1.0918244e-05 1.0706612e-05 1.0634034e-05 1.21646735e-05
000190 9a 6b 51 37 32 e2 52 37 0d 3e 52 37 eb e3 4c 37
       1.2482424e-05 1.2569641e-05 1.2531423e-05 1.2212414e-05
0001a0 ed 0c 45 37 b2 c8 3d 37 84 e2 37 37 fa ae 35 37
       1.17451245e-05 1.1312006e-05 1.096039e-05 1.0829181e-05
0001b0 04 3a 52 37 4c da 5b 37 84 28 5e 37 91 a2 5c 37
       1.2530483e-05 1.3104243e-05 1.3241664e-05 1.3150872e-05
0001c0 64 d4 57 37 c2 79 50 37 59 9d 46 37 fb 26 3e 37
       1.286445e-05 1.2426115e-05 1.1838355e-05 1.1333958e-05
0001d0 87 56 39 37 bc ef 58 37 5a 64 60 37 c8 87 68 37
       1.10470055e-05 1.2930421e-05 1.3374805e-05 1.3859892e-05
0001e0 cd 4d 69 37 30 3f 65 37 6d 45 59 37 f3 d6 4e 37
       1.3905997e-05 1.3664176e-05 1.2950372e-05 1.2328604e-05
0001f0 c0 cb 44 37 f9 bb 3d 37 7a 1e 58 37 9b c8 63 37
       1.172995e-05 1.1309044e-05 1.2881699e-05 1.35769615e-05
000200 d1 9c 6c 37 3f 6c 6b 37 27 a8 68 37 7f ad 5f 37
       1.4103208e-05 1.40322945e-05 1.3867429e-05 1.3332231e-05
000210 d3 97 54 37 9e 03 4a 37 fb b9 42 37 8d c8 56 37
       1.2671534e-05 1.204098e-05 1.1606603e-05 1.2802088e-05
000220 d3 43 60 37 0a 2e 6b 37 e7 bb 6c 37 d3 d5 68 37
       1.3367232e-05 1.4017811e-05 1.4110446e-05 1.3878062e-05
000230 fb 45 61 37 e5 df 56 37 fd 11 4e 37 da 34 47 37
       1.3427339e-05 1.28075235e-05 1.2282745e-05 1.187363e-05
000240 ca ac 52 37 d9 07 5a 37 dd 7d 63 37 8d 88 65 37
       1.2557206e-05 1.299564e-05 1.3559559e-05 1.3681257e-05
000250 aa 0e 63 37 91 34 5c 37 de 90 55 37 31 09 4e 37
       1.3533669e-05 1.3125261e-05 1.2729519e-05 1.2280697e-05
000260 06 83 46 37 9b d0 4c 37 ce 59 52 37 90 38 56 37
       1.1832226e-05 1.2207917e-05 1.2537885e-05 1.27685635e-05
000270 6a 86 5a 37 48 e8 58 37 02 87 54 37 a3 3b 4f 37
       1.3025108e-05 1.29286855e-05 1.2667619e-05 1.2352047e-05
000280 6f c2 4a 37 57 47 44 37 c2 3f f1 37 74 a0 f3 37
       1.2085408e-05 1.16991205e-05 2.8759128e-05 2.9042574e-05
000290 ff ea f7 37 59 49 f7 37 93 a5 fb 37 97 c0 fb 37
       2.9554123e-05 2.947885e-05 2.9998633e-05 3.0011213e-05
0002a0 83 26 fe 37 c0 1f fe 37 35 22 00 38 34 65 f4 37
       3.0297093e-05 3.0293944e-05 3.0549436e-05 2.9134193e-05
0002b0 91 db f6 37 e0 39 ff 37 bb 41 01 38 9c 2a 00 38
       2.9427729e-05 3.0425319e-05 3.0817213e-05 3.055726e-05
0002c0 e7 f3 ff 37 cb b7 00 38 29 f1 02 38 74 ea 04 38
       3.0511945e-05 3.068875e-05 3.1219013e-05 3.1689604e-05
0002d0 18 58 f9 37 cb 22 fe 37 26 3b 03 38 ef d7 06 38
       2.9724135e-05 3.0295361e-05 3.128792e-05 3.2149193e-05
0002e0 a2 94 07 38 c9 0c 07 38 f9 20 09 38 ae 04 09 38
       3.2324933e-05 3.2198415e-05 3.2694054e-05 3.2667704e-05
0002f0 1c 64 0a 38 da 94 ff 37 da fc 03 38 a2 9b 09 38
       3.2994998e-05 3.0467683e-05 3.146832e-05 3.280829e-05
000300 63 09 0f 38 8a 93 0e 38 47 00 12 38 0b fd 11 38
       3.41026e-05 3.3992845e-05 3.480937e-05 3.480636e-05
000310 06 93 13 38 77 bf 10 38 b5 c0 00 38 dc 2e 07 38
       3.5184457e-05 3.451059e-05 3.069705e-05 3.223015e-05
000320 f5 19 0f 38 df cd 16 38 6b 7e 1a 38 19 30 1f 38
       3.411803e-05 3.595452e-05 3.6834197e-05 3.795335e-05
000330 aa ac 1e 38 ee 75 1c 38 5d 3c 1c 38 a8 71 01 38
       3.783094e-05 3.730313e-05 3.7249516e-05 3.0861847e-05
000340 9a 36 0a 38 42 fd 13 38 4d 56 20 38 85 1f 2a 38
       3.2952616e-05 3.5283396e-05 3.8227347e-05 4.0560513e-05
000350 70 b5 2f 38 99 9a 2c 38 e3 54 2b 38 ef 60 26 38
       4.189223e-05 4.1151976e-05 4.0848634e-05 3.966776e-05
000360 7f 66 02 38 eb 84 0b 38 d1 e5 18 38 2f 7a 24 38
       3.1089872e-05 3.3263972e-05 3.6453657e-05 3.921444e-05
000370 65 de 34 38 31 34 39 38 61 c1 3a 38 b7 22 38 38
       4.3122465e-05 4.4156044e-05 4.4525954e-05 4.390135e-05
000380 78 77 31 38 e0 43 04 38 4c 84 0c 38 70 67 19 38
       4.2311352e-05 3.1534466e-05 3.3501812e-05 3.6574376e-05
000390 ac ed 25 38 d5 21 35 38 63 e7 40 38 61 03 42 38
       3.9560415e-05 4.318527e-05 4.5991863e-05 4.625635e-05
0003a0 f2 27 3e 38 42 1e 37 38 ee a2 04 38 39 d5 0a 38
       4.5336732e-05 4.365878e-05 3.1622993e-05 3.3100343e-05
0003b0 79 38 15 38 48 c8 23 38 9c da 2f 38 75 51 39 38
       3.5576963e-05 3.9048755e-05 4.1926847e-05 4.41833e-05
0003c0 f6 22 3f 38 1e 7b 3b 38 61 8f 33 38 a2 8d c7 37
       4.557051e-05 4.4698936e-05 4.2810458e-05 2.3788602e-05
0003d0 ed 22 d9 37 81 b7 c8 37 54 0d d0 37 53 6d ca 37
       2.588468e-05 2.3927309e-05 2.4801739e-05 2.4131185e-05
0003e0 f8 f7 d4 37 1c 81 c4 37 c3 92 c7 37 4f 5e d0 37
       2.5387839e-05 2.3425142e-05 2.379099e-05 2.4839448e-05
0003f0 6d 4b c9 37 e4 12 d5 37 1b df d1 37 3a b9 c3 37
       2.399619e-05 2.5400375e-05 2.5018633e-05 2.3332064e-05

exp_avg f4 [64]
000000 3f 2f a1 bb c2 df a2 3a a8 4a 32 ba 0a 6c 40 bb
       -0.0049189623 0.0012426304 -0.0006801286 -0.0029361271
000010 8c ba c1 bb 72 9a 69 bc 05 3d 02 bc 0a 8c 66 bc
       -0.0059121307 -0.014258014 -0.0079491185 -0.014071474
000020 e8 70 54 3a 06 9b 0f 3b 15 e5 0b 3a b9 ac be 3a
       0.00081039825 0.002191247 0.0005336565 0.0014547325
000030 f4 65 08 bc 83 0e c1 3b 9f 41 f1 39 31 b7 89 ba
       -0.008325089 0.0058916225 0.00046015994 -0.0010506866
000040 02 36 90 bd 9f 66 56 3b cb 9c 14 3c c5 f3 d6 b8
       -0.07041551 0.0032714976 0.0090705855 -0.00010249721
000050 1f 82 ca 3a 84 24 c2 bc 17 dc c3 bb 82 4a de 3a
       0.0015450156 -0.023699053 -0.0059771645 0.0016959461
000060 cd 8c 09 bc 08 c1 41 bc e0 67 c2 bc 8a 4b f9 bb
       -0.008395386 -0.011825807 -0.023731172 -0.007607882
000070 58 e8 3a bc ec cc a3 b9 28 90 58 ba e4 a7 93 ba
       -0.011407934 -0.0003124246 -0.0008261227 -0.0011265245
000080 5c f3 52 b9 ca cb a3 ba 6f fe 3a 3c 4f f6 93 bc
       -0.00020117819 -0.0012496647 0.011413201 -0.018061785
000090 94 f0 0a bc 82 16 b6 ba 86 cf 00 80 22 bc 8d bb
       -0.00848021 -0.0013892206 -7.4445e-41 -0.0043254057
0000a0 f1 37 12 bc 4b 49 20 a3 3e 8d 47 3b 92 64 70 3c
       -0.00892447 -8.689138e-18 0.0030449177 0.014672415
0000b0 e0 75 80 10 a6 75 90 3b 9d b3 a2 b9 0e 8e df bb
       5.0668713e-29 0.004408556 -0.0003103287 -0.006822354
0000c0 51 63 0a 3c 5c 1d 03 bc b8 2e d3 ba d3 ac 29 bd
       0.00844653 -0.008002605 -0.0016111946 -0.041424584
0000d0 35 a4 2e bb de bb 5d ba a7 fa 71 ba 18 0a c3 3b
       -0.0026648168 -0.00084584753 -0.00092307705 0.005952131
0000e0 fa c2 27 39 8d 96 5f bb c3 be 8f bb 7c 3e 24 3b
       0.00015998996 -0.0034116835 -0.0043867542 0.0025061658
0000f0 51 44 11 bb 6a 34 8f 3a f0 71 d7 bb da c7 9b 3c
       -0.0022165964 0.0010925655 -0.0065748617 0.019016195

exp_avg_sq f4 [64]
000000 cb 9b 04 3a b6 35 f1 38 52 fa a2 39 2e 32 62 39
       0.00050586154 0.0001150178 0.0003108555 0.00021571733
000010 96 ca ce 3b 1e 94 0a 3c 33 71 02 3b 48 b6 e0 3b
       0.006310771 0.008458165 0.0019903898 0.006857667
000020 69 1e b7 39 8e d7 bd 39 0b b7 10 39 61 63 d4 36
       0.00034927137 0.0003620949 0.00013801099 6.3296616e-06
000030 3e 8b 0d 3a 61 f2 2b 3b 83 f8 f9 38 c3 34 1e 38
       0.0005399472 0.0026236998 0.00011919534 3.7719274e-05
000040 04 1d 81 3d 02 d5 3a 3a e6 d0 c1 3b 7d 6a 35 36
       0.063043624 0.00071270776 0.005914795 2.7033086e-06
000050 c4 f2 c1 39 12 58 7d 3c aa 51 93 3a aa be d6 38
       0.00036992703 0.015462892 0.0011239548 0.00010239829
000060 3b aa 91 3b fb 0a ff 3b e9 0a 4d 3c fc ca 78 3b
       0.004445342 0.0077832914 0.012514808 0.0037962785
000070 3e 56 1f 3b 92 e8 32 3a 25 10 85 39 3c 4d 46 39
       0.002431288 0.0006824817 0.00025379765 0.00018911524
000080 9a 1b 0d 38 fb 3b ca 38 b3 c8 fb 3b 83 0e b2 3b
       3.3642726e-05 9.643283e-05 0.0076838373 0.005433859
000090 ea 35 66 3b 94 4e 30 3a 9d 98 da 20 c6 bc 99 3a
       0.003512735 0.0006725576 3.7031627e-19 0.0011729233
0000a0 4d 5f 81 3a 62 c6 ad 23 4b ad 64 3a 7e 96 1e 3b
       0.0009870321 1.8840716e-17 0.00087233324 0.0024198587
0000b0 9f 52 ad 20 57 00 8f 3a f9 41 00 3a 0a f9 30 3b
       2.9362014e-19 0.0010910135 0.0004892643 0.0027003908
0000c0 b5 78 c5 3a 25 a2 86 3b f2 9f a1 39 49 eb 10 3d
       0.0015065881 0.0041086846 0.00030827482 0.035380635
0000d0 11 45 82 3a 73 0a 7d 3b b3 41 82 39 ec 1d 37 3a
       0.0009938796 0.0038610965 0.00024844482 0.00069853547
0000e0 4d 43 41 3a b5 b1 bc 3a f8 cf 0c 3a 26 11 0e 3a
       0.00073723943 0.0014396223 0.0005371566 0.00054194254
0000f0 54 7b c6 39 e0 e3 38 38 b2 21 68 3b a7 e1 8d 3b
       0.0003785739 4.4081244e-05 0.0035420475 0.0043298784
